models/net_augm/model_epoch_56.pt (torch, 517807 bytes, 16 tensors)

conv1.weight f4 [8, 3, 5, 5]
00000000: f67d f13c 20f5 68bc 9735 9bbc 73de 8d3d
00000010: 8019 1a3e 71ca 923d 72a8 7ebd d01f 19bb
00000020: 6c30 05ba 6c0b 743e 05bc 9abd fb7e b4bd
00000030: 2fb5 1bbe 0959 653d 9a29 e33d 547e 48bd
00000040: 8271 c3bd ad49 6bbd 338f 35bd 33d4 523d
00000050: feaf eebd 98f4 5a3d 7125 8abc e7ff 653b
00000060: 7a10 a9bb 5a82 803d 71de 583d 18fd 04be
00000070: 07e9 75bd 673d 5c3d 8951 d7bd 6d4b 9ebd
00000080: fc24 613b 0ca3 bc3b 07bd 443e c636 1ebe
00000090: 851f adbb a439 65bd 0fff b6bc 67b4 863e
000000a0: 8f40 8abd aab6 b0bd 0886 cf3c afd1 d8bb
000000b0: 5d02 013e 0b71 5bbd 38cc a8bd a6bb bbbd
000000c0: 9191 7b3d 92ff c23d 7071 84be ac8e 49be
000000d0: 688d e9bc c485 5dbc 5f97 3d3e dae0 a6be
000000e0: 20cc 6cbe 8cd7 f5bd 00fe 193d 047f 3f3e
000000f0: 878b 31be c2bf 47be 9745 ac3d d758 6e3e
00000100: f6ca 8f3e 5fd4 69be 0d3c 63bd d27f f9b9
00000110: 4b5d 6c3e b03d 9c3e 3452 f5bd f3b6 80bd
00000120: 2537 5a3d c4e8 cf3d debe 043e 4cbd 28be
00000130: 90b5 4cbe 523e 9dbd f480 7e3b e8e7 273e
00000140: 44b9 88be 0398 bebe 1e69 91be 060e 2ebd
00000150: 0b67 90bc e3e6 37be ce7b 41be dd1f 73be
00000160: a1ea 19bd e9d8 4a3e ca33 42be 3b36 3cbe
00000170: 6943 5abd 5482 2c3e 0e66 a53e e036 4e3b
00000180: 37b1 70bd 1a72 e63d 05b2 a13e ad74 cc3e
00000190: db43 573d 7616 453d d8f1 39bc 50fc 54be
000001a0: aed5 52be eff5 e4bd 0298 973c 6c42 dabc
000001b0: dcc8 7abe 1aee 69be f28f 343e afff 863e
000001c0: 607c d43d 8e60 c4bc 4ac8 f6bc 0785 e93b
000001d0: 039f ec3d 11cc 05bc 7593 03bd 0e1b 07be
000001e0: f93d 923d 134d 7ebc a52a b63d 61b3 c7bd
000001f0: 9230 9b3d b261 4e3e c33d 403e 43d1 aa3e
00000200: 8b1d 713e 613c 403e d782 863e 9b3e 883e
00000210: 9094 903e 79ca d73d 0299 e33d 247a 2c3e
00000220: 5f80 a23d d3f6 163e 03fc 763d 9c82 febd
00000230: e62c 2fbc 130e 4c3b 9c47 b9bd 2c5b 4bbe
00000240: ad96 8abe fdfd 46bd b76a d4bb f671 23be
00000250: 19fa 8cbe 72c4 4bbe ae56 cd3d 1406 0d3e
00000260: 6a06 163c e07e b5bd 83b3 32bd f894 713e
00000270: d33c 58bd f01a 69be f94d dabd 7c02 a33d
00000280: 44cf eb3e 8c1e 01bf d067 96be f53a 703e
00000290: 3a1a 2b3d fe85 0ebd e139 00bf 2cf0 a33d
000002a0: 9a55 8c3e 484f c7bd e7b7 913c ed6a 92bb
000002b0: ddc3 733e 6069 fbba 7f99 103d 4376 813e
000002c0: 8f4d a13d e89a 3dbe c3a4 b7bd 037b 253e
000002d0: 780d f73e c403 26be d5cf 0dbf 5a93 27bc
000002e0: 9453 da3c 54bf e43e 446d 0abf 5207 95be
000002f0: e143 ba3e 1c93 4b3e e613 b93d df9a 11bf
00000300: dc45 e43c 0876 ac3e cdd1 12bc 3cf0 423d
00000310: aae6 86bd 1a61 0b3e b722 e3bd 5885 c83c
00000320: 0621 d1bd 696d 07bd 2720 583d cc14 0d3e
00000330: 0501 10be 180a 453e bdaf d3bd f621 48be
00000340: 3b42 463e 1367 7ebd 2deb 9e3e bb61 06bf
00000350: bc03 0dbd 05a1 ca3e eb73 3cbe 6119 bcbc
00000360: 12c5 afbe fa0f 653e 2488 873e c7f3 95be
00000370: 1623 fabc e7cc 5ebd 7a29 6f3e 1ac1 f43d
00000380: 79b0 90bd af6b 22be df78 88be 7534 64be
00000390: b840 c8be c3af 91be 18dd 403d e048 b3bc
000003a0: beca 0bbd 4b8e 00bd a27e af3d 281e 263e
000003b0: 00b3 8c3e b886 7d3e 7bb3 3a3e cd26 c83d
000003c0: e2da a8bd 32e5 913d 9a6c cb3d 0e9b ef3d
000003d0: 2243 0d3e deb5 cd3d 29fa 18bd 86e8 b1bb
000003e0: f5ca d5bd b084 e73d 1933 883d b599 2cbe
000003f0: a6f5 3abe 687c 25be 703a edbd e842 0a3e
0.029479008 -0.014218599 -0.018946452 0.069271944 0.1504879 0.07167519 -0.06217236 -0.002336491
-0.0005080763 0.23832482 -0.07555393 -0.08813282 -0.15205835 0.055993114 0.11091919 -0.0489486
-0.09543134 -0.05744331 -0.04432602 0.0514719 -0.116546616 0.05345592 -0.016863557 0.0035095157
-0.005159435 0.062748626 0.05294651 -0.12987173 -0.060036685 0.053769495 -0.105135985 -0.0772923
0.003435432 0.0057567414 0.19212733 -0.15450582 -0.0052832984 -0.055963174 -0.022338418 0.2630951
-0.06750595 -0.086285904 0.025332466 -0.006616793 0.12598558 -0.053574603 -0.08242077 -0.091666505
0.06141812 0.095214024 -0.25867796 -0.19683331 -0.02850981 -0.013520662 0.18514775 -0.32593423
-0.23124743 -0.12004003 0.03759575 0.18700796 -0.17338382 -0.19506744 0.08411711 0.23276077
0.28084534 -0.2283492 -0.05547719 -0.00047588215 0.23082463 0.30515814 -0.119785696 -0.06284895
0.053275246 0.101518184 0.12963435 -0.16478461 -0.19991136 -0.07677902 0.0038834186 0.16397059
-0.26703846 -0.3722535 -0.2840051 -0.042493843 -0.01762726 -0.1795917 -0.18894884 -0.23742624
-0.037577275 0.19809307 -0.18965068 -0.18380062 -0.053286944 0.16846591 0.32304424 0.0031465814
-0.058762755 0.11252232 0.3158113 0.39932767 0.052554946 0.048117124 -0.011349164 -0.20799375
-0.20589325 -0.111797206 0.0185051 -0.026643 -0.24490684 -0.22844735 0.17633036 0.26366946
0.10375285 -0.023971822 -0.030124802 0.007126454 0.115537666 -0.008166329 -0.032123048 -0.13193914
0.071407266 -0.015521306 0.088948525 -0.09751011 0.075776234 0.20154455 0.1877356 0.3336278
0.23546426 0.18773033 0.26271698 0.26610264 0.28238344 0.105366655 0.11113168 0.16843468
0.07934641 0.14742593 0.06029893 -0.124272555 -0.010691857 0.0031136319 -0.090468615 -0.19858998
-0.27068081 -0.048582066 -0.006482448 -0.15961441 -0.2753456 -0.19899157 0.100262985 0.1377185
0.009156803 -0.0886209 -0.043628227 0.23591983 -0.05279238 -0.22764182 -0.10659403 0.07959458
0.4605657 -0.50437236 -0.29376078 0.2345999 0.04177306 -0.034795754 -0.50088316 0.080047935
0.2740906 -0.097319186 0.017787887 -0.004468313 0.23805185 -0.0019181184 0.035302635 0.2528554
0.07876121 -0.18516123 -0.08966973 0.16160206 0.48252463 -0.16212374 -0.5539525 -0.010228002
0.026651181 0.44677222 -0.54072976 -0.29107147 0.36379912 0.19880337 0.090369985 -0.5687694
0.027865343 0.336838 -0.008961153 0.047592387 -0.065869644 0.1361126 -0.11090606 0.024477646
-0.10211377 -0.033063326 0.052765038 0.13777465 -0.14062889 0.19242132 -0.10336254 -0.19544205
0.19361202 -0.062110018 0.310388 -0.52492875 -0.03442739 0.39575973 -0.18403594 -0.02296132
-0.3433004 0.22369376 0.26471055 -0.2928755 -0.030534308 -0.05439463 0.23355666 0.11950894
-0.070649095 -0.1586139 -0.26654717 -0.22285636 -0.39111876 -0.28454408 0.04708585 -0.021885335
-0.034128897 -0.0313857 0.08569075 0.16222441 0.27480316 0.24758422 0.18232529 0.09773026
-0.082448736 0.07123794 0.099328235 0.11699496 0.1379514 0.10044454 -0.037347946 -0.0054293303
-0.104391016 0.11304605 0.06650371 -0.1685551 -0.1825777 -0.16160738 -0.11583412 0.13502085

conv1.bias f4 [8]
00000000: d035 283b 2858 aa3d 7e1b 873d fc0d dcbd
00000010: 34ce a83d ca96 b33d 4274 9cbd 9c8b 9fbd
0.002566684 0.08317596 0.065970406 -0.10744855 0.08242455 0.08768995 -0.07639362 -0.077903

batch1.weight f4 [8]
00000000: 8b3c 893f a299 433f 5206 993f 0d87 713f
00000010: c772 633f eeeb 883f 447b 913f 5872 453f
1.0721601 0.764063 1.1955054 0.94346696 0.8884701 1.0697 1.1365743 0.771276

batch1.bias f4 [8]
00000000: 345b d6bd 866b 923e 4a5b 70be 475d 0dbc
00000010: 0a0c ca3d 4a19 64be 271b 8fbe cad6 cc3d
-0.10466614 0.2859766 -0.23472324 -0.008628196 0.098655775 -0.22275272 -0.27950403 0.10001905

batch1.running_mean f4 [8]
00000000: 9356 efbd 1a22 483d 8cb3 af3c b8c2 ad3c
00000010: 272e cabd 68ad b7bc 9a2b 33be 7719 703e
-0.116864346 0.048860647 0.02144792 0.021211013 -0.09872084 -0.022421554 -0.17497101 0.23447214

batch1.running_var f4 [8]
00000000: 497e b43e eaa0 4a3d af90 1c3e e196 2a3e
00000010: a7fb 1b3d 48db f73d a2dc db3d b254 843d
0.35252598 0.049469866 0.15289567 0.16659118 0.03808179 0.121023715 0.10735442 0.06461467

conv2.weight f4 [16, 8, 5, 5]
00000000: 7dd1 04bd ea3b 07bd 3902 bf3d e5f1 07bc
00000010: 45f1 d63c 6768 10bd ffbf 81bd 1f6b f8bc
00000020: 0f0b cebd eb04 71bd 7b46 58bb 3ba8 43bd
00000030: aaeb 11bd fd3b 34be 939e b2bd 0782 253d
00000040: 8247 c1bc 5d81 0bbd 8a86 09be 5ae5 3dbc
00000050: b8d7 85bc cec0 59bd f631 70bc af1b 9dbd
00000060: b9f1 2e3d 2303 b7bc 3089 943b 0965 80bd
00000070: f95e aebc 168d 56bd eb37 b33d d3d5 af3d
00000080: d318 1c3e 82bc 1d3e f84a 103e 3c35 d03d
00000090: cc23 0b3e 9923 a63c bbaf 0d3d c7ad 2f3c
000000a0: 5d34 183d 03dc 153c d499 6fbb c04f 76bd
000000b0: b4f5 3dbd 0e8e 0abd 9424 26bd b769 87bd
000000c0: 0e43 debd aa8d 13be 6221 823d b432 8d3c
000000d0: c4a9 973d 96da aa3c 709a 5abc 8876 1c3d
000000e0: 2863 0b3d c73e 9f3c 7be5 33bc 4a96 9abc
000000f0: ff04 f03c 56d4 19bc 2a6c bebc 524b a0bd
00000100: 2044 b6bd 03fb 65bc 8bfc 5cbc 6b87 65bd
00000110: 89f6 07be b136 e8bd 4278 f5b9 c7c4 e8bb
00000120: 8bab 213d 7641 1f3d 9df9 a9bc 67e0 9d3b
00000130: a070 fdbc 7df3 e33c e8b9 b6bb a69f 9c3d
00000140: cf5e f43c 04fd 47bc 96cb 31bd fbed bc3c
00000150: 811f 233d baa0 0e3e 7103 b8bc 4702 133d
00000160: ea5a 443d 256e b23d c0d8 9abc 143d 033d
00000170: a8fc 253d 2149 733d 32e3 b23d 98b1 c8bd
00000180: 6f32 c5bd 6c7d 0dbd f486 cebc ea6b 9fbd
00000190: 1225 04bd 573e b3bd 646a 53bc 58cc 03be
000001a0: 8d75 c6bd 6d00 4c3d 2c6a 2fbd 6836 c13d
000001b0: 2b79 1cbd b461 d63d d377 4f3d 8e47 f03c
000001c0: 7622 c83e 70af 9abc 90f3 5a3e db62 bf3d
000001d0: bb4e bbbc 1f40 8a3d c97b fabb d12c c9bc
000001e0: 714e 96bd 2897 97bd 7df1 76bd 9453 2dbe
000001f0: aeef cabd c7ce 703c ea52 70bc c822 693d
00000200: 4c48 1b3d cd07 29bb fc5b f7bc 58ed 55bc
00000210: 8f48 0a3d c29a 20bc 4cee 2abd ee30 b0bc
00000220: c9a3 3b3c 28aa 3a3d 159e 803d 2650 9d3b
00000230: 0b7a 6e3d 9d2d 2d3d de7f ed3b b617 9f3d
00000240: e80b a6bc 7baa 95bc f973 6b3d f747 af3d
00000250: 8767 463c 536f f33d 4ed8 06bc 9d9d 29bc
00000260: d2fc 92bc 1976 f43c a27d 4b3c e75a 0fbd
00000270: 3874 0fbd 9edc 18bd e41e 1fbb 405e b9bc
00000280: 8d26 a6bc 65d6 eabc 0b76 3cbd 99f9 62bd
00000290: 26a6 fbbc 8545 80bc 2084 af3c e9d1 3dbd
000002a0: 5be7 b9bd 89f8 97bd 6a01 683c 4da2 dc3b
000002b0: 45e3 fc3c d77f d6bb 7276 0fbd c5b0 25bd
000002c0: dfd3 84bd ace9 8dbc b8ac 4dbd f8d3 13bc
000002d0: 4ee9 99bc a1d3 6ebd 8c40 073a 83c6 27bd
000002e0: 5145 eeb8 96a7 5e3c 0774 e83c f186 873d
000002f0: bc57 d23c 876f c83d 68c5 883d 644d d23d
00000300: 8f1d b53d 481f cb3d 5137 313e b8e5 a3bc
00000310: 15ec d1bc 6ba9 22bd 3a04 a2bd c071 a1bc
00000320: 12e7 9cbc ff16 81bc 5b34 ccbc eac9 79bd
00000330: 1da7 42bd ce03 4dbd 207f 82bd eb8f 8dbd
00000340: 2cac 03be db43 b23c 1992 4fbd a17b d5bd
00000350: f1af 13be e3b3 26bd 1ced a13d aa9d 9ebd
00000360: 2d70 f9bd 68c0 17be 112a 423d 4b93 5b3c
00000370: 771b b0bd 6f2d d8bd 7599 c4bd cc7d 91bc
00000380: 5e4c 97bd abfc 143d 0a98 923d 1f20 803d
00000390: 8cae fc3d 2e19 2f3e b51d 5bbd 5510 83bc
000003a0: 889f 04bd 03cf 153d c39e 783d 388b 8dbd
000003b0: 5a04 67bd 7221 ddbb 039a a23d 0462 8b3c
000003c0: d011 95bd c05d b33b 917a eb3c 45be 9dbc
000003d0: 24b7 18bd c52b b0bd dd2e 65bd f0b8 a2bd
000003e0: 9299 d1bd c56b 4cbd 2dc4 0a3e a161 893d
000003f0: 9d76 8f3a 4a88 b13d 404d 31bd 2a6a e8bc
-0.032426346 -0.033016123 0.09326596 -0.008297418 0.026238093 -0.035255816 -0.063354485 -0.030324517
-0.10060703 -0.05884258 -0.0033000994 -0.04776786 -0.035625137 -0.17601009 -0.08721652 0.040407207
-0.023593668 -0.034058917 -0.13430229 -0.011590326 -0.016338214 -0.05316239 -0.014660349 -0.07671296
0.042710993 -0.022340363 0.0045329556 -0.06269271 -0.02128552 -0.052380644 0.087509 0.085857056
0.15243845 0.15403941 0.14091098 0.10166404 0.13587874 0.020280646 0.034591418 0.010722584
0.037159313 0.009146693 -0.0036560195 -0.06013465 -0.0463769 -0.03382688 -0.040562227 -0.066119604
-0.108526334 -0.1440951 0.063540235 0.017236091 0.07405427 0.020856183 -0.013342485 0.038198978
0.03403011 0.019439114 -0.010980005 -0.018870492 0.029299257 -0.009389004 -0.023244936 -0.07826866
-0.088997126 -0.014036897 -0.013487945 -0.056037348 -0.1327764 -0.113385566 -0.0004681964 -0.007103536
0.039470237 0.038880788 -0.020748908 0.0048180106 -0.030937493 0.027826065 -0.005576361 0.07647638
0.029830365 -0.01220632 -0.043407045 0.023062697 0.039824966 0.139285 -0.022462578 0.035890844
0.047938265 0.08712415 -0.018902183 0.03204067 0.040524155 0.059395913 0.0873474 -0.09799498
-0.0962876 -0.03454344 -0.025210835 -0.07784255 -0.032261916 -0.08752125 -0.0129037835 -0.1287092
-0.0969039 0.049805094 -0.042825863 0.09434205 -0.038201492 0.10467854 0.050651383 0.029330995
0.39088792 -0.018882483 0.21381974 0.09345027 -0.02286469 0.067505114 -0.007644151 -0.024557503
-0.0733918 -0.07401878 -0.060288895 -0.16926414 -0.099089965 0.014697737 -0.014668206 0.056917936
0.037910745 -0.0025792003 -0.030195229 -0.013057075 0.033760604 -0.009802522 -0.041731164 -0.021507706
0.011452624 0.04557243 0.06280152 0.004800814 0.058221858 0.04227983 0.007247909 0.077681944
-0.02026935 -0.018269768 0.057483647 0.08558648 0.012109644 0.11886468 -0.008230282 -0.010352519
-0.01794282 0.02984147 0.01242009 -0.0349988 -0.035022944 -0.037319772 -0.0024279887 -0.02262795
-0.020282054 -0.028666684 -0.046011012 -0.055413816 -0.030718874 -0.01565815 0.021425307 -0.046342764
-0.09077331 -0.07420451 0.014160493 0.006733215 0.03087009 -0.0065460014 -0.035025068 -0.040451784
-0.06485724 -0.017323337 -0.050213546 -0.009022705 -0.018788006 -0.058307294 0.00051594595 -0.0409608
-0.000113616356 0.01358976 0.028375639 0.06617535 0.0256766 0.09786897 0.06678277 0.10268667
0.088435285 0.09918076 0.17306258 -0.020007 -0.025625268 -0.03971235 -0.079109624 -0.01970756
-0.019153152 -0.015758036 -0.024927309 -0.060983576 -0.047522653 -0.050052457 -0.063719034 -0.06912216
-0.12858647 0.021760872 -0.05067644 -0.10423971 -0.14422585 -0.040698897 0.07906553 -0.07744916
-0.12179599 -0.14819491 0.0474034 0.013401817 -0.085989885 -0.10555541 -0.09599582 -0.01776018
-0.07387613 0.036373775 0.071579054 0.062561266 0.1233798 0.17099449 -0.053495128 -0.015998999
-0.032378703 0.036574375 0.060698282 -0.069113195 -0.056400634 -0.0067483718 0.07939532 0.01701451
-0.07278788 0.0054738224 0.028744968 -0.019255767 -0.03728403 -0.086020984 -0.055952895 -0.0794543
-0.10234369 -0.049907465 0.13551398 0.06708074 0.0010945384 0.08668573 -0.043286562 -0.028370935

conv2.bias f4 [16]
00000000: 4838 103d 983a 1d3c 7172 08bd 565a 8dbc
00000010: aefc 253d 36bf 86bd fa50 193d b892 2a3c
00000020: 508a a33c d01b 273c 8f0e 5a3a 99c8 0bbd
00000030: b8a2 433c 6edc 37bd b204 4cbd 124c 713d
0.035209924 0.009596489 -0.033312265 -0.01725499 0.040524177 -0.06579439 0.03743074 0.010410957
0.019963413 0.010199502 0.00083182094 -0.03412685 0.011940651 -0.044887953 -0.049809165 0.058910437

batch2.weight f4 [16]
00000000: 84ad ab3f f12c a43f 771e b93f 06c8 d73f
00000010: ba2a be3f c058 c53f 4a6e b13f a1db bb3f
00000020: 3086 cc3f 8f87 b53f 51da cb3f a1e3 9c3f
00000030: 6b3c cd3f 2b6a ba3f 3197 d33f 26b7 b13f
1.3412328 1.2826215 1.4462422 1.6857917 1.4856789 1.5417709 1.3861783 1.46764
1.5978451 1.4181994 1.5926 1.2256967 1.6034063 1.456365 1.6530515 1.3884017

batch2.bias f4 [16]
00000000: a154 1abe 4a8f 55be 9598 8cbe 912b c2be
00000010: 1704 e3be 71ab 96be 5b9d f1be f4cc 27be
00000020: 763a a2be 8c11 4abe e75e d5be 6bea edbd
00000030: f1ab e3be ec9b 74be 9c43 1dbf 49b1 c5be
-0.15071346 -0.20855442 -0.2746016 -0.37923864 -0.44339058 -0.29427674 -0.47190365 -0.16386777
-0.31685227 -0.19733256 -0.41673967 -0.11616977 -0.44467118 -0.23887604 -0.6143129 -0.3861182

batch2.running_mean f4 [16]
00000000: b060 933e 7a20 b9be aaac 8abd d858 fcbe
00000010: 5a8a a6be 66c3 ebbe e0fa a13e b820 4abf
00000020: 5ccd ddbf f46e 26bf a711 95be a13e 8c3d
00000030: a988 9ebf bc22 073e b194 99bf 4d2f 4c3e
0.28784704 -0.3615759 -0.06771214 -0.49286532 -0.3252743 -0.46047515 0.31636715 -0.78956175
-1.7328296 -0.6501305 -0.2911503 0.06847883 -1.2385455 0.13196844 -1.1998502 0.19939919

batch2.running_var f4 [16]
00000000: 6836 343f 0da8 0a3f 8f89 343f 8645 843f
00000010: 17d1 253f d242 513f 40af 703f 0cd9 713f
00000020: cc8d 953f bd5b 673f 6160 583f 9de5 303f
00000030: a45f 713f 7ae8 263f f2ce b23f 29cf 5a3f
0.7039552 0.54162675 0.705224 1.0333717 0.6477217 0.81742585 0.9401741 0.9447181
1.1683898 0.90374357 0.8452206 0.6910036 0.9428656 0.6519848 1.3969405 0.8547235

fc1.weight f4 [120, 1024]
00000000: aedf ac3b 1baa 0a3d 8ebc b03a cb39 173c
00000010: 267b 073d 0734 803c e66c 773c cce3 353c
00000020: 02d4 443c ecfc bcbc 5b9a 84bb 9641 a83c
00000030: 9d4f 403b 5b61 dc3a b6f6 8abc 8c22 83bb
00000040: bdaf fbbc 0cb6 76bc 4e2b 5ebc 8452 ddbc
00000050: a9cc 9f3c 7bc0 023c a225 34b8 3e16 c53c
00000060: 1e0f b7bb 08c0 833c a6fe ec3b 9440 573d
00000070: 045d 223d 64dc 9a3c 4211 9f3c 3ff4 2a3c
00000080: 74a0 cdbc 3eb8 343a de1b 933c b14b 0c3d
00000090: 7f67 063d f788 0d3d 4c43 6d3c 6916 b03c
000000a0: b172 e2bb 4340 213d 0f15 a43c 4e55 fa3c
000000b0: a0a4 923c f859 803c 6365 043d b598 113c
000000c0: 1fa6 5c3c ec8e ca3c 7337 413d e2d7 953c
000000d0: 5304 aa3c df65 07bd dbda 373c e65f 6a3b
000000e0: 1907 a3bd fedc 96bd 2c8b 36bd 9f4a 95bd
000000f0: f45b 49bd bc12 2fbd 7213 22b9 fc9a aebc
00000100: a924 89bc a6b3 033d 398c 8e3b fd8c 0d3a
00000110: 302f f83c 575d 833c 92a8 be3c 88ba 063c
00000120: 8c33 efba 5a80 f8bc 601f 4abd 4f04 17bd
00000130: d6a0 f2bc b315 aabc c459 aa3c 7427 98bc
00000140: 20d7 0fbd 9945 0bbd 5ce7 7ebd b2ee ebbc
00000150: b66b a5bc 1564 cc3c 4cd2 4f3c e9b8 83bc
00000160: 3da3 0abd e34e 483c 5c5f 87bc 6ea8 6cbd
00000170: 829a bdbc 0810 c8bc f92f 373b 2804 3cbc
00000180: 9f16 34ba 81e0 273d d9b6 05bc 3de7 45ba
00000190: 692d 9c3c ace2 0dbd 900f 71bb 1f1e 6d3b
000001a0: f206 443c e1ae 223d 5094 313c c280 803d
000001b0: ed38 f63c 16a3 3d3c b8f6 69bc 0885 3dba
000001c0: 9bf4 d63c c6ba 633d 7d93 853d ca1a 4c3d
000001d0: 35ab 673d 8e3a 693c 0647 463d 90dd 9d3c
000001e0: 2969 82bb 6856 293c 938f 063d 8f67 5e3d
000001f0: c001 753d bee1 503d da06 253c 9ff1 25bd
00000200: 7078 463b 7826 5f39 8379 1cbd 6a74 a23c
00000210: 0cab 973c 1f98 b93c 78d2 873c a72c 853c
00000220: 2a5f 8abb 31e7 da3c b8e8 b23c 66c6 82bc
00000230: cb37 153b f55c 383c 153f 95bc 7b4c 5a3c
00000240: 4718 053c 5514 8f3d b066 2f3d 722d a63c
00000250: 2de8 23bd 9942 543b b7d2 163a 54a5 b339
00000260: fe03 f93b de26 823c 59af ab3d 1252 d9bb
00000270: c218 f2bc 9367 1abd 18af 81bd 5c88 56b9
00000280: 0d36 833c 3503 d63c da8d 5a3d 7750 f1ba
00000290: 9c04 0ebd b720 be3c 707e 03bc 7254 be3c
000002a0: bfae 7abc 5992 fbbb 4804 733b 7090 fc3c
000002b0: 62da 0e3c 15b7 833c 4ab9 2cbc 3e74 943a
000002c0: b76a dfbc ac2a 0ebd 7a2b 50bd c381 b2bc
000002d0: 8f25 b6bb e6f0 1fbc 00ab 953a b3d8 c43c
000002e0: 87ba 37bd 579b eabc 185e 39bd 90bc d1bc
000002f0: adcb 213c 6ff5 3d3b fd67 09bc ce2a febc
00000300: 7883 783c 4aca 8c3c 505d 973c ed70 503d
00000310: 6efd 873c c7b3 043d 3e6a 243d 2c53 963c
00000320: dc08 033d ad0c 393d 76c0 19ba cbd5 2f3b
00000330: 2294 11bc 56d0 8d3b c6c9 e73b 0a2e 2cbc
00000340: aa38 3abc 9419 e2ba 6615 6dbc 8ce2 bb3c
00000350: 7676 a2bb 384c 57bc 20ef d5bc 1248 823b
00000360: 6efb 0abd c69e b1ba 3015 97bc 9799 8dbd
00000370: 7e01 43bd 7299 36bd 41fd 02bd e031 83bb
00000380: 3c82 b63c fdb9 b83b 5d38 bcbb 3056 28bd
00000390: 8ad0 2bbd c7b7 6dbc f7fe ae3c c101 123d
000003a0: 8059 e53c 371a 8d3c d667 3dbd 9f06 cdbc
000003b0: 7679 38bb 766c 7fbc 9adc a43c c990 cf3c
000003c0: 4bc5 9b3c 5e20 703c af6a c43c 3fa8 5d3c
000003d0: ff21 863c 2688 4f3c be99 3a3c 3a8f 2c3d
000003e0: 80de 1b3c 6771 8bbc 0aca 913c 2449 c9bc
000003f0: ecc9 d13b 5961 adbc ba29 043d 1bde 533d
0.005275688 0.03385363 0.0013483928 0.0092300875 0.033076428 0.015649809 0.015101647 0.011101674
0.012013437 -0.023069821 -0.004046721 0.020539086 0.0029344328 0.0016813682 -0.016963344 -0.004001921
-0.030723447 -0.015058052 -0.013560129 -0.027016886 0.01950677 0.007980461 -4.2950393e-05 0.024058457
-0.005586519 0.016082779 0.007232505 0.05255182 0.039639488 0.018903919 0.019417409 0.010434209
-0.025100924 0.00068939093 0.017957624 0.034251872 0.032813545 0.034554448 0.014481377 0.021495061
-0.006910645 0.039367925 0.020029573 0.030558255 0.017900765 0.0156679 0.032323252 0.008886506
0.013467341 0.024726354 0.04717202 0.018291418 0.020754015 -0.033056136 0.011221613 0.0035762726
-0.07960338 -0.0736637 -0.04456632 -0.072896235 -0.04915996 -0.042742476 -0.00015456768 -0.021314137
-0.016741114 0.032153748 0.004350212 0.0005399732 0.030295938 0.016035719 0.02327374 0.008223183
-0.0018249615 -0.03033464 -0.049346328 -0.036869343 -0.029617708 -0.0207623 0.020794757 -0.0185735
-0.03511727 -0.03400192 -0.06223236 -0.028800342 -0.020192962 0.024950067 0.012684416 -0.016079383
-0.033847082 0.012225839 -0.016524963 -0.057777815 -0.023144964 -0.024421707 0.0027952178 -0.0114756
-0.0006869826 0.040985588 -0.00816127 -0.0007549411 0.019064622 -0.03464 -0.0036782958 0.0036181284
0.0119645465 0.03971756 0.010838583 0.062745586 0.030056441 0.011574527 -0.014280014 -0.0007229601
0.026239684 0.055598043 0.06522272 0.049830236 0.05655976 0.014235152 0.048407577 0.019270688
-0.003979821 0.010335542 0.032851767 0.05429798 0.059816122 0.050996535 0.010072434 -0.04051363
0.0030284189 0.00021281268 -0.03820182 0.019830901 0.018514179 0.022655545 0.016579852 0.016256643
-0.00422277 0.026721569 0.021839485 -0.015963744 0.002276885 0.011252631 -0.018218556 0.013323898
0.008123464 0.069863 0.04282254 0.020285342 -0.040016342 0.0032388328 0.0005753445 0.0003426472
0.007599353 0.015887674 0.08383054 -0.006632098 -0.029552821 -0.037696432 -0.063322246 -0.00020459428
0.016016984 0.026124576 0.053357936 -0.0018410821 -0.034672365 0.023208959 -0.0080257505 0.023233626
-0.015300452 -0.007677358 0.003708141 0.030830592 0.008719059 0.016078511 -0.010542223 0.0011326147
-0.027272565 -0.034708664 -0.050822712 -0.02179039 -0.0055586766 -0.0097620245 0.001141876 0.024029111
-0.04485562 -0.028638525 -0.04525575 -0.025602609 0.00987522 0.00289854 -0.008386609 -0.03102627
0.015168063 0.017186303 0.018477112 0.050888944 0.016600337 0.03239801 0.040140383 0.018350206
0.03199087 0.045178104 -0.0005865166 0.0026830311 -0.008885415 0.004327814 0.007073614 -0.010509023
-0.011366049 -0.0017250055 -0.014470434 0.022935174 -0.0049579693 -0.013140731 -0.026115 0.0039758766
-0.03393119 -0.0013551346 -0.01844272 -0.069140606 -0.047608845 -0.04457993 -0.031979803 -0.0040037483
0.022278897 0.005637406 -0.0057440237 -0.04109782 -0.041946925 -0.014509148 0.021361811 0.035646204
0.027996778 0.017224414 -0.046241604 -0.025027571 -0.0028148568 -0.015589824 0.020124722 0.025337594
0.019014975 0.014656154 0.023976652 0.0135288825 0.016373632 0.012666738 0.011389194 0.04212878
0.009513497 -0.017021848 0.017796535 -0.024571009 0.006402245 -0.021164583 0.032266356 0.05172549

fc1.bias f4 [120]
00000000: e881 2fbc 2fa9 77bc bb06 3e3c b7f1 da3c
00000010: ebb3 2dbd 477d 9bbc 8055 a1bb 7635 48bc
00000020: 1783 bcbc e58d 273d ffa9 403c af89 1f3d
00000030: e616 3a3d 0c50 78bc 1536 2a3c 9576 46bd
00000040: fca8 21bc 95c4 493d c91a 0f3a 4b9e 733c
00000050: 795d d73b d6d6 01bd 65f9 8c3c 851f 473c
00000060: a71b 63bc 9b6b 923d e654 bebc 52bf 983d
00000070: 26d3 d1bc c5c9 7bbc b513 563c 2f11 32bb
00000080: 250b d6bc a320 a83c edee 5e3c 7cc4 4ebd
00000090: 3127 933c 62f1 86bc 4225 ce3c b7a7 903c
000000a0: f629 a13d 24a8 d2bb c4c7 61bb 780a a13c
000000b0: 557f c83b f7e1 e93c e392 403c d442 413d
000000c0: 25a8 2f3d 5801 19bd c9e6 d73c 2f31 fc3c
000000d0: e79f 2e3c abcd 193d ae8c c4bc 5452 433d
000000e0: 084b a93a d307 59bc 7934 023c 7e8b c83c
000000f0: 67c7 06bd 10e7 523c 42ef 8fbc e7dc 94bc
00000100: 8141 e73b afe7 18bb 82eb dfbb 4125 86bc
00000110: 75e1 843d 4021 863d c4b1 143d 393f a7bc
00000120: 6064 143d d013 103b b7f0 26bc 789f 30bd
00000130: bc9d 883d 56a6 32bc 739f 613d 9719 aa3b
00000140: 25da 8bbc e391 66bc eddd ddbc 567b 47bc
00000150: d439 9ebc a3bf 26bd 9686 cebc 0853 98bb
00000160: 71ae cbbb e89a 8e3b 6fc3 6a3b 5be5 ab3c
00000170: 0e51 43ba 86dd 363b ba5d 433d 7268 443d
00000180: 09cc c23b 12e5 c9bc 7429 44bc 6200 003b
00000190: 77c9 c73d b7ed e8bc 52e7 be3c 9380 483c
000001a0: 2123 f3bc e640 d7bc d1ae 26bd 6683 f93c
000001b0: 0a18 823c 92d3 87bc f0f0 333d d5b7 9c3c
000001c0: e8f4 383c 42ed 0f3c e266 fabb 06a4 38bd
000001d0: cd6d a1bd 5a37 c33b 1dfd 39bd 5334 073d
-0.010712124 -0.01511602 0.011598284 0.026726587 -0.04240791 -0.018980635 -0.0049235225 -0.012219777
-0.023011727 0.040906806 0.01175928 0.038949665 0.045431994 -0.015155803 0.010388871 -0.048452932
-0.009866949 0.04925974 0.00054590084 0.014869283 0.006572422 -0.031699024 0.017208764 0.012153511
-0.013861573 0.0714943 -0.023233842 0.074583665 -0.025613379 -0.01536793 0.013066222 -0.0027170887
-0.026128361 0.020523375 0.013606769 -0.05048035 0.017963024 -0.016472522 0.02516425 0.017658098
0.078693315 -0.0064287353 -0.0034451345 0.019658312 0.006118695 0.028550131 0.0117537705 0.047182873
0.042884964 -0.037354797 0.026355164 0.030785171 0.010658241 0.037549656 -0.023992863 0.047685936
0.0012916038 -0.013246494 0.007947081 0.024480578 -0.03290501 0.012872472 -0.017570142 -0.01817174
0.007057369 -0.0023331454 -0.0068334946 -0.016375186 0.06488315 0.06549311 0.036302343 -0.02041589
0.036228538 0.0021984465 -0.010189227 -0.04312083 0.066707104 -0.010903915 0.055083703 0.005191039
-0.017071793 -0.014072868 -0.027083362 -0.012175402 -0.019314684 -0.040710103 -0.02521066 -0.00464857
-0.0062158634 0.0043519624 0.0035822054 0.020983389 -0.0007450738 0.0027903034 0.047696806 0.04795117
0.005944733 -0.024645362 -0.011972774 0.0019531478 0.09755223 -0.028433664 0.023303661 0.012237686
-0.029679837 -0.026276063 -0.04069406 0.030458163 0.015880603 -0.016580377 0.043930948 0.019130627
0.011288859 0.008784594 -0.007641659 -0.0450783 -0.07882271 0.005957526 -0.045407403 0.033008885

fc2.weight f4 [10, 120]
00000000: 445e d53e 40e9 99bd fdbb 17be 93b7 17be
00000010: 5a34 1bbe 5e86 243d 3984 0dbc 4096 153d
00000020: 3084 693d 03e3 5cbe ec5e ba3c 4c76 fe3d
00000030: 49e4 a5bd 4066 933d b4c3 1ebe 0863 043e
00000040: 88c7 d83c 1eda 5dbe 0ca5 163e 0c36 6bbe
00000050: 862c 2dbd b28f 89bd 8cee e1bd 5473 e6bd
00000060: 3b07 8f3d dbf7 dcbd 3d2d 2d3e 95dc 9cbd
00000070: d787 44bd f23d ffbd 8341 1abc 6d68 3dbe
00000080: 9614 bb3d 0c1d 58be 0988 5cbd 7936 153e
00000090: a71a eabd 42ac db3d 478c 0d3e 1214 06be
000000a0: c4cb 31bd 1975 c43d 43b2 89bd 996e 003d
000000b0: a6e4 73be d73b 6dbe c80c 173e bce0 8abe
000000c0: 8b94 f13c 3eb3 043e da89 e83c f023 993d
000000d0: c80a 033d 072a eb3d 858c e43d d34f 8fbe
000000e0: e96e 50bd 5ca3 083e 35ce 933c 07b3 12be
000000f0: 95e0 1e3e 2efb 833d 4d87 0cbe 6789 ac3d
00000100: add5 ae39 8f87 10be 4eaf 9fbd 2688 d4bd
00000110: 2af8 a0bb b4f0 8bbe bb1a 55be c2fd 8c3e
00000120: 9a56 d03d ee97 d43c 2045 5b3e 1beb 473d
00000130: da7d acbe a8c2 203e 8a75 a9bc 91ef 0dbe
00000140: f0ed 443e dcce 083e 9ce4 863d 5500 68be
00000150: b8f3 8e3d b5fd fa3d 3667 283e 320a 8dbe
00000160: a883 e2bc 4fd3 6abe b5a2 833d 9222 0d3e
00000170: 26f5 253e ed4b 8dbe 7444 0bbe aa97 53be
00000180: 8c40 a8bd 0ffc 543e 8ba0 953e ea07 be3d
00000190: 4e3d 6d3d c3bf ca3d ca05 033e 9b34 dcbc
000001a0: cfc1 1c3e 94f2 abbd 27d6 aa3d 690b e53d
000001b0: 5e35 443e fae4 c6bd 2519 fe3b d6c7 21be
000001c0: e379 593e 062b 1e3e 0ee4 643e decc 173e
000001d0: 3f84 213e 99dc 103e 95b4 003d a2c5 703e
000001e0: bf8d 98bd f825 a7bd f034 003f 5223 183e
000001f0: 4b9a 713c c446 813d 60f4 103d 4eba ec3d
00000200: 0e46 1b3e 5fb1 20bd f008 1abe 3def 12be
00000210: 9200 e43c a95c 05be 1ea1 81be 5eac 09bc
00000220: 200c c6bc 7e02 8cbd e369 99bc 8955 2abb
00000230: 9cb6 c93c 005c fdbc 846f 94be 13c1 473c
00000240: 478f c23d fb1f 08be 1dd7 513e 510b e0bd
00000250: 408c 3ebd b6c4 ec3d 5891 4bbd d5a8 22be
00000260: ccb3 dabd a5e9 14bd b424 bd3c 1c17 5abe
00000270: 5480 e73d 2a0c c03e f45d 013e 5e65 bdbc
00000280: 36b0 8cbe a8ff 193d ed91 133d 9bf7 583d
00000290: db13 dabd f169 e13e e11e 99be 66c7 d1bd
000002a0: a0d8 213e d5e2 adbd 884e 4f3d f418 d5bd
000002b0: 4464 abbe f997 6cbe 2ee8 163e a4aa 20be
000002c0: 4af5 14bd a193 e33c c4ac 043e ef04 8e3d
000002d0: e049 54be 37b5 26bd d901 1e3e 4b20 a83e
000002e0: 15d3 af3d d089 323e c292 babd 4ef9 cf3e
000002f0: 5694 a4ba f5ff 23be cd5a 113e cde9 0ebe
00000300: f168 9ebd 8d1b 813c 1ceb 7bbe c06e 21be
00000310: d774 043e 0742 09be a179 bcbd c9d1 473d
00000320: 3837 753e 812f 8f3c 0383 96bd 0172 923d
00000330: 6368 3dbd a7fa 41be 81a5 f13d 2942 0bbe
00000340: 899d 14be 9af5 73bd 8b58 edbd 492c f6bd
00000350: e3be d3bd 0f77 47bc 572e ae3e cf11 653d
00000360: 73a7 283d ad8b 20be 0987 d8bd 0d5d 813e
00000370: 7c78 8fbe b6d5 5fbe 37d0 c83d 4bb6 453e
00000380: 7f35 f83d 1717 6f3d e323 013e 1da4 353e
00000390: 5d2e 4a3e 3c81 74be b066 8ebe 6603 293e
000003a0: d545 36be 7260 43bd e7e2 073e 1767 583e
000003b0: aeb2 82bd e7dd 84bd b1cd b3bc c2f3 293e
000003c0: 68e2 e7bc 4549 79bd f06f 0a3d bfb2 573c
000003d0: 46f6 0c3e 4899 ae3d b02e 683d 3d7c c13d
000003e0: 48a6 a63d 9ef2 183c f304 013e 0e34 d4bd
000003f0: 5a4b 4bbe ccc7 bbbc 0f3f 693e 3e7e f6bc
0.4167348 -0.07515192 -0.14817806 -0.14816122 -0.1515669 0.040167205 -0.008637481 0.036520243
0.05701083 -0.21570973 0.02275034 0.12424907 -0.081001826 0.07197237 -0.15504342 0.12928402
0.026462331 -0.21665236 0.14711398 -0.22969836 -0.04227879 -0.06716861 -0.11031827 -0.11252466
0.06983801 -0.10789462 0.16911788 -0.0765926 -0.04798111 -0.12462987 -0.009415033 -0.18496867
0.09134786 -0.2110483 -0.05384067 0.14571561 -0.11430865 0.10726215 0.13823043 -0.13093594
-0.043407217 0.09592647 -0.06723454 0.031355474 -0.23817691 -0.23167358 0.1475097 -0.27124584
0.029489776 0.12959 0.028386045 0.07477558 0.031992704 0.114826255 0.111596145 -0.2799059
-0.050887022 0.13343567 0.018042663 -0.14326106 0.15515359 0.06444393 -0.13723488 0.08424645
0.00033347067 -0.14114211 -0.077971086 -0.10377531 -0.004912396 -0.2733208 -0.20810978 0.27537352
0.10172768 0.025951352 0.21413088 0.0488082 -0.33689767 0.15699255 -0.02068593 -0.13860919
0.19231391 0.1336016 0.065865725 -0.22656377 0.069800794 0.12255422 0.16445622 -0.2754684
-0.02765067 -0.2293217 0.06427518 0.13782719 0.16206798 -0.2759699 -0.13600332 -0.20663324
-0.08215436 0.20799278 0.29224047 0.09278853 0.057919793 0.09899857 0.12795177 -0.026880553
0.15308307 -0.083958775 0.083416276 0.11183817 0.19160983 -0.097116426 0.0077544623 -0.15798888
0.21237902 0.154461 0.22352621 0.14824244 0.15773104 0.14146651 0.031422216 0.23512891
-0.07448911 -0.08161539 0.50080776 0.14857224 0.014746259 0.063123256 0.035389304 0.11558972
0.15163442 -0.039231654 -0.15042472 -0.14349075 0.027832303 -0.13023628 -0.25318235 -0.008402912
-0.024175704 -0.06836413 -0.018727249 -0.0025990924 0.024623208 -0.030927658 -0.2899133 0.012192029
0.09499984 -0.1329345 0.20492215 -0.109396584 -0.04652047 0.11560957 -0.049699157 -0.15884717
-0.10678825 -0.036355633 0.02308879 -0.21297878 0.113037735 0.3750928 0.12633497 -0.023119625
-0.27478188 0.03759733 0.036027838 0.05297051 -0.106483184 0.4402614 -0.2990637 -0.1024311
0.15805292 -0.084905304 0.050612003 -0.1040515 -0.33474934 -0.23104848 0.14737007 -0.15690094
-0.03636674 0.027780356 0.1295653 0.06934535 -0.20731306 -0.040700164 0.15430392 0.32837138
0.085851826 0.17435384 -0.09110023 0.40619892 -0.0012556415 -0.16015609 0.14194794 -0.13956375
-0.0773486 0.015760208 -0.24601406 -0.15764904 0.12935196 -0.13404094 -0.092028864 0.04878405
0.23946846 0.017478706 -0.07349207 0.07150651 -0.04624213 -0.18943273 0.117991455 -0.13599457
-0.1451322 -0.059560396 -0.11589154 -0.120201655 -0.10339143 -0.012174382 0.3401973 0.055925187
0.041175317 -0.15678282 -0.10572631 0.25266305 -0.2802161 -0.21858868 0.09805339 0.1930782
0.121195786 0.05837163 0.12611346 0.17738385 0.19744249 -0.23877424 -0.2781272 0.16505203
-0.17800076 -0.0476994 0.1327015 0.21133076 -0.06381737 -0.06487637 -0.021948667 0.16596892
-0.028306201 -0.06086089 0.03379816 0.013165175 0.13765821 0.0852533 0.05668515 0.09447525
0.081371844 0.009335188 0.12599544 -0.10361491 -0.19852963 -0.022922419 0.22777961 -0.030089494

fc2.bias f4 [10]
00000000: fc80 69be d9a1 8cbd 5be4 03be 2065 183d
00000010: 633f 873e 6353 fcbc c779 0f3e c652 dcbd
00000020: 5bec d03d ed6a 2a3b
-0.2280311 -0.068668075 -0.1288008 0.037205815 0.26415548 -0.03080148 0.14011298 -0.10757975
0.10201331 0.0026003674
