models/net_augm/model_epoch_57.pt (torch, 517807 bytes, 16 tensors)

conv1.weight f4 [8, 3, 5, 5]
00000000: 8009 053d bc0d 5fbc ecc4 a0bc 59a9 8d3d
00000010: b066 1a3e a521 953d 1166 83bd 41aa abbb
00000020: c9bf 1fbb cc0d 733e 0f7b 9dbd 987c bdbd
00000030: a290 1fbe a962 5a3d 7650 e23d b47b 55bd
00000040: 7b2d cdbd 0529 75bd a333 43bd d135 4e3d
00000050: fb54 fabd c8cb 3e3d 1965 b9bc 8952 daba
00000060: 432c 05bc a1bf 833d ad2a 563d 7fd0 05be
00000070: 0c4b 78bd b701 5c3d eff0 d3bd fbd8 a1bd
00000080: 63cb c23a 634d 813b 2ba2 433e d4ab 1dbe
00000090: e354 07bc 03a0 6ebd 8ffb c7bc 4e94 863e
000000a0: 412c 8cbd ceae b7bd b24a c33c a597 23bc
000000b0: 7657 fe3d f904 65bd b106 b2bd 28e0 c3bd
000000c0: 6d7b 683d c562 bc3d c1a8 84be 4521 4bbe
000000d0: f474 f8bc d6f5 65bc d7df 3d3e b7bf a6be
000000e0: 3c0e 6fbe 46ba fabd b119 163d aef6 3f3e
000000f0: ddb6 31be d8ca 4abe 636f a83d d897 6e3e
00000100: 6a1d 913e 4ba4 6bbe c37d 71bd 2f88 d2ba
00000110: ead7 6a3e e34e 9c3e d3dd fbbd 0ded 89bd
00000120: a0f5 4c3d 810c ca3d 94ff 023e 706e 28be
00000130: c5ea 4ebe 0b5d 9dbd 30e4 923b 9a88 2c3e
00000140: 8a24 8abe e48e c0be 84ce 90be 7946 31bd
00000150: 1744 5bbc d35d 38be 876a 46be af21 77be
00000160: 4d0b 3ebd a826 483e 7851 43be 216b 3fbe
00000170: 467e 64bd 6655 263e 291e a63e 7880 d53b
00000180: 2182 6dbd 7230 e23d 5a4a 9f3e 3c64 cd3e
00000190: 9b11 5c3d 15df 443d 52dd 33bc d93c 56be
000001a0: 85fe 50be bdeb e8bd f975 833c 08f6 d8bc
000001b0: 3071 7ebe 7dcb 68be e900 373e cf13 873e
000001c0: 775c d03d 8dd0 08bd ddec 0bbd 2252 cf3b
000001d0: eacd ea3d ce2c 2fbc 6f28 1fbd b4b7 06be
000001e0: 591e 9a3d f94c 4ebc 4ee6 b33d f1d3 d0bd
000001f0: bf80 9e3d 2962 533e 67d8 443e 0953 ae3e
00000200: f412 773e dd45 483e ba82 863e 7e13 883e
00000210: 02b0 923e 95bc da3d e403 ee3d 7b3d 2f3e
00000220: 69eb a23d e965 163e eea0 583d 9846 02be
00000230: f974 12bc 3c36 a03b d756 b8bd 4021 4fbe
00000240: 36c4 89be 0649 27bd 230d c8b9 f9cc 20be
00000250: 3dc2 8dbe bc70 49be cb54 c43d 9948 0b3e
00000260: 7d0e 193b 69c4 b4bd b90d 2fbd b52a 723e
00000270: 87db 4ebd 4041 6dbe 1293 dabd 2a44 a63d
00000280: 30b9 eb3e 62cd 02bf ba0b 9abe e9b8 6b3e
00000290: 27c1 173d e3c3 2abd 9af6 01bf a9a2 a03d
000002a0: 5e96 8a3e f0ad cbbd 09d3 663c b441 e9bb
000002b0: 9cda 743e 46a5 ebba 39e5 143d b776 813e
000002c0: 19bf a43d 799c 42be 3ade b3bd fadb 273e
000002d0: b1ec f83e 7998 22be 8bd5 0ebf 9d4a 26bc
000002e0: 8f83 ed3c a8e5 e53e c413 0cbf 2be8 98be
000002f0: ceae b73e e8be 453e c145 aa3d e2c8 13bf
00000300: 2931 c73c 14cb a93e c93d 5fbc b0bf 313d
00000310: 32cd 91bd c3bc 083e 2ff7 e8bd 741b ba3c
00000320: 1ea4 cabd e88f d9bc 78c3 5c3d 9d9a 133e
00000330: 98b2 0abe 13ce 4d3e b606 c0bd f504 44be
00000340: b5d1 4b3e e257 6cbd 63b0 a33e 721c 06bf
00000350: 3a01 0abd 8064 cb3e 65a6 3fbe c0f2 b1bc
00000360: 2d3e b0be f006 693e ab53 883e 05ff 96be
00000370: 7dae d7bc 3d03 55bd 1fc4 723e 7d12 fa3d
00000380: 5028 8fbd 0ab1 23be 4ba2 89be b543 65be
00000390: 24d2 c8be 8977 91be 3f28 493d e93a abbc
000003a0: 1da0 08bd 511d efbc a8c8 b53d 19e7 253e
000003b0: db4f 8d3e 864d 7f3e 5f35 403e 74a9 ce3d
000003c0: 9bcb afbd eee1 8d3d 3d40 c83d d402 ef3d
000003d0: 3f82 0a3e d98b be3d d715 3cbd 5e3a 5bbc
000003e0: 0d50 e5bd c07c da3d 5052 893d f8c6 2cbe
000003f0: cb53 3abe cc85 26be 74c9 eebd 8291 0d3e
0.032479763 -0.013614114 -0.01962515 0.06917066 0.15078235 0.07281808 -0.06415952 -0.0052388017
-0.0024375787 0.23735732 -0.07689487 -0.0925228 -0.15582517 0.053316746 0.11050503 -0.052119926
-0.1001844 -0.059853572 -0.047656666 0.050344292 -0.1222324 0.04658106 -0.022631215 -0.0016656677
-0.008128229 0.06433035 0.052286793 -0.13067816 -0.060618445 0.053712573 -0.10348689 -0.07902714
0.0014861639 0.003945993 0.19104831 -0.15397578 -0.008259985 -0.058258068 -0.024411945 0.26285022
-0.06844378 -0.08968888 0.023839328 -0.009984885 0.124190256 -0.055912945 -0.086926825 -0.09564239
0.056758333 0.09198526 -0.2591 -0.1983691 -0.030329205 -0.014035663 0.1854242 -0.32568142
-0.23345274 -0.1224256 0.036645595 0.18746445 -0.17354913 -0.19803941 0.0822437 0.23300111
0.28342754 -0.23011892 -0.058957826 -0.0016062314 0.22933927 0.30528936 -0.12298169 -0.06734667
0.050038934 0.09865666 0.12792808 -0.16448379 -0.20206745 -0.07683762 0.0044827685 0.16848984
-0.26981002 -0.37609017 -0.2828256 -0.0432801 -0.013382933 -0.18004541 -0.19376574 -0.24133943
-0.046397496 0.19545996 -0.19074047 -0.1869321 -0.055784486 0.16243514 0.32444885 0.006515559
-0.05798543 0.110443965 0.31111413 0.40115535 0.053727727 0.04806431 -0.01097806 -0.20921649
-0.20409591 -0.113730885 0.016047465 -0.026484504 -0.24847865 -0.22733875 0.17871441 0.263823
0.10173886 -0.033402015 -0.034161437 0.0063269297 0.11465056 -0.010691835 -0.03885692 -0.13156015
0.075253196 -0.012591594 0.087841615 -0.101966746 0.077394 0.20642914 0.19223176 0.34047726
0.24128324 0.195579 0.2627161 0.2657737 0.28649908 0.106805004 0.11621836 0.17113297
0.07955057 0.14687313 0.05288785 -0.12722242 -0.008939021 0.0048892777 -0.090009384 -0.20227528
-0.2690751 -0.040841125 -0.0003815676 -0.15703191 -0.27687255 -0.19671911 0.095864855 0.13601913
0.0023354583 -0.08826525 -0.042737696 0.23649104 -0.050502326 -0.23169422 -0.10672583 0.0811847
0.46039724 -0.5109464 -0.30087072 0.23019756 0.03704944 -0.04169072 -0.5076691 0.07843525
0.27067846 -0.09945285 0.014088401 -0.007118428 0.23911518 -0.0017978332 0.036351416 0.25285885
0.080442615 -0.19005002 -0.08782621 0.16392508 0.4861808 -0.15878476 -0.5579459 -0.010149625
0.028993396 0.44901776 -0.5471766 -0.2986463 0.35875553 0.19311106 0.08314086 -0.577284
0.024315434 0.3316275 -0.013625571 0.043395698 -0.07119216 0.13353257 -0.113752715 0.022718169
-0.09894584 -0.026557878 0.05389735 0.14414449 -0.1354469 0.20098142 -0.0937628 -0.19142516
0.19904216 -0.057701 0.3197051 -0.52387154 -0.033692576 0.39725113 -0.18715818 -0.021722198
-0.34422436 0.22756553 0.26626334 -0.2949144 -0.02632832 -0.05200504 0.23707627 0.122105576
-0.06990111 -0.15985504 -0.26881632 -0.2238911 -0.39222825 -0.2841151 0.049110647 -0.020902114
-0.03335582 -0.029188784 0.08876163 0.16201438 0.27599987 0.24931917 0.1877036 0.10090914
-0.085837565 0.06927858 0.097778775 0.11670461 0.13526247 0.093040176 -0.045919266 -0.013380615
-0.11196909 0.106683254 0.06705153 -0.16872776 -0.18196027 -0.16261977 -0.11659518 0.13825038

conv1.bias f4 [8]
00000000: f835 283b 2858 aa3d 7e1b 873d fc0d dcbd
00000010: 34ce a83d ca96 b33d 4274 9cbd 9c8b 9fbd
0.0025666934 0.08317596 0.065970406 -0.10744855 0.08242455 0.08768995 -0.07639362 -0.077903

batch1.weight f4 [8]
00000000: 323f 893f 31be 443f 987c 9a3f 39cd 713f
00000010: 25d7 613f 648b 873f 9ce4 913f 6f01 453f
1.0722411 0.7685271 1.2069273 0.9445377 0.8821891 1.0589414 1.1397891 0.7695531

batch1.bias f4 [8]
00000000: 86cc c9bd 572e 963e 001a 62be eb6a 78bb
00000010: 1774 bf3d 4876 6ebe f5c6 8abe dd6a d93d
-0.09853463 0.2933223 -0.2208023 -0.0037905525 0.09348314 -0.23287308 -0.27104917 0.10616086

batch1.running_mean f4 [8]
00000000: 2185 0dbe fb87 133d dc03 d7bc 0d3f e4bc
00000010: fd3c e1bc 1f63 c1bc b3b9 1cbe a835 7d3e
-0.13820316 0.036018353 -0.026246957 -0.027862096 -0.027494902 -0.023606835 -0.15305214 0.247275

batch1.running_var f4 [8]
00000000: 88fa b53e 3517 563d 9e5e 243e 2e87 213e
00000010: a40f 103d 05ea 003e aa83 e23d 1f05 8b3d
0.35542703 0.052268226 0.16051719 0.15774223 0.035171166 0.12589271 0.11060269 0.06788086

conv2.weight f4 [16, 8, 5, 5]
00000000: b5a2 aebc acd0 01bd cb4e c73d 3f1d 8fbb
00000010: 07b7 f33c 9344 c5bc 08e3 79bd 29c8 d3bc
00000020: 1ac5 c9bd 681b 67bd b76c 92b9 9f0f 45bd
00000030: cac3 0bbd 060a 36be 7598 b1bd 420f 2e3d
00000040: 3b27 c9bc 75dc 10bd 6d06 0dbe 2c8a 34bc
00000050: 8f52 94bc 2734 59bd dcbf 7bbc 6c41 9ebd
00000060: 26c8 353d 68f2 a6bc e8fe 0e3c 0bc0 7cbd
00000070: bbf6 8bbc 0a62 50bd ba0c bc3d edcf b63d
00000080: 3436 1b3e 2825 1d3e 0908 103e e588 d03d
00000090: 20d6 083e cea9 853c b6c1 f13c 3ea9 1d3c
000000a0: d201 0d3d 48a7 b33b 1764 0abc 8e4a 83bd
000000b0: 4171 45bd c46e 0ebd d942 2dbd eb05 92bd
000000c0: 333c ecbd 3df2 17be 9d5c 903d 22c2 b83c
000000d0: dc63 ae3d 3118 bd3c 7f9b 25bc 97e5 253d
000000e0: 33fc 083d 1304 c93c b1aa 25bc ad0f 8ebc
000000f0: 0e51 f03c 6039 57bc fc97 d9bc 1bce a6bd
00000100: 9d1d a9bd a5d6 19bc 6dd6 34bc e64a 83bd
00000110: 442f 0ebe d415 e9bd 90dd aeb9 b96c 80bb
00000120: 927f d03c 4a65 223d a0f7 a5bc 77b1 183c
00000130: 6809 debc 3713 fe3c d3d5 adbb 40a5 913d
00000140: d016 e63c c14d 1ebc a058 12bd 78a1 dc3c
00000150: f5d7 403d d0af 0b3e 2dc9 a5bc 0ffc 003d
00000160: b1d2 393d d27a ab3d 7b8f a8bc 0701 f93c
00000170: c90f 253d 103e 723d 0141 b23d 0f64 c7bd
00000180: 9bdc c3bd 17d2 0abd 3d4e e0bc 6ac4 a2bd
00000190: 740a 0dbd a08e b3bd 43b5 23bc 79a4 00be
000001a0: d248 d0bd 44e7 493d 7928 2dbd 3871 cc3d
000001b0: 269f 0dbd 3ef5 cf3d 18ee 473d 8d91 dc3c
000001c0: 04e0 c93e 264c 8dbc bef5 5c3e 049a ba3d
000001d0: 37a6 c3bc 6a73 7e3d 1585 13bc 73f0 a8bc
000001e0: 0ba7 9cbd 0cdb 9ebd 48ea 88bd de78 31be
000001f0: 67db d5bd 9595 783c 60b3 82bc e87a 833d
00000200: fb3f 293d 4e57 c33a de3d febc b771 6dbc
00000210: 7b86 0e3d c835 02bc 46d7 2abd 5258 d4bc
00000220: 8d6b 113c 0dec 2f3d 2aeb 723d 3968 3fbb
00000230: ad58 693d 92f6 3a3d 9339 d93b 5493 9d3d
00000240: ee08 edbc 8c1a e2bc 313d 2f3d 207a 953d
00000250: d4b4 9f3b caae e03d 0a4b 36bc 9f22 dcbb
00000260: 4a54 8cbc 4c40 033d a15d 463c ef5c 21bd
00000270: 8e01 21bd 6631 1dbd e155 303a 84cd c1bc
00000280: 9e2b b8bc 3295 05bd 5d76 3ebd ce9b 6fbd
00000290: 59bb 03bd 5048 56bc 7476 a23c f3fe 51bd
000002a0: 8d90 babd 8261 a5bd 805f d83b 47fd 4f3b
000002b0: 6908 bc3c ba91 bfbb dfc9 13bd de0d 41bd
000002c0: 139b 8dbd 7a60 8ebc e733 56bd 3bad 49bc
000002d0: 3de2 c3bc f5a4 7cbd 28b5 8eba eafb 3bbd
000002e0: 9edd f1ba 874b 053c ebb3 b03c b374 803d
000002f0: ebd0 b43c 139a c63d ba2f 823d 5d36 c53d
00000300: d0ce b13d af68 c73d 932e 2e3e 0ffb d0bc
00000310: 12a2 cabc ddb2 21bd 987f a0bd 0042 b4bc
00000320: 1cca aabc b1b9 80bc 4082 09bd 65e2 84bd
00000330: 26b1 49bd de64 42bd 37bb 7ebd 8422 91bd
00000340: 3b74 04be 290e b73c f4f2 4abd 85ab d9bd
00000350: 9860 1ebe 51ac 26bd 168f a43d c62e 95bd
00000360: ef97 f6bd a06c 1fbe 6510 463d c7e2 533c
00000370: 1e33 abbd 489f d1bd fc39 d0bd f90e 95bc
00000380: 9dbf 9abd 1996 143d 6c2a 983d 7cc6 6e3d
00000390: 707c f33d 9962 313e 5034 58bd eae6 79bc
000003a0: ab8e 0abd b6fa 093d 327e 6a3d 7b69 93bd
000003b0: 79b6 75bd b575 d7bb 7d41 a03d 09e6 773c
000003c0: 10f2 93bd 17c5 0c3c ae0b f43c 111e 9ebc
000003d0: 4e59 22bd c848 b6bd 2a93 65bd 7cd2 a7bd
000003e0: 69d7 d8bd 8e9f 68bd d8c6 053e a1e2 963d
000003f0: 26d3 55bc eafc b23d f76e 2abd 4132 eabc
-0.02131782 -0.031693146 0.097318254 -0.0043675 0.02975036 -0.02408055 -0.06100753 -0.02585228
-0.09852047 -0.05642262 -0.0002792829 -0.0481106 -0.034122266 -0.17777261 -0.08671657 0.04249502
-0.02455484 -0.035366494 -0.13771982 -0.011019271 -0.018105773 -0.053028252 -0.015365567 -0.07727322
0.04438033 -0.02037926 0.008727767 -0.061706584 -0.017085424 -0.050874747 0.09182115 0.089263774
0.15157396 0.15346205 0.14065565 0.101823606 0.13362932 0.01631632 0.029511314 0.00962287
0.034425564 0.005482588 -0.008446715 -0.064107046 -0.04820371 -0.034773603 -0.04230008 -0.07130035
-0.115349196 -0.148385 0.070489146 0.022553507 0.085151404 0.023082824 -0.010107874 0.040502157
0.03344364 0.024538076 -0.010111497 -0.01734146 0.029335525 -0.013136238 -0.02656173 -0.0814478
-0.082576014 -0.009389554 -0.011037451 -0.0641077 -0.13885218 -0.113811165 -0.00033352943 -0.0039192108
0.025451455 0.039647378 -0.020259678 0.009319655 -0.027104095 0.031015022 -0.005305031 0.07111597
0.02808705 -0.009662093 -0.03572905 0.026932463 0.047080953 0.13641286 -0.02023753 0.03149038
0.045366947 0.083730355 -0.02057623 0.030395998 0.040298257 0.05914122 0.08703805 -0.097358815
-0.095635615 -0.033891764 -0.027381057 -0.07947619 -0.034433797 -0.08767438 -0.009991947 -0.12562741
-0.10170139 0.049292818 -0.042274926 0.09982532 -0.034575604 0.10154198 0.04881105 0.026924873
0.39428723 -0.017248224 0.21578118 0.091114074 -0.023882968 0.062121786 -0.009003897 -0.020622468
-0.076490484 -0.077566236 -0.066853106 -0.17331263 -0.10442238 0.015172382 -0.015954673 0.06419927
0.041320782 0.0014903338 -0.03103536 -0.014492444 0.03479622 -0.007947393 -0.041709207 -0.02592102
0.00887574 0.042949725 0.0593063 -0.0029206409 0.056969333 0.045645304 0.006629178 0.07694116
-0.028934922 -0.02760055 0.042782966 0.07298684 0.0048738513 0.10970838 -0.011126289 -0.0067179943
-0.017130036 0.03204374 0.012107284 -0.03939527 -0.039308123 -0.03837719 0.0006726664 -0.023657568
-0.022481736 -0.032612987 -0.0464996 -0.058498196 -0.03216109 -0.013078764 0.019831873 -0.05126853
-0.09109602 -0.08075239 0.0066031814 0.0031736658 0.022953229 -0.0058462294 -0.03608119 -0.047132365
-0.06914344 -0.017379988 -0.05229559 -0.012309368 -0.02391159 -0.061680753 -0.0010887729 -0.04589454
-0.0018452888 0.008135683 0.021570167 0.062722586 0.022072276 0.09697356 0.06356759 0.096295096
0.086820245 0.09736764 0.17009954 -0.025510339 -0.024735484 -0.039477218 -0.078368366 -0.022004128
-0.020848326 -0.015713545 -0.03357148 -0.06488494 -0.049241208 -0.047459476 -0.06219026 -0.070866615
-0.12934963 0.02234562 -0.049548104 -0.10628418 -0.15466535 -0.040691677 0.08035104 -0.07284312
-0.12040698 -0.15568781 0.04835548 0.012932486 -0.08359359 -0.102354586 -0.1016731 -0.018195616
-0.075560786 0.036275957 0.07429966 0.05829476 0.11888969 0.17322768 -0.052784264 -0.015252808
-0.033827465 0.033686362 0.057249255 -0.07197853 -0.059988473 -0.006575311 0.07824991 0.015130528
-0.07223904 0.008591912 0.029790726 -0.019301446 -0.03963595 -0.08900601 -0.05604855 -0.081944436
-0.10587961 -0.05679279 0.13064134 0.07367445 -0.01305083 0.08739646 -0.04160973 -0.028588416

conv2.bias f4 [16]
00000000: 4838 103d 983a 1d3c 7172 08bd 565a 8dbc
00000010: aefc 253d 36bf 86bd fa50 193d b892 2a3c
00000020: 508a a33c d01b 273c 9b0e 5a3a 99c8 0bbd
00000030: b8a2 433c 6edc 37bd b204 4cbd 124c 713d
0.035209924 0.009596489 -0.033312265 -0.01725499 0.040524177 -0.06579439 0.03743074 0.010410957
0.019963413 0.010199502 0.00083182164 -0.03412685 0.011940651 -0.044887953 -0.049809165 0.058910437

batch2.weight f4 [16]
00000000: edf3 ab3f 4a91 a53f 533d b93f 5ac5 d83f
00000010: 65c0 be3f 6a07 c63f ed9c b13f 9020 bc3f
00000020: 7ff0 cc3f d4ad b53f 3d8a cc3f ae04 9c3f
00000030: 05a9 ce3f 7ef0 ba3f fe55 d43f 14b4 b03f
1.3433815 1.2934964 1.447184 1.6935227 1.4902464 1.5471013 1.3876015 1.4697437
1.6010894 1.4193673 1.5979687 1.2188928 1.6145331 1.4604642 1.6588743 1.3804955

batch2.bias f4 [16]
00000000: 6e5f 1dbe 5db1 53be b1a7 90be fb0f c3be
00000010: aa61 e4be f959 99be 3677 f3be acf8 25be
00000020: 093c a5be 6d10 52be 3b35 d8be fa9e fcbd
00000030: 031d e6be 814e 7bbe a587 1fbf 9116 cabe
-0.15368435 -0.20673127 -0.28252938 -0.3809813 -0.44605762 -0.29951456 -0.47551888 -0.16208142
-0.32272366 -0.20514078 -0.42228112 -0.1233501 -0.4494401 -0.24541666 -0.6231635 -0.39470342

batch2.running_mean f4 [16]
00000000: 2f20 283e fb09 aebe 7d00 ddbd 5e26 2abf
00000010: 5f37 b5be d55e d8be ec9d a53e dec2 36bf
00000020: 0e86 e3bf b556 2ebf d390 44be 4701 5e3d
00000030: 2924 9cbf ba97 56bc 229a 9bbf 7f51 613e
0.16418527 -0.3399199 -0.10791109 -0.66464794 -0.35393807 -0.4225985 0.32347047 -0.71391094
-1.7775285 -0.68101054 -0.19195871 0.054200437 -1.2198535 -0.013097698 -1.2156413 0.22003745

batch2.running_var f4 [16]
00000000: a572 3c3f 67d6 143f 29fc 283f 9e29 953f
00000010: 5397 3a3f c68d 6f3f 0652 6e3f 3a92 893f
00000020: df6b 973f f21f 633f 7a9c 613f 3477 323f
00000030: 5512 813f 186d 243f aa46 bf3f 553e 663f
0.73612434 0.5813965 0.66009766 1.1653326 0.7288715 0.93575704 0.9309391 1.074775
1.1829795 0.8872062 0.8812939 0.6971314 1.008372 0.64228964 1.494344 0.8993886

fc1.weight f4 [120, 1024]
00000000: 1706 813b dff6 fd3c 236b 30bb 72bc de3b
00000010: 453d f23c c344 4f3c aba4 583c 84d1 293c
00000020: 3a49 4f3c d336 b8bc c119 8ebb bc99 9f3c
00000030: 8faa 893b 8a27 ff3a 59fb 8abc c77a 36bb
00000040: c74e 08bd cdd9 8abc 9df8 7abc 843c e7bc
00000050: 2f55 8f3c a5de e43b 6879 1b3a 80db cb3c
00000060: 28ea d7bb ecb0 793c 1b04 e13b 66c1 513d
00000070: 9b81 1b3d baf1 9e3c eb3c ab3c 8346 3e3c
00000080: 435d c9bc 1afe 853a 7b9e a53c ccc1 183d
00000090: 35bc 093d efe4 163d 2666 6d3c 5129 9a3c
000000a0: 04bf e6bb b690 1b3d 627a a13c a3c8 fb3c
000000b0: cd45 903c 42d9 7f3c adba 0b3d 881d 383c
000000c0: 25c6 523c d801 ca3c 220a 463d d8d6 a93c
000000d0: 6aad b03c 1168 06bd 405b 463c 752d b73b
000000e0: f672 a8bd 667b 9abd 69b7 34bd 9ee0 99bd
000000f0: 0b65 51bd 5c67 31bd 44ef 2dba d882 c0bc
00000100: 85c0 97bc a277 033d 807c ac3b f73d 4939
00000110: 45e0 f63c 2096 883c 9581 c33c e84a 433c
00000120: 3b07 a7ba 79e2 eebc 3199 49bd 4d1d 1cbd
00000130: 0a31 f2bc b4b0 a5bc 8a46 c93c f0ed 85bc
00000140: ce21 0fbd c7a3 08bd 94e9 81bd 47a6 fdbc
00000150: 48bf b9bc 15c1 db3c 0fce 533c db54 75bc
00000160: 9682 0bbd 57c1 413c c781 8bbc 7f04 79bd
00000170: daca c2bc 1b7d dabc aaad 3f3b 7ba0 4dbc
00000180: dc06 0bbb 917e 2a3d 8cb1 06bc 2fd7 5b39
00000190: 148c a23c 9be2 fdbc 8bbb 6dbb d3af a13a
000001a0: b501 2e3c 2582 203d 62e2 2f3c 3fe6 7f3d
000001b0: 2d6f fb3c fd92 4c3c e1f5 7bbc 3676 a6ba
000001c0: 4f31 e03c ff45 693d e462 883d 3a60 4e3d
000001d0: 63c2 6e3d 6df0 423c 2c38 413d b552 8b3c
000001e0: 5a32 7cbb fde2 2c3c 6a23 073d 6d26 5e3d
000001f0: 6b71 703d 96e7 4a3d 29e0 073c 7f11 24bd
00000200: 1631 fb39 1149 c0ba 47db 23bd d4c1 aa3c
00000210: 0575 933c fde5 ba3c cce5 693c 52cf 943c
00000220: cdb6 b1bb a346 e63c bc67 ad3c 4c67 8abc
00000230: f169 293b 1679 463c 8655 8fbc 429e 673c
00000240: eda0 8f3b 1dce 973d e3d4 313d ed4a 913c
00000250: 5d5f 2fbd 0d91 193b 0b81 563a e6f9 5f3a
00000260: 24a9 3c3c e6fa 7a3c 105f af3d 9386 d5bb
00000270: 1948 04bd 3091 24bd 7e93 85bd bf51 9fba
00000280: e7c3 693c 5198 e73c 0b98 623d 71ec 0c3b
00000290: 80d6 06bd 3496 c63c c1f2 04bc eb90 b73c
000002a0: 00b9 57bc 0761 ecbb 06df c53a 750d f83c
000002b0: c8c3 5b3c a0c3 9a3c 7481 22bc 0b78 a03b
000002c0: c4cd f0bc 4697 0bbd 6bf6 54bd 58c7 b2bc
000002d0: c690 38bb c369 04bc eabd 023b c90b be3c
000002e0: 1842 3ebd 8f99 f0bc 17e1 36bd f88b d8bc
000002f0: f467 2b3c 8e7f 6d3b c955 09bc 0bfe f8bc
00000300: 5f59 553c 8ce3 893c 391f a63c 171a 523d
00000310: 0ceb 8b3c cd97 083d 99ad 1d3d 9b04 973c
00000320: 6732 063d eaea 3b3d 7951 7b39 cc77 003b
00000330: dc5e d7bb 2826 843b 4111 ea3b b61d 24bc
00000340: 021c 4cbc 450e 02bb 7d67 8dbc a227 9b3c
00000350: aa38 03bc daf1 63bc 1547 e3bc 9017 843b
00000360: 2458 06bd b2ea 03bb afdf a3bc 134c 8fbd
00000370: 8e19 44bd 200e 3bbd 27c9 f6bc 395d 79bb
00000380: 5f17 bf3c 7d91 b63b d47c 23bc 3ac1 37bd
00000390: b860 2cbd d465 7abc c65e ad3c 45b6 143d
000003a0: 54ff e13c 3737 823c 177a 43bd f619 d2bc
000003b0: 28c5 1abb 38e2 6cbc 63ac b43c 02f8 d73c
000003c0: 3e1b a43c b242 6a3c d057 aa3c 4532 553c
000003d0: 3ff7 6f3c 7a20 443c c02c 2d3c 4542 2f3d
000003e0: 59e4 1c3c 957d 97bc 8f3b 853c e13f cebc
000003f0: d428 d53b 9c3c b2bc 8769 fa3c f7c1 533d
0.0039374935 0.031001506 -0.0026919327 0.006797367 0.029570231 0.012650671 0.013222854 0.010364894
0.012651736 -0.02248708 -0.004336566 0.019482486 0.0042012404 0.001946674 -0.016965555 -0.0027844177
-0.033278253 -0.016949559 -0.015318063 -0.028227098 0.017496673 0.006984549 0.00059308717 0.02488494
-0.006589193 0.015239935 0.0068669445 0.05120983 0.0379654 0.019402374 0.020903071 0.011613491
-0.024580603 0.0010222823 0.020217171 0.037294194 0.033626754 0.03683942 0.014489686 0.01881853
-0.007041814 0.037979804 0.019711677 0.03073532 0.017611409 0.015615763 0.034113575 0.01123751
0.012864624 0.024659082 0.048349507 0.020732328 0.021567065 -0.03281409 0.012106717 0.0055901357
-0.08225052 -0.07543068 -0.044120226 -0.075135455 -0.051121753 -0.04331146 -0.00066350796 -0.023499891
-0.018524418 0.032096513 0.005263865 0.00019191937 0.030136237 0.016673148 0.0238655 0.0119197145
-0.0012743244 -0.029160725 -0.04921836 -0.03811388 -0.0295644 -0.02022586 0.024569768 -0.016348809
-0.034944348 -0.033359315 -0.063433796 -0.030963076 -0.022674218 0.026825467 0.012927546 -0.014973844
-0.034060083 0.011825881 -0.017029656 -0.060795303 -0.023778368 -0.026670983 0.00292478 -0.012550469
-0.0021213805 0.04162461 -0.008221041 0.0002096563 0.019842185 -0.030991843 -0.0036275114 0.0012335725
0.010620524 0.039186615 0.010735126 0.06247544 0.030692661 0.012486217 -0.015378446 -0.0012700025
0.027367262 0.05695152 0.06659487 0.050384738 0.05829085 0.011898142 0.04717271 0.017007211
-0.003848216 0.010552165 0.032992758 0.054235864 0.058701914 0.049537264 0.00829319 -0.040055748
0.00047911023 -0.0014670213 -0.04000404 0.020844378 0.018000135 0.022814745 0.014275979 0.018165264
-0.005423403 0.028109854 0.021167628 -0.016894959 0.00258505 0.01211383 -0.017496835 0.014136853
0.0043831975 0.0741236 0.043415915 0.017735923 -0.042815555 0.0023432404 0.0008182681 0.00085440127
0.011514936 0.015318608 0.085630536 -0.0065162866 -0.03229532 -0.040177524 -0.065222725 -0.00121551
0.014267898 0.028270872 0.05532078 0.0021503235 -0.032919407 0.024241544 -0.008114518 0.02240797
-0.013166666 -0.007213715 0.0015096373 0.030279854 0.013413377 0.01889211 -0.009918559 0.0048971227
-0.029394992 -0.034079812 -0.051992815 -0.02182357 -0.0028162464 -0.008081856 0.0019949623 0.023198979
-0.04644975 -0.029370097 -0.044648256 -0.02643393 0.010461796 0.0036239359 -0.008382269 -0.030394575
0.013021796 0.016832136 0.02027856 0.051294412 0.017079853 0.033347894 0.038495634 0.018434813
0.03276291 0.04587833 0.00023967576 0.0019602655 -0.0065725874 0.004032869 0.00714317 -0.010016849
-0.012457849 -0.001984493 -0.017261261 0.018939797 -0.008009115 -0.013912642 -0.027743855 0.004031129
-0.0327989 -0.0020128903 -0.020004122 -0.06996932 -0.047875933 -0.045667768 -0.030125214 -0.003804995
0.023326574 0.005571543 -0.009978492 -0.04486201 -0.042084426 -0.015283067 0.021163356 0.03630664
0.02758757 0.01589547 -0.047723856 -0.025647145 -0.002361605 -0.014458232 0.022054857 0.026363377
0.020032521 0.014298128 0.020793825 0.0130124735 0.01464635 0.011970634 0.010569751 0.04278781
0.009575927 -0.0184925 0.016263751 -0.025176944 0.006505111 -0.021757416 0.030567897 0.05169865

fc1.bias f4 [120]
00000000: e8ee 3bbc 49e1 7ebc 36ba 3d3c af86 dc3c
00000010: 5746 2bbd 4521 9fbc 395a a1bb 3c9a 52bc
00000020: 17da b9bc a46c 273d 1e26 3c3c fe8d 243d
00000030: 42f9 3b3d f774 79bc 03d6 363c 0b0d 47bd
00000040: bef2 27bc e814 4a3d 6d6a 6539 9e82 7b3c
00000050: 857c e03b fdae 00bd e951 8f3c af41 543c
00000060: 329e 5ebc 96cb 963d 9ec1 b8bc 2659 9b3d
00000070: 753d d0bc 24e6 7cbc 9154 5f3c 11c1 37bb
00000080: 4730 d6bc 8459 a63c df06 623c 323c 4fbd
00000090: 8a29 903c d311 7fbc c769 cd3c 0070 963c
000000a0: fc6a a23d 58dd f6bb fff7 8fbb 786e a23c
000000b0: f0ba c93b 9f78 e13c 255b 4c3c 3560 423d
000000c0: 5a8a 313d 11bd 1abd 7a34 dc3c ac0b 013d
000000d0: ec12 393c c41c 203d 4fdf c6bc 4a29 443d
000000e0: c725 a93a 9c99 54bc e9e5 003c 96cc d13c
000000f0: 1efb 04bd 3155 5e3c a871 8bbc 1fad 99bc
00000100: 1717 0a3c ee79 3bbb 992f cdbb 851a 8abc
00000110: a9b5 853d 3ca5 863d abb9 163d b383 b0bc
00000120: 1d47 153d ca90 273b 9128 25bc 4dd8 30bd
00000130: 1083 8a3d 23e6 2ebc 3c55 633d 98dd a93b
00000140: 25ee 87bc a93a 65bc 4e7e dbbc 15c6 47bc
00000150: d150 a0bc ab9f 29bd fb7b d4bc a1dd 8fbb
00000160: 8c2a b3bb b54f 8f3b cd28 a93b 0938 aa3c
00000170: 1517 bfba 4bac 503b ca59 423d 2956 483d
00000180: f85b da3b 7847 c6bc a4ef 44bc ab38 dd3a
00000190: 1a2e c93d 517f eabc 9e2e bc3c 234e 493c
000001a0: d2ce ecbc 6ab4 d7bc a5d0 28bd cc15 fa3c
000001b0: 63d2 803c 86b5 82bc bb38 343d f230 9f3c
000001c0: 21a2 2f3c c87b 193c f13f ecbb dc45 38bd
000001d0: 70c4 a2bd 176f c83b 5385 3cbd 9e59 083d
-0.011470534 -0.015556642 0.011580041 0.02691969 -0.04181513 -0.019425044 -0.0049240855 -0.012854155
-0.022687001 0.040875092 0.011483697 0.040174477 0.045892008 -0.0152256405 0.011159423 -0.048596423
-0.010250745 0.049336344 0.00021878789 0.015350966 0.0068507814 -0.03141688 0.017495112 0.012955113
-0.013587521 0.0736305 -0.022553261 0.07585363 -0.02541993 -0.015435729 0.013631002 -0.002803866
-0.026146067 0.020306356 0.0137955835 -0.050594516 0.017597932 -0.0155682145 0.025074853 0.018363953
0.07930562 -0.0075337104 -0.004393577 0.019828066 0.006156318 0.027523337 0.012472902 0.04745503
0.043344833 -0.037777964 0.026880492 0.03150527 0.011296015 0.039089933 -0.024276404 0.04789094
0.0012904935 -0.012976076 0.007867315 0.02561025 -0.032466047 0.013570116 -0.017021969 -0.018759308
0.008428357 -0.0028606611 -0.0062617776 -0.016858349 0.065287896 0.06574485 0.03679816 -0.021547174
0.036444772 0.0025568479 -0.010080473 -0.04317503 0.067632794 -0.010674986 0.055501208 0.0051838867
-0.016593048 -0.013991036 -0.026793625 -0.0121932225 -0.019569786 -0.041412037 -0.025938025 -0.004390434
-0.0054677185 0.0043735155 0.0051623345 0.020778673 -0.0014579023 0.0031840976 0.04744891 0.048910294
0.0066637956 -0.024204 -0.012020025 0.001687785 0.09823246 -0.028625162 0.022971448 0.012286696
-0.028907213 -0.026331145 -0.041214604 0.030527972 0.01572532 -0.015955698 0.043999415 0.019432519
0.010719807 0.009367891 -0.007209771 -0.044988498 -0.07947624 0.0061167586 -0.046025585 0.03328859

fc2.weight f4 [10, 120]
00000000: 27f5 d73e 45f4 a0bd 87a5 19be fed5 18be
00000010: dd83 1ebe 3314 253d 61fe 0dbc 57eb 113d
00000020: 60d1 593d d9d8 5ebe 2ae6 b03c d891 fb3d
00000030: b9f1 98bd 5a6a 8d3d 2094 1fbe 0c32 043e
00000040: cabe dc3c c131 5cbe b295 1b3e bff5 6dbe
00000050: 506f 14bd edcc 8abd 4090 e9bd ee64 ddbd
00000060: 2ac0 903d 8158 d7bd c28e 2f3e 5e07 9fbd
00000070: 43b6 2dbd 0f94 fabd 24da 3abc a1e5 3bbe
00000080: dd9f c43d 0051 5fbe 9515 66bd 1494 103e
00000090: cdaa eabd 2e1a e23d cb8b 0b3e 21cc 07be
000000a0: e284 29bd 4a12 c33d 44d4 8dbd 2d63 0d3d
000000b0: 5255 78be f90d 71be cbec 183e 95b4 8bbe
000000c0: 87b8 023d 794c 053e e9b1 e73c ba5a ab3d
000000d0: 0d8f e23c d605 e43d f09c e33d 6de5 8fbe
000000e0: 2a1d 50bd 78e4 0a3e 161b 993c a1f4 13be
000000f0: edc0 1e3e 750e 8e3d 830a 10be 76ea a83d
00000100: 769e bdba 3c00 13be 2da7 9fbd b877 debd
00000110: 0474 cdbb fc78 8dbe 008c 51be 5a42 8e3e
00000120: 1022 ca3d 03bd 013d 67d4 5b3e 71d3 533d
00000130: 4306 afbe 91b0 273e 8b8a 91bc 4738 0cbe
00000140: 5bfb 433e d884 073e 6be2 7a3d 0a53 6abe
00000150: 229a 923d 52f7 f53d 917c 313e d36c 8fbe
00000160: 72ff d0bc e00d 6cbe a472 843d febe 0f3e
00000170: e254 273e e0bc 8ebe baa9 0dbe 8883 53be
00000180: ccb1 aebd 9057 563e 0f29 953e 1e6b c83d
00000190: 98dd 693d c7db cf3d f5b6 023e b7fb acbc
000001a0: 0405 1d3e 2469 babd 8367 aa3d ee5a ea3d
000001b0: 2aeb 403e 4c71 c5bd 4945 273c 8b34 20be
000001c0: 7894 5b3e c900 213e 28fb 653e f194 183e
000001d0: cbe8 243e 06a9 173e fd23 083d 3c0f 723e
000001e0: 6437 9abd 55a1 a9bd c6e1 013f 4f93 133e
000001f0: f59e 153c 704e 883d f8c3 113d 9232 ec3d
00000200: 1611 1c3e 441c 16bd df9e 19be 2f80 10be
00000210: 4d75 c13c 2e1b 06be c52f 81be d2c7 0dbc
00000220: f34c b9bc d166 8ebd 6969 9fbc 1887 e6bb
00000230: e5cb bc3c cced eebc 2d0d 94be 90d0 c33b
00000240: f614 bb3d 90da 08be 947b 563e c7ed debd
00000250: 1ce5 50bd 9136 eb3d 4bae 47bd 0186 22be
00000260: 8c05 e8bd 9035 04bd afc5 9c3c ee8c 57be
00000270: 5ed1 ec3d 7708 c03e 0cd0 0a3e 9c17 d2bc
00000280: b9a1 8cbe 57f4 1f3d a646 213d 2fd6 6e3d
00000290: ee7b d9bd 8b6b e23e 9984 9bbe cf84 d0bd
000002a0: 26c8 213e cd42 aebd 7f82 653d bad9 d6bd
000002b0: 172f adbe cfde 6dbe 1d66 1e3e 73a1 20be
000002c0: 8b29 15bd a3ea e43c 6388 023e 0bf3 813d
000002d0: 1a7e 54be e699 28bd 05bf 1e3e 3b3d aa3e
000002e0: f598 b23d e794 333e f337 b5bd 922f d03e
000002f0: 40d0 8fba 250a 26be 6d6d 0d3e 6369 12be
00000300: d2e0 97bd a557 7b3c 86f8 7cbe 8eeb 21be
00000310: ee46 063e 11cf 07be 627c c1bd 3559 3f3d
00000320: bdef 733e 31be 6e3c e26c 93bd a22d 8d3d
00000330: abd6 46bd e318 45be be91 f83d d023 11be
00000340: 624b 15be 6eb8 6abd f98b eebd 605e fcbd
00000350: 9160 d2bd 81af 5bbc dea0 ae3e a4b6 593d
00000360: 68ae 2c3d 43aa 23be a2dc dbbd cb53 853e
00000370: 596d 90be ef5f 60be 402f c63d 7edf 463e
00000380: 5daf f23d bd41 783d d56a 043e 739f 383e
00000390: 09b7 483e d6ed 73be 7588 8ebe 597d 2d3e
000003a0: 2a78 37be e8ca 45bd 574e 023e eeed 593e
000003b0: 7f77 86bd c3fa 81bd 373e 99bc 2c43 273e
000003c0: 7af1 f1bc d108 70bd 8300 0d3d e3d1 143c
000003d0: f046 043e c3d0 ac3d 047e 683d 5448 c13d
000003e0: f15b a93d 83ff 3c3b c7e7 fa3d d6ad cfbd
000003f0: d12e 47be 3d49 b4bc 52cf 643e e0fb e5bc
0.42179224 -0.07859091 -0.1500455 -0.14925382 -0.1547999 0.040302467 -0.008666606 0.03562483
0.05317819 -0.21762408 0.021594126 0.12283677 -0.0746798 0.069050506 -0.15583849 0.12909716
0.026946444 -0.21503355 0.15193823 -0.23238276 -0.03623897 -0.06777368 -0.11404467 -0.108102664
0.070679024 -0.10514928 0.17144302 -0.07765077 -0.042410146 -0.12235271 -0.011404548 -0.18349315
0.09600804 -0.21808243 -0.056172926 0.14118987 -0.11458359 0.1104015 0.13627546 -0.13261463
-0.041386493 0.09524973 -0.06925252 0.03451841 -0.24251297 -0.23540486 0.1493408 -0.2728621
0.03191426 0.13017453 0.028283076 0.08366914 0.027656103 0.111339256 0.11113918 -0.28104725
-0.050809063 0.13563716 0.018689673 -0.14448787 0.15503283 0.06936351 -0.1406651 0.08247845
-0.0014466781 -0.14355558 -0.07795558 -0.10862678 -0.0062699337 -0.27631366 -0.20463562 0.27784997
0.09869778 0.031674396 0.21467744 0.051715318 -0.34184465 0.16375948 -0.017766258 -0.13693343
0.19138853 0.1323427 0.061251085 -0.2288324 0.07158305 0.12010063 0.17332675 -0.28012714
-0.02551243 -0.23052168 0.064671785 0.14037701 0.16340974 -0.27878475 -0.13834277 -0.20655644
-0.08530006 0.2093184 0.29132888 0.09786056 0.057096094 0.10149341 0.12765105 -0.02111612
0.15333945 -0.09102085 0.083205245 0.11443125 0.18839708 -0.0964075 0.01020939 -0.15645044
0.21443355 0.15722956 0.2245909 0.14900567 0.16104428 0.14810571 0.033237446 0.23638624
-0.07530096 -0.08282725 0.5073513 0.14411663 0.009132137 0.06655586 0.03558728 0.11533083
0.15240893 -0.03664805 -0.15002011 -0.14111398 0.023615504 -0.13096306 -0.25231758 -0.008653598
-0.0226197 -0.069532044 -0.019459443 -0.0070351474 0.023046443 -0.029166125 -0.28916302 0.0059757903
0.09134857 -0.13364625 0.20945579 -0.10885196 -0.050999746 0.11485017 -0.048750203 -0.15871431
-0.11329183 -0.032277644 0.019137232 -0.21049854 0.11563371 0.37506458 0.13555926 -0.025646023
-0.27467135 0.03905138 0.039374016 0.05830973 -0.10619341 0.44222674 -0.303746 -0.10181581
0.15799007 -0.08508835 0.056032654 -0.10490747 -0.3382499 -0.23229526 0.1546864 -0.15686588
-0.03641657 0.027943915 0.1274734 0.06345185 -0.20751229 -0.041162394 0.15502556 0.3324984
0.087205805 0.1753727 -0.08848562 0.40661293 -0.0010972098 -0.16214807 0.13811274 -0.14298014
-0.07415928 0.01534072 -0.24704179 -0.15812513 0.13112995 -0.13262583 -0.09447552 0.046715934
0.23821922 0.014571712 -0.07198502 0.068934694 -0.048544567 -0.19247775 0.12137173 -0.14173818
-0.14579538 -0.057304792 -0.116477914 -0.12322688 -0.10272325 -0.013408543 0.34107107 0.053152695
0.042158514 -0.15982918 -0.10735442 0.2604049 -0.28208426 -0.21911596 0.09676981 0.19421193
0.11849854 0.060609568 0.12931378 0.18029575 0.19601072 -0.23821196 -0.27838483 0.16942348
-0.17916933 -0.04828921 0.12725197 0.21282169 -0.06565761 -0.06346657 -0.018706424 0.16334218
-0.02953409 -0.058602158 0.034424316 0.009083244 0.12917686 0.08438256 0.056760803 0.094376236
0.082694896 0.002883882 0.12251239 -0.101405784 -0.19451453 -0.022007579 0.22344711 -0.028074205

fc2.bias f4 [10]
00000000: ae88 6bbe 95e0 91bd ea5a 06be 2f81 153d
00000010: 7c6c 893e 113b 02bd d760 103e b34d d9bd
00000020: 30b4 cf3d d094 ab3b
-0.23001358 -0.07122914 -0.13120618 0.036500152 0.2684058 -0.03179461 0.14099441 -0.10610523
0.1014179 0.0052362457
