models/net_augm/model_epoch_47.pt (torch, 517807 bytes, 16 tensors)

conv1.weight f4 [8, 3, 5, 5]
0.027986258 -0.020793095 -0.024694255 0.06871217 0.14332348 0.072337344 -0.05690917 -0.0011295249
0.0006134753 0.22633064 -0.074085906 -0.08337943 -0.14730847 0.066337064 0.09992655 -0.043839335
-0.0888775 -0.06139812 -0.04629903 0.031278685 -0.116974406 0.057443492 -0.018784747 0.002683262
-0.014255346 0.06970522 0.05299766 -0.13344078 -0.056607597 0.05126105 -0.10414824 -0.071759835
0.0028701704 0.009273894 0.18367349 -0.16080871 -0.0073950007 -0.057839565 -0.012615643 0.25354022
-0.06941348 -0.0840779 0.019868385 -0.0034087843 0.11375807 -0.061333902 -0.08138668 -0.09249397
0.06704364 0.09266888 -0.24612446 -0.1946522 -0.0269863 -0.010911448 0.18160766 -0.3100835
-0.21775933 -0.11622609 0.035161123 0.16907531 -0.15948659 -0.18535739 0.08685503 0.233127
0.2554534 -0.21454647 -0.04563002 -0.0018562714 0.22703484 0.28260958 -0.11952413 -0.060432233
0.052161824 0.098070934 0.115880586 -0.16591181 -0.18461074 -0.06907374 0.00030440884 0.14888328
-0.25276038 -0.34936506 -0.27200073 -0.051495638 -0.040335074 -0.16470157 -0.16924424 -0.2097425
-0.04444446 0.16173199 -0.17791593 -0.18256444 -0.053477358 0.154327 0.28234136 0.01177278
-0.07330732 0.10261246 0.28609225 0.37621504 0.053467885 0.050369434 -0.0064672646 -0.18218006
-0.17262192 -0.10363148 0.02190435 -0.02308419 -0.22936887 -0.20861824 0.16905169 0.24916013
0.10841324 -0.024069937 -0.04110528 0.021639332 0.11528046 -0.0014681498 -0.02646953 -0.14317587
0.07670383 -0.035119332 0.08158455 -0.11390597 0.071025595 0.18636702 0.17403501 0.30479407
0.22507438 0.19926126 0.26028636 0.26030132 0.26344535 0.09826543 0.12256761 0.16733854
0.07519156 0.15335901 0.063298635 -0.114934854 0.012262583 0.016676098 -0.07976348 -0.18095632
-0.2518239 -0.028995229 0.000725213 -0.14521208 -0.26520106 -0.16426013 0.111461505 0.1336315
0.010123728 -0.08571146 -0.032350563 0.21481834 -0.06724885 -0.20601572 -0.09828338 0.071138084
0.42499462 -0.47569764 -0.28360584 0.22429723 0.03636736 -0.039214052 -0.47708273 0.069318764
0.27413353 -0.0933695 0.013905276 -0.003938839 0.23542626 0.013869974 0.0244809 0.23152246
0.067560636 -0.18044108 -0.08527341 0.16671383 0.44350755 -0.17026702 -0.5215035 -0.0026921525
0.011116685 0.40660688 -0.49422494 -0.26875272 0.34977126 0.18515511 0.08795551 -0.53272563
0.020517979 0.3304993 -0.0070416015 0.038923584 -0.06506755 0.13069205 -0.102745056 0.011133673
-0.07993944 -0.022910805 0.054496918 0.14067681 -0.122101285 0.1871054 -0.111418866 -0.18601781
0.19630194 -0.057174336 0.292066 -0.4871224 -0.036432866 0.37963727 -0.17587048 -0.021924127
-0.31875923 0.19746539 0.25418076 -0.2792814 -0.035085905 -0.056723453 0.21054687 0.12232216
-0.074114986 -0.16247578 -0.25099686 -0.20679145 -0.37360397 -0.27249858 0.0322253 -0.03064734
-0.03610885 -0.03171656 0.0821546 0.14691588 0.24960922 0.2257075 0.16429988 0.09364588
-0.071357384 0.066549756 0.08540824 0.106488995 0.1270268 0.09974727 -0.025779178 -0.005605891
-0.09696229 0.09784301 0.06388347 -0.16387962 -0.18221334 -0.15784559 -0.116071194 0.1312521
00000000: 7043 e53c 4856 aabc 9b4b cabc f7b8 8c3d
00000010: 64c3 123e 9a25 943d 9719 69bd 910c 94ba
00000020: a1d1 203a 38c3 673e 5aba 97bd d6c2 aabd
00000030: 08d8 16be badb 873d 4ba6 cc3d e090 33bd
00000040: 6805 b6bd 987c 7bbd 0da4 3dbd 141e 003d
00000050: 4790 efbd de49 6b3d 78e2 99bc abd9 2f3b
00000060: 418f 69bc 9cc1 8e3d 1314 593d b3a4 08be
00000070: 5edd 67bd 1bf7 513d ac4b d5bd d2f6 92bd
00000080: 7819 3c3b 88f1 173c e714 3c3e 0aab 24be
00000090: c351 f2bb 2ee9 6cbd d8b1 4ebc 06d0 813e
000000a0: a828 8ebd 0931 acbd 06c3 a23c e965 5fbb
000000b0: fef9 e83d 4239 7bbd 0fae a6bd 7b6d bdbd
000000c0: 2d4e 893d 2fc9 bd3d 0d08 7cbe e852 47be
000000d0: 5f12 ddbc eec5 32bc 5cf7 393e 44c3 9ebe
000000e0: 4dfc 5ebe f207 eebd 1c05 103d 1422 2d3e
000000f0: 7450 23be 54ce 3dbe 0de1 b13d d8b8 6e3e
00000100: caca 823e 12b2 5bbe 8be6 3abd 224e f3ba
00000110: d27b 683e 34b2 903e 11c9 f4bd ca87 77bd
00000120: a3a7 553d 6ad9 c83d cd52 ed3d c9e4 29be
00000130: 990a 3dbe 8876 8dbd 1099 9f39 dc74 183e
00000140: cf69 81be fadf b2be ae43 8bbe 17ed 52bd
00000150: 6436 25bd 87a7 28be 5d4e 2dbe bdc6 56be
00000160: 650b 36bd 129d 253e 982f 36be 2cf2 3abe
00000170: 130b 5bbd e607 1e3e 0c8f 903e 9ee2 403c
00000180: 2622 96bd 7b26 d23d af7a 923e 429f c03e
00000190: 2401 5b3d 2e50 4e3d 59eb d3bb 698d 3abe
000001a0: cdc3 30be be3c d4bd c070 b33c 0e1b bdbc
000001b0: acdf 6abe 05a0 55be e31b 2d3e d523 7f3e
000001c0: c307 de3d 512e c5bc 035e 28bd f844 b13c
000001d0: 2918 ec3d ef6e c0ba a1d6 d8bc b29c 12be
000001e0: e616 9d3d 4ad9 0fbd cd15 a73d 8847 e9bd
000001f0: de75 913d ffd6 3e3e 3c36 323e f80d 9c3e
00000200: e679 663e 250b 4c3e 4144 853e 3746 853e
00000210: 4fe2 863e 633f c93d ba04 fb3d cb5a 2b3e
00000220: 08fe 993d 250a 1d3e b7a2 813d f762 ebbd
00000230: 00e9 483c 509c 883c 095b a3bd 9d4c 39be
00000240: 10ef 80be 6787 edbc 381c 3e3a 7ab2 14be
00000250: 6fc8 87be cf33 28be ee45 e43d b2d6 083e
00000260: fedd 253c 7d89 afbd 0682 04bd 57f9 5b3e
00000270: c4b9 89bd c9f5 52be cc48 c9bd d8b0 913d
00000280: e598 d93e a48e f3be c934 91be 2cae 653e
00000290: f1f5 143d ea9e 20bd 3044 f4be fff6 8d3d
000002a0: 3b5b 8c3e 8238 bfbd f4d2 633c 6011 81bb
000002b0: 9513 713e e33e 633c 2b8c c83c 3914 6d3e
000002c0: 3b5d 8a3d 8cc5 38be d3a3 aebd 08b7 2a3e
000002d0: 6c13 e33e 7a5a 2ebe 4181 05bf d36e 30bb
000002e0: c222 363c c72e d03e 0d0b fdbe f599 89be
000002f0: 3815 b33e 4d99 3d3e 0522 b43d b560 08bf
00000300: 5215 a83c 3437 a93e 3cbd e6bb 566e 1f3d
00000310: 2342 85bd 23d4 053e 006c d2bd 026a 363c
00000320: 4ab7 a3bd 71af bbbc 2938 5f3d 950d 103e
00000330: 3d10 fabd 8f98 3f3e 932f e4bd 747b 3ebe
00000340: 6003 493e a32f 6abd ad89 953e 1b68 f9be
00000350: a13a 15bd d15f c23e 6417 34be 3a9a b3bc
00000360: 6934 a3be 5e34 4a3e fb23 823e f9fd 8ebe
00000370: 3db6 0fbd da56 68bd 9999 573e 0a84 fa3d
00000380: 99c9 97bd 0d60 26be a982 80be 23c1 53be
00000390: 0549 bfbe ef84 8bbe adfe 033d 2110 fbbc
000003a0: e0e6 13bd 39e9 01bd ac40 a83d 1e71 163e
000003b0: 8f99 7f3e de1f 673e 3a3e 283e 69c9 bf3d
000003c0: d223 92bd 3d4b 883d 84ea ae3d e716 da3d
000003d0: 5013 023e 4c48 cc3d db2e d3bc 9fb1 b7bb
000003e0: 2a94 c6bd eb61 c83d 56d5 823d 0fd0 27be
000003f0: 2296 3abe 46a2 21be bcb6 edbd f366 063e

conv1.bias f4 [8]
0.002566681 0.08317596 0.065970406 -0.10744855 0.08242455 0.08768995 -0.07639362 -0.077903
00000000: c335 283b 2858 aa3d 7e1b 873d fc0d dcbd
00000010: 34ce a83d ca96 b33d 4274 9cbd 9c8b 9fbd

batch1.weight f4 [8]
1.0625874 0.75974244 1.2084358 0.9436293 0.88623446 1.054941 1.1221733 0.78991115
00000000: dd02 883f 7b7e 423f 06ae 9a3f b191 713f
00000010: 43e0 623f 4f08 873f 60a3 8f3f 9e37 4a3f

batch1.bias f4 [8]
-0.112691835 0.2935931 -0.22978152 -0.0055284686 0.074089736 -0.2302835 -0.277958 0.08819435
00000000: faca e6bd d651 963e d94b 6bbe 2828 b5bb
00000010: 5cbc 973d 70cf 6bbe 8350 8ebe 3d9f b43d

batch1.running_mean f4 [8]
-0.09424595 0.055378944 0.02487961 -0.061722234 -0.04046327 -0.0031960402 -0.12497197 0.24322394
00000000: 0504 c1bd 08d5 623d 53d0 cb3c 74d0 7cbd
00000010: d0bc 25bd a874 51bb 4ef1 ffbd b20f 793e

batch1.running_var f4 [8]
0.30582014 0.051748697 0.13651803 0.14388576 0.03578903 0.10923811 0.09360998 0.061785087
00000000: 7594 9c3e 71f6 533d 62cb 0b3e ca56 133e
00000010: 8597 123d 3bb8 df3d 97b6 bf3d 5c12 7d3d

conv2.weight f4 [16, 8, 5, 5]
-0.02858147 -0.015520708 0.09120631 -0.004045639 0.027968105 -0.027858168 -0.056006063 -0.02680331
-0.089935474 -0.051491477 -0.014525944 -0.053607948 -0.035073575 -0.16432187 -0.0828177 0.040037684
-0.025497904 -0.0390761 -0.12578948 -0.02603734 -0.016184423 -0.044007394 -0.017252734 -0.07338837
0.026648067 -0.019308766 -0.0066421395 -0.052316923 -0.024627222 -0.05513988 0.06827483 0.084355704
0.15005204 0.14886425 0.13358605 0.09671849 0.11603518 0.027463993 0.025076693 0.012621411
0.03112152 0.0125300735 0.009438488 -0.04994525 -0.036872864 -0.03653034 -0.03135391 -0.056331564
-0.104950376 -0.13914566 0.06259631 0.029592952 0.08003778 0.02803108 0.0044779405 0.02636357
0.036137264 0.01541551 -0.013782774 -0.012577041 0.020112686 -0.005226123 -0.025477853 -0.07211874
-0.06868399 0.0019400509 -0.0109079 -0.060434982 -0.1377917 -0.11109106 -0.0071165767 -0.014706285
0.020845613 0.045297265 -0.021665333 0.0045694443 -0.034327924 0.02165048 -0.012469401 0.083044484
0.04105423 -0.006314905 -0.028515745 0.029519504 0.044514656 0.1294021 -0.027244847 0.031197222
0.04223824 0.08357884 -0.023003917 0.042124584 0.05762156 0.06995361 0.0866689 -0.08269925
-0.08732211 -0.029343417 -0.027074823 -0.06877474 -0.031973276 -0.08603405 -0.011479499 -0.1183181
-0.08924289 0.039779782 -0.043556664 0.10141914 -0.026600597 0.102991775 0.051010262 0.0357827
0.34883285 -0.011388756 0.19492006 0.093108386 -0.026259875 0.073818006 0.013525028 -0.023729
-0.080139816 -0.080299586 -0.06847294 -0.1637656 -0.12100483 0.023328254 -0.011155276 0.061394982
0.0403027 -0.012806357 -0.031146118 -0.013124478 0.03473468 -0.005589059 -0.046761196 -0.020248836
0.01687464 0.032922268 0.069156945 0.008307549 0.058305632 0.040955175 0.0076515167 0.07523066
-0.028687287 -0.02428844 0.052872013 0.07670443 0.01982686 0.12689126 -0.016967824 -0.007787868
-0.0228478 0.018024886 0.016138468 -0.042816788 -0.034578223 -0.04114228 0.0056924634 -0.025470426
-0.026689952 -0.028340224 -0.06816201 -0.053313155 -0.03559901 -0.011689921 0.03183722 -0.045379005
-0.08375173 -0.07422134 0.010174148 0.010586065 0.031039428 0.00063064194 -0.047390364 -0.04294982
-0.06346746 -0.012383609 -0.050118025 0.00070403697 -0.021470333 -0.05439867 0.0060676243 -0.0457563
-0.00386746 0.004032747 0.008863718 0.043040954 0.016430479 0.08334678 0.05845987 0.10942349
0.08396909 0.10397479 0.17172728 -0.026313305 -0.029796965 -0.03826337 -0.06812424 -0.014186706
-0.01094646 -0.0077644237 -0.015382984 -0.068665646 -0.048465166 -0.04245686 -0.045673814 -0.07193802
-0.12614778 0.01635724 -0.041423433 -0.086104706 -0.1297583 -0.040684782 0.05095705 -0.062591426
-0.11018443 -0.13491417 0.026765143 -0.011785561 -0.07479721 -0.0874764 -0.08260833 -0.0280449
-0.08089589 0.035644647 0.060573153 0.066203006 0.11312348 0.16962609 -0.074845724 -0.025220506
-0.017530318 0.027704148 0.051339906 -0.06672506 -0.050329886 -0.0020008273 0.06697189 0.01130682
-0.058446493 0.010739944 0.03229187 -0.030333923 -0.030917132 -0.07219136 -0.04082183 -0.06433803
-0.08880199 -0.023768714 0.1342645 0.07823313 0.004943134 0.09313858 -0.03670769 -0.023601858
00000000: b023 eabc 914a 7ebc 60ca ba3d 4891 84bb
00000010: 5e1d e53c d036 e4bc 9d66 65bd 9d92 dbbc
00000020: 1730 b8bd bae8 52bd 3afe 6dbc 0294 5bbd
00000030: 4fa9 0fbd fe43 28be 549c a9bd 8efe 233d
00000040: fbe0 d0bc 430e 20bd f5ce 00be 424c d5bc
00000050: 3295 84bc 1941 34bd 9b55 8dbc a44c 96bd
00000060: 0c4d da3c 6b2d 9ebc 4ea6 d9bb 454a 56bd
00000070: 07bf c9bc 5bda 61bd add3 8b3d afc2 ac3d
00000080: 3ea7 193e df6f 183e c8ca 083e 5814 c63d
00000090: daa3 ed3d 2bfc e03c a36d cd3c 09ca 4e3c
000000a0: 8ff2 fe3c f04a 4d3c e3a3 1a3c 6493 4cbd
000000b0: 0008 17bd d6a0 15bd f56c 00bd edbb 66bd
000000c0: 39f0 d6bd 337c 0ebe 7f32 803d eb6c f23c
000000d0: d9ea a33d 6fa1 e53c b0bb 923b 6af8 d73c
000000e0: ab04 143d 5691 7c3c 25d1 61bc ef0f 4ebc
000000f0: 5cc3 a43c e63f abbb eeb6 d0bc fdb2 93bd
00000100: 31aa 8cbd 4e49 fe3a 0cb7 32bc ac8a 77bd
00000110: 4419 0dbe b683 e3bd 2c32 e9bb a1f2 70bc
00000120: 6bc4 aa3c a089 393d 7f7b b1bc 47bb 953b
00000130: 709b 0cbd 595c b13c 754c 4cbc 3a13 aa3d
00000140: 7b28 283d 43ed cebb da99 e9bc e3d2 f13c
00000150: 0055 363d fc81 043e 9630 dfbc 5191 ff3c
00000160: 0102 2d3d 622b ab3d b672 bcbc d48a 2c3d
00000170: 9604 6c3d d743 8f3d 777f b13d 395e a9bd
00000180: efd5 b2bd 9b61 f0bc 05cc ddbc c5d9 8cbd
00000190: 69f6 02bd 9f32 b0bd 8214 3cbc c350 f2bd
000001a0: fac4 b6bd 20f0 223d 7968 32bd d7b4 cf3d
000001b0: 7fe9 d9bc 5aed d23d 23f0 503d e190 123d
000001c0: 389a b23e e897 3abc 2099 473e 9caf be3d
000001d0: f31e d7bc e52d 973d 1498 5d3c 5263 c2bc
000001e0: 5820 a4bd 1c74 a4bd 8a3b 8cbd 2bb2 27be
000001f0: 61d1 f7bd e51a bf3c 9ec4 36bc 4e79 7b3d
00000200: 7214 253d c1d1 51bc 2526 ffbc 0d08 57bc
00000210: f445 0e3d 6d24 b7bb ab88 3fbd e3e0 a5bc
00000220: af3c 8a3c 80d9 063d 28a2 8d3d 631c 083c
00000230: e3d1 6e3d 9dc0 273d 93b9 fa3b 8812 9a3d
00000240: 9a01 ebbc 8df8 c6bc 5390 583d 3617 9d3d
00000250: f06b a23c c8ef 013e 1b00 8bbc 5f31 ffbb
00000260: 4f2b bbbc eda8 933c d234 843c a860 2fbd
00000270: e5a1 0dbd cf84 28bd d887 ba3b 5ba7 d0bc
00000280: e3a4 dabc c229 e8bc 8698 8bbd e55e 5abd
00000290: 44d0 11bd 1587 3fbc bf67 023d 56df 39bd
000002a0: 0786 abbd 5c01 98bd 78b1 263c 2d71 2d3c
000002b0: 6646 fe3c aa51 253a 661c 42bd 27ec 2fbd
000002c0: 3afb 81bd 9fe4 4abc 8f48 4dbd 1f8f 383a
000002d0: 8de2 afbc 24d1 5ebd ecd2 c63b f56a 3bbd
000002e0: 3675 7dbb 2225 843b 2139 113c b64b 303d
000002f0: 3699 863c b7b1 aa3d 9e73 6f3d 6c19 e03d
00000300: fcf7 ab3d bcf0 d43d 47d9 2f3e 008f d7bc
00000310: c418 f4bc 0dba 1cbd b984 8bbd 5c6f 68bc
00000320: c858 33bc b56c febb e908 7cbc 93a0 8cbd
00000330: 6983 46bd 3fe7 2dbd 7714 3bbd 3e54 93bd
00000340: e22c 01be 9eff 853c 9eab 29bd aa57 b0bd
00000350: 5cdf 04be 16a5 26bd 57b8 503d ef2f 80bd
00000360: 60a8 e1bd f126 0abe 9342 db3c 3a18 41bc
00000370: 482f 99bd d426 b3bd 8e2e a9bd 6bbe e5bc
00000380: bfac a5bd 1f00 123d 8e1b 783d 7195 873d
00000390: 48ad e73d 76b2 2d3e b748 99bd 3c9b cebc
000003a0: be9b 8fbc cff3 e23c cb49 523d 26a7 88bd
000003b0: b626 4ebd 5020 03bb 8f28 893d 3e40 393c
000003c0: 9765 6fbd 97f6 2f3c 7b44 043d d97e f8bc
000003d0: ed45 fdbc 10d9 93bd cb34 27bd a8c3 83bd
000003e0: d1dd b5bd 9bb6 c2bc a27c 093e b138 a03d
000003f0: 03fa a13b 71bf be3d ce5a 16bd af58 c1bc

conv2.bias f4 [16]
0.035209924 0.009596489 -0.033312265 -0.01725499 0.040524177 -0.06579439 0.03743074 0.010410957
0.019963413 0.010199502 0.0008318231 -0.03412685 0.011940651 -0.044887953 -0.049809165 0.058910437
00000000: 4838 103d 983a 1d3c 7172 08bd 565a 8dbc
00000010: aefc 253d 36bf 86bd fa50 193d b892 2a3c
00000020: 508a a33c d01b 273c b40e 5a3a 99c8 0bbd
00000030: b8a2 433c 6edc 37bd b204 4cbd 124c 713d

batch2.weight f4 [16]
1.3236669 1.2789923 1.4011958 1.6246278 1.4642744 1.486204 1.3554093 1.4281367
1.5282611 1.3502423 1.5511401 1.2037323 1.534666 1.4399154 1.5831634 1.3729813
00000000: eb6d a93f 05b6 a33f 625a b33f cef3 cf3f
00000010: 586d bb3f ef3b be3f 0d7e ad3f 2fcd b63f
00000020: 0f9e c33f bdd4 ac3f c28b c63f e613 9a3f
00000030: ef6f c43f 264f b83f 19a5 ca3f dabd af3f

batch2.bias f4 [16]
-0.11268878 -0.17493707 -0.237942 -0.32149357 -0.3770718 -0.23818201 -0.43803468 -0.12785411
-0.29784018 -0.1790468 -0.37199593 -0.08407181 -0.39349887 -0.21376714 -0.53485924 -0.3526871
00000000: 60c9 e6bd b422 33be 11a7 73be ce9a a4be
00000010: 8e0f c1be fce5 73be 1546 e0be 30ec 02be
00000020: 827e 98be 0b58 37be 4076 bebe d72d acbd
00000030: af78 c9be c6e5 5abe 89ec 08bf 6793 b4be

batch2.running_mean f4 [16]
0.23222835 -0.23128843 -0.0977871 -0.5975895 -0.32355085 -0.38924286 0.32452655 -0.7337293
-1.7027524 -0.6547232 -0.13828091 0.13354076 -1.2178661 0.13642573 -1.1797723 0.25779748
00000000: 45cd 6d3e e0d6 6cbe 9a44 c8bd a0fb 18bf
00000010: 75a8 a5be d74a c7be 5828 a63e afd5 3bbf
00000020: caf3 d9bf f19b 27bf 8399 0dbe e9be 083e
00000030: 09e3 9bbf 30b3 0b3e c702 97bf 08fe 833e

batch2.running_var f4 [16]
0.6032707 0.5107242 0.5240145 1.0509301 0.6699762 0.88668936 0.77910393 0.824423
1.0916417 0.80285585 0.7958947 0.64124125 0.9216897 0.65612304 1.27777 0.78461206
00000000: f36f 1a3f d2be 023f d025 063f e184 863f
00000010: 8f83 2b3f 13fe 623f 5b73 473f 630d 533f
00000020: eaba 8b3f f687 4d3f c1bf 4b3f 6328 243f
00000030: dbf3 6b3f aef7 273f f88d a33f 56dc 483f

fc1.weight f4 [120, 1024]
0.0080680465 0.043128263 0.005731774 0.013052915 0.03534838 0.013125872 0.024841502 0.018730534
0.01469088 -0.019671965 -0.0002708044 0.018537179 0.00070577936 0.008158305 -0.016961176 0.000100137564
-0.03125693 -0.018535607 -0.010030824 -0.023364713 0.025423385 0.013018731 0.0021815528 0.03258053
-0.004356891 0.013928167 -0.00023176418 0.04928801 0.036103178 0.015017918 0.018863687 0.013991802
-0.018349037 0.008015126 0.024548458 0.042265065 0.033735994 0.031493127 0.018009098 0.021127244
-0.0057119695 0.04328087 0.021748161 0.032208253 0.021288615 0.016019052 0.033575136 0.011861472
0.018802466 0.025718661 0.044200387 0.012446142 0.016354352 -0.025378143 0.0129943015 0.0025477882
-0.07253469 -0.06483158 -0.038784754 -0.07018382 -0.049204603 -0.04045911 0.009629262 -0.015141272
-0.017774979 0.03181426 0.005104201 0.0034018124 0.030779205 0.013345152 0.018868215 0.0016625243
-0.0049885935 -0.018218176 -0.03835894 -0.026346913 -0.015225482 -0.019358953 0.022840055 -0.020367404
-0.043203074 -0.026067493 -0.05352115 -0.02146839 -0.012019773 0.026054503 0.015427075 -0.010077349
-0.04312502 0.012346743 -0.020649046 -0.05064862 -0.017786639 -0.023645999 0.017213253 -0.009006399
-0.00027015965 0.0413341 -0.0052926815 0.0033014058 0.029159972 -0.029857734 -0.0021268656 0.0086539155
0.018418722 0.043428864 0.01950224 0.060684156 0.027717814 0.011477832 -0.008676985 0.0050981394
0.026844652 0.0627666 0.0664835 0.054173306 0.06171166 0.02219539 0.05107001 0.0216708
-0.004870602 0.010082637 0.036151756 0.05405325 0.06323911 0.052538745 0.003479852 -0.039252
0.007813849 -0.0107482225 -0.043641623 0.022095392 0.021736225 0.025662133 0.01923441 0.015747404
-0.0055906754 0.017603112 0.021783516 -0.017221212 -0.0070517315 0.0073296144 -0.018225972 0.0140545275
0.002805166 0.054380924 0.024239229 0.022663107 -0.045910828 0.00049424527 0.001541728 -0.002993731
0.01271451 0.01544715 0.07634195 -0.007176118 -0.021041537 -0.032902543 -0.057536624 -0.0061441357
0.02126918 0.021860803 0.040250022 0.00038543108 -0.030243935 0.02213222 -0.011604047 0.017330116
-0.0062387823 -0.011122567 -0.00045500282 0.023461066 0.0075901686 0.016304089 -0.011714081 -0.0027897884
-0.02895196 -0.03550381 -0.055298027 -0.030937962 -0.013012729 -0.0153088225 -0.0044526784 0.017620245
-0.048576865 -0.031738628 -0.049946316 -0.02738748 0.002746818 -0.0061374786 -0.012608366 -0.034296323
0.011502706 0.008989903 0.008643931 0.048506968 0.015172473 0.026980957 0.036956407 0.011323004
0.02625124 0.044838674 0.00047776412 -0.0017223206 -0.010944791 0.0032895142 0.0023133655 -0.01608218
-0.014514838 -0.0021194709 -0.01333254 0.026544813 -0.006139624 -0.016895916 -0.024833051 0.0067672874
-0.034513064 0.0036748874 -0.009606446 -0.05859643 -0.04128453 -0.036414977 -0.025251962 0.0060791755
0.022137683 0.0127970185 -0.0032970002 -0.028228661 -0.03361441 -0.01518636 0.021863695 0.039750304
0.026505133 0.017282657 -0.050212257 -0.017814795 0.0015181112 -0.0116225155 0.023761809 0.02156434
0.017650308 0.018633446 0.020821765 0.0024966819 0.009673368 0.013637585 0.019117108 0.038102478
0.0049766223 -0.018545404 0.0152375875 -0.028377777 -0.0032701835 -0.026907274 0.028542954 0.048188243
00000000: d72f 043c 43a7 303d 9bd1 bb3b e5db 553c
00000010: 77c9 103d e60d 573c 6880 cb3c c770 993c
00000020: 04b2 703c 1a27 a1bc c0fa 8db9 48db 973c
00000030: 0d04 393a 69aa 053c 2af2 8abc f200 d238
00000040: 4407 00bd fcd7 97bc 5358 24bc 5b67 bfbc
00000050: b444 d03c 844c 553c 62f8 0e3b 2973 053d
00000060: 40c4 8ebb f732 643c b905 73b9 39e2 493d
00000070: ede0 133d b70d 763c 0588 9a3c df3d 653c
00000080: b850 96bc e051 033c d919 c93c 221e 2d3d
00000090: c12e 0a3d f0fe 003d d187 933c 0b13 ad3c
000000a0: 792b bbbb 4847 313d 3329 b23c cdec 033d
000000b0: 7665 ae3c 633a 833c 1586 093d 9f56 423c
000000c0: a107 9a3c f1af d23c 770b 353d e7ea 4b3c
000000d0: 90f9 853c d3e5 cfbc 0de6 543c cbf8 263b
000000e0: 118d 94bd 6bc6 84bd c3dc 1ebd 89bc 8fbd
000000f0: c48a 49bd 74b8 25bd 0dc4 1d3c 1913 78bc
00000100: d59c 91bc ab4f 023d 2441 a73b f1f0 5e3b
00000110: ac24 fc3c a0a5 5a3c 8491 9a3c 0fe9 d93a
00000120: 5b77 a3bb 493e 95bc 441e 1dbd 7bd5 d7bc
00000130: 4d74 79bc ab96 9ebc 111b bb3c 8bd9 a6bc
00000140: b5f5 30bd 7f8b d5bc fe38 5bbd 7ade afbc
00000150: 95ee 44bc 4170 d53c d8c1 7c3c 771b 25bc
00000160: dca3 30bd fe49 4a3c 3028 a9bc ed74 4fbd
00000170: 49b5 91bc 41b5 c1bc cf02 8d3c 938f 13bc
00000180: 37a4 8db9 f24d 293d 3b6e adbb 665c 583b
00000190: e5e0 ee3c 3598 f4bc e262 0bbb 27c9 0d3c
000001a0: dce2 963c 77e2 313d 29c3 9f3c f38f 783d
000001b0: 7810 e33c 840d 3c3c ea29 0ebc 4b0e a73b
000001c0: 51e9 db3c c68b 803d 8028 883d d4e4 5d3d
000001d0: 5ec5 7c3d 1bd3 b53c c92e 513d f686 b13c
000001e0: 9299 9fbb a531 253c dd13 143d f166 5d3d
000001f0: 8283 813d de32 573d 3b0e 643b b5c6 20bd
00000200: a805 003c 5019 30bc 8fc1 32bd 6501 b53c
00000210: 2b10 b23c 6539 d23c 7b91 9d3c b300 813c
00000220: fc31 b7bb 6734 903c 5873 b23c 8013 8dbc
00000230: 3612 e7bb 432d f03b a24e 95bc f644 663c
00000240: e0d6 373b 88be 5e3d 5991 c63c fba7 b93c
00000250: fe0c 3cbd 3d90 013a cf13 ca3a 7932 44bb
00000260: 8550 503c 0b16 7d3c 2b59 9c3d a425 ebbb
00000270: 4d5f acbc d1c4 06bd 86ab 6bbd bf54 c9bb
00000280: b43c ae3c 6d15 b33c 35dd 243d af13 ca39
00000290: 21c2 f7bc a14e b53c e71e 3ebc e3f7 8d3c
000002a0: b36e ccbb 6d3b 36bc 728d eeb9 6c31 c03c
000002b0: f3b6 f83b 2790 853c 6bec 3fbc e2d4 36bb
000002c0: a92c edbc 716c 11bd 2f80 62bd 9c71 fdbc
000002d0: 5733 55bc dbd1 7abc c6e7 91bb 5558 903c
000002e0: 89f8 46bd 5d00 02bd 8294 4cbd b55b e0bc
000002f0: f503 343b e71c c9bb 5293 4ebc 4d7a 0cbd
00000300: d975 3c3c 634a 133c 469f 0d3c 3eaf 463d
00000310: f795 783c 2b07 dd3c 9a5f 173d 1f84 393c
00000320: d70c d73c c2a8 373d 6a7c fa39 7dbf e1ba
00000330: c851 33bc e494 573b d59b 173b c7be 83bc
00000340: a5cf 6dbc d2e6 0abb ba70 5abc 8274 d93c
00000350: e62e c9bb 4e69 8abc af6e cbbc 1fc0 dd3b
00000360: 925d 0dbd 61d6 703b 5b64 1dbc cf02 70bd
00000370: f819 29bd df27 15bd 34dd cebc d233 c73b
00000380: 165a b53c 96aa 513c 7c12 58bb cb3f e7bc
00000390: 43af 09bd 36d0 78bc 7e1b b33c 37d1 223d
000003a0: 4b21 d93c 5c94 8d3c 5eab 4dbd 55f0 91bc
000003b0: 5cfb c63a 5d6c 3ebc 20a8 c23c b3a7 b03c
000003c0: 6197 903c 2ba5 983c 6892 aa3c 5f9f 233b
000003d0: 0c7d 1e3c 2d70 5f3c 7b9b 9c3c 5811 1c3d
000003e0: ef12 a33b 88ec 97bc 13a7 793c 8378 e8bc
000003f0: 9350 56bb a56c dcbc ead2 e93c 0961 453d

fc1.bias f4 [120]
-0.008331687 -0.013942354 0.015090399 0.024106547 -0.041367542 -0.017349267 -0.0051531484 -0.010992826
-0.023957688 0.036829352 0.01033566 0.034111418 0.038365845 -0.013052267 0.00587636 -0.04623333
-0.009268344 0.0415896 -0.0007055721 0.011039707 0.0075097186 -0.03168742 0.014862466 0.011277331
-0.011912742 0.062453333 -0.019363225 0.06833034 -0.026169742 -0.015867827 0.013066004 -0.0045004706
-0.023380246 0.017266879 0.012703735 -0.047600076 0.014860792 -0.019388536 0.024037985 0.013954797
0.072876155 -0.005789546 -0.0023201664 0.017316755 0.0030725943 0.02801048 0.011692061 0.041273605
0.04359806 -0.033485953 0.025671184 0.028564531 0.005535281 0.034823935 -0.024058117 0.041993164
0.0014224716 -0.012678864 0.009467213 0.020908257 -0.03156452 0.013560008 -0.017133037 -0.016339675
0.005316916 -0.0030769657 -0.011353323 -0.015456148 0.060447242 0.06172045 0.03524034 -0.01738613
0.036747266 0.0015697365 -0.0061822888 -0.04015886 0.061054032 -0.006799738 0.05099596 0.005103207
-0.017509468 -0.015467186 -0.028886965 -0.013441238 -0.01814116 -0.03771476 -0.020157443 -0.008156604
-0.007468008 0.0040216446 0.00059183844 0.023259923 0.0022249662 -0.0021965625 0.045151606 0.044474397
0.0023955107 -0.025142595 -0.011347407 -0.0023917183 0.08947653 -0.025762945 0.022838963 0.014214994
-0.028262306 -0.025476117 -0.03854909 0.025648525 0.015053031 -0.019286605 0.04221062 0.017632078
0.016649082 0.008772617 -0.0054483768 -0.0422155 -0.07278934 0.0071220025 -0.043696906 0.030687887
00000000: a181 08bc 796e 64bc b93d 773c 187b c53c
00000010: 0371 29bd 0d20 8ebc bedb a8bb 411b 34bc
00000020: ea42 c4bc 60da 163d e656 293c 6ab8 0b3d
00000030: 8125 1d3d 2dd9 55bc 7b8e c03b 295f 3dbd
00000040: 41da 17bc db59 2a3d 24f6 38ba e3df 343c
00000050: 1614 f63b abca 01bd b381 733c 8ec4 383c
00000060: a92d 43bc 11cf 7f3d a09f 9ebc c7f0 8b3d
00000070: ed61 d6bc 3ffd 81bc cb12 563c af78 93bb
00000080: ee87 bfbc 4573 8d3c 5423 503c 4cf8 42bd
00000090: ae7a 733c b5d4 9ebc 4feb c43c a9a2 643c
000000a0: 1840 953d 3bb6 bdbb ef0d 18bb dedb 8d3c
000000b0: 945d 493b 3c76 e53c 0f90 3f3c 830e 293d
000000c0: e193 323d 9128 09bd 604c d23c 2a00 ea3c
000000d0: 4d61 b53b 8ba3 0e3d 8715 c5bc 0601 2c3d
000000e0: 3a72 ba3a 03bb 4fbc 5f1c 1b3c cb47 ab3c
000000f0: cc49 01bd cc2a 5e3c 955a 8cbc c8da 85bc
00000100: 8639 ae3b eba6 49bb 4a03 3abc c93b 7dbc
00000110: 8797 773d 95ce 7c3d 2d58 103d 5b6d 8ebc
00000120: 4d84 163d 9ebf cd3a cc94 cabb 9e7d 24bd
00000130: cb13 7a3d 56d0 debb 24e1 503d ce38 a73b
00000140: 0470 8fbc 156a 7dbc 5ba4 ecbc a338 5cbc
00000150: c59c 94bc cb7a 1abd 3921 a5bc 47a3 05bc
00000160: 31b6 f4bb 00c8 833b 9b25 1b3a 988b be3c
00000170: bdd0 113b 34f4 0fbb e4f0 383d c92a 363d
00000180: 00fe 1c3b d8f7 cdbc 79ea 39bc 60be 1cbb
00000190: 793f b73d d00c d3bc c718 bb3c 02e6 683c
000001a0: 5a86 e7bc 4ab3 d0bc a7e5 1dbd db1c d23c
000001b0: fda0 763c f1fe 9dbc 0be5 2c3d 2671 903c
000001c0: a863 883c 06bb 0f3c 4c88 b2bb 29ea 2cbd
000001d0: 9412 95bd b05f e93b 87fb 32bd 2a65 fb3c

fc2.weight f4 [10, 120]
0.39883596 -0.067887165 -0.12335599 -0.12407961 -0.12790613 0.03724487 -0.008631532 0.035383902
0.03835487 -0.19304894 0.022526398 0.09972738 -0.064200774 0.078151956 -0.13505673 0.1372303
0.01970992 -0.2051969 0.11957924 -0.18555546 -0.04795377 -0.07170131 -0.10812891 -0.09327023
0.07434033 -0.12645257 0.16306388 -0.07809026 -0.04593062 -0.1175426 -0.006133712 -0.17208329
0.09387817 -0.20334153 -0.06033444 0.14900403 -0.100483455 0.114631884 0.14054564 -0.1279686
-0.03386287 0.09670493 -0.05731818 0.026499238 -0.23246738 -0.24302329 0.14510143 -0.26315328
0.015747922 0.11033553 0.022125017 0.06512273 0.012661675 0.10675272 0.110145174 -0.25723627
-0.051472638 0.11541452 0.007908885 -0.12442661 0.14694345 0.049458116 -0.12148295 0.07595351
0.0014109822 -0.13139345 -0.07991205 -0.0882602 -0.020049077 -0.24551067 -0.19675477 0.24201739
0.10364709 0.024504185 0.20393752 0.055333484 -0.32096913 0.15798746 -0.022520002 -0.11081848
0.17926754 0.12947376 0.062961705 -0.23212461 0.05063596 0.13004872 0.15320411 -0.2603189
-0.030416628 -0.22137949 0.05567229 0.12603173 0.15776303 -0.24608958 -0.1333339 -0.19309913
-0.067152135 0.20237163 0.2673142 0.08317275 0.04163969 0.08142336 0.12954019 -0.024907276
0.15146436 -0.06369248 0.05157619 0.089058004 0.17719679 -0.09361364 0.0020145802 -0.15186597
0.21659218 0.16292703 0.23114689 0.15034163 0.15468526 0.12921803 0.03560949 0.2265394
-0.06668249 -0.08218962 0.44391456 0.14342071 0.009311196 0.06628585 0.035588663 0.13430053
0.14122526 -0.03293584 -0.11345563 -0.1344155 0.038800493 -0.1292362 -0.24890989 0.00904963
-0.028114842 -0.058791753 -0.024395017 0.009447906 0.043566458 -0.043783434 -0.281746 -0.0013385409
0.10163443 -0.12533912 0.2116308 -0.111423366 -0.035460845 0.118938655 -0.04122192 -0.14159746
-0.10365587 -0.051066477 0.003439378 -0.21028094 0.09165811 0.36306986 0.11755714 -0.029179033
-0.27993518 0.017963568 0.017903883 0.058529023 -0.097634144 0.40962353 -0.27158237 -0.09726713
0.16932902 -0.08539173 0.041971825 -0.09104242 -0.3233017 -0.22245502 0.14217672 -0.16384508
-0.036502372 0.032445952 0.11772675 0.07747747 -0.18815686 -0.038745586 0.14849491 0.26992497
0.10243979 0.16033237 -0.09008641 0.35707128 4.513281e-07 -0.15704171 0.14078887 -0.12787232
-0.08200494 0.022649394 -0.24109355 -0.13715972 0.12599625 -0.13674153 -0.085114025 0.05016235
0.22682329 0.020384405 -0.0764257 0.06975091 -0.027502472 -0.1913186 0.12221388 -0.124875925
-0.14721549 -0.061312176 -0.101715446 -0.104621634 -0.09461571 -0.006429168 0.3275531 0.0610217
0.04125764 -0.14169782 -0.097840674 0.23230669 -0.27954206 -0.22091869 0.09911475 0.18773255
0.11647671 0.04795469 0.09501013 0.1828625 0.18635994 -0.23963515 -0.27736318 0.150973
-0.18018995 -0.044582557 0.13936421 0.20630658 -0.061625253 -0.07245666 -0.030561185 0.17051928
-0.0019043693 -0.06967261 0.037189867 0.009390042 0.14579266 0.08359314 0.05583616 0.08773262
0.074251235 0.013972127 0.15300408 -0.09990837 -0.19366208 -0.015963394 0.20622768 -0.034278005
00000000: 3a34 cc3e 6d08 8bbd 11a2 fcbd 731d febd
00000010: d3f9 02be 148e 183d 456b 0dbc b6ee 103d
00000020: ff19 1d3d 9fae 45be 4889 b83c de3d cc3d
00000030: b27b 83bd 220e a03d 504c 0abe 1a86 0c3e
00000040: b376 a13c 231f 52be f6e5 f43d 4002 3ebe
00000050: 2c6b 44bd 23d8 92bd b172 ddbd 7604 bfbd
00000060: be3f 983d c87c 01be 38fa 263e c9ed 9fbd
00000070: bf21 3cbd 2dba f0bd 4efd c8bb 9a36 30be
00000080: 3343 c03d c338 50be 3f21 77bd 8394 183e
00000090: 45ca cdbd 1fc4 ea3d 32eb 0f3e 330a 03be
000000a0: cbb3 0abd 3c0d c63d 78c6 6abd ee14 d93c
000000b0: ee0b 6ebe 19db 78be 7895 143e 07bc 86be
000000c0: c901 813c 98f7 e13d 863f b53c 115f 853d
000000d0: ea72 4f3c 2ca1 da3d cb93 e13d 79b4 83be
000000e0: f9d4 52bd 735e ec3d 4594 013c 61d3 febd
000000f0: 5878 163e 9894 4a3d 0ecc f8bd 848d 9b3d
00000100: b5f0 b83a 018c 06be eea8 a3bd c4c1 b4bd
00000110: f63d a4bc 2667 7bbe 157a 49be 68d3 773e
00000120: ed44 d43d 00bd c83c ffd4 503e 5da5 623d
00000130: 1156 a4be 77c7 213e de7b b8bc cdf4 e2bd
00000140: e991 373e c594 043e 11f2 803d 13b2 6dbe
00000150: a767 4f3d 7e2b 053e 8ae1 1c3e 8548 85be
00000160: 4b2c f9bc 4eb1 62be a108 643d 760e 013e
00000170: a28c 213e e8fe 7bbe af88 08be c7bb 45be
00000180: 0f87 89bd 823a 4f3e 68dd 883e 7a56 aa3d
00000190: 618e 2a3d 4ac1 a63d 2fa6 043e 580a ccbc
000001a0: 7919 1b3e 3471 82bd 8e41 533d 0b64 b63d
000001b0: 1373 353e 82b8 bfbd 0c07 043b c182 1bbe
000001c0: 57ca 5d3e 58d6 263e c5b1 6c3e 28f3 193e
000001d0: d065 1e3e bb51 043e 42db 113d f2f9 673e
000001e0: d490 88bd 0853 a8bd c548 e33e e1dc 123e
000001f0: fd8d 183c e0c0 873d 6bc5 113d 1486 093e
00000200: 5b9d 103e bbe7 06bd 6d5b e8bd 38a4 09be
00000210: 44ed 1e3d 7f56 04be 3ce2 7ebe e644 143c
00000220: 1951 e6bc 9fcf 70bd 0fd8 c7bc 64cb 1a3c
00000230: be72 323d 4256 33bd 0341 90be fb71 afba
00000240: b625 d03d e658 00be bfb5 583e ef31 e4bd
00000250: 643f 11bd 1c96 f33d 51d8 28bd edfe 10be
00000260: 8749 d4bd 152b 51bd 3067 613b e353 57be
00000270: 3fb7 bb3d 4be4 b93e ccc1 f03d de08 efbc
00000280: aa53 8fbe 5528 933c 2aab 923c 21bc 6f3d
00000290: 69f4 c7bd 2dba d13e d80c 8bbe fd33 c7bd
000002a0: 9664 2d3e dce1 aebd a6ea 2b3d 7374 babd
000002b0: cd87 a5be 40cb 63be c696 113e 01c7 27be
000002c0: 8383 15bd 0ce6 043d b91a f13d 82ac 9e3d
000002d0: 31ac 40be b1b3 1ebd 0d0f 183e 9b33 8a3e
000002e0: f4cb d13d 2b2e 243e 397f b8bd 0cd2 b63e
000002f0: 104e f234 8bcf 20be f52a 103e f6f0 02be
00000300: 35f2 a7bd 398b b93c 3ae1 76be 9973 0cbe
00000310: 2905 013e f905 0cbe 4350 aebd 0977 4d3d
00000320: 5d44 683e 32fd a63c 1485 9cbd 91d9 8e3d
00000330: dd4c e1bc 06e9 43be 454b fa3d f3be ffbd
00000340: a8bf 16be 7a22 7bbd 3050 d0bd de43 d6bd
00000350: e2c5 c1bd c5ab d2bb 0ab5 a73e e4f1 793d
00000360: c5fd 283d 3c19 11be b160 c8bd cee1 6d3e
00000370: 2320 8fbe 8238 62be adfc ca3d f63c 403e
00000380: 578b ee3d 236c 443d ac94 c23d 4f40 3b3e
00000390: 24d5 3e3e eb62 75be 8c02 8ebe ab98 1a3e
000003a0: b783 38be 339c 36bd 7eb5 0e3e 0842 533e
000003b0: c36a 7cbd 2864 94bd 735b fabc 9b9c 2e3e
000003c0: 089c f9ba 83b0 8ebd 6754 183d b1d8 193c
000003d0: ac4a 153e e132 ab3d 75b4 643d 29ad b33d
000003e0: 0811 983d 59eb 643c 1aad 1c3e c29c ccbd
000003f0: 5a4f 46be aac5 82bc 592d 533e 1867 0cbd

fc2.bias f4 [10]
-0.211595 -0.056845706 -0.11208204 0.029487452 0.23811819 -0.029408641 0.13337763 -0.10112709
0.10497175 -0.012685252
00000000: 5cac 58be 0bd7 68bd 458b e5bd ab8f f13c
00000010: 41d5 733e 64ea f0bc 2594 083e b81b cfbd
00000020: 6efb d63d ced5 4fbc
