models/net_augm/model_epoch_48.pt (torch, 517807 bytes, 16 tensors)

conv1.weight f4 [8, 3, 5, 5]
0	0x3cf794aa	0.030222256
1	0xbc9f5690	-0.019450456
2	0xbccb15c1	-0.024790647
3	0x3d8e03ad	0.06934295
4	0x3e16d486	0.14729509
5	0x3d9884d5	0.07447211
6	0xbd6909c8	-0.056894094
7	0xbabb94f4	-0.0014311359
8	0x3a36056c	0.0006943557
9	0x3e6aab1c	0.22916836
10	0xbd968b65	-0.07350806
11	0xbda9d414	-0.08292404
12	0xbe1583c3	-0.14601044
13	0x3d88fe45	0.06689123
14	0x3dd1266f	0.10212409
15	0xbd38108c	-0.044937655
16	0xbdb59620	-0.08866525
17	0xbd74780e	-0.059684806
18	0xbd3c8828	-0.046028286
19	0x3d020656	0.031744324
20	0xbdf63eea	-0.12023719
21	0x3d676fab	0.05650298
22	0xbc90934e	-0.017648365
23	0x3b7942f9	0.0038034304
24	0xbc50ac7c	-0.012736436
25	0x3d90c34d	0.07068501
26	0x3d592995	0.05301817
27	0xbe094762	-0.13406137
28	0xbd682887	-0.056679275
29	0x3d5cec98	0.05393657
30	0xbdcfba82	-0.101429954
31	0xbd920af8	-0.071309984
32	0x3b49bcbb	0.0030782658
33	0x3c199494	0.009373803
34	0x3e3df45a	0.18550244
35	0xbe21f4fa	-0.15816107
36	0xbbaf50d4	-0.0053502116
37	0xbd6089b9	-0.054818843
38	0xbc3ab404	-0.011395458
39	0x3e82b76f	0.25530574
40	0xbd8c19e9	-0.068408795
41	0xbda82de2	-0.082118765
42	0x3cbb8336	0.022889715
43	0xbb31dd67	-0.0027140023
44	0x3de83814	0.11338821
45	0xbd7c54ee	-0.061604433
46	0xbda4d348	-0.08048111
47	0xbdb91610	-0.09037411
48	0x3d8c282b	0.06843599
49	0x3dc073fe	0.09397124
50	0xbe7af035	-0.24505694
51	0xbe469d42	-0.19395927
52	0xbcdd1d37	-0.02699147
53	0xbc26f448	-0.010190077
54	0x3e3e1cc9	0.18565668
55	0xbe9d92c7	-0.30776045
56	0xbe5ea411	-0.21742274
57	0xbdec7a0c	-0.11546716
58	0x3d16fcb6	0.036862098
59	0x3e3159b8	0.17319381
60	0xbe217e08	-0.15770733
61	0xbe3c9928	-0.184178
62	0x3db9f03f	0.090790264
63	0x3e724f7c	0.23663133
64	0x3e853c17	0.26022407
65	0xbe59adcf	-0.21257709
66	0xbd2e4119	-0.04254255
67	0x3b536526	0.0032256334
68	0x3e6cb875	0.2311724
69	0x3e92456e	0.28568596
70	0xbdefbd51	-0.11706031
71	0xbd683fa6	-0.056701325
72	0x3d6b965f	0.057516452
73	0x3dd4df3a	0.103941396
74	0x3df8a1e4	0.12140253
75	0xbe26fe17	-0.16307865
76	0xbe404010	-0.18774438
77	0xbd94ef2e	-0.072721824
78	0x398a1815	0.00026339354
79	0x3e1b34aa	0.15156808
80	0xbe82549b	-0.25455174
81	0xbeb5a643	-0.3547841
82	0xbe8d44cc	-0.2759155
83	0xbd44b200	-0.048021317
84	0xbd013def	-0.031553205
85	0xbe2cf542	-0.16890433
86	0xbe3609c7	-0.17777167
87	0xbe5d74ae	-0.21626541
88	0xbd3a832c	-0.04553525
89	0x3e2a3aba	0.16623965
90	0xbe378f0c	-0.17925662
91	0xbe3d5f8a	-0.18493477
92	0xbd6d73d9	-0.05797181
93	0x3e2050db	0.15655844
94	0x3e95fbfc	0.2929381
95	0x3c7c94e0	0.015416354
96	0xbd8a6ae5	-0.0675867
97	0x3dd1b323	0.10239246
98	0x3e94431c	0.2895745
99	0x3ec452e4	0.3834449
100	0x3d6a3152	0.05717594
101	0x3d4dd5b8	0.050252646
102	0xbc1630df	-0.009166925
103	0xbe3da914	-0.1852153
104	0xbe33bef9	-0.17553319
105	0xbdd53b9d	-0.10411761
106	0x3ca5592e	0.020184126
107	0xbcd46765	-0.025928209
108	0xbe6b1183	-0.22955899
109	0xbe5379ce	-0.20651934
110	0x3e2aeebf	0.16692637
111	0x3e7adf65	0.24499281
112	0x3dd56195	0.10419003
113	0xbcda38fe	-0.026638504
114	0xbd2b0f7e	-0.04176282
115	0x3ca81e5b	0.020522287
116	0x3dead5c2	0.11466552
117	0xbbb91d9c	-0.0056492817
118	0xbcd4d2ae	-0.025979366
119	0xbe0bb21b	-0.1364216
120	0x3da7580a	0.08171089
121	0xbcdabc06	-0.026700985
122	0x3daa0df4	0.083034426
123	0xbde2d6b6	-0.11076109
124	0x3d9c73c9	0.07639272
125	0x3e432bab	0.19059627
126	0x3e32b0c4	0.17450243
127	0x3e9c2e3a	0.30504018
128	0x3e660e25	0.22466333
129	0x3e4abfa4	0.19799668
130	0x3e84cae2	0.25936037
131	0x3e844938	0.2583711
132	0x3e85ec27	0.26156732
133	0x3dca1145	0.09866575
134	0x3dfd3ff0	0.12365711
135	0x3e258f45	0.16167934
136	0x3d8b729f	0.068089716
137	0x3e165619	0.14681281
138	0x3d6dfb18	0.05810079
139	0xbdf659b1	-0.12028826
140	0x3bb44f40	0.0055026114
141	0x3c2e9379	0.010655277
142	0xbdb41333	-0.087927245
143	0xbe3d528c	-0.1848852
144	0xbe811f73	-0.25219306
145	0xbcfaae5c	-0.03060072
146	0x3a444bc8	0.0007488099
147	0xbe195c48	-0.14976609
148	0xbe898c98	-0.26865077
149	0xbe2bac84	-0.16765028
150	0x3de6af66	0.11263923
151	0x3e0b43d9	0.136001
152	0x3be1978e	0.006884522
153	0xbdb80437	-0.08985179
154	0xbd1300ac	-0.035889313
155	0x3e61dad7	0.22056137
156	0xbd803955	-0.06260935
157	0xbe5a386a	-0.21310583
158	0xbdd6596f	-0.10466277
159	0x3d8fb1e4	0.07016352
160	0x3ede786e	0.43451256
161	0xbef252cd	-0.47328797
162	0xbe92b809	-0.28656033
163	0x3e6222ea	0.22083631
164	0x3d0ed57f	0.034871574
165	0xbd11638c	-0.035495326
166	0xbef30d7d	-0.47471228
167	0x3d9106d7	0.07081383
168	0x3e8a7be0	0.27047634
169	0xbdbd9ce5	-0.09258441
170	0x3cbcfd39	0.023069965
171	0x3c006748	0.007837124
172	0x3e77505a	0.24151745
173	0x3c85c39c	0.016328625
174	0x3d16e161	0.03683603
175	0x3e746afc	0.23868936
176	0x3d9123db	0.07086917
177	0xbe3d5124	-0.18487984
178	0xbdb5c9ec	-0.08876404
179	0x3e2a327f	0.16620825
180	0x3ee828f7	0.45343754
181	0xbe2bc744	-0.16775233
182	0xbf084b9f	-0.5324039
183	0xbc2219a4	-0.0098938085
184	0x3c3c7121	0.011501581
185	0x3ed5a534	0.41727602
186	0xbefe1fb3	-0.4963356
187	0xbe8d1b2d	-0.27559796
188	0x3eb13a64	0.3461486
189	0x3e3d0561	0.18459083
190	0x3db7fd16	0.08983819
191	0xbf0923f1	-0.5357047
192	0x3c9f4837	0.019443614
193	0x3ea760ef	0.32691142
194	0xbbd52026	-0.0065040765
195	0x3d34bbea	0.04412452
196	0xbd6e5cdc	-0.058194026
197	0x3e087b47	0.13328277
198	0xbdd32cb0	-0.10311258
199	0x3ca69316	0.020333808
200	0xbda92a2c	-0.08259997
201	0xbcd198fa	-0.02558564
202	0x3d448494	0.047978
203	0x3e0b37c9	0.13595499
204	0xbdfe570c	-0.124189466
205	0x3e41e58f	0.18935226
206	0xbde48bdd	-0.11159489
207	0xbe482ffd	-0.19549556
208	0x3e419793	0.18905477
209	0xbd6ddb8d	-0.058070708
210	0x3e9898fc	0.29804218
211	0xbefa31cd	-0.4886612
212	0xbd22edf9	-0.03977773
213	0x3ec0ec7f	0.37680432
214	0xbe34a084	-0.17639357
215	0xbcb1983b	-0.021679034
216	0xbea364df	-0.31912896
217	0x3e4e164a	0.2012569
218	0x3e820734	0.2539612
219	0xbe8cd41b	-0.27505574
220	0xbd055c16	-0.032558523
221	0xbd48db9d	-0.049037565
222	0x3e5ef99a	0.21774903
223	0x3e013fcb	0.12621991
224	0xbd796077	-0.06088301
225	0xbe2701c9	-0.16309275
226	0xbe820f66	-0.25402373
227	0xbe53794a	-0.20651737
228	0xbec07129	-0.37586334
229	0xbe8a2023	-0.26977643
230	0x3d048eaf	0.032362636
231	0xbcfa0186	-0.030518305
232	0xbcfe2394	-0.031022824
233	0xbcef8758	-0.029239342
234	0x3db4794f	0.088122
235	0x3e1a57b2	0.15072516
236	0x3e81e35c	0.25368774
237	0x3e6cfa2b	0.23142307
238	0x3e2ba920	0.16763735
239	0x3dc734d2	0.097268716
240	0xbd8eab5b	-0.06966277
241	0x3d8b4b6f	0.06801497
242	0x3db741ca	0.08948095
243	0x3ddf6e40	0.109097004
244	0x3e0489bc	0.12943166
245	0x3dcf6954	0.101275116
246	0xbcc863d6	-0.024461668
247	0xbb678576	-0.0035327352
248	0xbdc48b46	-0.09596877
249	0x3dcc15fd	0.099651314
250	0x3d7b1c57	0.061306324
251	0xbe2a1eef	-0.16613363
252	0xbe37d956	-0.17954001
253	0xbe2174ae	-0.15767166
254	0xbde26130	-0.11053693
255	0x3e036fe5	0.12835653

conv1.bias f4 [8]
0	0x3b2835df	0.0025666875
1	0x3daa5828	0.08317596
2	0x3d871b7e	0.065970406
3	0xbddc0dfc	-0.10744855
4	0x3da8ce34	0.08242455
5	0x3db396ca	0.08768995
6	0xbd9c7442	-0.07639362
7	0xbd9f8b9c	-0.077903

batch1.weight f4 [8]
0	0x3f885003	1.0649418
1	0x3f41429f	0.7549228
2	0x3f99a312	1.200289
3	0x3f6fde02	0.9369813
4	0x3f653478	0.89533186
5	0x3f87c26d	1.0606209
6	0x3f90c9ea	1.1311619
7	0x3f49ffd5	0.78905994

batch1.bias f4 [8]
0	0xbdf3ce80	-0.11904621
1	0x3e95d6f8	0.2926557
2	0xbe66af84	-0.22527891
3	0xbb673fbf	-0.0035285798
4	0x3da1cfe0	0.07900977
5	0xbe5def92	-0.2167342
6	0xbe8c4bc6	-0.2740156
7	0x3db0f1ce	0.086398706

batch1.running_mean f4 [8]
0	0xbd80f4aa	-0.06296666
1	0x3cf1ccf6	0.029516678
2	0x3cf15611	0.029459985
3	0xbc96bbe3	-0.018400138
4	0xbd488291	-0.048952643
5	0x3c69a228	0.0142598525
6	0xbe23c29c	-0.15992206
7	0x3e7333b4	0.23750192

batch1.running_var f4 [8]
0	0x3ea45492	0.32095772
1	0x3d57aa1d	0.052652467
2	0x3e157038	0.1459359
3	0x3e134844	0.14383036
4	0x3d0abd1b	0.03387175
5	0x3de66b55	0.11250941
6	0x3dc97af8	0.098379076
7	0x3d80926e	0.06277929

conv2.weight f4 [16, 8, 5, 5]
0	0xbcea95a3	-0.028635805
1	0xbcb24bdc	-0.021764688
2	0x3db618fd	0.08891485
3	0xbb4b7e4a	-0.0031050616
4	0x3cf13d47	0.029448165
5	0xbd016dd3	-0.031598877
6	0xbd744721	-0.059638146
7	0xbcefcf72	-0.029273722
8	0xbdbcce85	-0.09219078
9	0xbd5a818b	-0.053346198
10	0xbc8dbfcf	-0.017303376
11	0xbd6a833d	-0.057254065
12	0xbd0cc062	-0.034363158
13	0xbe26a831	-0.16275097
14	0xbdaac9c9	-0.08339269
15	0x3d30143c	0.042988047
16	0xbcdcad94	-0.026938237
17	0xbd0e3d9a	-0.034726717
18	0xbdfe55e6	-0.124187276
19	0xbccbd497	-0.024881644
20	0xbc60999f	-0.013708501
21	0xbd35acd1	-0.044354264
22	0xbc629237	-0.013828806
23	0xbd8caf6f	-0.06869399
24	0x3cd3490f	0.025791673
25	0xbc97e925	-0.01854379
26	0xbb0dc0d4	-0.0021629827
27	0xbd61f8a9	-0.05516878
28	0xbcd46821	-0.025928559
29	0xbd3d16b8	-0.046164244
30	0x3d93efff	0.0722351
31	0x3db1e324	0.08685902
32	0x3e1b66a7	0.15175878
33	0x3e1e14e3	0.15437655
34	0x3e0b082f	0.1357734
35	0x3dc38330	0.095465064
36	0x3df1e819	0.11811847
37	0x3cf2b03e	0.029625054
38	0x3cfcf30e	0.030877616
39	0x3c64e160	0.013969749
40	0x3cf6bd79	0.030119644
41	0x3c645499	0.013936185
42	0x3c3456d1	0.011007027
43	0xbd4c401c	-0.049865827
44	0xbcf71ded	-0.030165637
45	0xbd1746f5	-0.036932904
46	0xbd02f6f2	-0.031973787
47	0xbd65229f	-0.05594122
48	0xbdd125da	-0.10212298
49	0xbe0cba83	-0.13743024
50	0x3d696cce	0.05698853
51	0x3cbdcc19	0.02316861
52	0x3d9385be	0.07203244
53	0x3cc3b778	0.023891196
54	0x3971a2ea	0.00023044241
55	0x3cbcce3c	0.023047559
56	0x3d09d727	0.03365245
57	0x3c4d3d43	0.012526813
58	0xbc4f761b	-0.012662436
59	0xbc7e4174	-0.015518535
60	0x3cb62cc4	0.022238143
61	0xbc5dbcb8	-0.013533764
62	0xbcf6429d	-0.03006106
63	0xbd95cfc0	-0.07315016
64	0xbd94140a	-0.07230385
65	0xba3e1b89	-0.0007252028
66	0xbc33f983	-0.010984781
67	0xbd675422	-0.05647672
68	0xbe0f2c41	-0.13981725
69	0xbde93b9c	-0.11388323
70	0xbbe767c9	-0.0070619327
71	0xbc5446e9	-0.012956359
72	0x3cf1c077	0.02951072
73	0x3d3259e1	0.043542746
74	0xbcc056ef	-0.023478953
75	0x3bd15c7d	0.0063891993
76	0xbd13dc19	-0.036098573
77	0x3c8a265b	0.016863992
78	0xbc8428f9	-0.016132819
79	0x3da321c6	0.07965426
80	0x3d1a32f3	0.037646245
81	0xbc1488dd	-0.009065834
82	0xbd00b63c	-0.031423792
83	0x3cc51fdb	0.024063041
84	0x3d21a4b2	0.039463706
85	0x3e0c268e	0.13686582
86	0xbcb9d5bc	-0.022684924
87	0x3d17c2b6	0.037050925
88	0x3d43ded2	0.04781992
89	0x3db1712c	0.08664164
90	0xbca31a47	-0.019909991
91	0x3d286e17	0.041120615
92	0x3d6980ba	0.05700753
93	0x3d93376c	0.07188305
94	0x3dbaace3	0.09115007
95	0xbdb42290	-0.08795655
96	0xbdb87097	-0.0900585
97	0xbd0177a0	-0.031608224
98	0xbce6658d	-0.028124595
99	0xbd93050e	-0.071786985
100	0xbce10a60	-0.027470767
101	0xbda1c120	-0.07898164
102	0xbb44ae29	-0.0030011034
103	0xbdee405a	-0.11633368
104	0xbdb7cd69	-0.08974726
105	0x3d282248	0.04104832
106	0xbd128b13	-0.035777163
107	0x3dd9d686	0.1063662
108	0xbce77e01	-0.028258326
109	0x3dd40690	0.10352814
110	0x3d4f75db	0.050649505
111	0x3d20232b	0.03909604
112	0x3eb7f315	0.35927644
113	0xbc578bcf	-0.013155892
114	0x3e4976fa	0.19674292
115	0x3dc4c333	0.09607544
116	0xbcc4b72b	-0.024013123
117	0x3da79b8f	0.08183967
118	0x3c6ffffd	0.014648435
119	0xbcba6a6f	-0.02275583
120	0xbd9c1059	-0.076203056
121	0xbda79dbe	-0.08184384
122	0xbd812a48	-0.06306893
123	0xbe298189	-0.1655332
124	0xbded745e	-0.11594461
125	0x3cad2752	0.021136913
126	0xbc848509	-0.016176717
127	0x3d6952d9	0.056963775
128	0x3d23178d	0.03981738
129	0xbc272889	-0.010202535
130	0xbcee968f	-0.029124526
131	0xbc585f82	-0.013206365
132	0x3d0941f3	0.03351016
133	0xbbc456d3	-0.0059917956
134	0xbd426ec0	-0.0474689
135	0xbcb61c4c	-0.02223029
136	0x3c13f084	0.009029511
137	0x3ce9b9d6	0.028530996
138	0x3d8016f3	0.06254377
139	0x3b4dd487	0.0031407194
140	0x3d5cdf8d	0.053924132
141	0x3d283d8c	0.04107432
142	0x3ba4bbf1	0.005027287
143	0x3d8d8b21	0.06911302
144	0xbd0a2a2f	-0.033731636
145	0xbcb317c0	-0.02186191
146	0x3d37fc71	0.04491848
147	0x3d976457	0.07392185
148	0x3ca194bf	0.019724248
149	0x3dfd46f7	0.12367051
150	0xbcca29cf	-0.024678139
151	0xbc18515b	-0.00929674
152	0xbcb76259	-0.022385763
153	0x3ca71171	0.020394059
154	0x3c8d0afc	0.017217152
155	0xbd448faa	-0.04798857
156	0xbd227bdf	-0.039668914
157	0xbd2e9ab6	-0.042628013
158	0x3a2c2403	0.00065666455
159	0xbcd3b723	-0.025844162
160	0xbcd5b515	-0.026087323
161	0xbcce986d	-0.025219167
162	0xbd81edab	-0.0634416
163	0xbd5c5945	-0.05379607
164	0xbd17f8a6	-0.037102364
165	0xbc873b6b	-0.016507825
166	0x3cf3672d	0.029712284
167	0xbd3dc777	-0.046332803
168	0xbdae44ac	-0.08509192
169	0xbda5874f	-0.08082449
170	0x3bf1bbb1	0.007377111
171	0x3ae398ad	0.0017364227
172	0x3cfaad0d	0.030600095
173	0x3a43e364	0.00074725435
174	0xbd52cd2b	-0.051465195
175	0xbd2fcefa	-0.042921998
176	0xbd8186cc	-0.063245386
177	0xbc4360ff	-0.011924981
178	0xbd5e549a	-0.0542799
179	0xbb4f28bf	-0.003160998
180	0xbce06ffd	-0.02739715
181	0xbd75158f	-0.059835013
182	0x3b617844	0.003440396
183	0xbd41a6dd	-0.047278274
184	0xbbc2d4fd	-0.0059458003
185	0xba46bf68	-0.00075816223
186	0x3b83c798	0.004021596
187	0x3d2df73e	0.042472117
188	0x3c207b37	0.009795002
189	0x3d9f4886	0.077775046
190	0x3d707924	0.05870928
191	0x3ddf6717	0.10908335
192	0x3da52bc4	0.08064988
193	0x3dc77a68	0.09740144
194	0x3e2e1bb0	0.1700275
195	0xbcd5d170	-0.026100844
196	0xbcf8277e	-0.030292269
197	0xbd1fe68a	-0.03903822
198	0xbd946373	-0.07245531
199	0xbca969a3	-0.020680254
200	0xbc22698e	-0.0099128615
201	0xbbbc2218	-0.005741369
202	0xbc522297	-0.01282563
203	0xbd8010e3	-0.06253221
204	0xbd28a8e7	-0.041176703
205	0xbd2c089a	-0.04200039
206	0xbd4e5120	-0.050370336
207	0xbd98471e	-0.074354395
208	0xbdf9d39a	-0.12198563
209	0x3cbbd6e4	0.022929616
210	0xbd29903b	-0.041397315
211	0xbdba5915	-0.09099022
212	0xbe07901c	-0.13238567
213	0xbd0f3f29	-0.034972344
214	0x3d739efb	0.059477787
215	0xbd845747	-0.06461959
216	0xbde8cba8	-0.11366969
217	0xbe09446f	-0.13405012
218	0x3d0e5e40	0.034757853
219	0xbbc7f152	-0.0061017657
220	0xbd939710	-0.07206547
221	0xbdb667bc	-0.089065045
222	0xbda6831b	-0.08130475
223	0xbcc03641	-0.02346337
224	0xbd965e1d	-0.073421694
225	0x3d1813c5	0.03712823
226	0x3d7d731c	0.061877355
227	0x3d7e5b28	0.062098652
228	0x3de20e6a	0.110379055
229	0x3e2900f6	0.16504273
230	0xbd92a189	-0.07159717
231	0xbce26f51	-0.02764097
232	0xbc89f3ac	-0.016839825
233	0x3ce13fe5	0.027496288
234	0x3d5495f3	0.051900815
235	0xbd98b78a	-0.07456882
236	0xbd52d6b5	-0.05147429
237	0xbba880da	-0.0051423134
238	0x3d85afff	0.06527709
239	0x3c3ab306	0.011395222
240	0xbd7fce40	-0.062452555
241	0x3bfd6813	0.007733354
242	0x3d00c45d	0.031437267
243	0xbcf867fe	-0.030323025
244	0xbcf76269	-0.030198293
245	0xbda0996e	-0.078417644
246	0xbd45cb40	-0.048289537
247	0xbd9584a1	-0.073006876
248	0xbdc608db	-0.09669658
249	0xbcdb0351	-0.02673498
250	0x3e0d3b01	0.1379204
251	0x3d9d9fae	0.07696472
252	0x3c0b572c	0.00850467
253	0x3dc83c75	0.09777156
254	0xbd080ac3	-0.03321339
255	0xbcd94bfb	-0.026525488

conv2.bias f4 [16]
0	0x3d103848	0.035209924
1	0x3c1d3a98	0.009596489
2	0xbd087271	-0.033312265
3	0xbc8d5a56	-0.01725499
4	0x3d25fcae	0.040524177
5	0xbd86bf36	-0.06579439
6	0x3d1950fa	0.03743074
7	0x3c2a92b8	0.010410957
8	0x3ca38a50	0.019963413
9	0x3c271bd0	0.010199502
10	0x3a5a0e84	0.0008318203
11	0xbd0bc899	-0.03412685
12	0x3c43a2b8	0.011940651
13	0xbd37dc6e	-0.044887953
14	0xbd4c04b2	-0.049809165
15	0x3d714c12	0.058910437

batch2.weight f4 [16]
0	0x3faa1f66	1.3290832
1	0x3fa385e0	1.277523
2	0x3fb3f7e4	1.4060025
3	0x3fd121b1	1.6338407
4	0x3fbcd73f	1.4753188
5	0x3fbf7586	1.495774
6	0x3fade842	1.3586504
7	0x3fb6fb36	1.4295413
8	0x3fc4eeb0	1.5385342
9	0x3fada227	1.356511
10	0x3fc72246	1.5557334
11	0x3f9a2e73	1.2045425
12	0x3fc54db8	1.5414343
13	0x3fb8afb8	1.4428625
14	0x3fcc2004	1.594727
15	0x3faf2a9e	1.3684881

batch2.bias f4 [16]
0	0xbde53004	-0.11190799
1	0xbe37c4df	-0.17946194
2	0xbe780fbf	-0.24224757
3	0xbea5fc79	-0.32419184
4	0xbec4847b	-0.38382325
5	0xbe767fbe	-0.24072167
6	0xbee0b860	-0.43890667
7	0xbe09a791	-0.13442828
8	0xbe990a07	-0.29890463
9	0xbe3a09f1	-0.18167855
10	0xbebff6fe	-0.37493128
11	0xbdb4b0b7	-0.08822768
12	0xbecdd281	-0.40199664
13	0xbe5dfc2e	-0.2167823
14	0xbf0a1678	-0.53940535
15	0xbeb9868a	-0.36235458

batch2.running_mean f4 [16]
0	0x3e447e46	0.19188794
1	0xbe525990	-0.20541978
2	0xbd96e9d6	-0.073688194
3	0xbf134914	-0.57533383
4	0xbe886ca8	-0.26645398
5	0xbede1bbb	-0.43380532
6	0x3e9f9b26	0.31173056
7	0xbf29e1cc	-0.66360164
8	0xbfda1be4	-1.7039762
9	0xbf165d21	-0.58735853
10	0xbe1627cc	-0.14663619
11	0x3d95d2be	0.073155865
12	0xbf956258	-1.1670637
13	0x3e1e76cc	0.15475005
14	0xbf989b5a	-1.192241
15	0x3e5e174f	0.21688579

batch2.running_var f4 [16]
0	0x3f2b3fc7	0.6689419
1	0x3f01c14a	0.5068556
2	0x3f16ee31	0.589572
3	0x3f78546a	0.97003806
4	0x3f26546b	0.6497256
5	0x3f5e6e0f	0.86886686
6	0x3f501ed7	0.8129706
7	0x3f6a0160	0.9140835
8	0x3f8fd673	1.123732
9	0x3f400411	0.75006205
10	0x3f3e854b	0.7442214
11	0x3f23373f	0.63756174
12	0x3f653400	0.8953247
13	0x3f295803	0.6614992
14	0x3fa5772d	1.2926995
15	0x3f4cb874	0.79968953

fc1.weight f4 [120, 1024]
0	0x3becc582	0.007225693
1	0x3d2e1fce	0.0425108
2	0x3b8ea047	0.0043526026
3	0x3c4d6114	0.012535352
4	0x3d0e539d	0.03474771
5	0x3c5c31ea	0.013439635
6	0x3cbe65ec	0.02324196
7	0x3c91b249	0.017785208
8	0x3c69590e	0.014242424
9	0xbca0c055	-0.019622961
10	0x39be1b6c	0.00036260055
11	0x3c9e4df2	0.019324277
12	0x3b1d43d2	0.0023996723
13	0x3bcdb438	0.0062775873
14	0xbc8c582a	-0.017131884
15	0x3a2885e2	0.00064286415
16	0xbd0227b8	-0.03177616
17	0xbca1998e	-0.01972654
18	0xbc58532f	-0.013203426
19	0xbcd68aab	-0.026189169
20	0x3cbc0bab	0.022954782
21	0x3c5d0eec	0.013492327
22	0x3a97610c	0.0011549308
23	0x3d0202be	0.031740896
24	0xbbb9ae05	-0.0056664967
25	0x3c635624	0.013875518
26	0x3ab42a80	0.0013745576
27	0x3d4bcc3c	0.04975532
28	0x3d0e0f71	0.034682695
29	0x3c826794	0.01591853
30	0x3c96a9b9	0.018391477
31	0x3c529899	0.012853765
32	0xbcb24ec2	-0.02176607
33	0x3b9fd93c	0.0048781913
34	0x3cc17f1d	0.023620183
35	0x3d2869e8	0.041116625
36	0x3d073f3b	0.033019286
37	0x3cfe3092	0.03102902
38	0x3c921331	0.017831417
39	0x3cb747dc	0.022373132
40	0xbbc1cab9	-0.005914059
41	0x3d2e2c11	0.042522494
42	0x3cbd6fdb	0.023124626
43	0x3cff23a4	0.031144924
44	0x3ca6e08f	0.02037075
45	0x3c78f22d	0.015194458
46	0x3d00de78	0.031462163
47	0x3c2535e4	0.010083649
48	0x3c8fbb0a	0.017545242
49	0x3cd3cd16	0.025854629
50	0x3d37ca5c	0.04487072
51	0x3c13ad8d	0.009013546
52	0x3c81a045	0.015823493
53	0xbcd80c0d	-0.026372934
54	0x3c3d1c0e	0.011542333
55	0x3ad72fe7	0.0016417474
56	0xbd9364ae	-0.071969375
57	0xbd841de7	-0.06451016
58	0xbd1ecef2	-0.038771577
59	0xbd92b1c0	-0.07162809
60	0xbd4b24bc	-0.04959558
61	0xbd21177b	-0.039329033
62	0x3c1f5408	0.009724624
63	0xbc7ed719	-0.015554213
64	0xbc8d19ba	-0.017224181
65	0x3d00a7de	0.03141009
66	0x3b7e2a34	0.003878248
67	0x3b48da58	0.003064772
68	0x3cfbabb9	0.030721532
69	0x3c611d84	0.013739947
70	0x3c9a2bfa	0.018819798
71	0x3a4ec64e	0.0007887826
72	0xbb6199ef	-0.0034424027
73	0xbca01c59	-0.019544767
74	0xbd2495b9	-0.04018185
75	0xbce3c5ff	-0.027804373
76	0xbc93d602	-0.018046383
77	0xbc990e24	-0.0186835
78	0x3ca2a793	0.019855296
79	0xbcad5196	-0.021157067
80	0xbd247ec8	-0.04015997
81	0xbcdd7530	-0.027033418
82	0xbd5f5511	-0.054524485
83	0xbcbc958e	-0.023020532
84	0xbc4b2ac2	-0.012400331
85	0x3cccb15f	0.02498692
86	0x3c5ecb23	0.013598236
87	0xbc23dcb6	-0.010001352
88	0xbd29fa52	-0.04149849
89	0x3c43c81e	0.011949567
90	0xbcb0c1d5	-0.021576801
91	0xbd489c17	-0.048976984
92	0xbc8a1dbf	-0.016859887
93	0xbccb664d	-0.024829054
94	0x3c2a5f7d	0.010398743
95	0xbc25cc9d	-0.010119584
96	0x3ae05cbe	0.0017117483
97	0x3d29a5c6	0.04141786
98	0xbbcf8b86	-0.006333771
99	0xb9af2be2	-0.00033411296
100	0x3ced018e	0.028931405
101	0xbcfc0786	-0.030765306
102	0x38b9a290	8.851767e-05
103	0x3bfe9d30	0.007770203
104	0x3c82a6d0	0.015948683
105	0x3d2502be	0.04028582
106	0x3c77225d	0.015083876
107	0x3d717052	0.058945008
108	0x3ced1e54	0.028945126
109	0x3c69a08d	0.01425947
110	0xbc1da461	-0.0096217105
111	0x3b65e666	0.0035079955
112	0x3ce1db4f	0.027570395
113	0x3d7ccb0c	0.061717078
114	0x3d8894ea	0.06669028
115	0x3d5615f0	0.052267015
116	0x3d805b3c	0.062674016
117	0x3cb48f3c	0.022040956
118	0x3d5329d2	0.051553555
119	0x3c9de502	0.019274238
120	0xbb477566	-0.0030434965
121	0x3c36f76a	0.011167387
122	0x3d155929	0.036461983
123	0x3d62f3be	0.055408232
124	0x3d855730	0.0651077
125	0x3d5d3d7c	0.054013714
126	0x3b8d4aba	0.0043118866
127	0xbd1ae19a	-0.037812807
128	0x3bd76f94	0.0065745804
129	0xbc236c04	-0.009974483
130	0xbd2dba5a	-0.042414047
131	0x3cab3ec3	0.02090395
132	0x3cb729b8	0.02235876
133	0x3cd3e2d5	0.025864998
134	0x3c9d5031	0.019203277
135	0x3c7fe8bb	0.015619452
136	0xbbf3185b	-0.007418675
137	0x3c9aafa2	0.018882576
138	0x3cc811c1	0.024422528
139	0xbc891e7a	-0.016738165
140	0xbbb1793a	-0.0054160627
141	0x3c365d25	0.011130606
142	0xbc854e02	-0.016272549
143	0x3c6e9d43	0.014563861
144	0x3b65a485	0.0035040688
145	0x3d642f05	0.055708904
146	0x3ce2ab64	0.027669616
147	0x3cb823a1	0.022477927
148	0xbd3b606f	-0.045746263
149	0x3ac299d5	0.0014846871
150	0xba84ae2e	-0.001012271
151	0xbaddbfda	-0.0016918138
152	0x3c4ddf8a	0.012565503
153	0x3c82a60f	0.015948324
154	0x3da0b758	0.0784747
155	0xbbd93495	-0.0066285827
156	0xbcb8bbb9	-0.02255045
157	0xbd0ab9d1	-0.033868615
158	0xbd6e2295	-0.05813845
159	0xbb9f006c	-0.004852345
160	0x3ca5ea23	0.020253247
161	0x3cc24c78	0.023718104
162	0x3d2fb69c	0.04289876
163	0x3ae0934d	0.0017133743
164	0xbced12bd	-0.0289396
165	0x3cad66a2	0.021167103
166	0xbc2e6fb7	-0.010646752
167	0x3c957f30	0.018249124
168	0xbc08a653	-0.008340436
169	0xbc24bc24	-0.010054622
170	0x39ff2df8	0.0004867164
171	0x3cbc2520	0.022966921
172	0x3c21ecde	0.009883134
173	0x3c7a3360	0.015271038
174	0xbc58c73a	-0.013231093
175	0xbb555994	-0.0032554613
176	0xbcf9d1d0	-0.030495554
177	0xbd07f277	-0.033190217
178	0xbd63cd27	-0.05561557
179	0xbcf8b222	-0.030358378
180	0xbc3c6357	-0.011498294
181	0xbc67a1ae	-0.014137669
182	0xbb9dc08b	-0.0048142127
183	0x3c99cbc9	0.01877393
184	0xbd42f0ee	-0.04759305
185	0xbcf7497a	-0.030186404
186	0xbd4a809a	-0.04943905
187	0xbcdc5b8d	-0.026899124
188	0x3b87a815	0.00413991
189	0xbbc2e39b	-0.005947543
190	0xbc4a09de	-0.012331454
191	0xbd0eec8b	-0.034893554
192	0x3c69580c	0.014242183
193	0x3c0a8aa6	0.008455908
194	0x3c273c84	0.010207299
195	0x3d4ed39e	0.050494783
196	0x3c93252c	0.01796206
197	0x3ce27677	0.027644379
198	0x3d1c56a6	0.038168572
199	0x3c3e3941	0.01161033
200	0x3cde13c5	0.027109036
201	0x3d352813	0.04422767
202	0xba35bdb9	-0.0006932873
203	0xbaca51fb	-0.0015435809
204	0xbc29a804	-0.010354999
205	0x3b9378a4	0.0045004655
206	0x3b24aa7a	0.0025126026
207	0xbc91040d	-0.017702127
208	0xbc6c1336	-0.014408877
209	0xbb399e68	-0.0028323177
210	0xbc556b98	-0.013026141
211	0x3cc2091a	0.02368598
212	0xbbc1424e	-0.0058977967
213	0xbc9565e9	-0.018237071
214	0xbcd7d4f6	-0.026346665
215	0x3bb4b131	0.005514287
216	0xbd0d92a2	-0.034563668
217	0x3b83e8ca	0.0040255534
218	0xbc2b30f7	-0.010448686
219	0xbd7b3357	-0.06132826
220	0xbd31f584	-0.043447033
221	0xbd1d7bad	-0.038448025
222	0xbcd5cad6	-0.026097696
223	0x3b88c994	0.0041744206
224	0x3cb738b9	0.022365915
225	0x3c362b56	0.0111187305
226	0xbb815628	-0.003947038
227	0xbcf19ddd	-0.02949422
228	0xbd080ac4	-0.033213392
229	0xbc88dfb9	-0.016708242
230	0x3ca7d1c6	0.02048577
231	0x3d1d6872	0.038429685
232	0x3ce43769	0.027858453
233	0x3c92e955	0.017933527
234	0xbd467af5	-0.048457105
235	0xbc934859	-0.017978834
236	0xb9bef37e	-0.0003642104
237	0xbc539d81	-0.01291597
238	0x3cb4f692	0.02209023
239	0x3cab0ec1	0.020881059
240	0x3c9a7f10	0.018859416
241	0x3c996349	0.0187241
242	0x3cc8cb38	0.024510965
243	0x3bc1a64d	0.005909717
244	0x3c4eea4e	0.012629105
245	0x3c679983	0.014135721
246	0x3c8c86b8	0.017154083
247	0x3d1c1a4a	0.03811101
248	0x3ba5bf1b	0.005058182
249	0xbc8789ee	-0.016545262
250	0x3c8f2adf	0.017476497
251	0xbcd90d83	-0.0264957
252	0xbb7ecad6	-0.0038878224
253	0xbcd3a24e	-0.025834229
254	0x3ce9fa3c	0.028561704
255	0x3d43f960	0.047845244

fc1.bias f4 [120]
0	0xbc08e914	-0.008356351
1	0xbc6f63aa	-0.014611164
2	0x3c77b2a0	0.015118271
3	0x3cc91b39	0.024549114
4	0xbd29619d	-0.041352857
5	0xbc92e2e3	-0.017930454
6	0xbba9101c	-0.005159391
7	0xbc453ff7	-0.012039176
8	0xbcc462cc	-0.023972891
9	0x3d195f1c	0.03744422
10	0x3c312bb4	0.010813642
11	0x3d1064ae	0.035252266
12	0x3d209632	0.039205737
13	0xbc5701c2	-0.013122978
14	0x3bc62a8b	0.006047552
15	0xbd3aa688	-0.045568973
16	0xbc1878af	-0.009306117
17	0x3d2ea130	0.04263419
18	0xb9686494	-0.00022162712
19	0x3c3958f9	0.011312717
20	0x3be64d1e	0.007028236
21	0xbd025062	-0.03181494
22	0x3c7721b7	0.015083722
23	0x3c38b32a	0.011273185
24	0xbc460b71	-0.012087689
25	0x3d82f83a	0.06395002
26	0xbca38ed3	-0.019965565
27	0x3d8bb667	0.068219
28	0xbcd30ac5	-0.025761971
29	0xbc812cc9	-0.015768426
30	0x3c5592d5	0.013035496
31	0xbb9497ec	-0.004534712
32	0xbcc301fe	-0.02380466
33	0x3c8eb9b9	0.017422544
34	0x3c5c07fd	0.013429639
35	0xbd47e3d5	-0.048801262
36	0x3c76b205	0.015057092
37	0xbca29075	-0.019844273
38	0x3cc550a6	0.024086308
39	0x3c64d320	0.013966352
40	0x3d9723df	0.07379889
41	0xbbc01efb	-0.005863068
42	0xbb1d9cbd	-0.0024049722
43	0x3c938e29	0.018012123
44	0x3b2efaf5	0.0026699875
45	0x3ceb6490	0.028734475
46	0x3c3cc231	0.011520908
47	0x3d2cf511	0.0422259
48	0x3d33a6f4	0.04386039
49	0xbd0d04e1	-0.03442848
50	0x3ccb80af	0.024841635
51	0x3cee7372	0.029107783
52	0x3bc9fe84	0.006164374
53	0x3d0e3432	0.034717746
54	0xbcc18b5b	-0.02362602
55	0x3d2ab7e8	0.041679293
56	0x3ab3140a	0.0013662588
57	0xbc5748d5	-0.013139923
58	0x3c173c4e	0.009230686
59	0x3cadefb2	0.02123246
60	0xbcfc441e	-0.0307942
61	0x3c56b941	0.013105691
62	0xbc8f51d5	-0.017495075
63	0xbc85eb55	-0.016347567
64	0x3bb86908	0.005627755
65	0xbb4fd1b6	-0.003171069
66	0xbc2bdb86	-0.01048935
67	0xbc80f817	-0.015743298
68	0x3d77b8c2	0.060478933
69	0x3d7d6398	0.061862558
70	0x3d13f5bf	0.036123034
71	0xbc9097ad	-0.01765045
72	0x3d169d8a	0.036771335
73	0x3aedaa5c	0.0018132436
74	0xbbd4d65b	-0.0064952797
75	0xbd273644	-0.040823236
76	0x3d7d78b7	0.0618827
77	0xbbed07b3	-0.007233584
78	0x3d4f0028	0.05053726
79	0x3baf11e1	0.0053427075
80	0xbc913891	-0.017727168
81	0xbc7681b4	-0.015045572
82	0xbcebd326	-0.028787207
83	0xbc565623	-0.01308206
84	0xbc979361	-0.018502893
85	0xbd1dc28f	-0.038515624
86	0xbca799f4	-0.020459153
87	0xbc066af4	-0.008204211
88	0xbbeadb3f	-0.0071672495
89	0x3b86784d	0.0041036964
90	0x3a9cbda2	0.001195837
91	0x3cb5029a	0.022095967
92	0x3ae401ed	0.0017395593
93	0xbaeeada4	-0.0018209708
94	0x3d3a6c89	0.045513663
95	0x3d358020	0.044311643
96	0x3b6883fb	0.0035479057
97	0xbcc98d63	-0.024603551
98	0xbc481201	-0.012211324
99	0xba570bf8	-0.00082033826
100	0x3db815ba	0.08988519
101	0xbcd2145a	-0.02564447
102	0x3cb98e1a	0.022650767
103	0x3c652755	0.013986428
104	0xbceb2085	-0.02870203
105	0xbccfc004	-0.025360115
106	0xbd1d34b6	-0.038380347
107	0x3cd3ab68	0.025838569
108	0x3c801b86	0.015638124
109	0xbc9efd0f	-0.019407777
110	0x3d2a6687	0.041601684
111	0x3c8f7c77	0.017515404
112	0x3c885355	0.016641298
113	0x3c13bd20	0.009017259
114	0xbbba155d	-0.005678816
115	0xbd2b554f	-0.041829403
116	0xbd969208	-0.07352072
117	0x3beb0514	0.007172236
118	0xbd357fbe	-0.044311278
119	0x3cff7b29	0.031186657

fc2.weight f4 [10, 120]
0	0x3ecc99c4	0.39961064
1	0xbd8e9b05	-0.069631614
2	0xbe004bdd	-0.1252894
3	0xbdf90226	-0.12158613
4	0xbe07e299	-0.13270034
5	0x3d1b84c4	0.037968412
6	0xbc0dba6d	-0.008650404
7	0x3d0bbc94	0.03411539
8	0x3d20bbba	0.03924153
9	0xbe44f0aa	-0.19232431
10	0x3cc3c794	0.023898877
11	0x3dcbb4d5	0.099466
12	0xbd92a6a3	-0.0716069
13	0x3da24d50	0.079249024
14	0xbe0c6169	-0.13709034
15	0x3e0d79ab	0.13815944
16	0x3cbe328e	0.023217466
17	0xbe5188d1	-0.20462348
18	0x3dfc54af	0.123208396
19	0xbe43043d	-0.19044586
20	0xbd2f16c2	-0.042746313
21	0xbd912433	-0.070869826
22	0xbddc70cb	-0.10763701
23	0xbdc243ef	-0.094856136
24	0x3d9ac954	0.075579315
25	0xbdfcb4ae	-0.123391494
26	0x3e21ee20	0.15813494
27	0xbdab2caf	-0.08358132
28	0xbd45e0c8	-0.04831007
29	0xbdedbdf2	-0.11608495
30	0xbc129c9f	-0.008948474
31	0xbe3208e1	-0.173862
32	0x3dc074e6	0.093972966
33	0xbe54e8dd	-0.20791955
34	0xbd777e21	-0.06042302
35	0x3e185843	0.14877419
36	0xbdca099d	-0.09865115
37	0x3de70315	0.11279885
38	0x3e0db3a2	0.13838056
39	0xbe04e594	-0.12978202
40	0xbcfe544d	-0.031046057
41	0x3dbc2b71	0.09187973
42	0xbd6cc8c9	-0.05780867
43	0x3cd5804a	0.02606215
44	0xbe702fd4	-0.23455745
45	0xbe76b25d	-0.24091478
46	0x3e151967	0.14560471
47	0xbe87460f	-0.26420638
48	0x3c8f606d	0.017502034
49	0x3dea051c	0.11426756
50	0x3ca64330	0.02029571
51	0x3d85effb	0.06539913
52	0x3c0e771e	0.008695392
53	0x3ddaa888	0.10676676
54	0x3dd9a3e1	0.106269605
55	0xbe847a20	-0.25874424
56	0xbd51edeb	-0.051252287
57	0x3dec4ec8	0.11538464
58	0x3c52fc01	0.012877465
59	0xbe00976e	-0.12557766
60	0x3e184f4b	0.14873998
61	0x3d51e648	0.051245004
62	0xbdff8c24	-0.124779016
63	0x3d9cfb59	0.07665128
64	0x3a3dc94e	0.00072397746
65	0xbe09d7d0	-0.13461232
66	0xbda35eef	-0.079770915
67	0xbdbddb3d	-0.09270332
68	0xbc61e223	-0.013786825
69	0xbe78c721	-0.24294712
70	0xbe4c40d9	-0.19946612
71	0x3e7bfc2e	0.24607918
72	0x3dd222f6	0.102605745
73	0x3ce21396	0.02759723
74	0x3e52253d	0.20522018
75	0x3d7177a0	0.058951974
76	0xbea6e390	-0.3259549
77	0x3e298c37	0.16557394
78	0xbc829001	-0.015937807
79	0xbde6173b	-0.112348996
80	0x3e385692	0.18001774
81	0x3e02d353	0.12775926
82	0x3d6c9625	0.057760376
83	0xbe72de5d	-0.23717637
84	0x3d580921	0.05274308
85	0x3e07d1d6	0.1326364
86	0x3e2109a8	0.1572634
87	0xbe87aef0	-0.26500654
88	0xbd029bcd	-0.031886864
89	0xbe641d70	-0.22276855
90	0x3d76dbc2	0.06026817
91	0x3e0053d2	0.12531975
92	0x3e22d647	0.15902053
93	0xbe7e0b47	-0.2480899
94	0xbe06ea31	-0.13175274
95	0xbe462c40	-0.19352818
96	0xbd9151a0	-0.07095647
97	0x3e54bbca	0.20774761
98	0x3e8814b4	0.26578295
99	0x3db42c47	0.08797508
100	0x3d2c32c8	0.042040616
101	0x3daa4f6e	0.08315931
102	0x3e049570	0.12947631
103	0xbcc93f09	-0.02456619
104	0x3e1a0bb9	0.15043534
105	0xbd8a4426	-0.067512795
106	0x3d6549d6	0.05597862
107	0x3db2a084	0.08722022
108	0x3e3a9792	0.18221882
109	0xbdbc8895	-0.092057385
110	0x3b957759	0.0045613465
111	0xbe1ccb76	-0.15311989
112	0x3e620b1a	0.22074547
113	0x3e280304	0.164074
114	0x3e6d01bf	0.23145197
115	0x3e121c6f	0.14268659
116	0x3e206d9f	0.15666817
117	0x3e07745d	0.13227983
118	0x3d128889	0.03577474
119	0x3e69fbab	0.2284991
120	0xbd80d9b4	-0.062915236
121	0xbda915f3	-0.082561396
122	0x3ee5d446	0.44888514
123	0x3e12faee	0.14353535
124	0x3bdab15e	0.006673976
125	0x3d8603c4	0.06543687
126	0x3d11dddd	0.035611976
127	0x3e079ae6	0.13242683
128	0x3e101260	0.1406951
129	0xbd157abf	-0.036494013
130	0xbdf142cb	-0.11780318
131	0xbe083c79	-0.13304318
132	0x3d1257c4	0.03572823
133	0xbe04e437	-0.12977682
134	0xbe7f8be7	-0.24955712
135	0x3b82491b	0.003976
136	0xbcc6b913	-0.024258172
137	0xbd6f008d	-0.058350135
138	0xbca8285f	-0.020527063
139	0x3c28e346	0.010308092
140	0x3d207945	0.03917815
141	0xbd33981e	-0.043846242
142	0xbe90e95b	-0.28303036
143	0x3ab69754	0.0013930597
144	0x3dcf0a1d	0.10109351
145	0xbdf71dfc	-0.12066266
146	0x3e595b01	0.21226121
147	0xbddb1a55	-0.10698382
148	0xbd1a2104	-0.037629142
149	0x3df75a85	0.12077812
150	0xbd31ea4a	-0.043436326
151	0xbe115fee	-0.1419675
152	0xbdd8c06d	-0.10583577
153	0xbd46ea83	-0.04856349
154	0x3b279d2c	0.002557586
155	0xbe583e52	-0.21117523
156	0x3dc119a5	0.094287194
157	0x3eb975bb	0.36222634
158	0x3deeb9d3	0.11656537
159	0xbccd190f	-0.025036363
160	0xbe8e266c	-0.2776369
161	0x3c947f8d	0.018127227
162	0x3c9ccae5	0.019139716
163	0x3d63f807	0.05565646
164	0xbdcbdca0	-0.0995419
165	0x3ed20b18	0.4102409
166	0xbe8b2b19	-0.27181318
167	0xbdc4e5d1	-0.096141465
168	0x3e287fc9	0.16454996
169	0xbdb3e1a5	-0.08783273
170	0x3d3ce9da	0.046121456
171	0xbdca47c2	-0.09876968
172	0xbea4cffd	-0.32189932
173	0xbe61f552	-0.22066239
174	0x3e127ed8	0.143062
175	0xbe25b5a7	-0.16182576
176	0xbd1597e5	-0.03652181
177	0x3d045553	0.032307934
178	0x3df51167	0.1196621
179	0x3da19ca8	0.07891208
180	0xbe42c2c3	-0.19019608
181	0xbd215848	-0.039390832
182	0x3e191c90	0.14952302
183	0x3e8e1ca3	0.27756223
184	0x3dc9d293	0.09854617
185	0x3e25145d	0.16121049
186	0xbdba772e	-0.09104763
187	0x3ebb3487	0.36563513
188	0x3b8aea90	0.004239388
189	0xbe24ed58	-0.16106164
190	0x3e0fd138	0.14044654
191	0xbe0244e9	-0.127216
192	0xbda6c22d	-0.08142505
193	0x3cb80265	0.02246208
194	0xbe760417	-0.24024998
195	0xbe0e4828	-0.13894713
196	0x3e014779	0.12624921
197	0xbe0c1624	-0.13680321
198	0xbdac5fe5	-0.08416728
199	0x3d430e5a	0.04762111
200	0x3e66681b	0.2250065
201	0x3c9c8cfd	0.019110197
202	0xbd9cd6c1	-0.076581486
203	0x3d8bd6ce	0.0682808
204	0xbcf266fc	-0.029590122
205	0xbe42a257	-0.1900724
206	0x3df8c1c3	0.12146332
207	0xbe00d274	-0.12580281
208	0xbe150b67	-0.14555131
209	0xbd7a621a	-0.061128713
210	0xbdd14a53	-0.10219254
211	0xbddb01db	-0.10693713
212	0xbdc67f85	-0.09692291
213	0xbc10a5da	-0.008828605
214	0x3ea7f780	0.32806015
215	0x3d7fe56b	0.06247465
216	0x3d2eac96	0.04264506
217	0xbe119f73	-0.14220981
218	0xbdc8fb18	-0.09813517
219	0x3e72d1ff	0.2371292
220	0xbe8f2647	-0.2795889
221	0xbe623a13	-0.22092466
222	0x3dc1af7e	0.094573006
223	0x3e415d66	0.18883285
224	0x3df68b92	0.1203834
225	0x3d54b2ea	0.05192844
226	0x3dc810b9	0.097688146
227	0x3e363781	0.1779461
228	0x3e406b20	0.18790865
229	0xbe758dd1	-0.2397988
230	0xbe8e4f77	-0.27795002
231	0x3e1d0abf	0.1533613
232	0xbe39dc33	-0.18150406
233	0xbd2ba352	-0.0419038
234	0x3e0d2b0f	0.13785957
235	0x3e51d35c	0.20490783
236	0xbd8263f0	-0.06366718
237	0xbd88dde4	-0.06682947
238	0xbcfd7813	-0.030941045
239	0x3e2f90fb	0.1714515
240	0xbb874264	-0.0041277874
241	0xbd82d6e6	-0.06388645
242	0x3d1f2734	0.038855746
243	0x3c17b4ce	0.009259416
244	0x3e0d2bf1	0.13786294
245	0x3dac91c9	0.08426244
246	0x3d64f8da	0.055901386
247	0x3db94ab4	0.090474516
248	0x3d9dc401	0.077034004
249	0x3c4f4d16	0.012652656
250	0x3e139c13	0.14415006
251	0xbdc9eb2a	-0.09859307
252	0xbe4689d9	-0.19388522
253	0xbcaac68a	-0.020846624
254	0x3e55a617	0.2086414
255	0xbd159b74	-0.036525205

fc2.bias f4 [10]
0	0xbe5a9446	-0.21345624
1	0xbd6acd47	-0.057324674
2	0xbdea57e6	-0.114425465
3	0x3cf8bab0	0.030362457
4	0x3e779fa0	0.24181986
5	0xbce9f9f7	-0.028561575
6	0x3e088424	0.13331658
7	0xbdd1f0db	-0.10251018
8	0x3dd514c2	0.1040435
9	0xbc351767	-0.011052943
