models/net_augm/model_epoch_41.pt (torch, 517807 bytes, 16 tensors)

conv1.weight f4 [8, 3, 5, 5]
00000000: c290 963c f2bb bbbc 1702 e4bc ed00 903d
00000010: f2dd 103e 3ea0 8b3d 2390 5bbd 23a2 f7ba
00000020: 6071 51ba 4e44 5d3e 1e87 93bd 2dd0 a1bd
00000030: d7a5 0cbe 6adc 9b3d 3e8f c03d c0cf 11bd
00000040: e190 a6bd 74a1 50bd 1cf5 26bd 8bc5 d23c
00000050: 0e83 ddbd 819e 843d 3dd7 02bc 0763 2f3c
00000060: a979 33bc 80db 893d 10a0 633d 5c3b 0abe
00000070: 3725 54bd fe2c 583d b546 dabd 9a82 8bbd
00000080: 9bb7 f439 3768 053c 0619 343e a8fb 26be
00000090: 0005 0bbc 955b 5dbd 9573 c7bb 49c8 7c3e
000000a0: a4d6 8ebd afc7 adbd 6be5 b93c 5aae dbba
000000b0: c2fc da3d 05db 82bd bf4b acbd 0bac bbbd
000000c0: 1e37 8d3d 5fe7 bd3d 2d92 76be f3b0 41be
000000d0: 4ec9 b8bc 7dd5 bebb dd50 383e f216 99be
000000e0: bdc1 52be e5bf e5bd 93a3 ff3c 3f11 1d3e
000000f0: 1558 15be eb7d 34be b6a1 c53d 6b8f 703e
00000100: efbd 733e 74a4 4ebe 4efa 1abd 9809 e33b
00000110: e242 683e 76ea 893e 12a6 e7bd b7f7 6bbd
00000120: 17cb 6f3d a416 ca3d edd4 e53d 1441 23be
00000130: ec4c 32be 7582 76bd 1d0e 56bb 7a39 0e3e
00000140: c969 7cbe 9e13 acbe fbeb 87be 8039 80bd
00000150: 0719 59bd ef91 21be 598b 1bbe 29a2 4dbe
00000160: 11af 44bd 7d93 193e cb8e 33be ba5b 31be
00000170: 5c58 61bd ae3f 163e 3148 883e 9022 3f3c
00000180: 5707 90bd dc06 cb3d 96a8 8e3e 3533 b73e
00000190: 38a6 5e3d f67d 4c3d 0d87 1ebb 7c72 2cbe
000001a0: 2f0c 1dbe 9bdf e5bd 7934 7c3c bc91 d7bc
000001b0: f1c7 66be 4f17 46be ab0e 193e 3ae4 6e3e
000001c0: 8184 c83d 25e4 c6bc d7b3 17bd 35af 613c
000001d0: 62f6 e33d 2f94 29bb bd93 b8bc 73f5 10be
000001e0: c8f8 843d 96cf 35bd dc1a 9a3d afa2 eabd
000001f0: ab1a 863d 652c 393e 5c20 2b3e e78f 933e
00000200: f018 5a3e ef64 4c3e af1d 7f3e 518e 803e
00000210: 4ff1 793e 1f9b a93d 53d3 023e b5a3 1f3e
00000220: d592 903d b6f1 103e 5e17 773d 293d cebd
00000230: b1a7 0d3c dd8c b93c 3be8 9fbd e4f9 30be
00000240: 1be0 6bbe 8978 11bd cd9b db3b 9929 0ebe
00000250: 965e 81be 52e0 13be 85c1 023e 5d33 053e
00000260: 2a51 a43b c485 bcbd b8a4 0dbd 3f09 513e
00000270: 4a64 a9bd 5413 44be 4287 c6bd 0348 863d
00000280: 6049 cd3e b47b eabe 4446 8fbe f1a4 5d3e
00000290: 6104 003d 23d9 15bd eb30 eebe 6abc 5d3d
000002a0: 9c9b 8a3e c069 b5bd 307c 823c 34ba 4bbb
000002b0: da71 6c3e d775 b53c 5615 cc3c da02 693e
000002c0: 952c 7a3d 1ee9 37be 8b74 b3bd 9871 263e
000002d0: 0ccb d83e 73f5 33be 91e7 fbbe 30c6 243a
000002e0: 0a32 9c39 d7fb c33e 5e13 eabe cf10 7fbe
000002f0: 1d0c ad3e e2bf 2f3e 0632 cc3d 77b5 00bf
00000300: 4600 5c3c cd46 a33e 0098 efbb 86bd 3c3d
00000310: 2e52 65bd 4f82 013e 1cff cebd e765 e73b
00000320: e72d 77bd 7c5c 9abc 3cae 5c3d 05ff 0a3e
00000330: 7ee0 f2bd 6722 3c3e 5469 eebd 90d4 2dbe
00000340: dc24 463e 81b9 68bd 0094 8d3e c988 e9be
00000350: 09a1 febc adc9 b93e fa6e 33be 0632 90bc
00000360: 6b75 99be 559b 343e 7a58 6f3e 9548 8abe
00000370: ed74 0bbd 1302 64bd 9fa9 463e 04c1 f03d
00000380: aa4c 8fbd 387a 1cbe 3da4 6abe c1f4 3cbe
00000390: 09c3 b7be 596e 88be 6dd5 f83c 586c eabc
000003a0: c729 fabc 2bc4 d5bc 71c3 a53d 7ab5 133e
000003b0: 20a5 773e 9317 5a3e 23e8 1c3e 2a5e b83d
000003c0: b11a 83bd b16a 893d aa3b a13d 2954 cd3d
000003d0: eabc 003e e21d d03d 339d 80bc 8877 93ba
000003e0: 9084 b9bd a6b5 b03d 218e 853d 5ae4 20be
000003f0: 2ed1 34be 1d8a 21be a6d4 f8bd 88d9 023e
0.018379573 -0.022916768 -0.027833028 0.070314266 0.14147165 0.06817673 -0.053604256 -0.0018892925
-0.00079896115 0.21608087 -0.07203506 -0.079010345 -0.13735138 0.076104 0.09402321 -0.035598516
-0.08133102 -0.050935224 -0.0407611 0.025728961 -0.10816012 0.06475545 -0.007985887 0.010704762
-0.010954299 0.067313194 0.05557257 -0.13499206 -0.051793303 0.052777283 -0.106580175 -0.0681202
0.00046676103 0.008142523 0.1758767 -0.16306937 -0.008485079 -0.054042418 -0.0060867765 0.24685778
-0.06974533 -0.08485352 0.022692403 -0.0016760335 0.10692741 -0.06389431 -0.08412885 -0.09163674
0.068952784 0.09272646 -0.24079199 -0.18915157 -0.022556927 -0.0058237896 0.17999597 -0.29900318
-0.20581718 -0.112182416 0.031205928 0.1533861 -0.14584382 -0.17626159 0.096499845 0.2349221
0.23802923 -0.20179921 -0.037836365 0.006928634 0.22681764 0.26936692 -0.11310972 -0.057609286
0.05854329 0.098675996 0.11222253 -0.15942794 -0.17412156 -0.060183007 -0.003266222 0.13889113
-0.24649729 -0.33608717 -0.26547226 -0.06260967 -0.053002384 -0.15778325 -0.15189876 -0.2008139
-0.04801852 0.14997669 -0.1753494 -0.17320147 -0.055015907 0.1467273 0.26617578 0.011665955
-0.0703265 0.09913418 0.27862996 0.35781255 0.054357737 0.049924813 -0.0024189383 -0.16840547
-0.15336679 -0.1122429 0.01539337 -0.026314609 -0.22537209 -0.19344829 0.14947002 0.23329249
0.09790898 -0.02427871 -0.037036743 0.013774683 0.11130978 -0.0025875678 -0.022531385 -0.14156131
0.06492764 -0.044387423 0.07524654 -0.11456811 0.06548055 0.18083341 0.16711563 0.28820726
0.21298575 0.19960378 0.24913667 0.2510858 0.24408458 0.0828154 0.12775926 0.15589793
0.07059256 0.14154705 0.06032502 -0.10070259 0.008645938 0.022650177 -0.07807966 -0.17282826
-0.23034708 -0.035515342 0.0067019225 -0.13883056 -0.25267476 -0.1444104 0.12769134 0.13007875
0.0050145583 -0.09205201 -0.034580916 0.20413683 -0.08271082 -0.19147998 -0.09693767 0.06556704
0.40095043 -0.45797503 -0.27983296 0.21644951 0.031254176 -0.03658403 -0.46521696 0.054134764
0.27071846 -0.08858061 0.015928358 -0.0031086328 0.23090306 0.022150917 0.024912518 0.22754994
0.061077673 -0.17960021 -0.08762463 0.1625427 0.42342412 -0.175741 -0.4920011 0.0006285636
0.0002979192 0.38278076 -0.457179 -0.24908756 0.33798304 0.17163041 0.09970479 -0.50276893
0.0134278 0.31889954 -0.007311821 0.04607918 -0.055986576 0.12647365 -0.10107252 0.0070617083
-0.06034651 -0.018842928 0.0538771 0.13573845 -0.11859225 0.18372498 -0.116411835 -0.16975617
0.19349998 -0.056817535 0.27651978 -0.4561217 -0.031082647 0.3628668 -0.17522803 -0.017601978
-0.29972395 0.1763738 0.23373595 -0.270085 -0.034047056 -0.05566604 0.19400643 0.11755565
-0.069970444 -0.15280998 -0.22914214 -0.18452741 -0.35890988 -0.2664669 0.030375207 -0.028616115
-0.0305375 -0.026094517 0.08093918 0.14424697 0.24184084 0.21298055 0.15322928 0.09002335
-0.06401575 0.06709803 0.07872708 0.10025818 0.12572065 0.1016195 -0.015699958 -0.0011250833
-0.090584874 0.08628397 0.065212496 -0.15712109 -0.1765792 -0.15775342 -0.121499345 0.12778294

conv1.bias f4 [8]
00000000: 9d35 283b 2858 aa3d 7e1b 873d fc0d dcbd
00000010: 34ce a83d ca96 b33d 4274 9cbd 9c8b 9fbd
0.0025666722 0.08317596 0.065970406 -0.10744855 0.08242455 0.08768995 -0.07639362 -0.077903

batch1.weight f4 [8]
00000000: 3c76 873f 7623 423f 1b16 993f f8a3 6e3f
00000010: 1985 673f 56e8 873f d547 8f3f 812c 4d3f
1.0582957 0.7583536 1.1959871 0.93218946 0.90437466 1.0617778 1.1193796 0.8014603

batch1.bias f4 [8]
00000000: 9f29 d2bd 5415 993e 8cca 64be 2a6b 4d3c
00000010: fc6c 8d3d 4d5e 5bbe e913 8abe 9f65 773d
-0.10261845 0.29899085 -0.2234289 0.012537757 0.06905553 -0.21422692 -0.26968315 0.060399648

batch1.running_mean f4 [8]
00000000: 0b25 97bd 8195 433d 317c 183d dd93 e03b
00000010: 36f9 91bd a0ec 073d 4ce2 c7bd f247 6c3e
-0.07380112 0.04775 0.037227813 0.006853564 -0.07127611 0.033184648 -0.097599596 0.2307432

batch1.running_var f4 [8]
00000000: 19be 983e 1d9c 4d3d d65c 0d3e 47b8 163e
00000010: eb83 023d 2f9e d13d 80d4 bc3d 6f73 5f3d
0.29832533 0.05019771 0.13804945 0.14718734 0.031864088 0.10235249 0.09220219 0.054553445

conv2.weight f4 [16, 8, 5, 5]
00000000: b8f2 20bd b5a6 54bc 6a55 c83d 95c3 7f3b
00000010: 3fa8 ed3c da8a 09bd 3455 3ebd 491e 02bd
00000020: e97f a9bd 79c1 4dbd 2e34 6bbc fbaf 28bd
00000030: b3eb 21bd ca39 1ebe bd1c a8bd 33cf 363d
00000040: 7507 a1bc f71a 27bd 1f0e e5bd dc2e 07bd
00000050: 1db0 29bb b746 58bd ac38 8ebc abd7 9abd
00000060: ae45 143c fcd7 72bc 91b7 2dbc 7dcc 5cbd
00000070: fead e0bc 4987 74bd c258 8a3d 42a6 a13d
00000080: 43f8 123e ca7d 0f3e 453a 053e dfa4 cc3d
00000090: cb10 e23d 5c0c f13c d8b3 9e3c a195 3e3c
000000a0: 0082 053d 1488 a03b d997 bd3c 4a57 2cbd
000000b0: 4d49 15bd 2bda 37bd 5ebf 24bd b9f9 80bd
000000c0: 68d9 d4bd 0375 12be 90cf 6f3d 2bc4 273d
000000d0: 0d4f bf3d bbdb d33c 50e1 60bb 5328 253d
000000e0: 197d 1a3d a6c2 0c3d fdc4 25bc 0dc9 1dbc
000000f0: ceda bb3c 7be2 ff3b 4a19 9ebc 1e7d 7ebd
00000100: 79bb 50bd dd09 c63b 4aae 5abc e8b4 80bd
00000110: 6660 06be b633 e2bd 6de5 09bc 3dee cabc
00000120: 08d8 903c bd50 103d 011d 21bc 9ec4 843c
00000130: 38d1 0abd e2e1 2b3d 7093 e6ba 3d51 973d
00000140: 97db 323d f57e 9639 0edf cbbc 92c2 d23c
00000150: 82c8 113d b977 003e c60c 02bd 8210 c13c
00000160: b38d 403d b5b8 a93d 9c2d 5ebc e859 583d
00000170: d063 523d a8d1 6a3d e698 9f3d f594 82bd
00000180: 7754 a2bd 4c74 f8bc bfaf ddbc 0b8a 8abd
00000190: 9308 e0bc e95b aabd f025 d8bb 75ee f4bd
000001a0: 0faf a3bd 1b9e 293d 8d8d 23bd f5fa d43d
000001b0: 6dd7 69bc 9427 f43d 2a4b 433d bd95 3a3d
000001c0: d03d a33e 5490 21bc 665a 3e3e 6d1c b53d
000001d0: f435 aebc 4141 a83d e850 b83c 2cf1 9bbc
000001e0: a023 bdbd 523a 8ebd 07ac 91bd 94be 17be
000001f0: 9578 dfbd 80b7 da3c b5b6 05bc 0ade 4c3d
00000200: 36d9 043d fc72 82bc d5fe 77bc 7972 f7b9
00000210: 6b86 1d3d 0d3e 79bb 5e25 16bd ad15 36bc
00000220: 622c 913c c1af ad3c 069b 813d 7aa6 483c
00000230: dfbf 913d b786 483d e023 7c3c b8e5 933d
00000240: 718d 03bd db6a afbc a2c4 643d d300 8e3d
00000250: 2070 233c df6c 003e 67bd aabc 60a4 0abb
00000260: 5380 72bc a162 5b3c 8ce9 c33b 6219 3cbd
00000270: b50b 06bd d562 26bd edb1 b7bb bc34 1abd
00000280: 2af0 c3bc da33 cfbc ad27 7ebd c333 7bbd
00000290: bbd8 5bbd be71 b3bb 1d06 963c 48d5 4fbd
000002a0: b4de abbd ed5c 96bd 677d d43b 2771 283c
000002b0: f620 fb3c 0da2 1cbc e989 1dbd e0dc 2abd
000002c0: 84c6 8cbd 18a5 98bc 9320 20bd d550 76bc
000002d0: 4967 ecbc 9437 66bd 7007 f23b 0346 29bd
000002e0: 39d3 6ebc 4248 adbb 7b72 2f3c 894b f93c
000002f0: a555 803c a750 923d 2a83 5a3d 8a95 ec3d
00000300: 6c7e b73d 7857 d13d 7c8a 233e 4b07 e1bc
00000310: 0e61 22bd 2e9d 2dbd 7ac2 8abd 91d7 8abc
00000320: 490e 93bc 1c67 abbc e772 d1bc 3e23 81bd
00000330: 0eca 1dbd db14 3cbd 3058 5dbd d1c6 9bbd
00000340: 9b53 e2bd 5b65 f43c e4e1 3abd d200 adbd
00000350: 045c ecbd 105a d1bc 6bc7 823d adee 6cbd
00000360: 91d5 cbbd 74b1 fbbd 12fe 263d befc 7639
00000370: 699f 98bd 2f14 a3bd 70c3 a0bd 2ed2 d9bc
00000380: a40f 94bd 5014 0b3d 83b4 483d d5a8 9f3d
00000390: 88bf ed3d 748b 283e b3ef 95bd 95ff ffbc
000003a0: 348d 7fbc f8b5 c73c e537 233d dd54 82bd
000003b0: 333d 4fbd 5a8a 90bc 93be 753d 20b5 223b
000003c0: b061 55bd b7ef ef3b c55d d13c f835 cabc
000003d0: 50d5 ecbc f189 abbd 2a6f 7abd 0137 9cbd
000003e0: cb26 b7bd 02d4 9cbc 1490 093e 9ec9 aa3d
000003f0: e6f2 8b3a d593 cc3d 8760 15bd 1dc4 2bbd
-0.039293975 -0.012979199 0.097819164 0.0039026488 0.02901089 -0.033579685 -0.046467975 -0.031767163
-0.0827635 -0.050233338 -0.014355702 -0.041183453 -0.03953142 -0.15451732 -0.082086064 0.044631194
-0.019656876 -0.0407972 -0.11184334 -0.033003673 -0.0025892325 -0.052801814 -0.017361008 -0.07560667
0.009049816 -0.0148220025 -0.010602848 -0.053905953 -0.027426716 -0.05969933 0.067552105 0.07893039
0.14352517 0.14012828 0.1301051 0.09992384 0.11038359 0.029424839 0.019372866 0.011632354
0.03259468 0.0048990343 0.023143696 -0.042075433 -0.03644686 -0.044885796 -0.040221564 -0.06297631
-0.103930295 -0.14302449 0.058547556 0.040958565 0.093412496 0.025861612 -0.0034313984 0.04032166
0.03771696 0.03436532 -0.010117766 -0.009630454 0.022931483 0.007808981 -0.019299168 -0.06213104
-0.050960038 0.0060436563 -0.013347218 -0.06284505 -0.1312271 -0.11045019 -0.008416516 -0.024771804
0.017681137 0.035233248 -0.009833575 0.016207036 -0.033890933 0.041963466 -0.0017591547 0.07388542
0.04366645 0.0002870482 -0.024886634 0.025727544 0.03559161 0.1254567 -0.031750463 0.023567442
0.047010135 0.08287183 -0.013560679 0.052820116 0.05136472 0.05732885 0.07792835 -0.063760675
-0.07926267 -0.030328892 -0.027061341 -0.06764611 -0.027347839 -0.08318312 -0.0065963194 -0.119595446
-0.07992374 0.041410547 -0.039929915 0.10399429 -0.014272553 0.119216114 0.047679104 0.045552958
0.31883097 -0.009861071 0.18589172 0.088433124 -0.021265961 0.08215571 0.022499517 -0.019035898
-0.092353106 -0.069447175 -0.0711289 -0.14818794 -0.10911671 0.026698828 -0.0081612365 0.05001644
0.03243371 -0.01592397 -0.01513644 -0.000471968 0.03845827 -0.003803137 -0.03665673 -0.011113566
0.017721359 0.02120197 0.063283965 0.012246722 0.07116675 0.0489566 0.015389413 0.0722155
-0.03211731 -0.021413257 0.055851586 0.06933751 0.009975463 0.12541531 -0.020842267 -0.0021155104
-0.014801103 0.013390214 0.0059787687 -0.045922644 -0.03272601 -0.040621597 -0.005605927 -0.037647948
-0.02391823 -0.02529328 -0.062049557 -0.06132866 -0.053673487 -0.0054762056 0.018313462 -0.05074051
-0.083920866 -0.07341943 0.0064846757 0.010280884 0.030655365 -0.00956012 -0.0384616 -0.04171455
-0.06873801 -0.01863341 -0.039093565 -0.01503392 -0.028857844 -0.056205347 0.0073861405 -0.041326534
-0.014576727 -0.005288155 0.010708447 0.030431526 0.015665838 0.071442895 0.053347744 0.1155196
0.0895966 0.102217615 0.15970796 -0.027469298 -0.03964334 -0.042386226 -0.06775375 -0.016948493
-0.017951148 -0.02092319 -0.025567485 -0.0630555 -0.038522772 -0.045918327 -0.05403918 -0.076062806
-0.11051103 0.029833486 -0.045625582 -0.08447422 -0.11540988 -0.02555564 0.06385692 -0.057844806
-0.09952844 -0.12289706 0.040769644 0.00023554542 -0.0745228 -0.07962834 -0.07849777 -0.02658948
-0.07229546 0.03395492 0.049000274 0.07795874 0.11608797 0.16459447 -0.073211096 -0.0312498
-0.01559763 0.024378762 0.039848227 -0.06363843 -0.050595473 -0.017644096 0.0599962 0.0024827197
-0.052095115 0.0073222774 0.025557408 -0.024683937 -0.02891031 -0.083759196 -0.06114117 -0.07627679
-0.08942946 -0.019144062 0.13433868 0.08339237 0.0010677248 0.09989134 -0.03646901 -0.041935075

conv2.bias f4 [16]
00000000: 4838 103d 983a 1d3c 7172 08bd 565a 8dbc
00000010: aefc 253d 36bf 86bd fa50 193d b892 2a3c
00000020: 508a a33c d01b 273c ee0e 5a3a 99c8 0bbd
00000030: b8a2 433c 6edc 37bd b204 4cbd 124c 713d
0.035209924 0.009596489 -0.033312265 -0.01725499 0.040524177 -0.06579439 0.03743074 0.010410957
0.019963413 0.010199502 0.0008318265 -0.03412685 0.011940651 -0.044887953 -0.049809165 0.058910437

batch2.weight f4 [16]
00000000: 9943 a73f 6c03 a33f 8025 ae3f 6121 c93f
00000010: ebc4 b73f e9f3 b73f 59a6 aa3f dc9a b13f
00000020: fe7e be3f b96a aa3f 7d1d c23f fb4f 983f
00000030: b502 bf3f a11d b53f 37db c43f fb19 ad3f
1.3067504 1.2735419 1.3605194 1.5713311 1.435697 1.437131 1.3332015 1.3875384
1.4882505 1.3313819 1.5165249 1.1899408 1.4922701 1.4149667 1.5379399 1.3523554

batch2.bias f4 [16]
00000000: 6d30 c1bd 1e4f 1dbe 1406 56be e8d8 94be
00000010: 1d10 b1be f934 4cbe 6356 d3be 1db0 debd
00000020: ea03 89be 19be 1fbe 60dc adbe 8060 8bbd
00000030: 20fb b1be 0fa2 42be 9d72 edbe 9cdd acbe
-0.094330646 -0.15362212 -0.20900756 -0.29071736 -0.34582606 -0.19942082 -0.41276845 -0.10873435
-0.267608 -0.1559986 -0.33957195 -0.06805515 -0.34761906 -0.19007133 -0.46376505 -0.33762825

batch2.running_mean f4 [16]
00000000: 2e11 873e 1a0e 90be 8142 59bd 941c fabe
00000010: 5b38 16be eb9a c7be 7ab7 9b3e 0b0f 19bf
00000020: 0122 d7bf a035 15bf 85fd f0bd 2e62 1d3d
00000030: bacc 96bf 7c47 fb3d 9779 93bf 5921 1c3e
0.26380295 -0.2813576 -0.05304194 -0.48849928 -0.14669935 -0.3898538 0.3041342 -0.5978858
-1.6807252 -0.5828495 -0.11767105 0.03842371 -1.1781228 0.12269494 -1.1521481 0.15247096

batch2.running_var f4 [16]
00000000: 117c 1e3f 4922 e93e deb6 063f 2884 6e3f
00000010: 84d2 093f b62b 4a3f 9a02 383f b7cb 4b3f
00000020: 1427 8b3f 4bcb 2e3f 7801 403f a758 193f
00000030: fc12 4c3f 2725 053f 3592 9d3f afa0 423f
0.6190806 0.4553397 0.52622783 0.93170404 0.53836846 0.7897295 0.7187897 0.7960772
1.0871301 0.6827895 0.7500224 0.599009 0.7971647 0.52009815 1.2310244 0.76026434

fc1.weight f4 [120, 1024]
00000000: f0e4 153c 0639 2e3d 0e2e 1e3c 5736 743c
00000010: e4e8 143d 551a c63c 5d93 ef3c 867e a53c
00000020: 27e0 0c3c 7d28 99bc f9d5 8f3b dde7 883c
00000030: 8001 463b 8e61 563c ccde 89bc 1e27 043b
00000040: 7214 08bd b959 9abc 7195 2dbc 897c cabc
00000050: 5fa0 b73c e65c 453c 47b4 bfbb 0970 003d
00000060: 9abd ffb9 cff6 523c e9af 71b9 c3ea 403d
00000070: b449 0a3d d0dc 283c 9239 923c 201f 513c
00000080: 672a 98bc 4198 b13b a01b d53c 06d3 4d3d
00000090: 2266 0c3d ef06 f13c 1a2d 973c 2c1d 9e3c
000000a0: e4d5 01bc 8441 203d 6027 a73c c5ab 0c3d
000000b0: 2b0d 963c 938a 363c b8b7 043d 8df5 433c
000000c0: eb52 903c 257f ac3c 52fb 283d 650e 1e3c
000000d0: 9486 a33c 2838 88bc ce8f 833c a63c 8039
000000e0: 7770 90bd 0ea5 8abd 8edb 20bd 778a 91bd
000000f0: ca20 4dbd 22bb 15bd da2b 663c 57fd 53bc
00000100: 61c7 bcbc fb09 f13c 60db fe3a bf07 703b
00000110: 1166 fb3c 41d2 543c e2c2 b03c ba4b 973b
00000120: b5a7 1bbc 9ab3 8bbc e967 19bd 3077 c8bc
00000130: 7e5a 52bc 6164 84bc d3ed b93c 5706 9dbc
00000140: 8e56 25bd 0cf2 9dbc a23e 4bbd be11 aebc
00000150: 3056 2dbc 5081 d13c 764a b13c 8e0e 23ba
00000160: 9929 18bd 2b3a 5e3c 1731 ffbc a2df 60bd
00000170: a5b5 6cbc 21bc 8ebc 61e7 d83c b086 ccba
00000180: 3f39 513b e922 0b3d c478 20bc 63a6 c9ba
00000190: 101c a43c 873e f1bc 0549 ca3b f072 343c
000001a0: 328f 743c fca1 2c3d f5bf 793c fdc9 513d
000001b0: 1e8a e53c 069b 6c3c 37ea 35bb 31aa e43b
000001c0: cf2c d33c 33e7 7f3d 5edb 803d 5137 563d
000001d0: bebc 843d a1ac d73c bc71 623d 047d c63c
000001e0: 77e7 fcba e4c9 423c bffa 1c3d a041 6b3d
000001f0: fad6 803d d9cc 733d 74dc 973b 6b16 01bd
00000200: 782c 4c3c 8f67 b9ba 9a3d 00bd 1a56 d03c
00000210: dae7 c53c 21aa f03c 9b80 cc3c 6b10 813c
00000220: d50f 18bc 13d5 783c fb43 c53c e456 54bc
00000230: 1037 adbb 52a3 ea3b 43fb b6bc 9f80 543c
00000240: 212c 0a3c c1d3 5f3d 4496 503c 5358 9e3c
00000250: 2d96 4bbd 2925 1db9 b548 9ebb 2928 8abb
00000260: c057 b13c 006c 863c 07dc 8d3d 9900 52bc
00000270: 5150 9ebc eb40 fcbc 3550 4abd 8246 94bb
00000280: 318e ec3c 8862 c13c 0a61 153d 21c8 89bb
00000290: 722d ecbc cbda a83c 0beb 49bc f0a4 a03c
000002a0: 1449 8ebb b9ee 97bb b91b b6ba 2ec0 8f3c
000002b0: e91f 843b e351 443c c860 7abc bab7 11bb
000002c0: e1e0 ffbc 1b66 02bd 2810 5cbd 0a86 0bbd
000002d0: 0376 92bc 9917 a5bc 8821 20bc d884 813c
000002e0: ec33 60bd ffbe 10bd 9a87 52bd 6691 f1bc
000002f0: 7c34 03bb 636a 72bc b4c1 9cbc 2a8f 21bd
00000300: 4836 ef3b a936 503c 0633 a73b 50a0 273d
00000310: 95cd d93b 0dea 9b3c 96af 323d 7ba3 623c
00000320: 85cf ab3c 45b2 253d 9e12 303b cb40 8fba
00000330: 65e5 09bc 43ed 163c 4875 403c d482 80bc
00000340: b2b9 90bc 7db2 0c3b 3cfa e2bb 62b2 0f3d
00000350: 97e8 d7bb 7a4b 62bc 86d7 cabc a485 173c
00000360: 12f4 06bd e4d8 ce3b c44c 08bc 48de 52bd
00000370: 632f 07bd 498c 01bd 350f c5bc 5664 963b
00000380: e42b d53c 7bbb 8a3c 9738 ef3a c772 97bc
00000390: f26a debc a201 43bc ba1f d13c 15bb 233d
000003a0: 0e20 df3c 283c 9e3c 23fa 40bd 54c8 76bc
000003b0: 55c8 933b cd5c 4dbc f07e ae3c 52ef 993c
000003c0: bad9 523c 0489 8b3c 67b2 b03c 24fb 773b
000003d0: b0bd fd3b 1999 873c 56e4 a43c e2f1 0f3d
000003e0: 7d93 103a ae69 cabc a485 0e3c 0f1b 00bd
000003f0: 2865 f3bb 15e5 eabc fc3f dc3c 353e 383d
0.009148821 0.04253485 0.009654535 0.014905534 0.036354914 0.024182478 0.029245073 0.020201933
0.008598364 -0.018696064 0.004389521 0.016712124 0.0030213296 0.013084782 -0.01682987 0.0020164917
-0.033222623 -0.018841611 -0.010594712 -0.024717586 0.022415338 0.0120460745 -0.005850348 0.031356845
-0.00048778654 0.012876227 -0.00023049083 0.047098886 0.033761695 0.010306552 0.017849717 0.012763768
-0.018574907 0.0054197614 0.02601415 0.050250076 0.03427709 0.029422252 0.018454123 0.01930102
-0.007924531 0.03912498 0.020404518 0.0343435 0.018316826 0.011141437 0.03240177 0.011960399
0.017617663 0.021056721 0.041255303 0.009646987 0.019961633 -0.01662834 0.016059782 0.0002445925
-0.07052701 -0.06769763 -0.039271884 -0.07106488 -0.0500801 -0.036555417 0.014048541 -0.012938819
-0.02304429 0.029423704 0.0019444041 0.003662571 0.030688317 0.012989582 0.021577302 0.0046171816
-0.009500434 -0.017053414 -0.037452612 -0.024470896 -0.012838958 -0.016161146 0.022696411 -0.019168062
-0.040365748 -0.019280456 -0.04962028 -0.021248695 -0.010579631 0.025574356 0.021641951 -0.00062201254
-0.037149046 0.013563673 -0.031151338 -0.054900773 -0.014447604 -0.017423691 0.026477518 -0.0015604105
0.003192499 0.03396884 -0.009794418 -0.001538467 0.020032912 -0.02944876 0.0061732554 0.011013731
0.014926719 0.042146668 0.01524352 0.05121802 0.028019961 0.014441257 -0.002775801 0.006978296
0.025778202 0.062476348 0.06291841 0.052298848 0.06481312 0.026327433 0.055284247 0.024229534
-0.0019295056 0.011888955 0.038325068 0.05743563 0.062910035 0.05952153 0.0046344344 -0.03151552
0.012461774 -0.0014145243 -0.031308748 0.025431681 0.024158407 0.029377999 0.024963668 0.015754899
-0.009281118 0.01518752 0.024080267 -0.012960169 -0.005286105 0.0071605826 -0.022336608 0.012970119
0.008433373 0.054645304 0.012731139 0.019329226 -0.049703766 -0.0001498653 -0.0048304447 -0.0042162132
0.021648288 0.01640892 0.069267325 -0.012817525 -0.019325407 -0.030792674 -0.049392898 -0.0045250067
0.028876396 0.023606554 0.036469497 -0.0042047654 -0.028830264 0.020612141 -0.012324105 0.019609898
-0.0043422077 -0.0046366123 -0.001389376 0.017547693 0.0040321243 0.011982414 -0.0152818635 -0.0022234754
-0.03123516 -0.031835657 -0.053726345 -0.034063376 -0.017878538 -0.020152854 -0.0097736195 0.015810415
-0.054737017 -0.035338398 -0.05139885 -0.029488277 -0.0020020297 -0.014795872 -0.019135334 -0.039443173
0.007300172 0.0127083445 0.005102518 0.04092437 0.0066468217 0.019032503 0.043624483 0.013832922
0.020972976 0.040453214 0.0026866565 -0.0010929344 -0.008416508 0.009211841 0.011746712 -0.015687384
-0.017666671 0.0021468692 -0.006926803 0.03508223 -0.006589006 -0.01381194 -0.024760973 0.009248171
-0.032947607 0.0063124765 -0.008319084 -0.051481515 -0.033004176 -0.031627927 -0.024055103 0.0045895977
0.026021905 0.0169351 0.0018251118 -0.018487347 -0.027150605 -0.011902245 0.025527824 0.039973337
0.027236965 0.019315794 -0.04711355 -0.01506241 0.0045099654 -0.012534332 0.021300763 0.018790875
0.012869293 0.017033108 0.021569444 0.00378389 0.00774356 0.016552495 0.02012841 0.035142787
0.00055151415 -0.024708595 0.008698855 -0.031275805 -0.0074278302 -0.028673688 0.026885979 0.0449812

fc1.bias f4 [120]
00000000: 7398 c6bb 80d2 63bc 642c 833c 8c58 c63c
00000010: 345f 29bd a357 86bc 9379 aabb b192 23bc
00000020: cbf2 d0bc e047 0a3d dd66 443c 0967 fb3c
00000030: 3464 0b3d 2a65 30bc af1c 393b 6a02 31bd
00000040: dd91 01bc e5dc 173d f440 0bba ae24 143c
00000050: 316f e73b 1216 01bd 3c27 533c 90d6 123c
00000060: 2ece 21bc 1f72 653d 0dc5 8cbc 0c41 813d
00000070: 402b d9bc 376c 84bc 9104 513c f21f b6bb
00000080: 5910 b6bc 0b35 813c 854a 583c a830 40bd
00000090: 3f23 603c 7258 acbc b2d4 af3c 0680 2d3c
000000a0: 88e1 8c3d 1823 9dbb 91f8 9ab9 29d5 7b3c
000000b0: dbd1 e039 ac34 eb3c 4d52 363c 8123 1d3d
000000c0: f66f 2c3d ea83 07bd 46d7 c53c 2574 e13c
000000d0: 9b8d 0c3b 1ca9 063d 9d60 c1bc fe4f 183d
000000e0: 8985 ac3a dba4 4ebc 44ba 293c 801a 963c
000000f0: 7d0f f2bc f001 5c3c 549a 87bc 6ae8 73bc
00000100: bb1d 4e3b ce2f a7ba 257d 5ebc 000e 6ebc
00000110: 7d44 693d 035d 713d 3444 0e3d be40 7cbc
00000120: 3d49 103d 303f 4a3b a799 80bb 4bf0 1cbd
00000130: af8b 693d a2dd b0bb 594e 3d3d db1d aa3b
00000140: 8874 96bc 5d86 7fbc 3b27 fabc 8ee3 72bc
00000150: d5aa 95bc be78 13bd f3d9 89bc cefb 1dbc
00000160: fbb5 13bc d4ef 6a3b 93ad f9ba 73cd bc3c
00000170: 8372 8b3b faed acbb bcea 313d 97cf 2a3d
00000180: f35c 5b3a d5f9 d0bc 14d0 48bc ca30 61bb
00000190: 91d8 a73d 8ff5 bdbc 0611 b63c b241 713c
000001a0: ee25 dabc 2f38 cfbc 93e9 18bd 7162 b53c
000001b0: 2ef4 753c 1aa5 acbc af06 273d 1877 813c
000001c0: 4e8c 9d3c eb10 293c 638c 96bb b29b 22bd
000001d0: ef44 8dbd 5569 fe3b 51a5 2dbd 0665 ee3c
-0.006060654 -0.013905168 0.016012378 0.024212144 -0.04135056 -0.01639921 -0.005202481 -0.009983704
-0.025506398 0.03375995 0.011987415 0.03068878 0.034031108 -0.010766307 0.0028245857 -0.043215193
-0.007908312 0.037075896 -0.0005312108 0.009041948 0.0070628156 -0.03151519 0.012887772 0.0089622885
-0.009875817 0.056017037 -0.017183805 0.06311235 -0.026509881 -0.016164882 0.012757436 -0.0055580074
-0.022224592 0.015772363 0.013201361 -0.046921402 0.013680278 -0.021038268 0.021463726 0.010589605
0.06878954 -0.0047954433 -0.00029558365 0.015370646 0.00042880964 0.02871164 0.0111280205 0.038363937
0.04209896 -0.033084787 0.024150502 0.027521202 0.0021446708 0.03287612 -0.02360564 0.03718566
0.0013162355 -0.012612547 0.010359351 0.018323183 -0.029548401 0.013428196 -0.016553082 -0.014886955
0.0031450826 -0.0012755336 -0.0135796415 -0.014529705 0.05695008 0.058926594 0.034733012 -0.015396295
0.035226095 0.0030860417 -0.003924567 -0.0383151 0.05701798 -0.0053975144 0.046217296 0.0051915473
-0.018366113 -0.015596 -0.030536285 -0.014824761 -0.018269936 -0.03600382 -0.01682756 -0.009642554
-0.0090155555 0.0035848515 -0.0019048922 0.023047185 0.004255594 -0.0052773925 0.04343675 0.04170188
0.00083680375 -0.025509754 -0.012256641 -0.0034361356 0.08195604 -0.02318838 0.022224914 0.014725136
-0.026629414 -0.025295345 -0.03733213 0.022141667 0.01501183 -0.02107482 0.04077786 0.015803859
0.019231942 0.010318975 -0.004594372 -0.039699264 -0.06897914 0.0077640214 -0.042393986 0.029100906

fc2.weight f4 [10, 120]
00000000: fcb5 c43e cd60 89bd 3fd0 c5bd 31a4 e3bd
00000010: f17d febd c06b 2b3d 74d1 0dbc a087 1a3d
00000020: 4417 c53c bbf7 33be d15e 173d c3c2 bf3d
00000030: fba6 81bd feea a43d f135 f5bd 6caf 0f3e
00000040: 04d1 b43c 3dfb 4cbe 5af5 ce3d 0e45 2abe
00000050: ec6b 56bd 01dc 8abd 5f7b cbbd 9097 b7bd
00000060: d9b7 9b3d daf8 06be eaf5 2b3e d9c9 93bd
00000070: 201a 41bd a011 f5bd 47fa d33b 7c2f 31be
00000080: 98ba c73d ae82 42be 9c5f 8dbd 6f3e 233e
00000090: 67fe b2bd fe6a ea3d 9b78 0e3e 4fc2 0abe
000000a0: 06a3 34bd 7472 d43d 7cfd 61bd 634d df3c
000000b0: 4488 69be 63de 7fbe 5192 0e3e 2c8f 81be
000000c0: 1fd7 e33c 6958 c13d 2f95 6a3c 1ee3 703d
000000d0: 5ed3 bb3b c7c4 de3d c883 e53d e126 7dbe
000000e0: 3b9d 51bd ca3d d83d 4d1c 883c d597 edbd
000000f0: 5734 123e 3541 4b3d 18bf d2bd 64d5 a33d
00000100: 040f 273c c803 04be 404d b2bd e54d a7bd
00000110: 35bf 06bd 24b5 6cbe bf5f 3abe a7b9 613e
00000120: 15e6 cd3d c4e2 033d 28db 433e 60ac 613d
00000130: e252 98be bcbe 223e 360f f2bc cd5d b7bd
00000140: 6974 343e 1f54 033e 3042 6a3d 8441 74be
00000150: cab9 353d e128 1b3e 6b66 103e 7265 81be
00000160: 5282 e1bc 9cab 58be 65da 3a3d e736 fa3d
00000170: 50ef 1d3e 3dff 73be 8bd4 04be 059c 3dbe
00000180: c78a 39bd 1601 563e 0a2c 773e 3947 b83d
00000190: 24e8 243d 3f62 803d fe01 f53d 8947 e2bc
000001a0: 1732 113e 8c21 4fbd a745 173d fe4a a43d
000001b0: 2fd4 323e f092 c3bd 948f 05bc 3e58 17be
000001c0: f7f2 533e b12b 223e 5102 633e a3c2 113e
000001d0: 7075 213e 493c ff3d 0e97 083d 547e 693e
000001e0: 4873 75bd ca6b 9ebd d2c7 ce3e aa5a 0f3e
000001f0: 4106 c53b 845c 843d eaaf 113d 640a 033e
00000200: 27b4 113e 9f41 dbbc 00b2 c9bd d5ca fdbd
00000210: 243e 5e3d 9207 02be bfbf 7abe fe31 9d3c
00000220: d1fa c7bc 1cc8 5fbd f255 e4bc acfe 893c
00000230: 520d 3e3d 8ba0 43bd 70f3 8cbe e97f 04bc
00000240: 4a64 fa3d 2e00 f3bd a6d7 513e 7102 f9bd
00000250: c4a9 fdbc 5d31 eb3d 9e98 18bd ee66 03be
00000260: 8eb2 cebd 07dd 2ebd 485b 033c b482 50be
00000270: 0429 993d 5d6b b03e e0de e53d f382 b4bc
00000280: 7204 88be 8d44 673c 57e5 5b3c c305 863d
00000290: 5969 c2bd 6405 c63e cc0b 83be 90c2 c9bd
000002a0: 97ea 2f3e e96e aabd 78a6 df3c f477 b7bd
000002b0: d7c3 9bbe 02c7 5fbe ce8b 143e 93a5 1abe
000002c0: 9689 14bd d1e1 033d 9eb9 d13d 2a8b 953d
000002d0: 914c 35be 7213 0abd c045 0c3e 4b78 6d3e
000002e0: 6242 af3d 5b4f 253e 0107 98bd 79bf a63e
000002f0: c8ea 593c ce7d 22be 938a 083e 6719 02be
00000300: f94f a5bd 78be 0c3d 6b98 77be 6d33 03be
00000310: c2ff fb3d f88f 09be 457b abbd 3133 603d
00000320: 3c05 633e d925 b73c e4d6 96bd 18d7 7e3d
00000330: 0de4 96bc 3f9b 49be 98c5 023e 6992 fcbd
00000340: 71d6 0cbe dc9a 78bd 4296 c4bd 11ef cbbd
00000350: 08c3 a3bd 8acd 1dbc 2a9b 9c3e 406b 963d
00000360: 4ace 033d 623e 04be a714 cbbd cba9 523e
00000370: 07d2 8ebe 106f 5ebe fd5d bf3d 3521 433e
00000380: dd7d e43d a2eb 4c3d fcc4 9b3d 0ebd 383e
00000390: d809 353e 4ddf 7bbe d1de 8dbe 135f 063e
000003a0: 611e 31be 6c37 2fbd ce88 053e 0999 4c3e
000003b0: 587d 80bd 6eec 93bd 31c4 febc 78b3 303e
000003c0: c1f4 4a3c 8f7d 83bd ab94 163d cefe d23c
000003d0: 81ba 173e f2e3 b13d 650f 643d 95fc b83d
000003e0: caf3 953d 98ee 593c 3ea1 373e eee3 d5bd
000003f0: 7791 42be d570 95bc 4e2e 463e 768d 31bd
0.38420093 -0.067079164 -0.096588604 -0.111153014 -0.12426365 0.041850805 -0.008655895 0.037727
0.024058945 -0.1757497 0.03695566 0.0936332 -0.06330677 0.08052634 -0.11973179 0.14031762
0.022072323 -0.20017715 0.10105391 -0.16627905 -0.052349016 -0.06780244 -0.099356405 -0.08964455
0.076034255 -0.13180867 0.16793028 -0.07216234 -0.047144055 -0.11966252 0.0064690444 -0.1730327
0.09752387 -0.18995163 -0.06903002 0.15941785 -0.0873993 0.114461884 0.13913195 -0.13550685
-0.044100784 0.10373393 -0.055173382 0.02725858 -0.22805887 -0.24987178 0.13923003 -0.25304544
0.027812539 0.09440691 0.014317795 0.058810346 0.005731984 0.10877376 0.11206776 -0.24721862
-0.051175337 0.1055866 0.016615057 -0.11601225 0.14277779 0.049622733 -0.102903545 0.079996854
0.010196451 -0.12892067 -0.087061405 -0.08169154 -0.032897193 -0.23115975 -0.18200587 0.22043477
0.1005365 0.032198682 0.1912657 0.05509603 -0.29750735 0.15893072 -0.029548269 -0.08953438
0.17622532 0.12825058 0.057192028 -0.23853117 0.044366635 0.15152313 0.1410157 -0.2527271
-0.027527962 -0.21159214 0.045618434 0.12217503 0.15423322 -0.23827834 -0.12971704 -0.18516548
-0.045298364 0.20898852 0.24137893 0.0899796 0.04026045 0.06268739 0.119632706 -0.027622001
0.14179264 -0.050569102 0.03693166 0.08022116 0.17463754 -0.095495105 -0.0081519075 -0.14779755
0.20698152 0.1583698 0.22168852 0.14234404 0.15767455 0.1246267 0.033347182 0.22802097
-0.059924394 -0.07735403 0.40386826 0.1399943 0.0060127084 0.064629585 0.035568155 0.12796932
0.14228879 -0.026764689 -0.09848404 -0.12392203 0.05425848 -0.126982 -0.24487208 0.019188877
-0.02441159 -0.0546342 -0.027873013 0.01684507 0.046399422 -0.047760528 -0.27529478 -0.008087137
0.1222616 -0.11865269 0.2049242 -0.12158669 -0.03096474 0.11484025 -0.037254922 -0.12832233
-0.1009265 -0.042691257 0.008017369 -0.2036236 0.07478526 0.34456912 0.11224151 -0.022035098
-0.26565892 0.014115465 0.013421378 0.06544068 -0.0949275 0.38675988 -0.25594938 -0.09851563
0.17179333 -0.08321936 0.027301058 -0.08958426 -0.3042285 -0.21853259 0.14506456 -0.15102224
-0.036264025 0.032197777 0.10240482 0.07301934 -0.17704989 -0.03370995 0.13698483 0.2319042
0.085575834 0.16143553 -0.07423211 0.32567957 0.013300605 -0.15868303 0.13334112 -0.12705003
-0.08071894 0.034361333 -0.24179237 -0.12812586 0.12304641 -0.13433826 -0.08373121 0.05473632
0.22169966 0.022356914 -0.07365206 0.062216848 -0.01841929 -0.19688128 0.12770689 -0.12332613
-0.13753678 -0.06069456 -0.09598972 -0.09957708 -0.07996184 -0.009631524 0.3058713 0.07344675
0.032179154 -0.12914422 -0.099160485 0.20572583 -0.27894613 -0.21722054 0.09344099 0.19055636
0.11156819 0.050029404 0.07605931 0.18040869 0.17679536 -0.24596901 -0.27709058 0.13122205
-0.17296745 -0.042777464 0.13040468 0.19980253 -0.062739074 -0.0722283 -0.03109941 0.17255962
0.012387455 -0.06420433 0.036762875 0.025756266 0.1481724 0.08686055 0.055678744 0.09032551
0.0732189 0.013301514 0.17932603 -0.10443865 -0.19000803 -0.018242279 0.19353601 -0.0433478

fc2.bias f4 [10]
00000000: 2e48 4cbe e3ed 3bbd 38be d5bd 3391 e43c
00000010: 07cd 613e 1c69 d7bc b726 023e 9d4b c8bd
00000020: eae7 d53d 54d8 c3bc
-0.1994941 -0.045881163 -0.10436672 0.027901268 0.22050868 -0.026295237 0.12710081 -0.09780047
0.10444625 -0.023906864
