models/net/model_epoch_51.pt (torch, 517807 bytes, 16 tensors)

conv1.weight f4 [8, 3, 5, 5]
00000000: 3cdd 8abd 67b7 3ebd e319 b3bd d95b 263e
00000010: 4366 163e 2182 63be f9cf eabd 7169 e53d
00000020: 56f3 263e 0ca4 643d 9179 7ebc a529 013e
00000030: f189 3e3e 8b2d 003e 6f72 583e b819 6e3d
00000040: 327b 813e 8232 463e e15f 733d 5b7d ee3d
00000050: d3d0 9bbd a9d5 e23c a7f4 bebd 852c 1a3d
00000060: f7ca abbb 2fd6 e3bd bba7 e9bd 3acd 9bbd
00000070: 2a59 c33d 6cdf 17bc 9bfd 71bd 3158 0dbe
00000080: 1a26 d73d 387f 833a 055b b3bd 534c cbbc
00000090: 92aa 503d c4b6 0c3d 289f babd 610b 26be
000000a0: 9213 873d 5186 3cbd c75f 44bd 9b0c 80bd
000000b0: 181e f2bd 157f aabb a7c4 243d 5a83 47be
000000c0: 3956 dfbd 111e bfbd f770 c3bd 4156 81bd
000000d0: ed98 1ebd 2a20 043e 2b28 783d 08f7 f73c
000000e0: d45f 023e f105 2d3e 0587 e63d b21b 02be
000000f0: 7362 6f3c aa65 2e3d ffa1 c33d 7587 12be
00000100: 9b6a 02be e921 103e 7ef2 413e 82f2 e5bc
00000110: 6cab 44be 6380 58be 44d2 8d3e 3503 d23d
00000120: 4099 543c af7f 43be 00fe b0bc 64a5 40bd
00000130: b3cc 4dbd 9160 8f3e 89ca 003e 55bc 4fbe
00000140: f886 6a3c 07e5 99be cbe7 7ebd 0266 b33e
00000150: 786d 863d c994 9c3d 1f5f 453e 5677 c8be
00000160: 5991 31be fe96 bc3e f4b6 e0bd b140 bd3d
00000170: b583 6e3e 7e5c 40be c712 a8bd 68db dfbd
00000180: 2c62 bfbd 0ada 733d 207d 763d 2bd3 aabd
00000190: 6ce6 d0bd 3432 0ebc 7943 083e 1e38 9f3d
000001a0: dec6 e23c 7dd7 69bc ba1e a5be e76f 9cbe
000001b0: b270 663e 60c8 d33d 2735 a13e aa33 8d3e
000001c0: 24c8 9cbe 0df3 acbe be17 8b3e 1cd2 a7bd
000001d0: 94ca 903e e8bc 013e 2ea2 abbe 46b1 d2bd
000001e0: 9848 5c3c 2d46 05be caae 223e 00b9 03bc
000001f0: 37bf eebd bec2 92bd 7d15 8cbd 71a7 ec3c
00000200: ded4 2c3e ea44 05be 1660 d53d b5a0 36be
00000210: 4645 a4be b349 a93e a7a6 3bbb 6b77 f43d
00000220: fec8 173e e9e8 eabe a3d9 84be 3ec2 513e
00000230: 77d4 eb3c 44cb 423e 8f56 903e f623 e8be
00000240: 1237 0dbe f8b3 6c3d 8ee5 283d 33bb 983e
00000250: 633c 523e 7197 d2bd f9c9 cfba 471a 80be
00000260: 9961 613e fb3f 83bc 1243 b33d 1494 a1be
00000270: 4a4a aa3e 64d1 853e cdcf 5fbe c91c fdbd
00000280: 385a 183e 3c37 8f3e a089 27bf 0b08 c6bd
00000290: a6f4 6d3e dcdc 943c 7a80 d3be e94c 403d
000002a0: 5293 153f 7774 6ebe b4b4 b93b 8a47 bb3c
000002b0: b281 913e d4a2 b4bd 1ab1 55be 7314 4e3e
000002c0: a321 1cbe 0e12 373e e730 1c3d 6779 d6bd
000002d0: 33b7 183c fde8 e03e 78b4 2e3e 4e0a c2be
000002e0: 2951 483d 21de 963e b1f4 d23e 847e 33bf
000002f0: e31e 50bd 97e2 9a3e c608 2e3d f578 c1be
00000300: f974 8cbd b68d 073f 6dd3 29be 9b29 07be
00000310: f51f 05be 55c4 953b 1630 69be 756d 28be
00000320: b503 8fbd 3c05 b1be 4985 f23c 4e9f 09be
00000330: 36fc e4bc 1060 8dbe 0c9e 523e d246 173e
00000340: acd7 51be e563 3d3e 73f5 8ebd 354b 803e
00000350: a68c 2ebf 83d9 80bb be1d 863e 0526 d9bc
00000360: dfa3 b7be 52dd 44bd 1d9e 153f 491b 89bd
00000370: dfec 313c d6f4 4d3e 5bec 983e aead 823d
00000380: 253e e13c 27c2 f33d 6df5 833e 6607 a03d
00000390: e6a0 d2bd 24db 0e3d 3bd6 9b3d 53df 4c3e
000003a0: 6b4b 5ebd 7808 33be 8817 84bd 8185 643e
000003b0: c428 433e 0362 8cbe 77ce a6be 275e 0abe
000003c0: 5f52 813e f7ab 34bd 98a8 dbbd 66ba f3bd
000003d0: 4987 2b3e 8efd 053c ce46 55be e98a b53c
000003e0: 3000 1dbe f684 f43b 511f c4bd f127 7abe
000003f0: f399 12be a138 29be f14d 1bbe 3bec a2bd
-0.06780478 -0.046561625 -0.08745172 0.16245975 0.14687447 -0.22217609 -0.11465449 0.11201752
0.16303763 0.05582051 -0.015531913 0.12613542 0.18607308 0.12517373 0.21137403 0.058129996
0.25289303 0.19355205 0.05941761 0.116450034 -0.076081894 0.027689772 -0.093240075 0.037640113
-0.005242701 -0.11124837 -0.11408945 -0.07607503 0.09538491 -0.0092695765 -0.059079748 -0.13803174
0.10505314 0.0010032421 -0.08757595 -0.024816668 0.05094392 0.034353986 -0.09112388 -0.16215278
0.065955296 -0.04602653 -0.047942903 -0.06252404 -0.11822146 -0.0052031376 0.040226605 -0.194837
-0.109051175 -0.093319066 -0.09543031 -0.0631528 -0.03872006 0.12902895 0.060585182 0.03026916
0.12731868 0.16896798 0.11256222 -0.12705877 0.0146108745 0.042577423 0.09552383 -0.14309485
-0.1273598 0.14075436 0.1894016 -0.028069738 -0.19206017 -0.21142726 0.27699482 0.10254518
0.012975991 -0.19091676 -0.021605492 -0.04703273 -0.050244045 0.28003362 0.12577261 -0.20286687
0.014314406 -0.30057546 -0.062232774 0.35038763 0.06563848 0.07645566 0.19274567 -0.39153546
-0.17340602 0.36833948 -0.109723955 0.092408545 0.2329243 -0.18785283 -0.082067065 -0.1093052
-0.09344897 0.05953411 0.060177922 -0.08341058 -0.102001995 -0.008678962 0.13306989 0.077743754
0.027682718 -0.014272568 -0.32250005 -0.30554125 0.22503927 0.10340953 0.31485865 0.2757848
-0.30621445 -0.33779183 0.2716655 -0.08194372 0.28279555 0.12669718 -0.3352217 -0.102877185
0.013445042 -0.13015051 0.15886989 -0.008039713 -0.11657565 -0.071660504 -0.06840036 0.028888436
0.16878077 -0.1301457 0.104187176 -0.17834742 -0.320841 0.3306404 -0.0028633268 0.1193684
0.14822766 -0.4588082 -0.25947294 0.20484254 0.028787835 0.19022852 0.2819104 -0.45339936
-0.13790539 0.05778882 0.041234545 0.29830322 0.20530848 -0.102827914 -0.0015853039 -0.25020048
0.22009887 -0.01602172 0.08753027 -0.31558287 0.33259803 0.26136315 -0.21856613 -0.12359006
0.14878166 0.27971828 -0.65444374 -0.09669503 0.23237857 0.01817172 -0.41308957 0.046948347
0.5842792 -0.23286615 0.0056672934 0.02286126 0.28419262 -0.088201195 -0.2086834 0.20124988
-0.15247206 0.17877981 0.038132574 -0.104723744 0.009321022 0.43927756 0.17061031 -0.37898487
0.048905525 0.29466346 0.4120231 -0.7011492 -0.050810706 0.30251 0.042488836 -0.37787595
-0.06858248 0.5295061 -0.16584559 -0.13199465 -0.13000472 0.0045705237 -0.2277225 -0.16448005
-0.06983129 -0.34574306 0.029604571 -0.13439676 -0.027952295 -0.27612352 0.20568103 0.1477311
-0.20492429 0.18495138 -0.069804095 0.25057378 -0.6818336 -0.0039321794 0.26194566 -0.026507387
-0.3586721 -0.04806263 0.58444387 -0.06694657 0.010859697 0.20112929 0.29867825 0.06380783
0.027495453 0.11902266 0.25773183 0.07813911 -0.10284595 0.034876958 0.076092206 0.20007066
-0.054271143 -0.174837 -0.06449801 0.22316553 0.1905852 -0.27418527 -0.32579395 -0.13512479
0.25258157 -0.04410931 -0.10725516 -0.11900787 0.16750826 0.008178128 -0.20827791 0.022160964
-0.15332103 0.0074621392 -0.09576286 -0.24429299 -0.1431654 -0.16525508 -0.15166451 -0.07955214

conv1.bias f4 [8]
00000000: 92e8 7ebd 6c29 773d 55d0 dfbd 50f1 36bd
00000010: fc48 b8bc 82f3 c8bd 6760 96bd b764 9abc
-0.062233515 0.060342237 -0.10928408 -0.044663727 -0.02249574 -0.098120704 -0.07342606 -0.018846853

batch1.weight f4 [8]
00000000: 27d4 3f3f 937e 6a3f 99d5 4e3f acdc 7e3f
00000010: b353 973f bd56 723f 05c9 833f f31f 893f
0.74933094 0.91599387 0.80794674 0.9955547 1.1822418 0.946636 1.0295721 1.0712875

batch1.bias f4 [8]
00000000: a669 88bd 4824 abbe f5a9 4abe 8ee3 d2be
00000010: db8f 87be de0b 27be 7d78 b0be 574a b0be
-0.06660776 -0.33426118 -0.19791396 -0.41189235 -0.2647694 -0.1631312 -0.34466925 -0.34431717

batch1.running_mean f4 [8]
00000000: 0c67 213e b449 09bc a863 2ebe c735 a4be
00000010: b2e9 ccbd bdf5 10be 4f4d d5bd 0cc0 92bd
0.15761966 -0.008379389 -0.17030203 -0.3207228 -0.10005511 -0.14156242 -0.10415136 -0.07165536

batch1.running_var f4 [8]
00000000: 5a5d 533d 0e7b 373d 6d4a 193d 91e7 633d
00000010: d736 233e dc43 043e bc5a b13d 4406 993d
0.0516027 0.04479509 0.037424494 0.05564076 0.15938888 0.12916511 0.08659884 0.07471898

conv2.weight f4 [16, 8, 5, 5]
00000000: 8f61 f63d 1613 e13d 78ad 8d3d 17c1 cb3c
00000010: 62aa 813d d01a b73c d86b b13c a601 a5bc
00000020: 7ace 6fbc 34c1 a63b edc3 10bd d2ab 93bc
00000030: 52d0 b0bd c6bf 87bd 558a 67bd 437d eebc
00000040: ce87 46bd 9df9 cdbd 8ca6 b7bd 609c eebb
00000050: 7000 b1bd b75a b6bd 5cc2 88bd 4322 aebd
00000060: 5884 b4bc 83f5 76bd 404d 82bd efe7 81bd
00000070: 802d 40bd c3cd 2ebd 9246 8cbd 01c4 c9bc
00000080: 537f c63c 78e2 9d3c b6fb 1f3b 6d98 b1bd
00000090: 91de 1cbd 1e26 863d 8c67 973d a356 bf3c
000000a0: 2a7e 80bd 5e38 09bd 0940 223e 8d07 793d
000000b0: f2c9 6e3c a2cc 2dbc d6c3 80bc 045e 8e3d
000000c0: a8e9 71bd f0bc 4fbd bd8d 913d f695 073c
000000d0: 5fca c83b a974 68bd 8c96 82bd 8b12 b53d
000000e0: db7f c93d f2bd 0bbc 8f5a 20bc 8e96 32bd
000000f0: e89b b13c 021d cc3d eea6 a13d 77a0 0a3d
00000100: 27ec 3f3d 7c6d 22bd 2244 83bb df9e 043d
00000110: 5155 ab3c bcff ed3c 60db ebbd 1c0d 90bd
00000120: d682 773c 9af2 0d3d 8e50 19bc 75bd 21bd
00000130: c0cc 8bb7 764e ac3c 42c6 01be 720e 09be
00000140: 954c 593d 2f48 163e bd59 2c3e 717f 5c3d
00000150: e570 a4bd f212 a8bc eb6b 3f3e ce47 233e
00000160: d32f 033c 2d79 c83d 2ea1 95bd d213 c13e
00000170: c7ac 1a3d 1742 363d fbea fbbb 5f22 ccbd
00000180: a3a0 993c 1867 0fbd bb45 cf3d 16fa 9ebb
00000190: 8ddd b0bc 9ea9 03bd 5ee0 9fbd 444c 833b
000001a0: a0c6 893d 73e8 10bd 1ed8 9d3b f27b 7abd
000001b0: b9f6 ff3a cacd 56bc 6a6b 653c 2502 90bc
000001c0: 06da 263b 9d7d cc3d ef5d 733d eb68 073e
000001d0: 7421 113b 5169 a23d 9813 543d 3388 09bd
000001e0: a258 6fbb 0cc3 803d c2d8 e03d 5a3c 9bbd
000001f0: 34c0 23bd dc20 3c3d 6138 423c 3486 353a
00000200: bc42 95bd 7eeb 16bd b363 80ba 09ee c23c
00000210: ed04 4abd fa1c 4abd 818c 88b9 cd7a c7bc
00000220: 6cce 17bc 3ba3 81bd 64b7 8dbd d549 93bd
00000230: 6a76 6abd a697 903a ea03 99bd f520 abbd
00000240: bb87 60bd ab73 25bd 8eab 853d cf41 c9bd
00000250: a91f 95bd cb9b 99bc b4cb 43bd 98c0 d7bc
00000260: 0f77 723c 13f4 f13d a2e1 433e f4ce 85bd
00000270: b1b7 5dbd b10d 00bc 7e88 f83c 6446 d23c
00000280: 5df1 73bd 3a97 b43c e8e6 75bc b7d6 4fbd
00000290: 93dc 1bbd 0112 2d3c 5fbe 553d 127d 6abc
000002a0: 3d82 17bd ae27 ba3c 6345 08bd 14d7 363c
000002b0: 31bc 8c3c 2632 0dbd 7df1 4d3a b7b8 8d3d
000002c0: 360f 48bd 4bf1 393d f2bf 4e3d e735 56bc
000002d0: 24d2 113d e1a4 42bd 9ecc b03c 1dd6 d5bc
000002e0: fc33 16bd b5e8 8abd 2767 b8bd 7371 11bd
000002f0: 907e 2abc a89a 17bc 92e0 e5bc 8006 26bd
00000300: db14 a83b f11f eebb 7e38 70bd 6941 97bb
00000310: 7310 e4bd 0d66 2dbd eaf1 96bb e137 aa3c
00000320: aa29 80bd d579 a9bd e276 a6bd 7fc6 85bd
00000330: b318 f0bd 7b25 783b a286 39bd dcd5 6fbb
00000340: c03d 37bd 818b 91bd 1b91 503d 5f4a 953c
00000350: f616 463d a4f5 3d3c 82ea 47bd e89a 523d
00000360: 3d3b 043d 78a8 fa3d 20e0 843d a07f 563d
00000370: 80c9 513d 87df 0a3d 8c0d 843d c419 2bbd
00000380: e140 88bc f1f6 76bd 3ece 0f3d 0c92 8b3c
00000390: 0504 0bbd 9382 f3bc 5266 99ba 5010 3dbd
000003a0: 91c4 76bc 1f15 94bc 480f 8bbd cc5c 0ebc
000003b0: 0d1c 7bbd 7544 07bd eea6 febc 78c4 62bd
000003c0: 73c0 46bc eba6 c3bc e01f 923c 1312 0b3d
000003d0: 2a48 efbc 591b 453c 4a87 143d c9ff ee3d
000003e0: fcf0 823d 15bc 9cba bab7 36bb 0a3e 08bd
000003f0: 16c5 493d a398 94bd 0d08 b33d 99f2 4bbc
0.120303266 0.109899685 0.06917852 0.024872346 0.06331326 0.022351652 0.02165787 -0.020142388
-0.01463663 0.0050889496 -0.0353431 -0.018026266 -0.08633484 -0.06628375 -0.056528408 -0.029112464
-0.048469357 -0.100573756 -0.08967313 -0.007281825 -0.086426616 -0.08904021 -0.06677696 -0.08502629
-0.022035763 -0.060292732 -0.063623905 -0.06343066 -0.046918392 -0.0426767 -0.06849398 -0.024629595
0.024230635 0.019273028 0.0024411506 -0.08671651 -0.038298193 0.06550239 0.07392797 0.023356741
-0.06274064 -0.03350102 0.1584474 0.060798217 0.014574515 -0.01060787 -0.015718382 0.06951526
-0.059060723 -0.050717294 0.071071126 0.0082755 0.00612764 -0.05675188 -0.06376371 0.088414274
0.098388396 -0.008529173 -0.009787216 -0.04360061 0.021680787 0.0996647 0.078931674 0.033844437
0.04685607 -0.039655194 -0.004005925 0.032378074 0.020914705 0.029052608 -0.11516452 -0.070337504
0.015106877 0.03465519 -0.009357585 -0.03948732 -1.6665435e-05 0.021033507 -0.12673286 -0.13384417
0.05305155 0.14675973 0.16831107 0.053832475 -0.080293454 -0.020516846 0.18693511 0.1594536
0.008007008 0.097887374 -0.07306133 0.37710434 0.03776243 0.044496622 -0.007687924 -0.09967493
0.018753355 -0.035010427 0.10120722 -0.00485159 -0.021590019 -0.03214418 -0.078064665 0.0040068943
0.06727338 -0.03537793 0.004817023 -0.06115336 0.0019528485 -0.013110587 0.01400266 -0.017579148
0.0025459542 0.09984896 0.059415754 0.13223617 0.0022145184 0.07930244 0.0517765 -0.033577155
-0.0036521335 0.06287202 0.10978843 -0.075798705 -0.03997822 0.045929775 0.011854262 0.00069246
-0.07288119 -0.036845677 -0.0009795338 0.023795145 -0.049321104 -0.04934404 -0.00026044625 -0.024350548
-0.009265523 -0.06329962 -0.069197446 -0.07191817 -0.057241835 0.0011031523 -0.0747145 -0.083558954
-0.054816943 -0.040393513 0.06526862 -0.09827005 -0.07281429 -0.018751046 -0.04780169 -0.026336953
0.014798894 0.118141316 0.19129041 -0.06533614 -0.05413026 -0.007815764 0.030338522 0.02566833
-0.059556354 0.022044767 -0.015008666 -0.050741877 -0.038052153 0.0105633745 0.052183505 -0.014312046
-0.03698944 0.022723999 -0.033269297 0.011159677 0.01717958 -0.034471653 0.0007856114 0.06919997
-0.04884263 0.04539613 0.050476022 -0.013074375 0.035600796 -0.047520522 0.021581944 -0.026103074
-0.03667067 -0.067826666 -0.0900405 -0.035508584 -0.010406151 -0.0092531815 -0.028061185 -0.040533543
0.0051294393 -0.0072669913 -0.058647625 -0.004615952 -0.1113595 -0.04233365 -0.004606475 0.020778598
-0.06257947 -0.08275191 -0.08128144 -0.06532001 -0.11723461 0.0037864137 -0.04529441 -0.0036595976
-0.044736624 -0.071066864 0.050919633 0.01822394 0.04836174 0.01159421 -0.04880763 0.05141726
0.032283057 0.12239164 0.06488061 0.052367806 0.051217556 0.03390458 0.06447896 -0.04177262
-0.0166325 -0.060294095 0.035108797 0.017037414 -0.03393938 -0.029725349 -0.0011703467 -0.046158135
-0.0150615135 -0.018076478 -0.06790024 -0.008689117 -0.06130605 -0.03302427 -0.031085458 -0.05536315
-0.012130844 -0.023883304 0.017837465 0.033952784 -0.029209215 0.012030446 0.036261834 0.11669881
0.0639362 -0.0011957908 -0.0027880506 -0.03326229 0.04926022 -0.07255676 0.0874177 -0.0124479765

conv2.bias f4 [16]
00000000: 6640 6c3d 30bc 3b3d e010 423d ea3a 5e3d
00000010: 0f14 07bd 0486 21bd 32ee 31bd dc21 bf3c
00000020: 2053 e13c 9866 703c 95d1 5ebd 52d4 cd3b
00000030: a5b0 19bd 00d2 63bc 9c59 33bc 9e59 663b
0.057678603 0.045833766 0.047379375 0.054255404 -0.032978114 -0.039434448 -0.04344005 0.023331575
0.027505457 0.014672898 -0.05439909 0.006281414 -0.037521977 -0.013905048 -0.0109466575 0.003514863

batch2.weight f4 [16]
00000000: 81f7 cf3f 7259 c43f 84cf ed3f caf0 d63f
00000010: a17c cf3f dfd4 e33f 8183 cd3f f27e f23f
00000020: d893 e83f 3a8c e03f e050 da3f ebd8 d03f
00000030: 5778 d73f 0248 e93f fd83 cc3f a73d d33f
1.6247407 1.5339797 1.8578954 1.6792233 1.6209909 1.7799338 1.6055757 1.8944991
1.8170118 1.7542794 1.7055931 1.6316198 1.68336 1.82251 1.597778 1.650319

batch2.bias f4 [16]
00000000: 8c9a 15be aa0f 8bbe 2da3 17bf 6847 b9be
00000010: 19c8 92be 17e8 7fbe e29e 72be ae91 03bf
00000020: 1b44 cfbe faa2 f5be 6aba 9fbe 67a5 eabe
00000030: 1838 52be 7c9f edbe 408b 72be 0723 8ebe
-0.14609736 -0.27160388 -0.5923336 -0.3618729 -0.28668287 -0.24990879 -0.23693421 -0.51394165
-0.40481648 -0.47975904 -0.3119691 -0.45829317 -0.2052921 -0.4641074 -0.23685932 -0.277611

batch2.running_mean f4 [16]
00000000: d6b8 01bc cebe 86bd 870a 16be f44c 99be
00000010: 02c4 cfbe 3dcd c2be 4cb1 22bf e2ac b6bd
00000020: 5d2d 3fbf a768 9abd 6aa5 b2be 418e 453e
00000030: e229 673d da11 20bf db28 d8be 8ca2 eebc
-0.0079176035 -0.06579362 -0.14652453 -0.29941523 -0.4057923 -0.3804721 -0.63551784 -0.089196935
-0.74678594 -0.07539492 -0.34891826 0.19292547 0.056436427 -0.6252724 -0.4221867 -0.029130243

batch2.running_var f4 [16]
00000000: 09f3 d13e 689d f03e 4e1c 2c3f c499 143f
00000010: c7b3 003f abe8 0e3f c74a 0d3f fa9e 433f
00000020: 0409 883f a02a 003f 6be6 f63e b4c4 f13e
00000030: fc54 1a3f bc14 533f 471a 003f 1218 0d3f
0.41005734 0.4699509 0.6723069 0.5804713 0.5027432 0.55823773 0.55192226 0.76414454
1.0627751 0.5006504 0.4822267 0.47220385 0.60285926 0.82453513 0.50040096 0.55114853

fc1.weight f4 [120, 1024]
00000000: 37d0 523d 5821 dd3c ecac 133c 3c5f cd3c
00000010: 0dc5 873d 19f0 163d 907f a53a bfd8 e53a
00000020: cf5c c43d 2374 cf3c 7527 223c 9baa 55bd
00000030: c891 a83b 690a 833c 09f1 4b3c f876 c8ba
00000040: d987 373d f3da 813b f480 803c 4b8c 7cbb
00000050: 96f8 873c 7d92 9e3b 8b72 61bb 47d9 593a
00000060: 8858 7e3b a1ae 21bd e3a3 05bc 55e2 57bc
00000070: 0441 f3bc 6235 803a a3b2 8abc c4aa 1b3d
00000080: 7bd4 563c 69f7 82bd 2881 d3ba 1572 36bd
00000090: 3abc 9ebd 7ef7 0cbd c536 7fbb 7d32 5b3d
000000a0: 2916 04bd 2e93 59bd 1e7a a6bd f91f 633b
000000b0: 238c a7bd 8d7b 4bbd 443d fdbc e13a 153c
000000c0: c5b4 c2bc 33e1 47bc f964 a2bd 611e cdbc
000000d0: dddf e4bc b50b da3c 4709 1ebc bf7a d7bc
000000e0: 0d2f c53c 397d 6bbd da9b 51bd 45dc e1bc
000000f0: ab66 4cbc ea74 15bb 778d a7bc c286 7d3c
00000100: 62f1 c23c 3e38 3a3c c716 81bc b0c8 80bd
00000110: c97e 0d3c 1084 7e3c d2ca b63c c8eb 9fbc
00000120: 3522 c03b 4553 2f3d c9a5 2fbc d55e 08bd
00000130: 78a7 7e3c 7edd a3bc 3255 2d3d d012 20bd
00000140: a83c 9cbc d28f d7bb 094f 833a 1e34 b13c
00000150: b205 393c 36c1 213d af15 383d 0d42 b5bb
00000160: 9ac0 eb3c 5156 213c 6328 213d a04d 823b
00000170: cc56 303c 4fa3 63bb 65ca cc3c 5779 04bc
00000180: 0ac2 0f3c 2628 fc3b 05d9 4b3d 9fe1 be3c
00000190: e07b 473d 6ff5 673b 2a34 aa3c ce9d 29bc
000001a0: 1baf b43c 87b5 35bc 3efe fc3c 03c4 a93d
000001b0: 0cdc 9b3c 8c7c 233d 1b56 d73c 5454 8b3c
000001c0: a2a6 c63c a80c 033d b5d6 2c3d 05b3 41bc
000001d0: 5cfa 183d 966d 3e3d 6c41 243c c1d4 7ebd
000001e0: 70ff 0b3d 2707 ee3a 2c5c f5bb 10e2 21bc
000001f0: 48a9 b7bc cb5f ffbc ace6 f1bb 2295 adbc
00000200: 5d11 6c3c 111b 38bd 5c6e a03d e0aa 06bc
00000210: 8363 783c 6ad1 093d 9d17 07bd edd7 093c
00000220: 6483 88bc d70a 32bc 610b 46bc 3397 0a3b
00000230: 9194 193d 2d03 a73c d713 0cbc 4b0e 8e3b
00000240: b394 a03b f119 43bb 7083 c33c 3c7f 403b
00000250: 3a87 863b 8db9 0fbd 8350 46bd 6198 2f3c
00000260: d2fd 363d e70e 5f3c 3da2 873a ec0b c93c
00000270: bcd5 bdbc e13e 923c f674 a63c 6fc0 98ba
00000280: 0bf8 093d e6ff c03c 37e3 2e3d 2b4c 4bbd
00000290: 02ec 37bc 2742 24bb 6445 07bd 9f1e 99bc
000002a0: 61df 013d 9df5 b9bc 05f8 903c d0ab aa3c
000002b0: bf44 af3c 40ca 16bc 898f e9bd 0ed1 bbbc
000002c0: 51d1 563d 934d 083d 2b99 7cbc 3be4 76bc
000002d0: 9e47 74bb f9c7 00b9 36dc d7bc 1c85 4cbc
000002e0: ae9c 913c 505a 42bd 5377 8cbc 2a9d 083c
000002f0: 743c 18bd b711 33bd 4916 e3bc ee93 32bc
00000300: eaaf 4a3b 4afa 5dbd fbe8 b9bb 3d1e cbbc
00000310: 4b42 a3ba ef84 30bc 5c2d 2ebd f1f8 e43c
00000320: 58a5 1abd a01f 093c 282a 5bb9 0222 76bd
00000330: 4983 f6bc b8e1 18bd 9e5e 35bd 13b7 6dbc
00000340: 2f52 633c a46a 1fbd f7d9 ae3c b302 d2bc
00000350: ea29 da3c ac87 36bc 2251 ee3c f7f3 1fbd
00000360: ca43 913c c995 443d dc0c 34bb ab50 22bd
00000370: 7335 5d3d a5c1 673c 972a 533b 3774 1bbc
00000380: cae2 1bbd f765 d43c efff 833c 6b7f 3b3c
00000390: 75fe 113d e6c6 323d f1d8 2d3a d2d2 053d
000003a0: f503 0cbd 98cf a03c 7b6a c83c 303f 8a3c
000003b0: 0a91 093d 730e 3c3d daed 943b ff3d 01bc
000003c0: f361 76bc 5763 40bd 60ab 9c3c 0a25 a53c
000003d0: b36e 253d 5dd6 66ba d704 f7bb c716 9d3c
000003e0: c258 dfbc f2e1 b4ba 3041 163d f67d b53c
000003f0: 6c46 6f3c bb00 00bd 09cd 613c b63f 643b
0.0514681 0.026993439 0.009013396 0.025069825 0.06629381 0.03685007 0.0012626518 0.0017535909
0.09588014 0.025323933 0.009897103 -0.052164655 0.0051443316 0.015996175 0.012447604 -0.0015294245
0.04480729 0.0039628684 0.01568649 -0.003853577 0.016598027 0.00483924 -0.0034400548 0.000831027
0.0038810093 -0.03947318 -0.008156749 -0.01317652 -0.029694088 0.0009781534 -0.016930884 0.03800465
0.013112183 -0.06394846 -0.0016136514 -0.04454239 -0.07750745 -0.034415714 -0.0038942557 0.053514946
-0.032247696 -0.053118877 -0.08128761 0.0034656508 -0.08181026 -0.049678374 -0.030913003 0.009108276
-0.023767838 -0.012199688 -0.07929415 -0.0250389 -0.027938778 0.02661691 -0.009645767 -0.026303647
0.024070287 -0.05749247 -0.051174022 -0.027570853 -0.01247565 -0.0022805282 -0.020453198 0.015474023
0.02379674 0.011365948 -0.015757931 -0.06288278 0.008636185 0.015534416 0.02231351 -0.019521609
0.005863453 0.04280402 -0.010720679 -0.033293564 0.015542857 -0.020003077 0.042317577 -0.03908044
-0.019071892 -0.006578424 0.0010018061 0.021631297 0.011292862 0.0394909 0.044942554 -0.0055315555
0.028778363 0.00984724 0.039345156 0.003976539 0.0107628815 -0.003473479 0.024998853 -0.00808557
0.00877429 0.0076952158 0.049767513 0.023300944 0.04870212 0.0035394093 0.020776827 -0.010352565
0.022056153 -0.011090643 0.03088295 0.082893394 0.019025825 0.0399137 0.026286175 0.017007984
0.024249379 0.03199449 0.042196948 -0.011822467 0.037348136 0.046491228 0.010025363 -0.062214617
0.03417915 0.001816009 -0.0074877944 -0.009880558 -0.022419587 -0.031173607 -0.0073822346 -0.021189276
0.014408437 -0.044947688 0.078335494 -0.008219451 0.015160444 0.03364698 -0.032981504 0.008413297
-0.016664214 -0.010866842 -0.012087674 0.002114725 0.0374952 0.020387257 -0.008549652 0.0043352
0.004900539 -0.00297701 0.023866385 0.0029372713 0.0041054757 -0.035089064 -0.048416626 0.010717482
0.044675656 0.013614393 0.0010348033 0.024541818 -0.023173206 0.017852249 0.020319443 -0.0011654029
0.033683818 0.023559522 0.042697158 -0.049633186 -0.011225702 -0.0025063844 -0.03302516 -0.01869136
0.03170717 -0.022700125 0.01769639 0.02083388 0.021395085 -0.009203494 -0.1140433 -0.022926833
0.052445713 0.033277106 -0.015417377 -0.015069063 -0.0037274132 -0.00012281527 -0.026350122 -0.012482908
0.017774906 -0.04744941 -0.017146742 0.008338252 -0.037167028 -0.043718066 -0.027720587 -0.010899527
0.0030927607 -0.054193772 -0.0056735254 -0.024794692 -0.001245567 -0.010773881 -0.042523727 0.027950736
-0.03775534 0.008369356 -0.00020901172 -0.060091026 -0.030091899 -0.037324637 -0.044279687 -0.01450898
0.013874575 -0.03892006 0.021344168 -0.025636053 0.026631314 -0.011140745 0.029091422 -0.039051022
0.01773252 0.04799441 -0.0027473485 -0.039627712 0.05400605 0.01414529 0.003222143 -0.009488157
-0.03805808 0.025927527 0.01611325 0.011443953 0.03564306 0.043646716 0.0006631753 0.032671757
-0.03418346 0.019630238 0.024464836 0.016875833 0.033585586 0.045912217 0.0045449557 -0.007888316
-0.015038001 -0.046969738 0.019124687 0.020159263 0.040388774 -0.00088057463 -0.0075384188 0.0191759
-0.027264003 -0.0013800247 0.03668326 0.02215479 0.014604192 -0.031250697 0.013781794 0.0034828014

fc1.bias f4 [120]
00000000: 2d64 f93b 1325 2e3d 8d50 7f3c ea46 dc3c
00000010: b262 0b3d 813a 1c3d 9520 c6bc f49d f23c
00000020: 953c cb3c f534 cabc d059 8a3c 10d4 c03b
00000030: e3e3 48ba bad4 943c 3ae9 dfbc e08c 93ba
00000040: 3d2d c1bc 7c78 10bd 05f2 783c 3f45 e2bc
00000050: e44e 9cbc b09d c3bc ab50 e63b 6461 713c
00000060: cb97 d1bb a80b a3ba 0889 ca3c d6a4 683d
00000070: 2871 d23c 2574 013c 211e b43c e334 743b
00000080: 4fb7 ba3c fdf0 f23c 64cb cb3c f7b1 a13c
00000090: f163 043d dce1 f8bc eb9b 123d 5e37 663c
000000a0: 7c85 323d 1f26 123d 50fc 57bb 3c9c 863d
000000b0: 09c4 a7bc 9ea1 60bd 95ce ba3b 5ea0 a6bc
000000c0: 8326 5ebc bd76 d5bb 2aba 5d3b dfd7 ff3c
000000d0: 4abb 40bc 2ea4 b9bc 2750 c039 5137 aeb9
000000e0: 2e33 9abc 50be 5dbd 992f 5abd bed8 5b3b
000000f0: aff6 7a3c a7a8 073d ba35 1f3b f527 073b
00000100: 2ab8 0e3d 4754 543c 0e91 273d de1c 883b
00000110: 0eeb 21bd 2b8e 5abc 1f48 963c 044d e93c
00000120: b8ff ce3c 0535 e33b c645 e7bb 75e5 a1bc
00000130: fce5 e63c b03d c73c 0c83 ffba fc29 19bc
00000140: ed37 2a3d 0f32 ca3c c7f5 f7bc cb67 1b3d
00000150: e723 43bc 9a81 5f3c 3ccb 4ebc 1308 bd3c
00000160: 3d0e 053d 749c d0bc 8559 06bb 875b 96bc
00000170: db13 f9bb 01fc 39bc bb20 89b9 079d 343c
00000180: 4548 57bc b972 99bc 9d79 17bd 792c 093c
00000190: 316d 293b 341e 91bc 53bb f33c 2602 823c
000001a0: b709 a6bc 0fce 313c 8c16 c63b 5e1a 2dbc
000001b0: f159 a63c c23b 92bb c433 e2bc 9038 0bbc
000001c0: f151 9dbb b23a 233c 0896 8d3c b9c7 adbb
000001d0: 32b7 3c3b 76ca 73bc 25da 97bc 40b7 be3c
0.007610819 0.042515825 0.01558317 0.026889283 0.03402967 0.03814173 -0.024185458 0.029616334
0.024809161 -0.024683455 0.016888529 0.005884655 -0.00076633523 0.018167842 -0.02733289 -0.0011257194
-0.023581142 -0.035271153 0.015194421 -0.02762091 -0.019080587 -0.023878902 0.0070286593 0.014732692
-0.006396269 -0.0012439387 0.024723545 0.056797825 0.025688723 0.007901226 0.021987023 0.0037262968
0.022792486 0.029655928 0.024877258 0.01973818 0.032321874 -0.030381136 0.035793226 0.0140512865
0.043584332 0.035680886 -0.0032956786 0.06572768 -0.020479219 -0.05484163 0.005700896 -0.02034014
-0.013558987 -0.006514399 0.0033832886 0.031230865 -0.011763403 -0.022661295 0.00036680812 -0.0003322908
-0.018823233 -0.054136574 -0.05326805 0.0033545936 0.015317603 0.033119824 0.0024293498 0.0020623181
0.0348436 0.012959546 0.04090982 0.004153832 -0.039530806 -0.01333956 0.018344937 0.028479107
0.02526842 0.0069338107 -0.007057878 -0.019762734 0.028185837 0.024321407 -0.0019494011 -0.009348389
0.04155724 0.024682073 -0.030268563 0.03794078 -0.011910415 0.013641739 -0.012621697 0.02307514
0.03248428 -0.025465228 -0.0020500135 -0.01835419 -0.007601244 -0.011351586 -0.00026155062 0.011023766
-0.013139789 -0.018731462 -0.036981214 0.0083724195 0.0025852437 -0.017714597 0.02975241 0.015870165
-0.020268304 0.010852351 0.0060451683 -0.010565368 0.02030656 -0.00446269 -0.027612574 -0.008497372
-0.004801028 0.0099627245 0.017283455 -0.00530335 0.0028795716 -0.014879813 -0.018536637 0.02328074

fc2.weight f4 [10, 120]
00000000: 125d 9fbe 16b6 4fbd cf70 ec3d b57c 603c
00000010: 0722 85bc f1b0 89be 358c a93d 2970 29be
00000020: ad05 13be 2a32 9bbe 19b8 ab3d a002 0d3c
00000030: 9c95 bdbc df9b 8ebd 71fb d33d edd3 4f3d
00000040: 06a9 103e 9c2f 3c3e 4f90 b1bd 1a69 a83e
00000050: 5834 d63d b125 3e3e db96 4f3e 6eb9 323d
00000060: 7e61 57be 88b3 7dbe a17a 233e 18a7 43be
00000070: f30f 813d a718 803d a517 81bd 6883 a93e
00000080: 9a51 e23d 85f4 77bd b027 55be 8c6b bf3e
00000090: 91cc 033e 49ad c63d d974 74be 2ab8 93be
000000a0: 6cf5 90be 2198 cebd ca18 e5bd 8399 23be
000000b0: 6645 a83e ab9f 8c3e 119d 1d3e 4e22 2a3d
000000c0: 9d54 ccbd 810a 3dbd 29bb 513d dda2 a9bd
000000d0: f010 35be b047 8e3b 957e 84be 6444 9f3d
000000e0: d29c 703e fc29 d73e c222 4c3e 9f85 87bd
000000f0: b5b8 97be eed2 7fbe 3c18 153e 4242 4fbe
00000100: aefb 553d 7de0 adbe 5174 29be b118 77bd
00000110: ff3a b83e b4ad 243d a688 3a3e 49cc 1bbe
00000120: d772 673e f444 d33d a4bb 463d df02 cb3b
00000130: b1f5 f83d 1e48 6d3e 2dde 24be 5b54 f0bd
00000140: 4b69 e8bd 12f2 223d 1159 ccbc 487e ab3d
00000150: ffa1 e4b8 f272 d23e a55f 64bd 2028 62be
00000160: 894b 4dbe 59c5 a43e 79ac 7ebe f43a 79be
00000170: 1748 b0be bbc8 b03c 5a84 0c3d 2502 d2bc
00000180: 3b65 2f3e 1762 05be 062b f3bc 86d2 b03d
00000190: d788 3c3d 8f8b 0dbe efbd d43c d190 883e
000001a0: d3aa f2bd fa7e 233c fd64 563e 8f14 ab3d
000001b0: e812 753b a7c7 cf3d 0fc1 593e e67e 2c3e
000001c0: fe9f bdbb 5474 62bd e370 053e 700d 70be
000001d0: d50d 0e3e 9957 5bbd 0df5 513d ad34 3dbe
000001e0: fc21 f1bd 47c6 80be 4b9d 203e 50c6 eebd
000001f0: 4abd 85be bead 01be c120 583e 1c35 893e
00000200: 0484 a53d 17cf aebc 02af 453d 0082 f73d
00000210: b8d5 97be 1bc9 6abd fc08 513e 5cdb 00be
00000220: c7ce 0b3b 8cc2 97be 6832 b73c 9878 30be
00000230: 51c7 b5be 2df5 0d3e 3a43 cb3c 718a 8bbd
00000240: 7bb6 8abd 8738 1f3e 5c47 8d3e a615 76be
00000250: ef46 e93e 1892 a1be 9171 7abe 6ef4 77be
00000260: dd05 e5bc 6990 93be 06df 0c3e ceee 413a
00000270: 0447 a6bc 08d4 c5bd 1fa1 3ebe b057 70bd
00000280: c677 40be f8c5 bb3e dc4e f0bd 72da 3e3e
00000290: 9449 3b3b 718b abbd b86b 3abe 6067 10bd
000002a0: e069 9b3e ea5c 443d 1bed 84ba acab ed3d
000002b0: 40b0 f53b fd7e 79bc 7d95 a4bd 31fb 48be
000002c0: d935 76bd 4ad3 7cbd 511e 803e d563 a23d
000002d0: 1693 343d 75ba a33b 3d10 e73d 6365 f03d
000002e0: fd53 95be 7007 013e ddd0 c5bd 9985 f43e
000002f0: 956b 6cbc d822 19be dccf 773e 690f 85be
00000300: 8e52 4dbe 51ad 26be e3fa 9c3d a493 413d
00000310: 0522 5cbe 3712 063e f102 633e fb75 403d
00000320: 21c6 f9bd 4188 e7bd 5038 f03c 5f7f f73d
00000330: f6e1 10be 4d56 943e 8769 783e 95a9 b7bd
00000340: b25d 3bbe 3587 83be 109a dbb9 5c36 ccbd
00000350: 9c5f be3d 6a66 6cbe dd4a 91bd c861 e9bd
00000360: d7b9 b2be 899c 333c ecb9 1d3e 72d0 213e
00000370: be83 87be 52a0 69bd 0fb7 453e 6104 0ebe
00000380: f02f f03c e270 0bbe 2a28 48bc cda1 b03d
00000390: b682 c5be 2e99 fc3e a93b 2cbe d925 783d
000003a0: c21a 3cbe dc75 dcbb b0f8 09bd fbec d33e
000003b0: d50e 01be 6234 34be 4239 613e 309b 09be
000003c0: 8caf 80be 5bb4 4a3e c188 07bd 06ea 1bbd
000003d0: 425b c4bd a551 b93e 8aa1 26be 63f8 8cbd
000003e0: 26ff 563d 32b1 d53d 699a fc3d 5703 e23d
000003f0: 315b 2bbe 9234 c93c 7e35 5ebe f649 e03e
-0.31125695 -0.05071076 0.11544954 0.0137016075 -0.016251577 -0.26892808 0.082786955 -0.16546692
-0.14357634 -0.3031171 0.08384723 0.008606583 -0.023142628 -0.06963324 0.10350693 0.050739218
0.14126977 0.18377537 -0.08670103 0.32892686 0.104592025 0.18569066 0.2027239 0.04363387
-0.21033284 -0.24775517 0.15964748 -0.1910671 0.0630187 0.06254702 -0.06303338 0.33108068
0.110507205 -0.060535926 -0.20815921 0.3738674 0.12871005 0.0970102 -0.23872699 -0.28851444
-0.28312242 -0.1008761 -0.11186369 -0.15976529 0.32865447 0.27465567 0.15391947 0.04153662
-0.09977076 -0.046152595 0.05120388 -0.08283017 -0.17682242 0.004342042 -0.25877824 0.07776716
0.23497322 0.4202422 0.19935134 -0.06617283 -0.29633108 -0.24982807 0.14560026 -0.20240119
0.052241974 -0.33960333 -0.16548277 -0.060326282 0.3598251 0.04020472 0.1821619 -0.15214647
0.22602402 0.10315886 0.04851879 0.0061954106 0.12156237 0.23172042 -0.16100378 -0.117348395
-0.11348208 0.039781637 -0.024944814 0.083736956 -0.00010902061 0.4110332 -0.055755276 -0.22085619
-0.20048346 0.32181814 -0.2487048 -0.24338895 -0.3443 0.02158009 0.034305908 -0.025635788
0.1712846 -0.130257 -0.029683601 0.08633904 0.04602894 -0.13822769 0.025969474 0.26672986
-0.118489884 0.009979004 0.20936961 0.083535306 0.0037395302 0.101455025 0.21265052 0.16845283
-0.005786895 -0.05528672 0.13031344 -0.23442626 0.13872464 -0.053550337 0.05125909 -0.18477125
-0.1177406 -0.25151274 0.15685003 -0.11658919 -0.2612098 -0.12663934 0.21106245 0.26798332
0.080818206 -0.021338983 0.048262604 0.120853424 -0.29655242 -0.057320695 0.20413584 -0.12583679
0.0021332966 -0.29640615 0.022362903 -0.17233503 -0.3550363 0.13863058 0.02481233 -0.06813515
-0.06773087 0.15548907 0.27593505 -0.24031696 0.4556193 -0.31556773 -0.24457385 -0.24214336
-0.027956897 -0.28821114 0.13756952 0.00073979504 -0.020297535 -0.096595824 -0.1861615 -0.058677375
-0.1879569 0.36674476 -0.11733791 0.18638018 0.0028577792 -0.08376206 -0.18205154 -0.035254836
0.30354214 0.047940172 -0.0010141464 0.116050094 0.0074978173 -0.01522803 -0.08036325 -0.19627072
-0.060109947 -0.06172494 0.2502313 0.07929198 0.044085585 0.0049965926 0.11282394 0.11738088
-0.2916564 0.12600493 -0.09658978 0.47758177 -0.014429946 -0.14954698 0.24200386 -0.2598832
-0.20051023 -0.16277052 0.0766504 0.04725994 -0.21497352 0.13092886 0.22169091 0.046987515
-0.12195993 -0.11305285 0.029323727 0.12084841 -0.14148697 0.28972092 0.24259005 -0.08967892
-0.1829746 -0.25689092 -0.0004188572 -0.09971306 0.0929558 -0.23085943 -0.07094357 -0.113956034
-0.3490741 0.010962614 0.15402955 0.15802172 -0.264677 -0.05703766 0.19308113 -0.13868858
0.029319733 -0.1361728 -0.012216607 0.08624611 -0.38576287 0.49335617 -0.16819634 0.06058297
-0.18369582 -0.006727917 -0.033684433 0.4139174 -0.12603314 -0.17598107 0.21994498 -0.13438106
-0.25133932 0.19795363 -0.033089403 -0.03806498 -0.095877185 0.36195102 -0.1627256 -0.068833135
0.052489422 0.10434188 0.12334139 0.11035793 -0.16734006 0.0245612 -0.21700093 0.43806428

fc2.bias f4 [10]
00000000: c465 23bd 4f14 db39 727a 2cbd 35bf 85bc
00000010: 4479 0a3e af4b ae3d e3a4 093c 4415 123d
00000020: 2d8a 44bd 57f2 a03c
-0.039891973 0.00041786066 -0.04210896 -0.016326526 0.13522822 0.08510529 0.008401128 0.03566481
-0.047983337 0.019646807
