models/net/model_epoch_43.pt (torch, 517807 bytes, 16 tensors)

conv1.weight f4 [8, 3, 5, 5]
00000000: 9fd3 80bd 29e3 b5bc 7f3e 8ebd 98f4 273e
00000010: f46f 073e 00a1 4bbe cd01 ccbd b072 e53d
00000020: 82bc 193e e849 223d cf22 f13a a80d f53d
00000030: a911 393e fecc e13d 3883 3f3e a689 8a3d
00000040: cbcd 7a3e d3e4 343e 03a9 3f3d 9dc5 e23d
00000050: d4e2 87bd b3c1 d13c 409c b9bd f3d5 0a3d
00000060: f549 11bc cbc5 f7bd 2f41 cdbd 9187 88bd
00000070: bab4 bc3d d531 a8bc 4af4 49bd 7c32 05be
00000080: d64b d53d 5a22 bbbb 0afb a3bd 6b35 92bc
00000090: 00b2 333d 7b0f 1e3d db5a b1bd e24f 20be
000000a0: 5fbc 8b3d b106 39bd e001 38bd 01b1 4cbd
000000b0: 9e5b cbbd e9f4 7fbc 65c2 113d 694d 39be
000000c0: 5c41 cfbd 902a b0bd 4daf e5bd d93a 5bbd
000000d0: f726 febc 7de2 093e 0db3 733d 726c 063d
000000e0: 767c 063e 3961 263e ce04 e73d 6f17 e5bd
000000f0: cdd0 903c dda0 153d 3c9d c43d 95ff 07be
00000100: 3fa8 e8bd 542e 043e a00b 3b3e 7e44 20bd
00000110: 3a07 42be fb93 4fbe 4f85 833e 6d1c c33d
00000120: 1ca0 9e3c a488 42be 947d ecbc 8fc2 14bd
00000130: b67d 5ebd 28e6 843e d83e 023e 363b 45be
00000140: 858c a83c 3615 8fbe a9c5 55bd ae44 a03e
00000150: 61c1 9e3d 904a a43d 7f5f 363e 04a1 b7be
00000160: 8215 30be 87d4 ac3e d78e bbbd ec65 b03d
00000170: c51c 5f3e f366 22be 519e abbd 6f81 dcbd
00000180: 5255 9dbd 6676 613d 8007 8d3d 0e73 a9bd
00000190: 0222 e5bd e565 87bc a104 f13d f2c0 aa3d
000001a0: 46d1 d83c 73bf 04bd 335c 9fbe 6ca7 94be
000001b0: 2b9c 4a3e 885f e23d a03f 983e c4a8 7c3e
000001c0: 3b0e 8dbe 3952 a8be 6009 7d3e dc58 93bd
000001d0: fca5 8c3e 5e7a db3d b53f 9fbe f0c3 cbbd
000001e0: 0298 f33b 551a efbd 1f0d 163e 66a4 c6bb
000001f0: fe0e ecbd 6d22 8cbd e21c 8dbd 24e8 353c
00000200: 3583 2c3e d027 fdbd 1b5c e53d 78cc 24be
00000210: 2b93 9fbe acab 9c3e 68d5 ac3c 8597 e93d
00000220: e51d f93d f7de ddbe 037f 7ebe c525 433e
00000230: b38c 1e3d 6a17 333e 72a1 833e 9774 dbbe
00000240: 8c9e 09be 359b 653d 289c 3e3d 9fa1 8c3e
00000250: 957e 4f3e f6f1 cdbd caa3 bc3b a58b 79be
00000260: d0a7 5f3e 3ea0 bdbc 0404 cd3d b5fd 9cbe
00000270: 6ae2 a03e 240b 703e e622 56be 23d9 eebd
00000280: 5ebe 153e 1f7d 883e b941 1abf 0f39 fcbd
00000290: da09 683e 1d01 ae3c 3e4f c4be 1bef 593d
000002a0: e4b5 0b3f 3919 63be 1139 483b 127d cd3c
000002b0: d066 8a3e ab0f 8ebd d4de 52be 4ec7 4a3e
000002c0: 2c08 1ebe 22db 333e d176 193d b23d ccbd
000002d0: 0d74 3e3c 3f76 da3e 49bc 233e 1c13 b4be
000002e0: 54f6 5b3d 90bd 8e3e 5043 c93e 385a 25bf
000002f0: c2d4 89bd 9530 933e b750 2c3d 1eaa b6be
00000300: cc74 7ebd fa35 013f 17af 21be ffc6 f7bd
00000310: 4871 01be 28b2 28bc c92c 54be b40c 32be
00000320: 28e1 a2bd 4b37 b3be e2ce f33c 727a fcbd
00000330: 9886 afbc ff5b 87be 1c81 433e ad03 063e
00000340: bdd5 39be 7419 393e 4c1d 78bd a3dc 713e
00000350: 4713 22bf abef 99bc 4bf7 843e 6bce 9cbc
00000360: b263 adbe 2199 3dbd 2ca2 0d3f 698c 67bd
00000370: aedb 4b3c ca40 4e3e 3f8a 903e 8720 a73d
00000380: 27d5 063d d3f8 da3d 59b6 7e3e 3e7f 9e3d
00000390: d6e4 d0bd 125b 093d 180f 443d a782 433e
000003a0: 3393 3abd bf99 21be c579 46bd 9588 423e
000003b0: 8dea 373e fba1 85be bcef a1be d670 02be
000003c0: 4acd 733e c164 16bd 2e28 d1bd 4141 f1bd
000003d0: e1dc 273e 112b 46bb 4b89 49be d2e8 a83c
000003e0: 30fa 0fbe 474f fe3c b3e4 b5bd 9ae0 63be
000003f0: 26d8 02be 8d64 25be 17a6 0ebe 7607 a8bd
-0.062903635 -0.022203045 -0.06945514 0.16401899 0.132263 -0.19885635 -0.09961281 0.112035155
0.15013316 0.039621264 0.0018397215 0.11965495 0.18073143 0.11025427 0.187024 0.067645356
0.24492566 0.17665415 0.04679204 0.11072848 -0.06635061 0.025605058 -0.090630054 0.033895444
-0.00886773 -0.12098273 -0.100221984 -0.06666482 0.09214158 -0.020531574 -0.049305238 -0.1300754
0.10414855 -0.005710882 -0.08006866 -0.017847737 0.043870926 0.038588982 -0.086599074 -0.15655473
0.06823038 -0.045172397 -0.044923663 -0.04997349 -0.09929584 -0.015622356 0.03558578 -0.18095936
-0.10119888 -0.08601868 -0.112150766 -0.05352292 -0.03102444 0.13465305 0.059496928 0.032818265
0.13133416 0.16248025 0.11280213 -0.1118611 0.017677689 0.036530364 0.096003026 -0.1328109
-0.113602154 0.12908298 0.18266153 -0.03912782 -0.18948069 -0.20271294 0.25687644 0.09526906
0.019363455 -0.18997437 -0.028868474 -0.036318358 -0.054319106 0.25956845 0.12719285 -0.19260868
0.020574817 -0.2794587 -0.052190457 0.31302398 0.07751728 0.08022034 0.17809866 -0.35865033
-0.17195705 0.33755895 -0.09158104 0.0861319 0.21788318 -0.15859585 -0.08379806 -0.10766875
-0.07682289 0.055044554 0.06886196 -0.08273898 -0.11188127 -0.01652808 0.11768461 0.08337583
0.026466977 -0.032409143 -0.3112503 -0.29033983 0.19786136 0.110533774 0.29736042 0.24673754
-0.2754992 -0.3287523 0.24710608 -0.07194683 0.27470386 0.10716699 -0.31103292 -0.099494815
0.007433892 -0.11674944 0.14653443 -0.0060620783 -0.11526297 -0.06842504 -0.068902746 0.01110271
0.16846927 -0.12361109 0.11199208 -0.16093624 -0.31166968 0.30599725 0.021097854 0.11405853
0.12163905 -0.4333417 -0.24853139 0.19057377 0.0387084 0.174894 0.2570911 -0.42862388
-0.13439387 0.05605622 0.04653564 0.27467057 0.20263131 -0.10055916 0.00575683 -0.24369676
0.21841359 -0.023147698 0.100105315 -0.30662313 0.3142274 0.2344175 -0.2091175 -0.11662509
0.146234 0.2665796 -0.60256535 -0.123155706 0.22660008 0.021240765 -0.38341707 0.053206544
0.5457442 -0.2217759 0.0030551592 0.025084052 0.27031565 -0.06936582 -0.20592815 0.19802591
-0.15432805 0.17564061 0.037466828 -0.09972705 0.011624348 0.4266834 0.15989794 -0.3517083
0.053701714 0.27879 0.39309168 -0.6459079 -0.067300335 0.28748003 0.042069163 -0.35676664
-0.062123105 0.50472987 -0.15789448 -0.12098502 -0.1264087 -0.010296382 -0.20720209 -0.17387658
-0.079531014 -0.35003123 0.029761735 -0.12328042 -0.021426484 -0.26437375 0.1909222 0.1308734
-0.18147941 0.18076116 -0.060574815 0.23619322 -0.63310665 -0.01879104 0.2596992 -0.019141397
-0.33865124 -0.046288613 0.5532558 -0.05653039 0.012442512 0.20141903 0.28230473 0.08160501
0.03291812 0.10691991 0.24874248 0.07739113 -0.10199897 0.033534117 0.047865957 0.19092809
-0.045550536 -0.15781306 -0.048455972 0.18997414 0.17960568 -0.26100144 -0.31628215 -0.12738356
0.2380878 -0.03671718 -0.10212742 -0.11780024 0.16392852 -0.0030238072 -0.1968128 0.02061883
-0.14060283 0.031043662 -0.088815115 -0.22253647 -0.12777767 -0.16151638 -0.13930546 -0.08204548

conv1.bias f4 [8]
00000000: 92e8 7ebd 6c29 773d 55d0 dfbd 50f1 36bd
00000010: fc48 b8bc 82f3 c8bd 6760 96bd b764 9abc
-0.062233515 0.060342237 -0.10928408 -0.044663727 -0.02249574 -0.098120704 -0.07342606 -0.018846853

batch1.weight f4 [8]
00000000: 3894 413f bcd4 6b3f 03e0 523f a706 7f3f
00000010: 925f 973f 26ed 723f 949a 833f 1711 873f
0.7561679 0.9212148 0.82373065 0.99619526 1.1826041 0.9489311 1.0281549 1.055209

batch1.bias f4 [8]
00000000: e89e 7abd 1a2e afbe 8b78 3abe 8495 bfbe
00000010: 0946 85be 8dee 25be d5dd a6be de01 a8be
-0.0611867 -0.3421486 -0.18210046 -0.3741876 -0.26029995 -0.16204281 -0.3259112 -0.32813925

batch1.running_mean f4 [8]
00000000: 43be 3a3e 1cfe 40bd 9118 f2bd cac7 99be
00000010: d0bd 91bd 3b71 28be 5f07 e1bd 11f0 aabd
0.18236642 -0.047117338 -0.11821092 -0.3003524 -0.07116282 -0.16449444 -0.10987734 -0.0834657

batch1.running_var f4 [8]
00000000: 99b4 5d3d bee4 3a3d 701c 163d 4ced 4c3d
00000010: 1f32 1b3e 7705 fd3d f208 a23d 98a3 8e3d
0.05412731 0.0456283 0.036648214 0.05003099 0.15155838 0.12354558 0.079118624 0.06964797

conv2.weight f4 [16, 8, 5, 5]
00000000: bc6d e63d 4085 d73d ba9c 7e3d 7aba 2c3c
00000010: 48db 693d 9caf d33c 5150 ca3c 6676 b2bc
00000020: ba3a 86bc 0aac 8d3c a14a 2ebd ce92 42bc
00000030: 6399 a7bd 664d 54bd 3e5f 22bd 37bf 05bd
00000040: d200 32bd 23ec c2bd 6312 a0bd 7373 463b
00000050: 365f ccbd 6628 a2bd cb42 81bd 7c8c b2bd
00000060: 1289 a4bc 3955 46bd 43d7 62bd d48a 5abd
00000070: da18 4cbd 2e4a 09bd 96d4 81bd af4a f1bc
00000080: c07f d13c 4e8b 823c e51b 70bb c71f aabd
00000090: 4299 0cbd e2ad 763d 0a64 933d 0536 e03c
000000a0: e5ee 3abd b433 26bd 3e7b 1f3e 86ac 5f3d
000000b0: 8872 673b 03fb 31bc 0ca0 47bc da2f 863d
000000c0: 6815 4cbd 9ee1 90bd 23ae 6c3d a8b9 c53c
000000d0: 206a e23b 690d 57bd 580f 78bd cc66 763d
000000e0: b66d a23d d82e d1bc d0d1 56bc 7810 40bd
000000f0: 0027 a23c f0d5 c33d 778b 983d 9bf6 3a3d
00000100: 0e79 363d 1de4 11bd 413b d8bb 969b 4c3d
00000110: 66ba a33c 06d8 053d b430 ecbd b6f2 88bd
00000120: 5e7e 473c fa39 af3c c6e3 5ebb c15e ecbc
00000130: c385 843c d434 353d 9186 e1bd 6803 00be
00000140: 6f06 2c3d 152e 173e 97cf 1c3e afc9 623d
00000150: 7a0c abbd fb6e b1bc a660 353e 7dca 193e
00000160: 1587 143c f290 c73d 2ca8 7cbd 32ed b03e
00000170: f413 343d 2513 173d e2f9 b2bb edc1 b1bd
00000180: 4909 253d 18fe 40bd 9fb2 be3d 88d5 133a
00000190: 29df cabc b543 32bd e2ef 99bd e75c ec39
000001a0: 707e 9f3d bad4 f3bc 4ab4 023c cdc4 58bd
000001b0: 130e 0ebc 2743 9ebc 8598 233c e21b 61bc
000001c0: e927 97bb 434d 973d 4357 803d 77b9 0b3e
000001d0: fb81 713b fb6b a73d 2b17 8a3d 21cc 1ebd
000001e0: 613a 41bc a0d1 903d ccc0 e03d 90b0 81bd
000001f0: c992 b3bc 18a5 2f3d 3e2f 633c 0d60 533b
00000200: 31ea 93bd c539 cebc 90c5 383a b059 7e3c
00000210: b916 26bd b728 1dbd f9e4 de3a 1ce4 95bc
00000220: 0210 efbc 34ee 7cbd bfc2 7cbd 66ed 95bd
00000230: e27e 45bd d983 223c c247 74bd 2dda a9bd
00000240: 6422 4bbd e733 09bd 766c 963d 42e1 b8bd
00000250: 98a6 88bd 3a63 233a a898 6cbd 9b4d ebbc
00000260: 0ab2 3e3c 5912 ec3d 3950 2d3e b5dc 96bd
00000270: 1b06 6abd 27a5 c33b f65a c63c ef54 4e3c
00000280: 8430 8fbd 2387 b33c 5699 10bc 7441 5cbd
00000290: 9e75 27bd ea5a ccba 20e7 2b3d ba8c acbc
000002a0: 0a46 52bd b11c 913c e89f 8fbc 6ec0 443c
000002b0: 5a77 563c eea8 0bbd 55e9 abbb 0879 8f3d
000002c0: f375 53bd f478 f73c 0dd6 3c3d 6bec 9dbc
000002d0: ffbb 103d 6c4d 14bd 0642 c73c 6fe2 9fbc
000002e0: 17d4 08bd 8172 75bd 16f3 b4bd 6333 51bd
000002f0: f5cc cabc eef0 14bc 769f d8bc a5dc 37bd
00000300: c57f 3bbc 1692 efbb 3e12 7cbd 4a54 983c
00000310: 5b81 d8bd e34c 39bd 5529 f8b8 8754 5f3c
00000320: 26c9 8dbd 8116 acbd 1c7d 9fbd b6ce 65bd
00000330: 25b7 d8bd a343 acbb 0599 32bd 68cc 97bb
00000340: 6d45 fabc 6832 86bd b3b6 243d dc98 b83c
00000350: c452 433d 8c54 a63c dec0 50bd 5b48 533d
00000360: bef8 0d3d 279c ce3d f5e0 883d 8369 363d
00000370: 7b4d 623d 9429 283d eba6 853d d97a b8bc
00000380: 9337 1abc c6ef 80bd ea2e df3c 62ba 5f3c
00000390: 6944 d0bc 1f67 f6bc dc27 1f3b c7af 07bd
000003a0: d7be 7fbb 9fec bbbb ceb5 4cbd 6ab0 75bc
000003b0: 8375 59bd 92cf dcbc 2e1d 7ebc 3ed0 51bd
000003c0: f7dc 80bb 1920 85bc e5a8 083c 7b5d cf3c
000003d0: 8061 cabc 1c55 a83c 9a92 7d3c d765 f33d
000003e0: f209 973d 65d9 2a3b 1aeb fd3b a74a e0bc
000003f0: d342 373d d095 6cbd 9a57 b73d f3c8 aabc
0.11251399 0.10523462 0.062161185 0.010542506 0.05709389 0.025840573 0.024696501 -0.021784972
-0.016385425 0.017293949 -0.04255164 -0.011875821 -0.08183553 -0.051831625 -0.03964161 -0.03265306
-0.043457814 -0.09517696 -0.07816007 0.0030281215 -0.099790975 -0.07917862 -0.06311568 -0.087182015
-0.020084891 -0.04842112 -0.05538107 -0.053355053 -0.049828388 -0.03351801 -0.06339376 -0.029454557
0.025573611 0.015935566 -0.003663772 -0.08306842 -0.034325846 0.06022442 0.07196815 0.027369509
-0.045637984 -0.04057665 0.15574357 0.05460789 0.0035316069 -0.0108630685 -0.012184154 0.06552096
-0.049825102 -0.07074283 0.057783257 0.02413638 0.0069096237 -0.052503023 -0.060561508 0.06015663
0.07931082 -0.025535032 -0.013111547 -0.046890706 0.019793987 0.0956229 0.07448476 0.045645338
0.04454904 -0.035617936 -0.0065988605 0.049953066 0.019986343 0.03267672 -0.11532727 -0.066869184
0.012176124 0.02138995 -0.0034010275 -0.028853776 0.016177064 0.044239834 -0.11011995 -0.125013
0.041998323 0.14763673 0.15313564 0.05536812 -0.08351989 -0.021659365 0.1771265 0.1501865
0.009065409 0.09744443 -0.06168382 0.34555966 0.04396434 0.036883492 -0.0054619173 -0.086795665
0.04029206 -0.047117323 0.09311413 0.00056394236 -0.024764614 -0.0435216 -0.07516457 0.00045082645
0.07787788 -0.029764522 0.007977555 -0.05292206 -0.008670348 -0.01931913 0.009985094 -0.013739558
-0.004612912 0.073877834 0.06266644 0.13644968 0.0036851156 0.081748925 0.067427 -0.03876889
-0.011793704 0.07071233 0.10974273 -0.06332505 -0.021920579 0.042882055 0.013866244 0.0032253296
-0.07222403 -0.025174031 0.0007048482 0.015524313 -0.040549014 -0.038368907 0.0017005495 -0.018297248
-0.029182438 -0.061750606 -0.06170916 -0.07320671 -0.048216708 0.00991913 -0.059638746 -0.08293567
-0.049593344 -0.033496764 0.07344906 -0.090273395 -0.066724 0.00062327425 -0.05776277 -0.028723529
0.0116391275 0.11526937 0.16925134 -0.07366315 -0.05713473 0.0059706154 0.024213295 0.012593492
-0.069916755 0.021915024 -0.008825621 -0.05377336 -0.040883653 -0.0015591059 0.041968465 -0.021063197
-0.051336326 0.017713876 -0.017532304 0.012008769 0.013089979 -0.03409665 -0.005246321 0.07005507
-0.051626157 0.030209042 0.046102572 -0.019277772 0.035335537 -0.036206648 0.024323475 -0.019517152
-0.03340539 -0.059923653 -0.088354275 -0.051074397 -0.024755934 -0.009090645 -0.026443224 -0.044888157
-0.011444037 -0.007311116 -0.061540835 0.01859488 -0.105715476 -0.04523934 -0.0001183326 0.013630993
-0.06923132 -0.0840273 -0.077875346 -0.056105338 -0.10581807 -0.0052570864 -0.043602962 -0.0046325214
-0.030550683 -0.06552583 0.040213298 0.022533827 0.047686353 0.020303987 -0.050965182 0.051582675
0.034661047 0.100883774 0.06683532 0.044534218 0.055249672 0.041055277 0.06525978 -0.022519516
-0.009412664 -0.06295733 0.02724405 0.013655277 -0.025423246 -0.030078469 0.0024285233 -0.03312662
-0.0039023662 -0.0057349945 -0.04997807 -0.014995674 -0.053090584 -0.026954446 -0.015509887 -0.051223986
-0.003932591 -0.016250657 0.008341049 0.02531313 -0.024704695 0.020548396 0.015476847 0.11884659
0.07374944 0.0026069519 0.0077489736 -0.027379347 0.044741463 -0.05776006 0.089522555 -0.020847773

conv2.bias f4 [16]
00000000: 6640 6c3d 30bc 3b3d e010 423d ea3a 5e3d
00000010: 0f14 07bd 0486 21bd 32ee 31bd dc21 bf3c
00000020: 2053 e13c 9866 703c 95d1 5ebd 52d4 cd3b
00000030: a5b0 19bd 00d2 63bc 9c59 33bc a059 663b
0.057678603 0.045833766 0.047379375 0.054255404 -0.032978114 -0.039434448 -0.04344005 0.023331575
0.027505457 0.014672898 -0.05439909 0.006281414 -0.037521977 -0.013905048 -0.0109466575 0.0035148636

batch2.weight f4 [16]
00000000: b91d c63f 3d03 bc3f 0f3c e43f 82f1 ca3f
00000010: aa66 c63f 1f94 d93f 6060 c53f 6b24 e63f
00000020: 6e77 dc3f b88a d43f ab3a d03f 93c5 c83f
00000030: 46bf cd3f 8ebf de3f e570 c23f afa4 c83f
1.5477821 1.4688488 1.7830828 1.5854952 1.550008 1.6998328 1.5420036 1.7979864
1.7223947 1.6604834 1.6267904 1.5685295 1.6073997 1.7402208 1.5190703 1.5675257

batch2.bias f4 [16]
00000000: c3bd c1bd 75e0 5dbe db9c fdbe 504d 9abe
00000010: d5a4 5ebe 138f 4abe 1d17 3dbe 8b0e e1be
00000020: 13e6 b3be 8f7b ccbe 5dcf 7abe af28 c3be
00000030: 9ca1 14be a13d cabe b56a 3dbe f529 61be
-0.09460022 -0.21667655 -0.49533734 -0.3013711 -0.21742566 -0.19781141 -0.18465848 -0.43956408
-0.3513647 -0.39938018 -0.24493165 -0.38116977 -0.14514774 -0.39500144 -0.18497737 -0.21988662

batch2.running_mean f4 [16]
00000000: 1711 623c 2207 6fbc af34 35bd b039 92be
00000010: dab4 c2be 3ab8 afbe 9b2b 32bf d31a abbd
00000020: 9239 3dbf 7422 ecbc bbe4 6dbe 86af 5b3e
00000030: 0302 d83d 9b98 1dbf b561 f6be e8c3 4e3c
0.01379802 -0.014589103 -0.044239696 -0.28559637 -0.38028604 -0.3432024 -0.69597787 -0.08354726
-0.7391597 -0.028825022 -0.23231785 0.21453676 0.10547259 -0.6156098 -0.4812142 0.01261995

batch2.running_var f4 [16]
00000000: 8d11 c63e 49fc e13e 604f 293f 677b 093f
00000010: 106d e63e f205 023f c376 093f 569e 373f
00000020: 8536 783f 1e6d 013f e10a 003f dcd2 dd3e
00000030: 6670 193f 6908 3a3f 08ee f83e 0388 073f
0.38685265 0.4413779 0.6613674 0.5370392 0.45005083 0.5079032 0.5369684 0.71725976
0.9695819 0.50557125 0.500166 0.43324935 0.5993713 0.7266908 0.48619103 0.5294191

fc1.weight f4 [120, 1024]
00000000: 0006 3d3d 5971 113d 4536 473c a0cb c83c
00000010: 2e95 793d b68a 0f3d 48e8 633c 6643 c43b
00000020: 2379 af3d b869 a13c af7b 073b f5fe 4bbd
00000030: addf 903b b273 663c c3f1 183c abbf c23b
00000040: d8bc 1f3d 08f3 ed3b 60b0 9c3c 3140 1fbc
00000050: 0f06 4b3c e530 6f3c 2660 82bc 11fd 0c3c
00000060: e0b3 4c3c aaba 1ebd d98d 0bbc d63f cfba
00000070: 5f45 08bd e3f8 2f3b 7d73 bebc fc01 073d
00000080: b4ab 933c e51a 8abd c24b 36bc 29cd 3bbd
00000090: 8ade 95bd cd1b a8bc d082 493b da9e 5a3d
000000a0: 5d09 05bd 8621 6bbd 8fc4 97bd 9e84 aa3b
000000b0: 70a7 9bbd d49c 2ebd d120 e4bc 096a 433b
000000c0: 1c50 01bd a591 19bc 4f24 8abd 11a3 8dbc
000000d0: 8ce0 e3bc 75a9 f63c 297f d039 86f5 edbc
000000e0: efa8 943c af41 80bd 4e91 43bd 56dd cfbc
000000f0: 5cf4 10bc ed63 deb8 d2d1 cebc 7ca3 933c
00000100: 5234 843c 33fe 9e3b f610 48bc c1f1 76bd
00000110: 593b 593b 536f 2b3c 74cf a13c a0ef d3bc
00000120: 224c 0d3c d9cc 103d fedf 24bc d326 eabc
00000130: a514 a43c 4588 7fbc bd46 383d 9d1c 1ebd
00000140: 9b6f 76bc d66c 9cbb fc77 f6ba 1769 1c3c
00000150: 4ed5 9f3b 59e0 143d ace6 523d 80a1 f8bb
00000160: f08f cf3c ec00 423c eecf 243d ba75 b93a
00000170: 3414 e63b 31d1 483b b25c 813c 0bc5 22bc
00000180: ce6e e73b 052b 5f3c 7503 463d 6c4a e93c
00000190: 5723 253d dea9 303c 3a9f d63c 6d3f c4bb
000001a0: a89e ba3c 2980 b4bb 645e f23c 82a1 9b3d
000001b0: d2ea 963c 70f4 2b3d 59c0 983c 77b4 cd3c
000001c0: 7b18 e63c b1dc c63c 291e 3b3d ad8f 15bc
000001d0: 4ccf 0b3d fd47 4a3d 8328 573c 5998 5fbd
000001e0: c70a 053d 9e71 01bb 3af5 46bb 934a 36bc
000001f0: c46f c3bc 9639 03bd 2b51 64bb 767a 9bbc
00000200: 23bb a03c 204c 20bd 731d 923d d836 83ba
00000210: a871 993c c860 bf3c 90be ccbc 88d7 903b
00000220: 8289 f5bb 06e8 31bc 35cf 51bc 0534 013c
00000230: 17f3 113d 9632 c03c f4ff 2fbc 7db5 6f3a
00000240: 351b 863b 70f8 3bbb 7cb6 fd3c a679 903c
00000250: e10c 053c a860 eebc 5cdf 5dbd 8526 ba3b
00000260: 5656 203d b862 5b3c b5be fb3b 229b ec3c
00000270: 50b2 9fbc a178 563c 8a07 713c 72e1 ceb7
00000280: e665 0a3d 8086 ce3c e417 f73c adb8 3dbd
00000290: 6aa5 17bc 69bb 99bb 3a37 17bd 6b1c aabc
000002a0: 91d5 1e3d e2eb 97bc a45e a03c 1047 133c
000002b0: 7e2b be3c df06 fabb 83fa d1bd d705 b5bc
000002c0: be62 3d3d 2ed5 d03c 82f4 b0bc 084e 84bc
000002d0: 7e5d 85bc 8950 e4bb b33e 86bc eab2 11bc
000002e0: b25c 633c 85b9 4abd b5a3 a7bc cfda a13b
000002f0: 932d 3fbd 7cac 25bd 59de a9bc 7ca2 c1bb
00000300: 6eb1 be3b d2d6 65bd 6e15 62ba 88b3 aebc
00000310: f8a3 0dbb de98 60bb 5c46 37bd 165a af3c
00000320: 3a86 18bd 163b 9b3b fb54 eabb 671e 6cbd
00000330: cb04 e3bc 8fce 14bd f06b 2abd 1f00 afbc
00000340: 05a0 8c3c a0af 23bd 6406 313c 8ca5 d6bc
00000350: 0021 ef3c 79ed 30bc 5a32 e33c 2f3d 2bbd
00000360: bc54 913c ffcd 513d 6b15 19bb bae3 f8bc
00000370: a07f 663d c656 7f3c 1932 8ebb f769 d2bb
00000380: ec84 17bd defc cf3c 01ee 643c ff73 e03b
00000390: f46f 093d 8ce1 0c3d 2202 d9ba bb69 003d
000003a0: 5f28 07bd 69bc 8a3c a67d ca3c 1ec8 423c
000003b0: dbef 133d 3c74 303d 8a51 ff3b ba9f 64bb
000003c0: 1308 0cbc 1607 32bd a475 f93c ff2e 473c
000003d0: 1f6c 043d 4b57 be3b 93d8 aebb b91a 8d3c
000003e0: 73fd c1bc 45c6 b03b e683 103d 0308 9e3c
000003f0: 1a04 923c 8012 bcbc a707 813c 6bca ea3b
0.0461483 0.035508487 0.012158935 0.024511158 0.060933284 0.035044394 0.013910361 0.00598948
0.08568027 0.019703731 0.0020673086 -0.049803693 0.0044211955 0.01406567 0.009334984 0.0059432588
0.038998455 0.0072616376 0.01912707 -0.009719894 0.012391581 0.01459906 -0.015914988 0.008605258
0.012494057 -0.038752235 -0.008517706 -0.0015811871 -0.033269282 0.002685123 -0.023248428 0.032960877
0.01802621 -0.06743411 -0.0111264605 -0.045849953 -0.073178366 -0.020521069 0.0030748136 0.05337415
-0.032479633 -0.057405017 -0.074105375 0.0052037975 -0.076002955 -0.04263003 -0.02784768 0.002981784
-0.03157054 -0.009373103 -0.067452066 -0.01728967 -0.027817033 0.0301101 0.00039767593 -0.029047739
0.01814696 -0.06262528 -0.047745995 -0.025374096 -0.008847322 -0.000106043975 -0.025246534 0.018022291
0.01613823 0.0048520803 -0.012211075 -0.06028915 0.0033146946 0.0104635535 0.019752242 -0.025871098
0.0086241085 0.035351608 -0.0100631695 -0.028582966 0.020029375 -0.015596454 0.044989336 -0.038601507
-0.015041257 -0.0047737164 -0.0018804069 0.00954654 0.004877723 0.036346767 0.051489517 -0.0075876117
0.02533719 0.01184104 0.04023736 0.0014149465 0.0070214514 0.0030642266 0.01579127 -0.009934674
0.0070627695 0.0136210965 0.04834314 0.02847787 0.040316906 0.010782687 0.026198972 -0.0059890063
0.022780731 -0.005508442 0.029586025 0.075991645 0.018422518 0.04198116 0.018646406 0.025110466
0.028087845 0.024275156 0.04568306 -0.009128493 0.03413324 0.04938506 0.013132217 -0.05458865
0.03248098 -0.001975156 -0.0030358569 -0.011126178 -0.023857005 -0.03203734 -0.003483842 -0.018979292
0.019620484 -0.0391351 0.07134523 -0.0010010852 0.018730953 0.023361579 -0.024993211 0.0044202246
-0.007493199 -0.010858541 -0.01280575 0.007885938 0.03563222 0.023461621 -0.010742176 0.00091441703
0.004092599 -0.0028682016 0.030970804 0.017636131 0.008120746 -0.029098824 -0.05416809 0.0056808614
0.039144836 0.013390236 0.007682646 0.028882567 -0.019494206 0.013090284 0.01471127 -2.4662095e-05
0.033788584 0.025210619 0.03016276 -0.0463187 -0.009255746 -0.0046915305 -0.036917903 -0.020765504
0.03877789 -0.018545095 0.019576378 0.008989111 0.023214098 -0.0076302136 -0.102528594 -0.022097511
0.046236746 0.025492277 -0.021600965 -0.01615049 -0.016279932 -0.0069676084 -0.01638732 -0.008892754
0.013877081 -0.04949333 -0.020463804 0.004939414 -0.046674322 -0.040447697 -0.020735906 -0.005909262
0.005819491 -0.05611307 -0.0008624409 -0.021325842 -0.0021612626 -0.0034270803 -0.044744834 0.021405261
-0.037237383 0.004737268 -0.0071512437 -0.05764618 -0.027712246 -0.036329802 -0.041606843 -0.021362362
0.017166147 -0.03996241 0.010804746 -0.026201986 0.02919054 -0.010798805 0.02773397 -0.041806396
0.0177406 0.051221844 -0.0023358713 -0.030382026 0.056274056 0.015584653 -0.004339468 -0.0064213234
-0.036992 0.025389131 0.01397276 0.0068497653 0.033554032 0.034394786 -0.0016556422 0.031350832
-0.032997485 0.016935544 0.024718117 0.011888532 0.036117416 0.0430796 0.0077917026 -0.0034885244
-0.008546847 -0.04346379 0.030451603 0.012157201 0.032329675 0.005808746 -0.0053358763 0.017224656
-0.023680424 0.0053947293 0.03528204 0.01929093 0.017824221 -0.02295804 0.01575072 0.0071652434

fc1.bias f4 [120]
00000000: 0408 953b 3f6d 103d e918 673c 53a3 ce3c
00000010: 2d1a 043d 8e55 053d f6d6 b5bc dcbb e53c
00000020: 83f1 bd3c afdd ccbc 1d4a 3e3c ec5e c73b
00000030: 19cd 82bb 7bcd 8b3c e083 dabc e187 64b9
00000040: bb8f b7bc ca09 06bd c544 7f3c 1d7e e7bc
00000050: 3b58 9fbc 67ce babc dd74 b73b 24aa 863c
00000060: f429 06bc 9f3d 23ba 08a3 d63c 861c 533d
00000070: 881a cb3c b262 bf3b 1cd7 883c 25fd b23b
00000080: 3139 a63c 7aa3 d13c 10e8 b13c c491 a43c
00000090: 1f40 f93c 65cf edbc 084d 093d 8b96 483c
000000a0: c89c 203d d7d8 133d 29ae 17bb 970d 763d
000000b0: 9bf4 83bc 9046 4fbd 8b37 b13b 297f a7bc
000000c0: c079 3abc 0250 b2bb 6725 463b ab4d f43c
000000d0: 9f28 48bc d30b c8bc 44de 3d38 0676 c0b9
000000e0: 98be a1bc eeda 49bd 31e1 48bd 4828 863b
000000f0: 6005 263c 7576 023d 17d8 923b b961 6fba
00000100: 2ebb 023d 52f1 e93b 54d1 1a3d 6553 b03b
00000110: dfa6 19bd 479c 80bc 1f4b 8e3c bdd5 db3c
00000120: 02a8 af3c d217 df3b e2b4 12bb 0685 a2bc
00000130: 0903 e33c cf93 c23c bf6b b7bb 523d 08bc
00000140: 4e58 123d 20fa 8c3c 9168 fbbc 2446 153d
00000150: 4753 59bc 9fff 8f3c 49f6 0ebc ea3f ad3c
00000160: e3da f93c 60b0 a8bc 1ab3 78bb f316 7fbc
00000170: 3bdf 21bc 6231 2cbc 0e92 84b9 3a58 1f3c
00000180: a82a 59bc c6dd a3bc 072a 0bbd f96e 213c
00000190: f463 383b 2494 9dbc 67d5 f63c 1efb 953c
000001a0: 6c53 b6bc 3bef 363c 4451 ad3b ca58 24bc
000001b0: 0ca0 953c a8d9 c2ba 5c33 dbbc b31f 82bb
000001c0: ffb0 f0bb 9730 f03b 32a4 933c b573 8cbb
000001d0: fb11 cd3b 5355 86bc 84b9 93bc 5557 903c
0.0045480747 0.035260435 0.01410506 0.025224363 0.032251526 0.032552294 -0.022197228 0.02804368
0.02318645 -0.02500805 0.01161435 0.0060843136 -0.0039917347 0.017065754 -0.026674211 -0.00021794393
-0.022407403 -0.03272418 0.015580361 -0.028258378 -0.019451251 -0.022803498 0.005598648 0.016438551
-0.008188713 -0.0006227139 0.026200786 0.051540874 0.024792925 0.005840623 0.016704135 0.005462306
0.020290943 0.025590647 0.021717101 0.020089038 0.030426083 -0.029029557 0.03352073 0.0122429235
0.03921202 0.036095466 -0.002314458 0.060071554 -0.016107848 -0.050604403 0.0054082326 -0.020446377
-0.0113815665 -0.0054416666 0.0030234696 0.029822191 -0.012216716 -0.0244197 4.5268112e-05 -0.00036709028
-0.019744202 -0.049281053 -0.049042884 0.0040941574 0.010133117 0.03185125 0.0044813263 -0.0009131688
0.03191679 0.0071393633 0.037797287 0.005381035 -0.037512656 -0.015699519 0.017369805 0.026835317
0.021442417 0.0068082595 -0.0022385647 -0.019838821 0.027711408 0.023752121 -0.005597561 -0.008315401
0.035728745 0.017209113 -0.03068951 0.036443844 -0.013264484 0.017577944 -0.008725711 0.02114864
0.030499881 -0.020591915 -0.003794855 -0.015569436 -0.009879882 -0.010509821 -0.0002528582 0.009725625
-0.013254799 -0.02000321 -0.033975627 0.009853118 0.0028135749 -0.019235678 0.030131055 0.018308219
-0.022256576 0.011165435 0.0052892286 -0.010030935 0.018264793 -0.0014865892 -0.026757888 -0.003971064
-0.0073453183 0.007330011 0.01802263 -0.0042862543 0.006258247 -0.016398108 -0.018032797 0.017619768

fc2.weight f4 [10, 120]
00000000: 870b 95be f1dc 3fbd 4ac7 f53d 45c3 af3b
00000010: 2f34 75bc 4cf6 7bbe 0a9b a23d fab4 1fbe
00000020: 88d7 07be e964 8ebe 6dd2 a33d a247 083c
00000030: ee15 00bd 0739 51bd 2189 c73d 5b09 493d
00000040: 94ca 103e 5aee 373e 16f2 aebd 15f1 953e
00000050: 9e7a cf3d 7a56 293e 273d 423e 1cab 1d3d
00000060: bf45 46be 1692 5bbe d20e 133e 33c8 40be
00000070: 26b7 893d c82f 5b3d a21e 4cbd 92bc 973e
00000080: 3ac4 d13d 60b7 50bd d30c 3abe b74f b23e
00000090: 0428 0c3e bf39 b03d 65a6 58be 7e15 8dbe
000000a0: d95e 89be f864 cfbd d899 9cbd 2f1d 20be
000000b0: dcf7 a33e e131 7d3e 5cea 1e3e 20d6 293d
000000c0: 6b4e b0bd 3625 16bd 9926 3b3d e8b4 adbd
000000d0: 6cd3 2abe 865f 083c 1cf8 6bbe 87e2 ab3d
000000e0: 9012 613e db01 cc3e 5c55 433e 5f15 81bd
000000f0: 77c4 8dbe b95d 69be d935 113e f053 40be
00000100: e7cb 3e3d 94cb a1be a0b1 10be 022f 76bd
00000110: 7e55 ae3e e4ee fe3c e35e 313e a59d 11be
00000120: 084b 4d3e cca5 da3d 29e1 703d 5212 423c
00000130: 0e32 ed3d 1761 573e 9c85 0dbe 7380 ddbd
00000140: ff20 e9bd 41a4 d23c 1a25 cebc a7c0 b13d
00000150: d679 043c deda c43e 2772 68bd 1a05 4bbe
00000160: ce49 3abe 5723 953e 3cce 67be 3355 71be
00000170: 9754 9cbe 3815 943c d9af f53c 2e68 08bd
00000180: 944c 123e b763 00be e84a babc f01e 963d
00000190: 78aa 1d3d d226 e4bd 121f 963c d5f5 773e
000001a0: 2bb9 debd 2db1 ac3c 9e2a 513e 93d8 833d
000001b0: fb6c 70ba 9c77 d43d 6806 3d3e 4507 2b3e
000001c0: a126 f8bb a04f 36bd 1f0b d83d a720 54be
000001d0: a061 023e 0f5f 5bbd 5289 7b3d 3e8a 40be
000001e0: ce22 f9bd f44d 7cbe ec5f 133e b164 c1bd
000001f0: 5584 7ebe c379 e7bd 596f 403e 92d7 7b3e
00000200: d8e5 983d 8041 abbc ddf6 083d d5d0 da3d
00000210: 10ad 91be fb31 82bd 8a8c 353e fe56 efbd
00000220: b5c7 473c f4f5 8bbe 5be6 933c 6b23 20be
00000230: 16a6 a8be 6a85 003e b0f1 c93c 3f08 7cbd
00000240: 7769 76bd 1292 1e3e 0bcf 7c3e 69aa 6abe
00000250: c40e d33e e9e7 8fbe f31a 71be 2ff8 61be
00000260: 966f afbc 495d 86be a9e1 013e c80d 44ba
00000270: 919a b8bc 5cd2 a6bd e1fd 27be a80c 6cbd
00000280: 56ca 21be c61e ac3e 7ced c1bd feae 383e
00000290: 8bed cdbb 38d1 a4bd 0f8c 2ebe 7105 10bd
000002a0: cfeb 943e 65a2 093d 100b 84bc 897e d53d
000002b0: e258 123b 7885 1fbc 6664 9abd b8e9 42be
000002c0: 6ad2 31bd 0c0d 81bd b3db 833e 5078 9d3d
000002d0: d156 043d b67f b13b 050a da3d 5b81 eb3d
000002e0: 98c3 88be 55d2 df3d a9db c3bd 46f8 ec3e
000002f0: d123 8dbc 3ed6 03be 3e3c 683e 9758 76be
00000300: 9ed0 40be 2ae5 2abe 85eb 4e3d 1a79 3d3d
00000310: 5074 48be ab7f f03d 3e35 483e 991c 033d
00000320: 3f8c e0bd 40c7 d9bd deb6 ef3c d602 ed3d
00000330: 5377 0bbe e22f 8c3e c0ee 4e3e d44c 9abd
00000340: d7b1 35be 001c 7dbe ab1a 87bb 3870 cbbd
00000350: 9472 9f3d 51f3 69be db06 84bd 5034 d1bd
00000360: 4def aabe f7b7 4b3c 45df 173e a4cf 173e
00000370: 4956 76be c122 53bd 0aa2 333e 5f37 08be
00000380: 1aab 0b3d ff6b f3bd b8fc 323a 887d c43d
00000390: 3902 bcbe e040 f33e 9bbe 20be b758 263d
000003a0: efa9 32be 31ea acbc cf36 0fbd 1ff2 c63e
000003b0: 13fb efbd 720b 24be c784 533e 50de 09be
000003c0: f3e9 68be c3e7 483e f847 03bd 68a3 d1bc
000003d0: 1b95 b9bd 2e01 a83e 4d75 13be 865d 88bd
000003e0: 15d3 223d bf68 ce3d 5aa6 e33d c01d cb3d
000003f0: b3f1 14be 012e 7d3b 7304 38be e2e2 cb3e
-0.29110357 -0.046841566 0.12000902 0.005363854 -0.014966055 -0.24605674 0.079397276 -0.15596381
-0.13265812 -0.27811363 0.0799912 0.00831786 -0.031270914 -0.051079776 0.09742952 0.049081188
0.14139777 0.17962018 -0.08542268 0.29285493 0.10130809 0.16536894 0.1896864 0.03849326
-0.19362544 -0.21442446 0.14361122 -0.1882637 0.06724386 0.053512365 -0.0498339 0.29636055
0.10242505 -0.05095613 -0.18168955 0.34826443 0.1368714 0.08604764 -0.21157224 -0.2755546
-0.26830176 -0.1012668 -0.07646531 -0.15636133 0.3202504 0.24726059 0.15519089 0.04146397
-0.08608707 -0.03665658 0.045691106 -0.08481771 -0.16682214 0.008323556 -0.23043865 0.08392816
0.21979737 0.39845166 0.19075531 -0.06302904 -0.27688953 -0.22789659 0.14180698 -0.1878202
0.046581175 -0.3160063 -0.14130259 -0.060103424 0.340496 0.031119771 0.17321353 -0.14220293
0.20048153 0.106761545 0.05880848 0.011845188 0.11581813 0.2103313 -0.13820499 -0.10815515
-0.11383247 0.025713088 -0.025164176 0.08679324 0.008085689 0.38448232 -0.05674949 -0.19826165
-0.18192217 0.29128525 -0.22637266 -0.23567657 -0.30533287 0.018076524 0.029991077 -0.03330248
0.14287025 -0.12538038 -0.022740796 0.073301196 0.03849265 -0.11140217 0.018325362 0.24214871
-0.10875162 0.021080578 0.20426413 0.06437793 -0.0009171513 0.10374376 0.18459475 0.16701992
-0.0075729643 -0.04450953 0.10548996 -0.20715581 0.12732553 -0.05355745 0.061410256 -0.18802735
-0.121648416 -0.24639112 0.1439206 -0.094430335 -0.24855168 -0.11302521 0.18792476 0.24593952
0.07465714 -0.020905256 0.033438552 0.10684363 -0.2845235 -0.06357189 0.17729393 -0.11686514
0.01219361 -0.27336085 0.018054178 -0.15638511 -0.32939214 0.12550893 0.024651378 -0.0615313
-0.060159173 0.15485409 0.24688356 -0.22916569 0.41222203 -0.2810662 -0.23545437 -0.22067331
-0.021415513 -0.26243046 0.12683739 -0.000747886 -0.02253464 -0.081455916 -0.16405441 -0.057629257
-0.15799841 0.33617228 -0.09469125 0.18035504 -0.006284421 -0.08047718 -0.17045616 -0.03516144
0.29086158 0.033602137 -0.016118556 0.10424525 0.002233081 -0.009736411 -0.07538681 -0.19034469
-0.043413557 -0.063013166 0.25753555 0.076889634 0.032309357 0.0054168357 0.10646442 0.11499282
-0.26711726 0.109287895 -0.09563381 0.46283168 -0.017228993 -0.12874696 0.2267923 -0.24057232
-0.18829581 -0.16688982 0.050517578 0.04625807 -0.1957562 0.11743101 0.1955156 0.032009695
-0.1096425 -0.10633707 0.029262003 0.115728065 -0.13619737 0.27380282 0.20208263 -0.07534185
-0.17743622 -0.24717712 -0.004123052 -0.099335134 0.07785526 -0.22846724 -0.0644662 -0.10215056
-0.33385697 0.012433997 0.14831264 0.14825302 -0.24056353 -0.051546816 0.17542282 -0.13302372
0.034098722 -0.11885833 0.0006827819 0.09594256 -0.36720446 0.47510433 -0.1569771 0.04061195
-0.17447637 -0.021107765 -0.03496438 0.388566 -0.117178105 -0.16019991 0.2065612 -0.13463712
-0.22745495 0.1961966 -0.032051057 -0.025590613 -0.09061643 0.328134 -0.14400215 -0.06658463
0.039752085 0.100785725 0.111157134 0.09917784 -0.14545326 0.0038632157 -0.17970447 0.39821535

fc2.bias f4 [10]
00000000: c765 01bd e263 e53b bb59 f1bc 0bd2 22bc
00000010: bdfb e73d 4193 ac3d 78a8 a939 9e3b 163d
00000020: 1211 47bd b9c1 843c
-0.031591203 0.0070004323 -0.029461732 -0.009937773 0.11327312 0.08426524 0.0003235971 0.03667795
-0.048600264 0.016205655
