models/net/model_epoch_58.pt (torch, 517807 bytes, 16 tensors)

conv1.weight f4 [8, 3, 5, 5]
00000000: c425 a0bd 43fe 7fbd 9399 c8bd 9fdb 1f3e
00000010: eaec 133e 08aa 73be 3f31 f9bd 7866 ea3d
00000020: c6ce 293e bad0 733d 1142 0cbd 647e fe3d
00000030: 816f 433e abcc 0d3e 0c35 683e fb54 573d
00000040: 8d85 813e 5301 553e c03d 8d3d 3e3c f13d
00000050: 5ef1 adbd d8be c93c 47db c5bd b632 b43c
00000060: c86b 67bc b2b9 e1bd ce33 f8bd 506d 9cbd
00000070: a758 cc3d 638e 43bb 49b9 82bd b224 0bbe
00000080: c5ad ef3d c7fc 153c 0731 b6bd 7065 f6bc
00000090: 713b 653d a0bb 203d 8e3d b2bd e460 26be
000000a0: 8a34 953d 3187 3dbd f2ce 37bd 841b 91bd
000000b0: 0e45 03be 9a6a ef3b 69f5 313d b9b0 4fbe
000000c0: 2183 03be 6cae ccbd 7881 c6bd 7487 93bd
000000d0: 5270 21bd ff29 033e efd2 753d 38cf df3c
000000e0: e4b2 053e 508c 3e3e 1fb8 ee3d 266a 0abe
000000f0: 61d0 453c 454d 423d 4cd6 d03d 4cc0 16be
00000100: dbef 0abe 110e 213e ed50 493e 6fe1 85bc
00000110: a11a 4bbe d996 5dbe 14a3 993e 6056 e53d
00000120: b641 4b3c 9350 53be 6a5a 91bc 5b7d 4fbd
00000130: e431 39bd 1e86 933e 17a8 ec3d 9bd1 51be
00000140: 1865 823c 51f2 9dbe 1ad6 8bbd 7d99 be3e
00000150: 6fc2 843d 8465 8c3d 9cf7 543e 4c28 d7be
00000160: 4c86 32be a34b ca3e 23a6 fcbd 3d66 d73d
00000170: 6a51 783e 1f6b 4ebe 722d a1bd cc12 ddbd
00000180: 0e46 c1bd dc1a 863d 1efa 9b3d 970c 97bd
00000190: e9fa dcbd 0b55 86bc 4c0e 003e 7b32 7c3d
000001a0: 679d fd3c 6575 18bc 38f3 acbe 6788 a8be
000001b0: 7dee 6e3e aa16 ce3d 949d 9f3e 44b5 963e
000001c0: d97a b1be 816e b8be 83ad 8f3e 08ca bdbd
000001d0: f91e 973e eab4 0a3e 0d8b b5be 1ca2 e1bd
000001e0: 8054 463c b5ff 09be dc93 263e c06c 153b
000001f0: 8eae ebbd cf79 8cbd c44e 86bd 3b0f 103d
00000200: 9d7b 2b3e c5fc 02be 4e0f d43d 1593 3ebe
00000210: 3dc2 aabe 5ede ae3e 42df 72bc 39a1 ed3d
00000220: 52da 313e 5c82 fbbe 1487 8fbe 9b82 523e
00000230: 54c9 cb3c d67d 5a3e 0286 983e f0ce f1be
00000240: 4da1 15be 0426 603d 7492 2b3d 89ae 9f3e
00000250: fef6 603e df0e cfbd 4aec 46bc 148f 84be
00000260: da49 653e b023 e2ba a0fb bb3d f080 a5be
00000270: 5d53 ad3e 4c85 8f3e accb 68be d6b8 f8bd
00000280: 19c5 273e e67f 963e b7c5 33bf 8fce b5bd
00000290: 0fcd 613e d94e ba3c bde6 d7be cbbb 5f3d
000002a0: bcec 1d3f 34ef 7dbe 7a15 5a3c 0bd4 b33c
000002b0: 369c 9b3e 1da4 cabd ac44 58be 5de5 4b3e
000002c0: f75b 1ebe d5ab 343e 188a 203d c1b9 d9bd
000002d0: 3963 ec3b 0083 e13e b292 333e eb30 ccbe
000002e0: b9c1 573d df11 a13e d090 da3e ce0e 40bf
000002f0: bd21 3fbd 4388 993e 30c4 313d ad32 c6be
00000300: ec71 80bd 13c6 0d3f 8577 38be 9685 07be
00000310: 0649 08be a42b 9c3c 3037 79be 3ea7 2cbe
00000320: 5556 8cbd 61ad b2be 31e2 e83c aa09 04be
00000330: 06ec a3bc 5734 92be 10e9 583e 908f 2c3e
00000340: f739 55be 87c3 4f3e 2c6b 97bd 1a50 883e
00000350: 52ff 36bf 8f0c a13b dcbf 823e eae5 19bd
00000360: 2fe4 bcbe 8624 26bd 08fc 1c3f 6c82 9cbd
00000370: 364a 933c 5960 4f3e 9876 a03e 233e 5d3d
00000380: dbc8 d73c 0d73 0a3e a6af 8f3e d0f6 b63d
00000390: c4c1 d6bd fcd9 1b3d f977 a93d d47f 513e
000003a0: 7269 72bd 6428 45be 05e0 97bd ec2a 723e
000003b0: 9c4f 4e3e 3380 8ebe e1dc aebe a87a 0ebe
000003c0: d317 863e c0ef 62bd 7160 e5bd d254 0bbe
000003d0: 97ab 2e3e c646 863c 4904 66be 4913 eb3c
000003e0: 47a5 1ebe 2949 bd3b 3a30 b4bd c4a8 77be
000003f0: 3e88 19be 136e 32be 2d3d 28be d67c a9bd
-0.07819703 -0.062498342 -0.09794917 0.15611123 0.14445844 -0.2379533 -0.12167596 0.114453256
0.16582784 0.05952523 -0.034242693 0.12426451 0.19085504 0.13847606 0.22676486 0.052571278
0.25297204 0.20801286 0.068965435 0.117790684 -0.08493303 0.024627134 -0.096609645 0.021996837
-0.014124818 -0.11021747 -0.12119256 -0.07638037 0.099778466 -0.0029839508 -0.063829966 -0.13588217
0.11703066 0.009154505 -0.0889607 -0.030077666 0.05596489 0.039241433 -0.08703147 -0.16247898
0.07285412 -0.046271507 -0.044875093 -0.07085326 -0.12819311 0.007306409 0.043446932 -0.20282258
-0.1284299 -0.09994206 -0.09692663 -0.0720357 -0.039413758 0.12808989 0.060015615 0.02732049
0.13056523 0.18608212 0.11656212 -0.13517055 0.012073607 0.04743697 0.10197124 -0.14721793
-0.1356806 0.15728022 0.19659777 -0.016342847 -0.19834377 -0.21639575 0.3000723 0.11198115
0.012405803 -0.20636205 -0.017743308 -0.050656658 -0.045213595 0.2881326 0.11555498 -0.20490114
0.015917346 -0.30848935 -0.06827946 0.37226477 0.06482398 0.068553 0.2079758 -0.42022932
-0.17434043 0.3951083 -0.123363756 0.10517547 0.24249807 -0.20158051 -0.07869996 -0.10794601
-0.0943719 0.06548092 0.076160654 -0.07375448 -0.10790045 -0.016397974 0.12505454 0.06157158
0.030958844 -0.009305333 -0.3377931 -0.32916567 0.23333164 0.100629166 0.3117491 0.2943517
-0.34664038 -0.36021808 0.28062066 -0.0926705 0.29515818 0.13545576 -0.3545765 -0.11017248
0.012105107 -0.1347645 0.16267341 0.0022800416 -0.11507903 -0.06859171 -0.06557992 0.035170775
0.16746373 -0.12791736 0.10354482 -0.18610795 -0.33351317 0.34154028 -0.014823737 0.116030164
0.17368439 -0.49122894 -0.28032744 0.20557635 0.024876274 0.21337065 0.2978974 -0.47228193
-0.14612313 0.054723755 0.041887715 0.31187847 0.2196922 -0.10110258 -0.012141297 -0.2589041
0.22391453 -0.0017253067 0.09178853 -0.32324934 0.33852664 0.28031385 -0.22733945 -0.1214463
0.1638378 0.29394454 -0.70223564 -0.088772886 0.2205088 0.022742676 -0.42168227 0.054622453
0.61689353 -0.2479828 0.0133107845 0.021951696 0.30392617 -0.098945834 -0.21119946 0.19911714
-0.1546477 0.17643674 0.039194196 -0.10631133 0.0072139767 0.44045258 0.17536429 -0.3988107
0.052674983 0.31458947 0.42688608 -0.7502259 -0.046663035 0.29986772 0.04339999 -0.38710538
-0.06271729 0.5538036 -0.18014343 -0.13234553 -0.13309106 0.019063778 -0.24337459 -0.16860673
-0.06852404 -0.34897903 0.028428169 -0.12894312 -0.020010006 -0.28555557 0.21182656 0.1685164
-0.20822893 0.20289432 -0.07393488 0.26623613 -0.7148334 0.004914827 0.25537002 -0.03757278
-0.3689284 -0.040562175 0.6132207 -0.076420635 0.017979722 0.20251597 0.3134048 0.054014336
0.026340893 0.13520451 0.28063697 0.089337945 -0.104861766 0.038049683 0.08274836 0.20458919
-0.05918259 -0.19253689 -0.07415775 0.23649186 0.20147556 -0.27832183 -0.34152892 -0.13913977
0.2619005 -0.055404425 -0.11200035 -0.13606575 0.17057644 0.01639117 -0.22462572 0.02869572
-0.15492736 0.0057765436 -0.08798261 -0.24185473 -0.14993379 -0.17424802 -0.16429587 -0.08275764

conv1.bias f4 [8]
00000000: 92e8 7ebd 6c29 773d 55d0 dfbd 50f1 36bd
00000010: fc48 b8bc 82f3 c8bd 6760 96bd b664 9abc
-0.062233515 0.060342237 -0.10928408 -0.044663727 -0.02249574 -0.098120704 -0.07342606 -0.01884685

batch1.weight f4 [8]
00000000: f30d 3d3f 5246 6a3f fca6 4e3f 7124 813f
00000010: 224a 963f 890c 6d3f 1425 863f 2295 8a3f
0.7384941 0.9151355 0.8072355 1.0089246 1.1741374 0.9259725 1.0480065 1.0826762

batch1.bias f4 [8]
00000000: 4b21 84bd cc27 b1be fffd 51be 11b2 d6be
00000010: d684 88be 3ab8 32be 860f aabe 55dd b9be
-0.06451663 -0.34600675 -0.20507048 -0.4193273 -0.26663846 -0.1745309 -0.33214968 -0.36301675

batch1.running_mean f4 [8]
00000000: 476d 143e 7a00 c1bc f309 3dbe 6730 a0be
00000010: d27b ddbd cddc 0abe 9894 ffbd 9cc7 15be
0.14494811 -0.023559798 -0.18460827 -0.31286928 -0.108146325 -0.13560791 -0.12479514 -0.14626926

batch1.running_var f4 [8]
00000000: 7081 643d 0b79 4b3d 18bd 1d3d 71fd 753d
00000010: 50a1 353e 47e0 043e a6b2 c93d 2f2d a13d
0.055787504 0.049675982 0.038510412 0.060056154 0.17737317 0.1297618 0.098485276 0.07869946

conv2.weight f4 [16, 8, 5, 5]
00000000: 7429 ea3d 4a59 f03d 1e7f 8e3d b46d b03c
00000010: 7a0e 903d 0162 453c b981 533c 1338 9fbc
00000020: f57c 85bc 0f67 863b bc6f 3fbd d4e4 06bd
00000030: 1dd1 a9bd 3d47 81bd face 57bd a305 11bd
00000040: 5f26 85bd 38b6 d7bd 97d4 bbbd fcc0 96bc
00000050: c75e a5bd 7429 c9bd e5d0 9bbd 35a3 adbd
00000060: 9764 dbbc cd31 57bd 93ac 70bd 304b 96bd
00000070: aba5 66bd 17ff 15bd 27e8 89bd 1bad 77bc
00000080: acf2 043d 5fae 183d d82a 983b 5390 b4bd
00000090: 69ff 2dbd aa79 8d3d 196f a93d 7ec6 1f3d
000000a0: 0c39 afbd ff24 21bd a4ac 293e cf8b 8a3d
000000b0: 4800 c43c aee0 5dbc 1664 80bc 91e6 763d
000000c0: 9b78 75bd 0084 37bd 11e4 643d 3b3d 1c3b
000000d0: 4bc4 d43b aca9 23bd a91e 8dbd 5a84 7a3d
000000e0: 1ce9 bc3d 5883 cabc aa67 5cbc f4eb 60bd
000000f0: 4985 d33c 4ba4 dd3d ace6 c73d 3c8b 2f3d
00000100: 5486 353d 7e05 67bd 20ae 2dbc 2891 fc3c
00000110: 97b9 a43c 4e4d 223d 236d 00be 5cb6 9abd
00000120: 0684 c83c 4df2 0e3d 6b1a 97bc 2f8b 1ebd
00000130: 173f 8a3c a7cd 163d 45ba f9bd bcd6 0fbe
00000140: dea1 493d a86a 223e 0ad5 2f3e 39fe 233d
00000150: 2d5d bdbd f6fc 8fbc 539b 553e 9f4b 223e
00000160: 27ef 293b 2ce7 d13d da9f 93bd 0826 da3e
00000170: 5b77 c43c 8807 143d 93a3 bfbc 6669 cfbd
00000180: 5e16 f33b 8d70 03bd 561d dd3d dd05 26bc
00000190: bc42 eabc b0e0 07bd 2000 b0bd f0ac 39bc
000001a0: a93d 933d f149 3cbd 9d00 74bc 5e02 80bd
000001b0: d45d acbb 65f5 afbb aef8 a23b 0744 0ebc
000001c0: 11eb 8b3c c005 b03d 3f6f 963d e368 fa3d
000001d0: f5e1 dcba a761 ad3d 8d61 3f3d 68ee fcbc
000001e0: 866d 2abc cb9e 803d 1780 d63d fa9c 8dbd
000001f0: 228d 19bd 4517 4d3d b479 203c 338f 903a
00000200: a0c1 8cbd e562 36bd bbf1 2cbc 8439 cd3c
00000210: 96ac 44bd ebbc 5abd 2a6a 6abc 9909 d0bc
00000220: f86e 2fbc cd98 86bd 3c25 90bd 684a 92bd
00000230: f538 30bd 75dc 2cbc 4a64 99bd 64c8 a3bd
00000240: 4197 62bd b156 f8bc d770 8a3d fb48 d0bd
00000250: 0f3a 90bd 7e4b 49bc 744f 2dbd 15e0 11bd
00000260: a23b a13c c175 033e 93e7 4c3e 3335 88bd
00000270: ccbf 51bd 7b54 48bc e528 393d 7c28 063d
00000280: 4e41 70bd d983 c23c 58f1 31bc 656f 2ebd
00000290: 87c3 f6bc 9180 22bc b8bd 493d 732f e13b
000002a0: 7d53 f2bc 4bbc cc3c 35bd 9abc f8f3 5f3c
000002b0: 260b 7a3c 24be e9bc b1dc 0dbb cd4e 873d
000002c0: b153 46bd cbcb 3f3d e7c5 353d 6c24 4fbc
000002d0: 43b6 fc3c 5c82 11bd 48ea c73c 689f 50bc
000002e0: 00cc f3bc 2e3e 96bd 7aa5 c4bd 3d04 32bd
000002f0: f06b 98bc 551f c1bc 6854 c7bc ff35 27bd
00000300: bb87 73bb 2c93 32bc eecc 64bd 9f6b bdbc
00000310: c9ec e2bd 999b 4bbd f971 cdbb d6fa c73c
00000320: 98da 72bd e568 abbd 9725 b0bd b90b 94bd
00000330: 7251 eebd d216 573c 3296 22bd 40e4 4cbc
00000340: c054 1ebd 9f6e 9abd d18d 663d d7be a83c
00000350: d4e6 363d 7514 cb3b 09d7 8abd 6133 3c3d
00000360: c86b e43c 21f6 0c3e c6c0 793d 79f6 283d
00000370: ead0 5a3d 4bed 303d 5f9e 8b3d 681f 61bd
00000380: 86c6 cabc 06fa 84bd d639 423d 2b52 653c
00000390: 7b38 05bd c365 21bd 759d 0c3b dd6e 17bd
000003a0: f63b edbc 7b07 95bc 3132 82bd ca53 a7bc
000003b0: fd5a 92bd 2d18 13bd 533d 23bc 5530 8ebd
000003c0: 0fb3 16bc c046 02bd fc7e 743c de93 0b3d
000003d0: b0be 09bd 061c 5c3c a7c5 e03c d74f 013e
000003e0: 1302 883d b207 25ba 6b81 9bbb 87ed fdbc
000003f0: 8b68 0f3d ff4c 98bd 5549 dc3d 38cb edbb
0.11433688 0.117357805 0.069578394 0.021536686 0.07034011 0.012047292 0.012909346 -0.019435918
-0.016294936 0.004101641 -0.046737418 -0.03293307 -0.08291838 -0.06312416 -0.052687623 -0.035405766
-0.06501459 -0.10532802 -0.09171408 -0.018402569 -0.08074718 -0.0982236 -0.07608203 -0.08478395
-0.026781363 -0.052537728 -0.05875833 -0.0733856 -0.056310337 -0.036620226 -0.06733733 -0.015116955
0.032457992 0.03727567 0.0046437792 -0.0881659 -0.042479906 0.06907971 0.08273143 0.039007656
-0.08555803 -0.039341923 0.16569763 0.067649476 0.023925915 -0.013542337 -0.015672725 0.06027848
-0.05992947 -0.04480362 0.055881564 0.0023840207 0.0064931265 -0.039956734 -0.068906136 0.061161377
0.092241496 -0.024720833 -0.01345245 -0.054912522 0.025820391 0.10822352 0.09760794 0.042857394
0.04431756 -0.056401722 -0.010600597 0.030830935 0.020108027 0.039624505 -0.12541632 -0.075543135
0.024477016 0.034899045 -0.018445214 -0.038706955 0.016875787 0.03681722 -0.12193731 -0.14046758
0.049226634 0.15860999 0.17171112 0.040037367 -0.092462875 -0.017576676 0.20860033 0.1584916
0.00259299 0.10249171 -0.07208224 0.4260714 0.023982694 0.036139995 -0.023393428 -0.10127525
0.007418438 -0.03208976 0.10796611 -0.010133234 -0.028596275 -0.033173263 -0.08593774 -0.011332735
0.07189495 -0.045968954 -0.014892724 -0.062504515 -0.0052602086 -0.0053698295 0.0049734926 -0.008683211
0.017079862 0.08594847 0.07345437 0.12227037 -0.0016852008 0.08465891 0.04672389 -0.0308754
-0.010402089 0.06280287 0.1047365 -0.069147065 -0.03748811 0.05007102 0.009794641 0.0011029005
-0.068728685 -0.044527907 -0.01055568 0.02505184 -0.048016153 -0.053402822 -0.014307538 -0.025395202
-0.010707609 -0.06572113 -0.07038352 -0.07143098 -0.04302307 -0.010550608 -0.07489832 -0.07997206
-0.05532003 -0.030314775 0.06759804 -0.1017017 -0.07042324 -0.012286065 -0.0423121 -0.035614092
0.019681755 0.12837888 0.20010214 -0.06650772 -0.051208302 -0.012227173 0.045205016 0.032753453
-0.05865603 0.02374451 -0.0108607635 -0.042586703 -0.030122532 -0.009918348 0.049253196 0.0068721115
-0.029580826 0.024992129 -0.018889049 0.0136690065 0.015261447 -0.028533049 -0.0021646435 0.06606827
-0.048419658 0.04682521 0.044378188 -0.012642961 0.030848628 -0.03552471 0.024403706 -0.012733318
-0.02976036 -0.073360786 -0.09601875 -0.043461073 -0.018606156 -0.02357451 -0.02433224 -0.04082298
-0.003715976 -0.010899346 -0.0558595 -0.023122607 -0.110803194 -0.049708936 -0.00626969 0.0244116
-0.0592905 -0.083696164 -0.0860092 -0.072287984 -0.11636628 0.013127999 -0.03969402 -0.012505591
-0.038655043 -0.075406305 0.05628759 0.020598812 0.04465373 0.006197507 -0.06779296 0.045947436
0.027883425 0.13765766 0.06097486 0.04125068 0.053421892 0.04319505 0.06817316 -0.054961592
-0.024752866 -0.06493001 0.047418438 0.013996641 -0.032524567 -0.03940369 0.0021456156 -0.03697096
-0.028959256 -0.018192044 -0.063572295 -0.020425696 -0.07146261 -0.035911728 -0.009963351 -0.06942812
-0.009197964 -0.031805754 0.014922854 0.034076564 -0.03362912 0.013434416 0.027437998 0.12628113
0.066410206 -0.0006295397 -0.0047456524 -0.03099705 0.03501181 -0.07436561 0.107561745 -0.0072568916

conv2.bias f4 [16]
00000000: 6640 6c3d 30bc 3b3d e010 423d ea3a 5e3d
00000010: 0f14 07bd 0486 21bd 32ee 31bd dc21 bf3c
00000020: 2053 e13c 9866 703c 95d1 5ebd 52d4 cd3b
00000030: a5b0 19bd 00d2 63bc 9c59 33bc a059 663b
0.057678603 0.045833766 0.047379375 0.054255404 -0.032978114 -0.039434448 -0.04344005 0.023331575
0.027505457 0.014672898 -0.05439909 0.006281414 -0.037521977 -0.013905048 -0.0109466575 0.0035148636

batch2.weight f4 [16]
00000000: 6df4 d83f 7a84 cb3f 54ad f63f 3467 e03f
00000010: b15f d73f 89e3 eb3f 4f3a d43f 4039 fa3f
00000020: 1e43 f33f 0624 e83f 18f9 e33f 16ec d43f
00000030: fc4c df3f e32c f33f 07d7 d33f c551 db3f
1.6949593 1.5899804 1.9271646 1.7531495 1.6826078 1.8428813 1.6580294 1.9548721
1.9004858 1.8135993 1.7810392 1.6634548 1.7445369 1.8998073 1.6549996 1.7134329

batch2.bias f4 [16]
00000000: 048d 3dbe 5f29 a6be ab03 2abf ca5f dabe
00000010: 9c94 b1be 75c3 96be 89bc 8dbe 9453 16bf
00000020: 8b09 e6be 9523 0ebf 6455 bbbe 3061 08bf
00000030: 26a7 86be 5c94 02bf 4910 92be 88bc a9be
-0.18510824 -0.3245344 -0.66411847 -0.42651206 -0.34683692 -0.29445997 -0.27682903 -0.5872128
-0.44929156 -0.55523044 -0.36588585 -0.53273296 -0.262994 -0.5100763 -0.2852805 -0.3315165

batch2.running_mean f4 [16]
00000000: 67e6 22bd bcb9 a8bd 2768 2bbe 1b61 97be
00000010: 7a7c c9be c3aa d5be 2a19 3dbf be1e e8bd
00000020: 6900 43bf d918 abbd 03e5 c1be 97a6 1c3e
00000030: 6eac 4f3b a1d0 2fbf 91ea c4be 95d8 e2bd
-0.03977051 -0.08238551 -0.1673895 -0.29566273 -0.3935278 -0.41731843 -0.7386652 -0.113339886
-0.761725 -0.08354349 -0.37870035 0.15297924 0.003168847 -0.6867772 -0.3846021 -0.11076466

batch2.running_var f4 [16]
00000000: eba2 ee3e 7364 f73e 0ac7 2f3f b2ef 1d3f
00000010: 9366 0a3f 2c55 153f cb2a 1b3f 79c7 493f
00000020: 2b87 883f 0292 043f 7035 063f e2a0 f73e
00000030: 0cc5 203f 88ae 5a3f 44a3 0a3f 894d 213f
0.46608672 0.48318824 0.68663085 0.6169387 0.54062766 0.58333087 0.6061217 0.78819996
1.066625 0.5178529 0.5242529 0.4836493 0.6280067 0.85422564 0.54155374 0.63008934

fc1.weight f4 [120, 1024]
00000000: 3b21 483d 15a5 dd3c e139 4f3c 4cf5 8a3c
00000010: 5ca3 893d e1ad 0b3d 51cb d2bb 36b8 d1ba
00000020: a6a1 cc3d 863f c03c d0d0 753c c321 6dbd
00000030: 7f79 ac3b 725c 5c3c b444 733c 5e39 84bb
00000040: 477b 533d 22d2 fd3b ac47 d53c 49db 01bb
00000050: 5b32 4d3c f05e 973b 7fa8 e73a e358 aa3b
00000060: 36f9 7dbb b2fb 09bd c12e e0bb 3b00 8ebc
00000070: 65e1 f0bc 2707 85bb de43 85bc 3631 073d
00000080: 7f0f 8b3b 17a5 8abd 304d 9abb e8fb 1dbd
00000090: 1fd6 9dbd 0075 19bd be89 e8bb 421c 453d
000000a0: d23f 1bbd 3502 4cbd 17a8 a5bd 88b3 173c
000000b0: b041 abbd d799 61bd a46f e5bc ce24 753c
000000c0: 788a cebc c986 9bbc 7e28 a7bd 7738 d7bc
000000d0: 127b e5bc be89 d73c 36c5 5ebc fbc1 d9bc
000000e0: 07b2 ca3c bcce 62bd 51dd 64bd b243 12bd
000000f0: 9572 86bc 83b8 04bc 4e8b 96bc 6eab 5a3c
00000100: 383e e63c 1039 bf3c 4dc8 54bc 0540 88bd
00000110: c057 723c 8a13 9c3c 11e2 c03c 44e0 9bbc
00000120: eaf2 5b3c c1f4 413d f72e 80bc ca7e 34bd
00000130: a81b a93c e87f a4bc 5389 363d da04 37bd
00000140: f2d6 b6bc 2f8c 8cbc 56e0 a8ba ce6a af3c
00000150: 45c3 9f3b dfab 203d f7a7 213d f7fb eabb
00000160: 8de0 043d fa30 903b 06ab 0d3d 7525 ef3b
00000170: 357e 363c 374c 03bc d5a5 d23c 7bd4 b6bb
00000180: 6342 9a3c 6f61 733c 4711 4e3d 7b59 c53c
00000190: 6d72 2f3d 7442 8638 a9aa 923c 284b 66bc
000001a0: 860a e13c 733e 9bbc 5857 133d 3414 bd3d
000001b0: 400b 343c 54d9 d83c 285a b23c 67c3 793c
000001c0: e656 d03c 7f8f 013d ed2d 1c3d cec0 a1bc
000001d0: b8c2 303d c316 3f3d d41f 3e3c 9a82 73bd
000001e0: 9bee 193d 46fe b93b 39ad d8bb d93d 4bbc
000001f0: f9da 93bc 0a70 debc ed95 04bc 7368 a8bc
00000200: b306 d53b 03b7 46bd 2249 b63d af25 9bbc
00000210: 6135 933c efb7 1c3d 489c 1abd 3e7e 413c
00000220: 6172 acbc 9879 1ebc 2928 85bc 45ed b03b
00000230: 5c93 473d 5568 c13c 3d13 60bc 8b6a 4139
00000240: 2a30 763b b5c6 5fbc 2fdf b73c 25a4 053b
00000250: 93fe e43a fdb3 fcbc 04a3 53bd 1b8e 593c
00000260: 25f6 1a3d 527f 8b3c 1a5b e73b f2d9 a53c
00000270: e524 bcbc 4dea 603c 23e5 873c f18d 58bc
00000280: d1ac 183d 2255 093d 0421 1f3d bb1a 4ebd
00000290: 8bef f8bb 74c5 c73a a3f3 29bd 1e62 a1bc
000002a0: 0d54 f83c df99 65bc 4d48 653c eca3 013d
000002b0: cd4e 833c 1518 6abc 57a5 febd 1adb 97bc
000002c0: 5e7f 6b3d 1ce6 113d 080d cdbb 18e2 d5bc
000002d0: 110a 773b 21f6 f23a 1be2 05bd e084 60bc
000002e0: 64d5 5e3c 90de 30bd cc80 8dbc f161 203b
000002f0: edee 01bd 204c 3cbd 86ea e5bc 68d5 84bc
00000300: 1527 f83b 780b 64bd 0b4e dcbb eaff 02bd
00000310: 3c88 a3bb 9589 47bc a0d1 44bd f31a f93c
00000320: 9287 24bd 63e3 093c a46f 6f38 35ff 92bd
00000330: dc4a f0bc a822 1bbd a34d 30bd 7f20 94bc
00000340: 83f7 3d3c d608 14bd f28a f53c 6ab8 c4bc
00000350: 4625 db3c 4e2a 3dbb 4a5b 023d e71e 08bd
00000360: 396f 4f3c 6e4d 2e3d 5de4 423a 2f7f 39bd
00000370: f3df 623d 9347 7e3c a45a 743b 2c22 3bbc
00000380: 8927 2fbd 0586 b73c 7cfc 853c c1ea 933c
00000390: b408 283d f807 213d 8f97 6e3b b7b7 ec3c
000003a0: d502 2ebd fe62 e63c 2b76 b03c 2f16 953c
000003b0: 780d db3c 0cb6 283d e694 9fb7 55df a7bb
000003c0: 45c3 e7bc 9914 4ebd 652b 8d3c 7e5b c13c
000003d0: 3a16 193d c7aa 3fbb 3d93 babb 7560 833c
000003e0: 91c1 0bbd 189b adbb 796d 093d b3c6 a93c
000003f0: 3b39 0a3c 8a69 1ebd 52c1 493c b14a 103b
0.048859816 0.027056256 0.012648077 0.01696267 0.067206115 0.03410137 -0.0064329286 -0.0016000334
0.099917695 0.02346779 0.015003398 -0.057893526 0.005263507 0.013449775 0.014847923 -0.004035159
0.05163124 0.007745997 0.026035152 -0.0019814542 0.012524213 0.0046194717 0.0017674117 0.0051985844
-0.0038753278 -0.0336873 -0.006841511 -0.017334094 -0.029404351 -0.0040596905 -0.016267713 0.033005916
0.0042437906 -0.0676977 -0.0047089085 -0.038570315 -0.07706856 -0.037465096 -0.0070964983 0.048122652
-0.03790266 -0.049806792 -0.08088701 0.009259112 -0.08362138 -0.055078354 -0.028007336 0.014962388
-0.025212511 -0.018985169 -0.0816202 -0.026272042 -0.028012786 0.026310798 -0.013596823 -0.026581755
0.024743093 -0.05537294 -0.055875126 -0.03570909 -0.016412059 -0.008100632 -0.018376973 0.013346536
0.02810584 0.02334264 -0.012987209 -0.06652836 0.014791429 0.019052286 0.023545297 -0.019027837
0.013424614 0.047352556 -0.015647395 -0.044066228 0.02064307 -0.020080522 0.044564556 -0.04468236
-0.02231929 -0.017156688 -0.001288424 0.021413233 0.004875573 0.03922641 0.039466824 -0.00717115
0.03244071 0.0044003697 0.03458693 0.0072981664 0.011138489 -0.0080137765 0.02571384 -0.005579529
0.018830484 0.014854773 0.050309446 0.02409052 0.042833734 6.401996e-05 0.017903643 -0.014056005
0.027470838 -0.018950677 0.03597197 0.09232369 0.01098901 0.026470818 0.021771505 0.015244341
0.025432061 0.03163099 0.038129736 -0.019745257 0.04315445 0.046652567 0.011604268 -0.059450723
0.037581068 0.0056760637 -0.0066124466 -0.012404882 -0.01804875 -0.027153034 -0.008092386 -0.020557618
0.0065010427 -0.048514377 0.08900668 -0.018938867 0.017969789 0.03826135 -0.037746698 0.011809884
-0.021050634 -0.009672545 -0.016254501 0.0053993785 0.048724517 0.02360932 -0.013676462 0.00018445605
0.003756533 -0.013658215 0.02244529 0.0020392027 0.0017470889 -0.030847544 -0.051669136 0.0132785095
0.037832398 0.017028484 0.0070604207 0.020245526 -0.022966811 0.013727737 0.016588753 -0.013217435
0.037274186 0.033528455 0.038849846 -0.05031846 -0.007596915 0.0015241341 -0.041492116 -0.019700106
0.030313516 -0.0140137365 0.013994289 0.03165047 0.016028786 -0.014287968 -0.1243388 -0.018537093
0.057494514 0.03561984 -0.006257657 -0.026108786 0.003769521 0.0018536487 -0.032686334 -0.013703555
0.013600681 -0.043181002 -0.01727333 0.002447244 -0.031721998 -0.045971036 -0.028065931 -0.016215041
0.0075730183 -0.055675 -0.0067231706 -0.03198234 -0.0049906056 -0.012178798 -0.048051476 0.030408358
-0.040168352 0.00841603 5.7086014e-05 -0.07177583 -0.02933257 -0.037874848 -0.04304279 -0.018081902
0.011594656 -0.03614124 0.02997348 -0.024013717 0.026751172 -0.0028864327 0.03182534 -0.033232596
0.012660795 0.04255431 0.00074345415 -0.045287307 0.055389356 0.015519994 0.0037285471 -0.011421721
-0.042762313 0.022402773 0.016355745 0.018056275 0.041023925 0.03931424 0.0036406254 0.028896196
-0.04248317 0.028123375 0.021540722 0.018199055 0.02673982 0.04118924 -1.9023613e-05 -0.005123059
-0.028291354 -0.050312612 0.017232606 0.023603197 0.037374713 -0.0029246078 -0.0056938217 0.016037205
-0.034120146 -0.0052980296 0.033551667 0.02072463 0.008436496 -0.03867487 0.012314158 0.0022017176

fc1.bias f4 [120]
00000000: 7c0d 1a3c 6640 463d 4840 883c 3010 e73c
00000010: e2b9 0f3d 89d8 2e3d fa53 dcbc 137f f83c
00000020: d718 d53c 8407 c5bc 84c4 ab3c c917 d33b
00000030: 59b3 8e3a 6927 993c 78b1 e2bc af46 9dba
00000040: 83f2 c3bc 0f0a 16bd e15e 713c 478f ddbc
00000050: db07 a4bc a630 c8bc dab2 013c c537 6d3c
00000060: 8efe 9dbb a22b c5ba ba8b bb3c 548c 7b3d
00000070: e975 d93c 1add 1e3c 3984 d83c fda1 2c3b
00000080: 714f ca3c 5904 0a3d b282 dc3c 970d 9f3c
00000090: ef38 053d 8138 fbbc 8086 183d 7cc7 863c
000000a0: aab0 423d b0ae 113d 03d6 98bb bac6 8c3d
000000b0: 9fc9 bdbc c77f 6ebd b210 ac3b 07bb 9fbc
000000c0: 065a 5dbc dd6f 01bc 7d59 8a3b c332 053d
000000d0: bd4b 45bc 0ef0 abbc 67a0 843a c795 5aba
000000e0: 9e8f 9abc 7e58 6ebd e57f 60bd 69e1 7a3b
000000f0: 6f12 a53c 8916 0d3d 0063 2e39 ab44 a83b
00000100: 50c9 153d ff14 8e3c 5545 333d 39ed 7f3b
00000110: 3ed6 30bd f076 3fbc d97b 913c 542e f13c
00000120: 195b e63c 9027 f73b 71c3 38bc d6f8 a0bc
00000130: c1bb ea3c 947a cd3c 11ff ff37 bd81 32bc
00000140: a3d2 3f3d 98af ff3c 18a9 f8bc 3279 213d
00000150: 2199 22bc 91d3 2c3c b81c 85bc 6591 c63c
00000160: 1feb 073d 2c90 f2bc 46d3 4239 ef41 a3bc
00000170: 9b3a c2bb 12b0 36bc e1cb 55ba 8261 3e3c
00000180: ba9f 20bc 2335 8dbc b4bd 1dbd 7525 083c
00000190: b9cc 093b f9e3 84bc 8c51 f53c 5c3d 623c
000001a0: a544 96bc 834b 323c 5918 053c 0e45 33bc
000001b0: 65f3 c13c ab32 e5bb 476f f1bc c4d5 41bc
000001c0: ee78 19bb 34eb 2a3c bdc1 893c e08f d3bb
000001d0: 6e0f cf3a 6174 65bc 43b8 91bc 0bd3 df3c
0.009402629 0.04840126 0.016632214 0.028205961 0.03508938 0.042686973 -0.026895512 0.030334031
0.026012821 -0.024051435 0.02096773 0.0064420444 0.001088719 0.01869555 -0.027672514 -0.0011999215
-0.02391935 -0.036630686 0.014732094 -0.027045859 -0.020023277 -0.02443726 0.007916177 0.0144786285
-0.004821605 -0.0015042911 0.022893775 0.061413124 0.026545482 0.009696269 0.026430236 0.002634167
0.024696084 0.033695552 0.02691779 0.01941566 0.032525 -0.030666592 0.037237644 0.016452543
0.04753176 0.035566986 -0.004664184 0.068738416 -0.02316743 -0.058227327 0.0052510137 -0.019498361
-0.013510233 -0.007900205 0.0042220936 0.032519113 -0.012041983 -0.02098849 0.0010118604 -0.00083383586
-0.01886731 -0.05818986 -0.05480947 0.0038281328 0.020150391 0.03444532 0.00016630813 0.005135139
0.03656894 0.017343996 0.043767292 0.0039051308 -0.043173067 -0.011686072 0.01775925 0.029441036
0.02811961 0.007542558 -0.011277066 -0.019649904 0.028653981 0.025082864 3.0517143e-05 -0.01089519
0.04683174 0.03121166 -0.030354068 0.03942222 -0.009924204 0.010548488 -0.016249046 0.024239251
0.033183213 -0.029609762 0.00018579987 -0.0199289 -0.0059273965 -0.011150377 -0.00081556855 0.011619927
-0.009803707 -0.017237252 -0.038510993 0.008309712 0.0021026565 -0.016221987 0.029946111 0.0138085745
-0.01834328 0.010882261 0.008123481 -0.010941757 0.02367563 -0.0069945655 -0.029472006 -0.011830751
-0.0023418027 0.010432053 0.016816014 -0.00645636 0.0015797445 -0.014004798 -0.017788058 0.027322313

fc2.weight f4 [10, 120]
00000000: 01aa a6be 91b8 60bd fd9e d23d ae3e d43c
00000010: b141 b3bc 8791 8fbe bf4f ab3d 71be 35be
00000020: 13c8 18be 6526 a7be 6b5c af3d ad91 6b3c
00000030: 495a a9bc 890e 98bd 10ab db3d 9eab 5d3d
00000040: 52d9 0f3e dfc3 453e b3d5 b6bd c3f3 ba3e
00000050: 623c d43d 5446 423e 3582 583e ed8f 223d
00000060: 2256 58be bc41 89be eb92 2e3e 3e31 52be
00000070: 5378 5d3d c180 8a3d 8eae 8cbd e77c b13e
00000080: 6d13 f93d abe9 8bbd d6e1 63be 221b cb3e
00000090: 4d92 113e 92fb df3d f9be 85be a7e9 9bbe
000000a0: a47e 98be d6fe c7bd 4f0b 0abe d876 26be
000000b0: ef6e ac3e 28a7 993e 1fa3 293e a1f7 313d
000000c0: 407b d2bd fe47 5dbd 89b7 883d 3d31 b3bd
000000d0: 1c6f 3cbe 49b9 6c3c 38e4 8bbe 3f39 8f3d
000000e0: b9fe 773e 64dc e23e 5603 5b3e a8cf 83bd
000000f0: f6b9 a2be 130a 83be 9a13 153e be20 5cbe
00000100: 3b1e 893d 456b b3be 83ae 3bbe 4706 4ebd
00000110: 318d c33e cc0f 283d 1033 453e 5f7a 1ebe
00000120: e59b 6b3e 7a77 d23d 54f1 4d3d a56c ac3b
00000130: 21dc f73d 34cf 813e b8b5 2abe 0507 08be
00000140: 0732 e2bd 816a 5a3d 0234 e0bc 57d5 be3d
00000150: 9b5d 04bc 0481 e03e 24db 88bd feec 72be
00000160: a40b 4ebe fd8e b43e 40aa 87be 1c97 84be
00000170: 0b20 bebe bda7 e23c 4f70 433d b584 01bc
00000180: 2ffb 3f3e 6a91 09be 822b f6bc 1e88 b53d
00000190: 4b6b 2e3d cdaa 2bbe 9cbb ef3c d138 943e
000001a0: 4b0c ebbd 62f8 1f3c c2dc 5d3e aa74 bf3d
000001b0: bb57 863a 06d3 d73d 72b1 713e f6ba 383e
000001c0: 4fb3 843b ff5e 76bd 2a5b 1d3e d552 81be
000001d0: 9673 1e3e dcc7 69bd ea12 253d aa7d 33be
000001e0: 23c3 f5bd 2d6f 81be a743 323e bac9 00be
000001f0: 8171 86be 94c5 08be 8d1c 663e a104 963e
00000200: 7643 ac3d b325 b4bc ace0 433d 6fc8 0b3e
00000210: c2dd 9dbe 8f74 5ebd a673 633e 6191 0cbe
00000220: d526 e13b 1662 a2be d5f6 983c c4ba 3fbe
00000230: 6842 bcbe d7d3 1d3e de5e e13c 38b7 8abd
00000240: 37db a0bd 8ebd 203e 3bbd 8f3e 6bfb 7abe
00000250: 2de5 f83e 6dde afbe 3132 79be acc7 85be
00000260: 0360 c8bc 8ff6 9ebe 4262 1d3e a1d0 b1bb
00000270: 3896 8cbc db2b f8bd c138 55be 0c09 89bd
00000280: 985b 54be 15f6 c13e 5480 06be 3680 433e
00000290: 3ded 443a aab2 b0bd 3df2 49be a95c 0fbd
000002a0: 44df a03e 45a2 593d 67a5 483b 447d ed3d
000002b0: bf63 6d3c 0d37 e9bc 8e43 acbd 1af1 50be
000002c0: eb53 68bd f2b6 83bd 5c51 803e 03ca 8f3d
000002d0: 3f87 593d 0df9 26bb a910 f73d 8755 f93d
000002e0: f5a3 9ebe 29cc 0e3e 95ee d2bd d8dd f33e
000002f0: fb29 b4bc c141 34be c2fd 823e 9433 8dbe
00000300: c752 5dbe b8ad 27be 2c5c b63d 249d 253d
00000310: 69db 64be 10ab 113e 9f55 793e 42ea 6f3d
00000320: ad63 f8bd b08f edbd 05e6 f83c 280b 063e
00000330: 87c3 18be 05b8 953e 7c48 8d3e fb80 c1bd
00000340: 3d0e 46be 7f2d 88be 330c 8bba 8e4d c9bd
00000350: d2f8 dd3d d79a 74be 2b1c a1bd d5db f0bd
00000360: df99 b5be 75cf 6a3c 9c40 1a3e 2c62 263e
00000370: 23ff 8dbe 9b25 79bd d6ad 433e 8315 12be
00000380: 977d dc3c e82c 12be 5ebc 49bc e0bb a83d
00000390: 5d60 d1be c921 063f 9ace 31be 17df 8b3d
000003a0: 1b34 47be 809f 5dbb b76b d5bc deac e03e
000003b0: a1db 0abe 5a53 39be 480a 613e 07c9 0dbe
000003c0: 3357 88be bc7b 423e b781 12bd 94cc 34bd
000003d0: 7ac3 bcbd bc86 c13e 21c4 2cbe 017e 89bd
000003e0: 824c 583d c192 d93d 01ad e63d d8ed e63d
000003f0: f600 33be b8a0 153d 73c6 75be c15c ee3e
-0.32551578 -0.054863516 0.10284231 0.025908794 -0.02188191 -0.28040716 0.0836482 -0.17748429
-0.14920072 -0.3264648 0.08562549 0.0143779935 -0.020672934 -0.07424647 0.10725987 0.054118745
0.14047745 0.19313 -0.08927479 0.365141 0.103630796 0.1897214 0.2114342 0.03968804
-0.21126607 -0.26807964 0.17048232 -0.20526597 0.05406983 0.06762839 -0.06869231 0.34665605
0.12161908 -0.06831678 -0.22254118 0.39669138 0.14215966 0.10936655 -0.26122263 -0.304517
-0.2978412 -0.09765403 -0.13480876 -0.16256273 0.33678386 0.30010343 0.16566132 0.043449048
-0.10277414 -0.054023735 0.066756316 -0.08749626 -0.1840176 0.014448472 -0.27322555 0.06993341
0.24218263 0.4430877 0.21387991 -0.06436092 -0.31782502 -0.25593624 0.14558259 -0.21496865
0.06695219 -0.35042778 -0.1832829 -0.050298955 0.38193658 0.04103069 0.1925776 -0.15476368
0.23008688 0.102766946 0.050278977 0.005261975 0.12102533 0.25353396 -0.16670883 -0.13283928
-0.11044698 0.053324226 -0.02736855 0.09318035 -0.008078958 0.4384843 -0.06682423 -0.23723218
-0.20121628 0.3526534 -0.26497078 -0.25896537 -0.37133822 0.027667874 0.047714528 -0.007905175
0.18748163 -0.13434377 -0.030050043 0.08863853 0.04258279 -0.16764374 0.029264264 0.28949597
-0.11476954 0.009763809 0.21666244 0.09348424 0.0010249534 0.105382964 0.23602846 0.1804007
0.0040496956 -0.06014919 0.15366808 -0.25258508 0.1547378 -0.057075366 0.04030124 -0.17528406
-0.1200011 -0.25280133 0.1740862 -0.12576953 -0.26258472 -0.1335662 0.22471829 0.29300407
0.08411305 -0.021990633 0.047821686 0.13650678 -0.3083325 -0.054310378 0.22212085 -0.13727333
0.006871084 -0.3171546 0.018672386 -0.18723589 -0.36769414 0.15412842 0.027511057 -0.067732275
-0.07854312 0.1569731 0.2807406 -0.24509971 0.48612347 -0.34349385 -0.24335553 -0.261289
-0.024459844 -0.31047484 0.15369514 -0.005426482 -0.017161474 -0.1211774 -0.20822431 -0.06691179
-0.20738065 0.37883058 -0.13134891 0.19091877 0.0007512158 -0.086278275 -0.19721313 -0.035000477
0.31420338 0.053133268 0.0030616166 0.11596158 0.014489113 -0.028468633 -0.084113225 -0.20404473
-0.056720655 -0.064313784 0.25062072 0.070209526 0.053107496 -0.0025478036 0.120637245 0.12174516
-0.30984464 0.13945068 -0.10299412 0.4763019 -0.021992674 -0.17603208 0.25584227 -0.27578413
-0.21613608 -0.16374862 0.08904299 0.040433064 -0.22349323 0.14225411 0.24349068 0.058573015
-0.12128387 -0.11599672 0.03038312 0.13090193 -0.14918338 0.29241958 0.27594364 -0.09448429
-0.19341369 -0.2659721 -0.0010608494 -0.098292455 0.10838474 -0.23887192 -0.07866701 -0.1176068
-0.35468957 0.014331688 0.15063709 0.16248387 -0.27733716 -0.06082688 0.19109282 -0.14266019
0.026915355 -0.14274943 -0.012312977 0.08238959 -0.40893832 0.523953 -0.17363968 0.068296604
-0.1945347 -0.0033816993 -0.026052339 0.43881887 -0.13560344 -0.18098202 0.21976578 -0.13846217
-0.26629028 0.18992513 -0.035768237 -0.044140413 -0.09216972 0.37798107 -0.16871692 -0.067134865
0.05280734 0.10623694 0.112634666 0.11275834 -0.17480835 0.036530226 -0.24001484 0.4655514

fc2.bias f4 [10]
00000000: cb82 31bd d0b5 a9bb c9e0 56bd 1ccc 90bc
00000010: af36 1d3e 1910 ad3d a705 6b3c fccf 0b3d
00000020: e3e5 4ebd 576f aa3c
-0.043337625 -0.0051791444 -0.052460466 -0.017675452 0.15352891 0.08450336 0.014344609 0.034133896
-0.050512206 0.020805044
