models/net/model_epoch_44.pt (torch, 517807 bytes, 16 tensors)

conv1.weight f4 [8, 3, 5, 5]
00000000: 8bf3 85bd 473b 01bd 6f49 97bd e0c2 283e
00000010: 5e75 0b3e 5926 4ebe beea d2bd dec4 e33d
00000020: 4357 1d3e 90c4 2e3d dd16 fa3a 3d21 f43d
00000030: 1604 383e 09e3 e83d 6b54 433e 3eb0 923d
00000040: 46b8 783e 33dd 353e a514 473d 9d21 e33d
00000050: 2f48 7ebd 1977 b33c d815 c1bd 507e 0b3d
00000060: 0dcc 08bc 9133 f3bd bbd8 d6bd 6663 88bd
00000070: 869b c53d 9083 69bc 2057 3ebd 41d6 03be
00000080: 5095 db3d e0ca 7d3a 9c3a 9dbd b004 5bbc
00000090: 62af 3e3d b515 213d f2d7 a7bd 4c75 1dbe
000000a0: cfbe 993d 4187 3abd e42c 35bd 647f 46bd
000000b0: 4fe9 cdbd bc96 babb 9371 163d 5c0d 3abe
000000c0: a1f5 c8bd 3b71 acbd 696f e3bd b36c 6fbd
000000d0: 402c 01bd 8d78 0c3e 9011 833d dd31 0f3d
000000e0: eda7 073e ab15 293e 46ac f13d 9f87 e0bd
000000f0: 40a0 a93c 822e 1b3d e0b6 c43d 2cf0 04be
00000100: 69ec e7bd 509b 0a3e 5a83 3a3e 5115 18bd
00000110: fc5c 40be e800 52be 8743 873e 19d5 c03d
00000120: 32a5 983c 6040 3fbe 03c4 e0bc f713 08bd
00000130: 1570 46bd 784e 873e d33b fc3d d025 4abe
00000140: c5e9 9d3c 4fad 8fbe bf29 5cbd 12f8 9f3e
00000150: c78d 973d 2276 a33d 2884 383e 3b25 babe
00000160: bc15 33be 4a31 ae3e 04c3 c8bd 0a0f b23d
00000170: da01 633e 0629 29be a11f afbd 5524 eabd
00000180: d9c0 a0bd 99ab 653d 61c1 833d 5226 afbd
00000190: 53d3 d5bd 95d0 edbb 0adb fe3d 9d8a a63d
000001a0: 3ecb ce3c 606f edbc eb65 9ebe e67f 95be
000001b0: d47d 483e 843c dd3d 29bd 9a3e 1073 813e
000001c0: a1f9 8ebe 7052 aabe 5f59 7f3e 75ca 9abd
000001d0: 1fa2 8e3e 71e5 e83d 802b a1be 1b86 ccbd
000001e0: 1a32 143b 5419 eebd 914d 1a3e 93d5 dfbb
000001f0: c276 edbd 621e 8abd 0919 88bd 2f8d 643c
00000200: ead6 273e 6222 03be d364 dd3d f80c 27be
00000210: 1154 a1be e613 9a3e db33 463c a22f e53d
00000220: 598f fd3d 7f09 e1be e8ea 82be e9cb 3d3e
00000230: e4a4 f93c c3b9 333e 2d9d 853e 0d80 debe
00000240: 038f 10be 9f05 3b3d ad71 333d 79e2 8d3e
00000250: 0fa3 4c3e 05eb dabd d059 1a3c 495a 78be
00000260: 60cd 613e 6d6d b3bc 3110 d23d b947 9dbe
00000270: c6ff a23e eb58 753e 4552 54be f213 e1bd
00000280: 5081 0f3e 4921 883e 337f 1cbf 3312 f5bd
00000290: 3f01 703e 4025 403c f279 c8be 5626 543d
000002a0: 078f 0c3f ca95 60be fdf5 daba dcf5 cf3c
000002b0: c419 8c3e a3a3 92bd 7e7c 4dbe f831 543e
000002c0: aadd 18be 4814 363e 4134 133d f386 cabd
000002d0: c809 8b3c 5123 de3e 0332 273e 6c7d b5be
000002e0: 66ff 683d 89ea 8f3e d76f cb3e 74b7 27bf
000002f0: 6453 8cbd 3328 953e 9521 1d3d a5f1 b8be
00000300: a26c 83bd bae6 003f eccb 22be f67d f8bd
00000310: d00a febd 458d bbbb 4887 56be d623 2dbe
00000320: 37b9 8fbd b0a0 afbe def2 103d dc75 fbbd
00000330: 758f a2bc fca8 85be df39 4b3e 1e7e 0b3e
00000340: d27f 3cbe 76ce 3a3e 6f7d 81bd ca1d 733e
00000350: 3f6e 24bf 98a7 b3bc 12c2 833e 0390 dabc
00000360: 6064 b1be 65a1 48bd ce2b 0d3f 0948 80bd
00000370: b528 203c b02d 4d3e 7bcd 913e 5af1 9e3d
00000380: 5d10 003d 7cab e53d 4bff 803e 623a a53d
00000390: 43ae d2bd 61c3 0f3d acac 4e3d 325e 463e
000003a0: 3403 3cbd 92c9 27be a43d 51bd 8ed6 3e3e
000003b0: cc61 353e 7d4b 87be 75b9 a6be 50fb 0abe
000003c0: bef7 6e3e 4c93 1dbd c3e4 d0bd 2503 fcbd
000003d0: 7330 253e 3058 acbb 89f4 49be 9de0 ca3c
000003e0: ed48 17be c2bd c23c 988e bfbd edd9 6bbe
000003f0: 5b59 06be 8fbd 2abe a63b 13be 2b0f b0bd
-0.06540593 -0.031550672 -0.07387053 0.16480589 0.13618991 -0.20131816 -0.1029868 0.11121534
0.15365319 0.042667925 0.00190803 0.11920402 0.17970309 0.113714285 0.19075172 0.07162522
0.24289045 0.17760162 0.048603673 0.110903956 -0.06208056 0.021907376 -0.094279945 0.034056008
-0.008349431 -0.1187507 -0.10490557 -0.06659584 0.09648804 -0.014252558 -0.046469808 -0.128747
0.107218385 0.0009681415 -0.076771945 -0.013367817 0.046553977 0.039327342 -0.08195485 -0.15376776
0.07507097 -0.045539144 -0.044232264 -0.048461333 -0.10054266 -0.0056942385 0.036729407 -0.18169159
-0.09812475 -0.084200345 -0.11105234 -0.058453273 -0.03153634 0.13717861 0.06399834 0.034959663
0.13247652 0.16512172 0.11800437 -0.10963368 0.020706296 0.03788615 0.09605193 -0.12982243
-0.113243885 0.1353581 0.18214169 -0.037129704 -0.1878547 -0.20508158 0.26418707 0.09415645
0.018633459 -0.18676901 -0.027437216 -0.033222165 -0.048446734 0.26427054 0.12316098 -0.19740987
0.019276509 -0.2806191 -0.05375075 0.3124395 0.07400089 0.079815164 0.18019164 -0.3635653
-0.1748876 0.3402198 -0.09802821 0.08694275 0.22168675 -0.16519555 -0.085509546 -0.11432711
-0.07849283 0.05607185 0.064333685 -0.08552231 -0.104406975 -0.007257531 0.12444122 0.08131907
0.025243398 -0.028983772 -0.30937132 -0.2919914 0.1957925 0.10802558 0.30222443 0.25283098
-0.27924827 -0.3326602 0.24936436 -0.07558147 0.27858064 0.113718875 -0.314785 -0.09986516
0.002261287 -0.11625925 0.15068652 -0.00683088 -0.11594917 -0.06744076 -0.066454 0.013949676
0.16390577 -0.12806085 0.10810246 -0.16313541 -0.3150945 0.30093306 0.012097324 0.11190726
0.12380857 -0.43952557 -0.25569844 0.18534817 0.030474134 0.17551331 0.26096478 -0.4345707
-0.14117055 0.045659658 0.04380958 0.27711847 0.19984077 -0.10689358 0.009420827 -0.24253191
0.22051 -0.021902764 0.102569945 -0.30718783 0.31835765 0.23959701 -0.20734508 -0.109901324
0.14014173 0.26587895 -0.6113159 -0.11966362 0.23437975 0.011727631 -0.39155537 0.051794372
0.5490574 -0.2193214 -0.001670539 0.02538579 0.27363408 -0.071601175 -0.20067021 0.20722187
-0.14928308 0.17781174 0.035938505 -0.09889021 0.016972438 0.4338632 0.16327672 -0.35447252
0.056884192 0.28108624 0.39733765 -0.655143 -0.06851843 0.29132232 0.038362104 -0.3612186
-0.064172044 0.5035206 -0.15898103 -0.121334 -0.12404406 -0.0057236277 -0.20950043 -0.16908202
-0.07017749 -0.34302282 0.035387866 -0.12278339 -0.019843796 -0.26105487 0.19846295 0.13622329
-0.18408135 0.18242821 -0.06322753 0.23741832 -0.6423072 -0.0219305 0.25734 -0.026679998
-0.34646893 -0.048982043 0.55144966 -0.062637396 0.00977533 0.2003696 0.28477082 0.07760878
0.031265605 0.11214349 0.25194773 0.08067776 -0.10287144 0.035098437 0.05045764 0.1937187
-0.045901492 -0.16385487 -0.051084176 0.18636534 0.17713088 -0.2642478 -0.32563367 -0.1357243
0.23336694 -0.03847055 -0.10199883 -0.12305287 0.16131763 -0.005259536 -0.19722189 0.024765307
-0.14773913 0.023772124 -0.093533695 -0.23032351 -0.13120024 -0.16673873 -0.14378223 -0.08596643

conv1.bias f4 [8]
00000000: 92e8 7ebd 6c29 773d 55d0 dfbd 50f1 36bd
00000010: fc48 b8bc 82f3 c8bd 6760 96bd b764 9abc
-0.062233515 0.060342237 -0.10928408 -0.044663727 -0.02249574 -0.098120704 -0.07342606 -0.018846853

batch1.weight f4 [8]
00000000: be0d 433f 03ca 693f 32c0 4f3f b040 803f
00000010: 755d 973f 60ae 723f 87b9 833f 750c 883f
0.76192844 0.9132387 0.8115264 1.0019741 1.1825396 0.94797325 1.0290993 1.0628802

batch1.bias f4 [8]
00000000: af6c 78bd 2ccb afbe 2e4c 43be 4ec3 bebe
00000010: ad3c 85be 7dde 25be f40c a6be a12f a9be
-0.060650524 -0.34334695 -0.19072029 -0.3725838 -0.26022854 -0.16198154 -0.32431757 -0.3304415

batch1.running_mean f4 [8]
00000000: 034e 4b3e f3e0 65bd fad2 f6bd 8132 b3be
00000010: 68db b6bd 5e13 d0bd 155a 06be 28f7 3cbd
0.19853978 -0.05612273 -0.12051959 -0.3499947 -0.08928567 -0.10159944 -0.13120301 -0.046134144

batch1.running_var f4 [8]
00000000: 0399 573d c003 3e3d 46b2 0b3d 8570 5d3d
00000010: 1ecf 173e b092 f03d d3c5 973d 092b 843d
0.052636158 0.046390295 0.03410556 0.054062385 0.14825103 0.117467284 0.07410779 0.06453521

conv2.weight f4 [16, 8, 5, 5]
00000000: 4d61 e63d 63a8 d43d aef3 7f3d a3a3 733c
00000010: 8768 5c3d 3d7f ed3c 6240 b73c 4a9e 68bc
00000020: 2c54 86bc bbf7 cb3b 89bf 2fbd 80df 02bc
00000030: 4d14 a7bd 618e 64bd 7d1b 31bd 58f7 e0bc
00000040: 2878 35bd cafa c2bd f626 9ebd 5c60 d939
00000050: f037 c0bd 78c1 9bbd 4ffd 6ebd 336b aebd
00000060: 4008 b9bc d977 47bd 9c21 7bbd e3c9 73bd
00000070: 86ef 3fbd 4c6a 31bd 1773 81bd 5df0 f0bc
00000080: 92ee f23c c2c9 243c abea cebb 3d61 b2bd
00000090: 3861 24bd 4baa 733d 09eb 823d a89f e73c
000000a0: ed3b 56bd 566d 43bd dcd3 233e 2f76 7b3d
000000b0: b74f 3a3b 7bc6 99bc 2536 41bc f9a1 843d
000000c0: 074a 65bd ec8f 6bbd 739a 783d 88d1 c03c
000000d0: a9f6 723a 89fe 77bd c545 8ebd cfd7 623d
000000e0: f624 a03d c1c9 f9bc 695e 76bc bd66 48bd
000000f0: 8a52 8d3c d69e b73d 8db6 8b3d 9ba5 2b3d
00000100: 320a 4c3d 0edd 1bbd 3fab 2a3c 1abd 233d
00000110: 2893 b03c 0ee9 043d de05 e1bd 8b67 96bd
00000120: 04ce 823c f640 e53c 8932 8339 34c0 08bd
00000130: a091 523c 64bc 0d3d 374d e6bd a10d f9bd
00000140: 7e63 373d 925c 123e 24bc 1d3e cef0 6b3d
00000150: f749 a4bd b7ea b7bc 395f 353e bf74 1b3e
00000160: 92ae 743c a09c c73d edc5 83bd d139 b33e
00000170: 0413 303d 57ec 243d cfe2 4bbb e283 b4bd
00000180: 4071 163d bcf1 2dbd bc61 bf3d 45ff 9cbb
00000190: 98a5 a0bc 46cb 3ebd 3e2a abbd 9dd2 c83b
000001a0: 0c5e 873d caf1 04bd 44d1 c83b 196a 71bd
000001b0: e0b6 16bc b3bf d0bc ffce 9839 ef7a 67bc
000001c0: 6e5d 44bc b754 a33d 4b6f 6d3d d469 0c3e
000001d0: 1f84 e13b a660 993d 0ee7 803d d6c7 25bd
000001e0: 4617 d6bb d510 8c3d 7c00 df3d ff5a 86bd
000001f0: ab29 a3bc dc26 243d e5a8 5a3c 239f 583b
00000200: e884 a0bd 639f eabc b263 02bc c195 b03c
00000210: f9f9 27bd 1de6 33bd f076 bbbb 9e35 e7bc
00000220: 7aca bcbc fd97 85bd 60d2 87bd 0cd6 98bd
00000230: 1cc5 61bd 147c 053c 08af 84bd b674 b6bd
00000240: b0ef 58bd f97c 1fbd a167 953d 300c b9bd
00000250: f16e 95bd 6d29 a2bb 4da7 81bd a76c f1bc
00000260: f256 453c 3f72 e23d a1e5 2c3e 1487 94bd
00000270: 6ac8 63bd 035a ae3b 401d e03c ca05 983c
00000280: 0d94 83bd ecfb cc3c 4ba3 abba 4848 50bd
00000290: b88f 09bd 9e2f 643b feb0 3d3d 824f 67bc
000002a0: c1c3 42bd 735e b83c b3bb b7bc b32f 6a3c
000002b0: 256c 973c 511b ffbc e3d0 253b 1229 9a3d
000002c0: 0f41 55bd 4b08 e53c 0363 393d 7afb 8fbc
000002d0: 61f7 133d 7d52 34bd 736d b93c a9d4 99bc
000002e0: a03c 0fbd de9f 90bd a067 babd 10ad 4bbd
000002f0: de69 e6bc f236 45bc 6c5d f5bc d905 53bd
00000300: 31f1 69bc 5dab e9bb 9053 6dbd f172 3e3c
00000310: 31c0 dbbd e45d 2ebd eb94 383b ced7 7d3c
00000320: c010 82bd 91f0 a8bd 89d2 a1bd 2122 61bd
00000330: c4aa cfbd df1c 61ba ebbe 27bd 7ebf c8bb
00000340: 472f 10bd 3b11 8ebd f239 283d d9cb c13c
00000350: 7fd3 3a3d a889 953c dec5 5fbd 09f0 3d3d
00000360: 1508 093d 0552 cf3d a9a0 7b3d 6384 403d
00000370: 0176 5f3d c44c 253d 3223 7c3d fbed f9bc
00000380: 5192 47bc 64bd 6bbd ebd3 d13c 2b29 2f3c
00000390: f79c fcbc ae11 0cbd cb22 463b f4d3 0bbd
000003a0: bb87 30bc 31fd 49bc 0e98 65bd c5b2 70bc
000003b0: ef30 66bd 64c5 ffbc 05a2 64bc d62f 51bd
000003c0: fbed f5bb 3e7a a1bc 7c8b f83b d40b 023d
000003d0: cef4 a1bc 1f17 8a3c 62ce 953c 8266 e73d
000003e0: 19ee 9b3d 5d12 023c d4f8 7e3b d559 e7bc
000003f0: ac12 4a3d c767 7cbd 159e b13d e013 d0bc
0.112490274 0.1038368 0.06248825 0.014870557 0.053810623 0.028991336 0.022369567 -0.014197895
-0.016397558 0.0062246 -0.04290727 -0.007987857 -0.08158169 -0.055799846 -0.043239105 -0.027461693
-0.044304043 -0.095204905 -0.07722275 0.0004146126 -0.09385669 -0.076052606 -0.058347043 -0.085165404
-0.022586942 -0.04869828 -0.06131135 -0.059518706 -0.046859287 -0.043314263 -0.0632078 -0.02941149
0.029654775 0.010057868 -0.0063145957 -0.08709953 -0.040131778 0.059488576 0.06392486 0.028274372
-0.052303243 -0.047711693 0.15998787 0.061392006 0.0028428861 -0.0187714 -0.011792694 0.06476206
-0.0559788 -0.0575103 0.06069417 0.023537412 0.00092683226 -0.060545478 -0.06946901 0.055381592
0.0781955 -0.030491712 -0.015037158 -0.048926104 0.017251272 0.089658424 0.06821928 0.04190598
0.04981441 -0.03805261 0.010416805 0.039975263 0.021554545 0.03244882 -0.10987447 -0.07343968
0.015967377 0.027985077 0.0002502392 -0.033386424 0.0128521025 0.03460349 -0.11245196 -0.12160803
0.044772618 0.14293125 0.15403801 0.057602696 -0.0802192 -0.022450788 0.17712106 0.15181254
0.014934199 0.09746671 -0.06434236 0.35005048 0.042986885 0.040264454 -0.003111053 -0.08814217
0.036729097 -0.042466864 0.09344813 -0.0047911727 -0.019610211 -0.046580575 -0.083576664 0.0061286227
0.06609735 -0.03245715 0.006128462 -0.058939073 -0.009198874 -0.025482034 0.00029145923 -0.014128431
-0.011985166 0.079751424 0.057967465 0.13712245 0.006882205 0.07489137 0.0629407 -0.04047378
-0.006533536 0.06839148 0.10888764 -0.06560325 -0.01991733 0.04007612 0.013345932 0.0033053837
-0.0783785 -0.028640455 -0.0079583395 0.021555783 -0.041009877 -0.043920625 -0.0057209656 -0.028223809
-0.023045767 -0.0652313 -0.06631923 -0.07462701 -0.05511962 0.008147258 -0.06478697 -0.089089796
-0.05296296 -0.038937543 0.07295156 -0.09035528 -0.07296551 -0.004948786 -0.06330738 -0.029470755
0.012044655 0.11056947 0.16884471 -0.072523266 -0.05561105 0.005320789 0.027357697 0.018557448
-0.06424723 0.02502247 -0.001309493 -0.050850183 -0.033584327 0.003481842 0.04631137 -0.014118077
-0.047549967 0.022505974 -0.02242837 0.014293599 0.018484185 -0.031140955 0.0025301508 0.07527365
-0.052063998 0.027958056 0.04526044 -0.017575968 0.03612459 -0.04402398 0.022635197 -0.018778162
-0.034969926 -0.07061742 -0.09101796 -0.049725592 -0.028126653 -0.012037026 -0.029951774 -0.05151925
-0.014278696 -0.007131024 -0.05794102 0.011624084 -0.10730017 -0.04257001 0.0028164934 0.015493346
-0.06350851 -0.082490094 -0.079014845 -0.05496419 -0.10139993 -0.0008587371 -0.040953558 -0.0061263433
-0.035201337 -0.0693688 0.041070886 0.023656772 0.045611855 0.018254116 -0.05463206 0.046371493
0.033454973 0.10123066 0.061432514 0.047001254 0.054555897 0.040356413 0.061557002 -0.030508986
-0.012180881 -0.057553664 0.025613746 0.010690968 -0.030836565 -0.03419655 0.003023314 -0.03413768
-0.010774548 -0.012328432 -0.056053214 -0.0146910595 -0.05619901 -0.031222053 -0.013954644 -0.05107101
-0.007505176 -0.01971161 0.007584987 0.03174956 -0.019770052 0.016856728 0.018286888 0.11298849
0.07613773 0.007938948 0.0038905637 -0.028241077 0.049334213 -0.061622407 0.0867273 -0.025400102

conv2.bias f4 [16]
00000000: 6640 6c3d 30bc 3b3d e010 423d ea3a 5e3d
00000010: 0f14 07bd 0486 21bd 32ee 31bd dc21 bf3c
00000020: 2053 e13c 9866 703c 95d1 5ebd 52d4 cd3b
00000030: a5b0 19bd 00d2 63bc 9c59 33bc 9f59 663b
0.057678603 0.045833766 0.047379375 0.054255404 -0.032978114 -0.039434448 -0.04344005 0.023331575
0.027505457 0.014672898 -0.05439909 0.006281414 -0.037521977 -0.013905048 -0.0109466575 0.0035148633

batch2.weight f4 [16]
00000000: ca7e c73f d96b bc3f 96a6 e53f 4f67 cc3f
00000010: 18b0 c73f f14a da3f 759f c53f 44fb e73f
00000020: c821 de3f 3b70 d63f f13d d23f 1c23 ca3f
00000030: b844 cf3f dccb df3f b90b c43f 0362 ca3f
1.5585568 1.4720412 1.7941463 1.5969027 1.5600615 1.705412 1.5439287 1.8123555
1.7354059 1.6753 1.6425153 1.5791965 1.6192846 1.7484088 1.5316077 1.5811161

batch2.bias f4 [16]
00000000: 6dac cebd f63e 65be d7e0 01bf 3b97 9dbe
00000010: 8ba3 65be e5bf 52be 278c 47be d5a0 e4be
00000020: 8686 b7be c3b6 d0be c439 7dbe 2850 c7be
00000030: 0ec0 19be 130d d0be 9918 44be 2310 63be
-0.10091481 -0.22387299 -0.50733703 -0.30779442 -0.22425668 -0.20581014 -0.19487058 -0.44653955
-0.3584482 -0.40764436 -0.24729067 -0.38928342 -0.1501467 -0.40634975 -0.19150008 -0.22174124

batch2.running_mean f4 [16]
00000000: df92 40bd 6db6 e2bd a027 a6bd 5722 8ebe
00000010: 94ab d4be 701c dbbe 0430 4cbf ba75 82bd
00000020: 3e50 1dbf dfa5 99bd d81a 96be 6fe2 4a3e
00000030: 69d7 5b3d ef0c 20bf 405b f5be 5200 da3a
-0.047015067 -0.11069951 -0.081130266 -0.27760574 -0.41537154 -0.42795134 -0.79760766 -0.06370111
-0.61450565 -0.075023405 -0.29317355 0.1981294 0.053672228 -0.62519735 -0.4792118 0.0016632176

batch2.running_var f4 [16]
00000000: 8587 da3e 65b5 df3e 8a9e 133f d5ca 013f
00000010: 82e1 e03e 3202 fd3e d7d9 083f f62e 293f
00000020: 0ee0 543f 058d f63e 6b5c 033f d41e e83e
00000030: e1c9 0e3f 2d05 363f 5b80 e83e 09c5 023f
0.42681518 0.4369308 0.57663786 0.5070012 0.4392205 0.49415737 0.534574 0.6608728
0.8315438 0.48154464 0.51312894 0.4533602 0.5577679 0.7110165 0.45410427 0.510819

fc1.weight f4 [120, 1024]
00000000: 0339 473d bc7e 173d daee 663c 1dc5 c43c
00000010: 63a8 7e3d a26f 103d b788 263c 884b be3b
00000020: 2995 b73d 94cd b33c 0f51 b03b cfc1 46bd
00000030: f957 963b 199c 7c3c 2982 003c b519 693b
00000040: 9ea6 2a3d b32e 0c3c 38a5 a33c 50c9 fdbb
00000050: 2666 5c3c ef3a 4d3c 4a1d 85bc 02a5 ee3b
00000060: bca3 723c c78f 18bd d7d0 03bc f4a4 3ebb
00000070: 8ba7 f2bc b356 1e3a 6d2b a5bc 2b14 0f3d
00000080: 1794 a13c 0ae6 88bd 5bdc 0dbc d682 40bd
00000090: 059b 99bd 43a1 b9bc 776f 4f3b 106c 573d
000000a0: a1d9 f2bc ed4d 6abd c7d2 96bd dc92 c43b
000000b0: e13d a2bd 4104 2cbd 90cb fabc 1630 a23b
000000c0: 9c74 f8bc 2b20 49bc d964 8cbd 5b3a 9fbc
000000d0: efda e9bc f77d e63c 80bd 20bb 658a e5bc
000000e0: cab7 973c 6880 81bd 70b8 44bd dfd3 d3bc
000000f0: d7ef 21bc ca16 1339 10c4 d6bc a991 9d3c
00000100: 1c57 a93c f203 c43b 7de7 73bc af56 7dbd
00000110: 2599 833b d124 3a3c d912 ad3c 292c cabc
00000120: c788 2a3c 7a01 253d 4040 16bc d014 edbc
00000130: c773 ab3c d872 72bc f0a8 383d cfef 1ebd
00000140: 8c40 6fbc 2862 83bb 63ea 05bb 385b 1d3c
00000150: a94f e73b c765 1d3d b27e 4e3d d2f1 d8bb
00000160: a0e5 cb3c 8ebd 123c 32a2 233d 599e 0a3b
00000170: 67d7 f83b 5712 8d39 78ee 893c 545f 10bc
00000180: ef94 173c 1554 5d3c 9aaf 4a3d 2a01 f23c
00000190: bcde 283d 26a2 0f3c 343b d23c 2fc1 eebb
000001a0: 5150 c83c 59d4 d4bb 9778 fe3c e795 a23d
000001b0: 63b0 973c 783b 213d 761d 9f3c 66df c63c
000001c0: b689 df3c 5ca5 d03c d1f1 3e3d 5a91 24bc
000001d0: f37e 073d 8210 403d c490 463c dce3 5dbd
000001e0: 66c1 0a3d a80a aeba 3e0e 5cbb 5e59 33bc
000001f0: 5d6a c2bc 9fba 01bd 092b 8ebb badc 91bc
00000200: 6792 9d3c 2d1c 1fbd e91e 9e3d ba5e 3bbb
00000210: cff2 853c ea36 c43c 8eac cfbc 8c46 c83b
00000220: 24c0 ffbb c758 fcbb 67b1 60bc 7f65 983b
00000230: ddd0 103d 089b b53c 9a63 f8bb 06b9 7d3b
00000240: 0bca 943b 2d02 b3bb 18cb e83c 26b3 873c
00000250: 9086 473c 2271 dfbc dde1 54bd 46e2 ef3b
00000260: 839c 153d 3bb9 223c 4807 bf3b 0f2e f73c
00000270: 4bee 8dbc 031e 693c ce16 6d3c 8e52 633a
00000280: 65be 093d a105 c33c 2976 f83c 3986 3abd
00000290: b23e 2ebc 5972 20bb 2d44 09bd ce6a 94bc
000002a0: d460 213d c17d a4bc 4be5 983c 1453 223c
000002b0: bdff d03c 24eb 0bbc 34b4 d0bd 3d37 acbc
000002c0: 801e 3d3d ad7b e13c a4a3 b0bc 4f1c 8ebc
000002d0: d484 67bc cfa4 babb 0409 7ebc 2c19 debb
000002e0: 3f87 763c 322f 4fbd 0484 a8bc ddee ae3b
000002f0: fcba 37bd 725a 26bd ba07 c3bc cb4d fbbb
00000300: 3a94 f53b 831a 63bd b76d 80ba 0e7c b6bc
00000310: f95b 51bb 2cef 8abb cb8a 30bd e352 c43c
00000320: 8a91 11bd b99c d63b acf6 f4bb b6df 6dbd
00000330: c82c e8bc 990a 18bd 3384 21bd f80c 90bc
00000340: 8c4c 973c 78f0 21bd 285a 7d3c 925b d4bc
00000350: 050a fc3c 57d1 47bc 0222 e03c b84d 1cbd
00000360: 9cfe 973c c801 4a3d 501a 053a 78bf fbbc
00000370: 212e 673d 6217 813c f996 c4ba 9816 bdbb
00000380: db34 16bd bcf9 d63c d0f0 803c bb34 c23b
00000390: 0ff5 053d 09ff 0d3d 3d7b 03bb 15a1 043d
000003a0: 3f14 04bd 674a 923c 6dea c13c 9335 253c
000003b0: 4fdc 063d c915 273d cbb1 f03b 5a83 3dbb
000003c0: 6d5a 32bc 6d4c 35bd 48a8 e03c 081d 2c3c
000003d0: 1aa9 023d 0c38 2c3b 55d1 9cbb 70e9 943c
000003e0: de07 c9bc 1876 b23b 6efb 083d f43b 9e3c
000003f0: 9e64 833c f269 cabc dd70 813c c288 053c
0.048638355 0.036986098 0.014095033 0.024019772 0.062172305 0.03526271 0.010164431 0.005807344
0.08963997 0.021948613 0.0053807567 -0.048524674 0.004588124 0.015418076 0.007843533 0.00355683
0.041662805 0.008556056 0.019976243 -0.0077449456 0.013452088 0.012526258 -0.016249318 0.007282854
0.014809545 -0.03724649 -0.008045397 -0.002909002 -0.029620906 0.0006040141 -0.020162309 0.034931343
0.019723935 -0.066845015 -0.008658494 -0.046999775 -0.07500271 -0.022659903 0.0031652132 0.05259329
-0.02964479 -0.057203222 -0.07364421 0.0059989523 -0.07921959 -0.041996244 -0.030614644 0.00494958
-0.030329041 -0.012275736 -0.06855173 -0.019437006 -0.028546778 0.028136237 -0.0024527013 -0.028020093
0.018520255 -0.0632332 -0.048027456 -0.025857864 -0.009883842 0.00014027502 -0.026216537 0.019234495
0.02067142 0.0059819156 -0.014886734 -0.061850246 0.004016059 0.011361317 0.021127151 -0.02467926
0.010408587 0.04028461 -0.009170592 -0.028940588 0.02092923 -0.014797889 0.045082986 -0.038802918
-0.0146027915 -0.004009504 -0.0020433895 0.009604268 0.007059057 0.03842714 0.050413795 -0.006620624
0.024889767 0.008956326 0.039949603 0.0021151511 0.0075940373 0.0002690728 0.016837344 -0.0088117905
0.009251817 0.013508816 0.049483873 0.02954157 0.04122804 0.008766687 0.025662996 -0.007286213
0.02445236 -0.0064950404 0.031063361 0.07938748 0.018516725 0.039363354 0.019423228 0.024276447
0.027287345 0.025469474 0.046617333 -0.01004442 0.033080053 0.046890743 0.012119476 -0.05417238
0.033875845 -0.0013278322 -0.0033577825 -0.0109466 -0.023732359 -0.031672116 -0.0043386263 -0.017805446
0.01923485 -0.03884523 0.077207394 -0.0028590397 0.016351132 0.023951966 -0.025350835 0.0061119255
-0.0078048874 -0.007701013 -0.013714171 0.004650771 0.035355438 0.022168651 -0.007580233 0.003871502
0.004540687 -0.005462906 0.028417155 0.016564917 0.012178078 -0.027275626 -0.051973213 0.007320675
0.036526214 0.009931858 0.0058297254 0.03017333 -0.017325541 0.014228347 0.014470769 0.00086716644
0.03362884 0.023806395 0.03032978 -0.04553816 -0.010635065 -0.002448222 -0.033512283 -0.018117335
0.039398983 -0.020079495 0.018664023 0.009907503 0.02551257 -0.008539949 -0.10190621 -0.021022433
0.046171665 0.027524794 -0.021562405 -0.017347483 -0.01413079 -0.0056959162 -0.015505079 -0.006777903
0.015046894 -0.05058212 -0.020570762 0.0053385333 -0.044856057 -0.0406136 -0.023807395 -0.0076691858
0.0074944766 -0.055445205 -0.0009798323 -0.02227595 -0.003194569 -0.0042399373 -0.043101113 0.023965305
-0.035539187 0.0065494445 -0.0074756946 -0.058074676 -0.028341666 -0.03711948 -0.039432716 -0.017584309
0.018469118 -0.03953597 0.015463389 -0.02592257 0.030766496 -0.012195907 0.027359966 -0.038160056
0.018554024 0.049318105 0.0005077468 -0.030730948 0.056440476 0.01575822 -0.0014998607 -0.0057705157
-0.0366715 0.02624213 0.015739828 0.005926696 0.03270441 0.03466705 -0.002006247 0.032380182
-0.03224587 0.017857743 0.023671353 0.010083574 0.032924946 0.04079226 0.0073454133 -0.0028917403
-0.010885817 -0.04426234 0.027423993 0.010504968 0.03189955 0.0026278524 -0.0047856965 0.018177718
-0.024539884 0.005446207 0.033442907 0.019315697 0.016039189 -0.024708722 0.015800888 0.008150281

fc1.bias f4 [120]
00000000: fbc2 a23b 8c91 143d 78f2 6c3c a544 ce3c
00000010: 6124 073d d91d 083d 89a1 b8bc 0abb e93c
00000020: 4abc bd3c e637 ccbc 3aca 533c f975 c93b
00000030: 0b2c 76bb f7f2 8a3c 04e0 d8bc ead3 bfb9
00000040: 8c2f b9bc b4f5 05bd 6af4 803c 2035 e9bc
00000050: 2d05 a3bc 719c bfbc 093d bb3b d1d9 823c
00000060: fe82 00bc 0d71 a2ba 21d3 d33c 56f1 543d
00000070: 772b cc3c 9f3e c43b a3a1 903c 34e9 a63b
00000080: 0ee2 a83c 54a6 d73c 2ce1 b83c 0433 a23c
00000090: 0445 fd3c 4ddf e9bc f0f6 0b3d f92c 593c
000000a0: 6944 253d 11ef 133d aba8 35bb 2eb8 793d
000000b0: 4a95 8abc c7c5 51bd ecad bf3b 604d abbc
000000c0: 96d0 3fbc 2019 b4bb 2f47 5b3b 958f f13c
000000d0: dba2 47bc 4475 c8bc d0c7 69b7 278b 003a
000000e0: b3dc a0bc bc58 4dbd 1a1e 4abd 5562 5b3b
000000f0: cf03 213c 961d 043d a9cd 923b 0ba9 73ba
00000100: 6008 033d 0260 fb3b add5 1c3d d0dd a43b
00000110: e85e 1abd 9b85 7ebc 580e 903c 0029 e03c
00000120: 5dda b33c 150e d43b 0408 2fbb 3fd8 a1bc
00000130: ff90 df3c a17b c23c b745 93bb 7b7f 10bc
00000140: 8173 133d edf0 913c 5d9d fbbc a752 163d
00000150: 39b6 55bc 6d19 863c ce21 1fbc 7954 ae3c
00000160: 1fbf fd3c dd2d b3bc fb91 75bb c331 85bc
00000170: 7cd0 1ebc 5091 2fbc 4378 edb9 c313 223c
00000180: 70b6 5cbc feca a2bc 6775 0ebd 8e82 1b3c
00000190: a32e 393b c4d0 9abc fc82 ef3c c7ae 923c
000001a0: f1b2 babc c5a9 423c c027 b23b bd38 25bc
000001b0: 3b0c 953c fd90 8cba 35c5 d8bc f9b8 73bb
000001c0: 7e3a f8bb 1985 ee3b dc16 933c 7d20 86bb
000001d0: 65fa a33b a10d 86bc 0041 93bc a68a 903c
0.004967091 0.036271617 0.014462106 0.025179217 0.032993678 0.03323159 -0.022537963 0.02853157
0.023161072 -0.024928998 0.012926633 0.0061480966 -0.0037562873 0.016961558 -0.026474006 -0.00036588247
-0.02260568 -0.032705024 0.015741546 -0.028467715 -0.019899929 -0.023390027 0.005714063 0.015973004
-0.007843731 -0.0012393311 0.02585751 0.05198797 0.02492307 0.0059889103 0.0176552 0.005093718
0.020615604 0.026324429 0.022568308 0.019799717 0.030916698 -0.02854886 0.034171045 0.013255351
0.040348444 0.036116663 -0.0027718942 0.060966663 -0.01691689 -0.051214006 0.0058495905 -0.020910919
-0.011707446 -0.005496159 0.0033459177 0.02948741 -0.012184824 -0.02446998 -1.3934405e-05 0.0004903548
-0.019636488 -0.05013345 -0.049345113 0.0033475359 0.009827568 0.032254778 0.004480083 -0.0009294904
0.03199041 0.007671357 0.038289715 0.005031325 -0.037688166 -0.015534784 0.017584965 0.0273633
0.02195471 0.0064714053 -0.0026707659 -0.019756434 0.02729082 0.023740591 -0.0044943946 -0.008819456
0.035998825 0.017815078 -0.030714685 0.036699917 -0.013043934 0.016369546 -0.0097126495 0.021280514
0.030974923 -0.021872455 -0.0037471044 -0.01625908 -0.009693261 -0.010715798 -0.00045293765 0.009892407
-0.013471231 -0.019872185 -0.034779932 0.009491576 0.0028256557 -0.018898375 0.029237263 0.017905606
-0.022790404 0.0118812965 0.0054368675 -0.010084328 0.018194309 -0.0010724362 -0.026461223 -0.003718911
-0.007575332 0.00727905 0.017955236 -0.0040932284 0.0050042146 -0.01636392 -0.01797533 0.017644238

fc2.weight f4 [10, 120]
00000000: f257 95be b7ab 3bbd 9380 ef3d d6d8 9e3b
00000010: 2bc0 a5bc 2e78 7bbe 2b62 a33d 9c06 23be
00000020: 494b 0bbe 7a5f 8fbe de2c a73d 6fd8 6e3c
00000030: d709 00bd 7ec3 5abd 8491 cb3d 9691 4e3d
00000040: 196f 0b3e e493 373e b4b8 b0bd a4fe 993e
00000050: 4af8 d13d 1262 2f3e 1e58 433e 6e30 253d
00000060: 6e09 49be 24fe 61be a9fa 103e 64b7 40be
00000070: 69b8 833d 4f1e 5d3d 0ab8 52bd 4511 9a3e
00000080: a48d d53d 755f 50bd e82f 3ebe 776d b73e
00000090: 5fe3 0a3e b21f b73d 3d6b 5cbe 8472 8dbe
000000a0: d3ea 8abe 8bfb c7bd b86d a9bd c064 1bbe
000000b0: 29a5 a23e a455 823e caaa 1f3e 7d7c 2d3d
000000c0: aec9 b5bd ebd1 1fbd c508 4f3d e33a a6bd
000000d0: fac9 2cbe 016f 123c 412b 71be 5199 a93d
000000e0: b7a1 613e c8e4 ce3e c7f2 413e d090 84bd
000000f0: d4e2 8cbe 38f9 69be 3ee4 113e 8988 3dbe
00000100: d0fb 333d 21ab a2be 5fe9 15be d6c4 69bd
00000110: 5596 b03e 543c 073d 0a0d 323e adb1 10be
00000120: 0404 523e 8525 e03d 0a4b 6d3d a617 353c
00000130: b411 ee3d dcdd 5c3e a611 12be ae27 dcbd
00000140: 5cc9 e9bd 4087 db3c b63c cfbc ec4d b03d
00000150: 9a3f c03b 8336 c53e 79cc 6bbd 9fa2 51be
00000160: 4e2e 3abe bdb1 953e c5bf 6abe 83a5 6fbe
00000170: c03c 9fbe eba2 8e3c cdfe eb3c 6a43 0bbd
00000180: 0697 193e d61b ffbd e331 b2bc a3ae 9e3d
00000190: f205 273d dd2e edbd 32be 713c a16f 7a3e
000001a0: 401c e6bd fe20 aa3c 9369 513e b788 843d
000001b0: 49b9 f73a 9526 d63d 0654 423e 2601 2e3e
000001c0: 226e a8bb e542 3abd 5ed8 db3d b95c 56be
000001d0: 6fd8 003e b630 54bd 9976 763d f420 41be
000001e0: 2970 f7bd 3b5f 7ebe b0b1 123e 8efd c7bd
000001f0: 8d44 80be 1a15 f1bd 07d8 413e f988 803e
00000200: b29d 9b3d 0a3e c5bc 6ee4 0c3d 7518 de3d
00000210: 32c6 91be 577f 77bd 83cd 3a3e e242 ebbd
00000220: d70e 623c 6218 8cbe 73d7 9a3c c184 24be
00000230: c521 aabe 22bd 033e b03b c33c dced 78bd
00000240: 385c 72bd 8fb7 1e3e 39c3 7d3e b256 6ebe
00000250: 8c89 d83e f3c1 91be adc7 72be 0bc5 66be
00000260: 9a47 c3bc e78d 89be 596c 053e 60cb 5fb9
00000270: a8d1 b1bc bed7 adbd 9e2b 2bbe 831b 75bd
00000280: 8f57 25be d9d0 ad3e fa04 c7bd 6521 383e
00000290: 4f9f 68bb bc53 a7bd 6546 2fbe 7154 0ebd
000002a0: 28d9 963e ea8c 0b3d 67e1 8ebc 91ff de3d
000002b0: 02ce d93b 6927 06bc 94a6 96bd 864a 42be
000002c0: 1167 2ebd 9544 83bd c742 853e c743 9d3d
000002d0: afaa 113d 805a b93b 6e56 dc3d d068 e23d
000002e0: f9bf 88be 3461 e33d f5a2 c5bd 377f ef3e
000002f0: a21a 7ebc e563 05be c78e 6d3e 5ff8 7abe
00000300: 23e5 40be 1000 2abe e3ec 6a3d 067b 423d
00000310: a92f 4abe 71aa ec3d 711f 493e 1871 053d
00000320: 8c96 e2bd bc03 e0bd 8148 f03c a4d7 f43d
00000330: 8bcd 0abe eaad 8e3e 6e54 553e 1c9e 99bd
00000340: b580 34be bdc4 7ebe e114 a0bb 3f6c cfbd
00000350: 2b9d a43d 231e 69be 68ca 83bd 4874 d5bd
00000360: e513 abbe 63fa 403c a728 1a3e ce97 1a3e
00000370: 9ce2 79be 1fe2 4ebd 49b9 353e 12d3 08be
00000380: d047 053d 20d4 f6bd 7a7e 90ba 8d28 c53d
00000390: 26ec bebe b4cd f63e 555f 21be 891e 343d
000003a0: f643 34be be15 9dbc 959e 0cbd 873a c63e
000003b0: c582 f3bd e662 27be f86a 533e ef6a 05be
000003c0: 6360 6dbe d34e 4a3e c047 13bd 81de d9bc
000003d0: 2dc2 bebd c3f0 ab3e 4314 15be 2f7d 89bd
000003e0: cd52 383d 6bf4 d33d 508e e43d 7ffa ca3d
000003f0: 3d28 18be b729 dc3b 6f46 3ebe 3041 d03e
-0.2916866 -0.045818057 0.116944455 0.004847626 -0.020233234 -0.24557564 0.079777084 -0.1592049
-0.13602938 -0.2800253 0.081628546 0.014577969 -0.031259384 -0.053409092 0.09939864 0.05043181
0.13616599 0.1792751 -0.08628979 0.30077088 0.102524355 0.17127255 0.19076583 0.04032939
-0.19632503 -0.22069603 0.1415812 -0.18819958 0.06431658 0.053983983 -0.051445045 0.300913
0.104274064 -0.050872285 -0.18572962 0.35825703 0.13563298 0.08941592 -0.21525283 -0.2762643
-0.27132282 -0.09764775 -0.0827288 -0.15175152 0.31766632 0.25455964 0.15592495 0.04235505
-0.08876358 -0.039018553 0.050545473 -0.081167005 -0.16873923 0.008937598 -0.23551656 0.08281196
0.22034346 0.4040892 0.18940268 -0.06472933 -0.27516806 -0.22848976 0.14247224 -0.18509115
0.04394132 -0.31771186 -0.14639805 -0.057072483 0.34489694 0.033016518 0.17387787 -0.14130278
0.20509344 0.10944656 0.05793289 0.0110530015 0.1162447 0.21569008 -0.14264545 -0.10749756
-0.114153594 0.02679789 -0.025297504 0.086086124 0.005866957 0.38518152 -0.057568047 -0.20472191
-0.18181726 0.29237166 -0.22924717 -0.23402981 -0.31101036 0.01741167 0.028808022 -0.033999838
0.14999017 -0.12456481 -0.021752303 0.07748153 0.040777154 -0.11581204 0.014754819 0.24456646
-0.11235857 0.020767685 0.2045043 0.06471389 0.0018899824 0.10456578 0.18977365 0.16992626
-0.005140082 -0.04547395 0.10734628 -0.20933808 0.12582563 -0.051804267 0.060171697 -0.18860227
-0.1208194 -0.24841015 0.14325595 -0.097651586 -0.250523 -0.11771603 0.18930064 0.25104502
0.07598437 -0.024077434 0.034397535 0.108445086 -0.28471524 -0.060424175 0.18242459 -0.11487366
0.013797483 -0.27362353 0.018901562 -0.16066267 -0.3322889 0.12865117 0.023832172 -0.060773715
-0.059169978 0.1549971 0.24781503 -0.23275259 0.4229244 -0.28468284 -0.23708983 -0.22536103
-0.023837853 -0.26866075 0.13029613 -0.000213427 -0.021706417 -0.08488415 -0.16715857 -0.05984069
-0.16146682 0.339484 -0.09717746 0.17981489 -0.0035495346 -0.08170268 -0.17116697 -0.0347485
0.29462552 0.034069933 -0.017441465 0.10888589 0.0066468725 -0.008188107 -0.07355991 -0.18973741
-0.04257876 -0.06409565 0.2602751 0.07678943 0.035563167 0.0056565404 0.10758673 0.11055148
-0.26708964 0.111025244 -0.09650222 0.46776745 -0.015509279 -0.13026388 0.23198996 -0.24508809
-0.18837409 -0.16601586 0.05735482 0.047480606 -0.19744743 0.115559466 0.196409 0.032578558
-0.11063871 -0.10938212 0.029331448 0.11955193 -0.13554971 0.2786706 0.20832989 -0.0750086
-0.17627223 -0.24879737 -0.0048853015 -0.10128068 0.0803779 -0.22765402 -0.0643509 -0.104225695
-0.33413616 0.011778447 0.1505457 0.15096971 -0.24402851 -0.050508615 0.17746462 -0.13361767
0.03253919 -0.120521784 -0.0011024021 0.09626875 -0.37289542 0.48203814 -0.15759023 0.043974433
-0.1760405 -0.019175407 -0.034330923 0.38716528 -0.11890177 -0.1634632 0.20646274 -0.13029073
-0.231813 0.19756632 -0.035957098 -0.026595356 -0.0931438 0.33582124 -0.1455851 -0.0671333
0.04500084 0.103493534 0.111599565 0.099110596 -0.148591 0.00671884 -0.18581556 0.40674734

fc2.bias f4 [10]
00000000: 3ca0 03bd 0d12 d33b cf8b 03bd d71b 3ebc
00000010: 95b1 ec3d 46ff ad3d 2c98 ca3a c07c 153d
00000020: 88f2 44bd f6e3 8b3c
-0.032135233 0.006441361 -0.032115754 -0.011603317 0.115573086 0.08495955 0.0015456728 0.036495924
-0.04808286 0.017076474
