models/net/model_epoch_52.pt (torch, 517807 bytes, 16 tensors)

conv1.weight f4 [8, 3, 5, 5]
00000000: 072e 90bd c15e 4abd 36bb b6bd ff71 263e
00000010: 1651 173e 7735 6abe 26b1 eebd 683a e23d
00000020: f60a 253e 431f 5d3d ff63 a4bc d952 023e
00000030: 2311 3f3e 034c fe3d 3104 553e 97f1 623d
00000040: e9f6 813e ede7 483e 41a0 703d d0e8 e43d
00000050: 0be4 a4bd 7876 d43c 497b c2bd 260d f93c
00000060: 2aa9 5cbc 0c72 dcbd 6340 e5bd 90ae 96bd
00000070: 71cb cc3d d847 7fbb 5f3b 72bd c7be 0abe
00000080: da76 da3d 48ae 2c3b 5602 b3bd 3e49 bdbc
00000090: 5ac5 613d 75dd 143d c967 b8bd a162 28be
000000a0: fb69 8d3d 2e84 2fbd 67dd 36bd 480e 7cbd
000000b0: bb5d f6bd fcb7 6abb ad52 2a3d 9303 48be
000000c0: d6cc e8bd d28c c9bd 3870 b8bd 8705 79bd
000000d0: ab0c 13bd 6471 0a3e 0f87 8b3d ba02 043d
000000e0: 875f 053e 4d64 303e 240c ef3d 4a69 fdbd
000000f0: d0ee 943c 5df5 3f3d c3f2 c93d 9e42 10be
00000100: 52fd 01be 9a80 173e 76db 473e f37e b2bc
00000110: deba 40be 7004 56be 8ae0 903e 56d6 da3d
00000120: e558 853c 99f9 43be b3c7 aabc 0eda 53bd
00000130: 3fd9 54bd 794e 903e f337 033e 5ded 4dbe
00000140: 6305 033c 1fc1 9bbe 9c49 7bbd 6311 b63e
00000150: 9055 893d c9b5 903d 1c53 443e 1816 ccbe
00000160: ff87 33be 9d12 be3e 4529 e5bd 645f c23d
00000170: 54a0 723e 793c 41be 2119 9dbd aa43 dfbd
00000180: fbab bbbd 0d77 823d 5bf4 743d ac3d a7bd
00000190: 0660 ddbd d19e 48bc 01f8 083e 040a a13d
000001a0: eb9b e23c c44b babc 5137 a8be 8938 9dbe
000001b0: d4cc 683e 9f12 d13d 489a 9d3e 8149 8c3e
000001c0: d54d a1be 3df6 afbe d664 8a3e b026 aebd
000001d0: fc06 913e 202a 043e 93f0 acbe f150 cebd
000001e0: 3227 553c cd7d 05be 4596 253e 1a0d 03bc
000001f0: bf08 ebbd 231d 97bd 6a7e 8dbd 482b 003d
00000200: 32db 2f3e 43f3 02be 0464 c83d 7e41 3abe
00000210: a270 a4be 80e6 a93e 6ee1 8fbb 4553 ea3d
00000220: f536 183e d9df eebe b264 88be 6fa2 4e3e
00000230: 10e1 e83c 58c6 453e 88e3 913e 0d6c e9be
00000240: c3f0 0abe 0bb1 6f3d 23cc 243d ed51 993e
00000250: c653 523e aad1 ccbd f09e 00bb ce2e 7bbe
00000260: 3d91 633e 7094 44bc 586d c53d 4377 a0be
00000270: ad2d ad3e 45ee 873e 5d0d 5cbe 81b0 e6bd
00000280: 4256 1a3e f729 8f3e 7194 2abf 259a c7bd
00000290: 1910 733e 650a bd3c bf3b d2be 217c 473d
000002a0: 8fec 163f 6b51 6dbe 3e95 0b3c 68d9 d53c
000002b0: 94ca 913e 7a8d bfbd b26b 56be 83da 4c3e
000002c0: 2109 18be 7914 343e 11ad 0a3d f9ef d2bd
000002d0: d49d 303c a1b5 e23e 5193 2c3e defa c3be
000002e0: 2e45 5c3d 1b3a 973e cfa7 d23e 9204 37bf
000002f0: fde8 67bd ab99 9a3e 57ec 3a3d af05 c0be
00000300: 7ccd 89bd abd9 073f 5268 2dbe ece3 02be
00000310: 4d93 febd f5a7 a13b 99bf 70be 2f40 2bbe
00000320: 0073 8fbd 7f7b afbe 8bfb e93c 5e33 0cbe
00000330: 305f cbbc e5bd 8cbe 5ee6 573e c6d0 1a3e
00000340: 11c9 51be 3b0a 443e bc4c 90bd 1c22 813e
00000350: 257f 30bf 5150 d1bb f140 853e a65c cabc
00000360: afb4 b5be 5374 36bd f07c 163f a3d0 8ebd
00000370: 6958 6c3c e2bc 523e b323 993e eb27 6d3d
00000380: 702a d73c ced3 f13d cf5e 863e 47b4 a93d
00000390: c9fb d3bd d733 113d 6f77 933d 67e9 493e
000003a0: 82f3 59bd 850b 37be 169a 87bd 6d4f 613e
000003b0: b136 413e 38e7 8ebe 80cc aabe c4fe 0bbe
000003c0: 219d 813e 4578 3bbd bdcf e9bd ce8d 01be
000003d0: e4e5 2a3e 6e21 893b 6613 59be 98a8 923c
000003e0: 5b3b 1fbe 7627 d53b 5909 cdbd 818e 7abe
000003f0: ffcc 10be fd54 2abe 60cf 1bbe 6f5c aebd
-0.07040029 -0.04940677 -0.089224264 0.16254424 0.14777026 -0.22871958 -0.11654882 0.11046296
0.16117463 0.05398489 -0.020067213 0.12726916 0.18658881 0.12416842 0.2080238 0.05540618
0.2538369 0.19619723 0.05874658 0.11177218 -0.08051308 0.025935397 -0.09496171 0.030401777
-0.013468066 -0.1076394 -0.111939214 -0.07357514 0.09999741 -0.0038952734 -0.059138652 -0.13549338
0.106672004 0.0026348997 -0.0874068 -0.023106214 0.05511985 0.03634401 -0.090041704 -0.16443874
0.0690498 -0.042850666 -0.04464474 -0.061537057 -0.120295964 -0.003581523 0.041582752 -0.19532613
-0.11367194 -0.098413125 -0.09005779 -0.060796287 -0.035900753 0.13519818 0.0681287 0.032229163
0.13024722 0.17225762 0.116722375 -0.12373598 0.01818028 0.046864856 0.09860756 -0.14087912
-0.1269429 0.14795151 0.19517311 -0.02178905 -0.18821284 -0.2090013 0.2829631 0.106854126
0.01627774 -0.19138183 -0.020847177 -0.051721625 -0.051964995 0.2818487 0.12814312 -0.20110078
0.00799689 -0.30420777 -0.061349496 0.3556014 0.06705773 0.07065923 0.19172329 -0.39860606
-0.17532347 0.37123576 -0.11189512 0.094908506 0.23693973 -0.18870725 -0.076708086 -0.10901578
-0.09163662 0.063703634 0.059803348 -0.0816606 -0.10809331 -0.012244896 0.13375856 0.078632385
0.027662238 -0.022741206 -0.32854703 -0.30707195 0.22734386 0.1020863 0.3078177 0.2739983
-0.31504694 -0.34367552 0.27030057 -0.08503473 0.2832564 0.12906694 -0.33777294 -0.10074032
0.013009833 -0.1303627 0.16170605 -0.007998729 -0.114762776 -0.07378604 -0.06908877 0.031291276
0.1717346 -0.1278811 0.097847015 -0.18189046 -0.32117182 0.3318367 -0.004390887 0.11441664
0.14864714 -0.46655157 -0.26639324 0.20179151 0.02842763 0.19313943 0.28493905 -0.4559025
-0.13568406 0.05851845 0.040233742 0.29945317 0.2053977 -0.10000928 -0.0019625984 -0.24529573
0.22223373 -0.011998281 0.09639996 -0.3134099 0.3382391 0.26548973 -0.21489473 -0.11264134
0.15071967 0.27961704 -0.66632754 -0.097461976 0.2373661 0.023076246 -0.41061208 0.048702363
0.5895471 -0.2317559 0.008519469 0.026104644 0.28474867 -0.093531564 -0.2093952 0.2000523
-0.14847232 0.17585935 0.033856455 -0.102996774 0.010779817 0.44279197 0.16853072 -0.38277334
0.053776912 0.29536518 0.41143653 -0.7149135 -0.05661868 0.30195364 0.045635547 -0.37504336
-0.06728646 0.5306651 -0.16934326 -0.12782258 -0.12430439 0.004933352 -0.23510589 -0.16723703
-0.070043564 -0.34273908 0.028562328 -0.1369147 -0.024825662 -0.27488628 0.21083972 0.15118703
-0.20486857 0.19144528 -0.07045886 0.25221336 -0.6894401 -0.0063877483 0.2602611 -0.024702381
-0.35489413 -0.04454453 0.5878439 -0.06973388 0.0144253755 0.20579866 0.2991005 0.057899397
0.026265353 0.11807977 0.26244208 0.08286338 -0.103507586 0.03544983 0.072005145 0.19717942
-0.053210743 -0.17875488 -0.066211864 0.22002955 0.1886852 -0.2791078 -0.33359146 -0.13671404
0.25315192 -0.045768995 -0.11416576 -0.1265175 0.16689259 0.0041848933 -0.21198806 0.017902657
-0.15549986 0.0065049483 -0.100115485 -0.24468423 -0.141407 -0.16633983 -0.15215826 -0.08513724

conv1.bias f4 [8]
00000000: 92e8 7ebd 6c29 773d 55d0 dfbd 50f1 36bd
00000010: fc48 b8bc 82f3 c8bd 6760 96bd b764 9abc
-0.062233515 0.060342237 -0.10928408 -0.044663727 -0.02249574 -0.098120704 -0.07342606 -0.018846853

batch1.weight f4 [8]
00000000: e68b 3e3f 3252 673f 42b5 503f 0fab 7f3f
00000010: f6fd 963f e4cf 703f cf8b 853f 8151 893f
0.7443222 0.90359795 0.8152658 0.9987039 1.1796253 0.94067216 1.0433291 1.0727998

batch1.bias f4 [8]
00000000: 365c 92bd f605 acbe 865f 46be 382b d2be
00000010: 420b 8bbe e2f6 32be 2324 adbe beef b0be
-0.07146494 -0.33598298 -0.19372377 -0.41048598 -0.27157027 -0.17476991 -0.33816633 -0.3455791

batch1.running_mean f4 [8]
00000000: ab23 303e d7aa 34bd 3071 00be 00bf bcbe
00000010: dc7b efbd 7dfa d3bd ede1 02be 293b debd
0.17201106 -0.044108238 -0.12543178 -0.3686447 -0.11693546 -0.10350511 -0.12781496 -0.10851128

batch1.running_var f4 [8]
00000000: 762d 5d3d 6d7b 353d 2713 0f3d 6a19 793d
00000010: 4806 233e 2c1c 043e 4273 b53d 97dc 943d
0.053998433 0.04430716 0.034930374 0.060815252 0.15920365 0.12901372 0.08859874 0.07268637

conv2.weight f4 [16, 8, 5, 5]
00000000: ae47 013e 3588 e53d 987b 813d c888 ce3c
00000010: de8e 873d a147 853c fece 9b3c 191e d9bc
00000020: 38b5 7cbc 4040 103c ac40 13bd 7acb 97bc
00000030: 5181 b8bd 559f 85bd 9db8 4cbd 93af e3bc
00000040: da8a 49bd 7cb7 bfbd 11b3 a6bd 5c04 e9bb
00000050: 7cec b3bd 832e b5bd bc34 79bd 039c b7bd
00000060: a922 d1bc fa3b 6cbd 95e5 73bd d2dd 82bd
00000070: 54bc 4bbd 1ba9 33bd d3a8 90bd c9f8 cdbc
00000080: 36b0 013d b06e 923c 3ea6 553b 600b c2bd
00000090: 58dd 2ebd b5c5 903d adfd 9a3d 70b3 d53c
000000a0: 4a00 84bd 219b 30bd 777b 293e 56d7 763d
000000b0: 34f5 7f3c 4c4d 16bc 8f3d 74bc 9112 953d
000000c0: cd60 6dbd 4a8e 2fbd 2c36 6f3d f33c cf3b
000000d0: e2c4 333c 3223 65bd a22a 73bd 682b 993d
000000e0: 9d9c d63d 119f 02bc 055a 2bbc 3609 2abd
000000f0: b45e a33c 744d cf3d 81fe a33d cbd8 053d
00000100: d232 5b3d dbd9 31bd a663 b5bb f3db 2b3d
00000110: 0ce7 9b3c 81a6 003d 3d87 f0bd 5566 7dbd
00000120: 1008 443c 39a2 063d 4eef 4bbc 06df 1ebd
00000130: bf94 4e3b fe5f 053d 6876 02be f979 02be
00000140: 6d0a 503d 5352 143e ba20 303e 9988 473d
00000150: ec24 a7bd 7967 e9bc 7013 463e 5696 1e3e
00000160: 0a8b 853a 7584 d33d bbc5 98bd 22c8 c33e
00000170: daac e33c 3491 2a3d 121e 3dbc 2f24 ccbd
00000180: dbc3 743c d11a 07bd 3667 de3d 4890 abbb
00000190: 4b0b a5bc eadd e0bc 91fb a0bd 144e 083a
000001a0: 23b4 873d 6c6a 2cbd 6ec8 e93b f148 74bd
000001b0: 62fb 33bb faea a1bc b3cd 2c3c e44b 2dbc
000001c0: 90ee 183c f0de cc3d 7d9a 693d e807 053e
000001d0: d8de 9d3b 04a9 aa3d 30fb 503d 36e2 0bbd
000001e0: e340 babb 993c 863d 360a ea3d 61ba 98bd
000001f0: 54e8 19bd 2e74 2b3d c0df e5ba 4e11 deb9
00000200: 7d9e 8cbd e2c8 11bd 544d 8bbb bcf1 e33c
00000210: 6f9d 3abd e92a 3abd be69 a2ba 9bf4 dfbc
00000220: 5a57 28bc 1b4e 80bd 7fdd 88bd 6777 95bd
00000230: bfdb 63bd e1c0 113c 51ab 8dbd 60ac a6bd
00000240: 6913 56bd 9857 18bd 6041 963d 2d78 cebd
00000250: d900 98bd 35ea b7bc d338 56bd ded0 febc
00000260: ff4c 373c ea47 ef3d a7b9 453e 381b 88bd
00000270: f325 57bd 17c7 8abb 1de7 103d c22b f63c
00000280: 09df 84bd b543 be3c e2ee 35bc f5dd 2cbd
00000290: f219 12bd f2e5 313c c6fb 633d f7b2 4bbc
000002a0: 6a75 31bd 767a 5e3c 300d e3bc e7bb 583c
000002b0: 016d a43c 38b6 20bd ea53 c0bb ffb9 933d
000002c0: 240d 42bd 866a 2b3d 71f6 373d 8b6f 5bbc
000002d0: 1d1a 1f3d adc1 3cbd 9702 b73c 1e89 cbbc
000002e0: 65e4 02bd 7ef0 85bd ea8c c1bd 4b9f 14bd
000002f0: c406 5ebc 20c4 27bc 11b2 f5bc 8bc6 3ebd
00000300: af7e 543b 7a1a 65bc a291 80bd 99e7 a5bb
00000310: 88cc e3bd 1b9f 29bd 78cc 4abb 1a42 b13c
00000320: 19ff 7fbd 0f10 aebd cc86 a6bd 9f62 81bd
00000330: 19c6 ebbd d729 a73a 3d77 41bd 0560 e6bb
00000340: 0983 30bd d88a 91bd d95a 4a3d 20a0 913c
00000350: bace 4b3d a2bb 1c3c ffec 4cbd 18c2 543d
00000360: fd2d fa3c bcef f63d 821d 723d 6dcb 5f3d
00000370: 7a06 4b3d a381 103d aaa1 7c3d 0c3f 31bd
00000380: 346a 9abc 43ab 76bd 90bb 293d 2a53 953c
00000390: 6ee5 ebbc 5cb1 fcbc 0b6c 53bb 99e3 31bd
000003a0: 3652 3ebc f24d 5ebc 18d5 84bd dfdc aabc
000003b0: 8369 84bd 0035 0abd 49cf b4bc a8c1 42bd
000003c0: 2ba1 30bc 8740 d3bc aa82 4f3c 08e1 2a3d
000003d0: 56ea 19bd 280e 033c 5f5e 193d 7958 f43d
000003e0: a21d 783d 21c9 a33b 2b3b 8dbb 33ee d8bc
000003f0: 5b79 493d 611a 8abd 338b b83d 1493 3fbc
0.12625 0.1120762 0.06322402 0.025211707 0.06619047 0.016269507 0.0190196 -0.02650361
-0.015424065 0.008804381 -0.035950348 -0.018529642 -0.0900904 -0.06524531 -0.04998075 -0.027793681
-0.049204685 -0.09361169 -0.08139623 -0.0071111154 -0.0878534 -0.08846762 -0.060841307 -0.08965304
-0.025529223 -0.057674386 -0.05954512 -0.06389965 -0.04974015 -0.043862443 -0.07063451 -0.025143044
0.03166219 0.017875046 0.0032600309 -0.09474826 -0.04269156 0.070689596 0.07567916 0.026086539
-0.06445368 -0.043116692 0.16551004 0.060263954 0.015622426 -0.009173702 -0.014907255 0.07278932
-0.057953645 -0.042860307 0.05840127 0.0063244044 0.0109722335 -0.055941768 -0.05936683 0.07478982
0.1047909 -0.007972495 -0.010458474 -0.04151269 0.019942619 0.10122195 0.08007527 0.032677453
0.053515263 -0.043420654 -0.0055355607 0.041957807 0.01903107 0.03140879 -0.11744545 -0.06186517
0.011964813 0.03286955 -0.012447191 -0.03878691 0.0031521765 0.03256225 -0.12740481 -0.12741841
0.050791193 0.14484529 0.17199984 0.048714254 -0.08161339 -0.028491722 0.19343352 0.15487036
0.0010188532 0.103279985 -0.07459589 0.38238627 0.027792383 0.041642383 -0.011542814 -0.09967839
0.014939274 -0.03298456 0.1085953 -0.0052357055 -0.020146986 -0.027449567 -0.078604825 0.0005199623
0.06626155 -0.04209368 0.007134489 -0.059639875 -0.0027463068 -0.019765366 0.010547089 -0.010577176
0.0093342215 0.100034595 0.057032097 0.12991297 0.004817825 0.083330184 0.0510208 -0.03415128
-0.0056840046 0.06554527 0.11427729 -0.07457424 -0.03757508 0.041858844 -0.0017537996 -0.00042356033
-0.06866167 -0.035591967 -0.0042511616 0.027825229 -0.045560297 -0.04545108 -0.0012391133 -0.027338317
-0.0102747325 -0.062648974 -0.06682872 -0.07298165 -0.055629488 0.008896084 -0.06917442 -0.08138347
-0.052264605 -0.03719291 0.07336688 -0.100815155 -0.07422037 -0.022450546 -0.052300286 -0.031105455
0.011187791 0.116836384 0.19309102 -0.066458166 -0.052526426 -0.004235159 0.035376657 0.030050162
-0.06487853 0.023225645 -0.011104317 -0.042203862 -0.035669275 0.010858046 0.05566003 -0.012432805
-0.043324865 0.013579002 -0.02771625 0.013228393 0.020071508 -0.039236277 -0.0058693783 0.0721321
-0.047375813 0.041849636 0.04491276 -0.013393293 0.038843263 -0.04608314 0.022340102 -0.024845656
-0.031956095 -0.06540011 -0.09450705 -0.036284726 -0.013551418 -0.010239631 -0.029992135 -0.046576064
0.0032424142 -0.013983363 -0.06277777 -0.005063009 -0.111229956 -0.0414115 -0.0030944627 0.021637965
-0.06249914 -0.08499157 -0.08131179 -0.063176386 -0.115123935 0.0012753558 -0.047232855 -0.0070304894
-0.043093715 -0.071065605 0.049403045 0.017776549 0.049757697 0.0095662195 -0.050030705 0.051942915
0.030539507 0.120574445 0.059110172 0.05463736 0.049566723 0.03527988 0.061677612 -0.043273017
-0.01884947 -0.06022192 0.04143864 0.018228132 -0.028795924 -0.03084629 -0.0032260444 -0.043429945
-0.01161628 -0.013568388 -0.06485957 -0.020857273 -0.06465437 -0.03374195 -0.022071498 -0.047547966
-0.010780613 -0.025787605 0.01266543 0.041718513 -0.037576996 0.007998981 0.037443515 0.11930937
0.060575135 0.0049983417 -0.004310032 -0.02648077 0.049188 -0.067433126 0.09010925 -0.011692781

conv2.bias f4 [16]
00000000: 6640 6c3d 30bc 3b3d e010 423d ea3a 5e3d
00000010: 0f14 07bd 0486 21bd 32ee 31bd dc21 bf3c
00000020: 2053 e13c 9866 703c 95d1 5ebd 52d4 cd3b
00000030: a5b0 19bd 00d2 63bc 9c59 33bc 9e59 663b
0.057678603 0.045833766 0.047379375 0.054255404 -0.032978114 -0.039434448 -0.04344005 0.023331575
0.027505457 0.014672898 -0.05439909 0.006281414 -0.037521977 -0.013905048 -0.0109466575 0.003514863

batch2.weight f4 [16]
00000000: 766d d13f a97c c53f 49f6 ef3f a0c3 d83f
00000010: 2ef5 d03f 4b1e e53f 569e ce3f 1b55 f33f
00000020: 332d ea3f a9ab e13f 2b9f db3f 0bf8 d03f
00000030: c371 d83f 75e1 ea3f a8d6 cd3f 5c65 d43f
1.636153 1.5428668 1.8747035 1.69347 1.6324823 1.789987 1.614207 1.9010347
1.8295044 1.7630512 1.7157949 1.6325697 1.6909717 1.8350054 1.6081133 1.6593432

batch2.bias f4 [16]
00000000: f31d 1bbe 1407 90be ee2c 19bf ef57 bdbe
00000010: 3cb6 97be 6606 84be b263 7abe d84b 07bf
00000020: 82a4 d3be 162a fcbe 9971 a4be ab7a efbe
00000030: ffaa 59be 1dd9 efbe 4f4b 75be a602 92be
-0.15148143 -0.281304 -0.5983418 -0.3698115 -0.2963122 -0.25786132 -0.24452093 -0.52850103
-0.41336447 -0.4925086 -0.32117918 -0.46773276 -0.21256636 -0.46845332 -0.23954509 -0.28517646

batch2.running_mean f4 [16]
00000000: 60b6 973c 1627 c2bc ecaa dbbd 422c 92be
00000010: 513e bdbe aaba dfbe 368a 29bf e069 b3bd
00000020: 1a53 2ebf b67c a3bd 7f96 a7be 311a 333e
00000030: 26dd 763d 8749 17bf c210 05bf 953f 09bd
0.01851958 -0.023700278 -0.1072596 -0.2854939 -0.36961606 -0.436971 -0.6622652 -0.087604284
-0.6809555 -0.07982771 -0.32732007 0.1749046 0.060269497 -0.5909657 -0.51978695 -0.033507902

batch2.running_var f4 [16]
00000000: c614 d73e ce63 f93e 8f0d 1e3f e27a 193f
00000010: b9f1 013f b571 073f a598 0e3f 6a57 493f
00000020: bbc1 823f d32f 043f 01c6 0c3f 6e90 ed3e
00000030: e258 153f df4f 4f3f 30b9 123f e89b 103f
0.42008036 0.48708957 0.6173944 0.5995313 0.50759465 0.5290788 0.5570167 0.7864901
1.0215372 0.51635474 0.5498963 0.46399254 0.5833875 0.8098125 0.57313824 0.56487894

fc1.weight f4 [120, 1024]
00000000: d72d 423d e238 c23c 3737 fa3b 31eb ca3c
00000010: 8d90 843d 188d 153d 5eae 67ba 92ec 1c3a
00000020: 309b c03d 5d3a c43c 145e 5d3c d3e7 50bd
00000030: e944 bb3b 1128 863c 3496 4e3c d3e2 05bb
00000040: 4d30 2b3d 2527 813b 5834 a03c 8fe9 cab8
00000050: 8085 823c 7c74 ca3b d4b4 91bb 2f19 593a
00000060: fc3d 8b3b 13f2 17bd d021 04bc c607 63bc
00000070: 15d3 f8bc 05a6 eb39 6370 93bc d1da 1d3d
00000080: dbe3 2c3c 551d 7fbd 6607 a4bb df68 3abd
00000090: b1c9 a1bd 4f50 12bd eebf 57bb 600f 4d3d
000000a0: 0b9c 13bd f953 59bd 11a0 a9bd 0b60 8e3b
000000b0: 3d79 acbd bd3f 51bd 5f64 febc 0d14 f13b
000000c0: b6fc bebc 1650 5bbc 5894 a2bd fd11 cbbc
000000d0: 9b32 eabc ce43 ea3c 5e8b 0fbc 0120 e8bc
000000e0: 01db b03c 379a 66bd be0d 57bd aeed 00bd
000000f0: 77f7 88bc 9895 12bb f7c1 a8bc 49fd 843c
00000100: 8fa2 cc3c da5e 833c f657 85bc 9987 86bd
00000110: 8687 2d3c c81a 753c 1360 b13c f70d acbc
00000120: d1b5 e93b ecb3 373d 7cf0 62bc 699a 12bd
00000130: c0a5 893c 701d abbc 42ac 2d3d 356c 27bd
00000140: 9f23 a2bc 457a 8ebb 6a0b e83a 7478 b63c
00000150: b4b7 553c f65c 283d db95 373d c4c0 e8bb
00000160: 547e ea3c 2ddf cb3b 4231 2b3d 17b3 943b
00000170: 6979 363c 513b 9fbb 233f c63c 4152 1cbc
00000180: 0bee 613c 781f 1d3c 91eb 483d 164a df3c
00000190: 841b 433d d089 933b 405a a23c a1a4 20bc
000001a0: 7b74 d73c 30d1 60bc ec7b e83c 6998 a73d
000001b0: 7cb8 903c c7c0 1b3d d3bf b33c 9bc1 8f3c
000001c0: 12af bf3c 5617 003d e9d1 263d b172 82bc
000001d0: 88a8 243d 8c81 413d 7998 4e3c d351 81bd
000001e0: 54b8 093d 8ef2 443b fa54 fdbb 507e 32bc
000001f0: 8be8 a5bc 45a4 fcbc ad88 ebbb 0edb b5bc
00000200: fc17 513c 81ed 36bd d2d0 a73d 8dcc f8bb
00000210: 0eee 8e3c 50a2 153d 75d9 05bd e22e 263c
00000220: ead4 90bc 10ed 45bc e528 2dbc 3c4f 813b
00000230: 31be 193d 1339 883c 2901 34bc 4ca6 213b
00000240: 0b06 c43b fbd5 85bb 8843 bb3c 9d81 81b9
00000250: 7e5b 38b8 46d9 1bbd abd3 51bd e31a 173c
00000260: 4953 303d 0c18 6d3c 1573 363b c738 d73c
00000270: 9c81 c0bc b951 8a3c b719 a63c 59ba f9ba
00000280: 135d 103d d606 db3c 1241 353d 0d6c 43bd
00000290: d359 1bbc 3fd2 da39 3d7e 03bd 5f90 a3bc
000002a0: 1697 033d 2111 a6bc 8b8f a13c 4f77 da3c
000002b0: 05aa c23c b4b4 d0bb 5a74 e6bd 79b3 bbbc
000002c0: f285 653d e3bb 0a3d 402f 4fbc 14be 9fbc
000002d0: 4ab8 b6ba 192b 183b 9a13 c8bc 1ba9 56bc
000002e0: a941 813c e9a2 3cbd c6b9 8bbc eeda 103c
000002f0: b9d5 14bd 728a 38bd 9904 dcbc c7d9 45bc
00000300: 64b3 783b 0ded 56bd 4d89 cdbb f67a c4bc
00000310: eff6 8aba cc41 41bc b46d 32bd a545 ee3c
00000320: 6749 19bd 7d18 f33b a95d 163b 4d6c 72bd
00000330: d2e3 e5bc 54ed 16bd 2371 34bd 5e83 62bc
00000340: 9399 573c eace 15bd 12eb cd3c 39d5 cabc
00000350: 28b8 cd3c 7e92 30bc e0ab de3c 82fe 21bd
00000360: 4504 9d3c 81b5 493d 0e7e bfbb 9d39 1ebd
00000370: dae0 543d 116d 753c 854d 7eb9 549d 09bc
00000380: a7b1 23bd a1fa c53c 1702 853c b755 4a3c
00000390: d30d 083d eac1 2c3d 3f6f 6bb9 7c9f f73c
000003a0: c734 0fbd 9ddd a73c f94b b03c 54a3 713c
000003b0: 4393 f83c 3005 433d cac1 073b 0cd4 0cbc
000003c0: ee1b 95bc f940 43bd 4a6b 913c 80f7 a23c
000003d0: ff02 223d 1c90 6bba 092d e3bb 30a5 8f3c
000003e0: 0859 e2bc d7bd 81ba bf21 0a3d 586a ad3c
000003f0: c8c6 5b3c 374c 08bd c6d4 653c 0ecf 173b
0.047406998 0.023708764 0.0076359767 0.024770351 0.064728834 0.03651151 -0.00088379334 0.00059861795
0.094046 0.023953611 0.0135111995 -0.051002335 0.005715002 0.016376527 0.012609053 -0.0020429387
0.04179411 0.003941434 0.01955621 -9.675614e-05 0.015932798 0.006178437 -0.004446605 0.0008281646
0.0042493325 -0.037096094 -0.008064702 -0.013856834 -0.03037409 0.00044946387 -0.017997926 0.038538758
0.010552372 -0.062283833 -0.005005765 -0.04551017 -0.07899798 -0.03572112 -0.0032920795 0.05006349
-0.036037486 -0.0530586 -0.08282483 0.0043449453 -0.08421562 -0.051086176 -0.03105372 0.0073571266
-0.023313861 -0.013385793 -0.079384506 -0.02478885 -0.028588584 0.028596785 -0.008761255 -0.028335573
0.021588804 -0.056299414 -0.05250334 -0.03147667 -0.016719563 -0.0022366997 -0.020600302 0.016234057
0.024979858 0.01603644 -0.016277295 -0.06568832 0.010591393 0.014959998 0.021652257 -0.021002753
0.00713227 0.04484932 -0.013851281 -0.03579179 0.016802669 -0.02088806 0.042400606 -0.04087468
-0.019792376 -0.0043480718 0.0017703597 0.022274233 0.0130442865 0.04110428 0.044820648 -0.0071030576
0.028624691 0.006221673 0.041795023 0.0045379507 0.011137345 -0.004859366 0.024200028 -0.009541095
0.013789664 0.009590022 0.04905278 0.027257007 0.047633663 0.0045025125 0.019818425 -0.009804876
0.02630066 -0.013721749 0.028379403 0.08183367 0.017666094 0.038025644 0.021942055 0.017548373
0.02339891 0.031272255 0.04072753 -0.01592383 0.040199786 0.047242686 0.0126095945 -0.06314435
0.033623055 0.00300518 -0.0077310773 -0.010894373 -0.020252487 -0.030840049 -0.007187924 -0.02219918
0.012762066 -0.044660095 0.08194126 -0.0075927437 0.017447498 0.036531746 -0.032678086 0.010143014
-0.01767965 -0.012080446 -0.010568832 0.003946213 0.037534896 0.016628778 -0.010986605 0.002466577
0.0059821657 -0.0040843464 0.02285935 -0.00024701367 -4.3954227e-05 -0.038049005 -0.051227253 0.009222719
0.043048177 0.014471065 0.002783959 0.02627219 -0.023499303 0.016884672 0.020275934 -0.0019052728
0.035245012 0.026736658 0.04425151 -0.047710467 -0.009481865 0.00041736846 -0.032102812 -0.019966302
0.03212651 -0.02027184 0.019721767 0.026668219 0.023762712 -0.0063691977 -0.11252661 -0.022912728
0.056035943 0.03387059 -0.012645543 -0.019499816 -0.001394042 0.0023219048 -0.02442341 -0.013101841
0.01577838 -0.0460538 -0.017056357 0.008841259 -0.036336634 -0.045053907 -0.026857661 -0.012075848
0.0037948722 -0.052472163 -0.006272471 -0.023984414 -0.0010602156 -0.011795472 -0.043561652 0.029085943
-0.037423518 0.0074186907 0.002294401 -0.059185315 -0.028062735 -0.036847427 -0.044053208 -0.013825266
0.013159174 -0.03657428 0.025136504 -0.024759876 0.025112227 -0.010777114 0.027181566 -0.03954936
0.019167075 0.04924536 -0.0058438843 -0.038629163 0.051972248 0.014979617 -0.00024252206 -0.008399326
-0.039964344 0.02416736 0.016236348 0.012349538 0.03321631 0.04217712 -0.00022452789 0.030227415
-0.03496244 0.020491416 0.021520602 0.014748413 0.030343657 0.04761237 0.0020714873 -0.008595478
-0.018201794 -0.047669385 0.017751355 0.019893408 0.03955364 -0.00089860125 -0.006932859 0.017534822
-0.027630344 -0.0009898496 0.03372359 0.021168873 0.013414092 -0.03327581 0.01402778 0.0023164186

fc1.bias f4 [120]
00000000: caa9 f43b 6a7a 333d 6c7e 803c b100 de3c
00000010: 730f 0b3d 1fc5 1d3d c878 c7bc 0e30 f13c
00000020: decd ca3c 542c c8bc 8ffd 913c 4e2a cf3b
00000030: b386 4aba e962 963c 5fc0 ddbc 5ed7 d4ba
00000040: 70e5 bebc a131 11bd 5b2a 843c 7a3e e1bc
00000050: 2d1d 9ebc 7b7e c2bc 6301 de3b 9f71 733c
00000060: a1a4 d2bb 5495 90ba 8c6a c83c cc7c 6c3d
00000070: 5f4d d13c 22af 063c f4db bd3c d7d1 833b
00000080: 5c60 ba3c d4b8 fb3c 9f67 ce3c 178c 9b3c
00000090: 82ab 023d 3003 f4bc d83a 143d d0e7 6d3c
000000a0: 14bc 343d 329d 113d 1b65 82bb b8d4 873d
000000b0: 19e5 a2bc 45fa 62bd 769d c23b b980 aabc
000000c0: 4abb 5cbc 208a e9bb 8db5 6c3b 4065 033d
000000d0: 450b 36bc c131 bcbc 1ee9 2a3a 11f8 90b9
000000e0: 8680 a0bc 40bd 5ebd 9eaf 5abd e209 823b
000000f0: b442 883c 410e 093d 6bbe 153b a6b0 213b
00000100: 3d1d 103d 6609 533c 2b61 2a3d 418f 8a3b
00000110: 98a0 23bd c634 5ebc b567 943c 664b ea3c
00000120: 6f8f cd3c d3dd db3b 2e8e e2bb 9feb a1bc
00000130: 4c93 ec3c 0041 c63c d284 08bb a0f4 1fbc
00000140: 324d 2c3d efcd d23c 2054 f8bc ec12 1d3d
00000150: c495 30bc 7fdf 5e3c 133c 63bc 0da7 bb3c
00000160: 4f0d 053d 1fe6 d1bc 28ab bbba b14e 97bc
00000170: 39bc edbb 790e 30bc f6d3 0fba 7c4e 353c
00000180: 13bf 44bc 98d1 94bc a2ff 15bd bd3e 103c
00000190: e24a 383b 37cf 92bc e434 f53c 86de 7c3c
000001a0: 7953 a3bc 6b33 323c 05ad c73b 9d67 33bc
000001b0: f63d af3c e97d 98bb c7ad e5bc 5835 0cbc
000001c0: c880 90bb 5236 1e3c 8793 8d3c df2b bcbb
000001d0: cda8 393b 04f5 6abc d923 99bc 2c1c c13c
0.0074665295 0.043817915 0.015685283 0.027099939 0.03395028 0.038518067 -0.024349585 0.02944186
0.024756368 -0.0244352 0.017821101 0.006322182 -0.000772576 0.01835771 -0.027069269 -0.0016238501
-0.023302764 -0.03544772 0.016133478 -0.027495611 -0.019301021 -0.023741951 0.0067750677 0.014858632
-0.0064283167 -0.0011030831 0.024464868 0.057736203 0.025549589 0.008220466 0.02317617 0.0040228176
0.022751026 0.030727781 0.025195895 0.018987698 0.031901844 -0.029786676 0.03618893 0.0145206
0.044124678 0.035550304 -0.003979338 0.0663237 -0.019884633 -0.055414457 0.005939181 -0.020813333
-0.013472388 -0.0071270615 0.0036118955 0.03207898 -0.011111085 -0.022972943 0.00065197225 -0.00027650644
-0.019592535 -0.0543797 -0.053390138 0.0039684633 0.016633369 0.03346086 0.0022849094 0.002467194
0.035184134 0.012880659 0.041596573 0.004228503 -0.039948076 -0.013562387 0.018115858 0.028600406
0.025092809 0.006709793 -0.006913922 -0.019765673 0.02887883 0.024200916 -0.002083112 -0.009762913
0.042065807 0.025732962 -0.030313551 0.038348123 -0.010777894 0.01360309 -0.013869303 0.022906804
0.032483395 -0.025622426 -0.0014317976 -0.01847014 -0.007255104 -0.010745638 -0.0005486602 0.011066075
-0.012008446 -0.018166348 -0.036620744 0.0088040205 0.0028120806 -0.017921073 0.029932447 0.015433913
-0.019937264 0.010876517 0.0060936236 -0.010949996 0.02139185 -0.0046536815 -0.028036965 -0.00855764
-0.004409883 0.009656506 0.01728226 -0.0057425345 0.0028329373 -0.014340643 -0.018693851 0.023573004

fc2.weight f4 [10, 120]
00000000: 683e 9fbe 9189 52bd 6b61 ea3d cdc9 703c
00000010: fce2 8dbc da01 89be 1bb0 af3d 5e00 2bbe
00000020: 055c 13be 09fc 9abe 7473 a43d 7161 2c3c
00000030: 9aa3 a1bc c900 8fbd 2b28 d23d ae3a 503d
00000040: a25a 103e 93f0 3f3e 57e1 b5bd 43ce ab3e
00000050: 6b83 d53d 1ed1 3e3e 79b4 523e 0af8 293d
00000060: af60 56be af3d 80be 9d1e 293e eab3 44be
00000070: de6a 7d3d e200 7d3d 1f3b 80bd 636f a93e
00000080: 891a ea3d 05c7 65bd 1868 54be 840e c23e
00000090: 18ff 093e 1f7a c93d 9a60 77be 6638 95be
000000a0: e3b3 91be d12c d8bd 9556 ecbd d9cb 23be
000000b0: 63ed a83e b9d2 8e3e 7393 213e 9a2a 373d
000000c0: ee16 c9bd c99b 3fbd 9b00 633d a0e7 aebd
000000d0: 5baa 36be 3697 ee3b ff0e 86be 5d68 973d
000000e0: 8441 723e 39b3 d83e f751 503e 7105 8cbd
000000f0: 78de 9abe f2bd 80be 389f 153e 8c52 53be
00000100: 19aa 563d 648e acbe 37cf 2dbe 289e 5cbd
00000110: 7406 ba3e ed0b 233d 56b0 3f3e e349 1abe
00000120: 7027 6a3e 08ab d03d b41b 403d 435b fd3b
00000130: bd10 f93d e9d9 703e fb68 28be fa12 f3bd
00000140: 46e1 eabd fd82 2f3d 3e34 cdbc 350f b43d
00000150: 6fb6 113b 5a43 d53e bd85 70bd f6a5 63be
00000160: 7645 4fbe 3e34 a73e 3a9e 7ebe 2284 77be
00000170: c5a6 b1be 4581 ec3c 9142 173d 8101 c2bc
00000180: a1fb 313e cd11 09be 05b9 00bd bf99 b23d
00000190: 10d9 3c3d 79d9 13be 6784 d83c da40 8a3e
000001a0: 9719 eebd d1bf 4f3c 7da4 583e b8d5 ad3d
000001b0: 7aca 0e3b 7acd d43d 1cca 5d3e 3e14 323e
000001c0: d5e4 76bb 4276 5ebd b751 0b3e 6c80 6ebe
000001d0: 78e3 0e3e 5c8c 67bd 02b7 4d3d 46ad 3abe
000001e0: 5395 f3bd 94b8 80be 908e 233e 9206 ebbd
000001f0: 52cf 85be a9d0 02be 0387 593e e716 8a3e
00000200: 248c a93d 2f85 8dbc 2c3f 333d 4f29 ff3d
00000210: dcf5 98be 5393 6cbd e1a7 533e 4b56 06be
00000220: c87f 7c3b 096c 9bbe 49b5 ac3c a0da 34be
00000230: c848 b7be 8278 103e d6c9 bc3c eb10 8ebd
00000240: 469e 8abd 18b7 1a3e a114 8f3e c178 74be
00000250: 8d0e ea3e ea70 a4be 1e08 79be fee4 7abe
00000260: 6c33 e6bc c334 95be 017f 0c3e f47f cdba
00000270: a582 aabc 1258 d1bd 86fd 43be aed5 68bd
00000280: 0460 42be ea10 ba3e 9e88 f9bd 9790 3c3e
00000290: 4053 523b 948d b3bd b099 3cbe 15f9 14bd
000002a0: 6ac2 9c3e e012 4c3d 4258 95ba f415 ee3d
000002b0: 70a4 173c 55b0 9fbc 1ff2 a8bd 2717 46be
000002c0: 7e7f 5cbd 64af 7bbd fbd2 803e 3481 9a3d
000002d0: 558c 3e3d 969d 8b3b ac48 ed3d 9345 ee3d
000002e0: c341 97be 16e0 003e 52a3 c4bd 3b2e f33e
000002f0: 6e01 9cbc 61f3 1abe b9df 7a3e 009e 84be
00000300: 865c 52be ac3d 27be 31e9 9a3d 6fcf 383d
00000310: a837 5fbe 5346 043e 2cf6 663e b154 4b3d
00000320: 0133 f4bd 7b24 e5bd 2832 f23c 4c5b f43d
00000330: 9c68 13be c7ca 953e 36f7 783e 6e62 b2bd
00000340: 8478 3dbe f6f8 84be 9dae f9ba d31c d3bd
00000350: c8a9 c23d 90b6 6ebe 6f15 97bd ddca e8bd
00000360: e305 b3be b3e1 1f3c eb87 193e e005 213e
00000370: d424 89be 60bb 73bd 5b74 423e 3c3e 0fbe
00000380: 941e e83c 762c 0ebe 0829 40bc f285 aa3d
00000390: 2746 c5be aed3 ff3e ff13 2dbe 2451 6a3d
000003a0: 867d 3bbe 207d 26bc bf38 01bd 7454 d53e
000003b0: dd9c 02be 1346 35be df1f 633e 3933 07be
000003c0: b082 80be 8ae7 473e c152 0dbd 1dcd 26bd
000003d0: c692 c7bd 966d ba3e 5acc 25be 90ee 87bd
000003e0: d632 6b3d d6af d93d b565 003e 11b0 e43d
000003f0: e4c0 29be 0739 ea3c b43d 5ebe b27d e13e
-0.311023 -0.051400725 0.11444362 0.014696551 -0.017320149 -0.26759225 0.08578511 -0.16699359
-0.14390571 -0.30270413 0.080298334 0.010521279 -0.019731332 -0.06982572 0.10261568 0.05083721
0.14097074 0.18744116 -0.08880871 0.33555803 0.104254566 0.1863446 0.20576657 0.041496314
-0.2093532 -0.2504706 0.16515584 -0.19209257 0.061869495 0.06176842 -0.062612765 0.33092794
0.114308424 -0.056098003 -0.20742834 0.379017 0.13476217 0.09837746 -0.24157944 -0.2914459
-0.28457555 -0.10555423 -0.11539952 -0.1599573 0.32993612 0.27895144 0.15778904 0.044718362
-0.098188266 -0.046779428 0.0554205 -0.08540273 -0.17838423 0.0072812093 -0.26183316 0.073929526
0.23657805 0.42324236 0.20343767 -0.06836975 -0.30247855 -0.25144917 0.14611518 -0.20636958
0.05240831 -0.33702385 -0.16973577 -0.053861767 0.36333048 0.039806295 0.1871961 -0.15067248
0.22866607 0.101888716 0.04690142 0.0077318265 0.12161396 0.23520626 -0.16446297 -0.11868854
-0.11468749 0.04284953 -0.025049325 0.08791963 0.0022233983 0.41652948 -0.058721293 -0.22231278
-0.20241341 0.32657045 -0.24865046 -0.24171498 -0.34697548 0.028870234 0.036928717 -0.023682358
0.17381145 -0.13385697 -0.03142645 0.08720731 0.046105444 -0.14438428 0.026430322 0.27002603
-0.116259746 0.01268001 0.21156497 0.08488029 0.0021788166 0.10390754 0.2165913 0.17390534
-0.0037673016 -0.054312 0.1360539 -0.23291177 0.1395396 -0.05653034 0.050223358 -0.18230161
-0.11893716 -0.25140822 0.15972352 -0.114758626 -0.26134735 -0.1277491 0.21242909 0.26970598
0.08278683 -0.017275421 0.043761417 0.12459051 -0.29875076 -0.057757687 0.2066951 -0.13118856
0.0038528312 -0.30355862 0.021082537 -0.17661524 -0.35797715 0.1410847 0.023045462 -0.069368206
-0.067684695 0.15108907 0.27945426 -0.23874189 0.45714226 -0.32117397 -0.24319503 -0.24501416
-0.028100692 -0.29141816 0.13720323 -0.0015678392 -0.02081425 -0.10221876 -0.1913968 -0.056844406
-0.1898194 0.3634103 -0.12184261 0.18414532 0.0032093078 -0.08767238 -0.18418002 -0.036370356
0.30617076 0.049822688 -0.0011394101 0.11625281 0.009255514 -0.019493261 -0.08249306 -0.1934477
-0.053832524 -0.061446562 0.25160965 0.07544175 0.04652055 0.004260729 0.11586127 0.11634364
-0.2954236 0.12585482 -0.096014634 0.4749621 -0.01904365 -0.15131904 0.24499406 -0.25901794
-0.20543107 -0.1633212 0.07564009 0.0451197 -0.21798575 0.12917452 0.22554845 0.049641315
-0.11923791 -0.11188599 0.029564932 0.11931476 -0.14395374 0.2925627 0.24313053 -0.0871018
-0.18503004 -0.25971192 -0.0019049231 -0.10308232 0.095050395 -0.2331183 -0.07377135 -0.11366818
-0.3496543 0.009758401 0.14993255 0.15724897 -0.2678591 -0.059504867 0.18989699 -0.13988584
0.028334893 -0.13884148 -0.011728533 0.08326329 -0.38530084 0.49966186 -0.16902159 0.057206288
-0.18309602 -0.010161668 -0.031548258 0.41665995 -0.12755151 -0.17702512 0.22180127 -0.13203134
-0.25099707 0.19521919 -0.03450275 -0.040722955 -0.09744792 0.36411732 -0.16191235 -0.06637299
0.057421528 0.10629241 0.12538798 0.111663945 -0.16577488 0.028591646 -0.21703225 0.4404121

fc2.bias f4 [10]
00000000: 4732 22bd 3ef2 9eba f9f0 2fbd bf0f 71bc
00000010: 6cf5 0b3e 64c9 ad3d 109e 103c f605 153d
00000020: b93d 4abd 8bcb 9d3c
-0.03959873 -0.0012126637 -0.04295442 -0.014713227 0.1366784 0.08485678 0.008826748 0.036382638
-0.04937527 0.019262096
