models/net/model_epoch_48.pt (torch, 517807 bytes, 16 tensors)

conv1.weight f4 [8, 3, 5, 5]
0	0xbd8bd4a0	-0.068276644
1	0xbd337f07	-0.043822315
2	0xbdaa11b7	-0.0830416
3	0x3e2625c6	0.16225347
4	0x3e16b4e8	0.14717448
5	0xbe59532f	-0.21223138
6	0xbde077d5	-0.10960356
7	0x3de47ce9	0.11156637
8	0x3e2052b5	0.1565655
9	0x3d5fdff5	0.05465694
10	0xbc2f02ff	-0.010681867
11	0x3dfad40c	0.12247476
12	0x3e3c10a3	0.18365721
13	0x3df2afc1	0.11849929
14	0x3e530be8	0.2061001
15	0x3d7adafc	0.061243996
16	0x3e7ae886	0.24502763
17	0x3e3d49d9	0.18485202
18	0x3d572f5f	0.05253541
19	0x3dedef17	0.116178684
20	0xbd8daf16	-0.069181606
21	0x3cd704f1	0.026247473
22	0xbdc43ad2	-0.095815316
23	0x3cffa122	0.031204764
24	0xbc1b2d42	-0.0094712395
25	0xbdf12fbf	-0.11776685
26	0xbde8fe2b	-0.11376604
27	0xbd942afe	-0.072347626
28	0x3dc3b4ef	0.09555995
29	0xbbe34864	-0.00693612
30	0xbd581707	-0.052756336
31	0xbe07839a	-0.13233796
32	0x3ddf3f86	0.10900788
33	0x39a40ef4	0.00031291659
34	0xbda1d589	-0.07902057
35	0xbca8ee96	-0.02062158
36	0x3d50ad5c	0.05094658
37	0x3d265ce2	0.040615924
38	0xbdb26f01	-0.087125786
39	0xbe1f2dfe	-0.15544888
40	0x3d8cba7c	0.068715066
41	0xbd40ecb4	-0.047100738
42	0xbd389733	-0.04506607
43	0xbd6a14af	-0.05714863
44	0xbdddb94c	-0.10826358
45	0xbb97cde2	-0.0046326974
46	0x3d261632	0.04054851
47	0xbe42662b	-0.18984286
48	0xbdde4c1f	-0.10854363
49	0xbdbc0fe3	-0.09182718
50	0xbdd357ae	-0.10319458
51	0xbd7dfdc3	-0.062009584
52	0xbd0f9589	-0.035054717
53	0x3e05df20	0.13073397
54	0x3d898cde	0.067163214
55	0x3d11de2a	0.035612263
56	0x3e07107a	0.13189879
57	0x3e2c83e6	0.1684719
58	0x3de428bf	0.11140584
59	0xbdec2472	-0.11530389
60	0x3c906c29	0.0176297
61	0x3d2ab9ad	0.04168098
62	0x3dc56cb2	0.096398726
63	0xbe1073ba	-0.14106646
64	0xbdf3ef32	-0.11910857
65	0x3e0c080d	0.13674946
66	0x3e3c1714	0.18368179
67	0xbd055100	-0.03254795
68	0xbe45b04c	-0.19305533
69	0xbe52a8bb	-0.20572178
70	0x3e8b59b8	0.27216887
71	0x3dccb26e	0.0999497
72	0x3c689866	0.014196491
73	0xbe459b54	-0.19297534
74	0xbcc6b908	-0.024258152
75	0xbd34bc49	-0.044124875
76	0xbd4d3fdd	-0.050109733
77	0x3e8c844e	0.2744469
78	0x3dffaaf0	0.124837756
79	0xbe4a636e	-0.19764492
80	0x3c57103d	0.01312643
81	0xbe952755	-0.2913157
82	0xbd79036c	-0.06079428
83	0x3eac1d73	0.33616218
84	0x3d9639e3	0.0733526
85	0x3d9d33cf	0.07675897
86	0x3e3e5abc	0.185893
87	0xbec2edfb	-0.3807219
88	0xbe3287b8	-0.17434585
89	0x3eb732d8	0.35780978
90	0xbdd9544d	-0.10611782
91	0x3db5ce9b	0.088772975
92	0x3e6a44f3	0.22877865
93	0xbe37882f	-0.17923044
94	0xbdaf101c	-0.085479945
95	0xbddf6008	-0.109069884
96	0xbdadf24e	-0.084934816
97	0x3d837ca8	0.06420261
98	0x3d900665	0.0703247
99	0xbd9bb2f1	-0.0760249
100	0xbdd37e48	-0.103268206
101	0xbbbe710e	-0.005811817
102	0x3e06d748	0.13168061
103	0x3da1698e	0.07881461
104	0x3cdb7825	0.026790688
105	0xbcab60aa	-0.020920116
106	0xbea0a6fd	-0.31377402
107	0xbe99db37	-0.3005006
108	0x3e5c6597	0.21523128
109	0x3ddc02f5	0.107427515
110	0x3e9e5109	0.309212
111	0x3e878109	0.26465634
112	0xbe97500d	-0.2955326
113	0xbeaad69c	-0.3336686
114	0x3e864954	0.2622782
115	0xbda4ff10	-0.08056462
116	0x3e8f27c8	0.27960038
117	0x3df6175e	0.12016176
118	0xbea7c362	-0.32766253
119	0xbdd643ee	-0.10462175
120	0x3c3c9a9b	0.01151147
121	0xbdfc4526	-0.123178765
122	0x3e215ee5	0.15758856
123	0xbb20be18	-0.0024527367
124	0xbde0af2a	-0.1097091
125	0xbd8abccb	-0.06774291
126	0xbd844c6a	-0.06459887
127	0x3cc7d8e6	0.024395417
128	0x3e2b4188	0.16724217
129	0xbe01b0fc	-0.1266517
130	0x3ddd380e	0.10801707
131	0xbe2b28ea	-0.16714826
132	0xbea31df5	-0.31858793
133	0x3ea3cbf6	0.31991547
134	0x3ba0a916	0.004902969
135	0x3df14f7d	0.11782739
136	0x3e0cfda3	0.1376863
137	0xbee6eba2	-0.4510165
138	0xbe830a6a	-0.25593883
139	0x3e4a0e54	0.19732028
140	0x3cfc72fc	0.030816548
141	0x3e3b7c5e	0.18309161
142	0x3e8aea04	0.27131665
143	0xbee5070e	-0.44731945
144	0xbe12c49d	-0.14332815
145	0x3d67ce63	0.05659331
146	0x3d286a5b	0.041117053
147	0x3e935b05	0.2878038
148	0x3e50dece	0.20397493
149	0xbdd20890	-0.102555394
150	0xba0934bf	-0.0005233995
151	0xbe813b6d	-0.2524065
152	0x3e60692e	0.21915123
153	0xbc859fcc	-0.016311549
154	0x3dbee1d7	0.09320419
155	0xbea0588b	-0.31317553
156	0x3ea6f37a	0.32607633
157	0x3e82136b	0.2540544
158	0xbe54bfef	-0.20776342
159	0xbdef1923	-0.11674716
160	0x3e146bec	0.14494294
161	0x3e8a5fa4	0.27026093
162	0xbf23b2a8	-0.6394448
163	0xbddc5e5f	-0.10760187
164	0x3e6bf339	0.23042001
165	0x3c976926	0.018482756
166	0xbecef3b3	-0.40420303
167	0x3d489371	0.048968736
168	0x3f122864	0.5709288
169	0xbe68f969	-0.22751392
170	0x3b81c1e8	0.003959883
171	0x3cddaa13	0.027058637
172	0x3e926282	0.2859078
173	0xbd989309	-0.0744992
174	0xbe4f0f40	-0.20220661
175	0x3e4b712d	0.19867392
176	0xbe21afce	-0.1578972
177	0x3e332299	0.17493667
178	0x3d10b9b3	0.035333347
179	0xbddd6781	-0.108107574
180	0x3c0b8e09	0.008517751
181	0x3eddea64	0.43342888
182	0x3e288e7d	0.16460605
183	0xbebc6d43	-0.3680211
184	0x3d3acd50	0.045605958
185	0x3e92308c	0.28552663
186	0x3ecbe92a	0.39826328
187	0xbf30ff18	-0.6913924
188	0xbd84dbcb	-0.06487235
189	0x3e93e52e	0.28885788
190	0x3d278826	0.040901326
191	0xbec02083	-0.37524804
192	0xbd93dc65	-0.07219771
193	0x3f040572	0.5157081
194	0xbe2e0ef3	-0.1699789
195	0xbdfff8cd	-0.12498627
196	0xbe0151c3	-0.12628846
197	0x3b263645	0.0025361937
198	0xbe5e0ea0	-0.21685266
199	0xbe2c22a5	-0.16810091
200	0xbd8d825e	-0.06909631
201	0xbeb106ea	-0.34575588
202	0x3d0d2c7b	0.034466248
203	0xbe02e0c1	-0.1278105
204	0xbce166f2	-0.027514908
205	0xbe89a2bc	-0.2688197
206	0x3e4fbc56	0.20286688
207	0x3e13075d	0.14358278
208	0xbe460ca1	-0.19340755
209	0x3e3700de	0.17871425
210	0xbd8bd1bc	-0.06827113
211	0x3e732e62	0.23748162
212	0xbf2cb1c2	-0.67458737
213	0xbc9577f0	-0.018245667
214	0x3e8027e4	0.25030434
215	0xbcd54a0c	-0.026036285
216	0xbeb84d5e	-0.35996526
217	0xbd69687a	-0.056984402
218	0x3f10443d	0.56354123
219	0xbd9c1165	-0.07620505
220	0x3c817c03	0.015806204
221	0x3e4e1355	0.20124562
222	0x3e95853a	0.29203206
223	0x3d8d9a25	0.06914166
224	0x3cc55de6	0.024092626
225	0x3de5667c	0.11201188
226	0x3e80bb88	0.25143075
227	0x3da5df6c	0.08099255
228	0xbdd7f5fb	-0.10544964
229	0x3d05e2e9	0.0326871
230	0x3d6bd445	0.057575483
231	0x3e44c8c7	0.19217215
232	0xbd5da1b3	-0.054109287
233	0xbe33e1bc	-0.1756658
234	0xbd83e2f4	-0.06439772
235	0x3e4a1bad	0.1973712
236	0x3e3308ae	0.1748378
237	0xbe8caab1	-0.27473977
238	0xbea8aac3	-0.3294278
239	0xbe0f21c2	-0.13977721
240	0x3e79b561	0.24385597
241	0xbd40f66c	-0.047110006
242	0xbdd6335f	-0.10459017
243	0xbded3ce6	-0.11583881
244	0x3e2a701e	0.16644332
245	0x3ae1019a	0.0017166615
246	0xbe521b73	-0.20518284
247	0x3cc81352	0.024423275
248	0xbe18cce1	-0.14921905
249	0x3c5a9b5f	0.013342707
250	0xbdc3514a	-0.09536989
251	0xbe72ec21	-0.23722889
252	0xbe070b9b	-0.13188021
253	0xbe28ba67	-0.16477357
254	0xbe16b1b7	-0.1471623
255	0xbdb196b7	-0.08671325

conv1.bias f4 [8]
0	0xbd7ee892	-0.062233515
1	0x3d77296c	0.060342237
2	0xbddfd055	-0.10928408
3	0xbd36f150	-0.044663727
4	0xbcb848fc	-0.02249574
5	0xbdc8f382	-0.098120704
6	0xbd966067	-0.07342606
7	0xbc9a64b7	-0.018846853

batch1.weight f4 [8]
0	0x3f41a3b0	0.7564039
1	0x3f686cbc	0.90790915
2	0x3f518f31	0.8185912
3	0x3f80e80d	1.0070816
4	0x3f95ba73	1.1697525
5	0x3f713215	0.94217044
6	0x3f849085	1.0356604
7	0x3f89a95b	1.0754808

batch1.bias f4 [8]
0	0xbd8cae77	-0.06869214
1	0xbeab755e	-0.33487982
2	0xbe4709fb	-0.19437401
3	0xbec99c5c	-0.39377105
4	0xbe85d994	-0.2614256
5	0xbe2e7a30	-0.17038798
6	0xbea7c003	-0.3276368
7	0xbea8834d	-0.32912675

batch1.running_mean f4 [8]
0	0x3e4d116f	0.20026182
1	0xbb8057da	-0.0039167227
2	0xbe4a5a73	-0.19761066
3	0xbec08710	-0.37603045
4	0xbdc59060	-0.09646678
5	0xbe4389e5	-0.19095571
6	0xbe0752bc	-0.13215154
7	0xbce4fac5	-0.027951607

batch1.running_var f4 [8]
0	0x3d676433	0.05649204
1	0x3d364b60	0.044505477
2	0x3d19312c	0.03740041
3	0x3d74a8cb	0.059731286
4	0x3e2ce7ae	0.16885254
5	0x3e0934bb	0.13399021
6	0x3db3659f	0.08759617
7	0x3d968f28	0.07351524

conv2.weight f4 [16, 8, 5, 5]
0	0x3df895e4	0.12137964
1	0x3dee2a28	0.116291344
2	0x3d896335	0.06708375
3	0x3c71e795	0.014764686
4	0x3d6cabc4	0.057780996
5	0x3cf3d94a	0.029766697
6	0x3cfc26c1	0.030780198
7	0xbcae47aa	-0.021274406
8	0xbc83454c	-0.016024254
9	0x3c1e6dbf	0.00966972
10	0xbd2a49f5	-0.041574437
11	0xbc95e0fb	-0.018295756
12	0xbdb8af79	-0.09017844
13	0xbd82eb5b	-0.06392547
14	0xbd3c976a	-0.046042837
15	0xbce7d4c3	-0.028299695
16	0xbd5424a1	-0.051792745
17	0xbdd306e0	-0.10304046
18	0xbda54787	-0.080702834
19	0xbbabf310	-0.005247481
20	0xbdc1b309	-0.09457976
21	0xbdb8e6f4	-0.09028426
22	0xbd7fa79d	-0.062415708
23	0xbd9a81a2	-0.07544257
24	0xbcbe9a2a	-0.02326687
25	0xbd5999c1	-0.053125147
26	0xbd701ef0	-0.058623254
27	0xbd6e3968	-0.058160216
28	0xbd67b831	-0.056572143
29	0xbd2ce773	-0.042212915
30	0xbd833c13	-0.064079426
31	0xbd051f44	-0.03250052
32	0x3cbe772c	0.023250185
33	0x3ca908b3	0.02063403
34	0x3b41db03	0.0029580004
35	0xbdb5adae	-0.088710174
36	0xbd2e4c51	-0.04255325
37	0x3d90903c	0.070587605
38	0x3d79aef0	0.06095785
39	0x3d039379	0.032123063
40	0xbd81704f	-0.06320249
41	0xbd2cfc45	-0.04223277
42	0x3e278ecc	0.16363066
43	0x3d680b4c	0.0566514
44	0x3bbd02d7	0.005768161
45	0xbbeef418	-0.007292282
46	0xbc27ffec	-0.010253888
47	0x3d821a9f	0.06352734
48	0xbd72849f	-0.05920851
49	0xbd716cc8	-0.058941633
50	0x3d7bac96	0.061443888
51	0x3c85459f	0.01626855
52	0x3b907db3	0.0044095158
53	0xbd58053c	-0.052739367
54	0xbd8a14c5	-0.06742243
55	0x3d967fb1	0.07348574
56	0x3da4b182	0.080416694
57	0xbba498e1	-0.0050231074
58	0xbc2644a1	-0.010148198
59	0xbd691cd7	-0.05691227
60	0x3ca34bc5	0.01993359
61	0x3ddb284b	0.10701045
62	0x3d810b87	0.06301027
63	0x3d37826a	0.044802107
64	0x3d59bf19	0.05316076
65	0xbd227135	-0.039658744
66	0x3bc9f604	0.0061633606
67	0x3d2c1cf5	0.042019803
68	0x3c78cc6f	0.0151854595
69	0x3d17a0a7	0.037018444
70	0xbdf3cd61	-0.11904407
71	0xbd889b8f	-0.066702954
72	0x3c203041	0.00977713
73	0x3cefe6d5	0.029284874
74	0x3981e357	0.0002477418
75	0xbd270cf5	-0.04078384
76	0x3c2d5b24	0.010580812
77	0x3d01451a	0.03156004
78	0xbded5d83	-0.115901016
79	0xbe010399	-0.12599029
80	0x3d4ed522	0.050496228
81	0x3e1605af	0.14650606
82	0x3e28977a	0.16464034
83	0x3d61a421	0.055088166
84	0xbdacee36	-0.08443873
85	0xbcab87db	-0.020938804
86	0x3e3af2ef	0.18256734
87	0x3e22ad8f	0.1588652
88	0x3c093ce6	0.008376336
89	0x3dc6b1d4	0.09701887
90	0xbd8fc56c	-0.07020077
91	0x3eb92b8a	0.3616603
92	0x3d17fdb4	0.037107185
93	0x3d260cee	0.040539674
94	0xbba177a0	-0.0049275905
95	0xbdbba83a	-0.09162946
96	0x3cb0bd0a	0.021574516
97	0xbd279baf	-0.040919956
98	0x3dd34678	0.10316175
99	0xbbf1de28	-0.0073812194
100	0xbcd4dd0d	-0.025984311
101	0xbd15d613	-0.03658111
102	0xbd9f0985	-0.077654876
103	0x3bc5b1d3	0.006033161
104	0x3d871623	0.06596019
105	0xbd10aebf	-0.0353229
106	0x3b9b46d8	0.00473867
107	0xbd526512	-0.05136592
108	0xbb8a6658	-0.004223626
109	0xbc4a1afe	-0.012335537
110	0x3bf5f3ca	0.0075058686
111	0xbc980314	-0.018556155
112	0x3be1c8d7	0.006890397
113	0x3da3947b	0.07987305
114	0x3d6a4188	0.0571914
115	0x3e055615	0.13021119
116	0x3bb3ed58	0.00549094
117	0x3dae3b0e	0.085073575
118	0x3d52b2c8	0.05144003
119	0xbd1a74cb	-0.03770904
120	0xbc192d4e	-0.00934918
121	0x3d7b28c9	0.061318193
122	0x3ddf61fe	0.109073624
123	0xbd8d5ca9	-0.06902439
124	0xbd24e4f0	-0.040257394
125	0x3d2258e1	0.039635543
126	0x39f6478c	0.00046974083
127	0xbaaab84b	-0.0013024894
128	0xbd92a1bd	-0.071597554
129	0xbd06d8b4	-0.032921508
130	0xbb40a9cb	-0.002939808
131	0x3c7d91c2	0.015476646
132	0xbd2b6ad8	-0.04184994
133	0xbd3ff573	-0.046864938
134	0xbba069ba	-0.004895416
135	0xbcc95b1c	-0.024579577
136	0xbc7fd2cd	-0.015614224
137	0xbd859d48	-0.0652414
138	0xbd8fc4ad	-0.07019935
139	0xbd94cb5e	-0.07265352
140	0xbd4bc545	-0.049748678
141	0x3be5a0b5	0.007007683
142	0xbd89abd2	-0.06722225
143	0xbdb48a77	-0.088154726
144	0xbd6b5a93	-0.057459425
145	0xbd0e84e1	-0.034794692
146	0x3d8fa271	0.07013405
147	0xbdbf2c89	-0.09334666
148	0xbd8b6ac7	-0.068074755
149	0xbc62a625	-0.013833557
150	0xbd7f881d	-0.062385667
151	0xbd12c8d5	-0.03583606
152	0x3a9f98bb	0.0012176255
153	0x3de73ade	0.11290525
154	0x3e40b720	0.18819857
155	0xbd843d2b	-0.06456979
156	0xbd5e2dc8	-0.05424288
157	0xbb2371f3	-0.0024939745
158	0x3cfd2270	0.03090021
159	0x3cd25dfb	0.025679579
160	0xbd85c364	-0.065314084
161	0x3cd7c7ef	0.026340453
162	0xba5aae9d	-0.00083420594
163	0xbd456b61	-0.048198108
164	0xbd1218af	-0.03566807
165	0x3a274714	0.0006381136
166	0x3d598bd6	0.053111874
167	0xbb3b90e7	-0.0028620304
168	0xbd168d52	-0.036755867
169	0x3cd74ef8	0.026282772
170	0xbcce4af3	-0.025182223
171	0x3c7087d5	0.014680822
172	0x3c918bc0	0.017766833
173	0xbd0421cb	-0.03225879
174	0x3bc6f55a	0.0060717287
175	0x3d8adbce	0.06780206
176	0xbd4110e5	-0.047135253
177	0x3d331ec7	0.043730523
178	0x3d461352	0.04835827
179	0xbc8cc875	-0.01718543
180	0x3cf4ea67	0.029896928
181	0xbd47bd96	-0.048764788
182	0x3c80eb3f	0.015737174
183	0xbcb5dfca	-0.022201438
184	0xbce49e3e	-0.027907487
185	0xbd8003e6	-0.062507436
186	0xbdb167a9	-0.0866235
187	0xbd1995b7	-0.037496295
188	0xbcbc7f04	-0.023009785
189	0xbc578ffa	-0.013156885
190	0xbccd9a66	-0.025098037
191	0xbd4c1f82	-0.049834736
192	0xbc1620df	-0.0091631105
193	0xbc8013d7	-0.01563446
194	0xbd7fc031	-0.062439147
195	0x3b98d6b1	0.004664265
196	0xbddf89da	-0.10914965
197	0xbd25eb3f	-0.04050755
198	0xb9c9d464	-0.0003849595
199	0x3cc581c3	0.024109727
200	0xbd825264	-0.06363371
201	0xbda70d80	-0.08156872
202	0xbda6787e	-0.08128451
203	0xbd7909d4	-0.06080039
204	0xbde237db	-0.1104581
205	0x3b9ee77d	0.004849373
206	0xbd120318	-0.03564748
207	0xbc09dec4	-0.008414928
208	0xbd227da7	-0.039670613
209	0xbd8ce52d	-0.06879649
210	0x3d429410	0.047504485
211	0x3c86ecc2	0.016470317
212	0x3d26ae2c	0.040693447
213	0x3bdfd215	0.0068304637
214	0xbd3fe5b8	-0.046849936
215	0x3d4e42c3	0.050356638
216	0x3d14dcfb	0.036343556
217	0x3de3848a	0.11109264
218	0x3d974fc3	0.0738826
219	0x3d587c6c	0.052853033
220	0x3d5a27e4	0.0532607
221	0x3d14e7ac	0.036353752
222	0x3d95d788	0.073165
223	0xbcd6d611	-0.026225122
224	0xbc9a4d6f	-0.018835751
225	0xbd625aae	-0.05526226
226	0x3cfd9343	0.030954009
227	0x3c863de2	0.01638693
228	0xbce4e3cd	-0.027940655
229	0xbcd3d3ee	-0.025857892
230	0xbb4f8c7f	-0.0031669436
231	0xbd2c81fa	-0.042116143
232	0xbca716d5	-0.02039663
233	0xbc62df66	-0.013847208
234	0xbd61834e	-0.055056863
235	0xbc95bb11	-0.018277677
236	0xbd7cd1df	-0.061723586
237	0xbcbf5df3	-0.023360228
238	0xbce47db4	-0.027891971
239	0xbd44eaad	-0.048075367
240	0xbc506236	-0.012718728
241	0xbd0b54f2	-0.034016557
242	0x3cb35a8f	0.021893768
243	0x3d0a79af	0.033807453
244	0xbc902a74	-0.017598368
245	0x3c48c327	0.012253559
246	0x3d16a9eb	0.03678314
247	0x3def6c82	0.11690618
248	0x3d85593f	0.06511163
249	0x3bbacc3b	0.0057006157
250	0xba81d1c4	-0.0009904434
251	0xbd1b92a4	-0.037981644
252	0x3d4629d2	0.048379727
253	0xbd8c4736	-0.0684952
254	0x3db4b0de	0.08822797
255	0xbc94fe75	-0.01818774

conv2.bias f4 [16]
0	0x3d6c4066	0.057678603
1	0x3d3bbc30	0.045833766
2	0x3d4210e0	0.047379375
3	0x3d5e3aea	0.054255404
4	0xbd07140f	-0.032978114
5	0xbd218604	-0.039434448
6	0xbd31ee32	-0.04344005
7	0x3cbf21dc	0.023331575
8	0x3ce15320	0.027505457
9	0x3c706698	0.014672898
10	0xbd5ed195	-0.05439909
11	0x3bcdd452	0.006281414
12	0xbd19b0a5	-0.037521977
13	0xbc63d200	-0.013905048
14	0xbc33599c	-0.0109466575
15	0x3b66599c	0.0035148626

batch2.weight f4 [16]
0	0x3fcc3836	1.5954654
1	0x3fc0b9f1	1.5056745
2	0x3fe98585	1.8243872
3	0x3fd3324c	1.6499724
4	0x3fccb6f1	1.5993329
5	0x3fe059f3	1.752745
6	0x3fcadd6a	1.584882
7	0x3fed875d	1.8556935
8	0x3fe4769d	1.7848698
9	0x3fdc43bf	1.7208174
10	0x3fd6ccf4	1.6781297
11	0x3fcea295	1.6143366
12	0x3fd41d1d	1.6571385
13	0x3fe5fe97	1.796832
14	0x3fc9650c	1.5733962
15	0x3fcfaf18	1.6225309

batch2.bias f4 [16]
0	0xbe04dc2a	-0.12974611
1	0xbe82f62a	-0.25578433
2	0xbf1006f4	-0.5626061
3	0xbeaaeea3	-0.3338519
4	0xbe841db8	-0.25803924
5	0xbe6a0425	-0.22853144
6	0xbe607fa2	-0.21923688
7	0xbef9bdf3	-0.48777732
8	0xbec41f0e	-0.38304943
9	0xbee52482	-0.44754416
10	0xbe9281ae	-0.28614563
11	0xbed8b44d	-0.4232506
12	0xbe3876f8	-0.18014133
13	0xbedd936b	-0.43276533
14	0xbe5e7113	-0.21722822
15	0xbe7e683a	-0.24844447

batch2.running_mean f4 [16]
0	0xbb863744	-0.0040959436
1	0xbdb21ed1	-0.08697284
2	0xbd677e2b	-0.056516808
3	0xbe842e9a	-0.25816804
4	0xbed08ac5	-0.40730873
5	0xbeafeb6a	-0.34359294
6	0xbf2288bc	-0.6348989
7	0xbdaa47af	-0.08314454
8	0xbf2696f9	-0.65074116
9	0xbd591a99	-0.05300388
10	0xbeb12338	-0.34597182
11	0x3e445cd2	0.19176033
12	0x3dac97c7	0.08427387
13	0xbf11b795	-0.5692075
14	0xbed3fb41	-0.4140263
15	0xbd54aa19	-0.05192003

batch2.running_var f4 [16]
0	0x3ed887b1	0.42291024
1	0x3ee8fac6	0.45503825
2	0x3f22dc24	0.6361716
3	0x3f09b2e0	0.53788567
4	0x3ef0cf8b	0.47033343
5	0x3efa956d	0.48942128
6	0x3efcce71	0.49376252
7	0x3f3823ab	0.71929425
8	0x3f6a19a2	0.9144536
9	0x3efb8b71	0.49129823
10	0x3f00dc64	0.5033629
11	0x3ef1009b	0.47070774
12	0x3f0f9b81	0.56096655
13	0x3f3abd35	0.72944957
14	0x3ef1e64f	0.47246024
15	0x3f12c5d4	0.5733311

fc1.weight f4 [120, 1024]
0	0x3d4fb3d4	0.050708607
1	0x3d0c756a	0.034291662
2	0x3c486267	0.012230492
3	0x3ccec212	0.025239024
4	0x3d87bb3b	0.06627508
5	0x3d1f47dc	0.03888689
6	0x3bc0219e	0.0058633825
7	0x3aa916d6	0.0012900482
8	0x3dc26804	0.09492496
9	0x3cd5bcdb	0.02609103
10	0x3c34080f	0.010988249
11	0xbd394a62	-0.045236953
12	0x3b79a4fe	0.0038092728
13	0x3c9810ad	0.01856264
14	0x3c3e85b0	0.011628553
15	0xb9b937ec	-0.00035327615
16	0x3d441465	0.047871012
17	0x3c07a298	0.008278511
18	0x3c9b6fa2	0.01897413
19	0xbb86a736	-0.0041092886
20	0x3c706d26	0.0146744605
21	0x3c1a1870	0.00940524
22	0xbc03d105	-0.00804544
23	0x3ba4f91e	0.00503458
24	0x3c2b5574	0.010457385
25	0xbd13d241	-0.036089186
26	0xbbdcfeae	-0.0067442274
27	0xbc179b76	-0.009253373
28	0xbcf3a77d	-0.02974295
29	0x3b0d1134	0.0021525146
30	0xbca1a64e	-0.01973262
31	0x3d1bf62f	0.038076576
32	0x3c716379	0.014733189
33	0xbd86c160	-0.06579852
34	0xbaef01af	-0.0018234755
35	0xbd465576	-0.048421346
36	0xbd9f6ab4	-0.07784024
37	0xbcf68e90	-0.030097276
38	0x3aa15717	0.001230928
39	0x3d5f1b3d	0.054469336
40	0xbd0137de	-0.03154742
41	0xbd645d6c	-0.055753157
42	0xbda62644	-0.08112767
43	0x3aa08be5	0.0012248723
44	0xbdada794	-0.084792286
45	0xbd374f8f	-0.044753607
46	0xbce8775e	-0.028377231
47	0x3bf7ba48	0.0075600483
48	0xbcddd6d8	-0.027079985
49	0xbc51221d	-0.012764481
50	0xbd99ffdb	-0.07519504
51	0xbcb42826	-0.0219918
52	0xbce70551	-0.028200777
53	0x3cc899b2	0.02448735
54	0xbbfc1516	-0.0076929433
55	0xbcc9640d	-0.02458384
56	0x3cad7696	0.02117471
57	0xbd73cfc9	-0.05952433
58	0xbd49c302	-0.04925824
59	0xbcc209d3	-0.023686325
60	0xbc14fa32	-0.009092854
61	0x3b0e9f64	0.0021762485
62	0xbcb639b4	-0.022244312
63	0x3c85711a	0.016289283
64	0x3caee2fb	0.021348467
65	0x3bdd7418	0.006758224
66	0xbc841e2e	-0.016127672
67	0xbd773b88	-0.060359508
68	0x3c211488	0.009831555
69	0x3c866a74	0.016408183
70	0x3cb14a87	0.021641983
71	0xbcbf472a	-0.023349363
72	0x3c033139	0.008007341
73	0x3d27e419	0.040989015
74	0xbc45e460	-0.012078375
75	0xbd0c1719	-0.034201715
76	0x3c8a33ad	0.016870344
77	0xbc7ae9b8	-0.015314512
78	0x3d3e2ede	0.046431415
79	0xbd1a2bb9	-0.037639353
80	0xbc887109	-0.016655462
81	0xbb8b774e	-0.0042561656
82	0x3b906d71	0.0044075777
83	0x3c81a634	0.015826322
84	0x3c0688f8	0.008211367
85	0x3d19cfa7	0.03755155
86	0x3d5f4a43	0.05451418
87	0xbb709f59	-0.0036716072
88	0x3cf3d26d	0.029763425
89	0x3c3180c7	0.010833926
90	0x3d274f98	0.04084739
91	0x3bd77cf2	0.006576174
92	0x3c0e7353	0.008694488
93	0xb9ae4b41	-0.00033243935
94	0x3cc96448	0.02458395
95	0xbbf64367	-0.007515359
96	0x3be3e947	0.006955299
97	0x3c65f271	0.014034853
98	0x3d4fd28c	0.050737903
99	0x3cda07a7	0.026614977
100	0x3d348e47	0.044081
101	0x3b6a0b02	0.0035712128
102	0x3cc27c3a	0.023740876
103	0xbb8addc5	-0.004237863
104	0x3cb6aaa3	0.022298163
105	0xbc030581	-0.007996918
106	0x3d038b70	0.0321154
107	0x3da3706a	0.07980426
108	0x3ca3332c	0.019921862
109	0x3d1ba973	0.038003396
110	0x3cdb5290	0.026772767
111	0x3ccae4e9	0.024767356
112	0x3ccddcd4	0.025129713
113	0x3cf539fc	0.029934876
114	0x3d33c94f	0.043893155
115	0xbc50e47c	-0.012749787
116	0x3d15cd10	0.036572516
117	0x3d2d5089	0.042313132
118	0x3c4a9be9	0.012366273
119	0xbd6cfbcd	-0.057857323
120	0x3d0fbbb5	0.03509112
121	0x3ae7b796	0.0017678614
122	0xbbaad9fe	-0.005213975
123	0xbc3c1134	-0.011478711
124	0xbcc75a0f	-0.024334935
125	0xbd02def9	-0.031950925
126	0xbbc3fbbc	-0.005980937
127	0xbc95d6ad	-0.018290842
128	0x3c832fe0	0.01601404
129	0xbd1d34bf	-0.03838038
130	0x3da411fb	0.08011242
131	0xbbc1f512	-0.0059191072
132	0x3c6ddf99	0.014518642
133	0x3d071f10	0.032988608
134	0xbd06771d	-0.03282844
135	0x3bec162b	0.007204791
136	0xbc3b4ec1	-0.011432351
137	0xbbdc718b	-0.0067274026
138	0xbc850244	-0.016236432
139	0x3bb5fb70	0.0055536553
140	0x3d225b13	0.039637636
141	0x3ca90870	0.020633906
142	0xbbf1cc38	-0.007379081
143	0x3b83319b	0.004003716
144	0x3b96952f	0.004595421
145	0xbbbdb82d	-0.0057897777
146	0x3ccfb494	0.025354661
147	0x3c8470b8	0.01616703
148	0x3bd71a47	0.006564412
149	0xbd038208	-0.03210643
150	0xbd557209	-0.052110706
151	0x3bd4f8c6	0.0064993827
152	0x3d2397e7	0.039939787
153	0x3c302482	0.010750892
154	0x3ba4d91c	0.0050307643
155	0x3ccaae26	0.024741244
156	0xbcab883a	-0.020938981
157	0x3c7a6158	0.015281998
158	0x3c87b098	0.016563699
159	0xba253776	-0.0006302515
160	0x3d09f9e4	0.03368558
161	0x3cc29022	0.023750369
162	0x3d12cfcd	0.035842706
163	0xbd475495	-0.048664648
164	0xbbad328d	-0.005285567
165	0xbb2c365f	-0.0026277525
166	0xbce8ca56	-0.028416794
167	0xbc87f573	-0.016596531
168	0x3d087c32	0.033321567
169	0xbcaf9ba3	-0.021436518
170	0x3c96f617	0.018427892
171	0x3cbb2025	0.022842476
172	0x3cc6eb84	0.024282224
173	0xbb7d6d4a	-0.0038669878
174	0xbddc63d4	-0.10761228
175	0xbcb60fc2	-0.02222431
176	0x3d48c197	0.049012747
177	0x3d0a7fef	0.033813413
178	0xbc3e3064	-0.011608217
179	0xbc57c40f	-0.013169303
180	0xbc22c809	-0.009935387
181	0xbb6197ac	-0.003442268
182	0xbca7863a	-0.020449746
183	0xbc202fd1	-0.009777025
184	0x3c86c3f2	0.016450856
185	0xbd4161de	-0.047212474
186	0xbc92a339	-0.017900096
187	0x3bd9d4f5	0.006647701
188	0xbd24b250	-0.040209115
189	0xbd2e3c61	-0.04253805
190	0xbcd68272	-0.026185248
191	0xbc2a15c4	-0.010381166
192	0x3b31166d	0.0027021423
193	0xbd66cc22	-0.05634702
194	0xbb3c059c	-0.0028689867
195	0xbcc4b514	-0.024012126
196	0xba99a232	-0.0011721312
197	0xbbe97c76	-0.0071254326
198	0xbd21e4b9	-0.039524768
199	0x3cf0b18d	0.029381538
200	0xbd1a6481	-0.037693504
201	0x3bf335ef	0.007422201
202	0xbb96454f	-0.004585899
203	0xbd6c1340	-0.057635546
204	0xbcd64d59	-0.02615993
205	0xbd101874	-0.03517957
206	0xbd1e7d61	-0.03869379
207	0xbc9262ed	-0.017869437
208	0x3c843b64	0.0161416
209	0xbd1bb3b0	-0.03801316
210	0x3cbaad52	0.022787724
211	0xbcd9efa7	-0.026603533
212	0x3d0354f0	0.032063425
213	0xbc0f578e	-0.008748902
214	0x3d09ee1c	0.033674344
215	0xbd18cc4d	-0.03730421
216	0x3c9c0208	0.019043937
217	0x3d50fddd	0.051023353
218	0xbb091702	-0.0020918255
219	0xbd0f379e	-0.03496515
220	0x3d5e8420	0.054325223
221	0x3c870f94	0.01648692
222	0x3b203963	0.0024448268
223	0xbb2f9232	-0.002679002
224	0xbd1d1abb	-0.03835557
225	0x3cd66ddc	0.026175432
226	0x3c836f57	0.016044302
227	0x3bef13c0	0.0072960556
228	0x3d0f22e7	0.034945395
229	0x3d279f7c	0.04092358
230	0x3b334c1b	0.0027358595
231	0x3d0bd066	0.03413429
232	0xbd1218a2	-0.035668023
233	0x3c90d4dc	0.017679624
234	0x3cbfaaf8	0.023396954
235	0x3c3f3f47	0.011672801
236	0x3d09d206	0.03364756
237	0x3d364cc3	0.0445068
238	0x3c0b51cb	0.008503388
239	0xbb9a217b	-0.004703698
240	0xbc71e998	-0.014765166
241	0xbd39d2bc	-0.045366988
242	0x3cc0b7de	0.023525175
243	0x3c8bffb7	0.017089708
244	0x3d1270a5	0.035751957
245	0x3b4ae809	0.0030961058
246	0xbb1d3b39	-0.0023991598
247	0x3ca6ef02	0.02037764
248	0xbcd8fcf8	-0.026487812
249	0x3b316aaf	0.0027071645
250	0x3d193a08	0.03740886
251	0x3caa5817	0.020793958
252	0x3c832d1b	0.016012719
253	0xbcdf57f2	-0.027263615
254	0x3c79ab34	0.015238572
255	0x3be9f099	0.007139277

fc1.bias f4 [120]
0	0x3bef8fea	0.007310857
1	0x3d2532e3	0.040331732
2	0x3c6e7961	0.014555306
3	0x3cd37e8c	0.025817178
4	0x3d08204b	0.033233922
5	0x3d14aeab	0.03629939
6	0xbcc4e9c5	-0.024037251
7	0x3cef1bf1	0.029188128
8	0x3cc80230	0.024415106
9	0xbccd592f	-0.02506694
10	0x3c78d01e	0.015186338
11	0x3bc9d207	0.0061590704
12	0xbb13ebad	-0.0022570894
13	0x3c8dfa6e	0.017331328
14	0xbcdf1f37	-0.027236564
15	0xba05f336	-0.00051097886
16	0xbcb818b4	-0.022472717
17	0xbd0c9861	-0.034325007
18	0x3c8015ee	0.015635457
19	0xbce527ff	-0.027973173
20	0xbc9f5e4c	-0.019454144
21	0xbcbdb4c1	-0.02315748
22	0x3bd87c17	0.0066065895
23	0x3c81da5c	0.015851192
24	0xbbda2ada	-0.0066579403
25	0xba85e2f5	-0.0010214733
26	0x3cd0f1d9	0.025505947
27	0x3d60d0df	0.054886695
28	0x3ccc1639	0.02491294
29	0x3be4a0a4	0.0069771577
30	0x3ca0183f	0.019542811
31	0x3b8f901a	0.004381192
32	0x3cb86cda	0.022512842
33	0x3ce7d69d	0.028300578
34	0x3cc5e800	0.024158478
35	0x3ca54eb2	0.020179126
36	0x3cfdb350	0.030969292
37	0xbcf1ed51	-0.029532107
38	0x3d0f9ff9	0.03506467
39	0x3c5e3d38	0.0135644
40	0x3d2bbdbf	0.041929003
41	0x3d1656a5	0.036703724
42	0xbb28d5d3	-0.0025762215
43	0x3d82df7b	0.06390282
44	0xbc97af70	-0.018516272
45	0xbd59dfdc	-0.053192005
46	0x3bc79195	0.006090353
47	0xbcad934f	-0.021188406
48	0xbc4a79bb	-0.012358124
49	0xbbd214f1	-0.006411188
50	0x3b5f04bf	0.0034029929
51	0x3cfb4a7f	0.030675171
52	0xbc41740d	-0.011807454
53	0xbcc025b9	-0.023455488
54	0xb97298a9	-0.00023135789
55	0xb9f973b2	-0.0004757918
56	0xbc9c274e	-0.01906171
57	0xbd5865a3	-0.052831303
58	0xbd4f6a6f	-0.050638612
59	0x3b584a84	0.00330034
60	0x3c5cd620	0.013478786
61	0x3d068d24	0.032849446
62	0x3b5ba09d	0.003351248
63	0x3a4c3fc0	0.0007791482
64	0x3d0992cb	0.03358726
65	0x3c30c77d	0.010789749
66	0x3d211d09	0.03933433
67	0x3b983e94	0.004646132
68	0xbd236f0d	-0.03990083
69	0xbc70e6ca	-0.014703462
70	0x3c910337	0.017701728
71	0x3ce67703	0.028132921
72	0x3cc8aa2f	0.024495212
73	0x3beffa3c	0.0073235314
74	0xbb9dc325	-0.004814523
75	0xbca7450b	-0.020418664
76	0x3ce33960	0.02773732
77	0x3cc1d360	0.023660362
78	0xbb509898	-0.0031829234
79	0xbc21aa9d	-0.0098673375
80	0x3d20f7cd	0.03929882
81	0x3caef07a	0.021354903
82	0xbcfa35c1	-0.03054321
83	0x3d1a35ea	0.037649073
84	0xbc484543	-0.0122235445
85	0x3c7aeddd	0.0153155
86	0xbc3863e9	-0.011254289
87	0x3cb83549	0.022486346
88	0x3d02b0d7	0.03190693
89	0xbcc45b86	-0.023969423
90	0xbb050737	-0.002029849
91	0xbc8be9a7	-0.017079188
92	0xbc0d09f1	-0.008608327
93	0xbc364dc3	-0.011126938
94	0xba24788a	-0.0006274065
95	0x3c307863	0.01077089
96	0xbc5af93b	-0.013365085
97	0xbc99d256	-0.018777054
98	0xbd120063	-0.0356449
99	0x3c13ce14	0.009021301
100	0x3b417723	0.0029520474
101	0xbc933355	-0.017968813
102	0x3cf2de08	0.029646888
103	0x3c8783bb	0.016542306
104	0xbcadd35a	-0.021218944
105	0x3c2fd69d	0.01073232
106	0x3bbe59b3	0.005809033
107	0xbc2cd832	-0.010549592
108	0x3ca4be54	0.020110287
109	0xbb2fdf61	-0.0026836025
110	0xbcde38ff	-0.027126787
111	0xbbe31270	-0.006929688
112	0xbbba6d85	-0.0056893253
113	0x3c0d21ec	0.008614045
114	0x3c90544a	0.017618317
115	0xbb8102fb	-0.003937123
116	0x3b8072d1	0.003919937
117	0xbc7a88cf	-0.015291407
118	0xbc91cef9	-0.017798888
119	0x3caa2bba	0.020772804

fc2.weight f4 [10, 120]
0	0xbe9c69fb	-0.30549607
1	0xbd43f267	-0.047838595
2	0x3de9892b	0.11403116
3	0x3c1cc93e	0.009569464
4	0xbcb10863	-0.021610444
5	0xbe842a73	-0.25813636
6	0x3da89b7e	0.08232783
7	0xbe26d43c	-0.16291898
8	0xbe1350a4	-0.1438623
9	0xbe981497	-0.2970321
10	0x3da017e5	0.078170575
11	0x3c2f5235	0.010700752
12	0xbcda60f5	-0.02665756
13	0xbd6a66f4	-0.05722709
14	0x3dca0b06	0.09865384
15	0x3d523134	0.051316455
16	0x3e0b011a	0.13574639
17	0x3e3e8877	0.18606745
18	0xbdb6854e	-0.089121446
19	0x3ea439d6	0.32075375
20	0x3dd918d6	0.1060044
21	0x3e2f6c47	0.17131148
22	0x3e4c490f	0.19949745
23	0x3d298a21	0.041391496
24	0xbe50243e	-0.20326325
25	0xbe72f7c6	-0.2372733
26	0x3e1b1a7e	0.15146825
27	0xbe4632ca	-0.19355312
28	0x3d772dbc	0.06034635
29	0x3d694a85	0.056955833
30	0xbd7b152f	-0.0612995
31	0x3ea1c2f3	0.31594047
32	0x3de2c9ef	0.11073672
33	0xbd7da8d2	-0.061928578
34	0xbe4cdab2	-0.200053
35	0x3eb8b605	0.3607637
36	0x3e03f318	0.12885702
37	0x3db788dd	0.089616515
38	0xbe6a86cd	-0.22902985
39	0xbe91018c	-0.28321493
40	0xbe8f92dc	-0.28041732
41	0xbdd4f75f	-0.10398745
42	0xbdc83b05	-0.09776882
43	0xbe22064f	-0.15822719
44	0x3ea3cb75	0.31991163
45	0x3e873167	0.26404878
46	0x3e1a0403	0.15040593
47	0x3d3f51cf	0.046708878
48	0xbdc4ce84	-0.09609702
49	0xbd33b4dc	-0.043873653
50	0x3d3c97d8	0.046043247
51	0xbdb28ae4	-0.087178975
52	0xbe3120d4	-0.17297679
53	0x3becb1c9	0.007223342
54	0xbe7e2d14	-0.24821883
55	0x3d97dde0	0.07415366
56	0x3e6a97a2	0.22909406
57	0x3ed24fea	0.41076595
58	0x3e492f32	0.1964691
59	0xbd8ebe1f	-0.069698565
60	0xbe91e2f1	-0.28493455
61	0xbe784455	-0.24244817
62	0x3e143ab6	0.14475521
63	0xbe4607c1	-0.19338895
64	0x3d49fc71	0.049313013
65	0xbeaa77d6	-0.33294553
66	0xbe22299c	-0.15836185
67	0xbd6eaf82	-0.058272846
68	0x3eb3f9db	0.35151562
69	0x3d1cb31d	0.038256753
70	0x3e37968c	0.17928523
71	0xbe170d58	-0.14751184
72	0x3e5a7269	0.21332707
73	0x3dd5f4ab	0.10447057
74	0x3d5645da	0.05231271
75	0x3bcf4932	0.0063258642
76	0x3ded7042	0.11593677
77	0x3e686f8e	0.22698805
78	0xbe1d63dc	-0.15370125
79	0xbde3d1df	-0.11124014
80	0xbde79aec	-0.11308846
81	0x3d063f7a	0.03277538
82	0xbccd95d3	-0.025095856
83	0x3daa6841	0.08320666
84	0x3c0a01b1	0.008423255
85	0x3ecd43ac	0.40090692
86	0xbd621535	-0.055196006
87	0xbe5bbeb5	-0.21459468
88	0xbe458555	-0.19289143
89	0x3e9cf66b	0.30656752
90	0xbe789426	-0.24275264
91	0xbe73f4bc	-0.23823828
92	0xbea9baf2	-0.3315044
93	0x3ca30667	0.019900514
94	0x3d0830ad	0.033249546
95	0xbcd63b42	-0.026151303
96	0x3e23029a	0.15918961
97	0xbdffeadd	-0.124959685
98	0xbcb6e177	-0.022324307
99	0x3d9b651b	0.07587644
100	0x3d30402c	0.04302995
101	0xbe0474cc	-0.1293518
102	0x3c9fb8f5	0.019497374
103	0x3e838b46	0.25692195
104	0xbdf40f56	-0.119169876
105	0x3c816ce5	0.015798995
106	0x3e4ec937	0.20193945
107	0x3d980f1b	0.07424756
108	0xbb2bf992	-0.0026241285
109	0x3dcaf384	0.09909728
110	0x3e509c86	0.20372209
111	0x3e2c552b	0.16829364
112	0xbbff615d	-0.007793589
113	0xbd45c370	-0.048282087
114	0x3df2698f	0.1183654
115	0xbe6598f4	-0.22421628
116	0x3e06b20c	0.13153857
117	0xbd4d1670	-0.050070226
118	0x3d643f7c	0.055724606
119	0xbe3c2b8f	-0.18375991
120	0xbdfa05a1	-0.12208105
121	0xbe800598	-0.25004268
122	0x3e1cc027	0.15307675
123	0xbde1b762	-0.110213056
124	0xbe826afa	-0.25472242
125	0xbdf64bd8	-0.12026185
126	0x3e4f5189	0.20245947
127	0x3e841a39	0.25801256
128	0x3da68ab9	0.08131928
129	0xbc9e04e7	-0.019289447
130	0x3d2879b7	0.0411317
131	0x3de8dad7	0.113698654
132	0xbe9472bc	-0.28993785
133	0xbd838168	-0.06421167
134	0x3e46c349	0.19410433
135	0xbdfd5076	-0.12368862
136	0x3bca2544	0.006168993
137	0xbe93eb30	-0.2889037
138	0x3cc703eb	0.02429386
139	0xbe2a1964	-0.16611248
140	0xbeb27ffb	-0.34863266
141	0x3e0cc873	0.1374834
142	0x3ce33135	0.027733425
143	0xbd84cc88	-0.06484324
144	0xbd858a85	-0.06520561
145	0x3e20e274	0.15711385
146	0x3e89981e	0.2687387
147	0xbe6d9456	-0.23201117
148	0x3ee409e9	0.4453881
149	0xbe989fe2	-0.2980948
150	0xbe768e8e	-0.24077818
151	0xbe71cc41	-0.23613073
152	0xbcc40718	-0.023929164
153	0xbe8f062e	-0.27934402
154	0x3e06aad7	0.13151108
155	0x3aedaa90	0.0018132497
156	0xbcbee642	-0.023303155
157	0xbdb9abd7	-0.09065979
158	0xbe369648	-0.17830765
159	0xbd78c322	-0.06073297
160	0xbe303a41	-0.17209722
161	0x3eb2df31	0.34935907
162	0xbddcd45a	-0.1078269
163	0x3e3c43c8	0.18385231
164	0xbaa4ae51	-0.0012564157
165	0xbda7e992	-0.08198847
166	0xbe3cc38d	-0.18433972
167	0xbd0f6361	-0.035006884
168	0x3e9b7b8c	0.30367696
169	0x3d29c326	0.041445874
170	0xbc10e0db	-0.008842672
171	0x3debed4f	0.115198724
172	0x3bdb3d75	0.006690676
173	0xbc28157e	-0.01025903
174	0xbda14fe8	-0.07876569
175	0xbe42bd31	-0.19017483
176	0xbd517cb9	-0.051144335
177	0xbd848815	-0.06471268
178	0x3e81d637	0.25358745
179	0x3d99dc37	0.07512706
180	0x3d1e1484	0.038593784
181	0x3bc7c952	0.0060969973
182	0x3de2c1de	0.110721335
183	0x3de8e812	0.11372389
184	0xbe90b834	-0.28265536
185	0x3e001761	0.12508918
186	0xbdc4c4dd	-0.09607861
187	0x3ef4acb4	0.47788012
188	0xbc8116ec	-0.015758
189	0xbe0ebe10	-0.1393969
190	0x3e77719a	0.2416443
191	0xbe82155e	-0.25406927
192	0xbe4695c4	-0.19393069
193	0xbe29f577	-0.16597544
194	0x3d86b730	0.06577909
195	0x3d59999f	0.05312502
196	0xbe5804c1	-0.21095563
197	0x3df9db60	0.122000456
198	0x3e588113	0.21142988
199	0x3d23cfd9	0.03999314
200	0xbded1ede	-0.11578153
201	0xbde5d8ab	-0.11222967
202	0x3ceeb551	0.029139193
203	0x3dfc51f1	0.123203166
204	0xbe1043e4	-0.14088398
205	0x3e952237	0.29127666
206	0x3e69af71	0.22820832
207	0xbda9598d	-0.082690336
208	0xbe3a8042	-0.18212989
209	0xbe81435b	-0.252467
210	0xbb2549a4	-0.0025220895
211	0xbdd0483c	-0.101700276
212	0x3daea235	0.08527032
213	0xbe6be512	-0.23036602
214	0xbd8b288d	-0.06794844
215	0xbde19a55	-0.110157646
216	0xbeadbca2	-0.33932978
217	0x3c1a2991	0.009409324
218	0x3e1e8653	0.15480928
219	0x3e2532a9	0.16132607
220	0xbe831bc2	-0.25607115
221	0xbd4e01c8	-0.050294667
222	0x3e40df88	0.1883527
223	0xbe0a5cec	-0.1351201
224	0x3cf5a28a	0.029984731
225	0xbe03308b	-0.12811486
226	0xbc1a9efe	-0.009437321
227	0x3dbb0618	0.09132022
228	0xbec2ab02	-0.38021094
229	0x3efad372	0.48989445
230	0xbe260505	-0.16212852
231	0x3d5610f4	0.05226226
232	0xbe373943	-0.17892937
233	0xbc2fbaa8	-0.010725655
234	0xbd0c7b87	-0.034297492
235	0x3ed11ce3	0.4084235
236	0xbe0170f6	-0.12640747
237	0xbe2c065e	-0.16799304
238	0x3e5d4894	0.21609718
239	0xbe05a46b	-0.13051002
240	0xbe7685b3	-0.2407444
241	0x3e45422b	0.19263522
242	0xbd04b20c	-0.03239636
243	0xbd1a7ac2	-0.037714727
244	0xbdc794fa	-0.09745212
245	0x3eb20329	0.34768036
246	0xbe1cffbf	-0.15331934
247	0xbd875117	-0.066072635
248	0x3d45923b	0.04823516
249	0x3dd1fd5b	0.10253402
250	0x3df0c2ec	0.117559284
251	0x3dd6b1cf	0.10483133
252	0xbe25d4bb	-0.16194431
253	0x3c8e89d8	0.017399713
254	0xbe4dfe7f	-0.20116614
255	0x3ed73f7e	0.42040628

fc2.bias f4 [10]
0	0xbd1aa1a7	-0.03775182
1	0x3b82f6b0	0.0039966926
2	0xbd1a5a0a	-0.037683524
3	0xbc57d5b8	-0.013173513
4	0x3e025af7	0.12730013
5	0x3daf5c59	0.08562536
6	0x3bb922be	0.0056498935
7	0x3d0ea8d5	0.03482898
8	0xbd4696f8	-0.04848382
9	0x3c923027	0.017845226
