models/net/model_epoch_45.pt (torch, 517807 bytes, 16 tensors)

conv1.weight f4 [8, 3, 5, 5]
00000000: f3e2 81bd 1ae1 f6bc e937 98bd 5fc6 273e
00000010: c27c 0f3e 4c6c 52be 7858 d7bd 2f73 e23d
00000020: fd7b 1d3e 2721 3c3d a569 70b9 0832 f93d
00000030: 1aed 393e 9701 e83d 2b07 463e 5671 8b3d
00000040: af58 7b3e b520 373e 92ce 353d 7db9 db3d
00000050: 8912 8abd ca1c b13c 6e3d c7bd e23f e73c
00000060: f14a 71bc 0b56 efbd 0303 d8bd 9536 8dbd
00000070: 1d2c c33d dae1 23bc 3385 4ebd fa76 07be
00000080: d6ed d53d e16c 97ba 1437 9dbd f24c 6dbc
00000090: 25fa 453d b523 213d 4d9f aebd dc02 1ebe
000000a0: 614f 943d 477d 35bd a53e 39bd d2ef 62bd
000000b0: 549d d7bd 839d 0dbc 6101 173d b94b 3ebe
000000c0: dcbb d6bd da05 b8bd 433a dbbd b042 6abd
000000d0: b7ae 04bd b7a5 0a3e 1e4e 8d3d 9147 0a3d
000000e0: e0e9 053e eea0 273e 95e8 eb3d 0c3c debd
000000f0: 3b61 af3c 1380 263d d97c c73d 4fdb 07be
00000100: d906 e5bd cdea 0a3e 692a 3e3e 5eca 0cbd
00000110: 129d 42be 9f90 50be ac5b 883e 3c77 ca3d
00000120: b590 a23c 7868 3fbe f3f3 c3bc fe33 14bd
00000130: 4092 51bd 5fa9 893e 80d5 003e 2c26 4dbe
00000140: dd29 953c a3c2 8fbe c856 5ebd 1cba a33e
00000150: 1c2c 953d fd1e ac3d b7c8 3f3e e49b babe
00000160: 592d 31be 3ab1 b13e 7dde cebd edc6 af3d
00000170: 839c 5f3e 812c 2fbe f7ae abbd 72e1 ecbd
00000180: c65b abbd 13cf 583d bcf7 843d 1887 9cbd
00000190: eed2 dabd f1a1 3cbc 6517 003e 4632 a43d
000001a0: 1015 a73c 8c05 f1bc 2f47 9fbe 1f6f 97be
000001b0: 6f60 4d3e 50ed d93d d54d 9c3e e9fc 833e
000001c0: a0d1 90be fc8b aabe 8cfd 813e 4fd2 a2bd
000001d0: 4b0f 8d3e 3080 e03d 8bee a4be bc4a d0bd
000001e0: 8261 823b 9293 f5bd 55b7 183e 3c66 fcbb
000001f0: ce80 e0bd 313c 84bd b448 87bd d251 a13c
00000200: 85ab 2a3e c387 07be f677 e23d 719b 23be
00000210: 209e 9fbe fbab 9e3e 0f64 243c a8ea f63d
00000220: d9e2 093e c34d dfbe 8b89 80be f4ce 433e
00000230: 0b36 0e3d 0a0a 383e e8a0 863e f934 e0be
00000240: b0b4 0fbe 510a 5b3d 89bd 3b3d 023f 8f3e
00000250: 5799 4d3e 3dc9 cabd a955 9e3b a54d 80be
00000260: 19ef 633e 93fe 99bc b7b8 ce3d 620e 9fbe
00000270: c81c a43e fc6d 7e3e 34a7 51be 4acb e0bd
00000280: f02a 153e be1e 8b3e 5168 1cbf 8898 e5bd
00000290: a37c 6f3e 38c1 a83c 19e3 c6be be1d 7c3d
000002a0: 870a 0f3f adee 66be 8e24 0c3b 7013 d93c
000002b0: 9d7d 8e3e b11b 94bd 0670 50be 55c5 4d3e
000002c0: 4823 20be ca51 393e 19b6 1c3d 438c c9bd
000002d0: 5b0b 263c 4d39 dd3e 00be 2b3e 24c2 b6be
000002e0: 81c8 643d 73c8 903e b5d8 cb3e 6b12 29bf
000002f0: 7541 86bd 0b5c 953e a6af 2f3d 4ea6 b9be
00000300: 3f63 77bd 0b42 023f 2d14 29be b2e1 f7bd
00000310: 1dae 00be eb99 85bb cf8e 57be 00fa 2cbe
00000320: 891f 94bd aada b1be 2205 233d c8a7 f7bd
00000330: a7ac 8cbc 2faa 88be 05ab 4b3e 8772 123e
00000340: 8e10 3dbe b04e 3d3e 8957 85bd 7780 723e
00000350: c3ab 25bf 86c2 97bc 97e0 833e 8b63 c9bc
00000360: fcb0 b3be aba3 44bd 9aff 0d3f 8ab8 8dbd
00000370: 6d65 273c 8801 493e 3112 913e 102f 983d
00000380: b44d ef3c 5a12 ef3d 47ed 813e 1489 a53d
00000390: d843 c8bd 60e0 113d 34ff 663d 3964 473e
000003a0: dc3d 4ebd eeea 26be d69a 5bbd fa94 453e
000003b0: 5d67 373e f930 89be 5d9b a7be f8fd 0cbe
000003c0: b834 723e df4f 28bd 8dc8 d7bd 6565 ffbd
000003d0: 68a6 203e eede 75bb 8d20 4fbe 90e0 a83c
000003e0: 3623 19be f02b 8f3c aa8d b8bd c4bd 6bbe
000003f0: 6de1 05be eede 23be 2192 13be 2c86 a7bd
-0.06342115 -0.030136634 -0.07432539 0.16384266 0.14012435 -0.20549124 -0.10514921 0.11057126
0.15379329 0.045930054 -0.00022927539 0.12167746 0.18156853 0.11328428 0.19338672 0.068087265
0.24545549 0.1788357 0.044386454 0.107287385 -0.067418166 0.021620173 -0.09728514 0.028228704
-0.01472734 -0.11686333 -0.105474494 -0.06895176 0.09529898 -0.010002578 -0.050419997 -0.1322898
0.10445754 -0.0011552834 -0.07676521 -0.014483677 0.04833426 0.039340694 -0.08526478 -0.15430778
0.07241703 -0.044308927 -0.045225758 -0.05540449 -0.10528055 -0.008643511 0.03686655 -0.18583573
-0.1048505 -0.08985491 -0.10704472 -0.057192504 -0.032393184 0.13539778 0.06899665 0.033759657
0.13077497 0.16369984 0.11518971 -0.10851297 0.021408668 0.040649485 0.0974061 -0.13267253
-0.11182947 0.13566132 0.18570866 -0.03437268 -0.1900523 -0.20367669 0.2663244 0.098860234
0.019844392 -0.18692195 -0.023920035 -0.036182396 -0.051164865 0.26887032 0.12581444 -0.20034093
0.018208439 -0.28078184 -0.05428198 0.31977928 0.07283804 0.08404348 0.1872891 -0.3644706
-0.17302455 0.34705526 -0.1010103 0.08582864 0.21837048 -0.1710682 -0.08382981 -0.11566438
-0.08367114 0.052931856 0.06492564 -0.076429546 -0.10684763 -0.011513219 0.12508924 0.080174014
0.020395786 -0.02942159 -0.31108996 -0.29576966 0.20056318 0.10640967 0.3052813 0.25778893
-0.2828493 -0.33309925 0.25388753 -0.079502694 0.2755073 0.1096195 -0.32213244 -0.101705045
0.003978909 -0.119910374 0.14913686 -0.007702617 -0.109620675 -0.06456793 -0.06605664 0.019692335
0.16666992 -0.13235383 0.11058037 -0.15977265 -0.31175327 0.30990586 0.010033621 0.12056476
0.13465442 -0.43614015 -0.25104937 0.19121915 0.03471951 0.1797258 0.26294637 -0.43790415
-0.1403377 0.053476635 0.04583505 0.2797776 0.20078026 -0.099016644 0.004831989 -0.25059238
0.22259177 -0.018798148 0.10093825 -0.3106566 0.32053208 0.24846643 -0.20473939 -0.10976274
0.1456716 0.27171892 -0.61096674 -0.11210734 0.23387389 0.020599946 -0.38845137 0.0615518
0.5587544 -0.22551985 0.0021384093 0.026498526 0.2783021 -0.07231844 -0.20355234 0.20094807
-0.15638459 0.18097606 0.0382596 -0.09841206 0.010134543 0.4320778 0.16771698 -0.35694993
0.055855278 0.2827793 0.39813772 -0.6604373 -0.06555454 0.29171786 0.04289212 -0.36259693
-0.060397383 0.50882024 -0.16511603 -0.12103595 -0.12566419 -0.0040771863 -0.21050571 -0.16892242
-0.07232577 -0.3473714 0.039799817 -0.120925486 -0.01717217 -0.2669234 0.19889458 0.14301501
-0.18463346 0.18487048 -0.06510837 0.23681818 -0.6471521 -0.018525373 0.25757286 -0.024583599
-0.35095966 -0.04800765 0.5546814 -0.06919964 0.010217053 0.1962949 0.2833419 0.074308515
0.029211856 0.11673422 0.2537634 0.08082786 -0.09778565 0.03561437 0.056395724 0.19471826
-0.050351962 -0.16300556 -0.05361446 0.19295111 0.17910524 -0.26795176 -0.3273572 -0.13768756
0.23652923 -0.041091796 -0.10536299 -0.12470511 0.15688479 -0.003751691 -0.20227261 0.020614892
-0.14954838 0.017477006 -0.09011395 -0.23021609 -0.13074274 -0.1600301 -0.14411213 -0.08179888

conv1.bias f4 [8]
00000000: 92e8 7ebd 6c29 773d 55d0 dfbd 50f1 36bd
00000010: fc48 b8bc 82f3 c8bd 6760 96bd b764 9abc
-0.062233515 0.060342237 -0.10928408 -0.044663727 -0.02249574 -0.098120704 -0.07342606 -0.018846853

batch1.weight f4 [8]
00000000: 0979 403f 34c4 6a3f 1b66 4f3f be61 7f3f
00000010: 5ce4 973f b106 723f c09a 833f 649d 883f
0.75184685 0.9170563 0.81015176 0.9975852 1.1866565 0.9454146 1.0281601 1.0673032

batch1.bias f4 [8]
00000000: 6600 72bd 0da5 adbe c0b6 4dbe 40cf c4be
00000010: 7a0f 86be c896 29be 2f14 a8be 2337 a7be
-0.05908241 -0.33914986 -0.20089245 -0.3843937 -0.26183683 -0.16561425 -0.328279 -0.32659253

batch1.running_mean f4 [8]
00000000: cd14 3f3e d018 3cbd 3eed dfbd 3beb c1be
00000010: 01e5 70bd b417 02be b5f6 bdbd faa0 afbd
0.18660279 -0.0459221 -0.10933922 -0.3787478 -0.058812145 -0.12704355 -0.09275571 -0.08575626

batch1.running_var f4 [8]
00000000: b99f 5a3d b09a 3a3d bc4f 0f3d ea1c 733d
00000010: 57c6 1f3e 05b0 f93d ad2e a83d 89c8 903d
0.05337498 0.045557678 0.03498815 0.059353746 0.15603004 0.12191776 0.08212028 0.07069499

conv2.weight f4 [16, 8, 5, 5]
00000000: 58e5 f23d 694b da3d b8b3 803d 5325 6a3c
00000010: ecc1 6c3d 2186 d83c 7b52 af3c 8164 90bc
00000020: 14b4 74bc 61b3 7b3c 1be7 29bd 6ad4 3bbc
00000030: 3507 a5bd 908f 5cbd 6484 36bd a7bf f2bc
00000040: d096 43bd d26b c5bd 45f2 a0bd 952f 983a
00000050: c254 bebd 6d8b a6bd d416 82bd d3be adbd
00000060: 7cff a4bc 6027 44bd 34e6 7dbd 827e 81bd
00000070: 494a 50bd 8c92 2fbd 5b39 70bd ecfd 0bbd
00000080: b53f dc3c e859 833c c036 45bb 9b0b b3bd
00000090: f383 1abd 6d58 873d 13f7 8e3d 89f5 023d
000000a0: 889b 66bd b1f7 37bd 0f37 243e b26c 7d3d
000000b0: 57d1 e03b f163 96bc c5af 2dbc 8fd3 803d
000000c0: a3d9 73bd e9e6 81bd cbb4 693d 8915 9a3c
000000d0: 829a 963b f8d1 62bd b1f6 8bbd f99b 663d
000000e0: 62d9 a33d 7668 90bc 1360 29bc c255 3fbd
000000f0: 5bfd 873c 0bf7 b03d 4303 883d a1b3 513d
00000100: adbf 4f3d 04ca 35bd 75d0 e13b ecee 383d
00000110: e46e be3c 640e 133d a893 f6bd 01b5 99bd
00000120: e981 a23c bcdc e33c 1465 0cbb 87de 1dbd
00000130: b2be 6f3c 85bf 123d e055 e9bd 5481 fabd
00000140: bb33 2e3d 830b 133e 3d2d 193e 4112 683d
00000150: 411b a9bd c747 cbbc 2169 333e ddec 193e
00000160: c574 983c b2a1 cf3d 7fca 84bd 8315 b53e
00000170: 328e 1a3d ef47 433d b27a 95ba 74f9 b2bd
00000180: 9641 063d 0cc5 1cbd 0385 c53d 1db5 d0bb
00000190: f3b0 bdbc 6fd7 3bbd ef5d a5bd 1658 d43b
000001a0: d287 953d b50f 10bd dae6 173c 6909 62bd
000001b0: 98ea c7bb f21f 9ebc 38ac a83b 406f 6abc
000001c0: bd01 17bc a68e a83d bb94 823d 80bd 0c3e
000001d0: 326b ae3b fdcf 9c3d 7df0 793d 54c1 12bd
000001e0: 8c65 31bc 540e 853d 1878 dd3d b4b1 90bd
000001f0: e458 a5bc 60b9 063d b2e8 053c 8d5e fc3b
00000200: f2da 95bd 15ef d3bc 198a d9bb 42c6 bb3c
00000210: cefc 14bd 50d4 2bbd 29e8 233a 5d74 d7bc
00000220: 8f4f abbc 07af 7bbd a68f 86bd 6913 8ebd
00000230: b83c 67bd db50 f53b a9ff 7abd 62d3 b7bd
00000240: 8ea9 52bd 429f 21bd 3f4d 903d 1a92 b7bd
00000250: ab3d 95bd 6b6b 06bc 140a 87bd 3975 fcbc
00000260: 887c 353c 11f6 f03d 8368 373e d2f4 92bd
00000270: 0647 69bd 7995 243b 5a00 cb3c 1884 543c
00000280: 360a 7cbd 337d cc3c 5951 4bbb 69a9 4bbd
00000290: f276 19bd db96 013b f6b4 453d 1080 7abc
000002a0: 4356 3bbd 8af4 c43c f683 c7bc 697a 613c
000002b0: 4115 723c 21e1 fcbc 2357 a63a f410 9e3d
000002c0: f150 36bd 5c51 1b3d 59b8 443d e079 9dbc
000002d0: 4092 023d 2c83 41bd 684f a63c 8667 aabc
000002e0: 86aa 06bd e103 93bd fe60 b1bd b00a 20bd
000002f0: 70b3 d2bc 60d4 21bc 2078 aebc 3dd2 3abd
00000300: fdbd 20bc 377e 20bb 0bcf 62bd c34e e43b
00000310: 0f73 d9bd 50d7 25bd 37f1 6b3b cc63 8d3c
00000320: 8d09 88bd 2501 aabd 90b5 a1bd 58f9 6bbd
00000330: 1999 d6bd a513 3c3b da84 17bd 6ea2 21ba
00000340: aa7f 06bd f8ab 8cbd 27bf 383d 70c9 ae3c
00000350: df0c 3c3d 5129 873c c611 53bd 68d9 3b3d
00000360: 7a5b d43c 11f9 d33d 36f9 8d3d cddd 463d
00000370: e7ba 583d 0cbe 333d 379f 893d 9e93 ccbc
00000380: 596f 74bc 76f3 60bd 8890 d43c ff36 313c
00000390: 2fd9 05bd 2fd0 edbc 8114 beba 860a 22bd
000003a0: e728 65bc 8ed7 53bc 836b 6dbd 573a 24bc
000003b0: e217 85bd b62a 05bd a3ce b8bc c81b 5bbd
000003c0: dc42 02bb e5e6 dcbc 4132 193c 3fa7 033d
000003d0: c4bf abbc 5aa2 9b3c a438 c23c 3dc5 df3d
000003e0: f33d 9d3d 9302 d13b 969c c93b f45a fcbc
000003f0: 3e3c 573d 6b46 76bd baaf c13d 13f3 d2bc
0.1186015 0.106589146 0.06284279 0.014291125 0.057802126 0.026431145 0.021401634 -0.017626049
-0.014935512 0.0153625915 -0.041480165 -0.011464218 -0.08058015 -0.05384785 -0.04455985 -0.029632403
-0.047751248 -0.09639706 -0.07858709 0.001161086 -0.0929351 -0.08132062 -0.0635201 -0.084836625
-0.020141356 -0.047889113 -0.061987117 -0.063229576 -0.050852094 -0.042864367 -0.05864845 -0.034177706
0.026885847 0.016034082 -0.0030092448 -0.08742448 -0.037723493 0.06608663 0.069807194 0.03197244
-0.05630067 -0.04491395 0.16036628 0.061871238 0.0068608928 -0.018358203 -0.010600989 0.062903516
-0.059533726 -0.06342871 0.057057183 0.018809097 0.0045960555 -0.055376023 -0.06834162 0.05630109
0.08000447 -0.017627936 -0.010337847 -0.046712644 0.016600301 0.0864087 0.06641247 0.051196698
0.050719906 -0.04438211 0.006891305 0.04514973 0.023246236 0.035902396 -0.12039882 -0.07505227
0.019837337 0.027815215 -0.0021422552 -0.038542297 0.014632868 0.03582718 -0.113933325 -0.12231699
0.042529803 0.1435986 0.14958663 0.056658033 -0.082571514 -0.0248145 0.17520572 0.15031762
0.018610368 0.10138263 -0.064839356 0.35367975 0.037733264 0.047676023 -0.0011404364 -0.08738986
0.03277739 -0.038273856 0.096445106 -0.0063692466 -0.023155665 -0.04585975 -0.08074557 0.006480227
0.07301296 -0.03517123 0.009271348 -0.055184755 -0.006100964 -0.019302342 0.005147483 -0.014308751
-0.009216723 0.08230333 0.06376024 0.13744164 0.0053228373 0.07656858 0.061020363 -0.035828903
-0.010827433 0.064968735 0.10813922 -0.07065144 -0.020183988 0.03289163 0.008173155 0.007701701
-0.07317151 -0.02587084 -0.006638777 0.022921685 -0.036373906 -0.041950524 0.0006252551 -0.026300604
-0.02091196 -0.061446216 -0.065703675 -0.06937296 -0.05645439 0.0074864454 -0.061278973 -0.08975865
-0.05143123 -0.03945852 0.070459835 -0.089634135 -0.07287153 -0.008204321 -0.06593719 -0.030817615
0.011077054 0.117656834 0.17910962 -0.07175602 -0.0569525 0.0025113507 0.024780441 0.012970947
-0.061533175 0.024962043 -0.0031023829 -0.04972211 -0.03746695 0.0019773755 0.04826828 -0.015289322
-0.045736562 0.024042387 -0.024354916 0.013762095 0.014775575 -0.030869069 0.0012690764 0.07718077
-0.044510785 0.037919387 0.04802737 -0.019223154 0.031877756 -0.047244236 0.020301536 -0.020801317
-0.032877468 -0.07178474 -0.08661078 -0.039072692 -0.025720328 -0.009877294 -0.021297514 -0.045610655
-0.009810922 -0.0024489292 -0.055373233 0.006967397 -0.10617649 -0.04048854 0.003600193 0.0172595
-0.06642447 -0.083009996 -0.078959584 -0.05761084 -0.1047842 0.0028698232 -0.03699193 -0.00061658665
-0.032836594 -0.06868738 0.045104172 0.021336287 0.045910712 0.016499193 -0.051530622 0.04586163
0.025922526 0.1035024 0.06932299 0.04855137 0.05291262 0.043882415 0.06719821 -0.024972733
-0.0149191255 -0.054919682 0.025947824 0.010816335 -0.032677826 -0.029029934 -0.001450196 -0.039560817
-0.013986803 -0.01292981 -0.05796386 -0.010023675 -0.06498696 -0.032511435 -0.02255947 -0.05349329
-0.0019876277 -0.026965568 0.00935036 0.03214192 -0.020965464 0.018998314 0.023708649 0.10926292
0.076778315 0.0063784807 0.0061526997 -0.030805089 0.052547686 -0.06012575 0.09457345 -0.025750672

conv2.bias f4 [16]
00000000: 6640 6c3d 30bc 3b3d e010 423d ea3a 5e3d
00000010: 0f14 07bd 0486 21bd 32ee 31bd dc21 bf3c
00000020: 2053 e13c 9866 703c 95d1 5ebd 52d4 cd3b
00000030: a5b0 19bd 00d2 63bc 9c59 33bc 9d59 663b
0.057678603 0.045833766 0.047379375 0.054255404 -0.032978114 -0.039434448 -0.04344005 0.023331575
0.027505457 0.014672898 -0.05439909 0.006281414 -0.037521977 -0.013905048 -0.0109466575 0.0035148629

batch2.weight f4 [16]
00000000: 13a3 c83f ab42 bd3f b062 e63f 56e6 cd3f
00000010: 252c c93f b782 dc3f d69c c63f 4a5c e93f
00000020: 7618 df3f d4c7 d73f 1940 d33f 991e cb3f
00000030: 4e93 d03f cd88 e13f faf9 c43f fc8b cb3f
1.5674766 1.478597 1.7998867 1.6085918 1.5716597 1.7227391 1.5516613 1.8231289
1.742934 1.6857858 1.6503936 1.5868713 1.6294954 1.7619873 1.5388787 1.5902095

batch2.bias f4 [16]
00000000: 03dd dfbd 9801 6fbe 3ebf 05bf f215 a0be
00000010: a73f 6ebe e224 55be b508 4ebe 3565 e9be
00000020: e710 bdbe 0219 d6be 0b37 84be 9bb7 cdbe
00000030: 6804 23be e6a5 d1be db36 4ebe 3004 6ebe
-0.109308265 -0.23340452 -0.5224494 -0.31266743 -0.23266469 -0.20814851 -0.20120509 -0.45585027
-0.36926958 -0.41815954 -0.25823244 -0.40179142 -0.1591965 -0.40946883 -0.20138113 -0.23243785

batch2.running_mean f4 [16]
00000000: 16ef c3bc 5cd9 70bd cfda 8abd 3f52 69be
00000010: b36a a0be 6e8a aebe 0f06 32bf d8e3 e8bd
00000020: e549 25bf 9a74 773b 67be 7dbe 7047 873e
00000030: 68bf fc3c 4fda 13bf d991 e2be 4f88 86bd
-0.023917716 -0.05880104 -0.06780016 -0.2278528 -0.31331405 -0.34089988 -0.69540495 -0.11371583
-0.6456588 0.003775871 -0.24779664 0.2642169 0.030852988 -0.5775499 -0.44251898 -0.065689676

batch2.running_var f4 [16]
00000000: 1f8f c93e e0ea e53e 902a 163f 4913 073f
00000010: c0ac da3e d36b f63e 535a 0d3f a59d 3c3f
00000020: 603e 743f 2337 033f d04b 043f 21a3 df3e
00000030: 2d7b 133f d163 413f b1bb f03e ac4f 043f
0.39367005 0.44905758 0.58658695 0.527638 0.42709923 0.48129138 0.5521595 0.73678046
0.95407677 0.51256007 0.5167818 0.43679145 0.57609826 0.7554293 0.47018197 0.5168407

fc1.weight f4 [120, 1024]
00000000: a7fe 4c3d fa0b 173d 481d 703c 4a78 cd3c
00000010: ae83 853d cfcd 183d b6f1 253c 18fa 773b
00000020: 8085 bc3d 50c7 b63c b1b9 e93b 6866 3fbd
00000030: 293a a43b c90a 933c b3f5 f53b c02f 973b
00000040: 5725 2e3d 61a9 2e3c 10c4 ae3c 43bf 9bbb
00000050: 2916 7a3c d33b 783c 53f9 80bc 6cba b23b
00000060: 4d31 553c b287 12bd a901 25bc b36a 12bb
00000070: 585b d9bc 832e 753b 4d1e 93bc 43c0 0c3d
00000080: 5783 9d3c ca91 85bd a907 fcbb 59d6 42bd
00000090: 2949 9abd eaa0 d3bc 3ee4 723b a284 503d
000000a0: 689f f2bc 096a 6ebd a567 98bd fee4 753b
000000b0: 3bfc a4bd 15fb 29bd 8afa fabc 6b2f a63b
000000c0: 109b e0bc abee 68bc df7b 91bd 3e71 a4bc
000000d0: 53d6 e0bc 1e6d fd3c 0678 82bb 1fc4 eebc
000000e0: 002f 953c 7850 7cbd f727 40bd 7b1a cebc
000000f0: 5e70 20bc 6aaf 513b 8054 c3bc 9a0f 913c
00000100: acb1 b33c d8a7 f03b 3b30 53bc 48d0 77bd
00000110: fad2 b83b a7d8 563c ce43 b53c 0bbb c4bc
00000120: 8c91 0b3c b91a 2b3d f29d 0cbc 608c e5bc
00000130: 3d78 9b3c 9fb9 97bc f7ad 393d acc1 1fbd
00000140: 9312 80bc f08f b3bb cd4b 873a 8d11 373c
00000150: 4b86 e23b ac99 153d 15af 4f3d 953e c4bb
00000160: b525 d33c a00a 2f3c 356c 233d 873f bd3b
00000170: d905 e83b 4083 e139 b432 873c 9907 0cbc
00000180: b0bb f63b e9b6 323c bd7c 3d3d 525a ed3c
00000190: 0895 263d 7822 d73b e60e bf3c f7c1 e2bb
000001a0: 1bcf d53c 88f4 f5bb bcbc fa3c 1dc5 a13d
000001b0: c462 a73c 026b 1e3d 89a3 a23c 8933 c03c
000001c0: a75d da3c e938 d93c 006d 323d 7206 56bc
000001d0: 68ef 0c3d a85a 3c3d 789a 343c ab00 60bd
000001e0: 451f 0b3d 75fa 08b7 e57a a7bb b3d0 2abc
000001f0: 1b54 b3bc dad9 f8bc a2dd 89bb f31c 8cbc
00000200: a107 a23c 62bd 1ebd d3eb 9e3d c976 38bb
00000210: 0b34 983c b567 d93c 82f4 e7bc 1118 ba3b
00000220: c71b 16bc a69a fdbb 8ccd 66bc ac56 9d3b
00000230: fa98 193d 6be1 af3c 5002 13bc 9831 7f3b
00000240: 24f9 ec3a 373a c0bb e656 e93c 6ca7 883c
00000250: 74d8 1d3c 7c87 fdbc aeee 5cbd 0cbd ed3b
00000260: ab20 273d f5ed 373c 2aef da3b b0c8 ea3c
00000270: c6ed b4bc fa1a 533c 6a18 873c f451 70bb
00000280: 00ec 0d3d 0a4b c53c 48b5 003d 123b 4ebd
00000290: b5c8 09bc d5b8 35bb 12ba 10bd 789a a6bc
000002a0: ada3 1a3d 450c 90bc f234 b33c fd52 4e3c
000002b0: 6369 d33c 4dbc a5bb ee3b d0bd 278f b1bc
000002c0: 8ff3 433d 345b f43c 2b63 99bc 41b2 8fbc
000002d0: 53d3 5dbc c5ba 93bb 51a7 74bc 4a5d 16bc
000002e0: f286 803c 040a 49bd f5c8 a2bc 466d 423b
000002f0: 8f28 35bd 116b 1bbd f905 bbbc 35ac c0bb
00000300: 1893 f03b 3c77 62bd 1e2f da39 8560 b3bc
00000310: 636a 33ba 1149 8cbb 8035 2ebd 46b9 bc3c
00000320: 831e 17bd e5fe 083c 0dc4 00bc caf3 66bd
00000330: 5b65 d7bc 0084 11bd 2d84 1fbd df7f 96bc
00000340: f97e 913c 2bad 1fbd 90f5 a73c 3fd5 d6bc
00000350: cbde 003d d843 22bc a65a f03c ef81 19bd
00000360: dcd6 a23c e06d 4a3d ef5f aebb 7d27 0abd
00000370: d254 603d 9470 863c 7be6 a9ba e239 8dbb
00000380: a3aa 14bd 0ac7 bf3c 9fea 4b3c 66aa 9c3b
00000390: 90a5 033d 25b5 073d f8b1 eeba 8603 063d
000003a0: 375f edbc 385f 9a3c 907b bf3c f28d 1a3c
000003b0: f453 0d3d 4e68 2b3d 6015 013c b4ed a6ba
000003c0: 0204 41bc 5f10 38bd 65f6 d13c 702e 2e3c
000003d0: 6c5d 063d cbc6 5a3b 3551 92bb d3cc a33c
000003e0: fe7e c0bc 1342 9d3b 4c86 093d ea73 9d3c
000003f0: c9ad 903c 4dec c6bc 9a83 863c 6d0c 053c
0.050047543 0.036876656 0.014655419 0.025081772 0.065192565 0.03730565 0.010128429 0.0037838276
0.092051506 0.022311836 0.007132732 -0.04672852 0.005011816 0.017949479 0.0075060963 0.0046138465
0.04251608 0.0106605 0.021333724 -0.004753025 0.015264072 0.015150982 -0.015743887 0.005454352
0.0130122425 -0.03577394 -0.010071197 -0.002234143 -0.026532814 0.0037411756 -0.017958784 0.034363043
0.019227667 -0.06521948 -0.007691343 -0.0475677 -0.075334854 -0.025833566 0.0037062312 0.05090774
-0.029617026 -0.05820659 -0.074416436 0.0037520523 -0.08055922 -0.041499216 -0.030637044 0.0050715706
-0.02741769 -0.014217059 -0.07103705 -0.02007353 -0.027445948 0.03093582 -0.003981593 -0.029146252
0.018210888 -0.06160018 -0.046913113 -0.025159111 -0.009792415 0.0031995424 -0.023844004 0.017707635
0.021935306 0.0073442273 -0.012889917 -0.060501367 0.0056403847 0.013113177 0.022127058 -0.02401497
0.008518588 0.04177353 -0.008582579 -0.028021038 0.018978233 -0.018521128 0.04533192 -0.03900306
-0.015633857 -0.005479805 0.0010322273 0.011173618 0.0069129816 0.036523506 0.05070408 -0.0059889057
0.025774816 0.010683686 0.039898116 0.0057753953 0.007080775 0.00043013133 0.01650367 -0.008546733
0.0075296983 0.010907867 0.046261538 0.028973732 0.04066947 0.0065653883 0.023322534 -0.006920095
0.026099732 -0.007505957 0.030607574 0.078989245 0.020432837 0.03867627 0.01985337 0.023462074
0.026655985 0.026516395 0.04356098 -0.01306306 0.034408003 0.045984894 0.011023156 -0.054688137
0.033965368 -8.164546e-06 -0.0051110857 -0.010425734 -0.02189069 -0.030377317 -0.004207329 -0.017103648
0.019779028 -0.03875483 0.07759824 -0.0028146973 0.018579504 0.02653871 -0.028314833 0.0056791385
-0.009161896 -0.007739383 -0.014087092 0.004801592 0.037499405 0.021469792 -0.008972719 0.0038939472
0.0018079621 -0.0058663148 0.02848382 0.016681395 0.009634126 -0.030948393 -0.05393856 0.007255202
0.04080264 0.011226167 0.0066813426 0.028660148 -0.022086035 0.01288485 0.016491134 -0.0036669942
0.034648895 0.024083633 0.031422883 -0.050349303 -0.008409669 -0.0027728577 -0.0353337 -0.020337328
0.03775375 -0.017583976 0.021875832 0.012593028 0.025807088 -0.0050578476 -0.10167681 -0.021674706
0.047839697 0.029828645 -0.018724045 -0.017541053 -0.013539153 -0.0045083486 -0.014932469 -0.009177515
0.015689347 -0.049081817 -0.019871214 0.0029667183 -0.044228133 -0.037943903 -0.022829996 -0.0058799037
0.0073417537 -0.055289492 0.00041615305 -0.02189661 -0.0006844161 -0.004281171 -0.04253149 0.023037564
-0.036894333 0.008361553 -0.007859242 -0.05638484 -0.026293447 -0.035526276 -0.038944412 -0.01837152
0.01776074 -0.038983505 0.020502836 -0.02622473 0.031462472 -0.0099038705 0.0293401 -0.03747743
0.019877844 0.04942119 -0.005321495 -0.033729065 0.05476839 0.016411103 -0.0012962365 -0.0043098787
-0.036295544 0.023410339 0.012446075 0.0047810553 0.032140315 0.033131737 -0.0018210998 0.032718204
-0.028976066 0.018844232 0.023374349 0.009433256 0.034503892 0.04184752 0.007878631 -0.0012735636
-0.011780741 -0.044937488 0.025630185 0.010631189 0.032803938 0.003338265 -0.004465247 0.019995129
-0.023498055 0.0047991364 0.03357534 0.019220311 0.017660992 -0.024282599 0.016420174 0.008120638

fc1.bias f4 [120]
00000000: 2247 ba3b acea 193d cc1c 6a3c 25fc ce3c
00000010: f53b 063d ed67 0c3d 55af bcbc 46dd ed3c
00000020: 7065 c53c 7dba cebc 3227 623c b11f ce3b
00000030: 603c 53bb 6baa 8b3c a895 dbbc d239 a8b9
00000040: 4997 b8bc bcf8 07bd c96b 843c 63a2 e8bc
00000050: d5e8 a3bc 4eea c0bc ebaf c13b 4686 863c
00000060: 8a63 fcbb 98e5 acba 0398 d13c 5692 593d
00000070: 6822 cd3c 8018 d33b f478 963c 266e 953b
00000080: ae9d ae3c 4396 de3c 7b65 bc3c 2399 9f3c
00000090: 3a24 003d fc3c eebc 9a99 0b3d 9979 5d3c
000000a0: 1611 243d ee8e 143d d338 2bbb eaff 7c3d
000000b0: bf3f 91bc f84c 55bd fa67 bb3b 57c7 a8bc
000000c0: 29b0 3bbc 579f b6bb a9a3 653b d233 f43c
000000d0: d52f 4dbc 045a c5bc 507c ae37 6486 2ab9
000000e0: 574f 9ebc 38df 4dbd 6553 4abd 38a9 523b
000000f0: 313f 3c3c 6143 043d 1cc0 7e3b 5a2e 9bb9
00000100: 357f 053d 07a9 053c 39ce 1d3d ce3e a23b
00000110: a00f 1dbd 22b5 7bbc 0a20 8c3c a0a2 e13c
00000120: d4ba ba3c b53b db3b 4345 43bb 4fd1 a2bc
00000130: 0721 e23c 0d78 bd3c 8063 83bb b9c2 18bc
00000140: 886d 193d 4566 9d3c 5132 fcbc a1d2 173d
00000150: 8079 4abc 0204 8b3c c2ae 25bc 8244 ae3c
00000160: 6383 fe3c 988b b6bc b4b7 74bb 979f 83bc
00000170: 249e 14bc 7b4e 35bc 2093 f3b9 401d 2b3c
00000180: bc54 5ebc b949 a1bc 3b93 0ebd 03a0 1e3c
00000190: cae3 453b c83e 9abc 7356 f83c 8a36 8e3c
000001a0: ca76 b6bc aa52 383c 2d81 a83b 7898 27bc
000001b0: 0ed2 963c 8000 e0ba da3e d9bc fbd8 9cbb
000001c0: 4ff3 e9bb 82aa 013c 08cc 8f3c f7e7 81bb
000001d0: 9d8c 983b 3a40 83bc f1d7 95bc 1d43 963c
0.005684749 0.037577316 0.014289092 0.025266716 0.032772023 0.0342788 -0.023032824 0.029036175
0.02409622 -0.025235409 0.01380329 0.006290399 -0.0032232031 0.017049035 -0.02680476 -0.00032086537
-0.022533076 -0.033196196 0.016164677 -0.028397745 -0.020008484 -0.023549225 0.0059108636 0.016421448
-0.0077022957 -0.0013190983 0.02558518 0.053118072 0.02504082 0.0064421296 0.018368222 0.00456025
0.021315422 0.02717126 0.022997608 0.019482201 0.03128455 -0.029081814 0.034082033 0.013517761
0.040055357 0.03626912 -0.00261264 0.061767496 -0.017730592 -0.052075356 0.005719182 -0.020602865
-0.011455574 -0.005573194 0.0035040176 0.029809866 -0.012523611 -0.024090774 2.0800304e-05 -0.00016262528
-0.019324942 -0.050261706 -0.049395937 0.003214432 0.011489675 0.03229082 0.003887183 -0.00029598438
0.032592017 0.008157975 0.038526747 0.0049513346 -0.03834498 -0.01536301 0.017105121 0.027543366
0.022794165 0.0066904672 -0.0029795922 -0.019875197 0.02760364 0.023128534 -0.004009664 -0.009323769
0.037457973 0.019213805 -0.030785711 0.037066106 -0.012358069 0.016969685 -0.010112466 0.021272901
0.03106851 -0.02228336 -0.003734094 -0.01606731 -0.009070907 -0.0110660745 -0.00046458188 0.010443985
-0.013570007 -0.019688474 -0.03480838 0.009681704 0.0030195587 -0.018828765 0.03031466 0.01735999
-0.02227344 0.011250177 0.005142352 -0.0102292225 0.018410709 -0.0017089993 -0.026519228 -0.0047866083
-0.0071396003 0.007914187 0.017553344 -0.00396442 0.0046554343 -0.016021837 -0.018291445 0.018342549

fc2.weight f4 [10, 120]
00000000: 8bc7 96be 6201 31bd 0e0f eb3d 3d01 273c
00000010: 30cf 8ebc dcab 7fbe fd28 a43d 2a1d 23be
00000020: 0735 10be 80d4 91be 5092 9e3d ed8f 143c
00000030: 0f70 e0bc cb70 4fbd de0a ce3d 983d 573d
00000040: e3f0 0e3e fd3a 3d3e 290e b4bd 67aa 9b3e
00000050: 53bd cc3d b4d6 2f3e 5271 483e c02e 2f3d
00000060: fa8b 49be e234 67be 2e87 123e 664f 45be
00000070: d296 863d 390c 683d 246f 5cbd c16e 9b3e
00000080: 0566 dd3d b6f3 51bd 7662 3fbe 6991 b73e
00000090: 2ef7 093e 2556 b63d 28a4 5ebe 7af3 8ebe
000000a0: 0c63 89be 77eb ccbd 8220 acbd 588b 1fbe
000000b0: 9596 a53e 6f37 843e 6183 203e d830 2e3d
000000c0: 8549 b7bd 387f 1abd 1171 5b3d 824e a1bd
000000d0: fc9c 2cbe 01cb c03b 0e6f 78be 5dd3 a53d
000000e0: ba4b 673e d8a1 cd3e 67eb 3f3e 72e0 8bbd
000000f0: c4fc 8ebe 8002 6dbe 39c3 0f3e 7b63 3fbe
00000100: 212a 3e3d 3f83 a5be ad2e 15be 4930 5abd
00000110: c36a b13e fb98 0b3d 408d 303e 2b63 13be
00000120: d682 593e c7d9 db3d b0aa 653d d27c 1d3c
00000130: 0692 ea3d 726a 5a3e b4dd 16be a26d ddbd
00000140: 985d edbd e3ef eb3c 5647 cdbc 65d5 b33d
00000150: 6e19 083c 1c96 c63e b504 69bd 8a24 53be
00000160: 978e 3fbe a9bd 983e 5679 6dbe b24d 6ebe
00000170: bfec a2be c315 b83c d85d fb3c abf7 00bd
00000180: a59d 1c3e 354c ffbd 5df0 afbc bc89 a93d
00000190: 0e59 203d e882 f4bd 921e 9f3c cd43 7e3e
000001a0: 56d4 e2bd bb84 763c 583d 503e 6b7b 873d
000001b0: 80bd 603b a613 d23d e07f 423e 5e82 2a3e
000001c0: a7c9 9cbb b2d7 39bd 01ed e13d 7df7 59be
000001d0: fe2f ff3d fdc5 5cbd f2cd 693d f8f8 3cbe
000001e0: bf43 f6bd 606c 80be 9d46 173e d5aa cdbd
000001f0: fe1f 80be 6558 f2bd de8a 493e c871 813e
00000200: 48e6 9e3d 071f c0bc e90a 1c3d 1f8c df3d
00000210: a7ac 92be 86b5 7cbd fc34 3e3e bf5c edbd
00000220: 19a9 203c 2244 8ebe 339d bc3c 9331 25be
00000230: f2d9 aabe 4d65 083e fdad c13c f9a7 7bbd
00000240: 7c9b 74bd 7263 1e3e 90a7 833e 800a 6fbe
00000250: cf03 dc3e 2156 92be 330b 70be b366 6abe
00000260: db26 d7bc 0705 8bbe cdc2 023e 3e20 473b
00000270: 64e9 d5bc 76b4 abbd 2bd7 2cbe 0a0d 62bd
00000280: 2db5 2bbe 256f b03e 8327 cebd 62b6 3b3e
00000290: 3719 43bb cfec a8bd b0e2 31be 4ad0 0fbd
000002a0: 5cde 9b3e 907f 173d de2d 80bc 04be e23d
000002b0: db4f d23b 49ae c0bb ee69 94bd f5b8 3fbe
000002c0: ba96 37bd 02bd 84bd 34f3 833e 9df2 a83d
000002d0: d382 183d e0f3 0b3c 6ea0 de3d 7ede de3d
000002e0: fdbd 8bbe 5e7f e43d 2acc c5bd f293 f13e
000002f0: ac49 83bc 27a1 08be 1c9f 6d3e e04c 7cbe
00000300: 1674 42be 8927 28be 8077 813d 89fc 463d
00000310: b7c7 4cbe c8a3 f53d 750c 4f3e 0356 173d
00000320: c0c7 e6bd 64dd e1bd f97d ef3c 93f7 f33d
00000330: e0fc 0abe ff32 933e 9dc3 5d3e 6198 98bd
00000340: 8c2b 35be 0e55 80be 028d 87bb 563f cabd
00000350: 04f4 a33d 7439 68be c2a4 87bd c63a dabd
00000360: 6ff9 acbe 44b2 5d3c 8fe5 1a3e 5da3 1d3e
00000370: 6c59 7dbe 6c00 4fbd 5a00 373e 8cd6 0bbe
00000380: f87e 0a3d 15ba f8bd 9eff d1b9 846a c63d
00000390: 7c9c c0be 79fb f73e 4f32 21be ea77 483d
000003a0: be65 34be 7aa9 9dbc 0cb6 0ebd e072 c53e
000003b0: b9b7 f3bd c4bd 25be 3b81 583e 4572 06be
000003c0: 749f 72be 0bed 483e 0d00 1abd 68f8 02bd
000003d0: 3e67 bebd 19d2 ad3e 63e9 15be cbe6 84bd
000003e0: ddec 443d 64cb d93d d5a6 e43d a2da d43d
000003f0: 3ed4 15be 9115 f13b d595 43be 11f0 d13e
-0.29449114 -0.04321421 0.11477481 0.010193166 -0.01743278 -0.24967903 0.080156304 -0.15929094
-0.14082728 -0.28482437 0.07742751 0.009067518 -0.027397184 -0.050644677 0.100606665 0.052548975
0.13959078 0.18479533 -0.08791763 0.30403444 0.09997048 0.17171746 0.19574478 0.042769194
-0.19682303 -0.22578767 0.1430938 -0.1926857 0.065717354 0.05665228 -0.05381693 0.30357936
0.10810474 -0.05125781 -0.18689904 0.35853127 0.13473198 0.089031495 -0.21742308 -0.27920133
-0.2683338 -0.10005849 -0.08404638 -0.15580499 0.32341447 0.25823542 0.15675117 0.04252705
-0.089495696 -0.03771898 0.053574625 -0.07876302 -0.1685676 0.005883575 -0.24261114 0.08096955
0.22587481 0.4016254 0.18742143 -0.06829919 -0.2792722 -0.23145485 0.14039315 -0.18690293
0.046426896 -0.32326695 -0.14568587 -0.053268705 0.34651765 0.03408144 0.17241383 -0.14393298
0.21241316 0.10734897 0.056070983 0.009612279 0.11453633 0.21329668 -0.1473301 -0.108119264
-0.11590117 0.02880091 -0.02505843 0.08780936 0.008306844 0.387864 -0.056889255 -0.20619407
-0.18706737 0.298322 -0.23190817 -0.23271826 -0.31821248 0.022471314 0.030684397 -0.031486195
0.15294512 -0.12465707 -0.021476919 0.08278224 0.03914743 -0.11939031 0.019423757 0.24830551
-0.11075656 0.015046294 0.20335901 0.06615337 0.0034292638 0.10257654 0.18994093 0.16651294
-0.004784781 -0.04537172 0.11031533 -0.21285816 0.12460326 -0.053899754 0.05708117 -0.18454349
-0.1202464 -0.25082684 0.1477303 -0.10042349 -0.25024408 -0.11833266 0.1968188 0.2528212
0.077587664 -0.023452295 0.038096342 0.10915398 -0.28647348 -0.06169655 0.185749 -0.115899555
0.009805941 -0.27786356 0.023024177 -0.16132192 -0.33369404 0.13319893 0.023642534 -0.061439488
-0.059718594 0.15467623 0.25713778 -0.23343849 0.42971656 -0.28581336 -0.23441772 -0.22890739
-0.026263645 -0.27152273 0.12769623 0.0030384208 -0.026112266 -0.083840296 -0.16878955 -0.055188216
-0.16768332 0.34459797 -0.1006613 0.18331292 -0.0029769668 -0.08248293 -0.1737163 -0.03511075
0.30443084 0.036986887 -0.015646871 0.11071399 0.006418211 -0.0058801514 -0.07246767 -0.187229
-0.04482148 -0.06481363 0.25771487 0.082494 0.03723414 0.008542031 0.10870443 0.10882281
-0.27293387 0.11157106 -0.09658082 0.47183186 -0.01602634 -0.13342725 0.23205227 -0.246387
-0.18989596 -0.16421331 0.06321621 0.04858068 -0.1999806 0.119941294 0.20219596 0.03694726
-0.11268568 -0.11028555 0.029234873 0.119124554 -0.13573027 0.28749844 0.21656652 -0.07450939
-0.17692393 -0.25064892 -0.0041366825 -0.098753616 0.08005527 -0.22678167 -0.06623222 -0.106557414
-0.33784053 0.013531271 0.15126632 0.1539435 -0.24741143 -0.05053751 0.17871228 -0.13656062
0.033812493 -0.12144867 -0.00040054036 0.09688285 -0.37619388 0.48434046 -0.15741847 0.048942484
-0.17616937 -0.019245852 -0.034841582 0.38564205 -0.11900277 -0.16185671 0.21143048 -0.13129528
-0.23693639 0.19621675 -0.037597705 -0.03197518 -0.09297036 0.33949354 -0.14639811 -0.06489333
0.048077453 0.10634497 0.11164633 0.103932634 -0.14631745 0.0073573072 -0.19100125 0.4100347

fc2.bias f4 [10]
00000000: c80c 0bbd 560b da3b 15a9 04bd e3c3 43bc
00000010: 8486 f33d a91b ae3d 630d 153b 5c20 0f3d
00000020: 1470 47bd 3a03 8e3c
-0.033947736 0.0066541834 -0.03238781 -0.0119485585 0.11890891 0.085013695 0.0022743575 0.03494297
-0.04869087 0.017335523
