models/net/model_epoch_56.pt (torch, 517807 bytes, 16 tensors)

conv1.weight f4 [8, 3, 5, 5]
00000000: a2d9 99bd df81 62bd 4b1b bbbd fc2f 243e
00000010: 36db 163e 2814 6bbe 35ba e4bd 3273 f13d
00000020: 0215 2b3e fd6b 743d 71a7 e2bc fc35 043e
00000030: 6495 453e 4ce2 0e3e eec5 663e c99d 473d
00000040: b7a1 803e 6886 523e d6aa 923d 1657 fb3d
00000050: 7d50 aebd 44fa c23c 1aa7 bbbd 5a30 043d
00000060: e3c5 74bb be63 dbbd ef21 f0bd 896b 98bd
00000070: 4d58 c93d 8d77 99bb b4b6 68bd 4187 05be
00000080: 248c ec3d 50bf b03b 52da b9bd 2d9e d9bc
00000090: 9f0b 6a3d 1b61 223d a9f8 b0bd 48a3 26be
000000a0: 85f1 863d 886d 4abd f878 3bbd 6a49 88bd
000000b0: 193a febd e69b 073b ec9c 273d 55cf 49be
000000c0: 3e2c f6bd 3695 c0bd 893a bebd 96c4 8bbd
000000d0: d915 1fbd 10e5 ff3d 501c 6a3d c097 0f3d
000000e0: 797d 0b3e 5401 3b3e 34ae e53d 333a 0bbe
000000f0: d47b 973c c5e4 523d 8ebb d23d 27b0 14be
00000100: 8850 08be af59 1d3e e274 483e 70db 8bbc
00000110: d412 47be 7a58 5abe 6d2a 983e a936 e33d
00000120: 6770 923c 2a7b 4cbe 4412 78bc 52c3 55bd
00000130: 677c 46bd 2915 913e ca26 e53d ea2a 51be
00000140: c777 6e3c b3e3 9cbe c29b 88bd b241 ba3e
00000150: 049b 8b3d f9bd 8c3d f424 503e cc0f d1be
00000160: c90c 34be 6ad6 c63e 6871 f6bd 0314 c43d
00000170: 88c7 763e 4194 4dbe 624e acbd fd55 dfbd
00000180: 9f38 cabd 6999 7b3d e4fb 883d aae2 b4bd
00000190: 52ff d7bd 1f6d 68bc 94dc 023e 060a 813d
000001a0: 1ef8 093d f8ae 0ebc 8256 aabe 11ee a4be
000001b0: 3b20 6d3e a2a1 dd3d c39b a13e dfca 943e
000001c0: c38e a9be b229 b6be c779 8f3e df3a aabd
000001d0: 1261 943e 790b 0c3e e764 b3be 562c e2bd
000001e0: f0a2 8a3c afdc 09be 8775 253e c36c 17bb
000001f0: 6225 febd 6ddb 95bd 5514 90bd e2bd f73c
00000200: eb9f 263e d346 01be 2e48 cd3d 5261 41be
00000210: efbb abbe a4c4 ab3e 7cda c8bb 13dc e63d
00000220: 2162 253e bce0 f8be b85b 8fbe 367d 523e
00000230: cae0 db3c 8e27 4b3e 5842 943e c58f f0be
00000240: 18d0 14be e1b1 5d3d ca0b 093d 89f9 993e
00000250: de1e 593e b037 e0bd 7189 53bc fd3a 83be
00000260: fab5 643e c286 18bb 6d86 cc3d 79bc a4be
00000270: e34a ac3e 63f2 8d3e ee43 64be 94ab ebbd
00000280: 959a 1f3e c09e 923e fc7c 30bf 53cc b5bd
00000290: e5f7 6c3e b84c 903c d4e7 d7be 6ebb 543d
000002a0: 66d2 1b3f 8fbf 79be 2ec2 0c3b 9f39 9c3c
000002b0: b882 983e b31e c4bd b118 5bbe dfeb 503e
000002c0: 8b7b 15be 44a7 393e 2bc4 363d acde bbbd
000002d0: e4f6 423c 935c e33e e6dc 363e a73c c8be
000002e0: 4641 733d 31b0 9e3e c8ac d83e d75f 3cbf
000002f0: 7b14 45bd 301a 9c3e ce8f 313d bb2f c4be
00000300: acbb 86bd 2c2e 0b3f 59ea 37be 8862 09be
00000310: 1da1 04be c996 6d3c 90c1 76be c1f0 30be
00000320: 20ee 88bd fae9 afbe b54b ec3c 29d7 05be
00000330: 9b6a 8dbc e1f4 8ebe 9b0c 5a3e 968d 293e
00000340: 748c 56be d9e6 493e b188 91bd c7cf 853e
00000350: e7ff 34bf 689c a3ba 8506 823e 0d98 f6bc
00000360: 246e b9be 5713 36bd d39a 193f 1a2c a7bd
00000370: e129 9d3c 965e 543e ee02 9e3e 9865 593d
00000380: dbff a23c 04e1 093e 1309 8c3e 5133 a73d
00000390: 2bd5 dcbd 6eea 093d 20f5 aa3d c1c9 4e3e
000003a0: fc19 67bd cde9 3fbe de76 96bd 3def 6e3e
000003b0: ea32 483e 2bf3 8dbe 5fd1 abbe 3d0e 09be
000003c0: cde4 843e b73b 56bd 0e88 e4bd 0ce3 05be
000003d0: 5ae0 303e 8b04 ec3b 5e96 67be 5505 ca3c
000003e0: f0d2 1cbe 4fb1 1b3c bf35 b8bd e152 7bbe
000003f0: 3650 1cbe db72 32be f187 28be 4825 adbd
-0.07512213 -0.055299636 -0.09136065 0.1603393 0.1473206 -0.22956908 -0.11168329 0.1178955
0.16707233 0.0596733 -0.027667733 0.12911218 0.19295269 0.13953513 0.22536442 0.04873446
0.2512338 0.20559084 0.071614906 0.1227247 -0.08511446 0.023800977 -0.091627315 0.032272674
-0.0037349395 -0.10712384 -0.11725222 -0.07442386 0.09831295 -0.004683441 -0.056814864 -0.13039877
0.11550167 0.0053939 -0.090748444 -0.026564682 0.05713999 0.03964339 -0.08641178 -0.16273224
0.06589035 -0.049420863 -0.04576966 -0.066546276 -0.12413425 0.0020692288 0.040921137 -0.19707997
-0.12020157 -0.0940346 -0.092885084 -0.06824605 -0.038839195 0.12494862 0.057155907 0.03505683
0.13622083 0.18262225 0.11214867 -0.1359642 0.018491663 0.051487703 0.102896795 -0.14520322
-0.1331197 0.15366243 0.19575837 -0.01707241 -0.19440776 -0.21322814 0.29719868 0.1109441
0.017875863 -0.19968858 -0.015141074 -0.052188225 -0.048458483 0.28336456 0.11189039 -0.20426527
0.014554924 -0.3064247 -0.066703334 0.36378247 0.06816676 0.06872172 0.20326596 -0.40832365
-0.17583002 0.3883546 -0.12033349 0.095741294 0.24099553 -0.20076086 -0.08413388 -0.10905073
-0.09874081 0.0614256 0.06688669 -0.08832295 -0.10546745 -0.014186173 0.12779456 0.0630074
0.03368389 -0.008708708 -0.33269125 -0.3221288 0.23156826 0.10821845 0.3156415 0.29061028
-0.3311673 -0.35578686 0.28022596 -0.0831201 0.2898031 0.13676251 -0.3503792 -0.11043613
0.016923398 -0.1346309 0.16158114 -0.0023105599 -0.12409474 -0.07317243 -0.07035128 0.03024191
0.16271941 -0.12624674 0.10023533 -0.18884781 -0.3354182 0.33548462 -0.006129561 0.112724446
0.16150714 -0.4860896 -0.27999663 0.20555577 0.026840586 0.19839308 0.28956866 -0.46984687
-0.14532506 0.054124717 0.03345851 0.30073193 0.21203181 -0.109481215 -0.012911187 -0.25630942
0.22335044 -0.0023273681 0.09986577 -0.32175043 0.33650884 0.2772399 -0.22291538 -0.11507335
0.15586312 0.28636742 -0.6894071 -0.088768624 0.2314144 0.017614707 -0.42169058 0.05193656
0.6086792 -0.2438948 0.0021478045 0.019070445 0.2978723 -0.09576168 -0.21396138 0.20402478
-0.14597909 0.18130213 0.044620674 -0.09173331 0.011899684 0.44406566 0.17857704 -0.39108774
0.05938842 0.30993798 0.42319322 -0.7358374 -0.048115235 0.3048873 0.043350033 -0.38317665
-0.06578764 0.5436733 -0.1796049 -0.13416493 -0.12952085 0.014501282 -0.24097276 -0.1727934
-0.06686044 -0.34358197 0.028844694 -0.13070358 -0.017262748 -0.27921203 0.21293871 0.16557917
-0.20952016 0.19716968 -0.0710615 0.26135084 -0.70702976 -0.0012482526 0.253956 -0.0301018
-0.36216843 -0.044452038 0.6000187 -0.081627086 0.019185008 0.20739207 0.3086161 0.053075403
0.019897392 0.13464743 0.27350673 0.08164085 -0.10782846 0.033670835 0.08347535 0.2019415
-0.056421265 -0.18741532 -0.07346891 0.2333345 0.19550672 -0.27724585 -0.33558175 -0.13384338
0.2595581 -0.052303042 -0.11158763 -0.13074893 0.17273083 0.00720269 -0.22615954 0.024660746
-0.15314841 0.009502723 -0.08994626 -0.24543335 -0.15264973 -0.17426626 -0.16458108 -0.084543765

conv1.bias f4 [8]
00000000: 92e8 7ebd 6c29 773d 55d0 dfbd 50f1 36bd
00000010: fc48 b8bc 82f3 c8bd 6760 96bd b664 9abc
-0.062233515 0.060342237 -0.10928408 -0.044663727 -0.02249574 -0.098120704 -0.07342606 -0.01884685

batch1.weight f4 [8]
00000000: 5c98 3f3f 0afa 673f db9c 4f3f b268 803f
00000010: c5e6 953f bf09 703f c464 853f 205f 8a3f
0.74841857 0.90615904 0.8109872 1.003195 1.171105 0.9376487 1.0421376 1.081028

batch1.bias f4 [8]
00000000: 9426 93bd 07dc b5be 8c1e 51be cdd6 d5be
00000010: dde7 87be 8d12 30be 050a abbe 35b2 b3be
-0.071850926 -0.3551943 -0.20421809 -0.41765442 -0.26544085 -0.17194577 -0.33406082 -0.350969

batch1.running_mean f4 [8]
00000000: da17 6c3e fc4c b9bd 3e0e 08be 6898 c0be
00000010: 9c96 bdbd f92b 26be 7a46 08be 2ee5 aebd
0.23055974 -0.09047887 -0.13286683 -0.37616277 -0.09257242 -0.16227712 -0.13308135 -0.08539806

batch1.running_var f4 [8]
00000000: 2f23 883d 1fa6 6e3d d6fe 213d 8d14 8e3d
00000010: bf3e 3b3e e413 1e3e 287f bd3d c6be ad3d
0.06647336 0.058263894 0.03954967 0.069375135 0.18285654 0.15437275 0.09252769 0.08483653

conv2.weight f4 [16, 8, 5, 5]
00000000: fce7 ff3d 30c7 f63d 13e3 9e3d 505e fb3c
00000010: 0372 903d e0d5 9e3c 3211 1c3c 9093 afbc
00000020: f0a5 71bc 0b40 873b 1373 37bd 1350 01bd
00000030: 3868 a4bd 43be 85bd 5264 69bd 1564 02bd
00000040: 92b8 60bd 16ed c8bd 05c8 b6bd 17b1 90bc
00000050: c6e2 b0bd 2716 cbbd 92b1 91bd 901e b8bd
00000060: 4849 02bd fa16 6cbd 0d4a 4dbd 9ed4 65bd
00000070: 4c86 46bd 8dfd 4abd a50b 64bd 8b2f ccbc
00000080: 3ac7 1e3d 8931 cc3c 2091 ffba b941 b0bd
00000090: 713e 26bd 3e89 8d3d 2eaa 9e3d e5df fb3c
000000a0: 663e 92bd 7583 02bd d9e5 313e dc6c 7b3d
000000b0: 0f8c 7d3c fa5d 16bc 4064 3dbc dd59 933d
000000c0: b73f 82bd 487d 46bd f727 5d3d 422d c33a
000000d0: 84a8 fc3b 699d 3cbd fdda 80bd 06a2 8e3d
000000e0: 7ed7 a73d 58c7 afbc 6623 9abc 3f50 2abd
000000f0: 09cd d83c 3b47 d03d 4b20 b83d 551d 383d
00000100: f8ae 2a3d 82d5 55bd cd35 69bc 2870 3f3d
00000110: c759 bf3c f512 313d e774 ffbd 1df0 92bd
00000120: 6671 fc3c 7bfd 0c3d f5ca 7dbc 2f15 1dbd
00000130: a1e8 183b 1215 0e3d 1c54 fdbd 2a39 0dbe
00000140: b1c5 643d c755 173e 205b 2f3e fd05 463d
00000150: 96b5 b0bd 5ffc 86bc e43b 4b3e ad4f 283e
00000160: 0a1a 733b 905f d23d ba58 98bd 37a1 d13e
00000170: a843 df3c 70da 1a3d 33da b8bc 8ae2 c8bd
00000180: 5201 d63b e32a febc 9432 e73d c198 53bc
00000190: 8147 b1bc 7106 d7bc f070 b2bd 80cc 31bc
000001a0: 5826 983d 8e4f 31bd b2cf 9dbc 00ad 88bd
000001b0: 0e11 c2ba 8211 42bc b99d d33b df2c 69bc
000001c0: 3621 ac3c 5252 bf3d ae46 743d 9c82 033e
000001d0: f0a0 ff3b c083 b83d dd34 543d 6e28 0dbd
000001e0: d209 69bb 3834 8e3d d6f6 e83d 7ba2 89bd
000001f0: 6f2e 27bd 1e33 5e3d 5d68 e23b 5768 833b
00000200: 6215 93bd f752 36bd 1218 d1bb c9be e03c
00000210: 38c2 38bd b2bc 4fbd 9239 b3bb 19ce d6bc
00000220: bb38 cebb 4968 89bd 18f5 85bd 2bc2 8abd
00000230: 6d59 46bd 4bd9 beb9 c0cb 8abd edf2 97bd
00000240: 4124 4bbd 708d 08bd 11f8 993d 24fa c6bd
00000250: 2a51 8bbd 35bd a8bc 4a69 49bd fa19 ffbc
00000260: c83e 873c a4aa ed3d e59a 473e 7d66 94bd
00000270: 2196 67bd aaae 31bc a08a 293d 257e 003d
00000280: 0df7 81bd 682f b73c 6774 65bc a7d5 3abd
00000290: 9c4b 0ebd 370e 58bc ef92 2e3d ace0 29bc
000002a0: 75af 30bd 408c 783c 1366 acbc 69a1 893c
000002b0: f4b2 973c 069b febc 1b63 2abc 50ab 9d3d
000002c0: df43 3bbd 559e 3c3d 6b2c 413d 9e86 36bc
000002d0: 04f0 003d 96a1 10bd 52fa ca3c 8f50 5cbc
000002e0: d3c0 d0bc 4908 9abd 33ba c4bd fa2b 3fbd
000002f0: 7c61 78bc 360e 92bc 1a8e c3bc 9b46 1cbd
00000300: 3f26 2dbb 1925 02bc f738 6cbd 717f 85bc
00000310: 3e8d ddbd ab0f 38bd c7b8 0cbb 2911 e33c
00000320: e3c3 5fbd b379 a1bd 5a70 acbd 35fd 9cbd
00000330: 4daf f0bd 647b 883c a92e 24bd 452d 0dbb
00000340: 9395 21bd 84f4 92bd 7eff 6b3d 0020 c63c
00000350: e58e 4c3d a811 4d3b f05b 74bd 69a4 543d
00000360: 8589 f63c d749 063e cbed 633d d94b 403d
00000370: d8ba 583d 0d53 2e3d c9b5 8b3d 0457 63bd
00000380: e44e b4bc bafc 88bd a3a1 303d 8d6e 9d3c
00000390: c189 00bd 0548 30bd b731 09bb db21 1cbd
000003a0: e428 5abc 22cf e5bb 56c3 8abd 5fba b8bc
000003b0: 70f5 94bd 25a7 15bd 4436 04bc e747 7bbd
000003c0: 52bf acb9 aac4 08bd 968a e23b 4d38 043d
000003d0: 50e4 d5bc 9eea 093c 258d 0b3d 453c 063e
000003e0: a6cd 873d d498 d73b c4aa a6ba 6c06 08bd
000003f0: 296b 193d 85bb 9fbd cb4f cd3d bb89 14bb
0.124954194 0.12049711 0.07758155 0.03068462 0.07052996 0.019389093 0.009525584 -0.021432668
-0.014749035 0.0041275076 -0.044787478 -0.031570505 -0.08027691 -0.0653043 -0.05698044 -0.031833727
-0.05486352 -0.098108456 -0.089248694 -0.017662568 -0.086370036 -0.099163346 -0.07113947 -0.08990204
-0.031808168 -0.0576391 -0.05011945 -0.05611097 -0.04846792 -0.04955821 -0.055675168 -0.024925014
0.038764216 0.024925964 -0.0019498207 -0.086062856 -0.040586893 0.069109425 0.07747303 0.03074641
-0.07140808 -0.03186365 0.17372836 0.061383113 0.015475287 -0.009177679 -0.011559546 0.071948744
-0.06359809 -0.04845932 0.05399319 0.0014890807 0.0077105183 -0.046048556 -0.06291769 0.06964497
0.08195399 -0.02145736 -0.018815707 -0.041580435 0.026464956 0.10169836 0.089905344 0.04494985
0.04167077 -0.05220557 -0.0142340185 0.04673782 0.023358239 0.04323097 -0.12473469 -0.07174704
0.030815791 0.034421425 -0.015490283 -0.03835028 0.0023332017 0.034688063 -0.12369558 -0.13791338
0.055852596 0.14778815 0.17124605 0.048345555 -0.08628385 -0.016477762 0.19847065 0.16436644
0.0037094378 0.10272133 -0.07438798 0.4094331 0.02725394 0.037805974 -0.022564983 -0.09808834
0.006530919 -0.03102631 0.11288944 -0.012914837 -0.021640541 -0.026248189 -0.08712947 -0.010851979
0.074291885 -0.04328876 -0.019264076 -0.06673622 -0.0014806108 -0.0118449945 0.006458011 -0.0142318895
0.02101193 0.09341873 0.059637718 0.12842792 0.0078011677 0.09009504 0.051808227 -0.034462385
-0.0035558832 0.06943554 0.11375205 -0.06720444 -0.040815767 0.054247968 0.0069094137 0.004010241
-0.07181813 -0.044512715 -0.0063810432 0.027434723 -0.045107096 -0.050717063 -0.0054695094 -0.026221322
-0.006293384 -0.06709344 -0.065408885 -0.06775316 -0.048425127 -0.0003640152 -0.067771435 -0.07419381
-0.04959512 -0.03333801 0.07518018 -0.09715679 -0.0680259 -0.020598033 -0.049172677 -0.031140316
0.016509429 0.11604813 0.19492681 -0.072461106 -0.05653966 -0.010844866 0.04139197 0.0313703
-0.06345949 0.022361472 -0.014004803 -0.04561391 -0.034740075 -0.013186983 0.042620596 -0.010368507
-0.04313608 0.015170157 -0.021044767 0.0168006 0.018517949 -0.03107978 -0.010399605 0.07698691
-0.045719024 0.046049435 0.0471615 -0.011140494 0.031478897 -0.03531035 0.024777565 -0.013446941
-0.02548257 -0.075211115 -0.09605827 -0.0466728 -0.015159961 -0.017829042 -0.02387147 -0.038153272
-0.0026420502 -0.007943415 -0.057671513 -0.01629612 -0.108179554 -0.044936817 -0.002147244 0.027718144
-0.05463017 -0.078845404 -0.08419867 -0.07665483 -0.11752186 0.0166604 -0.04008356 -0.0021541875
-0.039449286 -0.07175544 0.057616703 0.02418518 0.049940962 0.0031291042 -0.05965799 0.051914606
0.030094871 0.13114105 0.0556467 0.046947334 0.052912563 0.042559672 0.06821782 -0.055502906
-0.022010274 -0.06688829 0.0431229 0.019217754 -0.031381372 -0.043037433 -0.0020934173 -0.038118225
-0.013315413 -0.0070132175 -0.067755386 -0.022549806 -0.07273376 -0.036536355 -0.008069579 -0.06134787
-0.0003294894 -0.03339068 0.0069134934 0.032280255 -0.026109844 0.0084177535 0.034070153 0.13108929
0.06631021 0.006579498 -0.0012715687 -0.03320925 0.03745571 -0.077994384 0.10024985 -0.0022665102

conv2.bias f4 [16]
00000000: 6640 6c3d 30bc 3b3d e010 423d ea3a 5e3d
00000010: 0f14 07bd 0486 21bd 32ee 31bd dc21 bf3c
00000020: 2053 e13c 9866 703c 95d1 5ebd 52d4 cd3b
00000030: a5b0 19bd 00d2 63bc 9c59 33bc 9f59 663b
0.057678603 0.045833766 0.047379375 0.054255404 -0.032978114 -0.039434448 -0.04344005 0.023331575
0.027505457 0.014672898 -0.05439909 0.006281414 -0.037521977 -0.013905048 -0.0109466575 0.0035148633

batch2.weight f4 [16]
00000000: 4654 d63f 212c c93f ecf5 f33f 1cce dd3f
00000010: e035 d63f d404 ea3f c40b d23f ef11 f83f
00000020: fc7d ef3f fc47 e63f bd03 e13f d314 d43f
00000030: da4d dd3f d743 f03f 61d5 d13f f210 d93f
1.6744468 1.5716592 1.9059424 1.7328525 1.6735191 1.8282723 1.640984 1.9380473
1.8710322 1.7990718 1.7579266 1.6568855 1.7289383 1.8770703 1.6393243 1.6958296

batch2.bias f4 [16]
00000000: 2d12 33be d389 a0be da8f 25bf 49a6 d0be
00000010: eecf a5be 5358 8fbe cfd5 89be e594 10bf
00000020: e23d e2be 1562 09bf 57af b3be 2a3f 02bf
00000030: 1ba9 79be 92cb fcbe 1e3c 89be 3da2 a1be
-0.17487402 -0.31355152 -0.64672625 -0.40751866 -0.323852 -0.27997074 -0.26920936 -0.56477195
-0.44187838 -0.53665286 -0.3509471 -0.5087763 -0.24380915 -0.49374062 -0.26803678 -0.3156909

batch2.running_mean f4 [16]
00000000: bb26 8b3c 9009 d5bd f391 08be 597c 60be
00000010: e06f aabe 8485 d5be 888c 30bf 0bd2 01be
00000020: e8e3 2cbf 991a b8bd ed9d bbbe 8a5a 353e
00000030: c53a dd3d cb8f 19bf cd90 d2be 016c 3bbd
0.016986242 -0.104022145 -0.13336925 -0.21922435 -0.3328848 -0.41703427 -0.68964434 -0.12677781
-0.6753526 -0.08989448 -0.36643925 0.17710319 0.10802225 -0.59985036 -0.411261 -0.045757297

batch2.running_var f4 [16]
00000000: a4f9 e43e d545 f63e d2dd 2f3f 7d75 193f
00000010: afa6 fb3e 49e5 0f3f 8edc 173f 91bf 4d3f
00000020: 4849 813f 30e9 0c3f b039 133f 230a fc3e
00000030: 3de8 203f c3b4 563f 9526 063f 1510 193f
0.4472171 0.48100153 0.68697846 0.599449 0.49150607 0.56209236 0.59320915 0.8037043
1.0100489 0.55043316 0.575099 0.49226484 0.6285437 0.8386957 0.5240262 0.59790164

fc1.weight f4 [120, 1024]
00000000: 42f1 4d3d 3a3f ed3c 854a 6b3c 4098 a93c
00000010: 5271 8a3d 83d8 0b3d c4e7 cfbb 3d46 5cba
00000020: 04e5 c03d 256b d33c ecdb 773c 444f 5dbd
00000030: efbb e83b 509d 6d3c 3eac 393c 8598 8839
00000040: ae26 413d 07d5 893b 6755 ad3c 6876 0eba
00000050: acf9 813c 81f4 873b f6b1 afba ba90 c93b
00000060: e226 7eb9 04d9 0ebd 802c 1abc 77fa 9bbc
00000070: 9b47 02bd 508e b7bb d18d 90bc d9ef 173d
00000080: 2165 a83b e6ca 83bd db06 8cbb 7aac 33bd
00000090: 83b7 a7bd 2095 1cbd 4589 abbb 2898 513d
000000a0: 0e1d 1bbd 42ab 59bd 138f a5bd f585 1c3c
000000b0: a0a1 a5bd 3298 61bd 5b52 f1bc d676 223c
000000c0: 8dd1 c4bc 00d3 95bc ff30 a8bd ecee c4bc
000000d0: be37 f1bc 545e bd3c 5671 59bc 46cb e4bc
000000e0: c99c be3c 2823 72bd 0756 5fbd 122a 04bd
000000f0: 81c7 8cbc b098 e3bb ee45 8dbc 8c89 843c
00000100: e3b9 e53c c17b aa3c 0319 48bc 429b 88bd
00000110: 7391 5c3c 13bc 9c3c 2dac d43c 4d13 8ebc
00000120: 0c4b 313c 7d09 483d 1f81 6ebc 1636 2abd
00000130: 843c 993c 89a9 acbc 172f 383d f2d5 2dbd
00000140: 7c30 acbc 00e8 1abc 5c1a 29bb 6bd3 9f3c
00000150: ce7c f73b 21ca 233d 2298 323d f4a8 dfbb
00000160: 1b74 053d cd43 173b 6328 233d 6ecf 293c
00000170: 106c 593c f29b fbbb 8674 cb3c 59b2 a7bb
00000180: 5ec5 973c 7ab5 463c 912c 503d 7a57 ba3c
00000190: a9d4 483d 7a24 4e3b 3ba5 b83c 0665 0dbc
000001a0: a961 ee3c 06b4 53bc 1971 0d3d 0a69 b13d
000001b0: 26e2 443c c80b 003d 4043 b93c 6932 a23c
000001c0: 24b4 d23c cf7a f93c 31c2 1f3d 19a9 95bc
000001d0: 1949 3b3d ed73 423d db8c 3a3c dc35 73bd
000001e0: 29cf 103d c95a d43b 1572 f4bb 0c0a 66bc
000001f0: 029e 99bc 50ab f7bc 2f0e 0dbc 174c afbc
00000200: 036f 243c 2a72 35bd d7c5 b63d 0224 6bbc
00000210: d5fa 673c 0e05 163d 4c34 13bd 8c45 403c
00000220: c0f9 a2bc 029b 1bbc 17f1 4bbc 86e8 723a
00000230: f1ab 313d 12b9 a23c 5388 5ebc a4ec 7b3a
00000240: 42a0 a33b 50b4 01bc 2a35 c93c 8e69 1c3b
00000250: 8ba9 ebb9 76ff 11bd 7d19 58bd 5420 793c
00000260: bbde 1b3d 1496 bd3c 2cb9 313b 09ee a73c
00000270: 0483 a3bc 9703 773c c272 813c 600c 3bbc
00000280: 3296 1c3d 8f8d dc3c fe04 283d e63e 3dbd
00000290: 1eac 16bc 9a69 ae3a cc01 1dbd fe59 9abc
000002a0: 0fbe f63c 2a93 a7bc 610d 493c 6a6e fd3c
000002b0: f544 a63c b98d 3fbc 70fd f0bd 1612 9ebc
000002c0: d6e6 623d 3777 003d 89ae 1abc fd99 c5bc
000002d0: f87a 2f3b 0c65 7f3a 7d22 ffbc 695d 6dbc
000002e0: 4e03 5f3c 5119 33bd ac9d 82bc d11b 8e3b
000002f0: e174 0cbd fdd6 43bd fe58 dabc 310a 4ebc
00000300: 1ebe 0c3c b2b5 54bd be2d f0bb f788 efbc
00000310: 2a27 80bb 54c3 5cbc 3bd0 36bd e977 0a3d
00000320: abc3 1cbd 44af 333c be60 3cba 6206 8ebd
00000330: 3844 e9bc 4e30 13bd d167 2ebd 8c13 7abc
00000340: 35f0 4b3c 5b77 14bd d841 d03c 0f99 e7bc
00000350: 11b5 eb3c 170c a2bb b6ac 0c3d eb16 09bd
00000360: 5139 883c cb62 403d 8e14 b8bb 8376 19bd
00000370: 8e2d 693d f4b1 833c d85f cf3b 7a23 11bc
00000380: 3cb8 2abd 2852 bc3c 106b 593c fea9 a43c
00000390: c9be 1b3d 0ab0 2d3d d7e7 9b3b 4778 003d
000003a0: 38f3 15bd 8cb1 c53c db50 b23c d603 8e3c
000003b0: d5b8 db3c b3c8 3a3d e1bd 593b 51d4 6dbb
000003c0: 14d6 cabc d4c3 42bd 54da 903c 75e4 a13c
000003d0: a2d0 173d 9960 1cbb 6f09 7ebb cccb 943c
000003e0: d3ba fdbc de90 29bb 7a91 0a3d 803b a93c
000003f0: 709f 133c 7d69 16bd bede 723c 506c 9a3b
0.05027891 0.028960813 0.014361029 0.020702481 0.067598954 0.03414203 -0.0063447673 -0.00084028003
0.09418681 0.025807926 0.015128117 -0.05403067 0.0071024816 0.014502838 0.01133257 0.00026053577
0.04715603 0.004206303 0.021158887 -0.0005434514 0.015866123 0.00414902 -0.0013404477 0.006151286
-0.00024237813 -0.03487493 -0.009410024 -0.01904033 -0.03180657 -0.005601682 -0.017645748 0.03709397
0.0051390086 -0.06435184 -0.004273278 -0.04386566 -0.08189299 -0.038228154 -0.0052348697 0.051170498
-0.037869506 -0.05314184 -0.0808393 0.009553422 -0.08087468 -0.055076785 -0.029458215 0.009916028
-0.024025703 -0.01828909 -0.0821247 -0.024039708 -0.029445525 0.023116268 -0.01327165 -0.02792896
0.02326812 -0.05911556 -0.0545254 -0.032266684 -0.017184975 -0.006945692 -0.01724526 0.016178869
0.02804274 0.020810964 -0.0122129945 -0.06670238 0.013462412 0.01913265 0.025961006 -0.017343188
0.010821115 0.048837174 -0.014557152 -0.041555487 0.018705614 -0.021076934 0.044966783 -0.042440362
-0.021019213 -0.009454727 -0.0025803065 0.019509992 0.0075527197 0.039987687 0.043602116 -0.0068255607
0.03258143 0.0023081184 0.039833438 0.0103643965 0.013270393 -0.0076785022 0.024835836 -0.0051176962
0.01852673 0.012128228 0.05082375 0.02274679 0.049030934 0.0031454847 0.022539726 -0.008630043
0.029099302 -0.012921339 0.034531686 0.08662613 0.012016809 0.031261235 0.022615075 0.019799428
0.025720663 0.030454068 0.039003555 -0.018269109 0.04572401 0.047473837 0.011386122 -0.059377536
0.035353813 0.006480549 -0.0074598887 -0.014040481 -0.018752102 -0.030233055 -0.008609339 -0.021398587
0.010036233 -0.04429833 0.08924454 -0.014351847 0.014158924 0.036625914 -0.035938546 0.011735331
-0.01989448 -0.009497406 -0.012447617 0.0009266216 0.043376867 0.019863639 -0.013582307 0.00096101523
0.0049934695 -0.007916525 0.024561483 0.0023866626 -0.00044949012 -0.035644017 -0.052758683 0.0152054615
0.03805421 0.023142852 0.0027118428 0.020499246 -0.019959934 0.0150765395 0.015801791 -0.011416525
0.038229175 0.02692297 0.041020386 -0.046202563 -0.009196309 0.0013306618 -0.03833179 -0.01884174
0.030119924 -0.020455915 0.012271256 0.030936439 0.020296553 -0.011691504 -0.11767089 -0.019295733
0.055395924 0.031363692 -0.0094410265 -0.024121279 0.0026776176 0.0009742535 -0.031144375 -0.014487603
0.013611628 -0.043725315 -0.015944324 0.004336812 -0.034291152 -0.04781245 -0.026653763 -0.012575672
0.008590249 -0.05193109 -0.0073296716 -0.029240115 -0.0039109187 -0.013474304 -0.044632178 0.03380576
-0.03827254 0.01096708 -0.00071860466 -0.06934811 -0.028474912 -0.03593474 -0.042579476 -0.015263449
0.012447407 -0.03624664 0.025422022 -0.028271226 0.028772863 -0.004945289 0.034344397 -0.033469122
0.016628893 0.046969216 -0.0056176847 -0.037466537 0.05692821 0.016076066 0.006328564 -0.008858556
-0.041679606 0.022988394 0.013270155 0.02010059 0.038023744 0.042404212 0.004757862 0.031364705
-0.036608905 0.024132513 0.02176707 0.017335813 0.026821533 0.045601558 0.003322475 -0.003628988
-0.024760284 -0.047550038 0.017682232 0.019762257 0.037064202 -0.0023861288 -0.0038762947 0.018163584
-0.030972874 -0.00258737 0.033830144 0.020658255 0.009010181 -0.036721695 0.014823614 0.004712619

fc1.bias f4 [120]
00000000: 02c0 1c3c 37cb 413d 8f5a 833c e2e1 e13c
00000010: 1608 123d f7ce 263d 24ca d4bc 112b fa3c
00000020: 0823 ce3c 1a6f c2bc 5244 9e3c d23c c93b
00000030: a7ce 683a a46b 9a3c 2c3f e0bc 3397 83ba
00000040: edf2 bfbc 39cf 12bd e27b 753c afae dcbc
00000050: bdfd 9dbc a0dd c6bc 9448 e13b f4d5 643c
00000060: 8320 aabb 0c64 00bb 49fa c63c b054 763d
00000070: 32a6 d73c b39d 163c 8499 d33c 0ea1 2b3b
00000080: 7b50 c43c 27ad 073d fd17 d93c d91c 9d3c
00000090: 9214 013d 67e4 f9bc 498c 163d 61da 7c3c
000000a0: 1fff 3c3d 737f 113d af64 91bb ad1a 8b3d
000000b0: 6789 b7bc adbb 6bbd b96a b23b e127 a2bc
000000c0: d546 62bc 5847 febb 2df2 763b 7b65 053d
000000d0: f39b 3bbc 5f88 afbc 0a6f 583a 35b4 82b9
000000e0: 1b67 96bc 9744 6bbd 291a 5dbd c3ce 773b
000000f0: 3cc3 963c 2a93 0a3d 7cbe 943a 9566 843b
00000100: 11f9 123d 2afb 813c 4863 303d d1f3 7d3b
00000110: 6a0b 2abd d58d 4dbc bc87 8f3c 66ad f23c
00000120: 9f0f de3c 9ed2 e83b 1cde 23bc 7803 a4bc
00000130: 2543 eb3c 2472 c73c a0a1 1aba b454 2ebc
00000140: 6f2d 383d bbee ef3c 05ac f7bc 060f 1f3d
00000150: 1dd6 2fbc 36ed 373c 79ed 7cbc f932 c63c
00000160: d1b7 093d f5eb ebbc 8334 33ba a97f 9cbc
00000170: 3e7e d6bb 115e 31bc 5ada 80b9 1d3a 463c
00000180: db90 25bc dddb 8ebc 9142 1cbd 5842 0a3c
00000190: ef8d 243b 8567 87bc db5e f73c 538c 663c
000001a0: 3194 9dbc b508 2d3c 445a e03b 4e9d 35bc
000001b0: 70dc b73c 6864 d2bb 6137 f0bc ab34 2abc
000001c0: 1c75 4abb dbb1 343c a6c6 8b3c 586c c9bb
000001d0: b6ab f43a 8db2 53bc 26d3 92bc 9062 db3c
0.009567263 0.04731294 0.016034393 0.02757353 0.035652243 0.04072472 -0.025975294 0.030538114
0.025163189 -0.023734618 0.019319687 0.0061412835 0.0008880891 0.018850155 -0.027373873 -0.0010039568
-0.023431266 -0.035842154 0.014983149 -0.026938764 -0.01928603 -0.0242756 0.006875107 0.013967026
-0.005191864 -0.0019590883 0.024289267 0.060139358 0.026324365 0.009192872 0.025830038 0.0026188525
0.023964157 0.033124115 0.026500696 0.019178795 0.031513758 -0.030504419 0.03675488 0.015432925
0.04614174 0.035521936 -0.0044370512 0.067921974 -0.022404386 -0.05755203 0.0054448512 -0.019794406
-0.013810833 -0.0077599697 0.003768097 0.032567482 -0.011450755 -0.021427331 0.0008256292 -0.00024929797
-0.018359711 -0.05743846 -0.053980026 0.0037812449 0.018403642 0.033831753 0.0011348273 0.004040549
0.03588206 0.015866835 0.043063432 0.0038750062 -0.04151479 -0.012546022 0.017520778 0.029623698
0.027107058 0.0071051857 -0.0100016855 -0.020021185 0.02871854 0.024346419 -0.0005898718 -0.010640312
0.044965204 0.02928864 -0.030233392 0.038832687 -0.010732201 0.011225989 -0.015437477 0.024194228
0.033622567 -0.028799037 -0.0006836133 -0.019103842 -0.006545811 -0.01082565 -0.00024576747 0.012098816
-0.010105337 -0.017438823 -0.03814942 0.008438669 0.0025109013 -0.016528854 0.030196598 0.014071542
-0.019235702 0.010561158 0.006846698 -0.011084868 0.02244398 -0.0064206608 -0.029323282 -0.010388534
-0.0030892557 0.011028732 0.017062496 -0.006146949 0.0018666897 -0.012920988 -0.017922949 0.026780397

fc2.weight f4 [10, 120]
00000000: 07a0 a3be 255f 6abd 4fb3 e33d 80ea b23c
00000010: 37c8 bdbc a7f0 8dbe 7144 aa3d c93c 32be
00000020: 08ef 1ebe 9e73 a0be a1a2 b53d 3990 803c
00000030: 2595 d2bc f22d a2bd 6d12 db3d f2c1 613d
00000040: 4a00 133e afbf 463e f0a2 bcbd a9cb b73e
00000050: abc2 da3d 7491 3f3e 0400 563e 990d 123d
00000060: 9c29 58be 3fe1 85be 008e 303e 840c 51be
00000070: 8f20 6b3d 67a0 873d 6da3 9bbd 85c2 af3e
00000080: b51e ef3d fbe1 74bd a55d 63be 9b11 c93e
00000090: 8553 0c3e 30cc d23d 080e 82be 6bde 99be
000000a0: a9b6 96be c863 d3bd 6db5 03be 41a1 29be
000000b0: 9364 a93e 7f3e 963e 248e 253e 76b2 3b3d
000000c0: 9ead c3bd b9dc 46bd ab86 813d cfcc a7bd
000000d0: bbb3 3bbe 6cbe 663c 34ec 89be e2f0 8d3d
000000e0: e89d 6f3e 9dcd de3e 51d4 5a3e ad66 8cbd
000000f0: e362 9fbe d184 84be a628 123e 5805 57be
00000100: 53d3 753d 834f b0be c676 36be 294c 59bd
00000110: 01ce c03e a4d9 2e3d a4d0 393e f924 1fbe
00000120: 4b40 683e 2f7c de3d face 313d 6856 0b3c
00000130: 3030 f63d 598d 7f3e acd4 2abe 2e61 02be
00000140: 5c61 dbbd caba 523d 2af9 d3bc d66c ac3d
00000150: c051 92bb 5f4c db3e fb03 86bd cadf 6cbe
00000160: 0094 4cbe 10c6 b13e 8ab8 84be 1a8a 81be
00000170: 8b6e bcbe 8bf1 c93c 68e5 313d ac59 a3bc
00000180: b5d3 373e 7a1d 0bbe 4701 f6bc 5aa8 b83d
00000190: 3184 153d 6640 24be 7994 f23c bbd3 903e
000001a0: 0851 f1bd f02f 0e3c 77f2 573e c7da b93d
000001b0: d965 413b e3ee c43d 721b 6b3e 428c 323e
000001c0: e458 1a3b decc 6bbd 6205 173e b18f 7abe
000001d0: 00db 103e 1413 62bd f1a4 363d 4456 33be
000001e0: 2d52 f7bd 6348 80be 0da3 293e 46e4 febd
000001f0: bf85 86be dd59 07be d5ff 5f3e b3b7 923e
00000200: 4b73 b03d 7075 aabc 6fb9 523d 2f6e 093e
00000210: 13ef 9bbe f6e4 53bd 4cd5 5b3e dcf2 07be
00000220: b7bb 763b 27d0 a1be f551 b43c da5f 3bbe
00000230: f7f0 bcbe 2dea 1a3e 8934 ea3c 6737 85bd
00000240: 9e3a 9dbd 8190 1d3e e0df 8d3e 1856 78be
00000250: 3078 f23e b607 acbe 114e 77be 5037 83be
00000260: e597 aebc fb6d 9dbe 6180 193e 851f f2bb
00000270: 782a 91bc 7240 efbd 978c 51be 2313 87bd
00000280: f05d 4ebe b19a c13e f5ab 02be ec7d 453e
00000290: 5747 743b 4586 b7bd 14d3 43be 7c0a 0dbd
000002a0: ac0f a03e ac03 553d 947f b93a cdd9 eb3d
000002b0: 4129 5e3c 7306 c5bc 5eda a8bd 13a5 4fbe
000002c0: 3917 5bbd 9343 7abd a59d 7f3e 5ac6 903d
000002d0: 33db 593d a246 13b9 7b96 f03d 5e1a f43d
000002e0: b7b0 9bbe a9c0 093e 0bfa cebd 735c f43e
000002f0: f7c2 93bc 52e1 2abe feb7 823e 609e 8bbe
00000300: 2fde 54be 36fb 25be 07d0 ae3d 361e 253d
00000310: a646 62be 1863 093e 829b 753e 3aed 4d3d
00000320: d9d7 f7bd 5342 e9bd ec38 f33c 23f5 023e
00000330: f111 15be f481 973e 8ee2 873e 7aee bdbd
00000340: eeb9 42be dad3 87be 4392 1e39 8dba c0bd
00000350: b38d d03d 80de 6fbe 4e73 9ebd 2c1e e7bd
00000360: 5574 b6be 9432 373c 3415 183e 2d0c 273e
00000370: e9cb 8bbe 1749 7cbd 9f49 403e b71d 13be
00000380: 864a d33c 7aaf 12be ecef 3bbc e2f4 a73d
00000390: 8cbe ccbe 94f7 043f 7267 2fbe a371 933d
000003a0: 4f48 41be 4fc6 50bb f8a8 e1bc fa76 db3e
000003b0: 0b22 08be 4263 37be 7074 603e 9d70 09be
000003c0: 468c 86be 1b4d 453e 6264 0ebd 3822 36bd
000003d0: 81e0 b5bd e3f6 bf3e c045 28be 7f81 97bd
000003e0: d55d 753d 8d54 d83d 2d6f e43d 243d f23d
000003f0: ae3e 2bbe d766 163d 8775 6bbe adb1 e53e
-0.3195803 -0.057219643 0.11118185 0.021840334 -0.023166759 -0.27722666 0.083138354 -0.17406
-0.1552087 -0.3133821 0.088689096 0.01569377 -0.025705883 -0.079189196 0.10696874 0.0551166
0.14355579 0.19409059 -0.09210765 0.35897568 0.10681661 0.1870783 0.20898443 0.0356575
-0.21109623 -0.26148412 0.17241669 -0.2041493 0.057404097 0.06622391 -0.0759953 0.34328094
0.11675779 -0.059785824 -0.22203691 0.39271244 0.13703735 0.10292852 -0.2540133 -0.30052504
-0.29436234 -0.10321766 -0.12862177 -0.1656542 0.33084545 0.29344556 0.16167504 0.04582449
-0.09554599 -0.04855034 0.06324514 -0.08193361 -0.1833028 0.014083486 -0.2693802 0.069307104
0.2340008 0.43516245 0.21370055 -0.06855521 -0.31130132 -0.2588258 0.14273319 -0.20998132
0.060015988 -0.34435663 -0.17818746 -0.053051148 0.37657169 0.042688027 0.18145996 -0.15541448
0.22680776 0.1086353 0.04341028 0.008504488 0.1202091 0.24956264 -0.1668269 -0.12732384
-0.10711929 0.051447667 -0.025875647 0.08419196 -0.0044653118 0.42831704 -0.06543728 -0.23132244
-0.19978333 0.34721422 -0.25922042 -0.25300676 -0.36803088 0.02465131 0.04343167 -0.01994022
0.17951854 -0.13585463 -0.030029906 0.090164855 0.03650302 -0.16040191 0.029611813 0.28286538
-0.117830336 0.008678421 0.21088587 0.090749316 0.0029510169 0.096158765 0.22959688 0.17436317
0.0023551518 -0.057568423 0.14748147 -0.24468876 0.14146042 -0.055193976 0.044590894 -0.17513376
-0.12076221 -0.25055227 0.16566105 -0.124458835 -0.26273915 -0.13217874 0.21874936 0.28655776
0.086157404 -0.020807952 0.051446375 0.13420938 -0.30455837 -0.051732026 0.21468085 -0.13276237
0.0037648508 -0.3160412 0.022011736 -0.18298283 -0.36902592 0.15128393 0.028589504 -0.06504708
-0.07677196 0.15387155 0.27709866 -0.24251592 0.4735732 -0.33599633 -0.24150874 -0.25628138
-0.021312663 -0.3074797 0.14990379 -0.0073890113 -0.017720446 -0.11682214 -0.20463787 -0.06595447
-0.20153022 0.37813333 -0.12760909 0.19286317 0.0037273967 -0.08961157 -0.19123489 -0.034433827
0.31261957 0.052005455 0.0014152401 0.115161516 0.01355964 -0.024050927 -0.08244775 -0.20277815
-0.053488944 -0.0610996 0.2496248 0.070690826 0.05318756 -0.00014045325 0.11747452 0.11919092
-0.3040826 0.134524 -0.10106286 0.47726783 -0.018037302 -0.16687515 0.25531 -0.27269268
-0.20787881 -0.1620911 0.08535772 0.040312015 -0.22097263 0.13416708 0.23985103 0.050275065
-0.121017165 -0.113896035 0.029690228 0.12788825 -0.14557625 0.29591334 0.26540035 -0.092740014
-0.19016239 -0.26528817 0.00015122541 -0.09410582 0.10183277 -0.23424721 -0.077368364 -0.11285052
-0.3563563 0.011181492 0.14851838 0.16313238 -0.2730401 -0.06159314 0.18778084 -0.14366804
0.025792371 -0.14324751 -0.011470776 0.082010046 -0.39989126 0.51940274 -0.17129305 0.07199409
-0.1887524 -0.0031856482 -0.02754639 0.4286421 -0.13294236 -0.17908958 0.21919417 -0.13421865
-0.26278895 0.19267695 -0.0347637 -0.044466227 -0.08880711 0.37493047 -0.16432858 -0.07397746
0.05990394 0.10563002 0.111540176 0.11828068 -0.16723129 0.03671917 -0.22994052 0.44862118

fc2.bias f4 [10]
00000000: f113 31bd dc7f 8ebb ff79 47bd d84e 89bc
00000010: b36f 173e b341 ae3d f5ff 433c 76cc 103d
00000020: 8c66 4bbd f577 a83c
-0.04323191 -0.004348738 -0.04870033 -0.016761228 0.14788704 0.08508625 0.01196288 0.03535124
-0.049658343 0.020565012
