models/net/model_epoch_50.pt (torch, 517807 bytes, 16 tensors)

conv1.weight f4 [8, 3, 5, 5]
000000 39 ea 8f bd 12 2c 41 bd a3 74 ad bd 71 16 26 3e
       -0.07027096 -0.04716117 -0.08469512 0.16219498
000010 25 65 14 3e 53 6e 60 be 8d 3f eb bd c6 40 e3 3d
       0.14491709 -0.21917085 -0.11486731 0.11096339
000020 f9 8e 21 3e 21 6d 49 3d 02 71 52 bc cc df ff 3d
       0.15777196 0.04917634 -0.012844326 0.12493858
000030 48 b6 3d 3e fc 2d f5 3d a1 85 50 3e f4 fd 6c 3d
       0.18526566 0.119716614 0.20363475 0.057859376
000040 71 4b 7d 3e bc 79 41 3e a6 63 5d 3d 87 5e e4 3d
       0.2473581 0.18894094 0.05405011 0.11150842
000050 7a 4a 99 bd 41 b2 cf 3c e4 0d c1 bd a3 dd 09 3d
       -0.074849084 0.025353553 -0.094264776 0.033658635
000060 92 05 0c bc 94 99 ef bd 92 10 ee bd 6f bb 98 bd
       -0.00854625 -0.116992146 -0.11624254 -0.07457625
000070 a3 81 bf 3d a2 98 39 bc 39 a3 6d bd de a3 0d be
       0.09350898 -0.011327894 -0.05801699 -0.13832042
000080 32 bb d8 3d cd 7d 29 bb 96 6b ba bd 33 13 bc bc
       0.1058258 -0.0025862337 -0.09102552 -0.022958374
000090 2b fc 51 3d 08 73 1e 3d d0 71 bb bd ec 9a 28 be
       0.051265877 0.03868392 -0.091525674 -0.16465348
0000a0 ae 83 86 3d eb 01 45 bd 4e e4 3b bd 5c 13 7d bd
       0.06568085 -0.048097532 -0.045872025 -0.06178604
0000b0 6e d2 ef bd 6e 47 c8 bb 32 4b 21 3d 8e b6 43 be
       -0.11710058 -0.0061120307 0.039378352 -0.19112608
0000c0 78 c1 df bd ee a5 bc bd d6 20 ce bd a4 96 82 bd
       -0.10925573 -0.09211336 -0.10064857 -0.06376389
0000d0 9a ab 15 bd f5 67 02 3e 1a c8 76 3d 30 19 04 3d
       -0.036540605 0.12734969 0.060249425 0.032250583
0000e0 d1 0e 04 3e 10 4c 2e 3e 87 2c e2 3d f4 bd 02 be
       0.12896277 0.17021203 0.11043649 -0.12767774
0000f0 44 4d 8e 3c 34 29 3a 3d da 3b ce 3d 07 d6 11 be
       0.017370827 0.04544945 0.100700095 -0.14241801
000100 ef dd 02 be d1 b8 0e 3e 2e d8 3f 3e 8d 57 de bc
       -0.12779973 0.1393769 0.1873481 -0.027141357
000110 68 d2 45 be 5a 6f 58 be f5 aa 8d 3e e4 26 d2 3d
       -0.19318545 -0.21136227 0.27669492 0.10261324
000120 d8 29 89 3c 06 cd 43 be 3a 21 aa bc 40 ee 32 bd
       0.016743585 -0.19121179 -0.020767797 -0.043684244
000130 47 ff 5e bd 36 f3 8c 3e ce e2 f6 3d a0 ea 51 be
       -0.05444267 0.27529305 0.12054978 -0.20499659
000140 f8 53 81 3c 7b 1f 9a be 1e 02 83 bd 5b 60 af 3e
       0.01578711 -0.30102143 -0.06396888 0.342532
000150 0a ec 88 3d fd 94 97 3d 2d a0 3c 3e 14 34 c8 be
       0.06685646 0.07401464 0.18420477 -0.39102232
000160 2e ec 34 be 2f ce ba 3e 7d 2e e1 bd 4f 78 b2 3d
       -0.1766822 0.3648543 -0.10995195 0.08714353
000170 4b cb 6d 3e e2 7f 3a be 0a 0e a3 bd d8 66 de bd
       0.23222081 -0.18212846 -0.07961662 -0.1085946
000180 aa 45 c0 bd 1a 9f 80 3d 1a 26 93 3d d3 30 94 bd
       -0.09388287 0.06280346 0.07185002 -0.07235875
000190 2f 8d d2 bd b7 7f 71 bc fc 0b 02 3e ee c1 92 3d
       -0.10280835 -0.014739922 0.12699884 0.071658954
0001a0 20 0e b3 3c d3 95 77 bc 95 16 a6 be 9a 97 9d be
       0.021857321 -0.0151114045 -0.32439104 -0.30779725
0001b0 f6 22 5f 3e b6 50 d1 3d 2d 6d 9f 3e c0 89 87 3e
       0.2179068 0.102204725 0.31137982 0.26472282
0001c0 4d 5d 9e be c3 22 af be 36 f5 87 3e a3 72 ab bd
       -0.30930558 -0.3420621 0.2655427 -0.083714746
0001d0 2b 19 8d 3e e0 c6 f6 3d 83 35 ab be 62 69 d4 bd
       0.27558264 0.12049651 -0.33439264 -0.10371663
0001e0 2b 4f 1d 3c 50 32 0a be 23 62 1e 3e e6 69 90 bb
       0.009601395 -0.13495755 0.15467124 -0.0044071553
0001f0 ec d5 e2 bd b2 ec 8c bd 99 9f 93 bd 53 7a c6 3c
       -0.110759586 -0.068810835 -0.07208175 0.02422825
000200 87 e9 28 3e 07 c6 05 be 63 4b e0 3d d0 10 35 be
       0.16495334 -0.13063823 0.10951879 -0.17682195
000210 0b 4b a5 be 5c a9 a6 3e 46 42 24 3a 49 9c f3 3d
       -0.32283816 0.32551086 0.0006265979 0.118950434
000220 96 d5 0e 3e d8 64 ec be 63 2b 86 be 21 0d 4f 3e
       0.13948664 -0.46170688 -0.26204976 0.20219852
000230 bc d5 ea 3c d5 cc 3c 3e 3f dd 8d 3e 4c ae e6 be
       0.02866637 0.18437512 0.2770786 -0.45054853
000240 23 63 0c be 86 ed 68 3d f4 83 16 3d 67 75 96 3e
       -0.13709693 0.056867145 0.036746934 0.29386446
000250 57 85 55 3e 53 2a c7 bd 98 57 5b 3a 6d 19 7c be
       0.20851646 -0.097248696 0.00083672395 -0.24619074
000260 22 ef 62 3e 6d d8 6d bc 1c 85 c1 3d f3 2e a1 be
       0.22161534 -0.014516932 0.09449217 -0.31481132
000270 8f 61 aa 3e 23 18 84 3e d0 66 5e be b7 24 f5 bd
       0.33277556 0.25799665 -0.21718907 -0.119698934
000280 dd bd 1b 3e 15 84 8f 3e bb 2c 26 bf d8 e4 cb bd
       0.15209146 0.28030458 -0.64912003 -0.09955758
000290 93 75 6f 3e 02 a3 b3 3c 1a 94 d0 be d3 c9 48 3d
       0.23384695 0.021928314 -0.40737993 0.0490206
0002a0 8a 67 15 3f 67 57 6a be fd 66 35 3c bb 8d f0 3c
       0.58361113 -0.22884904 0.011071918 0.029364457
0002b0 b4 a9 92 3e 58 52 a4 bd 39 d8 50 be 5f b5 4f 3e
       0.28645098 -0.08023518 -0.20394982 0.20284031
0002c0 21 38 18 be 15 43 3a 3e 9b f9 28 3d 9a 9a ca bd
       -0.14865161 0.18189652 0.041253667 -0.09892769
0002d0 72 e8 28 3c b0 6f e2 3e 78 1f 2f 3e 02 dc bf be
       0.0103093255 0.44225836 0.17101848 -0.3747254
0002e0 8e b1 51 3d 32 0f 99 3e 59 47 d4 3e 78 c9 31 bf
       0.05119472 0.29894406 0.41460684 -0.6944804
0002f0 0c 4a 56 bd f3 c9 9a 3e 2a 24 48 3d 00 d3 bd be
       -0.05231671 0.302322 0.048862614 -0.37075043
000300 65 66 87 bd 9f a3 07 3f f0 f0 26 be 13 df f6 bd
       -0.06611327 0.5298404 -0.16302848 -0.12054267
000310 92 7e f9 bd 96 39 c7 3b 78 70 62 be 1a 6f 25 be
       -0.121823445 0.006079863 -0.22113216 -0.16155663
000320 c9 6a 8e bd b5 63 af be 77 4e 0c 3d 41 c7 04 be
       -0.069539614 -0.34255758 0.034254517 -0.12966634
000330 fc 65 be bc b3 5a 8d be 40 77 52 3e d3 bb 14 3e
       -0.02324199 -0.2760826 0.20553303 0.14524774
000340 73 cb 50 be a7 67 3b 3e ca 73 86 bd d9 58 7d 3e
       -0.2039011 0.18301259 -0.06565054 0.24740924
000350 ba c5 2e bf 4f f8 45 bc 7e 30 83 3e ef ba d0 bc
       -0.68270457 -0.012083127 0.25622934 -0.025479762
000360 d6 a0 b9 be bc 20 72 bd 45 03 12 3f 56 e8 9c bd
       -0.3625552 -0.05911325 0.5703624 -0.07661502
000370 d5 84 5b 3c 90 04 4a 3e c2 2b 93 3e 41 7d 69 3d
       0.013398369 0.19728303 0.28744322 0.057004217
000380 30 e1 a0 3c c6 2a f0 3d fe d6 84 3e 24 ea a7 3d
       0.019638628 0.117269084 0.25945276 0.08198956
000390 7e 0d d9 bd 5f 64 0d 3d be 01 8b 3d 83 f2 47 3e
       -0.105982766 0.03451955 0.06787442 0.19526105
0003a0 29 4e 6a bd e8 31 39 be 18 2d 8d bd d2 5a 5a 3e
       -0.057203446 -0.18085444 -0.068933666 0.21323708
0003b0 ac 06 3c 3e 61 13 8b be 43 2d a8 be d6 b6 0d be
       0.1836192 -0.27163222 -0.32847032 -0.13839278
0003c0 0b 87 7e 3e b8 f2 3b bd 7a c9 cd bd 10 dc ed bd
       0.24856202 -0.04588577 -0.10048194 -0.11614239
0003d0 51 92 2a 3e 0b 0f 25 3c f8 90 52 be f1 82 eb 3c
       0.16657378 0.010074387 -0.20563114 0.028748961
0003e0 ac 3c 17 be 9f 0c 50 3c 01 45 c4 bd 59 98 73 be
       -0.14769238 0.012698322 -0.09583474 -0.23788585
0003f0 55 77 0b be 4a 66 2b be 91 db 18 be c4 cd aa bd
       -0.1361974 -0.16738239 -0.14927508 -0.08340028

conv1.bias f4 [8]
000000 92 e8 7e bd 6c 29 77 3d 55 d0 df bd 50 f1 36 bd
       -0.062233515 0.060342237 -0.10928408 -0.044663727
000010 fc 48 b8 bc 82 f3 c8 bd 67 60 96 bd b7 64 9a bc
       -0.02249574 -0.098120704 -0.07342606 -0.018846853

batch1.weight f4 [8]
000000 f7 f5 3e 3f 75 a8 69 3f 9f 33 4e 3f c0 b9 80 3f
       0.7459406 0.9127267 0.8054752 1.0056686
000010 bd cd 97 3f a8 03 70 3f 44 6e 84 3f 38 51 89 3f
       1.1859661 0.9375558 1.034615 1.0727911

batch1.bias f4 [8]
000000 f1 65 8e bd 31 5b ac be 18 a7 45 be 68 41 cc be
       -0.069530375 -0.33663324 -0.19302022 -0.3989365
000010 84 eb 83 be 5b e1 29 be ea 49 ae be 15 5a b0 be
       -0.25765622 -0.16589873 -0.34040767 -0.34443727

batch1.running_mean f4 [8]
000000 b0 cc 0d 3e 3a d4 66 bd fd f4 f7 bd eb b4 a6 be
       0.13847613 -0.05635474 -0.12107275 -0.32559904
000010 d4 30 c7 bd 52 16 00 be 23 fc cc bd 09 7a 26 bd
       -0.0972611 -0.12508515 -0.10009029 -0.040643726

batch1.running_var f4 [8]
000000 da 13 59 3d 70 89 4c 3d d9 a5 19 3d 2d 97 64 3d
       0.052997448 0.049935758 0.03751168 0.055808235
000010 1b c6 23 3e 33 ff 00 3e d2 21 ac 3d cc 63 91 3d
       0.1599354 0.12597351 0.08404888 0.07099113

conv2.weight f4 [16, 8, 5, 5]
000000 85 a3 ff 3d b6 23 e7 3d 65 d9 89 3d c5 ea ac 3c
       0.12482361 0.11286108 0.06730918 0.02110804
000010 9d 82 8c 3d 7b 2f 9f 3c 2a 93 b1 3c 17 8f bb bc
       0.0686085 0.01943182 0.021676619 -0.022895379
000020 41 29 89 bc 05 15 13 3c d6 be 26 bd b7 f3 a4 bc
       -0.016743304 0.008977179 -0.04070934 -0.020135744
000030 2d 3d b7 bd e5 30 87 bd 80 c9 4f bd f4 bf d8 bc
       -0.08947215 -0.06601123 -0.050729275 -0.026458718
000040 c4 b9 44 bd 42 33 cc bd 5a d4 af bd df 1e d5 ba
       -0.048028722 -0.09970714 -0.08585425 -0.0016259811
000050 6a 68 b0 bd 72 05 be bd b8 fe 84 bd ba 22 a6 bd
       -0.086136654 -0.09278382 -0.06493896 -0.08112092
000060 a7 b1 89 bc 3f f9 62 bd 8e 8b 86 bd a1 20 88 bd
       -0.016808344 -0.05541348 -0.06569587 -0.066468485
000070 1b 9e 5a bd 16 6b 2b bd 1e af 84 bd c2 ea b2 bc
       -0.053373437 -0.041850172 -0.064787135 -0.021840457
000080 16 d8 d0 3c 24 34 96 3c 01 c8 c4 3a 02 4b b9 bd
       0.025493663 0.01833541 0.0015013219 -0.0904751
000090 c7 54 05 bd f0 c4 89 3d c7 33 a3 3d c3 5b da 3c
       -0.032551553 0.06727016 0.0796886 0.026655084
0000a0 d1 93 86 bd 6e 08 0d bd e1 22 27 3e 0e e8 6d 3d
       -0.065711625 -0.034431867 0.16321899 0.058082633
0000b0 3d 2b a9 3c 3b 80 09 bc 81 ee 2d bc 3c a7 9d 3d
       0.0206505 -0.008392389 -0.010615946 0.07697913
0000c0 80 d7 73 bd d4 4b 44 bd bf ee 53 3d 12 d0 02 3c
       -0.05953169 -0.047923878 0.051741358 0.007984178
0000d0 6b 60 95 3b 85 55 56 bd 96 67 92 bd fc de 8e 3d
       0.004558613 -0.05232765 -0.07148664 0.06976125
0000e0 46 9f b5 3d 81 90 6c bc 3b dd 3c bc 2f b9 44 bd
       0.088682696 -0.014438749 -0.011527355 -0.048028167
0000f0 81 b8 a9 3c bd 7f d0 3d e1 27 8b 3d f5 4b fe 3c
       0.020717861 0.10180614 0.06794716 0.031042079
000100 dd a2 3f 3d 8e 8c 22 bd 47 8c af bb 25 b1 d1 3c
       0.046786178 -0.039684825 -0.0053572985 0.025597164
000110 d8 a6 8f 3c d8 43 05 3d 42 37 fb bd b7 19 8f bd
       0.017535612 0.032535404 -0.12266399 -0.069873266
000120 02 15 44 3c 2c eb c0 3c 62 fd 90 bb 22 e2 37 bd
       0.011967899 0.023549639 -0.004424737 -0.04489339
000130 7e 1c a2 3a 7f 53 a7 3c d7 46 ff bd 80 d4 09 be
       0.001236811 0.020425556 -0.124646835 -0.13459969
000140 cc ad 4c 3d 84 08 18 3e 69 da 2b 3e df 52 50 3d
       0.049970433 0.14846998 0.16782536 0.050860282
000150 01 1e aa bd b3 cf a0 bc 46 29 3f 3e 49 f8 23 3e
       -0.08306504 -0.019630289 0.18668088 0.16012682
000160 f9 cc 38 3b 04 cf d4 3d bb c6 92 bd bc 45 bd 3e
       0.0028198345 0.103910476 -0.07166811 0.36967266
000170 5a c7 2a 3d 16 53 26 3d b5 85 04 bc 52 aa cb bd
       0.041694023 0.04060658 -0.008088519 -0.099445954
000180 48 7f c1 3c c9 e8 17 bd d3 9f c2 3d 88 8d 18 bb
       0.023620263 -0.037087236 0.0950314 -0.0023277719
000190 ba d3 b6 bc 54 bd 21 bd b9 d8 a6 bd 6b 2b b3 b9
       -0.022317756 -0.039487198 -0.08146805 -0.0003417389
0001a0 a4 f5 90 3d e2 f2 f9 bc 82 6e 3f 3c 6c 66 62 bd
       0.07078102 -0.030511323 0.011684062 -0.05527346
0001b0 79 46 c3 bb 1a eb 6b bc 9c 17 2a 3c 72 77 97 bc
       -0.0059593287 -0.014399314 0.0103816055 -0.018489573
0001c0 a6 bd 1c 3a 84 98 c2 3d fa c8 6d 3d 5a a6 09 3e
       0.00059791876 0.09501746 0.058052994 0.13442364
0001d0 42 b7 8d 3b 33 5d af 3d 97 76 4a 3d b2 df e6 bc
       0.0043248245 0.08562698 0.049429502 -0.028182838
0001e0 4d 98 5c bb 10 fd 76 3d f2 65 e7 3d d9 b5 98 bd
       -0.0033660114 0.060299933 0.112987414 -0.0745656
0001f0 95 aa 17 bd cc ca 24 3d 36 80 2b 3b 3c 1b 45 3b
       -0.037027914 0.040232465 0.002616895 0.0030076047
000200 6a bd 89 bd 12 7d 15 bd 22 d0 d2 bb 93 7a ac 3c
       -0.06725581 -0.03649623 -0.006433503 0.021054542
000210 47 4a 2a bd e5 67 2e bd af 50 c0 ba 71 01 c2 bc
       -0.041574743 -0.04257955 -0.0014672483 -0.023682328
000220 86 db e7 bb f8 e9 69 bd 3c 75 85 bd dc 6e 8f bd
       -0.00707573 -0.057107896 -0.06516501 -0.070035666
000230 dd 20 64 bd 64 7f 20 3b 40 df 86 bd e7 c3 a5 bd
       -0.055695403 0.0024489993 -0.0658555 -0.08094006
000240 62 86 4e bd 46 c3 1b bd bb d3 88 3d 61 b4 c1 bd
       -0.050421126 -0.038028024 0.066810094 -0.09458233
000250 18 23 8d bd e9 97 6f bc 44 84 78 bd c5 6e 12 bd
       -0.06891459 -0.014623621 -0.060673013 -0.03575017
000260 c5 84 3a 3c d0 85 f5 3d 5e 57 43 3e a9 e3 87 bd
       0.011384194 0.11988413 0.19076297 -0.066352196
000270 2a ac 66 bd fa 4c 10 bb e3 7c 11 3d 86 9f ea 3c
       -0.056316532 -0.0022018538 0.035519492 0.02864052
000280 dd e5 71 bd 88 19 cc 3c 2b fc c9 bb 0a 01 44 bd
       -0.059057105 0.024914518 -0.006164094 -0.047852553
000290 63 94 18 bd ee 9a 96 3a 03 0a 32 3d fb 95 81 bc
       -0.037250888 0.0011490264 0.04346658 -0.015818587
0002a0 c8 d7 2c bd fe 4b b1 3c 4d 18 f8 bc 86 02 99 3c
       -0.042197973 0.021642681 -0.030285025 0.018677961
0002b0 95 33 cc 3c e4 69 e1 bc 62 c6 0e 3c 11 ed 96 3d
       0.02492694 -0.027516313 0.00871429 0.073694356
0002c0 98 ea 2f bd 0f 4e 4c 3d 38 52 4d 3d a3 43 21 bc
       -0.042948335 0.04987913 0.050127238 -0.009842786
0002d0 24 7f 08 3d b7 7a 42 bd 3e ab da 3c ee 91 91 bc
       0.033324376 -0.04748031 0.026692983 -0.01776978
0002e0 65 7d f1 bc 28 26 89 bd d5 d4 c7 bd 31 88 2b bd
       -0.029478738 -0.06696731 -0.09757391 -0.04187793
0002f0 ae ee 7f bc bb 6e 11 bc e7 af dd bc aa 9e 46 bd
       -0.0156208705 -0.008876498 -0.027061416 -0.048491158
000300 fa 88 c5 3a a0 be 12 bc f6 7a 6e bd f5 16 fc 3a
       0.001507073 -0.008956581 -0.058222733 0.0019232916
000310 73 d8 d8 bd 79 6f 16 bd 51 12 9b b7 00 04 d1 3c
       -0.105881594 -0.036727402 -1.848597e-05 0.025514603
000320 53 c7 82 bd 2d 4e a9 bd 65 6b aa bd 75 2e 87 bd
       -0.06385674 -0.08266864 -0.08321265 -0.06600658
000330 3e e6 ef bd 72 0b 41 3b a8 3f 31 bd 50 c0 9c bb
       -0.11713837 0.0029456285 -0.043273598 -0.0047836676
000340 d3 3c 25 bd ff 84 90 bd 51 48 30 3d 69 80 46 3c
       -0.04034121 -0.07056617 0.043037716 0.012115576
000350 8e af 4a 3d 7c 0e 22 3c 0d 55 4f bd 3d 82 2c 3d
       0.04948383 0.009891149 -0.05061822 0.042116392
000360 7b 87 fe 3c b7 da ee 3d 38 22 86 3d 05 d9 50 3d
       0.031070461 0.1166281 0.065494955 0.050988216
000370 47 6f 49 3d 20 6d f7 3c 85 bf 8e 3d c7 8e 14 bd
       0.049178388 0.030203402 0.06970123 -0.036268976
000380 91 90 ab bc 6c 1d 73 bd 4b df 0f 3d 13 a3 70 3c
       -0.020942958 -0.05935423 0.03512506 0.014687317
000390 b9 a3 f5 bc 3a c7 fd bc b0 c2 ec bb 76 dc 51 bd
       -0.029985296 -0.030978788 -0.007225357 -0.05123564
0003a0 88 50 26 bc 85 8b 70 bc ca b3 77 bd 24 b7 61 bc
       -0.010151036 -0.014681702 -0.060474195 -0.013776574
0003b0 aa 05 81 bd d8 d5 01 bd 61 e2 0a bd b8 ad 49 bd
       -0.062999085 -0.031698078 -0.033907298 -0.049237937
0003c0 91 2c 41 bc be 31 e6 bc 0e 6f b2 3c af 00 06 3d
       -0.011790411 -0.02809989 0.02178147 0.032715496
0003d0 06 e1 c5 bc e6 26 47 3c b0 9b 26 3d 2a a6 e4 3d
       -0.024155151 0.01215527 0.04067582 0.11164506
0003e0 a2 d3 7a 3d 95 57 0e 3c 30 30 25 bb 56 ff 07 bd
       0.061236985 0.008687873 -0.0025205724 -0.03320249
0003f0 2f ec 62 3d b5 bc 8a bd 27 ac bb 3d 4b fd 86 bc
       0.055401023 -0.06774274 0.09163695 -0.016478201

conv2.bias f4 [16]
000000 66 40 6c 3d 30 bc 3b 3d e0 10 42 3d ea 3a 5e 3d
       0.057678603 0.045833766 0.047379375 0.054255404
000010 0f 14 07 bd 04 86 21 bd 32 ee 31 bd dc 21 bf 3c
       -0.032978114 -0.039434448 -0.04344005 0.023331575
000020 20 53 e1 3c 98 66 70 3c 95 d1 5e bd 52 d4 cd 3b
       0.027505457 0.014672898 -0.05439909 0.006281414
000030 a5 b0 19 bd 00 d2 63 bc 9c 59 33 bc 9e 59 66 3b
       -0.037521977 -0.013905048 -0.0109466575 0.003514863

batch2.weight f4 [16]
000000 f5 be ce 3f 3b d2 c2 3f 52 29 ec 3f 7d 23 d6 3f
       1.6152025 1.5220407 1.845011 1.672958
000010 4a 2b cf 3f 40 2a e2 3f 3c ce cc 3f 62 19 f1 3f
       1.6185086 1.7669144 1.6000438 1.8835871
000020 2b 42 e7 3f 35 0a df 3f 67 9e d9 3f a4 ca cf 3f
       1.8067068 1.742499 1.7001466 1.6233716
000030 7f 54 d6 3f ea 71 e8 3f fe 56 cb 3f 03 e8 d1 3f
       1.6744536 1.8159764 1.5885923 1.6398929

batch2.bias f4 [16]
000000 dd e2 0d be d6 8c 88 be 2f 4f 15 bf a7 da b2 be
       -0.13856073 -0.2666995 -0.5832395 -0.34932443
000010 cd d4 8b be 3a c0 79 be e8 60 6b be 78 b1 00 bf
       -0.27310792 -0.24389735 -0.22986186 -0.50270796
000020 c6 7a cc be 18 b7 f0 be db 5f 9b be 4b cc e4 be
       -0.3993742 -0.4701469 -0.3034657 -0.44687113
000030 7c 94 4a be 78 1a e7 be 0c aa 6e be 84 b9 8a be
       -0.19783205 -0.45137382 -0.23307055 -0.27094662

batch2.running_mean f4 [16]
000000 10 cf d8 3a 78 69 cc bd 22 38 df bd 1b e3 9f be
       0.0016541202 -0.09981054 -0.10899378 -0.31227955
000010 ea 9e bd be 95 66 cf be 3d de 35 bf 1c a2 a4 bd
       -0.37035304 -0.4050795 -0.71042234 -0.080387324
000020 5e 4b 44 bf 45 6b 0c bd 82 3c 90 be fe 70 65 3e
       -0.766775 -0.034281988 -0.28171164 0.22406384
000030 b5 a8 6e 3c e2 8f 31 bf 1e 66 00 bf 29 52 a2 bd
       0.01456659 -0.6936017 -0.5015582 -0.07925827

batch2.running_var f4 [16]
000000 d2 ff d7 3e 02 a9 f2 3e ad 8e 25 3f ba 80 1f 3f
       0.42187363 0.47394568 0.6467083 0.62305796
000010 d2 39 fb 3e a4 af 15 3f 75 2c 1a 3f 37 2b 4b 3f
       0.4906755 0.5847113 0.60224086 0.79362816
000020 7a 1e 85 3f 29 66 00 3f 1f 1d 05 3f 52 c1 f1 3e
       1.0399926 0.50155884 0.5199756 0.47217804
000030 ac 25 1b 3f d1 b6 59 3f 12 9c 09 3f 31 f9 16 3f
       0.6060436 0.8504458 0.5375377 0.58973986

fc1.weight f4 [120, 1024]
000000 1d 25 45 3d 91 55 ed 3c 2e 12 26 3c 05 f7 bb 3c
       0.048131097 0.028971465 0.01013617 0.022944937
000010 1c db 81 3d 0d cd 19 3d 16 1d 0f 3b 7a fd 9f 3a
       0.0634062 0.037549067 0.0021837405 0.0012206279
000020 7b 38 be 3d de 46 c9 3c 11 22 0c 3c af 5a 54 bd
       0.092881165 0.024569925 0.008553044 -0.051844295
000030 3b 91 16 3b 46 0e 67 3c 74 2c 56 3c f5 4d 5f ba
       0.0022974748 0.014102524 0.013072122 -0.00085183914
000040 6d 9b 36 3d 81 ba d8 3b 9b 18 8d 3c a8 d9 79 bb
       0.04458182 0.00661403 0.017223647 -0.0038124118
000050 b2 f4 8b 3c 87 e6 69 3b a8 8e ae bb 7f 54 8d 3a
       0.017084453 0.0035690384 -0.0053270645 0.0010782628
000060 67 ec be 3b cf d2 1c bd e7 60 08 bc 49 30 17 bc
       0.005826521 -0.03828698 -0.008323885 -0.009227821
000070 d3 11 e7 bc c1 c9 23 3b 2a 80 92 bc 19 8c 15 3d
       -0.028206741 0.002499208 -0.017883379 0.03651056
000080 d9 fc 4a 3c d3 ac 80 bd 38 6c c9 b9 20 9d 41 bd
       0.012389385 -0.062829636 -0.00038418337 -0.047268987
000090 26 de a3 bd a1 2d fc bc b9 f4 65 ba 43 ef 4f 3d
       -0.08001356 -0.030783476 -0.0008772123 0.050765287
0000a0 f5 40 12 bd c9 3d 64 bd 7c 9b a7 bd 5d 81 7a 3b
       -0.03570648 -0.055722985 -0.08183953 0.003822408
0000b0 be de ae bd 11 24 46 bd e7 7b ea bc 25 f7 07 3c
       -0.085385785 -0.04837424 -0.028623534 0.00829867
0000c0 1b 5c d9 bc 29 90 49 bc 09 f7 a3 bd 59 05 cb bc
       -0.026533177 -0.012302437 -0.080061026 -0.024782823
0000d0 cd 92 f1 bc 1a 28 e0 3c d3 27 1f bc 39 29 e6 bc
       -0.029488945 0.027362872 -0.009714085 -0.028095828
0000e0 24 ce b4 3c da 0a 6c bd a5 48 50 bd ba 55 e3 bc
       0.022070952 -0.057627536 -0.05085053 -0.027750839
0000f0 a5 9d 5e bc 41 5d 10 b9 d0 ea b7 bc 34 81 4c 3c
       -0.01358739 -0.0001376765 -0.022450835 0.012481976
000100 07 3a c0 3c d5 8c 4b 3c 76 12 5e bc 76 bc 7e bd
       0.02346517 0.012423714 -0.013554206 -0.06219145
000110 b0 fd 15 3c 4c f0 82 3c d1 2b a5 3c a6 64 b2 bc
       0.009154722 0.015983723 0.020162495 -0.021776509
000120 c2 86 e6 3b 45 82 2e 3d 98 b2 3a bc ab 85 10 bd
       0.0070351074 0.042604703 -0.011395119 -0.035283726
000130 51 98 80 3c cc db 9f bc c6 6f 2e 3d 2f 48 23 bd
       0.01569763 -0.019513987 0.042587064 -0.03986376
000140 43 a3 99 bc dd ba a7 bb e7 3a 1d 3a b1 97 99 3c
       -0.018754607 -0.0051187114 0.0005997852 0.01874909
000150 ce ab 19 3c 8d 5c 1e 3d 5b ff 49 3d 4c cc 9b bb
       0.00937934 0.038662482 0.04931579 -0.0047545787
000160 41 95 f3 3c cd 29 63 3c 0e be 27 3d c8 5b df 3b
       0.029734256 0.013864947 0.040952735 0.006816361
000170 a8 85 2b 3c a3 c4 01 bb 5a 65 c6 3c b0 fd e8 bb
       0.010468878 -0.0019801043 0.02421825 -0.00711032
000180 74 ef 10 3c 48 f0 2a 3c 15 06 50 3d 3e 7a e1 3c
       0.008846153 0.010433264 0.05078705 0.02752411
000190 52 55 42 3d d9 b4 81 3b 51 11 a2 3c 5b c7 0d bc
       0.04744465 0.0039583263 0.019783648 -0.008653487
0001a0 29 df ce 3c 84 4d 1f bc 58 e2 f9 3c 65 0a a2 3d
       0.025252895 -0.009723071 0.030503437 0.07912139
0001b0 e7 b9 8a 3c 8f 93 25 3d c1 98 cf 3c 21 71 93 3c
       0.016934348 0.040423926 0.025341393 0.01799828
0001c0 d9 12 d9 3c 11 15 f1 3c 69 d9 25 3d 43 63 5d bc
       0.026498245 0.02942899 0.04049054 -0.013512435
0001d0 84 0a 21 3d 6d 5f 3a 3d 2a 44 33 3c cf fa 79 bd
       0.03931667 0.04550116 0.010941545 -0.061030205
0001e0 c9 7d 11 3d f9 66 e5 3a 43 9f 10 bc e5 1a 4e bc
       0.03552035 0.0017502002 -0.008827033 -0.012579654
0001f0 91 e8 b5 bc 66 29 fa bc eb c6 e9 bb 02 97 9d bc
       -0.022205623 -0.030537318 -0.0071343086 -0.019237045
000200 9a 3e 66 3c db 7b 31 bd 1f 7c a0 3d f5 b7 e0 bb
       0.014053011 -0.04333101 0.07836174 -0.006857867
000210 c1 f4 65 3c d5 15 02 3d 22 83 0a bd 40 8d bc 3b
       0.014035405 0.031759102 -0.033816464 0.005754143
000220 d7 29 80 bc 02 fd 2c bc d8 b1 72 bc 57 df 59 3b
       -0.01564495 -0.010558369 -0.014812909 0.0033244693
000230 7f 57 1f 3d 03 ae 9b 3c 70 c6 de bb 02 33 37 3b
       0.038901802 0.019003874 -0.006798558 0.0027953987
000240 24 8e 65 3b 80 50 38 bb 91 38 c5 3c bc c1 03 3c
       0.003502735 -0.0028124154 0.024074825 0.008041795
000250 04 76 97 3b aa 10 16 bd 73 92 4c bd ac b0 0f 3c
       0.004622223 -0.036636986 -0.049944352 0.008770149
000260 48 1a 2d 3d f3 91 51 3c 28 97 18 3b df cf cc 3c
       0.042261392 0.012791145 0.0023283456 0.025001464
000270 b7 31 b9 bc 89 fb 62 3c 33 68 90 3c 30 93 94 38
       -0.022606714 0.013853916 0.017627811 7.084606e-05
000280 58 05 0c 3d 40 70 c6 3c d0 b0 1c 3d c8 66 51 bd
       0.034184784 0.024223447 0.03825456 -0.05112341
000290 b4 bb 3e bc 10 f8 bc bb 6f 4a 03 bd 2d 5e 89 bc
       -0.011641432 -0.005766876 -0.032053407 -0.01676854
0002a0 ed cf 04 3d 4b fa a3 bc 35 aa 8b 3c 5a 5e b1 3c
       0.032424856 -0.02001681 0.017048934 0.021651436
0002b0 09 00 9c 3c 55 27 16 bc 16 5b e2 bd 29 b0 af bc
       0.019042986 -0.009164651 -0.110525295 -0.021446304
0002c0 6c 60 5b 3d 62 dd 10 3d 4a eb 66 bc 44 29 8f bc
       0.053558752 0.035367377 -0.014094183 -0.017475732
0002d0 6f 75 1b bc 25 95 e2 ba 84 74 ce bc 3d 3e 64 bc
       -0.009488448 -0.001728688 -0.025202043 -0.013930854
0002e0 1d 5e 94 3c ac 9a 3d bd 96 c3 8d bc 3a d0 90 3b
       0.018111283 -0.046290085 -0.017305177 0.004419354
0002f0 f7 c4 1c bd 5b 6d 30 bd 43 a9 de bc 9a 98 70 bc
       -0.038273778 -0.04307304 -0.02718032 -0.014684821
000300 a3 08 3b 3b b2 19 60 bd 1e fb 98 bb 3a fa cc bc
       0.0028539083 -0.054712005 -0.0046686074 -0.025021661
000310 73 55 4f bb d5 7d 22 bc 7d 1e 2c bd 6e ff de 3c
       -0.0031636625 -0.009917696 -0.042021263 0.027221408
000320 08 af 20 bd 9a 51 cc 3b 2e f0 af ba ea 2c 75 bd
       -0.039229423 0.0062353136 -0.001342302 -0.059857287
000330 39 e5 01 bd 67 b4 16 bd d3 6a 29 bd 55 f5 7f bc
       -0.031712744 -0.03679314 -0.04136164 -0.015622457
000340 99 33 82 3c cf 81 18 bd 87 7e b5 3c c7 6f c3 bc
       0.015893744 -0.03723317 0.02215506 -0.02385701
000350 0b 00 dc 3c 69 8f 27 bc f7 8c 03 3d f7 f3 1e bd
       0.02685549 -0.010227063 0.032116856 -0.03880688
000360 74 91 a6 3c 32 06 46 3d fa da 5c bb 48 26 15 bd
       0.02033303 0.048345752 -0.0033699856 -0.03641346
000370 d8 f9 60 3d 0b a6 74 3c 10 5a 2d 3a 53 28 05 bc
       0.05492577 0.014932166 0.00066128466 -0.00812729
000380 c0 ba 17 bd 86 c7 e2 3c 6b c5 80 3c 99 4b 35 3c
       -0.037043333 0.02768303 0.015719136 0.011065387
000390 f4 ad 08 3d ad 19 2d 3d 34 33 c5 b9 c1 1d 07 3d
       0.03336902 0.042260814 -0.00037612917 0.03298736
0003a0 1b 2c 10 bd 12 1b 93 3c 90 af b9 3c 4b 5b 75 3c
       -0.035198312 0.017957244 0.022666723 0.014975379
0003b0 d0 e6 08 3d f1 67 3a 3d 80 32 a8 3b e5 7b ec bb
       0.033423245 0.045509282 0.005132973 -0.007216918
0003c0 38 4f 77 bc c2 fc 3b bd 5d 3d a9 3c a9 f1 a4 3c
       -0.015094571 -0.045895346 0.020659143 0.020134764
0003d0 ba ef 1b 3d 6c 3a d8 b9 0f 58 00 bc b6 bf 9f 3c
       0.038070418 -0.00041242258 -0.007833495 0.019500595
0003e0 98 f3 d6 bc 8d 2c 3d ba b1 21 18 3d a7 99 ad 3c
       -0.026239201 -0.00072164164 0.037141506 0.021191431
0003f0 36 e1 83 3c 15 f7 f6 bc 64 98 69 3c 59 ca a8 3b
       0.0160986 -0.030147115 0.014257524 0.005151075

fc1.bias f4 [120]
000000 28 b0 e1 3b 4b 78 2b 3d 64 6f 7a 3c cb 98 dc 3c
       0.0068874545 0.041862767 0.015285347 0.026928326
000010 c9 f0 0a 3d 5b d1 18 3d 06 9f c7 bc 69 c5 f4 3c
       0.033921037 0.037309032 -0.02436782 0.029879289
000020 cf 4e c9 3c e4 28 c9 bc 95 e0 87 3c fd 0b d9 3b
       0.024573712 -0.024555631 0.016586581 0.0066237436
000030 d0 38 ca ba 33 cf 92 3c 1e b7 dc bc d7 00 59 ba
       -0.0015428308 0.017921066 -0.026942786 -0.0008278018
000040 36 28 c0 bc fb 8e 0c bd a9 ba 80 3c d0 1e dc bc
       -0.023456674 -0.034316044 0.015714006 -0.026870161
000050 dd d4 9c bc 96 86 c1 bc 80 b6 e7 3b 15 d1 77 3c
       -0.01914447 -0.023623746 0.0070713162 0.015125533
000060 b2 64 d0 bb 31 05 6d ba 50 66 ce 3c b1 cd 65 3d
       -0.00635966 -0.0009041606 0.02519527 0.056104366
000070 ce ea d2 3c 67 9b 04 3c 06 88 ae 3c 03 17 62 3b
       0.02574673 0.008093691 0.021305095 0.003449858
000080 82 27 b5 3c 3c b4 f0 3c d6 91 ca 3c 48 43 a2 3c
       0.022113565 0.029382817 0.024727743 0.019807473
000090 19 31 01 3d 15 ce f4 bc cb 5a 10 3d 8f 3e 6e 3c
       0.031540964 -0.029883424 0.035242837 0.014541282
0000a0 44 64 32 3d 9f 99 15 3d 7b 6a 55 bb 3f 79 84 3d
       0.043552652 0.036523458 -0.0032564688 0.06468438
0000b0 ba 4b a4 bc fb 12 5f bd df 00 b7 3b 84 f9 a6 bc
       -0.02005564 -0.05446146 0.0055848206 -0.02038265
0000c0 6a 06 5f bc a8 0d d1 bb be b9 83 3b b3 3c 01 3d
       -0.013612369 -0.006379802 0.004019945 0.031552028
0000d0 71 ec 49 bc 48 1f b9 bc 8c cf 74 b9 d2 ac 5e b9
       -0.012324438 -0.022597924 -0.0002334697 -0.0002123595
0000e0 15 b7 9f bc 21 13 59 bd 5d 66 56 bd cd 8e 60 3b
       -0.01949648 -0.05299676 -0.052343715 0.0034264803
0000f0 5b a7 78 3c e3 eb 08 3d b4 2d 42 3b b7 b4 ce 3a
       0.015176619 0.033428084 0.0029629292 0.001577041
000100 c2 21 0a 3d 5e f3 47 3c d9 4f 25 3d d3 10 8b 3b
       0.0337236 0.012204019 0.04035935 0.004243949
000110 2d bf 22 bd 87 e9 64 bc c8 5f 92 3c be 61 e7 3c
       -0.0397331 -0.013971693 0.017867938 0.02824485
000120 9f 95 cc 3c 26 95 f7 3b 28 0b c8 bb ef 33 a7 bc
       0.024973689 0.0075556217 -0.0061048456 -0.020410506
000130 54 89 e5 3c 01 37 c7 3c 27 50 21 bb 15 97 19 bc
       0.028019585 0.02431822 -0.0024614425 -0.0093744
000140 b4 45 26 3d 7e 49 c3 3c 76 99 f9 bc 7c a0 19 3d
       0.040593818 0.023838755 -0.030468684 0.037506565
000150 70 5f 41 bc 95 24 60 3c b3 ff 45 bc ee 62 b8 3c
       -0.011802539 0.013680597 -0.012084889 0.02250811
000160 b6 1e 05 3d cb 9c cb bc 59 3d e4 ba 86 cc 92 bc
       0.03249999 -0.024855038 -0.0017413303 -0.01791979
000170 c8 2c 00 bc d1 2a 3c bc 13 a0 b8 b9 9e f3 2c 3c
       -0.007823177 -0.011484818 -0.0003521448 0.01055613
000180 e1 f9 58 bc 8c 32 99 bc 2d 93 15 bd c6 15 13 3c
       -0.0132431695 -0.01870086 -0.03651731 0.008977359
000190 91 ed 3a 3b 43 09 91 bc 64 8d f5 3c c6 cc 82 3c
       0.0028522948 -0.017704612 0.029974647 0.015966784
0001a0 0f cd a7 bc 57 cd 30 3c 08 f9 d6 3b 71 84 2f bc
       -0.020483522 0.010791144 0.0065604486 -0.010712729
0001b0 3b 0c a7 3c bb 22 70 bb 07 de de bc 8f a2 fe bb
       0.020391574 -0.0036641795 -0.02720548 -0.0077708433
0001c0 a7 d1 ac bb 19 53 15 3c fe 43 90 3c 0e ad a1 bb
       -0.005274016 0.00911405 0.017610546 -0.00493396
0001d0 8c e3 7b 3b 04 ce 72 bc 1f 1a 97 bc ac a8 bb 3c
       0.003843519 -0.014819626 -0.018445073 0.022907577

fc2.weight f4 [10, 120]
000000 d3 04 9d be 95 a5 4e bd cb 97 e8 3d 54 d5 71 3c
       -0.30667743 -0.05045088 0.11357077 0.014760334
000010 e0 46 60 bc 93 03 87 be 04 73 a9 3d c7 b7 29 be
       -0.013688773 -0.26369914 0.082738906 -0.16574012
000020 99 6a 12 be a0 7a 98 be 9d 4e ac 3d 85 32 15 3c
       -0.14298476 -0.29781055 0.08413432 0.009106283
000030 ab ff be bc 40 b5 8a bd 0e 68 cc 3d 85 bf 4d 3d
       -0.023315271 -0.06772852 0.09980784 0.050231475
000040 06 d5 0d 3e 77 7b 42 3e b5 0c ba bd 4f 4a a7 3e
       0.13850793 0.1899241 -0.09084455 0.3267388
000050 29 41 db 3d 9a 65 36 3e 27 23 55 3e 01 39 32 3d
       0.10705788 0.17812195 0.20814191 0.043511394
000060 a0 ca 55 be c7 ee 7a be 3f b7 22 3e ac 60 43 be
       -0.20878077 -0.24505149 0.15890215 -0.19079846
000070 91 4d 7a 3d 49 e0 77 3d 5e 7d 71 bd ef 32 a7 3e
       0.06110913 0.06051663 -0.05895745 0.32656047
000080 e7 bf e7 3d b3 aa 79 bd 21 d8 52 be 80 08 bd 3e
       0.11315899 -0.060953807 -0.20590259 0.36920547
000090 ef 74 06 3e 76 23 c1 3d 10 a1 71 be cc 2e 93 be
       0.13130544 0.09430592 -0.23596597 -0.2874664
0000a0 be 9d 90 be c3 d0 dd bd 4a b8 d8 bd e3 37 24 be
       -0.28245348 -0.10830834 -0.10582025 -0.16036944
0000b0 b8 8c a7 3e 39 1f 8c 3e 48 5c 21 3e bb 56 31 3d
       0.32724547 0.2736757 0.15757859 0.043295603
0000c0 d5 f4 c3 bd 79 2e 3b bd 97 5e 5b 3d 26 70 b2 bd
       -0.095681824 -0.045698617 0.053557005 -0.08712797
0000d0 ed 91 36 be 2c d1 46 3b 04 50 81 be ca 2c 9e 3d
       -0.17829104 0.0030337078 -0.2525636 0.077233866
0000e0 4d 86 6f 3e d4 7c d7 3e 73 99 4a 3e 2e 80 7c bd
       0.23391075 0.42087424 0.19785099 -0.06164568
0000f0 b7 4d 96 be 28 22 7c be b1 58 13 3e 63 bb 4c be
       -0.29356167 -0.24622405 0.14389302 -0.19993357
000100 6b cf 58 3d 66 17 ac be 74 9a 24 be 05 78 66 bd
       0.052932184 -0.33611602 -0.16074544 -0.056266803
000110 95 ce b6 3e 73 2e 22 3d 52 54 3a 3e 4a f1 1b be
       0.35704485 0.03959508 0.18196228 -0.15228763
000120 8c 99 5d 3e cb 38 d3 3d 42 17 44 3d 24 b5 99 3b
       0.21640605 0.10313567 0.047873743 0.004690783
000130 6c 4a f5 3d 07 49 6b 3e 50 4a 1f be be 5d ec bd
       0.119770855 0.22977076 -0.15555692 -0.115413174
000140 b2 9b e4 bd 7d c0 1a 3d 7b 16 ca bc 72 c1 a9 3d
       -0.11162509 0.037781227 -0.024668923 0.0828885
000150 fc 4b a7 3b 57 2b d1 3e ad ed 69 bd 13 28 62 be
       0.0051054936 0.40853378 -0.05711143 -0.220856
000160 05 43 48 be 5b 64 a4 3e e0 83 7e be d0 ba 78 be
       -0.19556816 0.32107815 -0.24854994 -0.24290013
000170 c8 34 af be f5 15 bb 3c 70 d5 0d 3d e0 43 ce bc
       -0.34219956 0.022837618 0.034627378 -0.02517885
000180 1a 52 25 3e de d1 02 be b3 b8 f0 bc 64 5d ab 3d
       0.161446 -0.1277537 -0.029384946 0.08367422
000190 00 77 40 3d 06 89 0b be 1a dd db 3c 9b 45 87 3e
       0.046988487 -0.13626489 0.026838828 0.26420292
0001a0 28 9c ea bd 81 51 58 3c c1 50 58 3e 2c b2 a5 3d
       -0.11455566 0.013203026 0.21124555 0.08090624
0001b0 4f 07 f5 39 0b 76 cf 3d 83 8b 57 3e bd 39 2d 3e
       0.00046735487 0.10129937 0.21049313 0.16916557
0001c0 77 3e cc bb f0 b1 59 bd f4 de 01 3e d9 74 6b be
       -0.0062330323 -0.05314821 0.12682706 -0.22993793
0001d0 b6 85 0d 3e 44 6a 47 bd 9d fe 4c 3d a3 de 3d be
       0.13820538 -0.048685327 0.050047506 -0.1854196
0001e0 b0 1c eb bd 29 10 80 be 77 f9 21 3e dd f1 ed bd
       -0.11480081 -0.2501233 0.1581782 -0.116183974
0001f0 99 03 87 be 69 9c 00 be 1d 4a 55 3e 1e 77 86 3e
       -0.26369932 -0.12559666 0.20829053 0.26262754
000200 10 9b a4 3d 0c 43 9c bc e8 85 44 3d cd 59 f4 3d
       0.08037388 -0.01907494 0.047979265 0.11931191
000210 de 8c 95 be 58 7e 72 bd 53 3b 4c 3e 70 77 ff bd
       -0.29209036 -0.059202522 0.19944505 -0.12473953
000220 d7 71 74 3b c5 ce 97 be ff aa b2 3c 98 4a 31 be
       0.00372993 -0.2964994 0.021810053 -0.17313612
000230 c5 bd b4 be 3a 1f 0e 3e 07 9c cc 3c 5a 45 87 bd
       -0.35301033 0.138791 0.024976743 -0.06605025
000240 88 7a 86 bd 92 db 1e 3e ab bf 8b 3e c0 27 72 be
       -0.0656634 0.15513447 0.2729467 -0.23647976
000250 cd 80 e6 3e 24 0a 9e be 14 88 7a be 46 cc 75 be
       0.45020142 -0.30867112 -0.24465972 -0.24003705
000260 2d 7c cf bc 62 f0 91 be 61 29 0e 3e 92 df 10 3b
       -0.025327766 -0.2850371 0.13882972 0.0022105915
000270 b2 c2 9f bc 11 9d bf bd cd 94 3b be 8d e1 64 bd
       -0.019502018 -0.0935613 -0.18318482 -0.055879164
000280 bb 08 3a be 81 65 ba 3e 18 71 e9 bd e9 30 3f 3e
       -0.18167393 0.36405566 -0.11398524 0.18671001
000290 41 30 18 bb b6 66 b2 bd 1f 1a 3a be 13 bf 0d bd
       -0.002322212 -0.08710997 -0.18174027 -0.03460605
0002a0 1e 24 9d 3e b5 b6 3c 3d c3 a7 57 bb 8c ab eb 3d
       0.30691618 0.04607268 -0.003290639 0.11507329
0002b0 ee 16 f2 3b 11 c0 42 bc 62 e2 a0 bd 56 3f 45 be
       0.0073879873 -0.0118866125 -0.07855679 -0.19262442
0002c0 14 ef 61 bd 3b 22 7b bd d8 10 81 3e 7e b6 a3 3d
       -0.055159643 -0.06131194 0.25208163 0.07993792
0002d0 f2 86 2d 3d b2 1d 11 3c 25 a3 e8 3d 38 f0 ee 3d
       0.042365022 0.008857178 0.11359242 0.11666912
0002e0 fc 17 93 be 1f fe ff 3d cc b9 c4 bd 12 c2 f4 3e
       -0.28729236 0.124996416 -0.096057504 0.47804314
0002f0 6e 73 65 bc ac ba 16 be b6 d8 75 3e 88 c2 81 be
       -0.014004571 -0.14719647 0.2400845 -0.25343728
000300 03 0f 4a be 2b f3 25 be 9f 6e 8f 3d e2 8d 4e 3d
       -0.19732289 -0.16206042 0.07003521 0.05042828
000310 0d 0f 5c be 7d ab 00 3e 89 93 5f 3e e7 d9 3f 3d
       -0.21490116 0.12565418 0.21833624 0.046838667
000320 ce 81 f5 bd 54 ce e3 bd 8d 16 ef 3c d5 60 fc 3d
       -0.11987649 -0.11123338 0.029185558 0.12323157
000330 98 a3 0f be 77 6a 93 3e 92 1d 73 3e 5b d1 b0 bd
       -0.1402725 0.28792164 0.23741749 -0.086336814
000340 e3 6e 39 be 95 9b 81 be 12 e1 56 bb 45 7d cd bd
       -0.18108706 -0.25314012 -0.003278796 -0.10033659
000350 07 1b ba 3d 58 b7 6b be da af 8f bd b0 7f e1 bd
       0.09087186 -0.23019159 -0.07015963 -0.110106826
000360 34 35 b1 be 0d 95 20 3c 03 ae 1b 3e af df 24 3e
       -0.34610903 0.0098011615 0.15203099 0.16100954
000370 ef 02 84 be 24 c6 60 bd 89 71 42 3e 3c ac 0d be
       -0.25783488 -0.05487646 0.18988623 -0.13835233
000380 e7 d7 fd 3c dd 96 08 be 37 39 4b bc 8d ee b7 3d
       0.03098674 -0.133388 -0.012403778 0.08981047
000390 24 eb c3 be ec 5d fc 3e e6 92 29 be bc 15 74 3d
       -0.38265336 0.49290407 -0.16559944 0.05959104
0003a0 dc f7 38 be 4f 81 fc bb 53 12 0b bd c6 d1 d2 3e
       -0.18063301 -0.0077058445 -0.033953022 0.4117567
0003b0 23 83 fd bd 09 bb 2f be 5f df 61 3e 23 b1 07 be
       -0.12378528 -0.17161192 0.22057866 -0.13251166
0003c0 b1 29 80 be a5 fa 49 3e 1d 32 01 bd 66 aa 20 bd
       -0.25031808 0.1972452 -0.031541932 -0.039225005
0003d0 02 3d c6 bd fe 88 b5 3e ef 35 21 be 7b 03 83 bd
       -0.09679605 0.3545608 -0.1574323 -0.06397148
0003e0 e2 be 57 3d 77 a8 d1 3d 1b d4 f5 3d e4 64 d8 3d
       0.052672274 0.1023721 0.120033465 0.10566118
0003f0 d4 16 28 be fc ab c8 3c 07 a6 57 be 1a 9c dc 3e
       -0.16414958 0.024496071 -0.21059428 0.43087846

fc2.bias f4 [10]
000000 3e de 1f bd 8c 17 1d 3b 96 64 28 bd 78 85 6e bc
       -0.039030306 0.0023970334 -0.04111155 -0.014558189
000010 e1 6e 08 3e a3 8d af 3d 2c 5e ec 3b 43 42 0b 3d
       0.13323547 0.08571937 0.0072133746 0.03399874
000020 ef 8c 48 bd f2 b5 9d 3c
       -0.04896253 0.019251797
