models/net_new_bs64_dr0_2_adam_augm/model_epoch_48.pt (torch, 763336 bytes, 28 tensors)

conv1.weight f4 [8, 3, 5, 5]
000000 1e 2c e7 3d cb 2e b2 3d 2d 09 08 be a3 08 39 3e
       0.112877116 0.08700331 -0.1328475 0.18069701
000010 ee 13 0a bd e8 19 fe 3d 98 7a 40 bd 73 24 5e 3e
       -0.033710413 0.12407285 -0.046991915 0.21693592
000020 8c 6a ea 3e 24 88 3e be 7b e5 82 3c 26 e0 b5 ba
       0.45784414 -0.18606621 0.015978565 -0.0013876006
000030 41 57 65 3e bb 1e 8d 3e 57 61 68 3d 92 5b 49 be
       0.22396566 0.27562508 0.056733456 -0.19663838
000040 27 ce 85 bd 35 b6 1e be c5 ad d4 bd b6 80 bc 3d
       -0.06533461 -0.15499194 -0.103847064 0.09204237
000050 68 8d 45 be 9b 8c 75 be b6 d6 7a be c0 31 83 bb
       -0.19292223 -0.23979418 -0.24495968 -0.0040037334
000060 a4 b5 1b bd e0 bc a9 bd db 64 fe bd 50 83 72 be
       -0.038015023 -0.08287978 -0.124215804 -0.23682904
000070 e5 3a 67 3d b9 86 0c be ce 41 6f 3e 82 ec ea bd
       0.05645265 -0.13723268 0.23364946 -0.114708915
000080 96 75 32 3e 21 b9 7d 3e 25 93 96 be 0b 87 24 3e
       0.17427668 0.24777652 -0.29409137 0.1606714
000090 16 73 30 3e b0 ec 98 3e 7e 10 17 3e b5 ca 69 be
       0.17231402 0.29868078 0.14752385 -0.22831233
0000a0 73 fe e6 3d 28 f1 0e 3e a6 8a ab 3d 76 cb 54 3d
       0.11279001 0.13959181 0.083760545 0.051951848
0000b0 29 87 18 3d 33 29 1b bc 14 f5 ac 3d 13 bc 55 3c
       0.037238274 -0.009470272 0.084451824 0.013045329
0000c0 bc 9a a3 3c 51 14 a1 bd 37 12 1c be f5 e8 06 be
       0.019971244 -0.07865203 -0.15241323 -0.13174804
0000d0 2d ed 9c be 5c 5e b6 3d 1d 92 cf 3d 2e 7c f3 3d
       -0.306497 0.08904716 0.10135291 0.1188892
0000e0 3f f8 98 bd 53 90 dc bd 86 e3 1a 3e 85 a1 8f be
       -0.07469224 -0.10769715 0.15125856 -0.28052917
0000f0 14 75 e0 3d c0 bd 9b 3c d4 a5 51 3d 5e 8a d5 bd
       0.10959831 0.019011378 0.051183537 -0.10426782
000100 21 55 2c be 5b 9d 10 3e bc 4c a1 3e b0 66 dd bd
       -0.16829349 0.14122526 0.31503856 -0.10810602
000110 4c ce 82 be 42 d9 0c be ff a4 98 3e 14 99 5d 3e
       -0.25548017 -0.13754752 0.29813382 0.21640426
000120 5a d2 2f 3e a2 29 16 be 9c 1b 02 be ca fe 3c be
       0.17170087 -0.14664319 -0.12705845 -0.1845657
000130 66 8b 39 be 8c 54 95 3e dc 66 c9 3e 7e 72 74 3e
       -0.18119583 0.29166067 0.39336288 0.238718
000140 83 03 82 be 01 f8 95 be a8 4b c0 3d fd d1 dd 3e
       -0.25393304 -0.29290774 0.0938943 0.4332427
000150 d8 21 16 3f d1 14 9b be 1e 90 80 be 59 31 24 be
       0.5864539 -0.3028932 -0.25109953 -0.1603445
000160 e7 94 47 3e a3 4e f7 3e 7b 4a 13 be 70 ff ce be
       0.19490395 0.48302183 -0.14383881 -0.40429258
000170 e3 04 20 3e b6 c1 08 3e a0 00 b8 bd bd 7b 04 be
       0.15626864 0.13355145 -0.08984494 -0.12937827
000180 a3 8f 1f be 3b 05 53 bd 42 06 4d bd 6f 00 e5 bd
       -0.15582137 -0.05151866 -0.050054796 -0.11181723
000190 fd d8 3e 3e a7 17 d8 3d 38 4c 53 3d a7 cb 10 be
       0.18637462 0.10551386 0.05158636 -0.14140187
0001a0 b5 e8 f3 bd 22 b5 49 3e 49 47 99 bd c5 ee ac be
       -0.1190962 0.19698003 -0.074843 -0.33775917
0001b0 58 07 99 be fc f7 8e bd c1 fc d3 3e 3a 1e c4 3d
       -0.29888415 -0.06980893 0.41403773 0.09576078
0001c0 d1 91 33 be 0a 32 ec be ff e6 13 be c7 03 90 3e
       -0.17536093 -0.46131927 -0.14443587 0.28127882
0001d0 7e 95 83 3d ae a5 de 3d a0 51 83 be 61 2c b1 be
       0.06424998 0.10871445 -0.25648212 -0.3460417
0001e0 9b 57 65 3e 82 67 24 bd 9f 07 02 3e bb 7e 06 be
       0.223967 -0.040137775 0.1269822 -0.13134281
0001f0 7b c9 ec bd 76 4a 00 be 5a 36 0f be f9 70 e4 bd
       -0.11561867 -0.12528405 -0.13985577 -0.1115436
000200 c4 50 b1 bd 7d f8 6b be af a1 d8 3d 8c 5f 29 3c
       -0.08657983 -0.2304401 0.10577714 0.010337722
000210 27 77 87 be eb 82 a0 bd 7c 5a 6e bc 23 c2 6d 3d
       -0.26458094 -0.078374706 -0.01454794 0.05804647
000220 2b d8 5d 3d 7b 13 81 bd c8 e5 97 bd c7 9d dc 3d
       0.054161232 -0.06302544 -0.07416874 0.10772281
000230 bd 47 0a 3e f9 61 43 3b fa 55 0c 3f 57 e7 42 bb
       0.13503928 0.0029813035 0.5481869 -0.002973994
000240 a8 35 2a bd 29 07 50 3d d4 8e 39 3d 3e ca bd 3e
       -0.041555077 0.05078808 0.045302227 0.3706836
000250 0e ac 61 3e e5 8d 24 3d 42 6b 77 3d 27 4c 85 be
       0.2203829 0.040174384 0.060405023 -0.26034662
000260 08 57 5a 3d 57 f9 0e 3d 65 8e 09 3d 08 0d 47 be
       0.053305656 0.034905758 0.033583064 -0.19438565
000270 da 03 73 bd 0a b4 75 bd 62 bb 02 3e 1a a1 2a 3d
       -0.059329845 -0.05998615 0.12766793 0.041657545
000280 6f 10 dc bd 22 95 c9 bc b0 27 34 be e5 41 a0 bd
       -0.10745322 -0.024607245 -0.17593265 -0.078250684
000290 34 a2 9f 3e bf 6d 8c be bf 8f ca be b1 34 cf 3e
       0.3117844 -0.2742748 -0.39562795 0.40469888
0002a0 6f 71 f8 3e 7e 4c 03 3d 21 11 34 be 1e 8e aa be
       0.48524043 0.03205537 -0.17584659 -0.33311552
0002b0 07 46 7b 3d 57 a8 b0 3d 2e 8b bb bc 8c 77 a7 bd
       0.06134608 0.08625858 -0.022893514 -0.08177099
0002c0 00 e2 92 be 72 33 f8 3d 5f ff 3c 3e de 83 34 be
       -0.2868805 0.121191874 0.18456791 -0.17628428
0002d0 60 99 a2 bd 5e 61 98 3d b6 1e cd bc c3 c0 d9 bb
       -0.0793941 0.07440446 -0.025039058 -0.0066452934
0002e0 3f e9 1b 3e 94 b4 1a bd 8e 3e 79 3e ef 41 dc bd
       0.15225695 -0.03776987 0.24340269 -0.10754763
0002f0 6a 0d 5b bd 03 a5 88 3e dc d7 33 be a0 c4 26 be
       -0.05347959 0.26688394 -0.17562813 -0.16285944
000300 49 ed 0e 3f 18 13 1a 3f ce 21 9c 3d 0b be ff bd
       0.5583082 0.60185385 0.07623635 -0.1248742
000310 60 c6 6f be 05 3c 9e 3d 78 28 15 3e 22 03 11 3d
       -0.23415518 0.077262916 0.14566219 0.03540338
000320 0e 92 69 3e 5d 64 b3 3d 9c fb 96 3e 07 28 14 3e
       0.22809622 0.08759377 0.29488838 0.14468394
000330 bc 5a 5f 3d 80 a8 26 3e 48 47 10 3e e9 19 99 be
       0.05452989 0.16275215 0.14089692 -0.2990258
000340 34 25 b9 be 63 c8 a6 bd e8 2a ec 3e bc cf e5 3e
       -0.36161196 -0.081436895 0.46126485 0.4488505
000350 a6 6a 1f bf 06 03 50 bf 82 d9 65 be ed 9f 00 3f
       -0.6227211 -0.81254613 -0.22446254 0.5024403
000360 6b 6c 04 3e 20 8f 2c 3d d5 fd 16 be df 62 d3 be
       0.12931983 0.042128682 -0.14745267 -0.4128637
000370 fb c1 a6 3e c1 4f e2 3d b5 05 06 be a1 bf 91 be
       0.3256987 0.11050368 -0.13088115 -0.28466514
000380 27 c3 b5 be ac 4b 0c 3e 5e 5e 34 3e 89 9e 0c 3e
       -0.35500452 0.13700742 0.17614123 0.13732351
000390 50 61 83 bd 41 93 a8 bd 13 71 c9 3d 90 ea 8b 3e
       -0.06415045 -0.082312115 0.0983602 0.27327394
0003a0 6a 52 92 3e d4 d9 ae 3d 7d 45 fc 3b f0 65 86 3e
       0.28578502 0.08537641 0.0076987133 0.26249647
0003b0 d8 a0 08 3e 86 e0 f0 bc fc de a4 be cc 71 67 be
       0.13342607 -0.029403936 -0.32201374 -0.22602004
0003c0 6a 6d d4 3d a5 9e 5a be 20 98 85 be 69 91 dc be
       0.103724316 -0.2134958 -0.26092625 -0.4307969
0003d0 d9 38 33 be 12 44 c3 bd 4e 85 2e be 0b e3 b5 bc
       -0.17502154 -0.09534468 -0.17043039 -0.02220299
0003e0 ff 81 c8 bd 03 bb 06 3e 2a 0c 0b be 02 2e 48 be
       -0.0979042 0.13157277 -0.13578859 -0.195488
0003f0 20 22 52 bd ef b5 a1 bd 66 90 a9 bd bd 09 8c bd
       -0.051302075 -0.07896029 -0.08279495 -0.06837795

conv1.bias f4 [8]
000000 f2 b5 d5 be 65 98 74 3e b2 11 45 3e 53 d9 15 3e
       -0.41740376 0.23886259 0.19245031 0.14633684
000010 e0 ac 4d bd c3 6a eb 3c d1 3a 08 bf 7b 13 37 be
       -0.050213695 0.028737431 -0.53214747 -0.17878525

conv11.weight f4 [32, 8, 5, 5]
000000 63 20 97 bd fc 0d 3c bd f0 05 b5 3d 13 53 07 3b
       -0.07379224 -0.045911774 0.08839023 0.0020648881
000010 cd e9 d1 bd 9e 89 85 3d e0 11 43 bd ec f9 11 3d
       -0.10249672 0.06520389 -0.04762447 0.035638735
000020 27 9d f1 3c 4e b8 3e be 85 6d 8d 3d 60 11 e0 3c
       0.029493881 -0.18624994 0.06905655 0.027352035
000030 d9 86 84 bd 65 ff 45 bd b0 10 0f be c7 98 56 3e
       -0.06471033 -0.048339266 -0.1397121 0.20956717
000040 95 12 1f be 12 cf 80 be 52 e6 08 bd a7 4f b4 bb
       -0.15534432 -0.25157982 -0.033422776 -0.0055026594
000050 53 71 8b bd 6a f7 b7 be a6 f1 82 bd b0 e7 74 3e
       -0.06808724 -0.3593095 -0.06393747 0.23916507
000060 15 4f 1a 3e 5c ae dd 3e b6 fd aa 3e 77 88 11 bd
       0.1506923 0.43297088 0.3339669 -0.035530534
000070 cf 31 b9 bd 95 e4 b9 be 77 8b f4 3e 02 6b 2d 3e
       -0.09042703 -0.36307207 0.47762653 0.16935351
000080 b9 35 9c be 1d 70 83 be 1a 59 53 bd 4d 0d d1 3e
       -0.30509737 -0.25671473 -0.051598646 0.4083046
000090 89 0f 68 be 9f cf be be 82 3d 28 bd 29 a4 a6 3d
       -0.22662176 -0.37267777 -0.041074283 0.0813678
0000a0 b1 c8 21 be e1 a3 93 be a5 9e 49 bd 09 88 b6 bd
       -0.15799214 -0.28835967 -0.04922356 -0.089126654
0000b0 dc e5 70 3e 63 0f 8f be 85 b0 a9 bd 01 b2 97 bd
       0.23525184 -0.27941427 -0.082856216 -0.074069984
0000c0 67 9a 8f bc 62 4a 2f 3e e5 36 88 be 5c c9 23 bd
       -0.01752968 0.17118219 -0.2660438 -0.039986953
0000d0 e9 17 46 be 43 cc 54 3d ee e9 87 3d 2d a3 0e bd
       -0.19345059 0.05195261 0.066364154 -0.034823585
0000e0 63 a7 52 be 5f da 92 be 17 d9 2b 3e 12 f5 92 3e
       -0.20571665 -0.2868223 0.16782032 0.287026
0000f0 96 88 38 be a1 5c f1 be bd 2f 0b 3d f4 65 c0 3e
       -0.18020853 -0.47140983 0.033981074 0.37577784
000100 10 3a ac 3d 21 d9 53 be bc 85 84 3e d8 38 26 3f
       0.08409512 -0.20688297 0.2588328 0.64930487
000110 72 cf 94 3d fc a9 15 3d d3 a4 51 3d a4 fd 9a 3e
       0.072661296 0.036539063 0.05118258 0.30271637
000120 24 9a b2 3d 1d 55 4d 3d 40 b2 3f 3e f1 42 6d bd
       0.08720806 0.05013 0.1872034 -0.05792517
000130 da 6e 8d be 3a 01 49 be 9e 36 1d 3d a3 17 78 3e
       -0.27623636 -0.19629374 0.038382165 0.24227767
000140 6e bf 6d be f0 2f 72 be 4d a6 61 bd 4f 5f b1 3e
       -0.23217556 -0.23651099 -0.055090237 0.34643027
000150 47 56 2c 3e 7f 73 f3 bc a2 1b 0e 3d 96 0a 1a 3e
       0.16829787 -0.029718159 0.03469432 0.150431
000160 2a 22 2c 3e 50 4f 15 3c f5 13 1e 3e dd d1 2e 3e
       0.16809908 0.009113148 0.154373 0.17072244
000170 0d 66 6f 3b 3b b2 06 be 8c 59 cb bd 68 82 1d 3e
       0.0036529333 -0.13153927 -0.09929189 0.15381777
000180 b4 7f a9 3d eb b9 9a bd cb 68 88 3c 80 d5 c6 3d
       0.082763106 -0.07554992 0.016651532 0.09708691
000190 66 cf 17 be 51 7f cb 3c 67 ec 81 3d 6f 69 1d bc
       -0.1482521 0.024840983 0.06343918 -0.009607657
0001a0 da 36 76 bc 85 82 2b 3b 0b b5 3c 3e b0 db 3e 3e
       -0.015027726 0.0026170325 0.18428437 0.18638492
0001b0 ee 8b ca bc 80 73 34 3d 9a 4f 17 3e a7 32 d4 bc
       -0.024724927 0.044055462 0.1477646 -0.02590306
0001c0 38 c2 02 bd af 72 1c 3d 76 2a 2e 3e ca 26 14 3e
       -0.031923503 0.03819531 0.17008385 0.14467922
0001d0 bc 36 00 be e4 3b cb 3d 1b 83 b5 3d c3 bb 02 be
       -0.1252088 0.099235326 0.08862897 -0.12766938
0001e0 7f 56 8f 3d 58 7c c2 3d 01 fc 3e 3e 58 4a 27 be
       0.0699892 0.09496373 0.1865082 -0.16336954
0001f0 3c c9 91 be ee c8 24 be 28 a2 12 be 15 91 40 be
       -0.28473842 -0.16092274 -0.1431967 -0.18805344
000200 55 eb b5 bc 79 43 3b 3e f3 89 92 be eb dd 44 be
       -0.022206942 0.18287458 -0.28620872 -0.1922528
000210 54 34 67 be 5e a3 7a 3e 8d e9 ec 3e e1 24 05 bd
       -0.22578555 0.24476382 0.46271935 -0.032505874
000220 83 8d d2 bd 12 06 e5 3c 8f 73 26 3f be 3d b9 3e
       -0.102808975 0.027956996 0.6502008 0.36179918
000230 2b fe 20 be b8 50 e1 3d 5a aa cc 3e fe 8f fc 3e
       -0.15721957 0.11001724 0.39973718 0.49328607
000240 47 a8 66 be 60 f3 94 3b 09 c2 fc 3e c2 47 72 3e
       -0.2252513 0.004545614 0.49366787 0.23660186
000250 45 62 98 be b3 67 24 bf 7f 08 ff 3d 66 dd f8 3d
       -0.29762474 -0.6422073 0.124527924 0.121516034
000260 de 52 c7 bd b0 64 a2 be 06 d0 87 bd 83 18 ff bc
       -0.097326025 -0.31717443 -0.06631474 -0.031139618
000270 45 0b 6d be 92 81 12 be 06 62 39 be b0 c0 2e 3e
       -0.2314883 -0.1430724 -0.18103799 0.17065692
000280 ff c9 ad be 39 6a 86 be e4 df 93 bd f6 6c e2 3d
       -0.33943173 -0.26252916 -0.07220438 0.11055939
000290 88 2a aa 3e d0 03 dd be a2 46 6c be 4f 40 59 bb
       0.33235574 -0.4316697 -0.2307382 -0.0033149903
0002a0 2e c6 1f 3e f8 1b 8e 3e 7f ad 64 bd 66 ed 4b 3d
       0.15602943 0.27755713 -0.05582952 0.049786948
0002b0 c4 8f 81 3e 5a bc 9e 3e 1a a4 18 3e 54 3c 3c 3d
       0.25304997 0.31003076 0.1490635 0.04595597
0002c0 39 79 0e 3d 7d 4f 10 be 7b d0 1b be 8b d6 8c bd
       0.034783576 -0.14092822 -0.15216248 -0.06876858
0002d0 f6 fc b2 bc fb 44 01 3e 53 d4 d2 b8 d8 5d 35 bd
       -0.021849137 0.1262397 -0.00010053129 -0.04427895
0002e0 d4 d7 21 bd 1b 87 94 be 6f 75 0d 3e 84 32 0a bd
       -0.03951247 -0.29009327 0.13814329 -0.03373958
0002f0 d0 37 27 be c2 0a 28 bd 71 e8 d8 bd f9 95 75 3e
       -0.16329885 -0.041025884 -0.1059121 0.23982991
000300 64 d4 02 be 1b a3 04 be 1f 57 41 3d 09 44 65 be
       -0.12776333 -0.12952845 0.047202226 -0.22389235
000310 12 bf 8d bc 76 4c cf bd 81 96 31 3d d4 1a 54 3e
       -0.017303023 -0.10122006 0.043356422 0.20713359
000320 3f 52 17 3f 90 1f b0 3d 29 b5 4d bd 79 5d 01 be
       0.5910987 0.0859977 -0.050221596 -0.12633313
000330 d4 2a 93 3e 61 2a 19 3f 66 e4 27 3e d8 c0 1a be
       0.28743613 0.5983029 0.16395721 -0.15112627
000340 04 63 06 be 65 05 69 3e 3b dc d3 3e b2 02 0c 3e
       -0.13123709 0.22755964 0.4137896 0.13672903
000350 1e 02 4d bd 2f 02 5a 3a 8e 9c 43 3e 9d 14 a3 3e
       -0.050050847 0.00083163654 0.1910269 0.31851664
000360 6b e2 f1 3d 23 04 3e 3d 2c 71 21 3e 97 7f d5 3e
       0.11810764 0.046390664 0.15765828 0.41698906
000370 94 a4 b7 3e e0 ba 0c 3d 7a 3e 1e 3c f7 14 5a 3b
       0.3586775 0.034357905 0.00965845 0.0033276656
000380 1b c3 3d 3e 37 51 76 be b6 51 70 be aa 1f 40 be
       0.18531458 -0.24054419 -0.2346867 -0.18762079
000390 4b f6 10 be d8 b1 b2 3d bc 26 8a 3d 72 b4 2d 3c
       -0.14156453 0.08725327 0.06745669 0.010602104
0003a0 2d bc ea bb 36 f3 47 be 77 09 f1 bd e6 e9 be bd
       -0.0071635456 -0.19526371 -0.117693834 -0.09321956
0003b0 06 78 48 bd cd 84 c0 bd 03 77 61 be 0f 2a 97 be
       -0.04894259 -0.0940033 -0.22018056 -0.29524276
0003c0 cc 38 a0 3b 79 40 70 3e 88 8c 93 3e 79 63 7e 3d
       0.004889583 0.23462094 0.28818154 0.062106583
0003d0 ca e8 27 be 44 9b f4 be 27 39 66 be 3f 04 e9 3d
       -0.16397396 -0.47774708 -0.2248274 0.11377763
0003e0 0c 18 12 3e c7 b5 7f bb 3c 5e 5c be 47 0a c4 bd
       0.14266986 -0.003901826 -0.21520323 -0.09572273
0003f0 62 d5 6a bc 9b b5 ba bc b9 13 ed 3d 47 44 25 bd
       -0.014333101 -0.022791674 0.115760274 -0.040348317

conv11.bias f4 [32]
000000 75 ae c4 bb e2 21 41 3c 00 e6 4b 3d 88 48 06 bd
       -0.006002242 0.011787863 0.049779892 -0.032784015
000010 52 68 c5 bd 42 82 99 bb c0 af f2 3d 06 ab da 3c
       -0.09639038 -0.0046847174 0.11849928 0.026692878
000020 5d 54 37 3e c6 99 cb 3d 89 f6 12 3e 24 06 c8 3b
       0.17903276 0.09941439 0.14351858 0.0061042476
000030 8f 85 3a 3d 14 28 4b 3c cf 28 b3 bd 61 4b 6a bd
       0.045537528 0.012399692 -0.08748018 -0.057200793
000040 da e2 1f be f1 58 0c bd 3d c4 24 bd 1a 2a 35 bd
       -0.15613881 -0.03426451 -0.04022621 -0.044229604
000050 2a 13 95 3d 01 4f ee bd ba 09 cc 3b 8a 5d 1e 3d
       0.07279046 -0.116361625 0.0062267454 0.038663425
000060 27 c2 16 3c 98 b5 30 bd ea d3 ab bc 87 66 3c be
       0.009201563 -0.04314193 -0.020975072 -0.18398486
000070 17 88 af bd 22 e5 15 3e 20 58 cf 3c ca 89 7f 3d
       -0.08570879 0.14638188 0.025310576 0.062387265

batch1.weight f4 [32]
000000 95 5d 6e 3f 22 26 7f 3f 9a 16 81 3f 93 5e 8f 3f
       0.93111545 0.9966756 1.0085022 1.1200737
000010 b9 6d 71 3f 7d 7a 68 3f 0f af 85 3f 6f 47 89 3f
       0.9430805 0.908119 1.0444049 1.0724925
000020 65 61 50 3f 69 a3 52 3f 69 96 66 3f d3 90 9a 3f
       0.8139861 0.82280594 0.9007326 1.2075447
000030 5e 88 58 3f 7e 15 83 3f 27 3e 66 3f df 6d 87 3f
       0.8458308 1.0240934 0.89938587 1.0580405
000040 11 4d 66 3f f9 88 6f 3f dc 28 7e 3f 8e ed 82 3f
       0.89961344 0.9356838 0.99281096 1.0228746
000050 28 1e 84 3f b5 1d 79 3f 8e 85 7b 3f 7a f8 7f 3f
       1.0321703 0.97310954 0.98250663 0.9998852
000060 7b 77 88 3f 7e 25 6c 3f 3d 3d 8c 3f 47 07 77 3f
       1.0661463 0.9224471 1.0956188 0.9649548
000070 c2 d7 87 3f 03 be 86 3f 4e c9 67 3f 22 1f 5c 3f
       1.0612719 1.0526737 0.9054154 0.85985005

batch1.bias f4 [32]
000000 01 4d cf be ee f1 71 be ec e6 5d be 27 49 86 be
       -0.40488437 -0.23627445 -0.21670121 -0.26227686
000010 1d 74 8f bf 7d b2 b7 be cb ce 06 be 21 14 71 be
       -1.120731 -0.35878363 -0.13164823 -0.23542835
000020 45 2f 8c bd 13 d7 a0 be 5b 31 bc be 2d 4a 81 be
       -0.068449534 -0.3141409 -0.36756405 -0.25251904
000030 a3 48 c0 be 09 46 7a be e4 c6 fa be 68 ce bc be
       -0.37555417 -0.24440779 -0.48979867 -0.36876225
000040 71 de b1 be 1f d3 8e be 94 1e ae be e7 f1 bd be
       -0.34740022 -0.27895448 -0.34007704 -0.3709862
000050 9c 5e d3 be 5c a4 68 be 31 f7 91 be 9a 2d ce be
       -0.4128312 -0.22718948 -0.28508905 -0.40269166
000060 80 15 7e be 8c 2a 40 be d0 56 92 be 5e 98 9e be
       -0.24812889 -0.1876623 -0.28581858 -0.30975622
000070 43 e9 48 be 84 f9 a1 be c9 a3 ba be b7 6c 1c be
       -0.19620232 -0.31635678 -0.36453083 -0.15275846

batch1.running_mean f4 [32]
000000 08 4b 64 3e 90 ab d0 be a0 fc 81 be 11 b0 e6 be
       0.22294247 -0.40755892 -0.2538805 -0.45056203
000010 18 54 10 3f 94 be 10 be dd ab cb 3d 3d 0e 2f bf
       0.56378317 -0.141352 0.0994489 -0.683811
000020 dd 96 3e 3f f2 67 84 be 70 c3 80 3f 3f ca b4 3d
       0.7444895 -0.25860554 1.0059643 0.08827638
000030 27 e8 d0 3f fc 19 f7 3e bb b8 35 bd b8 db fd bf
       1.6320847 0.48262012 -0.044365626 -1.9832678
000040 e4 28 b3 bd 52 dc ad 3e 11 23 c2 be 97 26 d6 3f
       -0.08748034 0.33957154 -0.3791738 1.6730527
000050 34 5a 03 3f f3 e2 a2 be e0 47 0b be a2 28 c4 3f
       0.51309514 -0.31813774 -0.13601637 1.53249
000060 84 ac b4 be 97 81 73 3f 94 8c b1 3d 2f 84 96 bd
       -0.3528787 0.95119613 0.08669391 -0.07349431
000070 bf 9f e6 be a5 c6 41 be 20 b0 03 c0 9f bf 3f be
       -0.45043752 -0.18923433 -2.0576248 -0.18725441

batch1.running_var f4 [32]
000000 c3 42 cf 3f 3c b4 5b 40 51 54 98 3f 8d b2 00 40
       1.6192249 3.4328756 1.1900731 2.0108979
000010 5b ff 81 3f 1f 61 3a 40 c6 84 69 3f bb 3c 03 40
       1.0156053 2.9121778 0.9121822 2.0505817
000020 55 5d 73 40 7f 35 b8 3f 03 80 f5 3f 9f 9f 07 40
       3.8025715 1.4391326 1.9179691 2.1191175
000030 42 e7 3d 40 07 da f2 3f 78 06 0b 40 45 1c 74 40
       2.9672399 1.8972787 2.1722698 3.8142254
000040 a1 cc 91 3f 90 f9 82 3f 6b e6 ab 40 aa 91 5a 40
       1.1390573 1.023241 5.371877 3.4151406
000050 fc 34 ab 3f 66 ce 7f 3f d8 90 75 3f 2c 6e 38 40
       1.3375545 0.99924314 0.9592414 2.8817244
000060 86 b6 91 40 f1 c2 2e 40 6e 9a 6f 40 04 d4 b4 3f
       4.5535307 2.7306483 3.7438006 1.4127202
000070 71 09 fd 3f 22 21 1c 40 3c c8 71 40 16 a5 ae 3f
       1.9768506 2.4395223 3.7778463 1.364413

conv2.weight f4 [64, 32, 5, 5]
000000 b1 d9 30 be 13 b4 a2 be 6c 71 8c be e6 d2 b4 be
       -0.17270543 -0.3177801 -0.27430284 -0.35317153
000010 6e 20 9e be d3 d3 4d be f3 88 55 be 4f f6 d5 be
       -0.30884117 -0.20100336 -0.20853023 -0.4178948
000020 47 59 f6 be 84 be 9e be 4a c1 84 be 37 32 74 be
       -0.48114988 -0.31004727 -0.25928718 -0.2384728
000030 47 66 03 bf 3a 39 05 bf 4e de 90 be eb a8 93 3c
       -0.5132794 -0.52040446 -0.28294605 0.018024882
000040 f7 6e d6 3c 94 36 88 be bc 72 7b be 69 af 3e be
       0.026175959 -0.2660414 -0.24555486 -0.18621601
000050 48 80 f1 bd 81 c9 82 bd 52 33 59 be b4 2e 8b be
       -0.11792046 -0.0638609 -0.21210983 -0.2718407
000060 6e 69 72 be 7f e2 e4 bd e4 b8 59 bd 42 df 45 3e
       -0.2367303 -0.11176013 -0.05315484 0.19323447
000070 13 3d c4 3e d2 c1 3d 3e 37 2c 20 bd c4 f1 b1 bd
       0.38327846 0.18530968 -0.039104667 -0.08688691
000080 f2 66 27 3e 2e 4e c7 3e 60 37 9f 3e e7 92 1d 3e
       0.16347864 0.38926834 0.31096935 0.1538807
000090 e9 61 95 3c 4a 74 17 3e 5d 61 a0 3e 2a b2 5f 3e
       0.018235164 0.14790455 0.31324282 0.21845308
0000a0 4c 75 73 3e 0b cb c9 3d 4d 7b 1d 3e 81 a9 ab 3e
       0.23775214 0.098531805 0.15379067 0.3352776
0000b0 e1 26 e9 3d 9f ff 85 3e 1e 59 22 3e 53 3a 60 3e
       0.11384369 0.26171586 0.15854308 0.21897249
0000c0 be 8d 81 3e 29 be 8a 3d 77 6a db 3e 94 c4 9e 3e
       0.25303453 0.067745514 0.42854664 0.31009352
0000d0 e8 ae 80 3d 05 11 2d be de 18 de be c3 68 dd 3e
       0.06283361 -0.16901024 -0.43378347 0.4324399
0000e0 d4 35 04 3f 40 17 a9 3e c0 06 db bc 50 dc 31 be
       0.51644635 0.3302555 -0.026736617 -0.17369199
0000f0 3f 3b 82 3e e2 b8 72 3e ca d9 20 bd 17 af a2 be
       0.25435826 0.2370334 -0.0392702 -0.31774208
000100 f9 1b 8b be 6d 2b d1 3e c2 5b db 3e 50 15 d5 3e
       -0.2716978 0.40853444 0.42843443 0.41617823
000110 bc cd de 3d 59 30 40 3e 6c 16 fd 3e c2 b5 b3 3e
       0.108790845 0.18768443 0.4943117 0.35099608
000120 28 2a 78 3e b9 d4 bc 3d be 29 72 3e e6 ba 54 3e
       0.24234831 0.09220261 0.23648736 0.20774421
000130 d9 79 f3 bc a5 85 0a be ba f9 92 bd 46 54 ca 3c
       -0.029721187 -0.13527544 -0.07176538 0.024698388
000140 6b c7 19 3f 54 55 80 3e e0 db 20 bd 52 8b f9 bd
       0.6006991 0.250651 -0.03927219 -0.12184776
000150 af 58 87 3d d0 03 a2 3e 4e 13 88 bd 65 39 ca be
       0.06608712 0.31643534 -0.06644307 -0.39496914
000160 32 41 a4 be 58 75 d6 bd 7e 51 12 3f 46 e0 8e 3e
       -0.3208099 -0.104716 0.571556 0.27905482
000170 85 5c ed bb 65 77 b3 3c ef e7 ac 3d 3c e4 21 3f
       -0.007243695 0.021907518 0.08442675 0.63238883
000180 77 50 c8 3e bd 7b b4 3d e7 f2 1d 3c ab 1f 18 3d
       0.3912389 0.08812664 0.009640432 0.037139576
000190 18 54 d4 be 89 48 29 be c9 f1 8f 3c b6 20 bb 3d
       -0.41470408 -0.16531576 0.017571347 0.091370985
0001a0 7c d6 93 3d 52 6e 9a be 33 32 aa bc ff e2 77 3e
       0.07218644 -0.30162293 -0.02077589 0.24207686
0001b0 1f d8 d4 3e c1 e8 f1 3e 7a 98 09 bf b0 70 81 be
       0.41571137 0.4724789 -0.53748286 -0.25281286
0001c0 b5 7a a6 3d 51 f6 b3 3e 93 93 d4 3e 57 21 07 bf
       0.08128873 0.35148862 0.4151884 -0.5278525
0001d0 83 12 96 be 7f 12 23 3d d8 44 8e 3e 07 53 bb 3e
       -0.29310998 0.03981256 0.277869 0.36586782
0001e0 71 e6 f0 be 48 7c 73 be 24 60 17 3d 22 1b 8f 3e
       -0.47050813 -0.23777878 0.03695692 0.27950388
0001f0 ac a5 c8 3e b4 ed 14 3c 25 6e 88 3d d8 1a fc 3d
       0.39188898 0.009089876 0.066616334 0.123098075
000200 94 cb 1b 3d 66 f5 aa 3d 23 51 bb be 6c f8 42 be
       0.038035944 0.08347587 -0.3658534 -0.19040078
000210 91 ac 4a be ca 89 6b be c5 b6 2c be 06 bf 8a be
       -0.19792391 -0.23001781 -0.16866596 -0.27098864
000220 2c c8 9c be 90 3a 90 be 40 46 c0 be 60 29 1c be
       -0.3062147 -0.2816968 -0.37553596 -0.15250158
000230 c1 ec 21 3c 6a ea 33 bd 65 55 5f bd 6a 0c 01 be
       0.009883107 -0.043924727 -0.054524798 -0.12602392
000240 9f 2b 07 be 09 63 1f 3e 5c eb e1 3d 2b 10 01 3e
       -0.13200234 0.15565123 0.11031219 0.12603824
000250 b9 62 8b bc 35 90 82 bd 11 3e 48 be aa 13 e1 3e
       -0.017014848 -0.063751616 -0.19554926 0.43960315
000260 7e 72 4d 3f 58 1a 45 3f 53 e8 29 3f 05 fb 37 be
       0.80252826 0.7699332 0.66370124 -0.1796685
000270 10 3f 89 3e 72 8b 33 3f df 72 41 3f b7 8a 3d 3f
       0.26805925 0.7013465 0.75565904 0.7403979
000280 d7 ea 23 bf a0 e1 bc be 1a fb 85 bc 62 a4 96 3e
       -0.6403021 -0.36890888 -0.016355086 0.2942229
000290 e1 8b d3 3e f6 9b 63 bf 9c 3a 68 bf 7e 11 0d bf
       0.41317657 -0.8890985 -0.9071443 -0.55104816
0002a0 91 6e 5e be d1 47 86 bc b7 84 37 bf 6b 45 66 bf
       -0.21721865 -0.016391667 -0.7168688 -0.89949673
0002b0 f1 b1 31 bf bc ef f8 be 25 23 83 be 09 4b 82 3e
       -0.6941214 -0.48620403 -0.2561275 0.25447872
0002c0 cf fe 1b 3e 28 c7 ee bc a7 b8 9f bd c0 b5 17 3c
       0.1523392 -0.0291477 -0.077988915 0.009259641
0002d0 58 c1 a4 3c de 62 4b 3d aa f9 76 bc 3f 54 13 be
       0.020111725 0.049654834 -0.015074173 -0.14387606
0002e0 4e 6d 81 bc ff b5 24 bb 9b 2c b1 bd 5f 3e fd bd
       -0.01579919 -0.0025132892 -0.08651086 -0.12365412
0002f0 08 0f 7b be a1 c1 dc bd 2f 13 8c bd cd 15 9c bd
       -0.24517453 -0.10779119 -0.068395965 -0.07621346
000300 0f b4 51 bd 94 05 00 be 82 29 0a be 4a ff c2 bc
       -0.051197108 -0.12502128 -0.13492396 -0.023803372
000310 6a 4c 9f bd 60 26 00 bd e0 52 10 be ff 22 71 be
       -0.07778247 -0.031286597 -0.14094114 -0.23548506
000320 0d 7e d9 be 85 cb 8a be 80 ed 6b be f3 26 59 bc
       -0.42478982 -0.27108398 -0.23039818 -0.013253915
000330 82 74 27 3e 81 8a 03 bf 2b 82 5a be ad 30 5c bd
       0.16353038 -0.51383215 -0.21338718 -0.05375736
000340 e2 5c 41 3e af 04 a2 3e 9e ba e8 be e2 c8 78 be
       0.18883088 0.31644198 -0.45454878 -0.2429538
000350 a8 57 1e 3c fe eb 9b 3e 63 2d db 3e 6f 45 a5 be
       0.009664454 0.30453485 0.42808065 -0.32279536
000360 24 94 17 be d9 59 49 3d 8a 45 a3 3e 57 3d e7 3e
       -0.14802605 0.04915795 0.31888992 0.45163986
000370 cf b0 5c be 66 8c aa bd d4 10 3d 3e e3 b9 c1 3e
       -0.21551822 -0.0832756 0.1846345 0.37837133
000380 28 6c f5 3e 14 b9 5e be dc 1b bd bd 3a dd 29 be
       0.4793408 -0.21750289 -0.092338294 -0.16588297
000390 66 66 79 be 0b 2e 04 be d1 ba 36 be 21 e9 2e 3d
       -0.24355468 -0.12908189 -0.17844702 0.042702798
0003a0 bc 3c 20 3d ae 07 9e bd e7 be a1 3c e3 a2 67 be
       0.03912042 -0.077163085 0.01974435 -0.2262073
0003b0 de 79 f7 3b e5 56 54 3d 00 0a 27 3c f9 83 5c 3e
       0.0075523695 0.05184068 0.010195255 0.21534719
0003c0 0f 58 9e be b2 23 27 be a4 08 68 3d f2 b8 c2 3d
       -0.30926558 -0.1632221 0.056648865 0.09507932
0003d0 e8 bf bb 3e 91 1d 53 be 00 75 02 be e9 b3 70 3b
       0.3666985 -0.20616747 -0.12739944 0.0036728329
0003e0 5c df da 3d e5 81 ad 3e 8a c0 2f be 0d fd 98 bd
       0.10687134 0.33888164 -0.17163292 -0.074701406
0003f0 19 4c c3 3d 9d 43 57 3e 0b a0 6c 3e c5 a8 c7 3c
       0.09535999 0.21021886 0.23107927 0.024372468

conv2.bias f4 [64]
000000 26 3d aa 3d 1d 40 45 bf 21 9f 99 be 2f 62 e5 3d
       0.083124444 -0.77050954 -0.30004218 0.11200368
000010 0b 9e 9c 3e b2 df fe be e5 30 b2 be ca 2a c8 be
       0.30589327 -0.4978004 -0.3480293 -0.39095145
000020 94 80 04 3f c6 3d 0f 3f 86 14 ac 3e 11 1e 0f 3e
       0.51758695 0.55953634 0.33609408 0.13976313
000030 7c c1 e2 3e ec dd 0a 3f 79 8a 38 3f 9c 8b a6 be
       0.44288242 0.54244876 0.7208629 -0.32528389
000040 53 fc 0d bf b3 6f fb 3d ca da 1a bf e3 c0 8c be
       -0.5546314 0.12277164 -0.60490096 -0.2749091
000050 12 2a c3 bc ca 82 e8 be ce 19 55 be 2a 8a 0d bf
       -0.023823772 -0.45412284 -0.20810625 -0.55288947
000060 5b a5 f2 3d ac e3 02 3f fc 1a 13 bf 21 b8 89 be
       0.11847945 0.5112865 -0.5746305 -0.26898292
000070 3c e7 ca 3e aa c1 fb 3c 52 2e 9f 3d 54 4e 6d bd
       0.39629543 0.030731995 0.07772507 -0.057936028
000080 23 2f 13 bf a8 fc 89 bd 0a f6 4b bf 66 0f 86 be
       -0.574938 -0.067376435 -0.796723 -0.26183623
000090 52 08 b3 be 3b f0 99 3e 7c fc c6 bd 17 c2 a0 be
       -0.34967285 0.30066094 -0.09716126 -0.3139808
0000a0 d7 0d ed be 21 69 ab bd 4f 32 9a be a8 2b e4 3d
       -0.4629962 -0.08369661 -0.30116507 0.11141139
0000b0 e9 ca 95 3e 09 88 a1 3e b1 df ca 3e 58 7f 73 3d
       0.2925637 0.315491 0.39623788 0.059447616
0000c0 8b 5f 25 3e e7 9a 84 be c6 a2 87 3e 57 89 03 be
       0.16149728 -0.2589943 0.26491374 -0.1284536
0000d0 2e 31 d8 3e 9f 1d 01 bf ad 28 14 3e 2b 7e 80 3c
       0.4222502 -0.50435823 0.14468642 0.015685162
0000e0 69 fc 18 3f 55 dc 8e be 0c 06 41 3e db 54 7a 3e
       0.5976015 -0.27902475 0.18849963 0.24446432
0000f0 49 66 b8 bd 73 66 31 3e 8e 1f 20 be 24 af a7 be
       -0.09003884 0.17324238 -0.15637037 -0.3275081

conv22.weight f4 [32, 64, 5, 5]
000000 29 ff e3 3a 4c 3c 8c 3d 68 5f 0e 3e 44 bd 27 bd
       0.0017394769 0.06847438 0.13903582 -0.040951982
000010 90 64 3b be 77 38 71 3e 42 06 2d 3e 52 82 30 3e
       -0.1830008 0.23556696 0.16896918 0.17237213
000020 4f e3 a0 bc af bc 45 be 63 4a 82 3e 54 42 bc 3e
       -0.01963964 -0.19310258 0.25447378 0.36769354
000030 fd b7 d2 3e 94 c2 3a 3e fe 1a 76 bd 1e f0 b2 3d
       0.41155997 0.18238288 -0.060084336 0.08737205
000040 ef e0 97 3e b9 a4 ea 3e 28 47 8d 3e ce 14 de bd
       0.29663798 0.45828798 0.2759335 -0.10843812
000050 3d 4a e2 be 5b 37 d1 be 5d bb 61 be d7 0b 51 be
       -0.44197264 -0.40862545 -0.2204413 -0.20414673
000060 fb 06 93 be c7 7a 98 3d 82 aa 20 3d 5a bb 0b 3e
       -0.28716263 0.07445293 0.03922511 0.13645688
000070 a1 9d 23 3e 81 f8 ac 3c f0 b1 31 3e 11 57 3b 3e
       0.159781 0.02111459 0.17353034 0.18294932
000080 d6 47 a8 3e 4f 6a dc 3e 98 9d 9b 3e 28 0c da bd
       0.32867306 0.43049857 0.30393672 -0.1064685
000090 25 ce 4b be bc 3e 0a be 0b de 5c 3d 2f 57 14 3c
       -0.19902857 -0.13500494 0.053922694 0.009053989
0000a0 b5 08 9b be 3d eb d0 be 7d 6d e9 be 00 75 b6 be
       -0.3028008 -0.40804473 -0.45591345 -0.3563614
0000b0 22 8f b0 be a8 c6 f4 bd a5 77 2d be bb 31 2e be
       -0.34484202 -0.11951953 -0.16940172 -0.17011158
0000c0 06 1a 0f be 06 d9 de bd c8 bc 08 be e6 6a cb bd
       -0.13974771 -0.10881238 -0.13353264 -0.09932499
0000d0 1d 66 0c be 6c 47 83 3d 19 c5 31 3c 85 9b ce bd
       -0.13710828 0.06410107 0.010850214 -0.10088257
0000e0 e8 71 e8 bc 13 55 4e bd 33 28 b5 3d e1 d3 76 3d
       -0.028374627 -0.0503741 0.08845558 0.060260657
0000f0 fd 8b 0f 3e fa 01 f5 3d 53 8f dd 3d fd 56 54 3e
       0.14018245 0.119632676 0.108183526 0.20736308
000100 10 7b 15 3e 06 98 22 bd 39 9f 67 be a3 b2 95 be
       0.14597726 -0.039695762 -0.22619332 -0.29237852
000110 43 16 24 bd ef 77 52 3c 0d fc 2f 3e 4a d3 43 3d
       -0.040060293 0.012845977 0.17185993 0.047808923
000120 11 88 46 be 9b 93 4a be 1e de e9 bd 77 34 89 be
       -0.19387843 -0.1978287 -0.114193186 -0.2679784
000130 82 6c 8f bc d7 74 6a 3d 21 bb de bd 3c ff 77 be
       -0.017507795 0.057240333 -0.10875536 -0.24218458
000140 c3 2b fb 3d 10 22 79 3e ec f2 5a 3e f3 de f0 3d
       0.12264206 0.243294 0.2138173 0.11761274
000150 42 bb 30 3b da 3d fe bd 26 0e 4e be 9a 0a 3b be
       0.0026967083 -0.12414141 -0.20122585 -0.18265763
000160 9f 71 4e be a7 46 65 bd 58 f3 ef bc cb cb 02 3c
       -0.2016053 -0.055975582 -0.02929084 0.007983158
000170 43 ba 62 3d 1f ed 8e 3d af 5e 1f 3e 4b b3 6f 3e
       0.055353414 0.06978821 0.15563463 0.23408239
000180 1e 34 59 3e a6 b6 91 3e f3 76 8f 3e f8 29 51 3e
       0.21211287 0.28459662 0.2802044 0.20426166
000190 ba 7e 9e be 95 ca 89 be 6e 23 ca be dc 50 96 be
       -0.3095606 -0.2691237 -0.39480156 -0.29358566
0001a0 4c ec d4 bd 2d 40 3d bd 35 28 d5 bd 58 e5 5f be
       -0.103966326 -0.04620378 -0.104080595 -0.21864831
0001b0 de 49 2d be 4a 61 25 be e7 3e 20 3e 86 3e 97 3c
       -0.1692271 -0.16150394 0.15648995 0.01846243
0001c0 1d 70 b3 bc bb fa 1a 3e 99 a4 95 3e 58 7e a0 3e
       -0.021904046 0.15134709 0.2922714 0.31346393
0001d0 2c 68 51 3e e2 0a f8 3d fd 32 38 3e 2f b1 d3 3e
       0.20449895 0.12111451 0.179882 0.41346118
0001e0 90 62 ac 3e c7 d5 3a 3e ed 76 00 bd 27 7f 8f bd
       0.33668947 0.18245612 -0.031363416 -0.07006674
0001f0 0f 3c 1c 3e a5 22 86 3b 3a 98 82 bd 09 e1 95 be
       0.15257286 0.0040934854 -0.06376691 -0.2927325
000200 fe d8 50 be 63 08 ce bc a2 19 7b be 30 11 64 be
       -0.20395276 -0.025150483 -0.24521497 -0.22272182
000210 3a e2 5f be 7d 1f fd bd 36 33 d2 3c a7 c4 4b be
       -0.21863642 -0.123595215 0.025659185 -0.19899236
000220 ae e6 b9 bd 3f bb 54 3c 94 74 ba bd 1e 94 c0 bc
       -0.09077202 0.012984096 -0.09104267 -0.023508128
000230 4e ed 02 be 3b 0c 9f bd cb e8 00 bd bc 79 b3 bd
       -0.12785837 -0.07766005 -0.03147201 -0.08763453
000240 41 0d 31 3d e7 97 29 bd 4b 7d b0 bc 3f ab 04 be
       0.04322553 -0.04140463 -0.02154412 -0.1295595
000250 12 7e 42 be 08 2b 98 3b f1 c5 9a bd 7a ad 53 be
       -0.18993405 0.0046438016 -0.075572856 -0.20671645
000260 3d 8b ef bd 6b 8f 0b be 25 1c 98 be 4b bb 17 3e
       -0.116964795 -0.13628928 -0.29708973 0.1481754
000270 b8 41 c0 3d a4 ad 14 3e ab b8 62 3e 92 4d fb 3d
       0.09387535 0.14519364 0.22140758 0.12270655
000280 9b fe 88 bd eb 8f 7d bd 94 0f f0 3c 5b a9 96 3d
       -0.06689187 -0.06190483 0.029304303 0.07356521
000290 af 30 c2 bc 42 27 c7 bd 08 48 d2 bd 4e 55 e2 bd
       -0.023704855 -0.09724285 -0.10267645 -0.11051427
0002a0 6d 74 55 bd f5 26 a3 bd 54 f4 1e be 8f 4f a3 bc
       -0.052112985 -0.07966415 -0.15522891 -0.019935397
0002b0 8a f7 1a bd 72 a5 9a 3d fa 9b 91 3c d0 08 c0 bd
       -0.037833728 0.075510874 0.01777457 -0.09376681
0002c0 c3 f7 15 be 46 1c 36 be 01 e3 76 be 57 73 28 be
       -0.14645295 -0.17784223 -0.24110033 -0.16450249
0002d0 3e 3a d4 bd 37 66 00 be 5f cd 05 be 37 4d 26 be
       -0.10362671 -0.12538992 -0.13066624 -0.16240393
0002e0 a4 13 a4 bd bb ee 96 bd 50 04 81 3d 9e 6e f2 3d
       -0.08011559 -0.07369753 0.06299651 0.11837505
0002f0 9d 3a 56 3d 0b 96 f3 bb 5a 40 bc bd ec 43 51 3c
       0.05230199 -0.007433658 -0.091919616 0.0127725415
000300 af bc d2 3d 58 f6 f2 3c 00 46 f5 bb 34 e3 c3 bd
       0.10289895 0.029658481 -0.0074851513 -0.0956482
000310 42 2d b6 bd 9d 35 d7 bd 26 a3 eb bd 8f 82 f6 bd
       -0.08895351 -0.10508273 -0.115057275 -0.12036621
000320 3e 65 fc be 02 f1 8b be c5 0d 04 bf af d7 ea be
       -0.49295992 -0.27332312 -0.5158351 -0.4586768
000330 04 dd a5 be 95 3c 5f be d3 9d 6b 3d 13 5b 09 be
       -0.32395184 -0.21800454 0.05752356 -0.13413648
000340 28 1c b4 be 80 d0 9f be 86 c0 7f bd 1c ef ad 3e
       -0.35177732 -0.3121376 -0.062439464 0.33971488
000350 f9 14 86 3e d4 a5 cd 3d f2 6c 62 bd 2e 7c 00 be
       0.26187876 0.10041395 -0.05527968 -0.12547371
000360 34 3d a8 bb df ef 19 3e 36 20 13 3e 42 85 c7 3d
       -0.005134249 0.1503291 0.14367756 0.09742214
000370 77 fe 14 be 84 b1 91 be a4 29 e1 bd 3b 51 4a bd
       -0.14550196 -0.28455746 -0.109942704 -0.049393874
000380 82 1d 2e 3e 27 d8 b1 be 8b 60 ac bd 59 cc 7a 3d
       0.17003444 -0.34735224 -0.084168516 0.061230037
000390 b0 66 0d 3e c3 4c cf 3d e8 1a 35 be 0b 8a e7 3c
       0.13808703 0.10122063 -0.17686045 0.028264066
0003a0 6e 76 86 3e 2f 30 f1 3e 72 2f cd 3e 79 a2 3c be
       0.2626223 0.47107074 0.4007526 -0.18421353
0003b0 d0 7a 6f be 3f d1 38 be ec 56 32 3d 95 cd 46 3e
       -0.23386693 -0.18048571 0.043539926 0.19414361
0003c0 4f ec 0d 3e d9 81 47 3c 3d b0 12 bd b6 23 69 3d
       0.13859676 0.012176954 -0.035812605 0.056918822
0003d0 93 0d 82 3e a2 2c 22 3e aa 9e 88 3d 6b 70 27 bd
       0.2540098 0.15837339 0.06670888 -0.040878695
0003e0 54 bb 7e bd cd 5f ba 3d 7b f2 67 3d 75 81 f7 3d
       -0.06219037 0.09100304 0.05662773 0.12085239
0003f0 42 60 fb 3d 94 af 69 3e 89 7d 2f 3e e3 2c 25 3e
       0.12274219 0.22820884 0.17137732 0.16130404

conv22.bias f4 [32]
000000 2e b1 93 3c 04 5c 6f 3c 2d ca 7a bc 45 12 1c 3c
       0.018028822 0.014609341 -0.0153069915 0.00952584
000010 6c 40 65 bc 09 24 02 3c 3a be 1e bc 33 71 ab 3c
       -0.01399241 0.007943162 -0.009688908 0.020928001
000020 0d 7a 9d 3c b3 5a 70 bc 7d 03 2c 3b f4 52 3c 3c
       0.019223237 -0.014670062 0.0026247196 0.011494387
000030 a2 9a db bb de 0f 86 3c 8e 9a f3 3b b8 d3 ea bb
       -0.0067017833 0.016364988 0.007434196 -0.007166352
000040 84 6d 39 bb 00 8f 84 3c 5f 37 cf 3a 1c b8 4d bc
       -0.0028294036 0.016181469 0.0015809349 -0.012556102
000050 61 ae bb 3b 95 c7 51 3c aa 2f be bc 5d 66 c5 3c
       0.0057275747 0.012803932 -0.023216087 0.024096662
000060 e7 b4 4e 3c f5 2d 61 bc de 6b 89 bc f6 de 82 3c
       0.012616373 -0.013743867 -0.016775068 0.015975457
000070 be 68 28 bc ce f3 ab bb b2 d9 0d 3c e1 47 da 3b
       -0.010278879 -0.0052475696 0.00865786 0.0066614007

batch2.weight f4 [32]
000000 a4 50 3a 3f 48 be 4c 3f 8e b1 74 3f 90 0d 6a 3f
       0.727793 0.79977846 0.95583427 0.91426945
000010 0b 7e 62 3f cf 3f 38 3f e9 92 81 3f 51 9b 47 3f
       0.88473576 0.71972364 1.0122958 0.7797137
000020 54 38 8c 3f dc 8f 49 3f 91 84 62 3f 9d 72 4b 3f
       1.095469 0.78735137 0.8848353 0.7947176
000030 2a 8c 64 3f 9b 67 30 3f 14 1d 87 3f 97 02 5a 3f
       0.89276373 0.6890809 1.0555749 0.851602
000040 02 71 81 3f d4 26 5f 3f f4 9f 77 3f 7e 83 70 3f
       1.0112612 0.8716862 0.96728444 0.9395064
000050 6d 50 5d 3f 26 d2 58 3f 0a 6f 76 3f 86 a3 43 3f
       0.86450845 0.8469566 0.9626318 0.7642139
000060 e9 e2 59 3f fb bb 83 3f 91 b6 56 3f fb ea 88 3f
       0.8511186 1.0291742 0.83872324 1.069671
000070 62 ef 4b 3f 84 b8 50 3f 2a 40 45 3f 7a 9d 7b 3f
       0.79662144 0.8153155 0.7705103 0.98287165

batch2.bias f4 [32]
000000 90 fa 1b bf 15 41 01 bf 00 aa 3a bf 59 92 05 bf
       -0.60929203 -0.5048993 -0.7291565 -0.52176434
000010 88 68 bb be ae fa c2 be 46 da 4d bf 84 05 05 bf
       -0.3660319 -0.38081878 -0.80411184 -0.5196154
000020 21 95 42 bf 88 1b 02 bf 33 22 03 bf be 96 17 bf
       -0.760088 -0.5082326 -0.5122406 -0.5921439
000030 30 67 cd be 09 4e ea be be c3 2f bf 5c 2b 09 bf
       -0.40117788 -0.4576266 -0.68658054 -0.53581786
000040 9a 80 12 bf c2 03 25 bf 3c 4b 29 bf c1 f2 1c bf
       -0.5722748 -0.6445886 -0.66130424 -0.61307913
000050 48 08 0f bf de fa c1 be 56 e0 00 bf 91 6a 08 bf
       -0.5587201 -0.3788671 -0.5034231 -0.5328761
000060 cc 5b 0a bf 24 e0 fd be f5 9d dc be 7c bd 42 bf
       -0.5404632 -0.49585068 -0.43089262 -0.7607038
000070 ab 9a 03 bf 7b 0b 57 bf 6f d3 d4 be 3f f4 13 bf
       -0.5140788 -0.8400189 -0.4156756 -0.57794565

batch2.running_mean f4 [32]
000000 c1 ba 5b c2 b8 a4 c6 c2 4b 9f 6e c3 81 85 1f c3
       -54.932377 -99.32172 -238.62224 -159.5215
000010 d6 a0 06 c3 2f 20 29 c2 b7 a9 72 c3 01 84 54 c3
       -134.62827 -42.28143 -242.66295 -212.51564
000020 76 ab 5e c3 97 9c 52 c3 4e a2 3d c3 8a 47 cf c2
       -222.66977 -210.61168 -189.634 -103.639725
000030 f8 ae 74 c3 d1 ed 1f 42 4e 61 89 c3 a8 d9 2a c3
       -244.68347 39.982243 -274.7602 -170.85022
000040 15 74 81 c3 82 b3 74 c3 10 e1 8f c3 8a 11 30 c3
       -258.9069 -244.7012 -287.7583 -176.06851
000050 f6 df 20 c3 c3 27 61 c3 e1 60 57 c3 2e a8 32 c3
       -160.87485 -225.15532 -215.37843 -178.65695
000060 72 37 3d c3 fd 03 76 c3 79 21 3d c3 e1 ce 6e c3
       -189.21658 -246.01558 -189.13075 -238.80812
000070 f3 20 e6 c2 61 da 0a c3 ef 80 41 c3 dd d3 52 c3
       -115.064354 -138.85304 -193.50365 -210.82759

batch2.running_var f4 [32]
000000 f8 1b f1 46 2f 28 0b 47 0a ef 72 47 fd c4 5a 47
       30861.984 35624.184 62191.04 56004.99
000010 86 6c 43 47 96 79 20 47 bc a6 69 47 c0 1c 35 47
       50028.523 41081.586 59814.734 46364.75
000020 29 2c 94 47 f9 d3 23 47 e9 94 18 47 4a 6b 2b 47
       75864.32 41939.973 39060.91 43883.29
000030 1c db 8d 47 f0 1e 14 47 dd 52 81 47 f0 68 46 47
       72630.22 37918.938 66213.73 50792.938
000040 88 69 5d 47 e5 12 28 47 be ea 94 47 51 6f 32 47
       56681.53 43026.895 76245.484 45679.316
000050 ea 86 4c 47 17 d7 68 47 ca ca 8f 47 4b e0 04 47
       52358.914 59607.09 73621.58 34016.293
000060 ff c3 26 47 8e 7f b7 47 4e d0 91 47 b1 c2 69 47
       42691.996 93951.11 74656.61 59842.69
000070 60 ed 05 47 26 5d 0c 47 f0 07 36 47 13 93 69 47
       34285.375 35933.15 46599.938 59795.074

conv3.weight f4 [16, 32, 5, 5]
000000 31 eb 74 3e 91 3e d3 3e 43 53 60 3e 72 04 d6 3c
       0.23917843 0.41258672 0.21906762 0.026125167
000010 d3 dd 02 3e 3d fb 04 be d3 a1 a7 3c f2 82 30 bd
       0.12779932 -0.12986465 0.020462906 -0.04309363
000020 44 bd 7d be c4 53 8f be 23 2d c2 be b6 52 2f be
       -0.2477923 -0.27993596 -0.37925062 -0.17121395
000030 28 95 13 be 83 97 31 be 91 d5 a4 be ae 94 38 bd
       -0.14412367 -0.17342953 -0.32194188 -0.045063667
000040 a6 dd 12 bd 0b cf 69 bc be 27 33 bd a2 8e d7 be
       -0.03585591 -0.014270554 -0.043739073 -0.42101008
000050 8a f7 61 be 17 f0 90 be d5 2c 1f bd 31 ca 41 3c
       -0.22067085 -0.28308174 -0.038861115 0.011827991
000060 13 00 df bd 94 93 4d be 4d 9c 26 bd fb bf 2c 3c
       -0.10888686 -0.20075828 -0.040676404 0.010543819
000070 f6 29 0f be 5f 14 a4 be b7 3d 8f be 0c be 88 bc
       -0.1398085 -0.32046792 -0.27976772 -0.016692184
000080 be ba 19 3e 0b 99 8f bc 1a 91 3e be 4a 74 5f 3c
       0.15012643 -0.017529031 -0.1861004 0.013638565
000090 93 35 b9 3b 70 c1 47 bd 53 0a 04 be 81 03 03 bd
       0.0056521385 -0.04876846 -0.12894563 -0.031985763
0000a0 67 7a 7b 3e 94 18 35 3e 88 d3 c0 3c 09 e4 a6 bd
       0.24558412 0.17685157 0.023538366 -0.08148963
0000b0 5e d2 91 3d 36 0d b3 bd 81 c7 19 be d6 36 a0 bc
       0.071202025 -0.08742754 -0.15017511 -0.019557398
0000c0 e5 b5 ca 3c 19 3f 0c 3e a3 a7 ca be db ed 12 bf
       0.024744937 0.13695945 -0.39581022 -0.5739419
0000d0 fc b5 e5 be e6 5e 5b be 42 35 c6 bc 3a a3 85 be
       -0.44865406 -0.2142292 -0.024195317 -0.26101094
0000e0 6e 6b f7 be 32 b6 63 be 3a d2 24 be 2e cc 36 bc
       -0.4832415 -0.22237471 -0.1609582 -0.011157079
0000f0 a4 0d 92 bd cd 18 a4 be 56 24 cd bd 91 e0 ce 3d
       -0.07131508 -0.32050171 -0.10016696 0.101014264
000100 b2 7a 90 3e 13 98 8c be b8 f5 c4 be 66 ee 77 be
       0.2821861 -0.27459773 -0.3846872 -0.24212036
000110 f2 a6 f4 3c 53 3a 4e 3e fb 43 58 be 5a e8 b7 bd
       0.029864762 0.20139436 -0.21119682 -0.089798644
000120 00 2e ed 3d 88 74 24 3e 22 26 c7 3d 1b 22 02 3e
       0.115810394 0.16060078 0.0972407 0.12708323
000130 78 25 d3 bd f3 51 9b bd fd 43 8a 3c 83 d5 82 3e
       -0.10309881 -0.0758399 0.016878122 0.25553522
000140 78 43 00 bd 46 6c de bd dc 9b d8 3d 1d 87 28 3e
       -0.031314343 -0.10860495 0.10576603 0.16457792
000150 d2 15 be 3e 6c 01 cf bd b8 6a c0 bd 83 1d 57 3e
       0.37126023 -0.10107693 -0.09395355 0.21007352
000160 a4 b0 4a 3e 9c 33 8b 3e 3d ba 9e be f2 5d 5a be
       0.19793946 0.27187812 -0.31001464 -0.213249
000170 17 22 19 3e d2 78 12 3e a2 0c 50 3d 01 01 21 be
       0.1495441 0.14303902 0.050793298 -0.15723039
000180 3b d7 8a 3d d4 12 84 3e c2 e9 e9 3d 7d 92 9a bc
       0.06779333 0.25795615 0.11421539 -0.01886868
000190 e8 b7 65 3d a0 18 4e be 18 02 27 be e7 33 d5 be
       0.05608359 -0.20126581 -0.16309392 -0.4164116
0001a0 7f 14 fe be d0 45 99 3e e5 e9 97 bd 1d 2e 21 bc
       -0.49625012 0.29936075 -0.07417659 -0.009837654
0001b0 f7 50 aa be 52 85 2a be 84 16 15 3e 03 ce 7b be
       -0.33264896 -0.1665242 0.1455937 -0.24590306
0001c0 5c 86 ad be 86 aa a1 be 3b 52 f1 3d 1b 1d 60 3e
       -0.3389157 -0.31575412 0.11783262 0.21886103
0001d0 67 d9 20 bc 75 12 b9 bd ed 77 e3 bd 96 34 c4 3e
       -0.009817458 -0.090367235 -0.111068584 0.3832137
0001e0 7b f8 91 3e 95 1d 34 3e f3 cf 67 3e b0 14 39 3e
       0.28509888 0.1758941 0.2263792 0.18074298
0001f0 67 54 d6 3e 0f 9e 5f 3e ee d3 60 3e b8 bd 35 3e
       0.4186127 0.21837638 0.21955845 0.17748153
000200 cc 6b fa 3c 0e 3b 3d 3d 1c c2 1a bd 40 d9 e1 3b
       0.03056898 0.046198897 -0.037782773 0.0068923533
000210 da 72 e1 3c 28 d8 7d be 92 48 b6 be 0d 50 82 be
       0.027520586 -0.24789488 -0.35602242 -0.254517
000220 4a 19 e6 bd d2 19 dc bb 84 c8 21 be 2a b1 a9 be
       -0.11235292 -0.006716945 -0.15799147 -0.33142978
000230 e5 bb a0 3d e7 bc 2e 3e a6 4d 0e 3e dc 0d e3 bd
       0.07848338 0.17064248 0.13896808 -0.11086628
000240 6c d9 92 be 3c 4c 77 bd 6c 76 88 3d a6 39 59 3d
       -0.28681505 -0.060375437 0.06663212 0.053033493
000250 ee 3b 02 be 97 99 28 be 3a c3 76 bd e6 a0 0b be
       -0.12718174 -0.1646484 -0.060244776 -0.13635597
000260 34 55 71 be c3 73 b1 be 8c 35 9f bd 79 e2 93 bc
       -0.23567659 -0.34658632 -0.07773885 -0.018052327
000270 6a ef d6 bd 5e 69 3a be b5 97 5a be eb 8e 91 bc
       -0.10494883 -0.18204257 -0.21346934 -0.017768344
000280 e8 79 01 3b 43 21 e7 bc 1d 30 a4 bd 89 33 fb bd
       0.00197565 -0.028214103 -0.080169894 -0.12265689
000290 b7 0a 84 bd 20 1f 9c be 40 05 9a be 5a 8e 5f be
       -0.06447356 -0.30492496 -0.3008213 -0.21831647
0002a0 c6 40 5c be 7e e0 26 be bd 3f b6 be 3c 71 ae be
       -0.21509084 -0.16296574 -0.35595503 -0.34070766
0002b0 22 1d f8 bd 9e 10 1f be 2f 1d 38 bd e5 67 e3 be
       -0.12114932 -0.15533683 -0.044949707 -0.44415203
0002c0 64 f6 89 be 4c b7 64 bd 16 be d9 ba 6c 89 24 3e
       -0.26945794 -0.055838868 -0.0016612436 0.16068047
0002d0 52 32 f3 be b0 1a eb be a5 83 93 be 69 a5 fb bd
       -0.4749933 -0.45918798 -0.28811374 -0.12287409
0002e0 1a 52 3d 3c 07 5b 7c be 16 41 c2 be 60 b2 8a be
       0.011555219 -0.24644099 -0.37940282 -0.27089214
0002f0 c8 ab 02 be e8 10 27 3e 89 73 23 3c e7 15 73 be
       -0.12760842 0.16315043 0.009976276 -0.23738824
000300 1e 36 81 be 1d 50 03 be b8 75 3d 3e d6 b0 04 3e
       -0.252366 -0.1282353 0.18501937 0.12958083
000310 a3 42 1a be 44 ef 47 3d 9d 9d 02 3e 88 44 60 3e
       -0.15064482 0.048812166 0.12755437 0.21901143
000320 9a 47 92 3e 7c 6c 94 bd fb 13 d2 3d e7 b8 53 3e
       0.28570253 -0.07247254 0.10257717 0.20676003
000330 2c 39 97 3d ea 29 cc 3d f3 2f a4 bd b3 af 52 3d
       0.073839515 0.09968932 -0.08016958 0.05143709
000340 31 30 68 3c 50 a0 01 be d7 6f 6e bc 62 82 76 bd
       0.014171646 -0.1265881 -0.014553032 -0.060182936
000350 b7 d3 78 3d 53 60 37 bd 72 88 d2 bd 94 c7 18 be
       0.060748782 -0.044769596 -0.10279931 -0.14919883
000360 39 f6 65 bd 49 25 cc 3d cf 62 4b bc 01 fb 5c bd
       -0.05614302 0.09968049 -0.0124136945 -0.053950313
000370 74 d0 95 be ff 82 8b bc 9e c7 58 3e bf bd d8 3c
       -0.292606 -0.017030237 0.21169898 0.026457665
000380 c4 ad 9d bd 9d 62 bd 3c 86 16 38 be e4 a5 53 be
       -0.07699159 0.023118312 -0.17977342 -0.20668751
000390 bc 15 8a bd 96 95 0f be 56 18 79 be 4e 44 0b be
       -0.06742427 -0.14021906 -0.2432569 -0.13600275
0003a0 27 12 01 be 06 71 32 be 1b bd 21 be 85 14 47 be
       -0.12604581 -0.17425928 -0.15794794 -0.19441421
0003b0 c8 70 ae 3c 1f 6d 0e be ff b0 8f be b2 64 25 bb
       0.021294013 -0.13908814 -0.28064725 -0.002523702
0003c0 8e c3 05 be 66 fc 01 3e 46 49 95 3d 1e d7 73 bd
       -0.1306288 0.12693939 0.072893664 -0.059531324
0003d0 2f 5c 6c 3e 48 cc 96 bc dc 16 e0 3d cc 47 0a 3e
       0.2308204 -0.018407956 0.1094186 0.13503951
0003e0 f6 0f c6 3d 60 f9 80 3e 3f bc dc bb 7a a6 07 bd
       0.09671013 0.25190258 -0.006736308 -0.03311775
0003f0 66 1f 38 3c dd 61 c4 3d c2 59 8c 3d 2e 2c ee bd
       0.011237955 0.095889784 0.068530574 -0.1162952

conv3.bias f4 [16]
000000 44 2c bd 3e d2 1d 0c 3e 98 90 a8 bd 43 f4 00 be
       0.36947834 0.1368325 -0.08230704 -0.12593178
000010 e2 65 84 3d 47 be fa bd 97 21 db 3e 4d b9 90 3e
       0.06464745 -0.12243324 0.42799065 0.28266373
000020 7b c0 0e 3f df c4 ff be a8 e7 21 3f 8d 6c 93 3c
       0.5576245 -0.49954888 0.63244104 0.017996097
000030 8e 28 b7 3e 03 2f b7 3e f8 22 fa be fe 67 34 be
       0.35773128 0.35778055 -0.48854804 -0.17617795
