models/net_new_bs64_dr0_2_adam_augm/model_epoch_59.pt (torch, 763336 bytes, 28 tensors)

conv1.weight f4 [8, 3, 5, 5]
0	0x3de7110d	0.11282549
1	0x3dc1ed2c	0.09469065
2	0xbe0fd39b	-0.14045565
3	0x3e4c8f60	0.19976568
4	0xbd1c28f3	-0.03812499
5	0x3e155479	0.14583005
6	0xbd099f23	-0.03359903
7	0x3e7a0b3a	0.24418345
8	0x3f0636d1	0.52427393
9	0xbe45fa55	-0.19333775
10	0x3bdd2ecf	0.006749965
11	0xbcb35ff3	-0.021896338
12	0x3e7046e9	0.2346455
13	0x3ea70273	0.32619056
14	0x3d8f52e5	0.06998233
15	0xbe5c1cc2	-0.21495345
16	0xbdd9b999	-0.10631103
17	0xbe3d28c9	-0.1847259
18	0xbdc3e292	-0.09564699
19	0x3de76d9c	0.11300203
20	0xbe4acfca	-0.19805828
21	0xbe88e30b	-0.2673572
22	0xbe8537e1	-0.26019195
23	0xbc0d09de	-0.00860831
24	0xbd097603	-0.03355981
25	0xbdc49c61	-0.096001394
26	0xbdfdaca8	-0.12386447
27	0xbe80d572	-0.25162846
28	0x3d81b06b	0.06332477
29	0xbe1a4f3c	-0.15069288
30	0x3e80262d	0.25029126
31	0xbdd07a75	-0.10179607
32	0x3e3e53b1	0.18586613
33	0x3e8ec6d3	0.27886066
34	0xbeacd4c2	-0.3375607
35	0x3e27f427	0.1640173
36	0x3e35e3d3	0.1776269
37	0x3e9d888f	0.30768248
38	0x3e1f628f	0.15564941
39	0xbe8406eb	-0.25786528
40	0x3df32900	0.118730545
41	0x3e142fc2	0.14471343
42	0x3da9d788	0.082930624
43	0x3d4c708e	0.049912028
44	0x3d399991	0.045312468
45	0x3a9dd20f	0.0012040752
46	0x3db84fed	0.0899962
47	0x3ce0d68e	0.027446058
48	0x3c995b9a	0.018720437
49	0xbda032af	-0.07822167
50	0xbe45e331	-0.19324948
51	0xbe1358f8	-0.14389408
52	0xbea7c310	-0.32766008
53	0x3dcc1b18	0.09966105
54	0x3de8aa8d	0.11360655
55	0x3dcf7bc6	0.1013103
56	0xbdac955f	-0.08426928
57	0xbdf0be68	-0.11755067
58	0x3e2cddef	0.16881536
59	0xbe9bf83e	-0.3046283
60	0x3dbae418	0.09125537
61	0x3b303d08	0.0026891846
62	0x3cecc357	0.028901739
63	0xbe0441c0	-0.12915707
64	0xbe4b8b62	-0.19877389
65	0x3e15bdb2	0.14623144
66	0x3ea47cae	0.32126373
67	0xbdfdd12b	-0.12393411
68	0xbe9123e1	-0.28347686
69	0xbe05c806	-0.13064584
70	0x3e9f681d	0.3113412
71	0x3e6cd0d0	0.2312653
72	0x3e3cef2a	0.18450609
73	0xbe244efa	-0.16045752
74	0xbe02dc82	-0.1277943
75	0xbe48d20e	-0.1961138
76	0xbe49846d	-0.19679423
77	0x3e9e1695	0.30876604
78	0x3edd816a	0.43262798
79	0x3e5ff730	0.21871638
80	0xbe8505a8	-0.25980878
81	0xbea2256d	-0.3166918
82	0x3de833b0	0.113379836
83	0x3f03a186	0.5141834
84	0x3f221fc9	0.6332975
85	0xbea5daed	-0.3239359
86	0xbe979197	-0.29603264
87	0xbe1f7605	-0.15572365
88	0x3e750dd0	0.2393105
89	0x3f09c3cc	0.5381439
90	0xbe10d01b	-0.14141886
91	0xbee6d82f	-0.4508681
92	0x3e22dbbc	0.15904135
93	0x3e129671	0.14315201
94	0xbda0f58e	-0.07859336
95	0xbdf7fe8a	-0.12109096
96	0xbe2cedf3	-0.16887645
97	0xbd836f96	-0.06417768
98	0xbd669df4	-0.05630298
99	0xbdd669d4	-0.10469404
100	0x3e53a66e	0.20668957
101	0x3e01098a	0.12601295
102	0x3d718b86	0.05897095
103	0xbe0b4d7c	-0.13603777
104	0xbe0bf9d7	-0.13669525
105	0x3e7ace50	0.24492764
106	0xbd47620c	-0.04867749
107	0xbeb91b8d	-0.36153832
108	0xbea7b571	-0.32755616
109	0xbda5840a	-0.08081825
110	0x3ee81b00	0.453331
111	0x3df400d4	0.119142205
112	0xbe4f6624	-0.20253807
113	0xbf0a52ca	-0.54032576
114	0xbe2bc678	-0.16774929
115	0x3ea30add	0.31844226
116	0x3d98bb5e	0.074576125
117	0x3df8d0ab	0.12149175
118	0xbe9f4e89	-0.31114605
119	0xbec3b821	-0.38226417
120	0x3e6f3558	0.23360193
121	0xbd098565	-0.03357448
122	0x3e069ba6	0.13145313
123	0xbe167247	-0.14692031
124	0xbde3b955	-0.11119334
125	0xbe2a67ea	-0.16641203
126	0xbe2610ad	-0.16217299
127	0xbdf77210	-0.120823026
128	0xbdbb675e	-0.09150575
129	0xbe7b736d	-0.2455575
130	0x3d9fadd4	0.07796827
131	0xbc2bdeda	-0.010490144
132	0xbe92f97b	-0.28705963
133	0xbdba4e7e	-0.090970024
134	0xbc306dac	-0.010768335
135	0x3d198fb8	0.037490577
136	0x3d859f6d	0.06524549
137	0xbd570b71	-0.052501146
138	0xbdd1c0b6	-0.10241835
139	0x3dfb7428	0.122780144
140	0x3e04a282	0.12952617
141	0x3cad05cc	0.021120928
142	0x3f1e76ce	0.6190003
143	0x3a6f9f55	0.0009140869
144	0xbd354b1d	-0.044261087
145	0x3d263836	0.04058095
146	0x3d457be0	0.04821384
147	0x3ed15e61	0.40892318
148	0x3e73690d	0.23770542
149	0x3d6f017b	0.05835102
150	0x3d6d724a	0.057970323
151	0xbe8c5a1b	-0.27412495
152	0x3d748bc7	0.059703615
153	0x3d389dac	0.045072243
154	0x3c65a3e7	0.014016128
155	0xbe5f811d	-0.21826597
156	0xbdcec784	-0.10096648
157	0xbd9a0972	-0.07521333
158	0x3e1e0e27	0.15435086
159	0x3d0eee55	0.03489526
160	0xbdddc45a	-0.10828467
161	0xbd4465f4	-0.047948793
162	0xbe4f8f95	-0.20269616
163	0xbd8e43a8	-0.06946498
164	0x3ea8824a	0.32911903
165	0xbe8fd1c9	-0.2808974
166	0xbee516d8	-0.4474399
167	0x3ee31a12	0.44355828
168	0x3f0af6d6	0.5428289
169	0x3ce2d7ea	0.027690846
170	0xbe36314d	-0.17792244
171	0xbeb75c02	-0.35812384
172	0x3d459867	0.048241045
173	0x3daffca4	0.08593109
174	0xbcb8f408	-0.0225773
175	0xbdd2ec25	-0.10298947
176	0xbe9cdc88	-0.30637002
177	0x3de4554f	0.11149084
178	0x3e31add5	0.17351468
179	0xbe4d470b	-0.20046632
180	0xbdf1be3d	-0.11803863
181	0x3d830b09	0.06398589
182	0xbccb6010	-0.02482608
183	0x3ba6cea2	0.0050905505
184	0x3e196dab	0.14983241
185	0xbd3e4a97	-0.046457853
186	0x3e8c27b5	0.27374044
187	0xbdd95e7f	-0.10613727
188	0xbd716cac	-0.05894153
189	0x3e94a451	0.29031613
190	0xbe484414	-0.1955722
191	0xbe370f3c	-0.17876905
192	0x3f20bb3c	0.62785697
193	0x3f27e156	0.6557821
194	0x3d9b0d72	0.07570924
195	0xbe0d1bdc	-0.13780159
196	0xbe7f44d7	-0.24928604
197	0x3d85f89f	0.06541561
198	0x3e0ad103	0.13556294
199	0x3d3edea8	0.04659906
200	0x3e7aa063	0.24475245
201	0x3de505d8	0.11182755
202	0x3ea06140	0.31324196
203	0x3e221629	0.15828766
204	0x3d9c5aaa	0.0763448
205	0x3e2ee3de	0.17079112
206	0x3e258b61	0.1616645
207	0xbea1ef65	-0.31627956
208	0xbec37cbb	-0.381811
209	0xbda83815	-0.08213822
210	0x3f01c24e	0.5068711
211	0x3f0197ec	0.5062244
212	0xbf3241e7	-0.6963181
213	0xbf6be2fd	-0.9214323
214	0xbe750e63	-0.2393127
215	0x3f08cd8a	0.5343863
216	0x3e164cb0	0.14677691
217	0x3d587dc1	0.052854303
218	0xbe3b5bb9	-0.18296708
219	0xbee5bcd4	-0.44870627
220	0x3eb88d15	0.36045137
221	0x3e03408b	0.1281759
222	0xbe1d808e	-0.15381071
223	0xbea76247	-0.32692167
224	0xbeb54d1b	-0.3541039
225	0x3e0d4a97	0.13797985
226	0x3e39fd72	0.18163088
227	0x3e09ce0c	0.13457507
228	0xbd773148	-0.060349733
229	0xbd8b48d6	-0.06801002
230	0x3dec7edd	0.11547635
231	0x3e96f45c	0.29483306
232	0x3e987c53	0.29782352
233	0x3d9d17ef	0.076705806
234	0x3c19b070	0.009380445
235	0x3e95966b	0.29216322
236	0x3e10d256	0.14142737
237	0xbd10b95a	-0.035333015
238	0xbebae3ca	-0.36501914
239	0xbe74075e	-0.23830935
240	0x3ddebf15	0.1087629
241	0xbe7fe117	-0.24988209
242	0xbe9d82be	-0.3076381
243	0xbeff28d3	-0.49835834
244	0xbe51c388	-0.20484746
245	0xbdcf09bc	-0.101092786
246	0xbe4ac2b1	-0.19800831
247	0xbd326831	-0.043556396
248	0xbdf49352	-0.119421616
249	0x3de76a70	0.11299598
250	0xbe2692b6	-0.16266903
251	0xbe6cadd4	-0.23113185
252	0xbdb3beb7	-0.0877661
253	0xbdb5747b	-0.088601075
254	0xbdb14a5b	-0.0865676
255	0xbd94e67f	-0.07270526

conv1.bias f4 [8]
0	0xbefe8cd2	-0.49716812
1	0x3e85cf9d	0.2613496
2	0x3e548140	0.2075243
3	0x3e328c73	0.1743639
4	0xbd8a84f8	-0.06763643
5	0x3cd38cd1	0.025823982
6	0xbf1a6764	-0.6031401
7	0xbe4d149d	-0.20027395

conv11.weight f4 [32, 8, 5, 5]
0	0xbce28c71	-0.027654858
1	0xbd1a2c72	-0.037640043
2	0x3e0a2dcc	0.13494033
3	0x3d3660b5	0.04452582
4	0xbe02ebe5	-0.12785299
5	0x3de1ed02	0.11031534
6	0xbcad0895	-0.021122256
7	0x3d665b5c	0.05623947
8	0x3d2fe4ec	0.042942926
9	0xbe6d45e8	-0.23171198
10	0x3dac2f6c	0.084074825
11	0x3cff9042	0.031196717
12	0xbd8599fa	-0.06523509
13	0xbce41a5e	-0.027844604
14	0xbe286de9	-0.16448177
15	0x3e6a77e5	0.22897299
16	0xbe2be6ae	-0.16787216
17	0xbe8e1c84	-0.2775613
18	0xbcfb91b3	-0.030709123
19	0xbcbff221	-0.023430886
20	0xbdd7c7d6	-0.105361626
21	0xbed9118f	-0.4239621
22	0xbdd09fa1	-0.10186697
23	0x3e7a00ce	0.2441437
24	0x3e224f39	0.15850534
25	0x3ef0fbc0	0.4706707
26	0x3ebff034	0.37487948
27	0xbd220b9b	-0.03956185
28	0xbdbac8e0	-0.09120345
29	0xbec14b2f	-0.37752673
30	0x3f0212be	0.5080985
31	0x3e123b27	0.14280377
32	0xbea9d09a	-0.33166963
33	0xbe8bbf8b	-0.27294573
34	0xbd508d65	-0.050916094
35	0x3ef2a48d	0.47391167
36	0xbe99183b	-0.299013
37	0xbee5b4f6	-0.44864625
38	0xbdb1bdb3	-0.086787604
39	0x3dc3d0e5	0.09561328
40	0xbde8797a	-0.11351295
41	0xbebcadac	-0.3685125
42	0xbdd52940	-0.104082584
43	0xbe07841d	-0.13233991
44	0x3e8bfbbb	0.27340493
45	0xbe8ecc17	-0.27890083
46	0xbdf00ff9	-0.117217965
47	0xbdbd037e	-0.09229182
48	0xbc0bc7b0	-0.008531496
49	0x3e52a35b	0.20570128
50	0xbe79b104	-0.24383932
51	0xbce5edfc	-0.028067581
52	0xbe4d3623	-0.20040183
53	0x3d9c783a	0.07640119
54	0x3d3e15cf	0.046407517
55	0xbd988a57	-0.07448261
56	0xbe669d16	-0.22520861
57	0xbe838a11	-0.25691274
58	0x3e52c6f0	0.20583701
59	0x3e96c173	0.29444465
60	0xbe2ab306	-0.16669855
61	0xbeefb37f	-0.46816632
62	0x3d9f7911	0.077867635
63	0x3ed82019	0.4221199
64	0x3de6de2b	0.11272844
65	0xbe3dca33	-0.18534164
66	0x3e949ef8	0.29027534
67	0x3f38b46c	0.721503
68	0x3db072e0	0.08615661
69	0x3d816667	0.0631836
70	0x3e402f12	0.18767956
71	0x3ec3532e	0.381494
72	0x3dbcb5cd	0.09214363
73	0x3d18ef5c	0.037337646
74	0x3e1b62bc	0.15174383
75	0xbdb7f7d7	-0.089828186
76	0xbeaaea4d	-0.33381882
77	0xbe7971fc	-0.24359888
78	0x3d1d1535	0.038350303
79	0x3e87497d	0.26423255
80	0xbe87a3a7	-0.26492044
81	0xbe954901	-0.2915726
82	0xbda33425	-0.0796893
83	0x3ec36385	0.38161865
84	0x3e494ed1	0.19658972
85	0xbdb9adee	-0.090663776
86	0xbd178afc	-0.03699778
87	0x3e10a455	0.14125188
88	0x3e3bbbde	0.18333384
89	0x3c7957ee	0.015218718
90	0x3e12af5a	0.14324704
91	0x3e198065	0.14990385
92	0x3c9ae7bf	0.018909333
93	0xbdfb38ea	-0.12266715
94	0xbdda4d0c	-0.10659227
95	0x3e28b709	0.16476072
96	0x3d9fae5a	0.07796927
97	0xbd03981a	-0.032127477
98	0x3d1271ab	0.035752933
99	0x3de10cff	0.10988807
100	0xbdfb008e	-0.12255965
101	0x3d58c258	0.052919716
102	0x3d9fdc92	0.07805742
103	0x3b4de0bd	0.0031414472
104	0x3cdcb19f	0.026940165
105	0x3c8295b0	0.015940517
106	0x3e59752a	0.21236101
107	0x3e583442	0.21113685
108	0xbcd968e0	-0.026539266
109	0x3d502ec3	0.050825845
110	0x3e1151a2	0.14191297
111	0xbcb8e50f	-0.022570161
112	0xbce4d13e	-0.027931806
113	0x3d0064b3	0.031346034
114	0x3e2742dd	0.163341
115	0x3e25d527	0.16194592
116	0xbe09be95	-0.13451608
117	0x3da15746	0.07877974
118	0x3d70bc74	0.058773473
119	0xbe32b157	-0.17450462
120	0x3ddb3c2c	0.10704836
121	0x3e06e53e	0.13173386
122	0x3e3d601b	0.18493693
123	0xbe486297	-0.19568859
124	0xbeab6543	-0.33475694
125	0xbe0ae589	-0.13564123
126	0xbe0c85ac	-0.13722867
127	0xbe49a066	-0.19690093
128	0x3d54eacb	0.05198173
129	0x3e7f097f	0.24905966
130	0xbea604d1	-0.3242555
131	0xbe754659	-0.23952617
132	0xbe741c98	-0.23839033
133	0x3eaaaf1c	0.33336723
134	0x3f021823	0.5081808
135	0xbcbd7f55	-0.023132006
136	0xbe0255c5	-0.12728031
137	0x3d29b103	0.041428577
138	0x3f33e95d	0.7027796
139	0x3eaee72f	0.34160754
140	0xbe1ad72a	-0.15121141
141	0x3dc26051	0.09491027
142	0x3eecd50f	0.462563
143	0x3f0afaee	0.5428914
144	0xbe86889b	-0.26276097
145	0xbc97a194	-0.018509664
146	0x3eedd73a	0.46453267
147	0x3e83e99f	0.25764176
148	0xbeb4c48e	-0.3530621
149	0xbf3aa58b	-0.7290885
150	0x3e03bb01	0.12864305
151	0x3dc36e9f	0.09542584
152	0xbddaebd0	-0.10689509
153	0xbeb952d6	-0.3619601
154	0xbd6b7b7e	-0.05749082
155	0xbce217d6	-0.027599256
156	0xbe66c537	-0.22536169
157	0xbe0a6406	-0.13514718
158	0xbe4c05da	-0.19924107
159	0x3e55b83d	0.20871063
160	0xbecac431	-0.39602807
161	0xbe995958	-0.29950976
162	0xbd969fe1	-0.07354713
163	0x3e05e49f	0.13075493
164	0x3ec3cd7e	0.38242716
165	0xbeed12bb	-0.46303353
166	0xbe7689d6	-0.24076018
167	0xb9a7be4a	-0.000319945
168	0x3e3deb58	0.18546808
169	0x3e9b9c6b	0.30392775
170	0xbcf107c8	-0.029422656
171	0x3dbc766f	0.09202277
172	0x3e9403b5	0.28909078
173	0x3ead4ca5	0.33847538
174	0x3e02a492	0.12758091
175	0x3cb06fc6	0.021537673
176	0x3d4e954d	0.050435353
177	0xbdfd817b	-0.12378212
178	0xbe27204e	-0.16320917
179	0xbda9016a	-0.08252223
180	0xbcf503f8	-0.029909119
181	0x3df71f3c	0.12066504
182	0xbc85103e	-0.016243096
183	0xbd89fa53	-0.06737199
184	0xbd49c6f9	-0.04926202
185	0xbea20f50	-0.31652308
186	0x3e144068	0.14477694
187	0xbd3079f9	-0.043085072
188	0xbe2daf79	-0.16961469
189	0xbc9fd030	-0.019508451
190	0xbe134604	-0.14382178
191	0x3e80693b	0.25080284
192	0xbe20a455	-0.15687688
193	0xbe1bd066	-0.15216216
194	0x3d084fc0	0.03327918
195	0xbe8ee8c1	-0.27911952
196	0xbcb293d0	-0.021798998
197	0xbdfeb9a7	-0.12437754
198	0x3c99abf7	0.018758757
199	0x3e1de303	0.1541863
200	0x3f27f86c	0.65613437
201	0x3df6e3de	0.12055181
202	0xbd2fb160	-0.042893767
203	0xbe07bc10	-0.13255334
204	0x3eaa63e3	0.33279333
205	0x3f289ab2	0.65861046
206	0x3e181141	0.14850332
207	0xbe3d0f07	-0.18462764
208	0xbe274a79	-0.16337003
209	0x3e669db4	0.22521096
210	0x3eee3601	0.46525577
211	0x3dfcfae0	0.12352538
212	0xbdc70797	-0.097182445
213	0xbd5f14fe	-0.05446338
214	0x3e178bce	0.14799425
215	0x3ec98169	0.39356545
216	0x3e070fa5	0.13189562
217	0x3d297494	0.041370943
218	0x3e0a4106	0.13501367
219	0x3ec7658f	0.3894467
220	0x3ecf4a6c	0.40486467
221	0x3d1a5479	0.037678216
222	0xbb0b02fa	-0.002121149
223	0xb9cdf711	-0.00039284726
224	0x3e23fb68	0.16013873
225	0xbe75acfb	-0.23991768
226	0xbe8bfee0	-0.27342892
227	0xbe3a10f2	-0.18170527
228	0xbdcca404	-0.09992221
229	0x3e2e5fbc	0.17028707
230	0x3d52575f	0.051352855
231	0xbba24593	-0.0049521415
232	0xbc272c2d	-0.010203403
233	0xbe65d76c	-0.22445458
234	0xbe0119b8	-0.12607467
235	0xbdaad7e6	-0.083419606
236	0xbd5ad348	-0.05342415
237	0xbdb37081	-0.08761693
238	0xbe4cf94f	-0.20016979
239	0xbe901d92	-0.2814756
240	0x3d19877c	0.037482724
241	0x3e988b06	0.29793566
242	0x3eaeb4fb	0.34122452
243	0x3e0f89b5	0.14017375
244	0xbda26999	-0.079302974
245	0xbf08720f	-0.5329904
246	0xbe50c402	-0.20387271
247	0x3e16ea10	0.14737725
248	0x3e6061f0	0.2191236
249	0x3d82e074	0.06390467
250	0xbeae2603	-0.34013376
251	0xbe3df806	-0.18551645
252	0xbd61118e	-0.054948382
253	0xbc812089	-0.015762584
254	0x3df1bac2	0.11803199
255	0xbdca9b4c	-0.09892902

conv11.bias f4 [32]
0	0x3b3f09a8	0.0029150043
1	0x3d473c8c	0.048641726
2	0x3dbb82e6	0.09155826
3	0xbd0974e4	-0.03355874
4	0xbd67c3b3	-0.056583118
5	0x3b465771	0.0030264521
6	0x3e0acc5f	0.13554524
7	0x3cdcf8b0	0.026974052
8	0x3e3c1025	0.18365534
9	0x3da7e8cb	0.081986986
10	0x3e091200	0.13385773
11	0x3d442476	0.047886334
12	0x3cd804af	0.02636942
13	0x3d80a3cc	0.06281242
14	0xbd9923c3	-0.07477524
15	0xbd2e9272	-0.04262013
16	0xbe2bbedb	-0.16772024
17	0xbd1ac68b	-0.037787
18	0xbd64c476	-0.055851422
19	0xbd8c8974	-0.068621546
20	0x3d899f35	0.067198195
21	0xbdd17486	-0.10227303
22	0xb99907af	-0.0002918816
23	0x3d51c437	0.051212516
24	0xbbdfa92f	-0.006825588
25	0xbd1bbb17	-0.03802022
26	0xbcdf8cdf	-0.027288852
27	0xbe403fcd	-0.18774338
28	0xbd9692fb	-0.07352253
29	0x3dce2461	0.100655325
30	0x3c9bc482	0.0190146
31	0x3d8d1bba	0.06890054

batch1.weight f4 [32]
0	0x3f703927	0.9383721
1	0x3f7d82d8	0.99027777
2	0x3f7eceb1	0.99534136
3	0x3f918285	1.1367956
4	0x3f78143d	0.9690588
5	0x3f65889f	0.8966159
6	0x3f84f507	1.0387276
7	0x3f8b85da	1.0900223
8	0x3f4bb9ff	0.7958068
9	0x3f5a8019	0.8535171
10	0x3f6b1b83	0.91838855
11	0x3f9b5391	1.2134877
12	0x3f5764a3	0.84137934
13	0x3f82ca62	1.0218012
14	0x3f6d1eed	0.92625314
15	0x3f88e5d2	1.0695136
16	0x3f694bff	0.91131586
17	0x3f72ac15	0.94793826
18	0x3f80b263	1.0054439
19	0x3f84f33d	1.038673
20	0x3f866012	1.0498068
21	0x3f723216	0.94607675
22	0x3f7981ab	0.9746348
23	0x3f80d533	1.0065063
24	0x3f88e85d	1.0695912
25	0x3f75e6d3	0.96055335
26	0x3f8c4c2f	1.0960749
27	0x3f780ded	0.9689625
28	0x3f846b3b	1.0345224
29	0x3f86d8b4	1.0534883
30	0x3f6d9471	0.9280463
31	0x3f5b6205	0.8569644

batch1.bias f4 [32]
0	0xbed20210	-0.410172
1	0xbe646d8e	-0.22307417
2	0xbe6bf67f	-0.2304325
3	0xbe7acf93	-0.24493246
4	0xbf92f201	-1.1480104
5	0xbeb62915	-0.35578218
6	0xbe08c5bb	-0.13356678
7	0xbe5b9fea	-0.21447721
8	0xbdce47dd	-0.100723006
9	0xbe9554b8	-0.29166198
10	0xbea578a7	-0.32318613
11	0xbe8602ed	-0.26174107
12	0xbecf05e3	-0.4043418
13	0xbe898796	-0.26861256
14	0xbeed8881	-0.46393207
15	0xbebdc2f3	-0.37062797
16	0xbeb1ef15	-0.34752718
17	0xbe6d6c2b	-0.23185794
18	0xbeb745f7	-0.35795566
19	0xbedb7be5	-0.42867962
20	0xbee50903	-0.44733438
21	0xbe6c2fad	-0.23065062
22	0xbe8c24df	-0.2737188
23	0xbed5a440	-0.41726875
24	0xbe8aac2c	-0.27084482
25	0xbe48588c	-0.19565028
26	0xbea98d19	-0.3311546
27	0xbe8d96f4	-0.2765423
28	0xbe62b15a	-0.22137967
29	0xbea621d5	-0.32447687
30	0xbeb74e97	-0.35802147
31	0xbe1b7af9	-0.15183629

batch1.running_mean f4 [32]
0	0x3e69a99c	0.22818607
1	0xbe0c4a4c	-0.13700217
2	0xbe2142ce	-0.1574814
3	0xbee7fda1	-0.4531069
4	0x3f8f275e	1.1183889
5	0xbeafc9f8	-0.34333777
6	0xbde057bf	-0.10954236
7	0xbf7ea873	-0.99475783
8	0x3ffb5ffe	1.963867
9	0xbeb00690	-0.34380007
10	0x3fbe4936	1.4866092
11	0x3d97a754	0.07404962
12	0x40314537	2.7698495
13	0x3f2c8c18	0.67401266
14	0xbe05f717	-0.13082539
15	0xc02b820d	-2.6798127
16	0xbc212a7c	-0.009836789
17	0x3f606540	0.87654495
18	0xbedb4b4c	-0.42830884
19	0x4027e180	2.6231384
20	0x3f0231c7	0.50857204
21	0xbec3ea72	-0.38264805
22	0xbdd8c7a4	-0.105849534
23	0x3ffc78c4	1.9724355
24	0xbe73f1fa	-0.23822775
25	0x3fa68810	1.3010273
26	0xbc9145e2	-0.017733518
27	0xbe73982d	-0.23788519
28	0xbefb9e86	-0.4914438
29	0xbea161aa	-0.31519824
30	0xc0293ddc	-2.6444006
31	0xbde9e643	-0.11420872

batch1.running_var f4 [32]
0	0x400e90b6	2.2275825
1	0x40912cae	4.536704
2	0x3fcdf33d	1.6089855
3	0x403cf9aa	2.9527383
4	0x3fbabc9b	1.4588808
5	0x40766c02	3.8503423
6	0x3f96fcf0	1.179594
7	0x40434c83	3.051545
8	0x40bbe725	5.871966
9	0x3ff860eb	1.9404577
10	0x40252d9f	2.5809095
11	0x40316c6c	2.7722425
12	0x40794e84	3.8954172
13	0x40318c3c	2.7741842
14	0x404d45de	3.2073894
15	0x40b0ae11	5.5212483
16	0x3fb946ec	1.4474769
17	0x3fbc4ff5	1.4711901
18	0x40ef9991	7.487496
19	0x408cbf31	4.398339
20	0x3fdc21a5	1.7197767
21	0x3fa37178	1.2769003
22	0x3f9f8deb	1.2465185
23	0x407e470b	3.973086
24	0x40c2ed08	6.0914345
25	0x408d39d4	4.413309
26	0x40a304f1	5.094353
27	0x40066c97	2.1003778
28	0x4027e7d5	2.623525
29	0x404ece4c	3.2313414
30	0x4096bef8	4.7108116
31	0x3ff8fba2	1.9451792

conv2.weight f4 [64, 32, 5, 5]
0	0xbe1c5a8f	-0.1526892
1	0xbea0cf53	-0.31408176
2	0xbe827324	-0.2547847
3	0xbea8d7df	-0.32977197
4	0xbe956ffe	-0.29187006
5	0xbe9ddba8	-0.30831647
6	0xbe69ae8c	-0.2282049
7	0xbed8b66c	-0.42326677
8	0xbeeb9a6b	-0.4601625
9	0xbe8f1c6d	-0.27951375
10	0xbeb7b822	-0.3588267
11	0xbe4bf81b	-0.19918863
12	0xbf038a79	-0.5138317
13	0xbf063ee2	-0.524397
14	0xbe726988	-0.2367307
15	0x3ce305b4	0.02771268
16	0x3dd5828a	0.10425289
17	0xbe8ec473	-0.27884254
18	0xbe825e52	-0.25462586
19	0xbe3c9304	-0.18415457
20	0xbe17d583	-0.14827542
21	0xbdf2b1d1	-0.11850322
22	0xbeab70d2	-0.33484513
23	0xbeb6f28a	-0.35731918
24	0xbe7d0e2c	-0.24712437
25	0xbe10ea56	-0.14151892
26	0xbd951eb0	-0.07281244
27	0x3e3a116a	0.18170705
28	0x3ebf4428	0.37356687
29	0x3e192eaf	0.14959215
30	0xbda434dc	-0.080178946
31	0xbdb7bd51	-0.08971656
32	0x3e12f86a	0.14352575
33	0x3eb5bad5	0.35494104
34	0x3e8991d0	0.2686906
35	0x3ddd64f0	0.10810268
36	0x3d06812d	0.032838035
37	0x3e170f48	0.14751923
38	0x3ea42f97	0.32067558
39	0x3e5fbbf9	0.2184905
40	0x3e56790e	0.20944616
41	0x3dfd8127	0.123781495
42	0x3e2f53e7	0.1712185
43	0x3ebdd824	0.37078965
44	0x3e10961e	0.14119765
45	0x3e915257	0.28383133
46	0x3e68d18a	0.22736183
47	0x3e8f75c1	0.28019527
48	0x3e9e21d2	0.30885178
49	0x3dedcf90	0.11611855
50	0x3ed9271a	0.42412645
51	0x3ea3c503	0.31986246
52	0x3d9c0e81	0.07619954
53	0xbe63f040	-0.22259617
54	0xbef4f456	-0.47842664
55	0x3ee9c682	0.45659262
56	0x3f0e70f4	0.556411
57	0x3eaf9550	0.34293604
58	0xbda021d5	-0.07818953
59	0xbe8e21eb	-0.27760252
60	0x3e854f50	0.26037073
61	0x3e9d3acb	0.30708918
62	0x3d28a0df	0.041169044
63	0xbea2b128	-0.31775784
64	0xbe9fa8c4	-0.31183445
65	0x3ed89387	0.42300054
66	0x3eea097c	0.4571036
67	0x3f03ed2f	0.5153379
68	0x3e41bf53	0.1892064
69	0x3e599186	0.21246919
70	0x3ee26142	0.44214827
71	0x3e9913b4	0.29897845
72	0x3e8724de	0.26395315
73	0x3e21fd5e	0.15819308
74	0x3e80ca5b	0.25154385
75	0x3e84ca6f	0.25935695
76	0x3c9f7496	0.019464772
77	0xbda9c829	-0.08290131
78	0xbcf06eb0	-0.029349655
79	0x3da3b703	0.07993891
80	0x3f1a6d8c	0.60323405
81	0x3e68eaf4	0.22745878
82	0xbdd0e485	-0.10199837
83	0xbe47c98b	-0.19510476
84	0xbafde3e3	-0.0019370284
85	0x3e95b3d5	0.29238763
86	0xbdce9001	-0.1008606
87	0xbef5f9c3	-0.48042116
88	0xbec2d26e	-0.3805117
89	0xbe21a292	-0.15784672
90	0x3f12def2	0.5737144
91	0x3e877b44	0.26461232
92	0xbd6eeec7	-0.058333185
93	0xbbed7087	-0.0072460803
94	0x3d46553f	0.04842114
95	0x3f2eb2b6	0.6824144
96	0x3ebca94e	0.3684792
97	0x3d17de98	0.037077516
98	0xbd4e2d48	-0.050336152
99	0xbca2c88e	-0.019871023
100	0xbefd2486	-0.49441928
101	0xbe1c3021	-0.15252735
102	0xbbe0d770	-0.0068616197
103	0x3d2f1bdc	0.04275118
104	0xbd1b4b34	-0.037913516
105	0xbebd7101	-0.37000278
106	0xbc932f91	-0.017967017
107	0x3e78b623	0.2428823
108	0x3ef40f8c	0.4766811
109	0x3f06df0d	0.526841
110	0xbf116e88	-0.5680928
111	0xbe802cb5	-0.2503411
112	0x3dba1fa6	0.09088068
113	0x3ee464c2	0.44608122
114	0x3f04df3e	0.5190314
115	0xbf09a9a9	-0.53774506
116	0xbe92e5c7	-0.2869093
117	0x3c9bc7f3	0.019016242
118	0x3ea6ae96	0.32555073
119	0x3ed5739c	0.41689765
120	0xbefa8310	-0.48928118
121	0xbe8a0386	-0.26955813
122	0xbced9681	-0.02900243
123	0x3e8d128d	0.27553216
124	0x3edb019d	0.42774668
125	0x3cd40306	0.025880348
126	0x3df7e9b1	0.1210512
127	0x3e57f3df	0.21089123
128	0x3df11401	0.117713936
129	0x3e0ab3d9	0.13545169
130	0xbec0db46	-0.37667292
131	0xbe284e17	-0.16436039
132	0xbe24099f	-0.16019295
133	0xbe5d19c3	-0.21591859
134	0xbe43a302	-0.19105151
135	0xbe8a6e05	-0.27037063
136	0xbe9f0b45	-0.31063285
137	0xbe948372	-0.29006535
138	0xbed6d264	-0.4195739
139	0xbe35b182	-0.17743495
140	0xbcaa6708	-0.020801082
141	0xbdbd1a89	-0.09233577
142	0xbd0ec0a9	-0.034851704
143	0xbe1ff167	-0.15619431
144	0xbe054490	-0.13014436
145	0x3e1161d8	0.1419748
146	0x3db403e7	0.08789807
147	0x3e1aced9	0.15117969
148	0xbcdca8ae	-0.026935901
149	0xbdbd3088	-0.09237772
150	0xbe398ed5	-0.18120892
151	0x3eff27ed	0.49835148
152	0x3f5c634b	0.8608901
153	0x3f4f8ea7	0.81077045
154	0x3f2cb030	0.6745634
155	0xbe0e4be7	-0.13896142
156	0x3ea95067	0.33069155
157	0x3f43f38b	0.7654349
158	0x3f4fb842	0.8114053
159	0x3f442fa3	0.7663519
160	0xbf2267c9	-0.63439614
161	0xbec2ac06	-0.38021868
162	0xba06755f	-0.0005129184
163	0x3eaa9747	0.3331854
164	0x3eecdc80	0.46261978
165	0xbf7c6811	-0.9859629
166	0xbf8362fa	-1.026458
167	0xbf209c37	-0.62738365
168	0xbe550758	-0.20803583
169	0x3d76f2f7	0.060290303
170	0xbf4692cf	-0.7756776
171	0xbf7d903f	-0.9904823
172	0xbf462b60	-0.77409935
173	0xbefdf9ab	-0.49604544
174	0xbe33f2f2	-0.17573145
175	0x3e68c5c4	0.22731692
176	0x3de8686c	0.11348042
177	0xbd82eb88	-0.0639258
178	0xbdad971a	-0.08476086
179	0xbb89062f	-0.0041816453
180	0x3cf1e4c9	0.029528039
181	0x3bc8ef08	0.0061320104
182	0xbd8fd528	-0.07023078
183	0xbe51253b	-0.20424359
184	0xbdaa0bcb	-0.083030306
185	0x3c13a2f0	0.009011015
186	0xbdbb994c	-0.091600984
187	0xbe25f373	-0.1620615
188	0xbea205b6	-0.31644982
189	0xbe34e369	-0.17664875
190	0xbd8ac01a	-0.06774922
191	0xbd855f08	-0.065122664
192	0xbd9c8d4d	-0.076441385
193	0xbe3437f6	-0.17599472
194	0xbe2aec97	-0.16691814
195	0xbc96227f	-0.018326996
196	0xbd2eeb85	-0.042705078
197	0xbcf57dfb	-0.029967299
198	0xbe32593f	-0.17416857
199	0xbe8a16b8	-0.26970458
200	0xbeeea417	-0.46609566
201	0xbe9e9cf3	-0.30979118
202	0xbe8203c8	-0.2539351
203	0xbcac833e	-0.021058675
204	0x3e5598a1	0.20859005
205	0xbf06bb74	-0.5262978
206	0xbe4a8c0e	-0.19779989
207	0xbc4f5c22	-0.0126562435
208	0x3e7ab049	0.2448131
209	0x3edbcc83	0.42929468
210	0xbf039aff	-0.5140838
211	0xbe7367fa	-0.23770133
212	0x3d377ea4	0.04479851
213	0x3eaf549c	0.3424424
214	0x3f001dba	0.5004536
215	0xbecdf260	-0.4022398
216	0xbe2f88a6	-0.17141971
217	0x3d3a527b	0.045488816
218	0x3e9cab64	0.3059951
219	0x3eeff14c	0.46863782
220	0xbe8cbdbc	-0.27488506
221	0xbdb9e935	-0.09077684
222	0x3e5503ad	0.20802183
223	0x3ec4bc04	0.38424695
224	0x3f03bf88	0.5146413
225	0xbe972827	-0.2952282
226	0xbe110e28	-0.14165556
227	0xbe27102b	-0.16314761
228	0xbe679dad	-0.22618742
229	0xbdee0ca7	-0.11623507
230	0xbe41d238	-0.18927848
231	0x3d122af7	0.035685506
232	0x3d0f65d2	0.035009213
233	0xbdb41484	-0.087929755
234	0x3d4dc780	0.050239086
235	0xbe502ef8	-0.20330417
236	0x3d04c528	0.032414585
237	0x3ca0a59e	0.019610222
238	0xbd80b118	-0.06283778
239	0x3e4ee682	0.20205119
240	0xbe86fae9	-0.26363304
241	0xbdc1c71d	-0.09461806
242	0x3d62da40	0.05538392
243	0x3d367f1b	0.04455481
244	0x3ec7b12c	0.3900236
245	0xbe90dd5e	-0.2829389
246	0xbdfcb896	-0.123398945
247	0x3bf184f3	0.007370585
248	0x3de0489c	0.10951349
249	0x3ed5f70f	0.41790053
250	0xbe415024	-0.18878227
251	0xbddfc42d	-0.109260894
252	0x3d415880	0.04720354
253	0x3e3c2f6e	0.18377468
254	0x3e8329b3	0.2561775
255	0x3ce40d06	0.027838241

conv2.bias f4 [64]
0	0x3d53fd97	0.051755514
1	0xbf6b91f3	-0.92019576
2	0xbea5de30	-0.32396078
3	0x3d70d3ec	0.058795854
4	0x3e9a8bcf	0.3018479
5	0xbf195b9b	-0.59905404
6	0xbe95cfa0	-0.29259968
7	0xbefad87d	-0.48993292
8	0x3f0bb6de	0.5457591
9	0x3f283f38	0.65721464
10	0x3ec076c9	0.37590626
11	0x3e077cf3	0.13231258
12	0x3f15119a	0.5822998
13	0x3f2a0688	0.66416216
14	0x3f3e78af	0.744029
15	0xbebbae8b	-0.36656603
16	0xbf32974f	-0.6976213
17	0x3df5cb46	0.12001662
18	0xbf429e5a	-0.76022875
19	0xbe8a7aa2	-0.27046686
20	0xbd5cfe3f	-0.053953405
21	0xbf1454aa	-0.5794169
22	0xbe6885e0	-0.2270732
23	0xbf1dd168	-0.61647654
24	0x3d6e6721	0.05820382
25	0x3f1b4e48	0.6066632
26	0xbf29aa26	-0.6627525
27	0xbea46b44	-0.32113087
28	0x3edfa368	0.43679357
29	0xbca160fb	-0.019699564
30	0x3c4dd444	0.012562815
31	0xbd6a3854	-0.057182625
32	0xbf27d26c	-0.65555453
33	0xbce86328	-0.028367594
34	0xbf70a2bb	-0.93998307
35	0xbea576bd	-0.32317153
36	0xbefb71b1	-0.49110177
37	0x3eb284a6	0.34866828
38	0xbcd3dcba	-0.025862087
39	0xbec3d97b	-0.38251862
40	0xbf00818f	-0.5019769
41	0xbd228eb1	-0.039686862
42	0xbe9ac949	-0.30231693
43	0x3dea8110	0.11450398
44	0x3eb837b0	0.35979986
45	0x3ea94d2b	0.33066687
46	0x3ef9e5a2	0.48808008
47	0x3e1b15c6	0.15145025
48	0x3e29b1e6	0.16571769
49	0xbea448ed	-0.32086888
50	0x3eaa493b	0.33258995
51	0xbe1c8d99	-0.1528839
52	0x3eebb9b0	0.46040106
53	0xbf0d88e2	-0.5528699
54	0x3e582fd3	0.21111993
55	0xbb74e291	-0.003736649
56	0x3f314043	0.6923868
57	0xbe8f76f9	-0.28020456
58	0x3e0cc79c	0.1374802
59	0x3e687dfa	0.22704306
60	0xbd122ee8	-0.035689265
61	0x3e59053b	0.21193402
62	0xbe2ba051	-0.16760375
63	0xbec3c5b7	-0.38236782

conv22.weight f4 [32, 64, 5, 5]
0	0x3d8f15ea	0.06986602
1	0x3e465f55	0.19372304
2	0x3ea86897	0.32892296
3	0x3d120558	0.035649627
4	0xbe069a5e	-0.13144824
5	0x3e775f00	0.24157333
6	0x3e709d31	0.23497464
7	0x3ea3c1f8	0.31983924
8	0x3db7b917	0.0897085
9	0xbda37c6d	-0.07982717
10	0x3ea08ade	0.31355947
11	0x3ef3a686	0.47587985
12	0x3f0bc605	0.5459903
13	0x3e97be30	0.2963729
14	0x3cd7b7b1	0.026332708
15	0x3e1c9ac0	0.15293407
16	0x3ec3a826	0.38214225
17	0x3f1478f0	0.57997036
18	0x3eaf3ebb	0.34227547
19	0xbdbe876c	-0.093031734
20	0xbec258b1	-0.3795829
21	0xbec2dbe2	-0.38058382
22	0xbe07455e	-0.13210055
23	0xbe1ad3c2	-0.15119842
24	0xbe741e8c	-0.23839778
25	0x3e009411	0.12556483
26	0x3d7b0545	0.061284322
27	0x3e2a1e0f	0.16613029
28	0x3e3a3458	0.1818403
29	0xbd428132	-0.04748649
30	0x3e600664	0.21877438
31	0x3e458c9a	0.19291916
32	0x3eb21fdb	0.3478993
33	0x3eeee781	0.46660998
34	0x3e930f90	0.2872281
35	0xbdd99bb0	-0.10625398
36	0xbe5b51ef	-0.21417974
37	0xbdfc64a4	-0.12323883
38	0x3dc59fc8	0.096496165
39	0xbbee0b7d	-0.007264553
40	0xbe8eafa4	-0.27868378
41	0xbed79e66	-0.42113036
42	0xbeef2c21	-0.46713355
43	0xbeb3ef5e	-0.3514356
44	0xbebe6dcd	-0.37193146
45	0xbdf1a3a6	-0.117987916
46	0xbe38bb3c	-0.18040174
47	0xbe278802	-0.16360477
48	0xbdffbcc3	-0.12487175
49	0xbe00f658	-0.12593973
50	0xbe8b2eb9	-0.27184084
51	0xbe7505f1	-0.23928048
52	0xbe7e60c7	-0.24841605
53	0x3d8b40eb	0.067994915
54	0xbd1ebb05	-0.038752574
55	0xbd8eb639	-0.0696835
56	0x3b86d26e	0.0041144406
57	0xbd15047c	-0.03638123
58	0x3e2933b9	0.16523637
59	0x3d97b5a9	0.07407696
60	0x3e4fa1b3	0.20276527
61	0x3e104037	0.14086996
62	0x3dee0d61	0.116236456
63	0x3e894f8f	0.2681851
64	0x3e3989f7	0.18119036
65	0xbd09900b	-0.033584636
66	0xbe72a9f7	-0.23697649
67	0xbe9874be	-0.29776567
68	0xbc2de819	-0.010614418
69	0x3ce06ddc	0.027396135
70	0x3e113354	0.14179736
71	0x3cac6e67	0.021048738
72	0xbe5587fa	-0.20852652
73	0xbe464998	-0.19364011
74	0xbdf17bb0	-0.1179117
75	0xbe8ec580	-0.27885056
76	0xbc5787bd	-0.013154921
77	0x3d6452d1	0.055743042
78	0xbe0d08bc	-0.13772863
79	0xbe9436a2	-0.28947932
80	0x3db0aa13	0.08626189
81	0x3e56dd3c	0.20982832
82	0x3e3d7a9d	0.18503805
83	0x3dc57531	0.09641493
84	0xbd047353	-0.032336544
85	0xbe214f97	-0.15753017
86	0xbe77936f	-0.24177335
87	0xbe3cdebf	-0.18444346
88	0xbe507d38	-0.20360267
89	0xbd8c1062	-0.06839062
90	0xbd549b3e	-0.051905863
91	0xbcdcf96f	-0.026974408
92	0x3d9d3f1b	0.07678052
93	0x3da13592	0.07871546
94	0x3e350500	0.17677689
95	0x3eb72f05	0.3577806
96	0x3eb5051c	0.3535546
97	0x3ee1fbcb	0.44137415
98	0x3ecf8149	0.40528324
99	0x3e926d47	0.28598997
100	0xbeaa686d	-0.33282796
101	0xbe913953	-0.28364047
102	0xbecca905	-0.39972702
103	0xbe939e66	-0.28831786
104	0xbd8bec34	-0.068321615
105	0xbe145949	-0.14487185
106	0xbe2fdc6f	-0.17173932
107	0xbe8eefa8	-0.27917218
108	0xbe5c4899	-0.21512069
109	0xbe3c03cb	-0.18360822
110	0x3dbcfa43	0.09227421
111	0xba94fe28	-0.0011367248
112	0x3bc5878b	0.006028121
113	0x3e3120d2	0.17297676
114	0x3ea5840a	0.323273
115	0x3ea463bc	0.3210734
116	0x3e57b81c	0.21066326
117	0x3e155560	0.14583349
118	0x3e44cffe	0.19219968
119	0x3ee746ac	0.45171106
120	0x3ecd6c5b	0.4012173
121	0x3e62598e	0.22104475
122	0xbbd521d0	-0.006504275
123	0xbd1f0739	-0.038825247
124	0x3e4c8f36	0.19976506
125	0x3adfee99	0.0017084657
126	0xbc06e215	-0.008232613
127	0xbe9488e9	-0.29010704
128	0xbe33e4c6	-0.17567739
129	0xbcc09cc6	-0.023512255
130	0xbe9c2d63	-0.30503377
131	0xbe9c56dc	-0.30535018
132	0xbeb181be	-0.34669298
133	0xbe41ca92	-0.1892493
134	0xbd5f4d3c	-0.054517016
135	0xbe5e010f	-0.21680091
136	0xbe242b90	-0.16032243
137	0xbdd52692	-0.10407747
138	0xbe070c69	-0.13188328
139	0xbdb4e0af	-0.088319175
140	0xbdb22f8b	-0.08700474
141	0xbe0d408d	-0.13794155
142	0xbe1b318f	-0.15155624
143	0xbe0a3adf	-0.1349902
144	0x3cfb78ba	0.030697215
145	0xbc71909b	-0.014743949
146	0xbda7c2b5	-0.08191434
147	0xbe752d78	-0.23943126
148	0xbe8864c9	-0.26639393
149	0xbd67277e	-0.056434147
150	0xbdb37c16	-0.08763902
151	0xbe8da6d6	-0.27666348
152	0xbea19333	-0.31557617
153	0xbe9dd0bb	-0.3082331
154	0xbeca85e9	-0.3955529
155	0x3e702692	0.23452213
156	0x3e29d92c	0.16586751
157	0x3df4f3fd	0.119605996
158	0x3e302881	0.17202951
159	0x3de9a63c	0.1140866
160	0xbdd31bab	-0.103080116
161	0xbdb413b9	-0.08792824
162	0xbd2acd73	-0.041699838
163	0x3d6cd662	0.05782164
164	0xbd91e95d	-0.07124589
165	0xbdc426e5	-0.09577731
166	0xba534ebd	-0.0008060744
167	0xbdb72d19	-0.089441486
168	0x3d83f904	0.0644398
169	0x3cf59ef9	0.02998303
170	0xbe65d738	-0.2244538
171	0x3d30de2e	0.043180637
172	0xbccd16c1	-0.025035264
173	0x3dcae506	0.09906964
174	0x3d86160b	0.06547173
175	0xbdacf0e7	-0.08444386
176	0xbe0ea9ae	-0.13931915
177	0xbe352826	-0.17691097
178	0xbe7c5a77	-0.24643885
179	0xbe258fe6	-0.16168174
180	0xbde1149f	-0.10990261
181	0xbe01930e	-0.12653753
182	0xbe0e4e7d	-0.13897128
183	0xbe2d1b8e	-0.16905043
184	0xbd7b50b8	-0.061356276
185	0xbddc5caa	-0.10759862
186	0x3d729ed9	0.05923352
187	0x3dc4384c	0.0958105
188	0x3d2190bd	0.039444674
189	0xbc09d143	-0.008411708
190	0xbde5cc15	-0.11220566
191	0x3d17b5b0	0.037038505
192	0x3dba0dac	0.09084639
193	0x3cf7430f	0.030183343
194	0xbbb0e26b	-0.005398085
195	0xbddc2628	-0.10749465
196	0xbdb76941	-0.089556225
197	0xbe0edb6c	-0.1395089
198	0xbe0c2541	-0.13686086
199	0xbde9510f	-0.11392414
200	0xbef45d63	-0.47727498
201	0xbe9a94fa	-0.30191785
202	0xbf18d5e9	-0.597014
203	0xbf03479e	-0.51281154
204	0xbe97d8b2	-0.29657513
205	0xbe6deba9	-0.23234428
206	0x3d0a8269	0.033815775
207	0xbe172bbb	-0.14762776
208	0xbec4c0a6	-0.3842823
209	0xbebf20ea	-0.373298
210	0xbdec36c1	-0.11533881
211	0x3e90f5d6	0.28312558
212	0x3e8e2e1b	0.2776955
213	0x3d962438	0.07331127
214	0xbdce3afc	-0.10069844
215	0xbddddaf8	-0.108327806
216	0xbcfa16f5	-0.030528525
217	0x3e32c525	0.17458017
218	0x3ddacde0	0.10683799
219	0x3d9d266c	0.07673344
220	0xbe14e942	-0.14542106
221	0xbea9ba56	-0.33149976
222	0xbdacc46f	-0.08435904
223	0xbd954488	-0.07288462
224	0x3e3ddf6e	0.18542263
225	0xbed03d01	-0.40671542
226	0xbd98267d	-0.07429216
227	0x3dfb682f	0.12275731
228	0x3e7bb06a	0.24579015
229	0x3dff6bae	0.1247171
230	0xbe89ad12	-0.26889855
231	0x3c438e3b	0.011935766
232	0x3e9fc2b4	0.31203234
233	0x3f093acc	0.5360534
234	0x3ec661d2	0.38746506
235	0xbe701b3b	-0.23447888
236	0xbe9534c2	-0.29141814
237	0xbe2decce	-0.16984865
238	0x3d7353f6	0.059406243
239	0x3e25a865	0.16177519
240	0x3e1cdb43	0.15318017
241	0x3d10ba9c	0.035334215
242	0x3c4d2c61	0.012522788
243	0x3d8ae758	0.067824066
244	0x3e6cb2ac	0.23115033
245	0x3e0095c3	0.1255713
246	0x3bd69b09	0.0065492433
247	0xbd3ad2b4	-0.0456111
248	0xbdcae190	-0.09906304
249	0x3da022c3	0.0781913
250	0x3ce4f853	0.027950441
251	0x3da24f68	0.07925302
252	0x3dca7e2b	0.09887346
253	0x3e5b42a7	0.21412145
254	0x3e243f26	0.16039714
255	0x3e0d2c73	0.13786487

conv22.bias f4 [32]
0	0x3c930fbd	0.01795184
1	0x3c6af950	0.014341667
2	0xbc7f76a6	-0.015592253
3	0x3c1c7d0a	0.009551296
4	0xbc706f0e	-0.014674915
5	0x3c01a4f5	0.007912864
6	0xbc1f1907	-0.009710557
7	0x3cace0f4	0.02110336
8	0x3c9aa197	0.01887588
9	0xbc6b62a9	-0.014366784
10	0x3b24411e	0.0025063227
11	0x3c37dad1	0.0112216035
12	0xbbdfe16b	-0.006832292
13	0x3c842a1e	0.016133364
14	0x3beaf35c	0.007170124
15	0xbbe94948	-0.0071193315
16	0xbb28fac8	-0.0025784243
17	0x3c8345d7	0.016024513
18	0x3ab3504d	0.0013680548
19	0xbc47813a	-0.012176806
20	0x3bbbb0e5	0.0057278746
21	0x3c4e0307	0.012573964
22	0xbcbe8310	-0.023255855
23	0x3cc5a253	0.024125254
24	0x3c54da73	0.0129915355
25	0xbc592541	-0.013253511
26	0xbc8a666a	-0.016894538
27	0x3c890d06	0.016729843
28	0xbc274045	-0.010208194
29	0xbbad7466	-0.005293417
30	0x3c0d7745	0.008634393
31	0x3bdeb490	0.006796427

batch2.weight f4 [32]
0	0x3f3a888a	0.7286459
1	0x3f465cc6	0.7748531
2	0x3f76c4bf	0.9639396
3	0x3f6c44d9	0.92292553
4	0x3f5cfb86	0.86321294
5	0x3f38612a	0.7202326
6	0x3f8667c9	1.0500423
7	0x3f4c142c	0.7971828
8	0x3f8f98f9	1.1218559
9	0x3f4acb06	0.7921604
10	0x3f616384	0.88042474
11	0x3f4a2ea6	0.7897743
12	0x3f5c6789	0.8609548
13	0x3f2e6b33	0.68132323
14	0x3f85d76b	1.0456365
15	0x3f595f17	0.8491072
16	0x3f7cb411	0.9871226
17	0x3f60d442	0.8782388
18	0x3f7b2dd6	0.98116815
19	0x3f6eabc1	0.93230826
20	0x3f5d8ae6	0.8654007
21	0x3f56054c	0.8360183
22	0x3f77959e	0.9671267
23	0x3f430e8a	0.7619406
24	0x3f5bc6f3	0.8585045
25	0x3f830c73	1.0238174
26	0x3f53675e	0.825796
27	0x3f8b07f2	1.08618
28	0x3f478cbb	0.7794911
29	0x3f54e515	0.8316205
30	0x3f47d36a	0.7805697
31	0x3f7f64bf	0.997631

batch2.bias f4 [32]
0	0xbf19ca70	-0.6007452
1	0xbf089a6c	-0.5336063
2	0xbf3e9c24	-0.74457
3	0xbf0fbd94	-0.5614865
4	0xbece9908	-0.4035113
5	0xbec5c1c3	-0.3862439
6	0xbf50099c	-0.8126466
7	0xbf0af773	-0.5428383
8	0xbf45ad4e	-0.77217567
9	0xbf07d39a	-0.53057253
10	0xbf094958	-0.5362754
11	0xbf191153	-0.5979206
12	0xbedbe355	-0.42946878
13	0xbeee5f11	-0.46556905
14	0xbf3084b0	-0.68952465
15	0xbf0d0abb	-0.550945
16	0xbf132a51	-0.57486445
17	0xbf277c30	-0.6542387
18	0xbf2abe7c	-0.66696906
19	0xbf1b6bd1	-0.6071139
20	0xbf16fed1	-0.5898257
21	0xbebc1955	-0.36738077
22	0xbf01da47	-0.5072369
23	0xbf067f31	-0.5253783
24	0xbf0fcfa2	-0.561762
25	0xbf083cb3	-0.5321762
26	0xbedd2a33	-0.43196258
27	0xbf46aa79	-0.7760387
28	0xbf10d3ed	-0.56573373
29	0xbf5b61ff	-0.85696405
30	0xbeceeefd	-0.4041671
31	0xbf11bfdc	-0.5693338

batch2.running_mean f4 [32]
0	0xc2ad67e6	-86.70293
1	0xc30dbe6b	-141.74382
2	0xc3a21479	-324.15994
3	0xc35a3215	-218.19563
4	0xc3478385	-199.51375
5	0xc2940664	-74.01248
6	0xc38ad5fc	-277.67175
7	0xc386200e	-268.25043
8	0xc38491b7	-265.1384
9	0xc3770ace	-247.0422
10	0xc341230d	-193.13692
11	0xc3201488	-160.0802
12	0xc3968a2b	-301.07944
13	0x41e9146f	29.134977
14	0xc3a6aa75	-333.3317
15	0xc33e6712	-190.40262
16	0xc39aae2e	-309.36078
17	0xc37b221b	-251.13322
18	0xc3958387	-299.02756
19	0xc3565379	-214.32607
20	0xc344e113	-196.8792
21	0xc36b138b	-235.07634
22	0xc3524158	-210.25525
23	0xc352b572	-210.70877
24	0xc34546e7	-197.27696
25	0xc3791a09	-249.1017
26	0xc339f094	-185.93976
27	0xc397cffa	-303.62482
28	0xc31a7742	-154.46585
29	0xc32a33ac	-170.20184
30	0xc332e99d	-178.91255
31	0xc36f9c0c	-239.60956

batch2.running_var f4 [32]
0	0x47297443	43380.26
1	0x473548d2	46408.82
2	0x47ad96ed	88877.85
3	0x47a10ca3	82457.27
4	0x4785ccfe	68505.984
5	0x475f2783	57127.51
6	0x47948f8d	76063.1
7	0x477a125c	64018.36
8	0x47c85189	102563.07
9	0x4762a647	58022.277
10	0x4739116c	47377.42
11	0x47719ff8	61855.97
12	0x47d074e6	106729.8
13	0x473af415	47860.082
14	0x47afceec	90013.84
15	0x4779c161	63937.38
16	0x479aeb92	79319.14
17	0x47609ee3	57502.887
18	0x47c85f5c	102590.72
19	0x477e65ce	65125.805
20	0x478af142	71138.516
21	0x4792c520	75146.25
22	0x47c0d17d	98722.98
23	0x47451d66	50461.4
24	0x474cda2d	52442.176
25	0x47d4d2ee	108965.86
26	0x47cd0188	104963.06
27	0x47a2c06e	83328.86
28	0x474b17a6	51991.65
29	0x473b200e	47904.055
30	0x47657471	58740.44
31	0x47ab85bb	87819.46

conv3.weight f4 [16, 32, 5, 5]
0	0x3e85a5f9	0.2610319
1	0x3ef3ad19	0.47593
2	0x3e6de3c0	0.23231411
3	0x3cfb47aa	0.03067382
4	0x3e4979ff	0.19675444
5	0xbe463e38	-0.19359672
6	0x3a5972f0	0.000829502
7	0xbd8e6946	-0.06953673
8	0xbe795f21	-0.24352695
9	0xbe82a007	-0.25512716
10	0xbeca93b3	-0.3956581
11	0xbe3e6268	-0.18592227
12	0xbe2ed388	-0.1707288
13	0xbe4a47f4	-0.1975401
14	0xbed036dc	-0.40666854
15	0x3d310eba	0.043226935
16	0xbc8e8c3e	-0.017400857
17	0xbc8a073d	-0.016849155
18	0xbd3b9636	-0.04579755
19	0xbee303e5	-0.4433891
20	0xbe3a3d5a	-0.18187466
21	0xbea7bc0f	-0.32760665
22	0xbe12eaf0	-0.14347434
23	0xbdb59a29	-0.08867294
24	0xbe34c0b1	-0.17651631
25	0xbe742e2f	-0.23845743
26	0xbd66b341	-0.056323294
27	0x3c247a00	0.010038853
28	0xbe2f16a9	-0.17098488
29	0xbec91d8d	-0.39280358
30	0xbeb438fc	-0.35199726
31	0xbd4e7e2d	-0.0504133
32	0x3e3fad4d	0.18718453
33	0xbcfca66e	-0.030841079
34	0xbe6a1a9a	-0.2286171
35	0x3bbd8272	0.0057833726
36	0x3c881089	0.016609447
37	0xbc9fcbde	-0.019506391
38	0xbdeb9afa	-0.11504169
39	0xbce04118	-0.02737479
40	0x3ea001bf	0.31251332
41	0x3e520fbf	0.20513819
42	0x3a65099e	0.000873709
43	0xbdddb646	-0.108257815
44	0x3d9c1a41	0.07622195
45	0xbe03a762	-0.1285682
46	0xbe282792	-0.16421345
47	0xbd08721a	-0.03331194
48	0xba83a0cc	-0.0010042428
49	0x3df530ec	0.11972222
50	0xbea96232	-0.3308273
51	0xbf12534d	-0.57158357
52	0xbed2580b	-0.41082796
53	0xbe0adc8e	-0.13560697
54	0x3cd17f86	0.025573503
55	0xbe82ab99	-0.25521544
56	0xbf026ad9	-0.50944287
57	0xbe2baa2e	-0.16764137
58	0xbd8102a0	-0.06299329
59	0x3cd7bf20	0.026336253
60	0xbe182988	-0.14859593
61	0xbeafa125	-0.3430263
62	0xbd430862	-0.047615416
63	0x3e5a22ef	0.21302389
64	0x3ec48303	0.38381204
65	0xbe98ee06	-0.29869097
66	0xbec95976	-0.39326066
67	0xbe74f32b	-0.23920886
68	0x3dc257fd	0.09489439
69	0x3e75e7e9	0.24014248
70	0xbe17d34f	-0.14826702
71	0xbd72e2a6	-0.05929818
72	0x3dfc94fd	0.12333105
73	0x3e39ec35	0.18156512
74	0x3dbacc72	0.09121026
75	0x3e12d113	0.14337568
76	0xbe0132d1	-0.12617041
77	0xbdbcf175	-0.09225742
78	0x3d148633	0.036260795
79	0x3e973d16	0.29538792
80	0xbd531388	-0.0515323
81	0xbddf25f4	-0.10895911
82	0x3dd2b516	0.10288446
83	0x3e3e09e8	0.18558466
84	0x3edd5f29	0.43236664
85	0xbd972fd0	-0.073821664
86	0xbd55edba	-0.052228667
87	0x3e7d8e31	0.24761273
88	0x3e7966b3	0.24355583
89	0x3ebcc559	0.36869314
90	0xbeb254dd	-0.3483037
91	0xbe485919	-0.19565238
92	0x3e2e778d	0.17037793
93	0x3e3781ff	0.17920683
94	0x3e07c77a	0.13259688
95	0xbe7baade	-0.245769
96	0x3d027478	0.031849355
97	0x3e7bf7d9	0.24606265
98	0x3e1fe5ae	0.1561496
99	0x3d02a86a	0.031898893
100	0x3d2191c8	0.03944567
101	0xbe9249ca	-0.28571922
102	0xbe89a7f5	-0.26885954
103	0xbefbeaad	-0.4920248
104	0xbf0efb49	-0.5585218
105	0x3eabc2e8	0.3354714
106	0xbe18201a	-0.14855996
107	0xbd9f5319	-0.077795215
108	0xbecdf56d	-0.40226308
109	0xbe451fff	-0.19250487
110	0x3e44950d	0.19197483
111	0xbe9e37e3	-0.30902013
112	0xbec8f45d	-0.39248934
113	0xbebae33b	-0.36501488
114	0x3e1b01c0	0.15137386
115	0x3e8f01c6	0.2793104
116	0xbb395208	-0.0028277654
117	0xbe1377e2	-0.144012
118	0xbe112a6f	-0.14176343
119	0x3ee960f5	0.45581785
120	0x3ec700fe	0.38867944
121	0x3e50826e	0.20362255
122	0x3e4ce9dc	0.20011085
123	0x3e2059d2	0.15659264
124	0x3edcfc9f	0.43161485
125	0x3e48afbe	0.1959829
126	0x3e605054	0.21905643
127	0x3e642dca	0.22283092
128	0x3d057d52	0.032590218
129	0x3cb7334f	0.022363333
130	0xbdb42f05	-0.08798031
131	0xbc7da367	-0.015480853
132	0x3c9ed544	0.019388802
133	0xbea6db09	-0.32588986
134	0xbeed7ef1	-0.4638591
135	0xbeb446d8	-0.352103
136	0xbe3439ec	-0.1760022
137	0xbcbc3e35	-0.022978881
138	0xbe351c1c	-0.17686504
139	0xbec85920	-0.39130497
140	0x3cad231e	0.02113491
141	0x3e1aa5d5	0.15102322
142	0x3e18edc2	0.14934447
143	0xbdb6ca3c	-0.08925292
144	0xbe9518c4	-0.29120457
145	0xbdad6f40	-0.08468485
146	0x3d2be2e9	0.041964445
147	0x3c625c98	0.013816021
148	0xbdf669f4	-0.12031928
149	0xbe044be5	-0.12919576
150	0xba91ce85	-0.001112417
151	0xbde1bc80	-0.11022282
152	0xbe7d3e16	-0.24730715
153	0xbecc4d28	-0.39902616
154	0xbe17456d	-0.14772578
155	0x3d2e43a4	0.042544976
156	0xbd8970f0	-0.06710994
157	0xbe18cee4	-0.14922673
158	0xbe4bbcf3	-0.19896297
159	0xbc185085	-0.009296541
160	0x3d3f093b	0.046639662
161	0x3d15e4dc	0.03659521
162	0xbca925e1	-0.020647945
163	0xbd989d8f	-0.07451927
164	0xbd9058c1	-0.070481785
165	0xbeb53076	-0.35388535
166	0xbea16fe6	-0.31530684
167	0xbe48246e	-0.19545147
168	0xbe3079cf	-0.17233966
169	0xbe377ad3	-0.17917947
170	0xbeebfcb7	-0.46091244
171	0xbedf52e3	-0.43617925
172	0xbe31c1c0	-0.17359066
173	0xbe409f89	-0.18810858
174	0xbda1dd28	-0.0790351
175	0xbf0a4244	-0.54007363
176	0xbebdd847	-0.3707907
177	0xbdce8c38	-0.10085338
178	0xbc393862	-0.011304947
179	0x3e04d60c	0.12972277
180	0xbf1469aa	-0.5797373
181	0xbf09554b	-0.5364577
182	0xbe9ef151	-0.31043485
183	0xbe15ccd3	-0.14628915
184	0x3c2d3d14	0.010573644
185	0xbea8405a	-0.32861596
186	0xbec8fd62	-0.39255816
187	0xbe9919dc	-0.29902542
188	0xbe225ff6	-0.15856919
189	0x3e29c80c	0.16580218
190	0x3c490068	0.012268163
191	0xbe6b42ec	-0.22974747
192	0xbe8203d6	-0.25393552
193	0xbdebf341	-0.115210064
194	0x3e64e5c9	0.22353281
195	0x3df9ac4d	0.12191067
196	0xbe1306df	-0.1435809
197	0x3d8e3f28	0.0694564
198	0x3e152dde	0.14568278
199	0x3e7f9f93	0.24963216
200	0x3e77857c	0.24172014
201	0xbe11334b	-0.14179723
202	0x3d9ed1ec	0.07754883
203	0x3e4df71c	0.20113796
204	0x3d3c4ed3	0.04597361
205	0x3d734182	0.059388645
206	0xbe093c11	-0.1340182
207	0x3b0cce43	0.0021485246
208	0xbd8b3cf7	-0.067987375
209	0xbe4eb5e9	-0.2018658
210	0xbca79b39	-0.020459758
211	0xbda4e187	-0.080508284
212	0x3d8e6bb0	0.069541335
213	0xbda08ded	-0.0783957
214	0xbe0458f7	-0.12924562
215	0xbe4ddc1c	-0.20103496
216	0xbda9d7e8	-0.08293134
217	0x3df8524f	0.12125074
218	0xbd6a1c07	-0.057155635
219	0xbdaa0492	-0.08301653
220	0xbeaf2053	-0.3420435
221	0x397d43df	0.00024153244
222	0x3e8f6786	0.2800867
223	0x3bdb156a	0.0066859024
224	0xbdfb88c9	-0.12281949
225	0x3d876402	0.06610872
226	0xbe16f930	-0.14743495
227	0xbe521d91	-0.20519091
228	0xbd6bef00	-0.057600975
229	0xbe4cbfcb	-0.19995038
230	0xbe551ef1	-0.20812584
231	0xbdc7a080	-0.0974741
232	0xbdcb9533	-0.09940567
233	0xbdfe5667	-0.12418824
234	0xbe291694	-0.16512519
235	0xbe69563d	-0.22786804
236	0x3c02f250	0.007992342
237	0xbe058c96	-0.1304191
238	0xbe810281	-0.25197223
239	0xbd26542a	-0.04060761
240	0xbdf20246	-0.1181684
241	0x3dffdcec	0.124933094
242	0x3d813810	0.06309521
243	0xbd214867	-0.03937569
244	0x3e6b1f3e	0.22961137
245	0x3d4a38fe	0.04937076
246	0x3dcc6067	0.09979325
247	0x3e17be1a	0.14818612
248	0x3e2995d4	0.16561061
249	0x3e7e68be	0.24844643
250	0x3c21b7ef	0.009870513
251	0x3caaca83	0.020848518
252	0xbc6d1a7f	-0.014471649
253	0x3da5f3c8	0.08103138
254	0x3d7aea2e	0.061258487
255	0xbda0c834	-0.07850686

conv3.bias f4 [16]
0	0x3ed7918e	0.42103237
1	0x3e21684c	0.15762442
2	0xbdac9cb9	-0.0842833
3	0xbd95f191	-0.07321466
4	0x3df7b780	0.12095547
5	0xbdec16fb	-0.11527821
6	0x3efcbc7b	0.4936255
7	0x3e72122f	0.23639749
8	0x3f18d3e0	0.59698296
9	0xbf1276a0	-0.5721226
10	0x3f247abd	0.64249784
11	0xbc5d1a6a	-0.013495067
12	0x3ece37d1	0.4027696
13	0x3eb397a8	0.35076642
14	0xbf0e26f5	-0.55528194
15	0xbe73088a	-0.23733726
