models/net_new_bs64_dr0_2_adam_augm/model_epoch_52.pt (torch, 763336 bytes, 28 tensors)

conv1.weight f4 [8, 3, 5, 5]
0	0x3df15837	0.11784404
1	0x3dc44be7	0.0958479
2	0xbe06b01b	-0.13153116
3	0x3e48a97f	0.19595908
4	0xbce773fa	-0.028253544
5	0x3e0a1e2d	0.13488074
6	0xbd1f21ef	-0.03885072
7	0x3e6c1020	0.23053026
8	0x3ef9e765	0.48809353
9	0xbe3ef947	-0.1864978
10	0x3ba58d71	0.0050522615
11	0xbc3c6e68	-0.011500932
12	0x3e690aee	0.22758076
13	0x3e971735	0.29509893
14	0x3d88e287	0.06683832
15	0xbe566316	-0.20936236
16	0xbda23590	-0.079203725
17	0xbe270080	-0.16308784
18	0xbdcac839	-0.09901471
19	0x3dd578f2	0.10423459
20	0xbe4ac077	-0.19799982
21	0xbe81aa81	-0.25325397
22	0xbe829796	-0.25506276
23	0xbc23b237	-0.00999122
24	0xbd1cbc69	-0.03826562
25	0xbda0d7bf	-0.0785365
26	0xbdeafbfb	-0.11473843
27	0xbe7586a5	-0.23977144
28	0x3d862c36	0.06551401
29	0xbe0b4792	-0.1360152
30	0x3e7c07bf	0.2461233
31	0xbdda6201	-0.10663224
32	0x3e372227	0.17884122
33	0x3e86dba3	0.26339445
34	0xbe9d3e4e	-0.30711597
35	0x3e1f6f6b	0.15569846
36	0x3e2cfb35	0.16892703
37	0x3e983c5a	0.29733545
38	0x3e192383	0.14954953
39	0xbe6f5f06	-0.23376092
40	0x3de5b720	0.11216569
41	0x3e129421	0.14314319
42	0x3daf35ac	0.08555159
43	0x3d556a1c	0.052103147
44	0x3d318033	0.04333515
45	0xba8725f3	-0.0010310992
46	0x3db60e0d	0.08889399
47	0x3ca24437	0.019807918
48	0x3c9db1ae	0.019249763
49	0xbda3ba9f	-0.079945795
50	0xbe2734f5	-0.16328795
51	0xbe074f7a	-0.13213912
52	0xbea35ab3	-0.31905136
53	0x3dbedb6a	0.09319194
54	0x3ddcb321	0.107763536
55	0x3de9a836	0.11409037
56	0xbda26b88	-0.07930666
57	0xbdef209a	-0.1167614
58	0x3e22451f	0.1584668
59	0xbe9447f3	-0.28961143
60	0x3dc39d34	0.095514685
61	0x3be1af96	0.0068873866
62	0x3d17846c	0.03699152
63	0xbdeb578d	-0.11491308
64	0xbe338f22	-0.1753507
65	0x3e120427	0.14259396
66	0x3ea36d57	0.31919357
67	0xbdeaf0cc	-0.114717096
68	0xbe87c7fb	-0.2651976
69	0xbe04c017	-0.12963901
70	0x3e9ff5e8	0.312423
71	0x3e653890	0.22384858
72	0x3e31e184	0.17371184
73	0xbe1a31ea	-0.15058103
74	0xbdfda164	-0.123842984
75	0xbe4a4d3b	-0.19756024
76	0xbe4b21ed	-0.1983716
77	0x3e971a7e	0.295124
78	0x3ecfe8af	0.4060721
79	0x3e6cc1bb	0.23120777
80	0xbe83305c	-0.25622833
81	0xbe9e00bd	-0.30859938
82	0x3dbd5059	0.09243841
83	0x3ee8b9b2	0.45454174
84	0x3f1a1ab9	0.60197026
85	0xbe9c74db	-0.30557904
86	0xbe8b7b8f	-0.27242705
87	0xbe2bfd9e	-0.16795966
88	0x3e504b4b	0.20341222
89	0x3efe7c01	0.49703982
90	0xbe0e720c	-0.13910693
91	0xbedb21ae	-0.42799133
92	0x3e13e9b9	0.14444627
93	0x3dfe5e52	0.12420334
94	0xbdc34887	-0.09535318
95	0xbdf9e6e2	-0.122022405
96	0xbe2461a0	-0.16052866
97	0xbd826945	-0.06367735
98	0xbd83d110	-0.0643636
99	0xbded1f5e	-0.115782484
100	0x3e3deb4d	0.18546791
101	0x3dd607bd	0.10450695
102	0x3d681712	0.056662627
103	0xbe072feb	-0.13201873
104	0xbdecacde	-0.11556409
105	0x3e5e753c	0.21724409
106	0xbd89671c	-0.0670912
107	0xbeb2e984	-0.34943783
108	0xbe9f581b	-0.31121907
109	0xbd8ff4e1	-0.07029129
110	0x3ee0b460	0.43887615
111	0x3dd834fc	0.10556981
112	0xbe40261a	-0.18764535
113	0xbefb5f5a	-0.49096185
114	0xbe1a5138	-0.15070045
115	0x3e9ca848	0.30597138
116	0x3d8805d8	0.066417396
117	0x3ddcf12c	0.107881874
118	0xbe8f1c35	-0.27951208
119	0xbeb67416	-0.35635442
120	0x3e711da8	0.23546469
121	0xbd0e6f7d	-0.034774292
122	0x3dff5670	0.124676585
123	0xbe119612	-0.14217404
124	0xbde5fc47	-0.11229759
125	0xbe10cc15	-0.14140351
126	0xbe1b0b97	-0.1514114
127	0xbdd82093	-0.10553088
128	0xbd98bfe1	-0.07458473
129	0xbe6074be	-0.21919534
130	0x3dcba847	0.09944206
131	0x3b368399	0.0027849434
132	0xbe8a509c	-0.27014625
133	0xbdab1f80	-0.083556175
134	0xbc0004d4	-0.007813651
135	0x3d6f60d0	0.058441937
136	0x3d68adb1	0.05680627
137	0xbd7a3993	-0.061090063
138	0xbdb45a6c	-0.08806309
139	0x3de56fff	0.11203002
140	0x3e0de66b	0.13857429
141	0x3b031e6b	0.0020007144
142	0x3f108c50	0.564641
143	0xbc3357c8	-0.010946222
144	0xbd3afaee	-0.04564946
145	0x3d506b44	0.050883546
146	0x3d38b039	0.045089934
147	0x3ec0a54c	0.37626112
148	0x3e5b5c42	0.21421912
149	0x3d3b2c47	0.045696523
150	0x3d3d20ee	0.046173982
151	0xbe8bf6d2	-0.27336746
152	0x3d6a6752	0.05722744
153	0x3d2ae956	0.041726433
154	0x3cc018be	0.023449298
155	0xbe5b192b	-0.2139632
156	0xbd961ec4	-0.07330087
157	0xbd801177	-0.06253331
158	0x3e0b4abc	0.13602728
159	0x3d202fda	0.039108135
160	0xbe000732	-0.12502745
161	0xbd1d2043	-0.038360845
162	0xbe43ae1d	-0.19109388
163	0xbda30fed	-0.07962022
164	0x3ea11c70	0.3146701
165	0xbe90d8ab	-0.28290305
166	0xbed448db	-0.41461834
167	0x3ed5b8d2	0.4174257
168	0x3f021210	0.5080881
169	0x3d14e3cf	0.036350068
170	0xbe31a1d3	-0.17346887
171	0xbead923d	-0.33900633
172	0x3d503db1	0.050840084
173	0x3d9518bd	0.07280109
174	0xbce54670	-0.027987689
175	0xbdce698e	-0.10078727
176	0xbe9a02e8	-0.30080342
177	0x3def3b15	0.11681191
178	0x3e398160	0.18115759
179	0xbe3fff55	-0.18749745
180	0xbdcf1fdc	-0.101134986
181	0x3d9b0004	0.07568362
182	0xbc9ec4b9	-0.019380914
183	0xb8fe48d9	-0.00012125233
184	0x3e1fb53f	0.15596484
185	0xbd6061c6	-0.054780744
186	0x3e81e50e	0.25370067
187	0xbdde0ff9	-0.1084289
188	0xbd6e718b	-0.05821375
189	0x3e8ce0cf	0.27515265
190	0xbe3a9884	-0.18222243
191	0xbe2aa2e5	-0.16663702
192	0x3f150fa0	0.58226967
193	0x3f1f39fb	0.62197846
194	0x3da87412	0.08225264
195	0xbded96bc	-0.11601016
196	0xbe6aabee	-0.22917148
197	0x3d8cfa78	0.068837106
198	0x3e05930a	0.13044372
199	0x3d130199	0.035890196
200	0x3e660b2f	0.22465204
201	0x3db17d31	0.086664565
202	0x3e9717c2	0.29510313
203	0x3e147f64	0.1450172
204	0x3d6f3dcd	0.058408547
205	0x3e1faba9	0.15592827
206	0x3e1919df	0.14951275
207	0xbe9b29ef	-0.3030543
208	0xbebf18f1	-0.37323716
209	0xbda3e025	-0.080017366
210	0x3eec9520	0.46207523
211	0x3eee006d	0.464847
212	0xbf27ff39	-0.65623814
213	0xbf5c73e5	-0.8611434
214	0xbe707ac9	-0.23484339
215	0x3f033b24	0.51262116
216	0x3e08c3c9	0.13355936
217	0x3d2ac003	0.041687023
218	0xbe255abf	-0.16147898
219	0xbed9ccf9	-0.42539194
220	0x3eb38cd0	0.3506837
221	0x3e012580	0.12611961
222	0xbe11c2ed	-0.14234515
223	0xbea0bc59	-0.31393698
224	0xbebbf952	-0.36713654
225	0x3e0609de	0.13089702
226	0x3e2f8b92	0.17143086
227	0x3e0287ca	0.12747112
228	0xbd97cbcd	-0.07411919
229	0xbdb4dee8	-0.088315785
230	0x3dc443d3	0.09583249
231	0x3e8df461	0.2772551
232	0x3e923c07	0.28561422
233	0x3d986c4f	0.07442533
234	0xbb3874c8	-0.002814578
235	0x3e883b72	0.26607853
236	0x3e0b7daf	0.13622163
237	0xbd041e22	-0.0322553
238	0xbeae3839	-0.3402727
239	0xbe71dcce	-0.23619387
240	0x3dd3d2e1	0.10342956
241	0xbe61e899	-0.22061385
242	0xbe8a80c4	-0.27051365
243	0xbee6db59	-0.45089224
244	0xbe3f4f25	-0.18682535
245	0xbdd886be	-0.10572575
246	0xbe3a8055	-0.18213017
247	0xbcea6516	-0.028612655
248	0xbddace96	-0.106839344
249	0x3dfbb777	0.122908525
250	0xbe204a93	-0.15653448
251	0xbe618a6f	-0.22025464
252	0xbd9a42c3	-0.07532265
253	0xbdbde82f	-0.09272801
254	0xbdbda9b1	-0.09260882
255	0xbda6e9fd	-0.081500985

conv1.bias f4 [8]
0	0xbedacaf5	-0.4273297
1	0x3e8dea7c	0.2771796
2	0x3e3c8786	0.18411073
3	0x3e3b5f8b	0.18298166
4	0xbd88b5fa	-0.06675334
5	0x3b66bd99	0.0035208224
6	0xbf0f731b	-0.5603501
7	0xbe3c9246	-0.18415174

conv11.weight f4 [32, 8, 5, 5]
0	0xbd91ba88	-0.07115656
1	0xbd421e09	-0.047391925
2	0x3dbcb704	0.09214595
3	0x3c7b2718	0.015329145
4	0xbddb1a5b	-0.10698386
5	0x3d982449	0.07428796
6	0xbd11d6d3	-0.035605263
7	0x3d25545f	0.040363666
8	0x3d2b7c09	0.041866336
9	0xbe45d05e	-0.19317767
10	0x3d8abfc3	0.06774857
11	0x3cfda129	0.030960636
12	0xbd999ee6	-0.075010106
13	0xbd41081a	-0.047126867
14	0xbe203844	-0.15646464
15	0x3e54ecfa	0.20793524
16	0xbe283f57	-0.16430412
17	0xbe8b6e8a	-0.27232772
18	0xbd1c9e43	-0.038236868
19	0xbc818004	-0.015808113
20	0xbdd73f04	-0.10510066
21	0xbec8aca1	-0.39194205
22	0xbdb6a2c0	-0.08917761
23	0x3e6820a3	0.226687
24	0x3e1dce58	0.15410745
25	0x3ecb9fd9	0.39770392
26	0x3e9e4290	0.30910158
27	0xbd23a135	-0.03994866
28	0xbdcdf6e2	-0.10056855
29	0xbec3ecb6	-0.38266534
30	0x3ee8a483	0.45438012
31	0x3e062cda	0.13103047
32	0xbea314fb	-0.31851944
33	0xbe8b7dcd	-0.27244416
34	0xbd5b1934	-0.053490832
35	0x3ed79aa7	0.42110178
36	0xbe8e525e	-0.27797216
37	0xbecd0756	-0.4004466
38	0xbd6e4de8	-0.058179766
39	0x3ddbe08d	0.10736189
40	0xbe0d9577	-0.13826548
41	0xbeaae413	-0.33377132
42	0xbd9bbab9	-0.07603974
43	0xbde3c72f	-0.11121976
44	0x3e879083	0.2647744
45	0xbe849fd5	-0.25903192
46	0xbdc7cd5d	-0.09755967
47	0xbd9071e9	-0.07052977
48	0xbb80fb4e	-0.003936208
49	0x3e460f9f	0.19341896
50	0xbe8f7162	-0.28016192
51	0xbd6028ec	-0.054726526
52	0xbe38f4b9	-0.18062104
53	0x3d88ab6b	0.066733204
54	0x3d00e584	0.031468883
55	0xbda422ca	-0.08014448
56	0xbe73f731	-0.23824765
57	0xbe908485	-0.28226104
58	0x3e3292df	0.1743884
59	0x3e89bc41	0.2690144
60	0xbe3e7dd1	-0.18602683
61	0xbf00af6c	-0.5026767
62	0x3d267047	0.04063442
63	0x3ecb3bdc	0.39694107
64	0x3dc36088	0.09539896
65	0xbe4b5688	-0.19857228
66	0x3e7cf5d1	0.24703147
67	0x3f2801f9	0.6562801
68	0x3d8f4f88	0.06997591
69	0x3d4725a6	0.04861989
70	0x3dc0c4f1	0.094125636
71	0x3e9eea22	0.31038004
72	0x3dbd83a0	0.09253621
73	0x3d6c94a4	0.057758942
74	0x3e2b8e69	0.16753544
75	0xbd8b2e9c	-0.067959994
76	0xbe9c5646	-0.3053457
77	0xbe62200c	-0.22082537
78	0x3d0490e8	0.032364756
79	0x3e85285b	0.2600735
80	0xbe652b9a	-0.22379914
81	0xbe7f5edd	-0.24938531
82	0xbd6af16c	-0.057359144
83	0x3eb8b51d	0.36075678
84	0x3e43365d	0.19063707
85	0xbc432842	-0.011911454
86	0x3cda9eb9	0.026687013
87	0x3e1fe377	0.15614115
88	0x3e2bc53e	0.1677446
89	0x3c439fb7	0.011939934
90	0x3e437236	0.19086537
91	0x3e35e391	0.17762591
92	0x3c681b86	0.014166718
93	0xbe103b12	-0.14085034
94	0xbdf09700	-0.11747551
95	0x3e445cbc	0.19176
96	0x3db2cfec	0.08731064
97	0xbd784d41	-0.06062055
98	0x3c28a2b6	0.0102927
99	0x3dbbaa5a	0.09163351
100	0xbe1991a5	-0.14996965
101	0x3cd12f4b	0.025535246
102	0x3d97a8b1	0.07405222
103	0x3c0555b9	0.008138114
104	0xba6a55d8	-0.00089391833
105	0x3b36c9bc	0.002789124
106	0x3e44062d	0.19142981
107	0x3e4c0466	0.19923553
108	0xbc3a2a9c	-0.011362698
109	0x3d4870fd	0.04893588
110	0x3e165a82	0.14682963
111	0xbcd61967	-0.02613516
112	0xbceb65fb	-0.028735152
113	0x3d4b0e4d	0.049574185
114	0x3e35efaf	0.17767213
115	0x3e1e56c5	0.15462787
116	0xbdfe61ab	-0.124209724
117	0x3dca647c	0.09882447
118	0x3dcc058d	0.09961996
119	0xbdfaa1d5	-0.12237898
120	0x3db5daba	0.088796094
121	0x3def71ea	0.11691649
122	0x3e45baab	0.1930949
123	0xbe1e534e	-0.15461466
124	0xbe8f8156	-0.28028363
125	0xbe0ac168	-0.13550341
126	0xbe0268c0	-0.12735271
127	0xbe413de3	-0.18871264
128	0x3b1838c4	0.0023227194
129	0x3e5e5bf3	0.21714763
130	0xbe9cb315	-0.3060538
131	0xbe452141	-0.19250967
132	0xbe5e8a60	-0.21732473
133	0x3e7eb279	0.2487277
134	0x3eee15dd	0.46501055
135	0xbcebb847	-0.028774394
136	0xbdb6c223	-0.089237474
137	0x3d642ef9	0.05570886
138	0x3f2757a7	0.6536812
139	0x3eb3b3af	0.35098025
140	0xbe0f4898	-0.13992536
141	0x3e08850e	0.13332006
142	0x3ee6c4e3	0.45072088
143	0x3eff4237	0.49855205
144	0xbe81a718	-0.25322795
145	0x3cad55f7	0.021159155
146	0x3f02349f	0.50861543
147	0x3e8b71f3	0.27235374
148	0xbea5dc47	-0.3239462
149	0xbf33df9a	-0.70263064
150	0x3e0cf20d	0.1376421
151	0x3df739dd	0.120715834
152	0xbdbee053	-0.0932013
153	0xbe9dd4d1	-0.3082643
154	0xbd40e9a3	-0.047097813
155	0xbcc96191	-0.024582656
156	0xbe6450eb	-0.22296493
157	0xbe0ddb25	-0.13853128
158	0xbe29b262	-0.16571954
159	0x3e4f682d	0.20254584
160	0xbeba4b14	-0.36385405
161	0xbe8560d2	-0.2605043
162	0xbd821b51	-0.063528664
163	0x3e0db748	0.13839447
164	0x3ebd7425	0.37002674
165	0xbee30b83	-0.4434472
166	0xbe6125c2	-0.2198706
167	0x3b697b03	0.00356263
168	0x3e3a436a	0.18189779
169	0x3e9c64c5	0.3054563
170	0xbd274298	-0.040834993
171	0x3db3e6ec	0.08784279
172	0x3e8cb0bb	0.27478585
173	0x3ea62970	0.3245349
174	0x3e19496b	0.14969413
175	0x3c89fcd8	0.016844198
176	0x3c430a09	0.011904248
177	0xbe2c6490	-0.16835237
178	0xbe2e9683	-0.17049603
179	0xbda5db14	-0.080984265
180	0xbd0f4f26	-0.03498759
181	0x3df2f77c	0.1186361
182	0xbca3e0f5	-0.020004729
183	0xbd774fd7	-0.060378876
184	0xbd29eeb5	-0.041487414
185	0xbe9b26f4	-0.30303156
186	0x3e091442	0.13386634
187	0xbd75b4a1	-0.059986714
188	0xbe3f95ee	-0.18709537
189	0xbd564a87	-0.05231717
190	0xbde9d72b	-0.11417993
191	0x3e7fd4ec	0.24983567
192	0xbe188493	-0.14894323
193	0xbe20debe	-0.1570997
194	0x3caf26f4	0.021380879
195	0xbe81d995	-0.25361314
196	0xbc6c4f9f	-0.01442328
197	0xbde3554c	-0.111002535
198	0x3cb02841	0.02150357
199	0x3e2ee900	0.1708107
200	0x3f1c6b3e	0.6110114
201	0x3dd69c79	0.104790635
202	0xbd5b6d12	-0.053570814
203	0xbe16bb2e	-0.14719841
204	0x3e97a7c4	0.29620183
205	0x3f1cf141	0.61305624
206	0x3e1bd761	0.1521888
207	0xbe3964bd	-0.18104835
208	0xbe36583a	-0.17807093
209	0x3e567a7e	0.20945165
210	0x3ed7fad2	0.42183548
211	0x3dfac3e3	0.12244394
212	0xbd909cdc	-0.070611686
213	0xbd31c69a	-0.04340229
214	0x3e33171b	0.17489283
215	0x3ebb9a3d	0.36641112
216	0x3e0bd3d1	0.1365502
217	0x3d89d59d	0.067301966
218	0x3e1f1323	0.15534644
219	0x3ee718d5	0.45136133
220	0x3ece7826	0.4032604
221	0x3d2fd3ca	0.042926587
222	0x3cbfcf23	0.0234142
223	0x3a9e6655	0.0012084941
224	0x3e56f4d9	0.2099184
225	0xbe6518bc	-0.22372717
226	0xbe75c688	-0.24001515
227	0xbe3b5606	-0.18294534
228	0xbdfe7bb6	-0.1242594
229	0x3dc72125	0.09723119
230	0x3d423fbe	0.04742407
231	0xbc368cb2	-0.011141943
232	0xbc83b699	-0.01607828
233	0xbe44203f	-0.19152926
234	0xbdf12547	-0.11774688
235	0xbdd95d88	-0.10613543
236	0xbd9d962a	-0.07694657
237	0xbde2e259	-0.11078329
238	0xbe55d1e9	-0.20880856
239	0xbe92e05e	-0.28686804
240	0xbc460de6	-0.012088275
241	0x3e616d55	0.22014363
242	0x3e926012	0.2858892
243	0x3dabfaec	0.08397469
244	0xbe1d4ef0	-0.15362144
245	0xbf0683c2	-0.52544796
246	0xbe71a2ef	-0.2359731
247	0x3dfa5444	0.12223104
248	0x3e33903f	0.17535494
249	0x3ca962aa	0.02067693
250	0xbe8c0796	-0.27349538
251	0xbe175c39	-0.14781274
252	0xbcf99eca	-0.030471224
253	0xbcf51fd3	-0.029922402
254	0x3dc376c1	0.09544135
255	0xbda31476	-0.07962887

conv11.bias f4 [32]
0	0x3c2de19b	0.010612871
1	0x3cbd4cd9	0.023107933
2	0x3df075fa	0.11741252
3	0xbd7ac4d9	-0.061222885
4	0xbda1b734	-0.07896271
5	0x3ab373e2	0.0013691152
6	0x3e073239	0.13202752
7	0x3c87aade	0.016560968
8	0x3e40bbc3	0.18821625
9	0x3dc7e127	0.09759741
10	0x3e1079b5	0.14108928
11	0x3d0e2ac0	0.03470874
12	0x3d09f091	0.033676688
13	0x3c47ad5e	0.01218733
14	0xbd85928a	-0.06522091
15	0xbcaf6ee7	-0.021415187
16	0xbe24f79e	-0.16110083
17	0xbd8aa395	-0.06769482
18	0xbd23a2a2	-0.03995002
19	0xbd829260	-0.06375575
20	0x3da5c9da	0.08095141
21	0xbdb5a478	-0.088692605
22	0x3c836746	0.016040456
23	0x3ce1fd19	0.027586507
24	0xbb3685ec	-0.002785082
25	0xbd0197f3	-0.03163905
26	0xbd1f4b09	-0.03888992
27	0xbe2818f1	-0.16415764
28	0xbd92ba5b	-0.07164451
29	0x3debc862	0.11512829
30	0x3d1cacdc	0.03825079
31	0x3d864b96	0.065573856

batch1.weight f4 [32]
0	0x3f701823	0.9378683
1	0x3f7c5359	0.9856468
2	0x3f81428e	1.0098436
3	0x3f8e0e76	1.1098163
4	0x3f7437c0	0.9539757
5	0x3f68e1f5	0.90969783
6	0x3f8822f3	1.0635666
7	0x3f888955	1.066691
8	0x3f4c738f	0.7986383
9	0x3f528216	0.82229745
10	0x3f68194a	0.9066359
11	0x3f9a6d7d	1.2064663
12	0x3f58f3ed	0.847472
13	0x3f82d091	1.02199
14	0x3f6788b8	0.9044299
15	0x3f87d5da	1.0612137
16	0x3f6530ee	0.89527786
17	0x3f6e1b15	0.93010074
18	0x3f823f1f	1.0175513
19	0x3f838580	1.0275116
20	0x3f846597	1.0343503
21	0x3f791601	0.972992
22	0x3f798d22	0.97480977
23	0x3f83c5f4	1.0294785
24	0x3f85b54e	1.0445955
25	0x3f72552e	0.94661224
26	0x3f89ea64	1.0774655
27	0x3f782c49	0.96942574
28	0x3f868985	1.0510718
29	0x3f867cb8	1.0506811
30	0x3f6f50bb	0.9348256
31	0x3f5c9b2a	0.8617426

batch1.bias f4 [32]
0	0xbeca18f2	-0.39472157
1	0xbe7f9491	-0.24959017
2	0xbe7190bb	-0.23590367
3	0xbe84dfb1	-0.25951913
4	0xbf9071cb	-1.1284727
5	0xbec4811a	-0.38379747
6	0xbe1747bb	-0.14773457
7	0xbe823067	-0.25427553
8	0xbda4d55e	-0.08048509
9	0xbeaf4ef4	-0.34239924
10	0xbea9681e	-0.33087248
11	0xbe86dd2c	-0.26340616
12	0xbeb0d0e1	-0.34534362
13	0xbe81d08b	-0.25354418
14	0xbeec475c	-0.46148193
15	0xbec0935f	-0.37612435
16	0xbeb26423	-0.34842023
17	0xbe8f83f1	-0.2803035
18	0xbeabbb8d	-0.33541527
19	0xbebd52b1	-0.3697715
20	0xbeceefca	-0.4041732
21	0xbe60e113	-0.21960859
22	0xbe956fd1	-0.29186872
23	0xbeced12a	-0.40393955
24	0xbe836003	-0.2565919
25	0xbe30252f	-0.17201684
26	0xbe9eb2d8	-0.30995822
27	0xbe8a2d05	-0.26987472
28	0xbe494afb	-0.19657509
29	0xbeae8ea7	-0.3409321
30	0xbeb07a1c	-0.34468162
31	0xbe22f444	-0.15913492

batch1.running_mean f4 [32]
0	0x3e003878	0.12521541
1	0xbe9577db	-0.29193005
2	0x3d22ac8b	0.03971533
3	0xbe8ddbfc	-0.27706897
4	0x3f2be900	0.67152405
5	0xbe1d8cbd	-0.15385719
6	0xbe0fb89c	-0.14035267
7	0xbf63b790	-0.8895197
8	0x3fa7cee3	1.3110012
9	0xbef65271	-0.48109773
10	0x3fa824c3	1.3136219
11	0xbd2d804c	-0.04235868
12	0x3feadfcc	1.8349547
13	0x3ece4be7	0.40292284
14	0x3d2500b5	0.040283877
15	0xbfcbae11	-1.5912496
16	0xbc997361	-0.018731775
17	0x3ecbd918	0.39814067
18	0xbe8a8a8b	-0.27058825
19	0x3fdfeb94	1.7493768
20	0x3ef71e83	0.48265466
21	0xbdd2d577	-0.102946214
22	0xbdaa7870	-0.08323753
23	0x3f911fff	1.133789
24	0xbdcc3ee2	-0.099729314
25	0x3f2ab9d2	0.6668979
26	0x3e12def7	0.14342867
27	0xbed04371	-0.40676454
28	0xbe488c01	-0.19584657
29	0xbe1eb1c6	-0.15497503
30	0xbfdd8877	-1.7307271
31	0x3b84f6e2	0.004057751

batch1.running_var f4 [32]
0	0x3fe383ca	1.7774594
1	0x4087f9ab	4.249227
2	0x3fb06fd3	1.3784126
3	0x400d26d1	2.2054942
4	0x3f992a88	1.1966105
5	0x406db49b	3.7141483
6	0x3f66745d	0.90021306
7	0x4020f780	2.5151062
8	0x4094ca3e	4.649688
9	0x3fbedf01	1.4911805
10	0x4002c66b	2.0433605
11	0x4011d3a7	2.2785432
12	0x40683803	3.6284187
13	0x4008ef1c	2.139594
14	0x40241b41	2.5641634
15	0x4093eed8	4.6229057
16	0x3fa20389	1.2657329
17	0x3fa7f7e7	1.3122529
18	0x40c80fd9	6.2519345
19	0x4084b25a	4.1467714
20	0x3fb4d407	1.4127206
21	0x3f8cb65a	1.0993149
22	0x3f8a490d	1.0803543
23	0x4063dd49	3.5603812
24	0x40b6db70	5.714287
25	0x406e65b7	3.7249582
26	0x40888af1	4.2669606
27	0x3fcda856	1.6066997
28	0x401b4dd7	2.426626
29	0x402faa57	2.7447717
30	0x4096fee2	4.7186136
31	0x3fc8aa99	1.5677062

conv2.weight f4 [64, 32, 5, 5]
0	0xbe173e84	-0.14769942
1	0xbe9ddafa	-0.30831128
2	0xbe890ada	-0.26766092
3	0xbeaba3de	-0.33523458
4	0xbe926edf	-0.28600213
5	0xbe69e404	-0.22840887
6	0xbe4dcd2d	-0.200978
7	0xbecafc36	-0.39645547
8	0xbee80444	-0.45315754
9	0xbe95d3d2	-0.2926317
10	0xbe8cd97b	-0.27509674
11	0xbe4dc509	-0.20094694
12	0xbef8cc8c	-0.48593557
13	0xbf0424a5	-0.51618415
14	0xbe86571f	-0.26238343
15	0x3d1cef5d	0.038314212
16	0x3d85d339	0.06534428
17	0xbe83e48f	-0.25760314
18	0xbe7dff89	-0.2480451
19	0xbe2eadf9	-0.17058553
20	0xbdefec19	-0.11714954
21	0xbd8f5977	-0.06999486
22	0xbe6b201b	-0.22961466
23	0xbe926253	-0.2859064
24	0xbe76f446	-0.2411662
25	0xbe0b5184	-0.13605314
26	0xbdc7ccfa	-0.09755893
27	0x3e2b9487	0.16755877
28	0x3eba221a	0.36354142
29	0x3e2868ea	0.16446272
30	0xbd48f286	-0.049059413
31	0xbdeea210	-0.11652005
32	0x3e0a6840	0.1351633
33	0x3ebc6f94	0.36803877
34	0x3e985b8b	0.29757342
35	0x3e278221	0.16358234
36	0x3c1f0682	0.009706141
37	0x3dfb095c	0.122576445
38	0x3e97b5d4	0.2963091
39	0x3e5fde86	0.2186223
40	0x3e859078	0.26086783
41	0x3dc027ab	0.09382566
42	0x3df9501d	0.121734835
43	0x3e9ed2d6	0.3102023
44	0x3dd01aca	0.101613596
45	0x3ea59593	0.3234068
46	0x3e4c2512	0.19936016
47	0x3e60c814	0.21951324
48	0x3e7b88d2	0.24563912
49	0x3d4a9add	0.049464095
50	0x3ed978ad	0.4247488
51	0x3eae6526	0.34061545
52	0x3dbc6ffe	0.09201048
53	0xbe33d26b	-0.17560737
54	0xbedfe8b8	-0.43732238
55	0x3ed34108	0.41260552
56	0x3f04364c	0.5164535
57	0x3ea2a786	0.31768435
58	0xbd6f98d0	-0.058495343
59	0xbe5acaa7	-0.21366368
60	0x3e7fd18e	0.24982283
61	0x3e7d4829	0.24734558
62	0xbc9ef844	-0.019405492
63	0xbe9dacf6	-0.3079602
64	0xbe977a3e	-0.2958545
65	0x3ee29a11	0.44258168
66	0x3edebf87	0.435055
67	0x3eddb947	0.43305418
68	0x3e01d363	0.12678294
69	0x3e2f8562	0.17140725
70	0x3efda00d	0.49536172
71	0x3eac62c3	0.336691
72	0x3e8007be	0.25005907
73	0x3e088f81	0.13335992
74	0x3e85bec4	0.26122105
75	0x3e810e24	0.252061
76	0xbc1e808e	-0.0096742045
77	0xbdd9f804	-0.10643008
78	0xbd0a463e	-0.033758394
79	0x3d976ef0	0.073942065
80	0x3f206cb7	0.62665886
81	0x3e767352	0.24067429
82	0xbd6f453b	-0.058415633
83	0xbe05a798	-0.13052213
84	0x3d58a27f	0.052889343
85	0x3e9ec759	0.31011465
86	0xbdc3b8e4	-0.095567495
87	0xbeea3de7	-0.45750353
88	0xbeb437b0	-0.35198736
89	0xbdf6480f	-0.12025463
90	0x3f0bfbb8	0.5468097
91	0x3e7821fe	0.24231717
92	0xbd6a71c0	-0.057237387
93	0x3cb643be	0.022249099
94	0x3dabc31c	0.083868235
95	0x3f1b4ca7	0.6066384
96	0x3ead478f	0.33843657
97	0x3d13832f	0.03601378
98	0xbc83d1e8	-0.016091302
99	0x3b90a507	0.004414204
100	0xbee3d84f	-0.44500968
101	0xbe336bb6	-0.17521557
102	0xbbaf45a3	-0.0053488775
103	0x3d869dfe	0.06573103
104	0x3cd5a618	0.026080176
105	0xbeb1ad4e	-0.34702533
106	0xbd28a9e4	-0.041177645
107	0x3e732305	0.23743828
108	0x3ee56719	0.4480522
109	0x3efd7124	0.49500382
110	0xbf0da48c	-0.55329204
111	0xbe7cf5d6	-0.24703154
112	0x3dc21bd5	0.09477965
113	0x3ecb191f	0.39667603
114	0x3ee75b20	0.4518671
115	0xbf0b898c	-0.54506755
116	0xbe948805	-0.29010025
117	0x3d4829f5	0.04886814
118	0x3ea64951	0.3247781
119	0x3ecfd4da	0.4059208
120	0xbf043d48	-0.5165601
121	0xbe89ae96	-0.2689101
122	0x3c3ce43f	0.0115290275
123	0x3e964035	0.2934586
124	0x3ed00aca	0.4063323
125	0x3c7bda85	0.015371923
126	0x3da728d1	0.08162082
127	0x3e09ad9c	0.13445133
128	0x3d598adc	0.053110942
129	0x3dd3d0de	0.10342573
130	0xbebbd290	-0.36684084
131	0xbe319554	-0.1734212
132	0xbe40e37e	-0.18836781
133	0xbe6fcc5a	-0.23417798
134	0xbe30ae33	-0.17253952
135	0xbe826ad3	-0.25472125
136	0xbea11377	-0.31460163
137	0xbe986f5b	-0.29772457
138	0xbecd6c91	-0.40121892
139	0xbe2756a3	-0.16341643
140	0x3d832806	0.06404118
141	0xbd1a001f	-0.03759777
142	0xbd535897	-0.051598158
143	0xbe147408	-0.14497387
144	0xbe21550f	-0.15755104
145	0x3e73c276	0.2380465
146	0x3e1d717f	0.15375327
147	0x3e1971da	0.14984837
148	0xbc767b98	-0.0150441155
149	0xbdc4a67c	-0.09602067
150	0xbe52c6ee	-0.20583698
151	0x3ee9d244	0.45668232
152	0x3f4ec400	0.8076782
153	0x3f46512f	0.77467626
154	0x3f28e249	0.65970284
155	0xbe47c3e6	-0.19508323
156	0x3e8b2bbc	0.27181804
157	0x3f31fb73	0.69524306
158	0x3f42d8d8	0.7611213
159	0x3f3ea7d2	0.74474823
160	0xbf2732c0	-0.65311813
161	0xbec2ad26	-0.38022727
162	0xbcb98e66	-0.022650909
163	0x3ea3c711	0.31987813
164	0x3ee5ab5c	0.448573
165	0xbf6be81d	-0.9215105
166	0xbf75bd71	-0.9599219
167	0xbf1637d9	-0.58678967
168	0xbe53e390	-0.20692277
169	0x3cd07047	0.025444163
170	0xbf40dab7	-0.7533373
171	0xbf75398d	-0.9579094
172	0xbf3e1000	-0.74243164
173	0xbf00e722	-0.5035268
174	0xbe6b4f24	-0.22979409
175	0x3e85fcfa	0.26169568
176	0x3e16649e	0.1468682
177	0xbceebb5d	-0.029142076
178	0xbd80d2a9	-0.0629018
179	0x3caa2b8e	0.020772722
180	0x3d29bf4c	0.0414422
181	0x3d305068	0.04304543
182	0xbcbc6b53	-0.023000395
183	0xbe2df405	-0.16987617
184	0xbd68a741	-0.05680013
185	0x3cd19761	0.025584878
186	0xbd954a46	-0.07289557
187	0xbdff042f	-0.1245197
188	0xbe89786b	-0.26849684
189	0xbe188d1c	-0.14897579
190	0xbd3a73a9	-0.04552046
191	0xbda20882	-0.07911779
192	0xbd9a2b84	-0.07527831
193	0xbe2942e0	-0.16529417
194	0xbe2348d7	-0.15945755
195	0x3c2328db	0.009958471
196	0xbd84235d	-0.064520575
197	0xbd115331	-0.035479728
198	0xbe2e908b	-0.17047326
199	0xbe7c74bc	-0.24653906
200	0xbeec0924	-0.46100724
201	0xbea060c2	-0.3132382
202	0xbe8c91f5	-0.27455106
203	0xbd22f66f	-0.0397858
204	0x3e1b44b2	0.15162924
205	0xbf06da36	-0.52676713
206	0xbe6b4952	-0.22977188
207	0xbd95ded6	-0.07317893
208	0x3e39095a	0.18069974
209	0x3ea75228	0.32679868
210	0xbeede442	-0.4646321
211	0xbe794989	-0.24344458
212	0x3c365ec3	0.011130991
213	0x3e9e5c2c	0.30929697
214	0x3edcaa77	0.43098804
215	0xbeb0ed58	-0.3455608
216	0xbe152376	-0.14564309
217	0x3d31d74f	0.043418225
218	0x3ea10f2a	0.31456882
219	0x3ee4160d	0.44548073
220	0xbe6b9472	-0.23005846
221	0xbda4bbc6	-0.080436274
222	0x3e32cc2d	0.174607
223	0x3eb45c2b	0.3522657
224	0x3ee24161	0.44190505
225	0xbe88bbb2	-0.267057
226	0xbdd0f416	-0.10202806
227	0xbe1de23e	-0.15418336
228	0xbe76db44	-0.2410708
229	0xbddcd135	-0.107820906
230	0xbe4ced39	-0.20012368
231	0x3d175ddb	0.036954742
232	0x3d303b24	0.04302515
233	0xbdbc6290	-0.09198487
234	0x3d170eaa	0.03687922
235	0xbe577980	-0.21042442
236	0x3d003567	0.03130093
237	0x3d763437	0.06010839
238	0xbc3fac96	-0.011698863
239	0x3e5eacec	0.21745652
240	0xbe94fbbd	-0.2909831
241	0xbe08f351	-0.13374068
242	0x3d853035	0.065033354
243	0x3dab1868	0.083542645
244	0x3ebaf73a	0.36516744
245	0xbe64ac98	-0.22331464
246	0xbdf395b7	-0.1189379
247	0x3c0c263e	0.0085540395
248	0x3dfce620	0.1234858
249	0x3ebcde9a	0.36888582
250	0xbe3f90a4	-0.1870752
251	0xbdd9bd8f	-0.106318586
252	0x3d8251bb	0.06363245
253	0x3e3bc5e1	0.18337204
254	0x3e517fe8	0.20458949
255	0x3d25ea7c	0.040506825

conv2.bias f4 [64]
0	0x3d86b842	0.06578113
1	0xbf5259cf	-0.8216829
2	0xbea98511	-0.33109334
3	0x3da82292	0.08209719
4	0x3e947d50	0.29001856
5	0xbf0f8885	-0.5606769
6	0xbebef187	-0.37293646
7	0xbedd6c46	-0.4324667
8	0x3f08eb46	0.53484
9	0x3f1b0f80	0.60570526
10	0x3eb96f6c	0.3621782
11	0x3e33606a	0.17517248
12	0x3f00260b	0.5005805
13	0x3f1433a5	0.57891303
14	0x3f3f3a86	0.74698675
15	0xbeba17b7	-0.36346218
16	0xbf20ed46	-0.6286205
17	0x3da0d355	0.078528084
18	0xbf30aa3f	-0.69009775
19	0xbe8e0bae	-0.27743286
20	0xbcb9ad96	-0.02266578
21	0xbf055c18	-0.5209365
22	0xbe806beb	-0.25082335
23	0xbf1076df	-0.5643138
24	0x3dcd9fe7	0.100402646
25	0x3f0ad59a	0.5423218
26	0xbf20ac9a	-0.6276337
27	0xbe8f5ea1	-0.28001884
28	0x3eced979	0.40400293
29	0x3bd19eca	0.006397103
30	0x3d5aa148	0.053376466
31	0xbd8bb65d	-0.068218924
32	0xbf196566	-0.59920347
33	0xbd87d3ac	-0.0663217
34	0xbf56fe5b	-0.83981866
35	0xbe939f2f	-0.28832385
36	0xbec6fdf6	-0.38865632
37	0x3ea1bae5	0.31587902
38	0xbda2454a	-0.07923372
39	0xbebf4acb	-0.3736175
40	0xbef17be3	-0.4716483
41	0xbd7d5159	-0.061845157
42	0xbe8eeb06	-0.27913684
43	0x3db938aa	0.09044011
44	0x3ea7f5c6	0.32804698
45	0x3ea7be08	0.3276217
46	0x3ee66ada	0.45003396
47	0x3e0c3966	0.13693771
48	0x3e474c83	0.1946278
49	0xbe924a37	-0.28572246
50	0x3e97f7e8	0.29681325
51	0xbe1b235b	-0.15150206
52	0x3ed5a0a2	0.41724116
53	0xbf02c06f	-0.5107488
54	0x3e344b34	0.17606813
55	0x3cbb9e79	0.022902714
56	0x3f246b96	0.64226663
57	0xbe9ce727	-0.30645105
58	0x3e3dec38	0.18547142
59	0x3e6f20e0	0.23352385
60	0xbd8a7b1d	-0.06761763
61	0x3e55e153	0.20886736
62	0xbe187cb6	-0.14891323
63	0xbea5df4e	-0.3239693

conv22.weight f4 [32, 64, 5, 5]
0	0xbc0c0689	-0.00854648
1	0x3dbe2f42	0.092863575
2	0x3e5ae14e	0.2137501
3	0x3ca3cfa7	0.019996477
4	0xbe19a1ad	-0.1500308
5	0x3e68a3d6	0.22718748
6	0x3e49f7a3	0.19723372
7	0x3e6fea12	0.23429134
8	0x3d2e7ea3	0.04260124
9	0xbe0e9426	-0.13923702
10	0x3e80cd56	0.2515666
11	0x3ec4bf85	0.38427368
12	0x3ee368ee	0.44415992
13	0x3e4ad0d6	0.19806227
14	0xbd6e27a5	-0.058143277
15	0x3daa3063	0.0831001
16	0x3e9c685e	0.30548376
17	0x3f026222	0.5093099
18	0x3e96c4ff	0.2944717
19	0xbe0b66d1	-0.1361344
20	0xbeeb4087	-0.45947668
21	0xbedcbe3d	-0.4311389
22	0xbe32d731	-0.17464902
23	0xbe3cfc2b	-0.1845557
24	0xbe9c2e9a	-0.30504304
25	0x3db93e66	0.09045105
26	0x3c50b6dd	0.0127389105
27	0x3dfbcc08	0.12294775
28	0x3e28658e	0.1644499
29	0x3c9a7329	0.01885374
30	0x3e3fce43	0.18731026
31	0x3e297c8a	0.16551414
32	0x3ea3661b	0.31913838
33	0x3ee0d36c	0.43911302
34	0x3e9be262	0.30446154
35	0xbdd619a4	-0.10454109
36	0xbe662fe1	-0.22479202
37	0xbe16b681	-0.14718057
38	0x3d71581c	0.05892192
39	0x3a7244e4	0.0009241833
40	0xbe8baeea	-0.27281886
41	0xbed5285b	-0.4163235
42	0xbef3966f	-0.4757571
43	0xbebeb6bf	-0.372488
44	0xbeba5c85	-0.36398712
45	0xbdb4b3a5	-0.08823327
46	0xbe2ac3b6	-0.1667622
47	0xbe30526e	-0.17218944
48	0xbe13c12d	-0.1442916
49	0xbde05a5a	-0.10954733
50	0xbe5a1294	-0.2129615
51	0xbe15f583	-0.14644437
52	0xbe184096	-0.14868388
53	0x3dcafe39	0.099117704
54	0x3d1917a4	0.03737606
55	0xbdbec682	-0.09315206
56	0xbc580397	-0.01318445
57	0xbcdd9167	-0.027046872
58	0x3dd60a84	0.104512244
59	0x3d1ff9d5	0.039056618
60	0x3e4b1eef	0.19836019
61	0x3e223071	0.15838791
62	0x3e01132a	0.12604967
63	0x3e6077d3	0.2192071
64	0x3e0977a0	0.1342454
65	0xbcb416a9	-0.021983461
66	0xbe6f5490	-0.23372102
67	0xbe9a7ab6	-0.30171746
68	0xbd3f9fd0	-0.04678327
69	0x3c8e3e9b	0.017363837
70	0x3e43e8bf	0.19131754
71	0x3d3cc36d	0.04608481
72	0xbe32caaa	-0.17460123
73	0xbe38532b	-0.18000476
74	0xbda08057	-0.07836979
75	0xbe8dfec9	-0.27733448
76	0xbc91b0ef	-0.017784564
77	0x3d7b9ca4	0.06142868
78	0xbdfed434	-0.12442818
79	0xbe910e0c	-0.2833103
80	0x3de16109	0.11004836
81	0x3e6d0c5b	0.23149244
82	0x3e571d54	0.21007282
83	0x3dff6726	0.12470846
84	0x3b0992b1	0.0020991976
85	0xbe142f1f	-0.144711
86	0xbe70adc7	-0.23503791
87	0xbe42c0fd	-0.19018932
88	0xbe446a5f	-0.19181202
89	0xbd46971b	-0.04848395
90	0xbc6ec267	-0.014572716
91	0x3b7589b4	0.003746611
92	0x3d82beba	0.063840345
93	0x3d8cceeb	0.06875404
94	0x3e26a499	0.16273727
95	0x3e994b6e	0.2994036
96	0x3e8dd1b9	0.27699068
97	0x3ea9c142	0.33155257
98	0x3e9ef60b	0.3104709
99	0x3e611119	0.21979178
100	0xbe998f44	-0.29992115
101	0xbe89e06a	-0.26929027
102	0xbecf314f	-0.40467307
103	0xbe9fcce6	-0.31211013
104	0xbdef992b	-0.11699136
105	0xbda96245	-0.082706966
106	0xbe099731	-0.13436581
107	0xbe717854	-0.23581058
108	0xbe273042	-0.16327003
109	0xbe1eba25	-0.15500696
110	0x3e066837	0.13125692
111	0x3b8a1527	0.0042139473
112	0x3c3cb0fa	0.011516804
113	0x3e4c2239	0.1993493
114	0x3eaa82ac	0.3330282
115	0x3eb2c7d2	0.34918076
116	0x3e6cdcdb	0.23131125
117	0x3e27aa4e	0.1637356
118	0x3e3d6591	0.18495776
119	0x3ed2a65b	0.41142544
120	0x3ebe010c	0.37110174
121	0x3e569d8e	0.2095854
122	0xbc451e41	-0.012031139
123	0xbd9b98c9	-0.07597501
124	0x3e17a129	0.14807571
125	0x3baa9684	0.005205931
126	0xbd137630	-0.036001384
127	0xbe83cea6	-0.25743598
128	0xbe2a4f9d	-0.16631933
129	0xbd3c8088	-0.046021014
130	0xbe8852b2	-0.26625592
131	0xbe893780	-0.26800156
132	0xbe642bbb	-0.22282307
133	0xbe00c7e1	-0.12576248
134	0xbd2f5e75	-0.04281469
135	0xbe31f168	-0.17377245
136	0xbe1e7e7e	-0.1547794
137	0xbcb488a7	-0.022037817
138	0xbda9aee1	-0.08285309
139	0xbda272c7	-0.07932048
140	0xbdc128b1	-0.094315894
141	0xbe0f2012	-0.13977078
142	0xbd874b4c	-0.066061586
143	0xbd76fc12	-0.060298987
144	0x3d448167	0.04797497
145	0xbcf93daa	-0.030424912
146	0xbd8b671b	-0.06806775
147	0xbe27ef9d	-0.16399999
148	0xbe225b5c	-0.15855163
149	0x3d0cb33d	0.034350622
150	0xbda5ee9a	-0.0810215
151	0xbe8473bd	-0.2586955
152	0xbe3b0b97	-0.1826614
153	0xbe4990d7	-0.19684158
154	0xbea1c4d3	-0.31595477
155	0x3e1d3cf9	0.1535529
156	0x3dc69074	0.09695521
157	0x3e12f6ab	0.14351909
158	0x3e6ac6ce	0.229274
159	0x3e13900a	0.14410415
160	0xbd4d1f66	-0.050078772
161	0xbcda4e96	-0.0266488
162	0x3d500863	0.05078925
163	0x3ded9b68	0.11601907
164	0xbbe94c66	-0.007119703
165	0xbdd058b6	-0.1017317
166	0xbd9319ed	-0.07182679
167	0xbdfae193	-0.12250056
168	0xbd027979	-0.031854127
169	0xbd3679f5	-0.0445499
170	0xbe417fd2	-0.18896416
171	0xbb2e7cd9	-0.0026624708
172	0xbd083a64	-0.03325881
173	0x3dbfe11d	0.09369109
174	0x3d9b1d64	0.07573965
175	0xbd690cd6	-0.056897007
176	0xbdf8e3ad	-0.12152801
177	0xbe263022	-0.16229299
178	0xbe6af9c9	-0.22946848
179	0xbe1e2394	-0.1544326
180	0xbda0a4c6	-0.07843928
181	0xbde08dc4	-0.1096454
182	0xbe0164cd	-0.12636109
183	0xbe23303d	-0.1593637
184	0xbd88a468	-0.06671983
185	0xbd5056ca	-0.05086402
186	0x3db16d9d	0.08663485
187	0x3df7da5b	0.12102195
188	0x3d5092ad	0.05092113
189	0xbb52b8ee	-0.0032153684
190	0xbd9d7b23	-0.07689502
191	0x3d1cecbb	0.0383117
192	0x3dc23193	0.09482112
193	0x3c67ce00	0.014148235
194	0xbcdec321	-0.027192654
195	0xbdbaf037	-0.091278486
196	0xbd9f0098	-0.07763785
197	0xbdf79ed9	-0.12090845
198	0xbe0768eb	-0.13223617
199	0xbe06eea5	-0.13176973
200	0xbee61437	-0.44937298
201	0xbe66591f	-0.22494934
202	0xbf025ed0	-0.5092592
203	0xbeec381a	-0.46136552
204	0xbe926855	-0.28595224
205	0xbe50cc21	-0.20390369
206	0x3d9f76db	0.07786342
207	0xbdf5062c	-0.11964068
208	0xbeac3c1e	-0.33639616
209	0xbe903eb4	-0.2817284
210	0xbd896cfc	-0.0671024
211	0x3eacd930	0.3375945
212	0x3e9dba21	0.30806068
213	0x3e03ade7	0.12859307
214	0xbccf04fd	-0.025270933
215	0xbdd2a817	-0.10285967
216	0x3bbad9fc	0.0057022553
217	0x3e5a8e0e	0.21343252
218	0x3e30cfeb	0.17266814
219	0x3dd33a36	0.10313837
220	0xbdd0b890	-0.101914525
221	0xbe8d6c35	-0.27621618
222	0xbd672918	-0.056435674
223	0xbd0d52b3	-0.034502696
224	0x3e316a19	0.1732563
225	0xbec4eae4	-0.38460457
226	0xbd9cec3d	-0.076622464
227	0x3d95d46c	0.07315907
228	0x3e1072e7	0.14106332
229	0x3dc5f498	0.09665793
230	0xbe919fc9	-0.2844222
231	0xbce47d8b	-0.027891895
232	0x3e6bdb25	0.23032816
233	0x3ee22899	0.441716
234	0x3ec2a890	0.38019228
235	0xbe833d48	-0.2563269
236	0xbe880474	-0.26565897
237	0xbe328a4e	-0.17435572
238	0x3d11cf70	0.03559822
239	0x3e4e1962	0.2012687
240	0x3e004d4e	0.1252949
241	0x3d1301b4	0.035890296
242	0x3c8022f8	0.015641674
243	0x3d6fa97f	0.058511253
244	0x3e848a36	0.25886697
245	0x3e10e24a	0.14148822
246	0x3d3ece31	0.04658336
247	0xbd1519f0	-0.03640169
248	0xbdc6f975	-0.09715549
249	0x3d939512	0.07206167
250	0x3cb784ad	0.022402132
251	0x3d9b1751	0.075728066
252	0x3d9a039b	0.07520219
253	0x3e462466	0.19349822
254	0x3e220744	0.15823084
255	0x3e095745	0.13412197

conv22.bias f4 [32]
0	0x3c930f22	0.017951552
1	0x3c6f181e	0.014593152
2	0xbc7c35a2	-0.015393646
3	0x3c1deb7e	0.009638665
4	0xbc6a52c4	-0.014301959
5	0x3c00a15d	0.007850972
6	0xbc206340	-0.009789288
7	0x3cabf834	0.020992376
8	0x3c9cbfbf	0.0191344
9	0xbc6fc3a7	-0.0146340495
10	0x3b2b9930	0.0026183836
11	0x3c3ac875	0.011400332
12	0xbbdf3b06	-0.006812456
13	0x3c862c75	0.01637862
14	0x3bf12a22	0.007359759
15	0xbbe75a49	-0.0070603234
16	0xbb379e06	-0.0028017773
17	0x3c855275	0.01627467
18	0x3ac63392	0.001512157
19	0xbc48d792	-0.012258427
20	0x3bbebc43	0.0058207824
21	0x3c5175bc	0.012784418
22	0xbcbe76fe	-0.0232501
23	0x3cc530fc	0.02407121
24	0x3c529f62	0.012855383
25	0xbc5acbad	-0.013354224
26	0xbc87aea1	-0.016562762
27	0x3c83bb24	0.016080447
28	0xbc28352a	-0.010266582
29	0xbbaf23ce	-0.0053448444
30	0x3c0cee77	0.008601776
31	0x3bdc59d1	0.006724574

batch2.weight f4 [32]
0	0x3f3ddc52	0.7416431
1	0x3f49b664	0.7879393
2	0x3f74d8f5	0.9564355
3	0x3f6ba2d8	0.92045355
4	0x3f5f8525	0.8731254
5	0x3f3b2e68	0.73117685
6	0x3f837731	1.0270749
7	0x3f4737da	0.778196
8	0x3f8d024b	1.1016325
9	0x3f488e8f	0.7834253
10	0x3f62032d	0.88286096
11	0x3f5012d6	0.8127874
12	0x3f5fa1f2	0.87356484
13	0x3f336a1f	0.700838
14	0x3f896af8	1.0735769
15	0x3f5b7e38	0.8573947
16	0x3f806fdb	1.0034136
17	0x3f5b5368	0.8567414
18	0x3f73966b	0.95151395
19	0x3f6fb748	0.9363904
20	0x3f5c37fb	0.8602292
21	0x3f58a51e	0.8462695
22	0x3f745d0e	0.9545449
23	0x3f4284aa	0.7598368
24	0x3f5c28fe	0.8600005
25	0x3f81c970	1.0139599
26	0x3f52302c	0.82104754
27	0x3f8a89d0	1.0823307
28	0x3f4d8d6f	0.80293936
29	0x3f4ef196	0.8083738
30	0x3f44ec76	0.7692331
31	0x3f7ba5ab	0.98299664

batch2.bias f4 [32]
0	0xbf15e890	-0.5855799
1	0xbf081eb4	-0.5317185
2	0xbf3c3343	-0.7351572
3	0xbf08625d	-0.5327509
4	0xbec3cd3f	-0.38242528
5	0xbec15924	-0.3776332
6	0xbf4f37c9	-0.80944496
7	0xbf071b9a	-0.5277649
8	0xbf45f536	-0.7732729
9	0xbf0a67f6	-0.5406488
10	0xbf027eca	-0.50974715
11	0xbf0fe35a	-0.56206286
12	0xbed0290b	-0.40656313
13	0xbee760f0	-0.45191145
14	0xbf2c750a	-0.6736609
15	0xbf0caa37	-0.5494723
16	0xbf103bdf	-0.56341356
17	0xbf2c149e	-0.6721896
18	0xbf3095df	-0.68978685
19	0xbf1f4141	-0.62208945
20	0xbf1515d1	-0.58236414
21	0xbebc32ed	-0.36757603
22	0xbf04c656	-0.51865137
23	0xbf083bda	-0.53216326
24	0xbf0bb72d	-0.5457638
25	0xbf040d3c	-0.51582694
26	0xbedf3c1b	-0.43600544
27	0xbf4476a6	-0.76743543
28	0xbf033623	-0.5125448
29	0xbf5aef87	-0.8552174
30	0xbed21903	-0.41034707
31	0xbf1491fb	-0.5803525

batch2.running_mean f4 [32]
0	0xc26096cc	-56.147263
1	0xc31a970a	-154.59
2	0xc386505b	-268.62778
3	0xc35f8c1a	-223.54727
4	0xc318447e	-152.26755
5	0xc18ca958	-17.582687
6	0xc392b489	-293.41043
7	0xc35064fe	-208.3945
8	0xc3736f58	-243.43494
9	0xc3568844	-214.53229
10	0xc330f7aa	-176.96744
11	0xc2f6bcb3	-123.36855
12	0xc382236c	-260.27673
13	0x418ea600	17.831055
14	0xc386b3e0	-269.40527
15	0xc3197035	-153.43831
16	0xc3766060	-246.37646
17	0xc35b7e35	-219.493
18	0xc389bd39	-275.4783
19	0xc367ff1d	-231.99654
20	0xc3428f6c	-194.56024
21	0xc384752f	-264.9155
22	0xc3547b29	-212.4811
23	0xc347c2ad	-199.76045
24	0xc330a374	-176.63849
25	0xc38786d4	-271.05334
26	0xc346803a	-198.50089
27	0xc385db40	-267.7129
28	0xc30b3f38	-139.24695
29	0xc2f17571	-120.72938
30	0xc32bf39f	-171.95164
31	0xc340dc2d	-192.86006

batch2.running_var f4 [32]
0	0x46fe23f7	32529.982
1	0x47269173	42641.45
2	0x478e30c4	72801.53
3	0x478d3e6f	72316.87
4	0x475447cf	54343.81
5	0x47310896	45320.586
6	0x4790f447	74216.555
7	0x473e23df	48675.87
8	0x47abff78	88062.94
9	0x473e13b7	48659.715
10	0x471dc3bb	40387.73
11	0x474cb938	52409.22
12	0x47949899	76081.195
13	0x47260564	42501.39
14	0x478717a4	69167.28
15	0x474b8876	52104.46
16	0x47695c9b	59740.605
17	0x4727c77b	42951.48
18	0x47af7df6	89851.92
19	0x4759bb87	55739.527
20	0x4767f08c	59376.547
21	0x478853dc	69799.72
22	0x47a69ace	85301.61
23	0x4724f847	42232.277
24	0x473c36d7	48182.84
25	0x47cbebf9	104407.945
26	0x47acfe7f	88572.99
27	0x477f593d	65369.24
28	0x471a95f9	39573.973
29	0x471eeeff	40686.996
30	0x473b6fd5	47983.832
31	0x478157db	66223.71

conv3.weight f4 [16, 32, 5, 5]
0	0x3e8a14f2	0.26969105
1	0x3ef13924	0.47113907
2	0x3e7b77af	0.24557374
3	0x3ce14119	0.027496861
4	0x3e252fee	0.16131565
5	0xbe207f06	-0.15673456
6	0x3c8d80c2	0.01727331
7	0xbd4172d3	-0.047228646
8	0xbe7f33ab	-0.24922054
9	0xbe7a05e3	-0.24416308
10	0xbed1f761	-0.41009048
11	0xbe51b957	-0.20480858
12	0xbe223fbf	-0.1584463
13	0xbe3f7120	-0.18695498
14	0xbeaa7a8d	-0.33296624
15	0xbd2e0607	-0.042486217
16	0xbda9a4ba	-0.08283372
17	0xbd406c5b	-0.046978336
18	0xbd8f2799	-0.069899745
19	0xbee1051e	-0.43949217
20	0xbe82c2ad	-0.2553915
21	0xbebb7c70	-0.36618376
22	0xbdeb5a1c	-0.114917964
23	0xbd374338	-0.04474184
24	0xbe0a3599	-0.13497008
25	0xbe4e78f7	-0.20163332
26	0xbc99f894	-0.01879529
27	0x3ce14119	0.027496861
28	0xbe196a63	-0.1498199
29	0xbeaf21b3	-0.34205398
30	0xbeac9ca0	-0.33713245
31	0xbd30685c	-0.043068275
32	0x3e14dfdb	0.14538519
33	0xbd29d95d	-0.04146706
34	0xbe4b4ebd	-0.19854255
35	0x3b9f6c8a	0.004865234
36	0x3bab7da7	0.005233485
37	0xbd51d107	-0.051224735
38	0xbe1a9092	-0.15094212
39	0xbd2fe4d4	-0.042942837
40	0x3e815ae7	0.25264665
41	0x3e3d3b26	0.18479595
42	0x3c1cb5e5	0.009564851
43	0xbe008907	-0.12552272
44	0x3d5f6286	0.05453732
45	0xbdf4204a	-0.11920221
46	0xbe21efc9	-0.15814127
47	0xbc879b46	-0.016553532
48	0xbc070ec8	-0.00824327
49	0x3dfac332	0.12244262
50	0xbea78004	-0.32714856
51	0xbf0f75e0	-0.5603924
52	0xbee8a376	-0.4543721
53	0xbe38cf1f	-0.1804776
54	0x399ea585	0.0003025943
55	0xbe6093a7	-0.21931325
56	0xbeed2e51	-0.463244
57	0xbe498d71	-0.19682862
58	0xbdc1e1f5	-0.09466926
59	0x3d116b24	0.035502568
60	0xbdb87d5b	-0.09008285
61	0xbeacade1	-0.3372641
62	0xbde104bd	-0.10987232
63	0x3e154564	0.14577252
64	0x3eade8d9	0.3396671
65	0xbe899b0b	-0.268761
66	0xbebe6a8a	-0.37190658
67	0xbe631920	-0.22177553
68	0x3da60a64	0.081074506
69	0x3e5b8558	0.21437585
70	0xbe28764f	-0.16451381
71	0xbd88dd8a	-0.0668288
72	0x3de12a9e	0.10994457
73	0x3e1fec92	0.15617588
74	0x3d8ddfa3	0.06927421
75	0x3dbe7345	0.0929933
76	0xbe060977	-0.13089548
77	0xbdc79ce4	-0.097467214
78	0x3c02d914	0.007986326
79	0x3e81f223	0.25380048
80	0xbd6be0c7	-0.05758741
81	0xbde3f4dd	-0.11130688
82	0x3dc611ae	0.09671341
83	0x3e23b89d	0.15988393
84	0x3ec29445	0.38003746
85	0xbd95f7df	-0.07322668
86	0xbd67e2e9	-0.056612883
87	0x3e5fbc33	0.21849136
88	0x3e4857a4	0.19564682
89	0x3e91bcdb	0.28464398
90	0xbea3d93f	-0.32001683
91	0xbe5684f6	-0.20949158
92	0x3e07e350	0.13270307
93	0x3dfa6dc7	0.122279696
94	0x3d83fa08	0.06444174
95	0xbe3e8734	-0.18606263
96	0x3d248fc9	0.040176187
97	0x3e5c9596	0.21541438
98	0x3dadba24	0.08482769
99	0xbca7351c	-0.020411067
100	0x3d164b64	0.03669299
101	0xbe8ea9c2	-0.2786389
102	0xbe830b28	-0.2559445
103	0xbeeb7fc8	-0.45995927
104	0xbf063a04	-0.52432275
105	0x3e9528d2	0.29132706
106	0xbe0720dc	-0.13196129
107	0xbd300ab5	-0.04297896
108	0xbeb07667	-0.34465334
109	0xbe2ee913	-0.17081098
110	0x3e1e20fe	0.15442273
111	0xbe8bed8e	-0.27329677
112	0xbeac868c	-0.336964
113	0xbea62cb3	-0.32455978
114	0x3dbf290b	0.09334
115	0x3e7c3d9b	0.24632876
116	0xb9bad5cb	-0.00035635973
117	0xbdb89889	-0.09013469
118	0xbdd645c9	-0.10462529
119	0x3ecc4ae3	0.39900884
120	0x3ea11e04	0.31468213
121	0x3e340e5f	0.17583607
122	0x3e462945	0.1935168
123	0x3e2d4d57	0.16924034
124	0x3ed2c89f	0.41168687
125	0x3e5f78ad	0.21823378
126	0x3e776db7	0.24162947
127	0x3e5e3162	0.21698526
128	0x3d15f02f	0.03660601
129	0x3d8b6bf4	0.068077
130	0xbd111296	-0.035418116
131	0x3c841b8f	0.016126422
132	0x3cb11622	0.021616999
133	0xbe8f5a46	-0.2799856
134	0xbec5c859	-0.38629416
135	0xbe8212a5	-0.2540485
136	0xbdeb1e6e	-0.114804134
137	0xbcc35051	-0.023842009
138	0xbe327d44	-0.17430598
139	0xbeaf6cf5	-0.34262815
140	0x3dec1a8d	0.11528502
141	0x3e4885f1	0.19582345
142	0x3e00ff40	0.1259737
143	0xbde0c01a	-0.109741405
144	0xbe87bc91	-0.26511052
145	0xbd9f4618	-0.07777041
146	0x3d51cafc	0.05121897
147	0x3bb467ef	0.005505554
148	0xbe043207	-0.12909709
149	0xbdec1a80	-0.11528492
150	0xbd3495de	-0.044088237
151	0xbe0aaebe	-0.13543221
152	0xbe7d33c3	-0.24726777
153	0xbeb8b079	-0.36072138
154	0xbdd9d25a	-0.106358245
155	0xbc6ab8ec	-0.014326315
156	0xbdae3b10	-0.08507359
157	0xbe2a5a6b	-0.16636054
158	0xbe5fe2ed	-0.21863909
159	0xbceaae4b	-0.028647562
160	0x3cd72137	0.026260955
161	0x3cf7f4b0	0.030268043
162	0xbd2db9a5	-0.042413373
163	0xbddb777b	-0.107161485
164	0xbd6793e0	-0.05653751
165	0xbea9234c	-0.33034742
166	0xbe9955e5	-0.29948345
167	0xbe56e96d	-0.20987482
168	0xbe4b2293	-0.19837408
169	0xbe29a638	-0.16567314
170	0xbecc04fc	-0.39847553
171	0xbebdc864	-0.37066948
172	0xbe0ec158	-0.13940942
173	0xbe1dc609	-0.15407576
174	0xbd5c1c7b	-0.0537381
175	0xbef62a6b	-0.48079237
176	0xbe9e9f3c	-0.3098086
177	0xbd8e62fd	-0.06952474
178	0x3c808fdd	0.0156936
179	0x3e1b1d09	0.15147795
180	0xbf064c86	-0.52460515
181	0xbf028e0a	-0.50997984
182	0xbe99e142	-0.3005467
183	0xbdf1e777	-0.118117265
184	0x3cbdbbd3	0.02316085
185	0xbe9796ac	-0.2960714
186	0xbed99313	-0.4249502
187	0xbe8e9e46	-0.27855128
188	0xbe11e7e1	-0.14248611
189	0x3e26693b	0.1625108
190	0x3bf10a62	0.007355974
191	0xbe6b333a	-0.2296876
192	0xbe6cbfc0	-0.23120022
193	0xbde91fb6	-0.113830015
194	0x3e49f010	0.19720483
195	0x3e1179c1	0.14206602
196	0xbde32950	-0.11091864
197	0x3d93b0a9	0.072114296
198	0x3de301e8	0.11084348
199	0x3e4757d2	0.19467095
200	0x3e889724	0.2667781
201	0xbde4e3cc	-0.11176261
202	0x3d9d55bb	0.076823674
203	0x3e452422	0.19252065
204	0x3d8e2ff5	0.06942741
205	0x3dfd7b3b	0.1237702
206	0xbd9d6f50	-0.07687247
207	0x3cd0a2d3	0.025468266
208	0xbb9cd3a4	-0.0047859717
209	0xbe0ced52	-0.13762406
210	0x3d295069	0.04133645
211	0xbcb7347f	-0.0223639
212	0x3da049e6	0.07826595
213	0xbcc7d476	-0.024393301
214	0xbdd00cc6	-0.10158686
215	0xbe1050d0	-0.14093328
216	0xbd56b498	-0.05241832
217	0x3de5a25f	0.112126105
218	0xbc67233b	-0.014107521
219	0xbd968558	-0.07349652
220	0xbe8fa05d	-0.28052035
221	0xbb969982	-0.0045959363
222	0x3e7194af	0.23591875
223	0x3c034685	0.008012419
224	0xbde8323c	-0.113377064
225	0x3c3a1bda	0.011359179
226	0xbe379c0a	-0.17930618
227	0xbe6923bb	-0.22767536
228	0xbd80c6e7	-0.062879376
229	0xbe3a113d	-0.18170638
230	0xbe68bbc8	-0.22727883
231	0xbdc12555	-0.09430949
232	0xbdb5d0c1	-0.08877707
233	0xbddfbab3	-0.10924282
234	0xbe1baf56	-0.15203604
235	0xbe5c1305	-0.2149163
236	0x3d056388	0.032565624
237	0xbe033717	-0.12813984
238	0xbe75c8a1	-0.24002315
239	0xbc3ecfa4	-0.011646185
240	0xbe08b98d	-0.13352032
241	0x3e1ba3df	0.1519923
242	0x3da9b58c	0.082865804
243	0xbd23a35e	-0.03995072
244	0x3e70bbb3	0.23509102
245	0x3a7d1ed8	0.000965578
246	0x3de6e1b4	0.11273518
247	0x3e0c35b4	0.13692361
248	0x3e022bc2	0.12712005
249	0x3e86f47e	0.26358408
250	0xbd52306f	-0.05131572
251	0xbd105621	-0.03523839
252	0xbbeb6317	-0.0071834433
253	0x3d9b72bd	0.07590244
254	0x3d90a259	0.07062215
255	0xbe044ad6	-0.12919173

conv3.bias f4 [16]
0	0x3ec77a8a	0.38960677
1	0x3e1090d0	0.14117742
2	0xbdc28bf2	-0.09499349
3	0xbdd9829f	-0.10620617
4	0x3dcc2a24	0.09968975
5	0xbdedb8d6	-0.1160752
6	0x3ee4236d	0.44558278
7	0x3e915be4	0.2839042
8	0x3f12a87e	0.5728835
9	0xbf03f453	-0.51544684
10	0x3f2380d3	0.63868445
11	0x3ab1dee1	0.0013570451
12	0x3ec8c147	0.3920996
13	0x3ebbb561	0.3666182
14	0xbf00bfa4	-0.5029242
15	0xbe412ea7	-0.18865453
