models/net_new_bs64_dr0_2_adam_augm/model_epoch_45.pt (torch, 763336 bytes, 28 tensors)

conv1.weight f4 [8, 3, 5, 5]
0.10190411 0.08131802 -0.13330384 0.17332117 -0.026792558 0.11542026 -0.05097227 0.20397049
0.44190073 -0.17584272 0.015459691 -0.0037966156 0.20964205 0.26392293 0.06164517 -0.19427961
-0.054767895 -0.14901914 -0.0953352 0.10486432 -0.19120708 -0.22649676 -0.23826085 0.0052855005
-0.028841728 -0.08705662 -0.12295789 -0.23038961 0.056822676 -0.12592126 0.22519071 -0.120102935
0.16290152 0.24137896 -0.27220836 0.15078534 0.15408857 0.2762771 0.14478013 -0.20861845
0.10463772 0.13048078 0.077306524 0.06366007 0.0580819 -0.009947825 0.09047633 0.0152628645
0.032086276 -0.063898444 -0.15979064 -0.13385306 -0.3046653 0.087778196 0.107559495 0.10986671
-0.07869182 -0.11938995 0.14416635 -0.26688388 0.098692104 0.003564438 0.030878307 -0.106477015
-0.15698293 0.13337617 0.30568606 -0.11647419 -0.24846433 -0.1281608 0.30389768 0.22387332
0.17147042 -0.13911617 -0.11991266 -0.18780355 -0.17756164 0.28160015 0.3812437 0.23744398
-0.24930817 -0.27980998 0.0915812 0.4125903 0.58216053 -0.29206488 -0.22423728 -0.15564692
0.17533916 0.47290456 -0.1451378 -0.38380262 0.15917514 0.1282798 -0.08721216 -0.12858695
-0.13881707 -0.040133838 -0.04771507 -0.11059254 0.17469648 0.09854865 0.044990517 -0.13692614
-0.10931593 0.18001091 -0.07949007 -0.33339354 -0.29339367 -0.059437152 0.39812395 0.09803288
-0.16888043 -0.45570496 -0.14217003 0.26302287 0.062124256 0.102939695 -0.24982384 -0.33890152
0.21672474 -0.038174897 0.12690108 -0.12985505 -0.12134352 -0.11139315 -0.12691003 -0.101083964
-0.06737988 -0.21067703 0.10794037 0.015656572 -0.25720924 -0.07038204 -0.0054864837 0.05309165
0.05223243 -0.06788271 -0.079226755 0.09849762 0.12716377 -0.0062848353 0.5262642 -0.008351351
-0.043547302 0.04607358 0.038761925 0.35428753 0.2090332 0.024471773 0.050459467 -0.2643178
0.04000363 0.029392837 0.034810133 -0.19530533 -0.056429543 -0.06278919 0.11490251 0.03666592
-0.11235263 -0.013900708 -0.16638549 -0.085505925 0.30827627 -0.27200115 -0.38182077 0.38678697
0.46052176 0.025821943 -0.17096172 -0.32277048 0.057072338 0.078070685 -0.028308606 -0.0852375
-0.29047585 0.11206757 0.18371569 -0.17743883 -0.08463063 0.0653272 -0.030883659 -0.01553364
0.1443974 -0.052352134 0.23474887 -0.106304504 -0.056727737 0.26183894 -0.17823195 -0.16370204
0.5296514 0.5768634 0.07081936 -0.1209278 -0.23037036 0.06757675 0.13951965 0.033512674
0.20783108 0.0606569 0.27207935 0.13850355 0.046724025 0.13904238 0.11357531 -0.30740142
-0.36113814 -0.08521304 0.4269315 0.42697328 -0.6063958 -0.78739643 -0.21397552 0.48795527
0.1218544 0.032143697 -0.14036235 -0.39815894 0.32696965 0.11264556 -0.13208392 -0.2737466
-0.34668332 0.13103312 0.16996579 0.12556013 -0.07223496 -0.0926399 0.087509744 0.2574315
0.26673844 0.07870024 -0.0008161648 0.24554685 0.110966556 -0.05042027 -0.32625127 -0.24185786
0.09893979 -0.22263888 -0.26822585 -0.4241593 -0.18031909 -0.10172142 -0.18950231 -0.04535601
-0.11316504 0.117421634 -0.13986914 -0.19583797 -0.056273926 -0.084150374 -0.08647524 -0.07646987
00000000: 1ab3 d03d 108a a63d cd80 08be 1b7b 313e
00000010: 117c dbbc 7561 ec3d 4dc8 50bd a4dd 503e
00000020: d040 e23e 1d10 34be a54a 7d3c a4d0 78bb
00000030: 68ac 563e e820 873e a57f 7c3d 3cf1 46be
00000040: 4d54 60bd 7998 18be 1a3f c3bd 1bc3 d63d
00000050: cacb 43be c4ee 67be a7fa 73be fe31 ad3b
00000060: 7d45 ecbc be4a b2bd 59d1 fbbd 41eb 6bbe
00000070: e5be 683d 81f1 00be 6598 663e 87f8 f5bd
00000080: a8cf 263e 0c2c 773e e55e 8bbe 7967 1a3e
00000090: 65c9 1d3e 3174 8d3e 3e41 143e 13a0 55be
000000a0: 4d4c d63d c19c 053e e252 9e3d 3660 823d
000000b0: 49e7 6d3d 34fc 22bc a74b b93d 1811 7a3c
000000c0: e66c 033d 30dd 82bd 28a0 23be c710 09be
000000d0: 17fd 9bbe 0ec5 b33d 2748 dc3d cc01 e13d
000000e0: 2d29 a1bd b882 f4bd 58a0 133e 01a5 88be
000000f0: 161f ca3d 5999 693b 81f4 fc3c 9f10 dabd
00000100: 22c0 20be c393 083e e282 9c3e 058a eebd
00000110: 6f6d 7ebe 963c 03be 7a98 9b3e 0c3f 653e
00000120: f195 2f3e 7874 0ebe c594 f5bd 934f 40be
00000130: b8d2 35be e52d 903e 6032 c33e 8424 733e
00000140: a44a 7fbe 4143 8fbe ed8e bb3d 093f d33e
00000150: 7908 153f 8789 95be 759e 65be e861 1fbe
00000160: 1c8c 333e 8c20 f23e 019f 14be c781 c4be
00000170: cffe 223e c85b 033e 4a9c b2bd 4cac 03be
00000180: 1026 0ebe 6163 24bd e170 43bd 577e e2bd
00000190: a2e3 323e e0d3 c93d fa47 383d 5e36 0cbe
000001a0: 08e1 dfbd c854 383e b1cb a2bd 8fb2 aabe
000001b0: b237 96be 5f74 73bd e7d6 cb3e 76c5 c83d
000001c0: feee 2cbe 2952 e9be 0595 11be efaa 863e
000001d0: 0176 7e3d 0cd2 d23d d2d1 7fbe 8084 adbe
000001e0: 17ed 5d3e 485d 1cbd 5bf2 013e b9f8 04be
000001f0: f482 f8bd 1822 e4bd b4f4 01be 1c05 cfbd
00000200: 76fe 89bd b8bb 57be d70f dd3d 3642 803c
00000210: eeb0 83be 7624 90bd f6c7 b3bb a176 593d
00000220: acf1 553d 1706 8bbd a341 a2bd 1fb9 c93d
00000230: 3837 023e 05f1 cdbb 40b9 063f 1bd4 08bc
00000240: a85e 32bd a6b7 3c3d d3c4 1e3d 2d65 b53e
00000250: cd0c 563e 0779 c83c 96ae 4e3d aa54 87be
00000260: d9da 233d 3fc9 f03c 1295 0e3d 1ffe 47be
00000270: aa22 67bd 9e97 80bd 0252 eb3d 012f 163d
00000280: 2319 e6bd ccbf 63bc f560 2abe bb1d afbd
00000290: 63d6 9d3e bc43 8bbe 037e c3be f108 c63e
000002a0: 82c9 eb3e 8a88 d33c 9710 2fbe 2c42 a5be
000002b0: afc4 693d 86e3 9f3d 73e7 e7bc 0091 aebd
000002c0: 40b9 94be af83 e53d f71f 3c3e 86b2 35be
000002d0: d352 adbd 44ca 853d baff fcbc cf80 7ebc
000002e0: e9dc 133e 316f 56bd 0262 703e 2db6 d9bd
000002f0: 585b 68bd c10f 863e 7082 36be 82a1 27be
00000300: 3c97 073f 52ad 133f be09 913d ffa8 f7bd
00000310: 35e6 6bbe ae65 8a3d 3dde 0e3e 9644 093d
00000320: acd1 543e 5f73 783d fc4d 8b3e e0d3 0d3e
00000330: b161 3f3d 2061 0e3e 2c9a e83d b863 9dbe
00000340: 19e7 b8be 2d84 aebd c496 da3e 3e9c da3e
00000350: c13c 1bbf d092 49bf 661c 5bbe 46d5 f93e
00000360: cd8e f93d 1ca9 033d 26bb 0fbe 7ddb cbbe
00000370: 9168 a73e b7b2 e63d 0241 07be 8428 8cbe
00000380: 7a80 b1be 8c2d 063e 830b 2e3e d692 003e
00000390: ecef 93bd fdb9 bdbd 4f38 b33d 10ce 833e
000003a0: f191 883e 972d a13d e4f3 55ba a270 7b3e
000003b0: 6f42 e33d 7c85 4ebd 680a a7be 96a9 77be
000003c0: f2a0 ca3d 72fb 63be e654 89be 682b d9be
000003d0: 91a5 38be 5253 d0bd e50c 42be 39c7 39bd
000003e0: 13c3 e7bd c17a f03d db39 0fbe c089 48be
000003f0: 7d7f 66bd 0857 acbd ee19 b1bd 3c9c 9cbd

conv1.bias f4 [8]
-0.3904133 0.24158382 0.18080293 0.14678086 -0.05756523 0.010114519 -0.5149829 -0.14684719
00000000: 41e4 c7be c061 773e 6724 393e b94d 163e
00000010: 85c9 6bbd 5eb7 253c ebd5 03bf 1c5f 16be

conv11.weight f4 [32, 8, 5, 5]
-0.03981451 -0.017467642 0.10775951 0.020244332 -0.09868591 0.08905349 -0.026350224 0.052379627
0.029563455 -0.18483661 0.061086923 0.020163748 -0.07344711 -0.060419273 -0.13640358 0.17994632
-0.17396362 -0.27183697 -0.047452327 -0.008100789 -0.09334652 -0.36571807 -0.08920916 0.2166756
0.12739925 0.44809875 0.3412503 -0.0022412152 -0.058485907 -0.35397935 0.45923075 0.16169345
-0.3055555 -0.2481902 -0.039649475 0.38928714 -0.21685725 -0.36272627 -0.041361038 0.07915112
-0.14769152 -0.2552556 -0.021656772 -0.08018308 0.23460276 -0.24879616 -0.044545576 -0.03148667
-0.0063643614 0.1740647 -0.22857167 -0.015853235 -0.16463934 0.058663428 0.02513654 -0.020041702
-0.19355205 -0.29304004 0.16757214 0.27796486 -0.15738249 -0.4633548 0.013755641 0.33543432
0.06250027 -0.18342632 0.23304816 0.58661574 0.016776953 0.0063103936 0.053817585 0.27464348
0.058216408 0.0106568085 0.1616899 -0.06579703 -0.28340232 -0.18142392 0.056794737 0.260102
-0.23299426 -0.2340445 -0.04611857 0.33949974 0.16352908 -0.014104958 0.046031866 0.15294954
0.15845288 0.005778635 0.16459289 0.17489535 0.00798342 -0.12869354 -0.0916826 0.1646515
0.08111279 -0.07497607 0.017745778 0.1028008 -0.13239312 0.04066855 0.0741023 -0.007609632
-0.028560223 0.006269699 0.18207343 0.18522859 -0.019468933 0.047351122 0.1379861 -0.032903325
-0.032129467 0.03747863 0.17559008 0.13946484 -0.124429956 0.10228571 0.08052911 -0.12644145
0.053697698 0.08102257 0.17173034 -0.18160172 -0.29917923 -0.11443059 -0.1302087 -0.17480391
-0.020838536 0.18911579 -0.27597705 -0.18984066 -0.2104449 0.23749757 0.4655577 -0.043345593
-0.1002213 0.037036993 0.6587427 0.37245098 -0.1702569 0.10339832 0.3673479 0.47775197
-0.21601516 0.015504872 0.48457578 0.19723225 -0.30223942 -0.6155255 0.13441488 0.13912317
-0.07776736 -0.27714732 -0.06551853 -0.03509343 -0.22841686 -0.13439712 -0.157799 0.16303833
-0.34361535 -0.25731298 -0.06160265 0.12215135 0.33027875 -0.41438973 -0.21187843 0.0076840753
0.15910688 0.26005048 -0.038726185 0.070867784 0.25396857 0.3090128 0.1321562 0.039762363
0.022675073 -0.1536097 -0.12965804 -0.058760867 -0.00445005 0.13754849 -0.0063826847 -0.037538923
-0.03828694 -0.26270884 0.15789893 -0.023706988 -0.16307648 -0.06856879 -0.076865874 0.25850224
-0.10249828 -0.09465505 0.0555623 -0.20640916 -0.008882725 -0.09451765 0.060119394 0.21275608
0.5734073 0.09976418 -0.045100074 -0.10222451 0.30518255 0.5748546 0.17977826 -0.14080368
-0.10401189 0.24953672 0.3967 0.15053143 -0.043887064 0.010307783 0.19213067 0.3053092
0.13387607 0.06035269 0.15953663 0.40461257 0.31449685 0.035447426 0.013642355 -0.013968913
0.15581997 -0.21877338 -0.21828201 -0.13701476 -0.10219472 0.110722825 0.08624612 0.0071741287
0.015659537 -0.18556999 -0.120517656 -0.085083015 -0.055134494 -0.07531106 -0.21351591 -0.28787073
0.00880359 0.21186961 0.2659536 0.044350382 -0.17148077 -0.42008415 -0.19023836 0.10945698
0.12926131 0.0015997866 -0.21484946 -0.111531265 -0.010860609 -0.02539464 0.104369834 -0.013145782
00000000: 8a14 23bd 4d18 8fbc 05b1 dc3d 71d7 a53c
00000010: d71b cabd ad61 b63d 6ddc d7bc 058c 563d
00000020: 0f2f f23c cf45 3dbe 4836 7a3d 722e a53c
00000030: 706b 96bd 337a 77bd 61ad 0bbe d943 383e
00000040: 8523 32be 372e 8bbe 5f5d 42bd 2cb9 04bc
00000050: 762c bfbd 663f bbbe 4bb3 b6bd 35e0 5d3e
00000060: f374 023e 336d e53e 5cb8 ae3e 5ae1 12bb
00000070: eb8e 6fbd c83c b5be 4b20 eb3e f892 253e
00000080: c571 9cbe 9225 7ebe 7d67 22bd a550 c73e
00000090: d40f 5ebe 42b7 b9be 316a 29bd fb19 a23d
000000a0: 723c 17be ddb0 82be 8b69 b1bc 0737 a4bd
000000b0: b53b 703e 6cc4 7ebe 6c75 36bd 2bf8 00bd
000000c0: 228c d0bb 043e 323e b10e 6abe a5de 81bc
000000d0: 3797 28be 1049 703d 25eb cd3c 7f2e a4bc
000000e0: 8232 46be 5809 96be 0898 2b3e 6951 8e3e
000000f0: e028 21be d73c edbe 575f 613c 0cbe ab3e
00000100: 2400 803d 1cd4 3bbe 2da4 6e3e 732c 163f
00000110: d26f 893c 6bc7 ce3b d46f 5c3d 129e 8c3e
00000120: 5474 6e3d e599 2e3c 0a92 253e 98c0 86bd
00000130: 1c1a 91be 31c7 39be 99a1 683d 172c 853e
00000140: 0c96 6ebe 5da9 6fbe d3e6 3cbd e9d2 ad3e
00000150: 2b74 273e 7b18 67bc e98b 3c3d ce9e 1c3e
00000160: 7941 223e b45a bd3b 0a8b 283e c417 333e
00000170: e4cc 023c 3dc8 03be 16c4 bbbd 679a 283e
00000180: 761e a63d 0e8d 99bd 985f 913c 3a89 d23d
00000190: 1092 07be 1194 263d f2c2 973d 385a f9bb
000001a0: 21f7 e9bc 0c72 cd3b 7571 3a3e 90ac 3d3e
000001b0: 507d 9fbc 40f3 413d 3a4c 0d3e a3c5 06bd
000001c0: 309a 03bd 3183 193d e3cd 333e dfcf 0e3e
000001d0: 22d5 febd 2c7b d13d 72ec a43d de79 01be
000001e0: 1ef2 5b3d 29ef a53d 14da 2f3e cdf5 39be
000001f0: 052e 99be 965a eabd 6e55 05be ccff 32be
00000200: 94b5 aabc 92a7 413e dd4c 8dbe 9765 42be
00000210: de7e 57be 9032 733e 945d ee3e 268b 31bd
00000220: d340 cdbd 1ab4 173d 5da3 283f e5b1 be3e
00000230: d357 2ebe 80c2 d33d 0615 bc3e e89b f43e
00000240: 1433 5dbe 2608 7e3c 511a f83e 40f7 493e
00000250: 20bf 9abe 1493 1dbf 0ea4 093e 4e76 0e3e
00000260: 7e44 9fbd 41e6 8dbe 942e 86bd 21be 0fbd
00000270: 1ce6 69be 669f 09be 1096 21be 85f3 263e
00000280: 5aee afbe 87be 83be 0f53 7cbd 7d2a fa3d
00000290: 4c1a a93e e42a d4be a9f6 58be b2ca fb3b
000002a0: eaec 223e 5625 853e 599f 1ebd 2123 913d
000002b0: 2b08 823e ed36 9e3e f453 073e dcdd 223d
000002c0: 13c1 b93c dc4b 1dbe 14c5 04be 3caf 70bd
000002d0: bad1 91bb 83d9 0c3e d725 d1bb 6ac2 19bd
000002e0: c4d2 1cbd c681 86be 42b0 213e 2835 c2bc
000002f0: 85fd 26be cb6d 8cbd db6b 9dbd 685a 843e
00000300: 9eea d1bd 82da c1bd 4b95 633d ec5c 53be
00000310: d988 11bc 7892 c1bd c13f 763d bbdc 593e
00000320: d2ca 123f 2a51 cc3d dbba 38bd 155b d1bd
00000330: e340 9c3e ac29 133f cb17 383e d72e 10be
00000340: 3004 d5bd 8e86 7f3e 431c cb3e e924 1a3e
00000350: ecc2 33bd fae1 283c e7bd 443e 7d51 9c3e
00000360: cf16 093e 6234 773d 925d 233e 6129 cf3e
00000370: bb05 a13e 5231 113d 2f84 5f3c dedd 64bc
00000380: 458f 1f3e 2106 60be 5285 5fbe 994d 0cbe
00000390: 774b d1bd a6c2 e23d cea1 b03d f414 eb3b
000003a0: 6e48 803c 0f06 3ebe f6d1 f6bd 0140 aebd
000003b0: b5d4 61bd af3c 9abd eaa3 5abe cb63 93be
000003c0: ef3c 103c 59f4 583e 122b 883e bfa8 353d
000003d0: a898 2fbe 4515 d7be d8cd 42be fb2a e03d
000003e0: 145d 043e eeaf d13a 7f01 5cbe 816a e4bd
000003f0: b2f0 31bc 6c08 d0bc dabf d53d 6861 57bc

conv11.bias f4 [32]
-0.013968512 0.019281983 0.010818719 -0.013853801 -0.10190903 0.0067527685 0.08156603 0.0071485937
0.17145999 0.10898636 0.16305286 0.029175915 0.03756208 0.011308775 -0.07392808 -0.038959667
-0.15185195 -0.008882848 -0.024909431 -0.053428035 0.07844087 -0.07781303 -0.002563952 0.035359018
0.027855298 -0.053960215 -0.04226611 -0.1660018 -0.08127457 0.14681451 0.018686775 0.050537422
00000000: 30dc 64bc 40f5 9d3c ff40 313c 0efb 62bc
00000010: aeb5 d0bd 5446 dd3b 170c a73d c03e ea3b
00000020: 3593 2f3e 3e34 df3d 54f7 263e 5402 ef3c
00000030: b2da 193d 7148 393c 9b67 97bd 2c94 1fbd
00000040: 147f 1bbe 5d89 11bc dd0e ccbc 5bd7 5abd
00000050: 9ba5 a03d 705c 9fbd fa07 28bb 9ed4 103d
00000060: cb30 e43c 6305 5dbd 3b1f 2dbd 60fc 29be
00000070: 4873 a6bd 8b56 163e 0215 993c 5400 4f3d

batch1.weight f4 [32]
0.9219645 0.97891515 1.0180032 1.1189044 0.9172034 0.91662335 1.0640472 1.0770924
0.80829465 0.84306216 0.9018299 1.1956655 0.83659405 1.0135942 0.8810188 1.0410609
0.9066487 0.9577053 0.9980124 1.0163397 1.0397316 0.9672122 0.98859155 0.99988055
1.0506123 0.92902154 1.1045902 0.95964396 1.0614202 1.0431381 0.92849416 0.85897154
00000000: de05 6c3f 2f9a 7a3f ee4d 823f 4238 8f3f
00000010: d8cd 6a3f d4a7 6a3f b332 883f 2ade 893f
00000020: 66ec 4e3f ecd2 573f 53de 663f 910b 993f
00000030: 072b 563f 74bd 813f 738a 613f 7c41 853f
00000040: 211a 683f 2d2c 753f be7d 7f3f 6b17 823f
00000050: ed15 853f 389b 773f 5614 7d3f 2cf8 7f3f
00000060: 777a 863f 5bd4 6d3f 3663 8d3f 3aab 753f
00000070: 9edc 873f 8d85 853f cbb1 6d3f 8fe5 5b3f

batch1.bias f4 [32]
-0.4100904 -0.2454347 -0.227456 -0.20609675 -1.1006967 -0.36279845 -0.12699623 -0.22339295
-0.08309611 -0.3183809 -0.33635285 -0.2584798 -0.3752721 -0.2575614 -0.48774493 -0.3762114
-0.3644492 -0.25910977 -0.33383787 -0.34891093 -0.39464036 -0.22965369 -0.30302626 -0.40723035
-0.25891662 -0.17489964 -0.29976463 -0.2938838 -0.18082468 -0.31664723 -0.34766144 -0.1579379
00000000: 5ef7 d1be 3c53 7bbe 3aea 68be 070b 53be
00000010: a1e3 8cbf b8c0 b9be 4d0b 02be 1fc1 64be
00000020: 4b2e aabd d202 a3be 7136 acbe 7757 84be
00000030: aa23 c0be 16df 83be b4b9 f9be c89e c0be
00000040: 1699 babe 09aa 84be ccec aabe 74a4 b2be
00000050: 4d0e cabe 562a 6bbe 4226 9bbe 7f80 d0be
00000060: b890 84be e418 33be c07a 99be f077 96be
00000070: 1b2a 39be 961f a2be ae00 b2be 79ba 21be

batch1.running_mean f4 [32]
-0.1070728 -0.5934235 -0.34670487 -0.3763342 0.55099434 -0.030062873 -0.13825108 -0.80507964
2.0624466 -0.22854294 1.1165915 0.03444637 1.7273364 0.352997 0.4356781 -1.9203284
0.030704115 0.41811073 -0.2790525 1.583885 0.5128596 -0.19134668 0.15916392 1.6575705
0.4181789 0.3441262 -0.12656854 -0.08702151 -0.3179273 -0.012342513 -1.115201 -0.06511928
00000000: fc48 dbbd 9aea 17bf 4d83 b1be e0ae c0be
00000010: f70d 0d3f 6a46 f6bc b191 0dbe b319 4ebf
00000020: 20ff 0340 2907 6abe 78ec 8e3f a317 0d3d
00000030: 5c19 dd3f 06bc b43e 3311 df3e 52cd f5bf
00000040: 3287 fb3c 9c12 d63e f8df 8ebe bebc ca3f
00000050: c44a 033f 62f0 43be defb 223e 452b d43f
00000060: 8b1b d63e 4f31 b03e 2f9b 01be 5538 b2bd
00000070: 5ec7 a2be 4038 4abc e8be 8ebf 425d 85bd

batch1.running_var f4 [32]
1.6330334 3.3935652 1.0944175 1.8301625 1.0431029 2.5607917 0.77382916 1.662337
4.317377 1.1896923 1.7021083 1.8715411 2.6461735 1.6084234 2.0264037 3.561017
0.9949076 0.9179966 4.899963 2.8850288 1.1892643 0.8989009 0.9050748 2.9154189
4.1862764 3.1058528 3.4869354 1.244093 1.7092332 2.2101834 3.9421542 1.2791933
00000000: 3d07 d13f 2c30 5940 df15 8c3f c442 ea3f
00000010: 6584 853f 03e4 2340 ab19 463f 75c7 d43f
00000020: f427 8a40 d647 983f afde d93f a98e ef3f
00000030: e85a 2940 d1e0 cd3f 99b0 0140 b4e7 6340
00000040: 44b2 7e3f d301 6b3f 7fcc 9c40 50a4 3840
00000050: d039 983f 5f1e 663f fbb2 673f 3996 3a40
00000060: faf5 8540 4bc6 4640 f329 5f40 703e 9f3f
00000070: 27c8 da3f a573 0d40 414c 7c40 9bbc a33f

conv2.weight f4 [64, 32, 5, 5]
-0.16837128 -0.30300185 -0.24155821 -0.3220821 -0.27925572 -0.18603869 -0.18829943 -0.38059527
-0.43497953 -0.26227784 -0.27001995 -0.2497324 -0.4917196 -0.4917736 -0.25362164 -0.0062287487
0.016088737 -0.26210615 -0.22950046 -0.17539895 -0.10774965 -0.036366154 -0.18550618 -0.24709383
-0.22621423 -0.112389326 -0.047048714 0.19422415 0.39064088 0.18960701 -0.050585072 -0.07053741
0.16526732 0.38740003 0.3069255 0.13977557 0.02443131 0.1547449 0.30564317 0.2115863
0.23879798 0.121585965 0.17940784 0.32649344 0.10323112 0.26400498 0.17408441 0.23187158
0.23596236 0.036077175 0.41875187 0.29862508 0.059116196 -0.16025473 -0.4541149 0.41083327
0.4993349 0.3278807 -0.017386328 -0.18164438 0.24132526 0.23256363 -0.033633094 -0.29930583
-0.2640957 0.3881039 0.41965368 0.43171412 0.11378375 0.1736534 0.4626088 0.33529916
0.2555635 0.12554018 0.24047457 0.23421243 -0.00287931 -0.11490516 -0.050380137 0.0510367
0.58325267 0.24177347 -0.035420388 -0.13624805 0.048545912 0.25612298 -0.103946686 -0.40466437
-0.31988764 -0.09268332 0.50953346 0.25548655 -0.016928583 0.019334896 0.084843636 0.6057166
0.37922344 0.073915794 -0.0026385144 0.018144181 -0.39135826 -0.14799511 0.03383329 0.100167476
0.09506091 -0.27971554 -0.017250728 0.24363598 0.3986384 0.45930102 -0.49074212 -0.22723512
0.098852865 0.35583487 0.40791267 -0.46269286 -0.2450595 0.07245184 0.2962162 0.3688372
-0.37919962 -0.17305756 0.08242514 0.31003532 0.40756878 0.00039529777 0.063111454 0.13379905
0.044148546 0.074954174 -0.34910557 -0.16799119 -0.16820267 -0.19869402 -0.15396777 -0.24084832
-0.273033 -0.26374483 -0.33945158 -0.12479773 0.039760448 -0.013318292 -0.05150967 -0.113864556
-0.12436373 0.173237 0.1239446 0.13525318 0.0130997645 -0.04494219 -0.15616179 0.4558734
0.8119358 0.7823195 0.6744783 -0.15595147 0.26347363 0.6733154 0.7319561 0.7329233
-0.60724825 -0.35032701 -0.03260614 0.27792057 0.41529208 -0.8797002 -0.8855124 -0.5489948
-0.20041749 0.013023427 -0.773004 -0.9252121 -0.7082079 -0.48819223 -0.2434674 0.24969919
0.15677173 -0.021438077 -0.041115254 0.045524582 0.039522033 0.06531143 -0.00033747905 -0.11814207
0.0010028792 0.03504803 -0.054073483 -0.09225538 -0.20829326 -0.08303079 -0.047634494 -0.063298166
-0.034147277 -0.09333911 -0.10739173 -0.033081643 -0.09500222 -0.039645128 -0.14328028 -0.2532152
-0.42689633 -0.28094327 -0.24400648 -0.036189355 0.12517598 -0.50499177 -0.20350705 -0.053143423
0.17125861 0.2767594 -0.43827572 -0.2232379 0.022573112 0.2927679 0.38030538 -0.3078925
-0.1314454 0.05364971 0.2982653 0.3977731 -0.21591283 -0.07818518 0.17884773 0.35785478
0.42288208 -0.24022038 -0.115605064 -0.1670801 -0.2400841 -0.13884455 -0.18589924 0.019562855
0.028453514 -0.08054339 0.009480731 -0.21235959 -0.006223938 0.048159037 0.0061029936 0.19529036
-0.2608193 -0.13864338 0.07173261 0.11513578 0.3535657 -0.15123434 -0.08613698 0.03323529
0.13374725 0.33514476 -0.1716322 -0.074463755 0.1001383 0.20595554 0.23653752 0.004250545
00000000: 8569 2cbe 0f23 9bbe 095b 77be f2e7 a4be
00000010: 9bfa 8ebe ed80 3ebe 91d1 40be 62dd c2be
00000020: a3b5 debe 4849 86be 0e40 8abe dab9 7fbe
00000030: acc2 fbbe c0c9 fbbe b2da 81be 881a ccbb
00000040: 87cc 833c c732 86be 2b02 6bbe c89b 33be
00000050: d9ab dcbd adf4 14bd 55f5 3dbe 2a06 7dbe
00000060: b4a4 67be 602c e6bd 27b6 40bd b2e2 463e
00000070: 1502 c83e 5728 423e 4b32 4fbd eb75 90bd
00000080: d63b 293e 4c59 c63e 5725 9d3e 5421 0f3e
00000090: 2c24 c83c 7275 1e3e 437d 9c3e 14aa 583e
000000a0: 7587 743e 1002 f93d b0b6 373e 262a a73e
000000b0: d66a d33d a92b 873e 2f43 323e be6f 6d3e
000000c0: 1ea0 713e a9c5 133d a566 d63e 63e5 983e
000000d0: d323 723d d119 24be c081 e8be bd58 d23e
000000e0: d3a8 ff3e fbdf a73e c66d 8ebc fc00 3abe
000000f0: f81d 773e 2925 6e3e dbc2 09bd 9d3e 99be
00000100: 8d37 87be 8eb5 c63e d9dc d63e a209 dd3e
00000110: 7407 e93d 32d2 313e 10db ec3e 55ac ab3e
00000120: 38d9 823e 9b8d 003e f73e 763e 62d5 6f3e
00000130: ceb2 3cbb 6653 ebbd 675b 4ebd dc0b 513d
00000140: 0c50 153f 7793 773e f814 11bd 9c84 0bbe
00000150: 14d8 463d 8d22 833e 00e2 d4bd 2b30 cfbe
00000160: 50c8 a3be c1d0 bdbd c970 023f 22cf 823e
00000170: d0ad 8abc 3764 9e3c 80c2 ad3d 3e10 1b3f
00000180: 9329 c23e 2a61 973d edea 2cbb 1ba3 943c
00000190: 1c60 c8be 088c 17be c794 0a3d 9b24 cd3d
000001a0: 4baf c23d e036 8fbe 6651 8dbc b67b 793e
000001b0: 551a cc3e 8129 eb3e 8d42 fbbe 53b0 68be
000001c0: 5f73 ca3d fd2f b63e eed9 d03e 14e6 ecbe
000001d0: e1f0 7abe a161 943d a6a9 973e 3bd8 bc3e
000001e0: 7426 c2be 0036 31be 83ce a83d f3bc 9e3e
000001f0: dbac d03e f83f cf39 9440 813d 9e02 093e
00000200: 1bd5 343d 9381 993d f7bd b2be e205 2cbe
00000210: 523d 2cbe 7276 4bbe baa9 1dbe f1a0 76be
00000220: fbca 8bbe 9009 87be 99cc adbe f495 ffbd
00000230: dadb 223d f734 5abc cefb 52bd d231 e9bd
00000240: 69b2 febd 0a65 313e abd6 fd3d cf7f 0a3e
00000250: 65a0 563c 4d15 38bd e0e8 1fbe 3d68 e93e
00000260: 06db 4f3f 1746 483f 9caa 2c3f beb1 1fbe
00000270: 04e6 863e 665e 2c3f 7a61 3b3f dda0 3b3f
00000280: 9f74 1bbf 105e b3be 048e 05bd 9b4b 8e3e
00000290: 2aa1 d43e 0834 61bf f1b0 62bf ec8a 0cbf
000002a0: 3e3a 4dbe 3660 553c 97e3 45bf b3da 6cbf
000002b0: 1d4d 35bf 55f4 f9be 854f 79be 25b1 7f3e
000002c0: c588 203e e89e afbc 7868 28bd fc77 3a3d
000002d0: dbe1 213d 00c2 853d acef b0b9 78f4 f1bd
000002e0: 0b73 833a 868e 0f3d 287c 5dbd 63f0 bcbd
000002f0: d44a 55be 0c0c aabd 631c 43bd 78a2 81bd
00000300: 04de 0bbd 9328 bfbd 32f0 dbbd 9e80 07bd
00000310: 8690 c2bd ee62 22bd 11b8 12be 6ca5 81be
00000320: 2892 dabe ccd7 8fbe d6dc 79be 4a3b 14bd
00000330: 222e 003e 2447 01bf 2764 50be ebac 59bd
00000340: 6b5e 2f3e 68b3 8d3e ad65 e0be 7a98 64be
00000350: 3feb b83c ade5 953e 63b7 c23e 16a4 9dbe
00000360: 9f99 06be ccbf 5b3d 3bb6 983e eaa8 cb3e
00000370: 4118 5dbe 8d1f a0bd dc23 373e be38 b73e
00000380: 0084 d83e 55fc 75be 59c2 ecbd 0c17 2bbe
00000390: 9bd8 75be 442d 0ebe 5f5c 3ebe 4842 a03c
000003a0: 5817 e93c eff3 a4bd 1155 1b3c cb74 59be
000003b0: 2df2 cbbb 6942 453d 9ffb c73b 32fa 473e
000003c0: 1b8a 85be 88f8 0dbe 8ce8 923d 4fcc eb3d
000003d0: 9006 b53e 2ddd 1abe 9668 b0bd ba21 083d
000003e0: 0af5 083e 1898 ab3e 5ac0 2fbe 7480 98bd
000003f0: 4f15 cd3d 02e6 523e e436 723e 2848 8b3b

conv2.bias f4 [64]
0.09866295 -0.7565017 -0.31748277 0.1099435 0.26245028 -0.49029684 -0.36079314 -0.37285426
0.48475516 0.52777046 0.3431126 0.15421726 0.40918785 0.5419326 0.7246855 -0.3464312
-0.5357974 0.116388254 -0.5866512 -0.24130467 -0.038838677 -0.46729687 -0.19553304 -0.50489086
0.11069785 0.4768814 -0.5898355 -0.27703008 0.40025842 0.029011967 0.080805525 -0.046686992
-0.55285084 -0.08950008 -0.7621829 -0.20506917 -0.3265348 0.29874152 -0.13528359 -0.32688168
-0.43824828 -0.1097415 -0.31294098 0.08910529 0.29813272 0.2987135 0.381738 0.0745732
0.15667447 -0.24460752 0.25698248 -0.1566798 0.35955372 -0.49782628 0.13953578 0.0045655295
0.58732027 -0.2737044 0.16661212 0.21810791 -0.055267148 0.15256147 -0.19233894 -0.26948664
00000000: cd0f ca3d 18aa 41bf 1a8d a2be 0f2a e13d
00000010: e25f 863e 3008 fbbe e1b9 b8be c1e6 bebe
00000020: d431 f83e f71b 073f 74ac af3e 21eb 1d3e
00000030: 1281 d13e 18bc 0a3f fd84 393f 6e5f b1be
00000040: 052a 09bf f75c ee3d c62e 16bf 9218 77be
00000050: 4e15 1fbd 8941 efbe d039 48be 8740 01bf
00000060: 8eb5 e23d cd29 f43e 76ff 16bf e3d6 8dbe
00000070: acee cc3e 81aa ed3c 5e7d a53d dc3a 3fbd
00000080: a287 0dbf d14b b7bd 6b1e 43bf a7fd 51be
00000090: 922f a7be a6f4 983e c887 0abe 095d a7be
000000a0: 1462 e0be 27c0 e0bd cd39 a0be d67c b63d
000000b0: daa4 983e faf0 983e 2a73 c33e d5b9 983d
000000c0: 466f 203e 657a 7abe 3593 833e ab70 20be
000000d0: 6d17 b83e 16e3 febe 78e2 0e3e 709a 953b
000000e0: 9f5a 163f fc22 8cbe 5e9c 2a3e ae57 5f3e
000000f0: ce5f 62bd 1339 1c3e 80f4 44be 27fa 89be

conv22.weight f4 [32, 64, 5, 5]
0.041349016 0.109963976 0.16013974 -0.0013779284 -0.08039408 0.2464533 0.18760023 0.18513805
-0.01013361 -0.13201004 0.26633763 0.38306183 0.414327 0.17614259 -0.029391672 0.101139575
0.31345683 0.45708665 0.25710428 -0.12138631 -0.3787899 -0.35638928 -0.21004578 -0.22052395
-0.29607317 0.121650584 0.08178921 0.15945515 0.16715969 0.019783074 0.19650567 0.19147156
0.3130933 0.4003266 0.26202717 -0.094056144 -0.18556628 -0.13548973 0.03795168 -0.024647895
-0.28514466 -0.3790406 -0.4299831 -0.34431002 -0.34610024 -0.10289633 -0.13991006 -0.15208389
-0.13155064 -0.10905047 -0.09392549 -0.09874566 -0.12924165 0.112127066 0.0642353 -0.046577636
-0.0066505084 -0.03797404 0.14559856 0.12798624 0.14354226 0.0976355 0.09100667 0.20260155
0.16557497 -0.012043343 -0.21395278 -0.2582005 0.007475652 0.08097427 0.19115475 0.042356763
-0.16972059 -0.1589194 -0.065276004 -0.2542772 -0.0002897414 0.05615647 -0.1006901 -0.21707621
0.111274004 0.24476102 0.2010834 0.1190651 0.01280648 -0.11741347 -0.1753252 -0.16805145
-0.17173743 -0.020954935 -0.033946116 0.013073435 0.043884497 0.054721344 0.15787487 0.2359898
0.21779127 0.27307162 0.24810995 0.19359447 -0.3225595 -0.26462 -0.39631313 -0.29892677
-0.120452076 -0.09420239 -0.11113162 -0.22330053 -0.18129416 -0.17410223 0.11730623 0.014919342
-0.027130663 0.12840833 0.2791594 0.2781801 0.1939389 0.10597597 0.15461908 0.40671736
0.30672556 0.18921955 0.0012050227 -0.028354915 0.19347884 -0.005649965 -0.07484258 -0.24056096
-0.13136426 -0.0075427312 -0.24681994 -0.23025759 -0.19021456 -0.047213685 0.043812595 -0.22998585
-0.12479363 -0.03330317 -0.07045916 -0.040060718 -0.15330356 -0.08330015 -0.08103634 -0.08121168
0.036885772 -0.07317434 -0.019521384 -0.16852841 -0.20195425 -0.008133352 -0.0654358 -0.21722357
-0.13444959 -0.12832946 -0.293529 0.15550262 0.093101956 0.12654404 0.19248955 0.10183721
-0.034135655 -0.053122014 0.042447314 0.043905403 -0.032784443 -0.057648618 -0.10078485 -0.08225703
-0.05149956 -0.049204495 -0.111949384 -0.017769372 0.011516377 0.103454486 0.056170717 -0.092025384
-0.14522298 -0.1698747 -0.22880732 -0.17137466 -0.0879101 -0.11845009 -0.12565085 -0.15915923
-0.09464282 -0.062180027 0.04686934 0.09856698 0.03399704 -0.02789793 -0.07522505 0.002117184
0.0906546 0.0250401 -0.008791128 -0.08403804 -0.08794332 -0.09363428 -0.101804726 -0.109385595
-0.49425 -0.28752524 -0.48489776 -0.4547281 -0.34824896 -0.21880846 0.017363852 -0.11289993
-0.34723398 -0.32093158 -0.05211615 0.28492078 0.2686973 0.07137678 -0.073121004 -0.095400274
-0.031090809 0.14498498 0.113842845 0.10251483 -0.11742913 -0.28045097 -0.071381666 -0.0028297042
0.21570481 -0.35742092 -0.057788033 0.12101804 0.16138795 0.1278213 -0.19629873 0.009559978
0.28781486 0.48299903 0.42255506 -0.17861994 -0.25309914 -0.16311318 0.03976202 0.17635505
0.16665998 -0.0037941223 -0.026712341 0.04845116 0.22279191 0.17545415 0.055043735 0.00080899295
-0.009397176 0.10936802 0.027929906 0.08973821 0.08756832 0.17186067 0.16784951 0.121247806
00000000: 965d 293d cb34 e13d acfb 233e 9b9b b4ba
00000010: a7a5 a4bd 415e 7c3e 461a 403e d494 3d3e
00000020: 7107 26bc a42d 07be 685d 883e ae20 c43e
00000030: ab22 d43e b95e 343e cec6 f0bc 4422 cf3d
00000040: 6a7d a03e 4307 ea3e 2ca3 833e 6399 f8bd
00000050: c0f0 c1be a878 b6be 3e16 57be 08d1 61be
00000060: e796 97be f123 f93d 1a81 a73d 3648 233e
00000070: e92b 2b3e 1d10 a23c c838 493e 1f11 443e
00000080: c44d a03e 9cf7 cc3e 6d28 863e 82a0 c0bd
00000090: 1605 3ebe d2bd 0abe 3973 1b3d 62ea c9bc
000000a0: 7bfe 91be 9c11 c2be bf26 dcbe 6749 b0be
000000b0: 0d34 b1be 50bb d2bd 9544 0fbe e1bb 1bbe
000000c0: 36b5 06be da55 dfbd 025c c0bd 2a3b cabd
000000d0: ec57 04be e0a2 e53d cc8d 833d 31c8 3ebd
000000e0: 82ec d9bb ab8a 1bbd ca17 153e d30e 033e
000000f0: befc 123e 1ff5 c73d b461 ba3d c876 4f3e
00000100: 7c8c 293e 7151 45bc 7016 5bbe db32 84be
00000110: 50f6 f43b d7d5 a53d 12be 433e 497e 2d3d
00000120: 3ccb 2dbe c4bb 22be 6daf 85bd 9f30 82be
00000130: 6fe8 97b9 5404 663d 9c36 cebd 3a49 5ebe
00000140: a0e3 e33d a2a2 7a3e cfe8 4d3e 67d8 f33d
00000150: 45d2 513c 7976 f0bd 7388 33be ae15 2cbe
00000160: f0db 2fbe afa9 abbc 150b 0bbd f631 563c
00000170: 3bc0 333d 7d23 603d f3a9 213e 4fa7 713e
00000180: ad04 5f3e 0bd0 8b3e 8910 7e3e a13d 463e
00000190: 8526 a5be 467c 87be 8ee9 cabe ee0c 99be
000001a0: 94af f6bd 2fed c0bd fa98 e3bd e5a8 64be
000001b0: 2da5 39be db47 32be 403e f03d 4170 743c
000001c0: 2041 debc 797d 033e fbed 8e3e 9f6d 8e3e
000001d0: eb97 463e ee09 d93d 7754 1e3e 423d d03e
000001e0: 220b 9d3e c5c2 413e daf1 9d3a 9148 e8bc
000001f0: 511f 463e 5723 b9bb 1147 99bd 9d55 76be
00000200: 5a84 06be 0429 f7bb 5ebe 7cbe a5c8 6bbe
00000210: 9bc7 42be 2363 41bd d674 333d 6981 6bbe
00000220: cd93 ffbd e868 08bd e44c 90bd b516 24bd
00000230: 9cfb 1cbe 4599 aabd 61f6 a5bd 4f52 a6bd
00000240: 8915 173d 6edc 95bd 4feb 9fbc b692 2cbe
00000250: 18cd 4ebe c041 05bc 3403 86bd db6f 5ebe
00000260: 27ad 09be cc68 03be 6f49 96be 143c 1f3e
00000270: 3dac be3d c394 013e fb1b 453e 0790 d03d
00000280: d4d1 0bbd 7896 59bd 3cdd 2d3d 27d6 333d
00000290: fb48 06bd f520 6cbd 4a68 cebd 6076 a8bd
000002a0: 34f1 52bd a78a 49bd b845 e5bd 1391 91bc
000002b0: 30af 3c3c f2df d33d 4413 663d ce77 bcbd
000002c0: 55b5 14be a2f3 2dbe 774c 6abe d77c 2fbe
000002d0: 360a b4bd f695 f2bd 9eaa 00be a3fa 22be
000002e0: 18d4 c1bd 7cb0 7ebd 11fa 3f3d 7cdd c93d
000002f0: 7b40 0b3d 338a e4bc 970f 9abd 74c0 0a3b
00000300: 1ea9 b93d e520 cd3c aa08 10bc 231c acbd
00000310: a11b b4bd 54c3 bfbd ff7e d0bd 8e05 e0bd
00000320: 560e fdbe 8236 93be 8544 f8be 1fd2 e8be
00000330: b04d b2be 530f 60be a33e 8e3c 1438 e7bd
00000340: a7c8 b1be 2551 a4be be77 55bd 23e1 913e
00000350: b192 893e fd2d 923d 77c0 95bd 3861 c3bd
00000360: 27b2 febc f176 143e 7026 e93d 4cf3 d13d
00000370: af7e f0bd 4597 8fbe 8d30 92bd 8f72 39bb
00000380: b9e1 5c3e e0ff b6be 25b3 6cbd 4ed8 f73d
00000390: e242 253e 96e3 023e 8902 49be 74a1 1c3c
000003a0: 785c 933e a64b f73e 2359 d83e 25e8 36be
000003b0: 3696 81be 2407 27be 80dd 223d 6b96 343e
000003c0: eaa8 2a3e cfa6 78bb d7d3 dabc b974 463d
000003d0: 9023 643e 41aa 333e 8a75 613d 9912 543a
000003e0: 9df6 19bc 57fc df3d 42cd e43c abc8 b73d
000003f0: 0557 b33d 3efc 2f3e bee0 2b3e c550 f83d

conv22.bias f4 [32]
0.017959716 0.014550302 -0.01538426 0.00951917 -0.014224325 0.007914425 -0.009841122 0.020948099
0.019357199 -0.014757534 0.0024226783 0.01148147 -0.00658336 0.016418058 0.007209689 -0.007143495
-0.0029847638 0.015774155 0.0016278567 -0.012594048 0.0057530957 0.01317819 -0.022833277 0.024315313
0.012648936 -0.013795108 -0.016823221 0.016006228 -0.010515485 -0.00537284 0.0084742075 0.0064603486
00000000: 4120 933c 6464 6e3c 430e 7cbc 4bf6 1b3c
00000010: 250d 69bc 81ab 013c a83c 21bc 599b ab3c
00000020: fd92 9e3c 95c9 71bc ccc5 1e3b c71c 3c3c
00000030: 3ab9 d7bb 2a7f 863c 413f ec3b fb13 eabb
00000040: 079c 43bb cd38 813c cf5d d53a 4457 4ebc
00000050: 7784 bc3b 56e9 573c da0c bbbc e830 c73c
00000060: 7c3d 4f3c e004 62bc dad0 89bc 7e1f 833c
00000070: 2449 2cbc a60e b0bb 67d7 0a3c 55b1 d33b

batch2.weight f4 [32]
0.7319726 0.8088982 0.9562605 0.90748405 0.86988926 0.7289074 1.0246316 0.7912564
1.1002346 0.77940464 0.86909306 0.79737276 0.88199174 0.6863396 1.0594976 0.85514444
1.0025479 0.8683573 0.9682245 0.92091244 0.8654354 0.84702164 0.9610512 0.75698906
0.87635887 1.0085174 0.84556735 1.0557204 0.79717374 0.807303 0.7749852 0.977019
00000000: 8e62 3b3f f413 4f3f 7dcd 743f e050 683f
00000010: 10b1 5e3f ad99 3a3f 2127 833f c88f 4a3f
00000020: 7dd4 8c3f 1087 473f e27c 5e3f 9f20 4c3f
00000030: 36ca 613f f4b3 2f3f 9e9d 873f bfea 5a3f
00000040: 7d53 803f aa4c 5e3f 90dd 773f ebc0 6b3f
00000050: 2d8d 5d3f 69d6 583f 7407 763f 09ca 413f
00000060: 0e59 603f 1917 813f 1a77 583f d921 873f
00000070: 9413 4c3f 69ab 4e3f 6e65 463f eb1d 7a3f

batch2.bias f4 [32]
-0.6053645 -0.49226275 -0.7190514 -0.5246527 -0.39271364 -0.37396315 -0.7671028 -0.5018684
-0.7574765 -0.5088184 -0.5239393 -0.5979876 -0.4164632 -0.46332657 -0.6738097 -0.54485995
-0.58474565 -0.6500601 -0.6618474 -0.6430501 -0.56001145 -0.37911355 -0.500381 -0.5147861
-0.5224788 -0.51008826 -0.41948774 -0.76297176 -0.5045024 -0.8398425 -0.41963893 -0.5645462
00000000: 2bf9 1abf dd09 fcbe c113 38bf a44f 06bf
00000010: c311 c9be 1978 bfbe d960 44bf 737a 00bf
00000020: fbe9 41bf ec41 02bf e320 06bf b715 19bf
00000030: aa3a d5be 2439 edbe cb7e 2cbf f17b 0bbf
00000040: e4b1 15bf 576a 26bf d56e 29bf ee9e 24bf
00000050: e95c 0fbf 2c1b c2be f818 00bf 06c9 03bf
00000060: 2cc1 05bf 2595 02bf 19c7 d6be 1e52 43bf
00000070: 1227 01bf ebff 56bf eada d6be 1a86 10bf

batch2.running_mean f4 [32]
-65.38017 -133.00699 -245.36328 -209.33972 -130.92262 -30.317585 -235.30582 -196.17484
-207.26305 -198.77104 -161.06075 -131.17502 -255.78534 33.171818 -259.20535 -165.56953
-222.26653 -213.72287 -241.82985 -208.80153 -188.15219 -236.47075 -201.86597 -188.98416
-151.29562 -196.13223 -161.9074 -214.17677 -153.4566 -126.594376 -100.65282 -189.97191
00000000: a6c2 82c2 ca01 05c3 005d 75c3 f856 51c3
00000010: 31ec 02c3 6a8a f2c1 4a4e 6bc3 c22c 44c3
00000020: 5743 4fc3 63c5 46c3 8d0f 21c3 ce2c 03c3
00000030: 0cc9 7fc3 f1af 0442 499a 81c3 cd91 25c3
00000040: 3b44 5ec3 0eb9 55c3 71d4 71c3 31cd 50c3
00000050: f626 3cc3 8378 6cc3 b0dd 49c3 f2fb 3cc3
00000060: ae4b 17c3 da21 44c3 4be8 21c3 412d 56c3
00000070: e474 19c3 5230 fdc2 3e4e c9c2 cff8 3dc3

batch2.running_var f4 [32]
28625.824 32569.64 59054.703 57038.75 44060.76 34814.246 56076.812 45621.367
66798.766 38952.484 34138.758 40543.816 68865.47 34205.797 55596.86 47179.57
54728.355 35932.508 62157.31 44426.22 48728.543 53059.285 73076.94 34342.03
34088.7 77525.61 69826.67 48811.066 33711.156 32796.055 37469.207 52276.438
00000000: a6a3 df46 4873 fe46 b4ae 6647 c0ce 5e47
00000010: c31c 2c47 3ffe 0747 d00c 5b47 5e35 3247
00000020: 6277 8247 7c28 1847 c25a 0547 d15f 1e47
00000030: bc80 8647 cc9d 0547 dc2c 5947 924b 3847
00000040: 5bc8 5547 825c 0c47 4fcd 7247 388a 2d47
00000050: 8b58 3e47 4943 4f47 78ba 8e47 0826 0647
00000060: b328 0547 ce6a 9747 5661 8847 11ab 3e47
00000070: 28af 0347 0e1c 0047 355d 1247 7034 4c47

conv3.weight f4 [16, 32, 5, 5]
0.23505436 0.399077 0.21515568 0.022582589 0.1079125 -0.14328367 0.0107534295 -0.052022792
-0.24833706 -0.28663662 -0.33865282 -0.14708824 -0.13549472 -0.16005851 -0.30627525 -0.06336989
-0.053093623 -0.035269566 -0.06145389 -0.4412946 -0.25550428 -0.30394584 -0.06471059 -0.0027956872
-0.11002695 -0.19120233 -0.050648104 -0.0063526668 -0.16186403 -0.3119686 -0.25341645 -0.019854233
0.12822197 -0.016817665 -0.17342958 0.03468487 0.020860435 -0.07427668 -0.15274626 -0.037637502
0.2891109 0.20813648 -0.0012964626 -0.10432029 0.04204746 -0.051840656 -0.12515879 -0.045071967
0.04003983 0.16894701 -0.3641118 -0.526076 -0.41486514 -0.18110767 -0.0043627475 -0.21064922
-0.4257362 -0.17422947 -0.11203783 0.011663921 -0.071182504 -0.29753244 -0.07360207 0.10232132
0.26320186 -0.2702176 -0.37510166 -0.2175607 0.022153337 0.1695716 -0.20974433 -0.116345726
0.08049782 0.12005906 0.03793386 0.13250333 -0.10470787 -0.10557052 -0.0060510836 0.24146943
-0.0014183553 -0.09712435 0.085053235 0.14837803 0.3504173 -0.113069594 -0.08969897 0.20015064
0.2023295 0.268213 -0.3281186 -0.21918403 0.11744507 0.13933502 0.057606727 -0.19671504
0.021400604 0.21241924 0.09739031 -0.024082629 0.06181289 -0.23782249 -0.21450377 -0.43375015
-0.4763816 0.28142697 -0.101374656 -0.027413504 -0.29138097 -0.14664611 0.09816684 -0.28966752
-0.39132443 -0.3107814 0.08996478 0.17586885 -0.015548232 -0.10080928 -0.097397454 0.34988195
0.2854869 0.22438563 0.22604002 0.17185651 0.3986399 0.2113739 0.22653903 0.17226002
0.024053633 0.025805859 -0.050034285 0.0006817027 0.004769046 -0.26048064 -0.36286238 -0.22209054
-0.0953533 -0.009821541 -0.15558855 -0.3175936 0.063118 0.14743991 0.10816821 -0.14288504
-0.28297824 -0.05358679 0.048525974 0.0006071851 -0.17813149 -0.20434552 -0.0638476 -0.14553398
-0.24981482 -0.348216 -0.08103002 -0.056320447 -0.116399005 -0.19227016 -0.23172373 -0.053673673
-0.030788122 -0.0146844555 -0.06289609 -0.1109307 -0.06535436 -0.31423697 -0.27347824 -0.20315827
-0.20019893 -0.14668112 -0.37452137 -0.33515313 -0.13611522 -0.15233035 -0.052727945 -0.43850225
-0.27865216 -0.051046815 0.0052223234 0.19507536 -0.45001453 -0.44059628 -0.2707458 -0.1151708
0.041791145 -0.21868232 -0.3448267 -0.25707382 -0.12714976 0.18172826 0.037244827 -0.17920843
-0.2056788 -0.10564737 0.20612162 0.15154561 -0.0824993 0.09015101 0.14380543 0.24273437
0.25487915 -0.05877096 0.09623155 0.19978599 0.05386796 0.04598526 -0.096945144 0.038276304
0.006196995 -0.1408322 -0.05690006 -0.06964462 0.059695706 -0.045977775 -0.09268488 -0.15809283
-0.058196843 0.09572228 -0.0038051773 -0.046826307 -0.27597618 -0.035752468 0.17678544 0.003736285
-0.08556893 0.057731025 -0.12557776 -0.19304354 -0.10036139 -0.1974983 -0.20572701 -0.0960108
-0.13363388 -0.21262257 -0.21131404 -0.15074731 0.032171436 -0.1310203 -0.2756791 -0.035192285
-0.11033424 0.12429267 0.09162665 -0.04568115 0.20625277 -0.036270313 0.09919452 0.16252059
0.098674394 0.24027418 -0.004786138 -0.03898548 0.020530684 0.10902781 0.07244217 -0.12566137
00000000: 17b2 703e d253 cc3e c551 5c3e 1fff b83c
00000010: 3b01 dd3d f4b8 12be 272f 303c da15 55bd
00000020: 124c 7ebe 09c2 92be e763 adbe 4d9e 16be
00000030: 21bf 0abe 61e6 23be 1cd0 9cbe 13c8 81bd
00000040: b378 59bd d276 10bd 13b7 7bbd 5ef1 e1be
00000050: 75d1 82be ca9e 9bbe fc86 84bd d937 37bb
00000060: cf55 e1bd 8bca 43be 6374 4fbd 082a d0bb
00000070: afbf 25be 59ba 9fbe cdbf 81be 58a5 a2bc
00000080: 9f4c 033e 33c5 89bc 8697 31be b911 0e3d
00000090: 81e3 aa3c 5f1e 98bd 8469 1cbe c829 1abd
000000a0: 5806 943e bb21 553e 11ee a9ba e0a5 d5bd
000000b0: f539 2c3d de56 54bd a029 00be 629d 38bd
000000c0: ce00 243d 7200 2d3e dd6c babe ebac 06bf
000000d0: 3469 d4be 4a74 39be 61f5 8ebb 6eb4 57be
000000e0: 18fa d9be 3669 32be 1774 e5bd 081a 3f3c
000000f0: 22c8 91bd 2c56 98be afbc 96bd d78d d13d
00000100: 65c2 863e f659 8abe 530d c0be 3bc8 5ebe
00000110: ea7a b53c 2da4 2d3e 38c7 56be ab46 eebd
00000120: 0bdc a43d 86e1 f53d 8960 1b3d f4ae 073e
00000130: 1471 d6bd 5b35 d8bd 2b48 c6bb c343 773e
00000140: 1be8 b9ba 22e9 c6bd 6430 ae3d 69f0 173e
00000150: e569 b33e 0891 e7bd 18b4 b7bd 4af4 4c3e
00000160: 772f 4f3e 3753 893e 29ff a7be c771 60be
00000170: 0a87 f03d d7ad 0e3e 08f5 6b3d ab6f 49be
00000180: 5250 af3c 6e84 593e 9274 c73d ef48 c5bc
00000190: 832f 7d3d bd87 73be e0a6 5bbe 8014 debe
000001a0: 4ae8 f3be 3217 903e 849d cfbd 4992 e0bc
000001b0: e32f 95be 662a 16be b20b c93d 4d4f 94be
000001c0: ad5b c8be bd1e 9fbe 743f b83d f716 343e
000001d0: 03be 7ebc 1975 cebd 5178 c7bd ba23 b33e
000001e0: 572b 923e 59c5 653e 0977 673e 27fb 2f3e
000001f0: 871a cc3e 6672 583e d9f9 673e ee64 303e
00000200: 200c c53c cf66 d33c c0f0 4cbd 4bb4 323a
00000210: a845 9c3b b85d 85be 19c9 b9be b46b 63be
00000220: 9748 c3bd 87ea 20bc 9b52 1fbe a19b a2be
00000230: 0344 813d 7dfa 163e 4b87 dd3d 7550 12be
00000240: 86e2 90be d27d 5bbd 2cc3 463d 812b 1f3a
00000250: 1a68 36be f43f 51be 88c2 82bd dc06 15be
00000260: 75cf 7fbe 5e49 b2be 11f3 a5bd 45b0 66bd
00000270: 9a62 eebd 78e2 44be fc48 6dbe edd8 5bbd
00000280: 5f37 fcbc 1297 70bc aacf 80bd a32f e3bd
00000290: 82d8 85bd abe3 a0be 5705 8cbe b908 50be
000002a0: f300 4dbe 9333 16be 44c1 bfbe 3199 abbe
000002b0: ca61 0bbe 7dfc 1bbe 42f9 57bd 5e83 e0be
000002c0: 7fab 8ebe 7716 51bd 0620 ab3b d6c1 473e
000002d0: 4e68 e6be d695 e1be 329f 8abe abde ebbd
000002e0: 312d 2b3d 42ee 5fbe 208d b0be 2e9f 83be
000002f0: 8c33 02be f916 3a3e 088e 183d 6a82 37be
00000300: 779d 52be a65d d8bd 8c11 533e c62e 1b3e
00000310: 65f5 a8bd 18a1 b83d bb41 133e 5c8f 783e
00000320: 857f 823e d1b9 70bd 0c15 c53d b394 4c3e
00000330: a6a4 5c3d 0a5b 3c3d 2d8b c6bd 9dc7 1c3d
00000340: 2910 cb3b 5136 10be 0a10 69bd d7a1 8ebd
00000350: 7c83 743d 3153 3cbd 92d1 bdbd 16e3 21be
00000360: d05f 6ebd 0b0a c43d 4860 79bb f1cc 3fbd
00000370: c04c 8dbe 2e71 12bd 3e07 353e 76dc 743b
00000380: c33e afbd 5e77 6c3d 7597 00be 35ad 45be
00000390: 468a cdbd ff3c 4abe 1aaa 52be 4fa1 c4bd
000003a0: 52d7 08be bbb9 59be b562 58be 815d 1abe
000003b0: 32c6 033d 2f2a 06be d025 8dbe c925 10bd
000003c0: ebf6 e1bd 288d fe3d c1a6 bb3d 281c 3bbd
000003d0: ed33 533e 2e90 14bd 7f26 cb3d cc6b 263e
000003e0: cd15 ca3d 6f0a 763e 09d5 9cbb 3daf 1fbd
000003f0: f72f a83c f949 df3d 8f5c 943d 60ad 00be

conv3.bias f4 [16]
0.35883853 0.11758378 -0.09557299 -0.13592461 0.04363268 -0.11332581 0.4247476 0.2826825
0.54989874 -0.48060897 0.62618285 0.024238972 0.34964067 0.3434128 -0.4741699 -0.1648928
00000000: afb9 b73e c4cf f03d c6bb c3bd d22f 0bbe
00000010: 2eb8 323d 5d17 e8bd 8478 d93e c3bb 903e
00000020: 2ac6 0c3f 6112 f6be 854d 203f cf90 c63c
00000030: 1a04 b33e cdd3 af3e 66c6 f2be a8d9 28be

conv33.weight f4 [8, 16, 5, 5]
-0.26426828 -0.124380454 0.15265056 0.14379235 0.13159388 -0.18061961 -0.0046897586 0.46064848
0.49140686 0.3957195 -0.05011017 0.101950414 0.32467914 0.48890314 0.4700363 0.056980122
-0.0074358317 0.10372117 0.36308795 0.2175975 -0.06341156 -0.09198263 -0.12428176 -0.2155903
-0.30787036 0.079486534 -0.15300131 -0.4391197 -0.2069768 -0.1442444 0.341483 0.045241162
-0.23947357 0.15290503 0.36163473 0.29934907 0.07885914 -0.09710325 0.08811482 0.29515642
-0.106508225 -0.007850593 -0.10864484 0.07472275 0.24803393 -0.04118119 0.022943342 -0.081419185
0.05410667 0.07783845 0.07676958 -0.05078706 -0.27466854 -0.19769964 -0.027577177 0.12462674
0.085685804 -0.07647853 -0.061921768 0.100628294 -0.32167795 -0.11518268 -0.18156005 -0.027955009
0.21682265 -0.07954994 0.08850448 -0.15516046 0.0029141319 0.048776012 -0.015653675 0.07497767
-0.08978733 -0.06105262 0.028816523 -0.08863549 -0.39366853 -0.19855554 -0.23363855 -0.12898138
-0.03460314 -0.01846066 0.18195732 -0.0906568 -0.08336741 -0.050382316 -0.06831548 0.3292874
0.06009021 -0.056240555 0.12639074 -0.06661766 0.18130569 0.2994712 0.023466414 0.12061743
-0.10220126 -0.2128356 0.13430014 -0.09880668 0.34939876 0.26225138 0.2919466 0.4761791
0.10676286 0.19206966 -0.072256856 0.06452532 0.3783861 0.016730389 -0.24689123 -0.48945954
-0.46210915 -0.10347 -0.23367952 -0.4981381 -0.21136092 -0.118692964 -0.02849665 -0.018647883
-0.36473325 -0.036448345 0.012992039 -0.037418686 -0.0047730054 -0.080851234 -0.1314079 -0.13780391
-0.0005009055 -0.14716922 0.00823766 -0.024184952 0.042877883 -0.028300434 -0.31224358 -0.042863715
0.0049697096 0.12092622 -0.09638705 -0.18619901 -0.17559174 -0.18733676 -0.07842676 -0.010332412
0.13516058 -0.023220727 -0.27135146 -0.257268 -0.017089292 0.2448907 0.05182647 -0.12663211
0.07475411 0.2440737 0.3006974 0.02192488 -0.296775 -0.11042362 -0.24965897 -0.28371844
0.25656584 -0.008138315 0.12237712 -0.010905023 -0.1414459 0.025185887 -0.027117375 -0.009053441
0.11030849 0.21652442 -0.3824309 -0.21871981 -0.26747495 -0.08617988 -0.045830455 -0.120333746
0.15956223 -0.049573857 -0.12410768 -0.03475887 -0.029874697 0.2064504 0.026915712 -0.25406483
-0.18824668 -0.13428046 0.115873955 -0.07228419 -0.08704594 -0.030782526 -0.15793172 0.00012687716
-0.108442225 0.10138084 0.04748555 0.04309703 0.15219419 0.11270345 0.33304542 0.25312784
-0.2598318 -0.2404264 -0.041133273 0.10476967 -0.061907094 -0.22611682 -0.11102444 0.28892803
0.5622657 0.062128633 -0.1364239 -0.26888582 -0.06627285 0.43333757 0.11073038 -0.008939313
0.14473972 -0.093909875 0.14657156 0.053388104 -0.0026823292 0.20816107 -0.06627516 0.031897306
-0.035824914 -0.08637959 0.088049665 -0.10945853 -0.09731608 0.117950045 -0.006338591 -0.08385999
-0.22899833 0.010449362 0.36728004 0.020739144 -0.05413995 -0.12284541 0.21447879 0.33266768
0.07018056 0.04793319 -0.13383234 -0.039040264 0.021141067 0.22978278 0.11888968 0.059067592
0.17155728 0.09945082 -0.09048121 0.14939275 0.09978901 0.11707069 0.021669973 0.054956555
00000000: 2c4e 87be 2ebb febd 6e50 1c3e 4d3e 133e
00000010: 8cc0 063e 59f4 38be 8cac 99bb 1eda eb3e
00000020: ae99 fb3e bf9b ca3e 5240 4dbd 61cb d03d
00000030: 583c a63e 8351 fa3e 99a8 f03e fd63 693d
00000040: 47a8 f3bb c46b d43d aae6 b93e e1d1 5e3e
00000050: ecdd 81bd 6461 bcbd 6f87 febd b4c3 5cbe
00000060: 2fa1 9dbe d6c9 a23d 60ac 1cbe 4cd4 e0be
00000070: baf1 53be ceb4 13be dcd6 ae3e cc4e 393d
00000080: 8f38 75be 2393 1c3e 3028 b93e 4844 993e
00000090: e780 a13d 12de c6bd 8b75 b43d be1e 973e
000000a0: fc20 dabd c69f 00bc 3081 debd 3e08 993d
000000b0: 9bfc 7d3e 9cad 28bd adf3 bb3c 1abf a6bd
000000c0: f59e 5d3d c469 9f3d 5f39 9d3d 1806 50bd
000000d0: 5ba1 8cbe c671 4abe 88e9 e1bc 4e3c ff3d
000000e0: 0a7c af3d c7a0 9cbd aea1 7dbd 3516 ce3d
000000f0: f9b2 a4be e6e4 ebbd e1ea 39be e701 e5bc
00000100: c206 5e3e 14eb a2bd d641 b53d 62e2 1ebe
00000110: 05fb 3e3b 5bc9 473d 233c 80bc e58d 993d
00000120: 6be2 b7bd 5012 7abd a110 ec3c 8686 b5bd
00000130: ec8e c9be 2552 4bbe f23e 6fbe b213 04be
00000140: 06bc 0dbd cf3a 97bc 0553 3a3e 46aa b9bd
00000150: 88bc aabd b05d 4ebd fde8 8bbd 5c98 a83e
00000160: 2721 763d 7f5c 66bd 936c 013e d76e 88bd
00000170: 33a8 393e 4a54 993e a33c c03c 4506 f73d
00000180: e54e d1bd 93f1 59be fa85 093e 285b cabd
00000190: 65e4 b23e d045 863e 067a 953e bfcd f33e
000001a0: 7da6 da3d e9ad 443e 67fb 93bd da25 843d
000001b0: d3bb c13e 2b0e 893c 0ed1 7cbe 719a fabe
000001c0: 9299 ecbe 14e8 d3bd af49 6fbe f50b ffbe
000001d0: ff6e 58be 4c15 f3bd ce71 e9bc 72c3 98bc
000001e0: 51be babe dc4a 15bd 90dc 543c 5644 19bd
000001f0: df66 9cbb 5595 a5bd cb8f 06be 781c 0dbe
00000200: 334f 03ba 87b3 16be 40f7 063c 851f c6bc
00000210: b8a0 2f3d 50d6 e7bc 64de 9fbe dd91 2fbd
00000220: f2d8 a23b 2ba8 f73d 9366 c5bd f4aa 3ebe
00000230: 52ce 33be 35d5 3fbe 369e a0bd 4749 29bc
00000240: 8967 0a3e 6539 bebc 94ee 8abe a2b8 83be
00000250: d8fe 8bbc a1c4 7a3e fe47 543d d9ab 01be
00000260: af18 993d 75ee 793e 02f5 993e ce9b b33c
00000270: e5f2 97be c725 e2bd 9aa6 7fbe 8b43 91be
00000280: 995c 833e 9156 05bc dba0 fa3d fbaa 32bc
00000290: 32d7 10be a252 ce3c 4225 debc e254 14bc
000002a0: 6be9 e13d 94b8 5d3e fccd c3be 16f8 5fbe
000002b0: 7af2 88be 147f b0bd b7b8 3bbd 8a71 f6bd
000002c0: 4864 233e f50d 4bbd 2b2c febd 515f 0ebd
000002d0: c8bb f4bc bc67 533e 577e dc3c c914 82be
000002e0: bdc3 40be d180 09be 534f ed3d bc09 94bd
000002f0: 2445 b2bd a32b fcbc dab8 21be 540a 0539
00000300: f516 debd c2a0 cf3d 3580 423d 8386 303d
00000310: cbd8 1b3e 11d1 e63d ee84 aa3e f999 813e
00000320: ac08 85be 5732 76be 5d7b 28bd 7b91 d63d
00000330: 4b92 7dbd 2b8b 67be c860 e3bd 60ee 933e
00000340: a5f0 0f3f 987a 7e3d b5b2 0bbe 67ab 89be
00000350: 0fba 87bd 6cde dd3e 9cc6 e23d 3276 12bc
00000360: a636 143e d253 c0bd db16 163e 7cad 5a3d
00000370: 04ca 2fbb 2d28 553e 45bb 87bd c0a6 023d
00000380: 25bd 12bd c8e7 b0bd 6253 b43d cb2b e0bd
00000390: a74d c7bd cb8f f13d f5b3 cfbb c9be abbd
000003a0: 8a7e 6abe cd33 2b3c 210c bc3e 23e5 a93c
000003b0: dac1 5dbd 6096 fbbd 54a0 5b3e 6b53 aa3e
000003c0: d3ba 8f3d 9855 443d 580b 09be afe8 1fbd
000003d0: 0830 ad3c 2d4c 6b3e 6f7c f33d dcf0 713d
000003e0: b6ac 2f3e dfac cb3d 364e b9bd 6afa 183e
000003f0: 2e5e cc3d c2c2 ef3d 3a85 b13c 201a 613d

conv33.bias f4 [8]
0.04424015 0.05680753 0.043484382 -0.011834133 0.0665976 -0.013785994 0.014869531 0.041854523
00000000: 2935 353d 03af 683d ae1c 323d f4e3 41bc
00000010: 5364 883d a6de 61bc 559f 733c a66f 2b3d

batch3.weight f4 [8]
0.7695087 0.77344894 0.6908216 0.6830179 0.7074632 0.77531123 0.7701059 0.8125451
00000000: 86fe 443f c000 463f afd9 303f 43da 2e3f
00000010: 4f1c 353f cc7a 463f a925 453f f502 503f

batch3.bias f4 [8]
-0.17492472 -0.12624265 -0.0494919 -0.08495337 -0.10946828 -0.19402768 -0.12908545 -0.1567566
00000000: 771f 33be c145 01be 05b8 4abd 08fc adbd
00000010: e830 e0bd 31af 46be fa2e 04be cd84 20be

batch3.running_mean f4 [8]
-12.871077 -0.31455988 -12.806177 -9.746163 -15.077098 -18.390514 -2.7440443 -17.884384
00000000: eeef 4dc1 fe0d a1be 1ae6 4cc1 49f0 1bc1
00000010: cb3b 71c1 c61f 93c1 6c9e 2fc0 3813 8fc1

batch3.running_var f4 [8]
426.4603 375.48105 399.66162 404.06995 366.35422 413.03705 289.27097 501.4618
00000000: eb3a d543 93bd bb43 b0d4 c743 f408 ca43
00000010: 572d b743 be84 ce43 afa2 9043 1cbb fa43
