models/net_new_bs64_dr0_2_adam_augm/model_epoch_56.pt (torch, 763336 bytes, 28 tensors)

conv1.weight f4 [8, 3, 5, 5]
0	0x3ddc6c52	0.10762848
1	0x3db67af0	0.08910167
2	0xbe12bf5b	-0.14330809
3	0x3e426be6	0.18986472
4	0xbd372240	-0.044710398
5	0x3e0e1154	0.13873798
6	0xbd0d79ea	-0.034540094
7	0x3e73312d	0.23749228
8	0x3f010407	0.5039677
9	0xbe4ae28a	-0.1981298
10	0x3be6af79	0.007039961
11	0xbc7f0866	-0.015565967
12	0x3e69b5d1	0.22823264
13	0x3e9e7fa6	0.30956763
14	0x3d817c32	0.063225165
15	0xbe5b2567	-0.21400987
16	0xbdc3f54a	-0.095682696
17	0xbe373d26	-0.1789442
18	0xbdc9cf92	-0.09854044
19	0x3ddbeb77	0.10738271
20	0xbe4867d0	-0.19570851
21	0xbe847e8d	-0.258778
22	0xbe84682e	-0.25860733
23	0xbb9f3e77	-0.0048597413
24	0xbcf05385	-0.0293367
25	0xbdb854bf	-0.09000539
26	0xbdf95eb7	-0.121762685
27	0xbe80b5fb	-0.2513884
28	0x3d6ece1c	0.05830203
29	0xbe1ac859	-0.15115489
30	0x3e80b676	0.25139207
31	0xbdcbc7c6	-0.09950213
32	0x3e3b4e74	0.18291646
33	0x3e89a93c	0.26886928
34	0xbea8439d	-0.32864085
35	0x3e2aee95	0.16692574
36	0x3e39b782	0.18136409
37	0x3e9b2bbd	0.30306807
38	0x3e1a9f99	0.15099944
39	0xbe805526	-0.25064963
40	0x3df24b8e	0.11830817
41	0x3e1787aa	0.14797845
42	0x3dacd63b	0.08439299
43	0x3d53b7c9	0.051688943
44	0x3d34c632	0.044134326
45	0x3ba23a75	0.0049508163
46	0x3dc13b9d	0.094351985
47	0x3cd553b9	0.026040899
48	0x3cd0624a	0.025437493
49	0xbd9108dc	-0.07081768
50	0xbe320183	-0.17383389
51	0xbe0718ea	-0.13193098
52	0xbea42374	-0.320583
53	0x3dc71489	0.09720714
54	0x3de5931f	0.11209702
55	0x3dea5a83	0.11443045
56	0xbd949ea0	-0.07256818
57	0xbde5f4a5	-0.11228303
58	0x3e29e4dd	0.1659121
59	0xbe966432	-0.29373318
60	0x3dd73772	0.10508622
61	0x3c96b2e5	0.01839585
62	0x3d1a8511	0.03772456
63	0xbdf675b8	-0.12034172
64	0xbe3d26bd	-0.18471809
65	0x3e1e7f92	0.15478352
66	0x3eaab23f	0.33339116
67	0xbde8beae	-0.11364494
68	0xbe8a6a2d	-0.2703413
69	0xbe001275	-0.12507041
70	0x3ea6e8d1	0.325995
71	0x3e788351	0.24268843
72	0x3e40a5da	0.18813267
73	0xbe1540aa	-0.14575449
74	0xbdeb1769	-0.114790745
75	0xbe4128e5	-0.18863256
76	0xbe486b1b	-0.19572107
77	0x3e950890	0.29108095
78	0x3ed67e66	0.4189331
79	0x3e67ebaf	0.226485
80	0xbe800940	-0.25007057
81	0xbe9de869	-0.30841377
82	0x3dd47f2d	0.10375819
83	0x3efeb8de	0.49750417
84	0x3f1f84c1	0.6231194
85	0xbea02296	-0.31276387
86	0xbe8fcd34	-0.28086245
87	0xbe20ef0e	-0.15716192
88	0x3e6ec999	0.23319091
89	0x3f0480f1	0.5175925
90	0xbe0e1bee	-0.13877842
91	0xbedfc522	-0.43705088
92	0x3e1cd2fb	0.15314858
93	0x3e132828	0.14370787
94	0xbdb9f15d	-0.090792395
95	0xbdfca8f5	-0.123369135
96	0xbe27ad44	-0.1637469
97	0xbd82b2f4	-0.06381789
98	0xbd5c00f6	-0.053711854
99	0xbde3bf99	-0.11120529
100	0x3e467efa	0.19384375
101	0x3de493a7	0.11160975
102	0x3d2c9293	0.04213197
103	0xbe11a99b	-0.14224856
104	0xbe06edae	-0.13176605
105	0x3e65eccf	0.22453617
106	0xbd7c9dc6	-0.061673902
107	0xbeba791a	-0.36420518
108	0xbea3da7a	-0.32002622
109	0xbda4bac2	-0.08043434
110	0x3edfe352	0.4372812
111	0x3de0cd45	0.10976652
112	0xbe4d389e	-0.20041129
113	0xbf04d323	-0.5188467
114	0xbe2ecbf0	-0.17069983
115	0x3e9d62a1	0.3073931
116	0x3d90d6f7	0.07072251
117	0x3de2c8db	0.110734664
118	0xbe97b149	-0.29627445
119	0xbec3a9a9	-0.38215378
120	0x3e6ab42b	0.22920291
121	0xbd0a0f4b	-0.03370599
122	0x3e005cbe	0.12535378
123	0xbe13e4dc	-0.14442772
124	0xbdf0b083	-0.11752417
125	0xbe1dc0dc	-0.15405601
126	0xbe2357cd	-0.15951462
127	0xbe0334e5	-0.12813146
128	0xbdc11929	-0.09428627
129	0xbe76090b	-0.24026887
130	0x3dad48b6	0.08461134
131	0xbb6c4441	-0.0036051425
132	0xbe8fbfcb	-0.28076014
133	0xbdac3d50	-0.08410132
134	0xbc389aeb	-0.011267404
135	0x3d32f4a4	0.04369034
136	0x3d8a7ae1	0.067617185
137	0xbd4dad7f	-0.050214287
138	0xbdb464bd	-0.08808277
139	0x3ded065d	0.11573479
140	0x3e08bdc1	0.13353635
141	0x3cab5d5a	0.020918537
142	0x3f19c588	0.60067034
143	0x3bc9a2a6	0.0061534224
144	0xbd39858a	-0.04529337
145	0x3d2f30dd	0.04277121
146	0x3d5951d0	0.053056538
147	0x3ecc66fd	0.39922324
148	0x3e6fac15	0.23405488
149	0x3d5c81f3	0.053834867
150	0x3d87b615	0.06626526
151	0xbe87cb0e	-0.26522106
152	0x3d57484c	0.052559182
153	0x3d178eb1	0.037001316
154	0x3cffd738	0.031230554
155	0xbe498fac	-0.19683713
156	0xbd9fc6e2	-0.07801606
157	0xbd90923e	-0.070591435
158	0x3e161c3e	0.14659211
159	0x3d36b074	0.044601873
160	0xbdd29fd4	-0.10284391
161	0xbd1beb69	-0.0380663
162	0xbe456e4c	-0.19280356
163	0xbd82ac4d	-0.0638052
164	0x3eaa8299	0.33302763
165	0xbe8cd73f	-0.2750797
166	0xbedb1c0a	-0.4279483
167	0x3edf02d4	0.43556845
168	0x3f09fb1e	0.538988
169	0x3d28c933	0.041207504
170	0xbe38a8e7	-0.18033181
171	0xbeb33022	-0.3499766
172	0x3d5211a8	0.05128637
173	0x3db13ec3	0.08654549
174	0xbcc60c2b	-0.024175724
175	0xbdaf4f9e	-0.08560108
176	0xbe963885	-0.29339996
177	0x3de585ba	0.11207147
178	0x3e33359e	0.17500922
179	0xbe35845d	-0.17726274
180	0xbdba1c50	-0.090874314
181	0x3da19bd6	0.078910515
182	0xbcca930a	-0.024728317
183	0x397580ab	0.00023412953
184	0x3e2431f3	0.16034679
185	0xbd29cfe2	-0.041458018
186	0x3e872427	0.2639477
187	0xbde536d5	-0.11192099
188	0xbd6cd463	-0.057819735
189	0x3e95652d	0.29178753
190	0xbe3ffe13	-0.18749265
191	0xbe32c117	-0.1745647
192	0x3f1addea	0.60494864
193	0x3f2526ef	0.6451253
194	0x3db1462f	0.086559646
195	0xbe0fedc8	-0.1405555
196	0xbe7d9d3c	-0.24767011
197	0x3d87f13d	0.066378094
198	0x3e0b704e	0.1361706
199	0x3d25425d	0.040346492
200	0x3e7cba00	0.24680328
201	0x3dd5489c	0.1041424
202	0x3e974ca2	0.29550654
203	0x3e15e6e6	0.14638862
204	0x3da9ddea	0.0829428
205	0x3e35eabd	0.17765327
206	0x3e21f58c	0.15816325
207	0xbea51f7d	-0.32250586
208	0xbec6309f	-0.3870897
209	0xbda08b31	-0.07839049
210	0x3efbdc39	0.49191454
211	0x3ef6c1c5	0.4819471
212	0xbf320d24	-0.695513
213	0xbf67e5ad	-0.9058483
214	0xbe70db7d	-0.23521228
215	0x3f076ce6	0.5290054
216	0x3e1039d6	0.14084563
217	0x3d19b1f6	0.037523232
218	0xbe377776	-0.17916664
219	0xbeddfaf4	-0.43355525
220	0x3eb13c1e	0.34616178
221	0x3dfee3e7	0.12445813
222	0xbe18be25	-0.14916284
223	0xbea547c3	-0.32281312
224	0xbeb897e2	-0.36053377
225	0x3deed05a	0.11660834
226	0x3e301fae	0.17199585
227	0x3e07c144	0.13257319
228	0xbd8202d6	-0.06348197
229	0xbda80645	-0.08204321
230	0x3db6600d	0.08905039
231	0x3e90b2c8	0.282614
232	0x3e9546c2	0.29155546
233	0x3d9d80ec	0.076906055
234	0x3b311dde	0.002702586
235	0x3e899a4c	0.26875532
236	0x3e0bf043	0.13665871
237	0xbd0c159f	-0.034200307
238	0xbeb4e006	-0.35327166
239	0xbe71a173	-0.23596744
240	0x3dcb43ff	0.099250786
241	0xbe746c6e	-0.23869488
242	0xbe950f14	-0.29113066
243	0xbef4cc34	-0.47812045
244	0xbe47d746	-0.19515714
245	0xbdcf2e68	-0.10116273
246	0xbe3d4f9a	-0.18487397
247	0xbcfe1c1d	-0.031019265
248	0xbde5b5b2	-0.11216296
249	0x3dfbe29d	0.122990824
250	0xbe2939bd	-0.16525932
251	0xbe615c1a	-0.2200779
252	0xbd9770ed	-0.07394586
253	0xbda98144	-0.082766086
254	0xbdbde8b6	-0.09272902
255	0xbdac984a	-0.08427484

conv1.bias f4 [8]
0	0xbeee3bbf	-0.46529958
1	0x3e6ff1dc	0.23432106
2	0x3e53b94f	0.20676158
3	0x3e37c76b	0.17947166
4	0xbd820417	-0.06348436
5	0x3c7e910e	0.015537513
6	0xbf19a83a	-0.6002232
7	0xbe2c5cca	-0.16832271

conv11.weight f4 [32, 8, 5, 5]
0	0xbd6232a1	-0.055224065
1	0xbd698fcd	-0.057021905
2	0x3ddb3e1d	0.107052065
3	0x3cec7190	0.028862745
4	0xbde6f773	-0.11277666
5	0x3d99a397	0.075019054
6	0xbd642439	-0.055698607
7	0x3cbec170	0.023285598
8	0x3ca5aacc	0.020223044
9	0xbe63f64f	-0.22261928
10	0x3d5c26c3	0.053747904
11	0x3c0ee443	0.008721414
12	0xbdbc4bd6	-0.09194152
13	0xbd77dfad	-0.06051605
14	0xbe312af7	-0.17301546
15	0x3e505843	0.20346169
16	0xbe3dd941	-0.18539907
17	0xbe96e0a4	-0.29468262
18	0xbd4178d7	-0.047234382
19	0xbce90da9	-0.028448896
20	0xbdd24620	-0.102672815
21	0xbed3c8d4	-0.41364157
22	0xbdce41cc	-0.100711435
23	0x3e75a4a4	0.23988587
24	0x3e238f1c	0.1597256
25	0x3ee8035b	0.4531506
26	0x3eb998f5	0.3624951
27	0xbd35aee6	-0.04435625
28	0xbdec0f5e	-0.115263686
29	0xbecd09ec	-0.40046632
30	0x3efd7c15	0.4950873
31	0x3e0e8206	0.13916788
32	0xbeaa94e0	-0.33316708
33	0xbe8c74aa	-0.27432758
34	0xbd5c8fde	-0.05384814
35	0x3eee63ea	0.46560603
36	0xbe9830da	-0.2972477
37	0xbee9bec6	-0.4565336
38	0xbdb8af01	-0.09017754
39	0x3de99e0f	0.114071004
40	0xbde61fb3	-0.11236515
41	0xbeb6d08c	-0.35705984
42	0xbde3f4eb	-0.11130699
43	0xbe1e118b	-0.1543638
44	0x3e82cbf1	0.2554622
45	0xbe75a294	-0.239878
46	0xbdc987d1	-0.09840358
47	0xbdb06746	-0.08613448
48	0xbd0d8a27	-0.03455558
49	0x3e200d47	0.15630065
50	0xbe8b92a4	-0.27260315
51	0xbd64f36b	-0.055896204
52	0xbe5e7a0d	-0.21726246
53	0x3d251688	0.04030469
54	0x3cc97616	0.02459244
55	0xbd442078	-0.047882527
56	0xbe6abd79	-0.2292384
57	0xbe86ba0f	-0.26313826
58	0x3e55cec5	0.20879658
59	0x3e8fa35c	0.2805432
60	0xbe299e5e	-0.16564319
61	0xbeffdbed	-0.49972478
62	0x3d31e332	0.04342956
63	0x3ed6bb20	0.4193964
64	0x3dde157b	0.10843941
65	0xbe3632d2	-0.17792824
66	0x3e8ddebf	0.27709004
67	0x3f32eb01	0.6988984
68	0x3d950930	0.07277143
69	0x3d4cc93c	0.0499966
70	0x3e29c833	0.16580276
71	0x3eb27fb1	0.34863046
72	0x3da3f5e1	0.08005882
73	0x3c28c828	0.010301627
74	0x3de0e6ae	0.10981499
75	0xbd805410	-0.06266034
76	0xbe9df705	-0.30852523
77	0xbe739138	-0.23785865
78	0x3cf05212	0.02933601
79	0x3e807a3a	0.2509325
80	0xbe7ae43a	-0.24501124
81	0xbe8c56ae	-0.2740988
82	0xbdaa8d9b	-0.0832779
83	0x3eb80b24	0.35946
84	0x3e3ec594	0.18630058
85	0xbd12f764	-0.03588046
86	0x3c2b7827	0.010465658
87	0x3e237988	0.15964329
88	0x3e3e22b9	0.18567933
89	0x3ce867b3	0.02836976
90	0x3e4133c5	0.18867405
91	0x3e344428	0.17604125
92	0x3cc78291	0.024354251
93	0xbe02ddfc	-0.12779993
94	0xbdc278a3	-0.09495666
95	0x3e51aea2	0.20476773
96	0x3dd29282	0.102818504
97	0xbcd146b5	-0.025546411
98	0x3d472e88	0.04862836
99	0x3e0bb244	0.13642222
100	0xbe0b0159	-0.13574733
101	0x3d17256d	0.036900926
102	0x3da8c587	0.082408
103	0x3c20c3fe	0.009812353
104	0x3c326d41	0.010890306
105	0x3befcc5d	0.007318063
106	0x3e480449	0.19532885
107	0x3e545cce	0.20738527
108	0xbc871394	-0.016488828
109	0x3d2dc470	0.042423666
110	0x3e1d5d46	0.15367612
111	0xbcabea58	-0.020985767
112	0xbcd5a2dc	-0.026078634
113	0x3d29027b	0.04126213
114	0x3e2aa388	0.16663945
115	0x3e2a3bf5	0.16624434
116	0xbdfda6e7	-0.1238535
117	0x3db82f31	0.08993376
118	0x3d9038b0	0.07042062
119	0xbe284d2d	-0.1643569
120	0x3de00013	0.10937514
121	0x3e04d949	0.12973513
122	0x3e3f8f1b	0.18706934
123	0xbe47374e	-0.19454691
124	0xbeaedd6e	-0.34153312
125	0xbdf2f0ed	-0.11862359
126	0xbdfedc05	-0.12444309
127	0xbe517b31	-0.2045715
128	0x3cf0a5bf	0.029375909
129	0x3e820678	0.2539556
130	0xbe944ed6	-0.28966397
131	0xbe4ec92d	-0.2019393
132	0xbe73d32b	-0.23811023
133	0x3e971159	0.29505423
134	0x3f01a336	0.50639665
135	0xbca209e0	-0.0197801
136	0xbdcd4949	-0.10023744
137	0x3d1b7fa1	0.037963513
138	0x3f2d6c71	0.67743593
139	0x3eb8a2f4	0.36061823
140	0xbe23c46e	-0.159929
141	0x3dc01e2e	0.09380756
142	0x3ee3d829	0.44500855
143	0x3f07ef6d	0.5309971
144	0xbe77aa55	-0.2418607
145	0xbba3482f	-0.00498297
146	0x3ef0a5d4	0.47001517
147	0x3e84da71	0.25947908
148	0xbea501c9	-0.32227924
149	0xbf2dd091	-0.6789637
150	0x3e0a99f9	0.13535298
151	0x3dd20cba	0.10256334
152	0xbdd62a9b	-0.10457345
153	0xbeb00ae1	-0.343833
154	0xbd511165	-0.05104198
155	0xbca752dd	-0.020425254
156	0xbe7015e1	-0.23445846
157	0xbe14d67b	-0.14534943
158	0xbe4964e3	-0.19667391
159	0x3e44d9a5	0.1922365
160	0xbec20bae	-0.37899536
161	0xbe935860	-0.28778362
162	0xbd95aa57	-0.0730788
163	0x3e0a428f	0.13501953
164	0x3ec0426b	0.37550673
165	0xbedfc575	-0.43705335
166	0xbe5a1013	-0.21295194
167	0x3c814e52	0.015784416
168	0x3e4e61cc	0.20154494
169	0x3ea36333	0.3191162
170	0xbc650982	-0.013979318
171	0x3dd6397f	0.10460185
172	0x3e94fadd	0.29097643
173	0x3ead6f27	0.33873865
174	0x3e0e92b2	0.13923147
175	0x3d8ac4f4	0.06775847
176	0x3da5493e	0.080706105
177	0xbdcd3f36	-0.10021822
178	0xbe07eeab	-0.13274638
179	0xbd43c83d	-0.047798384
180	0xbc271b93	-0.010199445
181	0x3e065eb7	0.13122068
182	0xbb97527d	-0.0046179877
183	0xbd230e50	-0.03980857
184	0xbc9de4d4	-0.019274153
185	0xbe956001	-0.29174808
186	0x3e295678	0.16536891
187	0xbd04af0c	-0.0323935
188	0xbe204195	-0.15650018
189	0xbc1981a3	-0.009369287
190	0xbdf2cad0	-0.1185509
191	0x3e8a5388	0.27016854
192	0xbe09da23	-0.13462119
193	0xbe13aebd	-0.14422126
194	0x3ce661b5	0.028122762
195	0xbe891103	-0.2677079
196	0xbc6e70a6	-0.014553225
197	0xbdde540e	-0.10855876
198	0x3d1d49f3	0.0384006
199	0x3e33c7e5	0.17556722
200	0x3f264779	0.6495281
201	0x3de3134c	0.11087665
202	0xbd615ade	-0.0550183
203	0xbe1042d6	-0.14087996
204	0x3e9fd999	0.312207
205	0x3f23802e	0.6386746
206	0x3e0cd2fb	0.13752358
207	0xbe49e0f0	-0.19714713
208	0xbe36e058	-0.17859018
209	0x3e512872	0.20425585
210	0x3eeb372b	0.45940527
211	0x3df8ab0c	0.121419996
212	0xbdbe630b	-0.09296235
213	0xbd342d9e	-0.043988816
214	0x3e243ac8	0.16038048
215	0x3ec2ef23	0.38073072
216	0x3dee9842	0.116501346
217	0x3ce7a212	0.028275523
218	0x3e0afff7	0.13574205
219	0x3ecd5f84	0.40111935
220	0x3ec88066	0.3916046
221	0x3c864146	0.016388547
222	0xbc915737	-0.017741783
223	0xbcd7f224	-0.026360579
224	0x3e13868e	0.14406797
225	0xbe576537	-0.21034704
226	0xbe85ff01	-0.26171115
227	0xbe4dc9e6	-0.2009655
228	0xbe03a71c	-0.12856716
229	0x3e118055	0.14209111
230	0x3d7dfe3d	0.06201004
231	0xbc8b3dae	-0.016997185
232	0xbcf7c262	-0.030244056
233	0xbe695a2f	-0.22788309
234	0xbdf61888	-0.12016398
235	0xbdc1d852	-0.09465088
236	0xbdb5354a	-0.08848055
237	0xbde452e5	-0.111486234
238	0xbe725294	-0.23664314
239	0xbea12c13	-0.31478938
240	0x3cd92de6	0.026511144
241	0x3e813349	0.2523444
242	0x3ea156e3	0.31511602
243	0x3dbeae7f	0.09310626
244	0xbe0e0196	-0.13867792
245	0xbf07c967	-0.5304169
246	0xbe63f410	-0.22261071
247	0x3e0a5417	0.1350864
248	0x3e3a90d0	0.18219304
249	0x3d0a865f	0.033819553
250	0xbe974410	-0.29544115
251	0xbe26f9a2	-0.16306165
252	0xbd5e7b97	-0.054317083
253	0xbcfe624a	-0.031052727
254	0x3de10a0b	0.10988244
255	0xbd7b62e7	-0.061373618

conv11.bias f4 [32]
0	0x3ccf23f1	0.025285693
1	0x3d2b4ac4	0.04181935
2	0x3df7dd00	0.12102699
3	0xbd6bcf6c	-0.05757086
4	0xbd87b3aa	-0.06626065
5	0x3a39956e	0.00070794567
6	0x3e29b754	0.1657384
7	0x3d06488b	0.032784026
8	0x3e3ed083	0.18634228
9	0x3de08107	0.1096211
10	0x3e098dc9	0.13432993
11	0x3d205185	0.039140243
12	0x3d282088	0.04104665
13	0x3cf52768	0.029926017
14	0xbd826ad6	-0.063680336
15	0xbd1135d6	-0.035451733
16	0xbe354fb1	-0.17706181
17	0xbd71f83b	-0.05907462
18	0xbd5d595f	-0.05404031
19	0xbd71a5c0	-0.058995962
20	0x3d92ad17	0.071619205
21	0xbdf5e854	-0.12007204
22	0x3cf6a222	0.030106608
23	0x3d1764c3	0.03696133
24	0xba5a431e	-0.0008326041
25	0xbd1b854c	-0.03796892
26	0xbd1cf3b6	-0.03831836
27	0xbe495b32	-0.19663695
28	0xbddb4662	-0.10706784
29	0x3dee9010	0.116485715
30	0x3cac53dd	0.021036083
31	0x3d6a452a	0.057194866

batch1.weight f4 [32]
0	0x3f718ce4	0.9435561
1	0x3f7d89be	0.990383
2	0x3f813d61	1.0096856
3	0x3f914381	1.1348726
4	0x3f7acdf0	0.97970486
5	0x3f69a21f	0.91263
6	0x3f87df68	1.0615053
7	0x3f892ce4	1.0716825
8	0x3f4c69ff	0.7984924
9	0x3f588122	0.8457204
10	0x3f66146e	0.89874923
11	0x3f9b3b2b	1.2127432
12	0x3f580102	0.8437654
13	0x3f837f21	1.0273172
14	0x3f62dc4b	0.8861739
15	0x3f88034b	1.0626005
16	0x3f6b7dea	0.91989005
17	0x3f6e37b1	0.9305373
18	0x3f811e21	1.008732
19	0x3f839efa	1.0282891
20	0x3f85e1e5	1.0459563
21	0x3f6fa402	0.9360963
22	0x3f766bf8	0.962585
23	0x3f82ab15	1.020846
24	0x3f86a01b	1.051761
25	0x3f729239	0.9475437
26	0x3f8acc47	1.084359
27	0x3f7755ac	0.966151
28	0x3f84b647	1.0368127
29	0x3f891d76	1.0712116
30	0x3f6b9f5a	0.92040026
31	0x3f61f62b	0.8826625

batch1.bias f4 [32]
0	0xbed1f166	-0.41004485
1	0xbe82eae6	-0.25569838
2	0xbe6b52b2	-0.22980765
3	0xbe84ddbf	-0.2595043
4	0xbf90358b	-1.126634
5	0xbeb23dfa	-0.3481291
6	0xbe1106ec	-0.14162797
7	0xbe69098e	-0.22757551
8	0xbd9d9a16	-0.07695405
9	0xbe988840	-0.2979145
10	0xbeb1aa71	-0.3470035
11	0xbe7528ee	-0.23941395
12	0xbebbcda4	-0.3668033
13	0xbe80ada7	-0.25132486
14	0xbefc05b1	-0.49223092
15	0xbebf83d7	-0.37405273
16	0xbead8825	-0.33892933
17	0xbe8e1693	-0.27751598
18	0xbeb94457	-0.36184952
19	0xbecdee0e	-0.40220684
20	0xbedc6eb4	-0.4305321
21	0xbe7c66ee	-0.2464864
22	0xbe8d4647	-0.2759268
23	0xbeca9a41	-0.3957081
24	0xbe95ff78	-0.2929647
25	0xbe28fcd8	-0.16502702
26	0xbea566c1	-0.32304958
27	0xbe8e5046	-0.2779562
28	0xbe5361b7	-0.20642744
29	0xbea6c4f5	-0.3257214
30	0xbec0818b	-0.37598833
31	0xbe172f8d	-0.14764233

batch1.running_mean f4 [32]
0	0x3e5bb80a	0.21456924
1	0x3cf856d4	0.03031484
2	0xbd93134f	-0.07181417
3	0xbe1cbd8d	-0.15306683
4	0x3f466272	0.77493966
5	0xbc53e11b	-0.012932087
6	0xbcc1792e	-0.023617353
7	0xbf5d8f42	-0.8654672
8	0x3fd1864b	1.6369108
9	0xbf0085ec	-0.5020435
10	0x3fa972f2	1.3238204
11	0x3e0ecee5	0.13946112
12	0x400160f5	2.0215428
13	0x3ea624e8	0.32450032
14	0x3b86fa32	0.004119181
15	0xbfe0563d	-1.7526318
16	0x3e3fa840	0.18716526
17	0x3f0b389f	0.5438327
18	0xbda2deff	-0.079526894
19	0x40085d80	2.1307068
20	0x3ed4058f	0.4141049
21	0xbe93d5d3	-0.28874072
22	0xbd21dffa	-0.03952024
23	0x3fba8c13	1.4573997
24	0xbee5a953	-0.44855747
25	0x3f9f512a	1.2446644
26	0x3ddb0874	0.10694972
27	0xbe438f8a	-0.19097725
28	0xbf1d02f9	-0.6133266
29	0xbd7883c5	-0.06067254
30	0xc01abff2	-2.4179654
31	0xbdb2912d	-0.08719096

batch1.running_var f4 [32]
0	0x40043d5f	2.0662458
1	0x4088b019	4.2714963
2	0x3fc12423	1.5089153
3	0x401de717	2.4672296
4	0x3fb49fbf	1.4111251
5	0x4068ae5e	3.6356425
6	0x3f84489e	1.0334661
7	0x40254e32	2.5828977
8	0x40b4af55	5.646403
9	0x3fda90b2	1.7075408
10	0x40156d65	2.334802
11	0x401f0208	2.484499
12	0x404e8c9c	3.227332
13	0x401987cc	2.3989134
14	0x40400b8d	3.000705
15	0x40a2fd5c	5.0934277
16	0x3faaab8a	1.33336
17	0x3fa19875	1.2624651
18	0x40e40ab9	7.126309
19	0x40809d4e	4.019202
20	0x3fcf8c14	1.6214623
21	0x3fa011b7	1.2505406
22	0x3fa06e54	1.253367
23	0x405bd20f	3.434696
24	0x40be46f9	5.9461637
25	0x408cf393	4.404733
26	0x40940f45	4.626864
27	0x4000c950	2.0122871
28	0x4022d047	2.5439622
29	0x40365669	2.849024
30	0x4089e017	4.3086047
31	0x3fde873c	1.738502

conv2.weight f4 [64, 32, 5, 5]
0	0xbe28ec76	-0.16496453
1	0xbea1b856	-0.3158595
2	0xbe892c1f	-0.26791474
3	0xbeaf029c	-0.34181678
4	0xbe98023f	-0.29689214
5	0xbe8679c5	-0.26264778
6	0xbe4ac909	-0.19803251
7	0xbeccccdb	-0.40000042
8	0xbee9a7dd	-0.45635882
9	0xbe91114a	-0.28333503
10	0xbea339ff	-0.31880185
11	0xbe4208a8	-0.18948615
12	0xbf0232bd	-0.5085867
13	0xbf09579a	-0.53649294
14	0xbe82fec3	-0.25584993
15	0x3d160301	0.03662396
16	0x3dbce0e0	0.09222579
17	0xbe8e679c	-0.27813423
18	0xbe8dfc3c	-0.27731502
19	0xbe573b3b	-0.21018688
20	0xbe132787	-0.14370547
21	0xbdde0ece	-0.108426675
22	0xbe94f8dc	-0.29096115
23	0xbeb16c58	-0.34652972
24	0xbe82ea86	-0.25569552
25	0xbe1408ce	-0.14456484
26	0xbd8205e0	-0.06348777
27	0x3e568d86	0.20952424
28	0x3ed64350	0.4184823
29	0x3e4485d6	0.1919168
30	0xbd1ac251	-0.03778297
31	0xbd796647	-0.060888555
32	0x3e360efa	0.1777915
33	0x3ec7584e	0.3893456
34	0x3ea3b86c	0.3197664
35	0x3e18556f	0.1487634
36	0x3d37de21	0.044889573
37	0x3e0ffeb7	0.1406201
38	0x3e9e2986	0.30891055
39	0x3e6d0a9a	0.23148575
40	0x3e73761f	0.23775528
41	0x3df904ab	0.121590935
42	0x3e207fd6	0.15673766
43	0x3eb5ebc9	0.35531452
44	0x3e0669b7	0.13126265
45	0x3e9bef80	0.30456161
46	0x3e6c6e20	0.23088884
47	0x3e8de1af	0.27711245
48	0x3ea28e2e	0.317491
49	0x3de1fccb	0.110345446
50	0x3ecd067d	0.40044013
51	0x3e9e37ea	0.30902034
52	0x3d53d038	0.051712245
53	0xbe565840	-0.20932102
54	0xbeefce16	-0.4683692
55	0x3ee4fda1	0.44724753
56	0x3f0df0f3	0.55445784
57	0x3ea9c633	0.33159027
58	0xbd90230e	-0.07037936
59	0xbe78f0e4	-0.24310642
60	0x3e8adfa8	0.2712376
61	0x3e9db6d6	0.30803555
62	0x3c09e7a8	0.008417048
63	0xbead2077	-0.3381383
64	0xbe9eaee9	-0.3099282
65	0x3edab285	0.42714325
66	0x3ee4d65c	0.44694793
67	0x3efc83d4	0.49319327
68	0x3e2a0ae3	0.16605715
69	0x3e4d87ef	0.20071386
70	0x3eeeb22c	0.4662031
71	0x3ea4d607	0.3219454
72	0x3e8ba1a3	0.27271757
73	0x3e2909d8	0.16507661
74	0x3e8c504d	0.27405015
75	0x3e6aa0ac	0.22912854
76	0xbc9eb751	-0.019374521
77	0xbde327f0	-0.11091602
78	0xbcc9c31d	-0.02462917
79	0x3df19179	0.11795325
80	0x3f2331c0	0.6374779
81	0x3e7f1c3c	0.24913114
82	0xbd82358f	-0.06357872
83	0xbe047163	-0.12933879
84	0x3db3eb05	0.08785061
85	0x3ea33d33	0.3188263
86	0xbdc7c5ae	-0.09754501
87	0xbef1d6b2	-0.47234112
88	0xbeb6de96	-0.35716695
89	0xbde832f9	-0.11337847
90	0x3f149727	0.5804314
91	0x3e8691ae	0.2628302
92	0xbd69ca77	-0.05707785
93	0x3c8d07a9	0.017215567
94	0x3d8f710c	0.07003984
95	0x3f2e02ce	0.6797303
96	0x3ec0b9ea	0.3764184
97	0x3d34eede	0.044173114
98	0xbca3f68a	-0.02001502
99	0x3c3c2e00	0.011485577
100	0xbef11f16	-0.4709403
101	0xbe2eb3b8	-0.17060745
102	0xbbe0948e	-0.0068536466
103	0x3d614e9d	0.055006612
104	0xbc01c33b	-0.007920082
105	0xbeb57d9a	-0.3544739
106	0xbcfe3da0	-0.031035244
107	0x3e811b25	0.25216022
108	0x3ef6e1cc	0.48219144
109	0x3f040818	0.5157485
110	0xbf10b18f	-0.5652093
111	0xbe852fb2	-0.2601295
112	0x3daabd8a	0.08336933
113	0x3eda428d	0.426289
114	0x3ef8a558	0.48563647
115	0xbf0984df	-0.5371837
116	0xbe94de42	-0.2907582
117	0x3cb9d7a3	0.022685831
118	0x3ea59608	0.32341027
119	0x3ed0ce68	0.40782475
120	0xbf030503	-0.5117952
121	0xbe923eeb	-0.28563628
122	0xbd0a15e8	-0.033712298
123	0x3e816701	0.25273898
124	0x3ec2b843	0.38031206
125	0x3bf2d307	0.0074104103
126	0x3dbb9039	0.09158368
127	0x3e3cf62e	0.18453285
128	0x3ddda196	0.10821836
129	0x3e1b03bf	0.15138148
130	0xbebca962	-0.3684798
131	0xbe367fa7	-0.17822133
132	0xbe37794c	-0.17917365
133	0xbe67b949	-0.22629274
134	0xbe2266dc	-0.1585955
135	0xbe882bb8	-0.26595855
136	0xbea18b0c	-0.31551397
137	0xbe993b25	-0.29927936
138	0xbed8a67c	-0.42314517
139	0xbe211fee	-0.15734836
140	0xbb983bc0	-0.0046457946
141	0xbdb22432	-0.0869831
142	0xbd6e6fee	-0.058212213
143	0xbe28c471	-0.16481186
144	0xbe196747	-0.14980803
145	0x3e271fb8	0.16320693
146	0x3db0ae75	0.08627025
147	0x3e0a6c79	0.13517942
148	0xbce123ed	-0.027482951
149	0xbdc31637	-0.095257215
150	0xbe3d81c3	-0.18506531
151	0x3ef82d82	0.4847222
152	0x3f546dfc	0.8298032
153	0x3f4b9526	0.7952446
154	0x3f2d2c36	0.67645586
155	0xbe201dff	-0.15636443
156	0x3e9cc2d9	0.30617407
157	0x3f3a1a87	0.7269673
158	0x3f4b04bc	0.793041
159	0x3f45ec43	0.7731363
160	0xbf281667	-0.65659183
161	0xbec8272e	-0.39092392
162	0xbd2ec213	-0.042665552
163	0x3e9c84f3	0.30570182
164	0x3eeb52e4	0.45961678
165	0xbf7b70dd	-0.9821909
166	0xbf8150b9	-1.010276
167	0xbf221ee5	-0.6332839
168	0xbe5a7c12	-0.21336392
169	0x3d8c028a	0.06836422
170	0xbf4456ba	-0.76694834
171	0xbf78ad06	-0.9713901
172	0xbf426dee	-0.7594899
173	0xbefa6150	-0.4890237
174	0xbe27fd24	-0.16405159
175	0x3e70b4c2	0.23506454
176	0x3dfb9027	0.12283354
177	0xbd54f7eb	-0.051994245
178	0xbdb1c3fe	-0.08679961
179	0x3b3a826c	0.0028459085
180	0x3d5b6dc7	0.05357149
181	0x3d1a335e	0.037646644
182	0xbccac41a	-0.024751712
183	0xbe320517	-0.17384754
184	0xbd38d23d	-0.045122374
185	0x3d2c5a01	0.042078022
186	0xbd756e1e	-0.05991947
187	0xbe0138e4	-0.12619358
188	0xbe993ef5	-0.29930845
189	0xbe2596e3	-0.1617084
190	0xbd4950b5	-0.049149234
191	0xbd458742	-0.048224695
192	0xbd5bd413	-0.053669047
193	0xbe38bc54	-0.18040591
194	0xbe37b141	-0.17938711
195	0xbd0820d4	-0.033234432
196	0xbd5e7a6c	-0.05431597
197	0xbce97a8b	-0.028500816
198	0xbe3bc944	-0.18338495
199	0xbe94a416	-0.29031438
200	0xbef7ca5b	-0.48396572
201	0xbea5a769	-0.32354286
202	0xbe8c5dc0	-0.27415276
203	0xbd02052d	-0.031743217
204	0x3e3a29c9	0.18180002
205	0xbf0da355	-0.5532735
206	0xbe780862	-0.24221948
207	0xbd857263	-0.06515958
208	0x3e547df6	0.20751175
209	0x3ec63769	0.3871415
210	0xbf04e93f	-0.51918405
211	0xbe8832bc	-0.26601207
212	0x3cab3967	0.020901395
213	0x3eb04dcc	0.34434354
214	0x3efde98e	0.4959225
215	0xbebec96c	-0.37263048
216	0xbe2dcf2a	-0.16973558
217	0x3d54222d	0.051790405
218	0x3ea9cc28	0.3316357
219	0x3efb95b7	0.4913766
220	0xbe6dd711	-0.23226573
221	0xbd9fdbcc	-0.07805595
222	0x3e5ce53a	0.21571818
223	0x3ed12486	0.40848178
224	0x3f07aa80	0.5299454
225	0xbe856cb2	-0.2605949
226	0xbded1307	-0.11575895
227	0xbe1b3406	-0.15156564
228	0xbe6e286d	-0.23257609
229	0xbe0581cd	-0.13037796
230	0xbe2fb6d1	-0.17159583
231	0x3d6f9bc2	0.05849815
232	0x3d4aa51b	0.049473863
233	0xbda5c36e	-0.08093916
234	0x3d07b87b	0.03313492
235	0xbe46dc9a	-0.1942009
236	0x3d63a147	0.055573728
237	0x3d5309be	0.051522963
238	0xbd080070	-0.033203542
239	0x3e506f7c	0.20355028
240	0xbe89fca5	-0.26950565
241	0xbda360f7	-0.07977479
242	0x3dd4dacb	0.10393294
243	0x3dbe0920	0.09279084
244	0x3ec47ca6	0.3837635
245	0xbe8fb888	-0.28070474
246	0xbdc8ac71	-0.097985156
247	0x3d7150df	0.058915015
248	0x3e256bdb	0.16154425
249	0x3ed2bb5e	0.41158575
250	0xbe475fc8	-0.19470131
251	0xbdd0c0db	-0.10193034
252	0x3d87367b	0.06602188
253	0x3e465581	0.19368555
254	0x3e7ba83f	0.245759
255	0x3d0bdbf9	0.03414533

conv2.bias f4 [64]
0	0x3d9a2c60	0.07527995
1	0xbf5bf040	-0.8591347
2	0xbeac7d72	-0.33689457
3	0x3d95bbc3	0.07311203
4	0x3e949a2a	0.29023868
5	0xbf1bd252	-0.608678
6	0xbe9c1508	-0.30484796
7	0xbee33cf3	-0.44382438
8	0x3f06cc53	0.52655524
9	0x3f19b98e	0.6004876
10	0x3ebd24d1	0.3694215
11	0x3e1c05fc	0.15236658
12	0x3f03f386	0.5154346
13	0x3f1d34d5	0.6140874
14	0x3f400c0d	0.7501839
15	0xbebf3ed6	-0.37352628
16	0xbf2b3569	-0.6687837
17	0x3de522c0	0.11188269
18	0xbf38cb15	-0.7218488
19	0xbe8b20e2	-0.27173525
20	0xbcd53931	-0.026028248
21	0xbf164fb3	-0.5871536
22	0xbe4f37d4	-0.2023614
23	0xbf172d1c	-0.59053206
24	0x3de5ea40	0.1122632
25	0x3f114457	0.56744903
26	0xbf2609df	-0.6485881
27	0xbe980b06	-0.2969591
28	0x3ed65417	0.4186103
29	0xbc90ca4d	-0.01767459
30	0x3d0f89ef	0.035043653
31	0xbd22ec5f	-0.039776202
32	0xbf1ab2e5	-0.6042922
33	0xbd8e3c4f	-0.06945097
34	0xbf6511e2	-0.8948041
35	0xbe9eab37	-0.30990002
36	0xbee0c9ab	-0.4390386
37	0x3eb68410	0.3564763
38	0xbd57e846	-0.052711748
39	0xbec2d4c7	-0.3805296
40	0xbefb2e4e	-0.49058765
41	0xbd5200c6	-0.05127027
42	0xbe978d46	-0.2959997
43	0x3daa68fc	0.083208054
44	0x3eabfbe6	0.3359062
45	0x3ead1013	0.33801326
46	0x3ef208ab	0.47272238
47	0x3e012007	0.12609874
48	0x3e266d79	0.16252698
49	0xbe964bc7	-0.2935469
50	0x3e9a50c5	0.30139747
51	0xbe051e06	-0.12999734
52	0x3ef21f3f	0.47289464
53	0xbf085903	-0.5326082
54	0x3e47ed76	0.19524178
55	0xbc26295e	-0.010141699
56	0x3f2bee00	0.67160034
57	0xbea6901f	-0.3253183
58	0x3e0a40fe	0.13501355
59	0x3e77d965	0.24204023
60	0xbd2d2786	-0.04227402
61	0x3e517fd5	0.2045892
62	0xbe340c21	-0.17582752
63	0xbeaae793	-0.33379802

conv22.weight f4 [32, 64, 5, 5]
0	0x3d2432a1	0.040087346
1	0x3e08a52b	0.13344257
2	0x3e8bede2	0.27329928
3	0x3a2acb7d	0.00065153075
4	0xbe488a42	-0.19583991
5	0x3e58f0b4	0.21185571
6	0x3e394734	0.18093568
7	0x3e8a7de5	0.27049175
8	0x3d50b995	0.050958235
9	0xbe11c513	-0.14235334
10	0x3e87dd10	0.26535845
11	0x3ece512b	0.402963
12	0x3efdedf6	0.49595612
13	0x3e84cc5c	0.25937164
14	0xbcf102ff	-0.029420374
15	0x3e07323e	0.1320276
16	0x3ead8ef6	0.33898133
17	0x3f119ff6	0.56884706
18	0x3eaf57ee	0.34246773
19	0xbe026abc	-0.12736028
20	0xbeca0b2f	-0.39461657
21	0xbecd3a15	-0.40083376
22	0xbe0d3c5d	-0.13792558
23	0xbe25567e	-0.16146275
24	0xbe8d2962	-0.27570635
25	0x3ded89c0	0.11598539
26	0x3d4f175e	0.050559394
27	0x3e194f24	0.14971596
28	0x3e2d07e0	0.16897535
29	0xbcfc58aa	-0.030803997
30	0x3e4a28d3	0.19742136
31	0x3e3d577e	0.18490407
32	0x3eaeffca	0.34179527
33	0x3eec01d0	0.46095133
34	0x3e9a9a20	0.30195713
35	0xbdd40f43	-0.103544734
36	0xbe546363	-0.20741038
37	0xbdfab0e4	-0.122407705
38	0x3dc439cc	0.095813364
39	0x3c851a91	0.01624802
40	0xbe8f6851	-0.28009275
41	0xbed4115f	-0.41419503
42	0xbeedbf51	-0.46435025
43	0xbead6f69	-0.33874062
44	0xbeb3961b	-0.3507546
45	0xbdd24adf	-0.10268187
46	0xbe2ff59c	-0.17183536
47	0xbe2d7b2e	-0.1694152
48	0xbde6d31c	-0.11270735
49	0xbdd72d6b	-0.1050671
50	0xbe6c3499	-0.2306694
51	0xbe37cc36	-0.17948994
52	0xbe5f5975	-0.21811469
53	0x3d8ec0f1	0.069703944
54	0xbc2748cd	-0.010210228
55	0xbd64a036	-0.05581685
56	0x3c842845	0.016132483
57	0xbd3d268a	-0.04617933
58	0x3e021a4a	0.12705341
59	0x3d809eba	0.06280275
60	0x3e53966e	0.20662853
61	0x3e0b4abe	0.1360273
62	0x3da40eb6	0.080106184
63	0x3e6174c3	0.22017197
64	0x3e1bc965	0.15213545
65	0xbd4ee1f1	-0.050508443
66	0xbe8e4e29	-0.27794006
67	0xbeb9c0c8	-0.36279893
68	0xbd5355f4	-0.051595643
69	0x3bb18a16	0.0054180725
70	0x3e594545	0.2121783
71	0x3d21a5ec	0.039464876
72	0xbe4ff9a5	-0.20310076
73	0xbe3fd757	-0.1873449
74	0xbddb4bef	-0.107078426
75	0xbe86d331	-0.26333
76	0xbbf6fc63	-0.007537411
77	0x3d5d3ea5	0.05401482
78	0xbe1071e2	-0.14105943
79	0xbe97f8b8	-0.29681945
80	0x3dd4c13a	0.103884175
81	0x3e5f45a4	0.2180391
82	0x3e428ea9	0.18999733
83	0x3dde4116	0.10852258
84	0xbc829ba9	-0.015943365
85	0xbe1a0fa5	-0.1504503
86	0xbe7a31a8	-0.24433005
87	0xbe3ed0df	-0.18634365
88	0xbe4221ef	-0.18958257
89	0xbd48e0b3	-0.049042415
90	0xbc8d979b	-0.017284205
91	0xba81196d	-0.0009849496
92	0x3db66c28	0.08907348
93	0x3db8c2a7	0.09021502
94	0x3e394b92	0.18095234
95	0x3eabc8d2	0.3355165
96	0x3ea7cfe6	0.327758
97	0x3ecc41b9	0.39893892
98	0x3ebeb186	0.37244815
99	0x3e8b2661	0.27177718
100	0xbea02fc7	-0.3128645
101	0xbe8f2663	-0.27958974
102	0xbecd55eb	-0.40104613
103	0xbe969ca4	-0.29416382
104	0xbda5b8af	-0.08091866
105	0xbe0069a2	-0.12540296
106	0xbe20bc3a	-0.15696803
107	0xbe869993	-0.26289043
108	0xbe44e48e	-0.19227812
109	0xbe36720d	-0.17816944
110	0x3ddcf824	0.107895166
111	0x3c362fb3	0.011119771
112	0x3c9edb40	0.019391656
113	0x3e3c3c0d	0.18382283
114	0x3e9e3360	0.3089857
115	0x3ea0a8c1	0.3137875
116	0x3e4fd3df	0.20295666
117	0x3e16a702	0.14712146
118	0x3e268b4b	0.16264074
119	0x3ec9fbf4	0.39450037
120	0x3ebcf9fb	0.3690947
121	0x3e4e25f5	0.20131667
122	0xbc72fae8	-0.0148303285
123	0xbd99adb6	-0.07503836
124	0x3e1ffdac	0.15624112
125	0xbd52c4af	-0.051457103
126	0xbd16bc67	-0.03680077
127	0xbe864294	-0.2622267
128	0xbe437159	-0.19086207
129	0xbcf15d3e	-0.029463407
130	0xbe9dfb0f	-0.30855605
131	0xbe9936bd	-0.29924574
132	0xbe9201cb	-0.28516993
133	0xbe3a6f0e	-0.18206427
134	0xbd3674f2	-0.04454512
135	0xbe6005a1	-0.21877147
136	0xbe3ce462	-0.18446496
137	0xbd8fcc6d	-0.07021413
138	0xbe0ed62b	-0.13948886
139	0xbdafcd7b	-0.08584114
140	0xbe09f29a	-0.13471451
141	0xbe2bbd14	-0.16771346
142	0xbddfc4a6	-0.109261796
143	0xbded2488	-0.115792334
144	0x3d38f258	0.045152992
145	0xbdac3643	-0.08408787
146	0xbe0257fb	-0.12728874
147	0xbe58aef0	-0.21160483
148	0xbe758947	-0.23978148
149	0xbcd57a03	-0.026059156
150	0xbdcefd5d	-0.10106919
151	0xbe7d7e6e	-0.2475526
152	0xbe69e376	-0.22840676
153	0xbe7b7604	-0.24556738
154	0xbeb9754a	-0.36222297
155	0x3e3e0459	0.18556346
156	0x3e3a3a98	0.18186414
157	0x3e37d4be	0.17952248
158	0x3e69404b	0.22778432
159	0x3e1a4763	0.15066294
160	0xbda855ce	-0.08219491
161	0xbd59acbc	-0.053143248
162	0xbc040fb2	-0.008060383
163	0x3d8af600	0.06785202
164	0xbd51b482	-0.051197536
165	0xbe0a6c2b	-0.13517825
166	0xbd9e9357	-0.077429466
167	0xbe1c6781	-0.15273859
168	0xbc69f2ef	-0.014279111
169	0xbc8a7b4e	-0.0169045
170	0xbe64dfde	-0.22351024
171	0xbc8aacc0	-0.016928077
172	0xbd86d0a0	-0.06582761
173	0x3db5cb28	0.088766396
174	0x3db3e430	0.08783758
175	0xbdad5d48	-0.084650576
176	0xbe0fc0f5	-0.14038451
177	0xbe31b517	-0.17354237
178	0xbe824a6e	-0.2544741
179	0xbe2f438f	-0.17115615
180	0xbdd9d55c	-0.10636398
181	0xbe02082a	-0.12698427
182	0xbe0d41f9	-0.13794698
183	0xbe35bebc	-0.1774854
184	0xbd8faa94	-0.07014957
185	0xbdabce2e	-0.08388935
186	0x3d8d5b53	0.06902184
187	0x3dd3bc5e	0.103386626
188	0x3cfc27df	0.03078073
189	0xbbd87f86	-0.006606999
190	0xbdce54b5	-0.1007475
191	0x3d0483e9	0.03235236
192	0x3da73901	0.081651695
193	0x3b30ecb9	0.0026996566
194	0xbca04f35	-0.019569019
195	0xbddfb126	-0.1092246
196	0xbdc1db24	-0.09465626
197	0xbe155325	-0.14582498
198	0xbe1feb39	-0.15617074
199	0xbe01dfe4	-0.12683064
200	0xbeeaab17	-0.45833656
201	0xbe717966	-0.23581466
202	0xbf08ae7f	-0.5339126
203	0xbee0842b	-0.43850836
204	0xbe8a906b	-0.27063307
205	0xbe7f3f5c	-0.24926513
206	0x3d94e787	0.07270723
207	0xbdede9cf	-0.11616861
208	0xbea4f063	-0.3221465
209	0xbea86706	-0.328911
210	0xbdd71a0a	-0.105030134
211	0x3eb64770	0.35601377
212	0x3ea5226c	0.32252824
213	0x3e097b14	0.13425857
214	0xbd848015	-0.06469742
215	0xbe0fd7a1	-0.140471
216	0x3c8b4ac3	0.017003423
217	0x3e5dc7d9	0.21658267
218	0x3e2940da	0.16528645
219	0x3dd94cea	0.10610373
220	0xbe4b4f1b	-0.19854395
221	0xbeaa6463	-0.33279714
222	0xbda430ef	-0.08017146
223	0xbd33695f	-0.04380166
224	0x3e49ad84	0.19695097
225	0xbed569e8	-0.41682363
226	0xbd73c5ee	-0.059514932
227	0x3ddc4cc7	0.107568316
228	0x3e637447	0.22212325
229	0x3e209468	0.15681612
230	0xbe96fab2	-0.2948814
231	0x3c6d231d	0.014473704
232	0x3e92412d	0.2856535
233	0x3f050892	0.519662
234	0x3edd2240	0.43190193
235	0xbe753dd4	-0.23949367
236	0xbe85ad61	-0.2610884
237	0xbe1bbe7d	-0.15209384
238	0x3d9ca6f2	0.0764903
239	0x3e5b4eb2	0.21416739
240	0x3e087eda	0.1332964
241	0x3c2d80da	0.010589803
242	0xbceb057e	-0.028689142
243	0x3d123177	0.035691705
244	0x3e72c239	0.23706903
245	0x3e0dbd32	0.13841704
246	0x3bd698de	0.006548985
247	0xbdd7fe17	-0.10546511
248	0xbe239084	-0.15973097
249	0x3d5ebd1f	0.05437958
250	0x3c989f85	0.018630752
251	0x3d8c7bc4	0.06859544
252	0x3d99cb01	0.07509423
253	0x3e523bab	0.20530574
254	0x3e137907	0.14401637
255	0x3e06813a	0.13135234

conv22.bias f4 [32]
0	0x3c9329e9	0.01796432
1	0x3c6c908d	0.0144387605
2	0xbc7cdbd1	-0.015433268
3	0x3c1d1bea	0.009589175
4	0xbc6f34a1	-0.01459995
5	0x3c00709b	0.007839347
6	0xbc21006c	-0.009826761
7	0x3cac76c5	0.021052727
8	0x3c9c37f0	0.019069642
9	0xbc6db65d	-0.014508811
10	0x3b27c586	0.002559991
11	0x3c39cc5d	0.011340228
12	0xbbe23063	-0.006902741
13	0x3c844398	0.016145512
14	0x3bed515b	0.0072423643
15	0xbbe914a2	-0.0071130553
16	0xbb26f3a6	-0.0025474816
17	0x3c847abf	0.016171811
18	0x3ac91b32	0.0015343188
19	0xbc47839c	-0.012177374
20	0x3bbf48d8	0.005837541
21	0x3c4f0e7c	0.012637731
22	0xbcbe9d25	-0.023268292
23	0x3cc5f3ff	0.024164198
24	0x3c518082	0.012786986
25	0xbc58abd1	-0.013224558
26	0xbc89447a	-0.016756285
27	0x3c87729f	0.016534148
28	0xbc275f4a	-0.01021559
29	0xbba9e099	-0.005184245
30	0x3c0d4532	0.0086224545
31	0x3bdf218f	0.0068094204

batch2.weight f4 [32]
0	0x3f3b635d	0.7319849
1	0x3f491514	0.7854779
2	0x3f7445fa	0.95419276
3	0x3f6de62c	0.9292934
4	0x3f5ab3a1	0.8543034
5	0x3f3bd7f9	0.73376423
6	0x3f833988	1.0251932
7	0x3f4b2a73	0.7936165
8	0x3f916093	1.1357597
9	0x3f4a3b44	0.7899668
10	0x3f5eacf0	0.8698263
11	0x3f4b6d50	0.7946367
12	0x3f5fb308	0.87382555
13	0x3f310a11	0.69155985
14	0x3f87f440	1.0621414
15	0x3f599c9b	0.85004586
16	0x3f7fd4c4	0.9993403
17	0x3f61ce17	0.88205093
18	0x3f77c520	0.96785164
19	0x3f6e99ac	0.93203235
20	0x3f5f66db	0.8726632
21	0x3f55987f	0.83435816
22	0x3f71c3bd	0.944393
23	0x3f42fd4f	0.7616777
24	0x3f5d7bad	0.8651684
25	0x3f83e532	1.030432
26	0x3f565994	0.83730435
27	0x3f89433b	1.0723642
28	0x3f482d27	0.78193897
29	0x3f511db9	0.8168598
30	0x3f437a82	0.7635881
31	0x3f7c043c	0.9844396

batch2.bias f4 [32]
0	0xbf178cbf	-0.59199136
1	0xbf08ef01	-0.5348969
2	0xbf3ffa92	-0.74991715
3	0xbf07b640	-0.53012466
4	0xbecb5eda	-0.39720803
5	0xbebfc4ae	-0.37454742
6	0xbf53709e	-0.82593715
7	0xbf08a62d	-0.53378564
8	0xbf40b463	-0.7527525
9	0xbf097576	-0.53694856
10	0xbf0a481b	-0.54016274
11	0xbf17674d	-0.59142
12	0xbed4d013	-0.41564998
13	0xbef0fba6	-0.47066993
14	0xbf2bdc4f	-0.6713304
15	0xbf0c9602	-0.54916394
16	0xbf1124bf	-0.56696695
17	0xbf281e86	-0.65671575
18	0xbf2c8da4	-0.67403626
19	0xbf1cfef4	-0.6132653
20	0xbf15b349	-0.5847669
21	0xbec42532	-0.38309628
22	0xbf069767	-0.5257477
23	0xbf03a712	-0.51426804
24	0xbf0b4133	-0.5439636
25	0xbf0198ae	-0.50623596
26	0xbed3edc4	-0.41392338
27	0xbf477fbb	-0.77929276
28	0xbf08a821	-0.53381544
29	0xbf5e6cda	-0.86884844
30	0xbeda63e4	-0.42654335
31	0xbf18eb60	-0.59734154

batch2.running_mean f4 [32]
0	0xc29aeb7e	-77.459946
1	0xc316a2b2	-150.63553
2	0xc394ea43	-297.83017
3	0xc370ab5a	-240.66934
4	0xc34c934b	-204.57536
5	0xc18d633b	-17.673452
6	0xc3a2a28a	-325.26984
7	0xc34c9964	-204.59918
8	0xc36a65e9	-234.39809
9	0xc34cf34d	-204.9504
10	0xc356ed2a	-214.92642
11	0xc31ffbc5	-159.98347
12	0xc36d7fea	-237.49966
13	0x4200562e	32.08416
14	0xc3973b0c	-302.4613
15	0xc32e8e15	-174.55501
16	0xc392bd44	-293.47864
17	0xc3746468	-244.39221
18	0xc381f51c	-259.91492
19	0xc36702da	-231.01114
20	0xc33d107f	-189.06444
21	0xc3756a26	-245.41464
22	0xc37d2bf2	-253.17166
23	0xc3720a85	-242.04109
24	0xc3319fb1	-177.6238
25	0xc37dee2b	-253.93034
26	0xc32eecd6	-174.92514
27	0xc388ffee	-273.99945
28	0xc31c8851	-156.53249
29	0xc2f28fd2	-121.2809
30	0xc31ea80a	-158.6564
31	0xc35f6987	-223.41222

batch2.running_var f4 [32]
0	0x472570ed	42352.926
1	0x4734aad9	46250.848
2	0x47a04eb1	82077.38
3	0x47aa9587	87339.055
4	0x4782dd07	67002.055
5	0x47420a21	49674.13
6	0x479b2b10	79446.125
7	0x47622734	57895.203
8	0x47acef59	88542.695
9	0x4744cc28	50380.156
10	0x47333979	45881.473
11	0x476953ab	59731.668
12	0x47a5ad31	84826.38
13	0x4728a17d	43169.49
14	0x47a1da4d	82868.6
15	0x477b4ce7	64332.902
16	0x47909f27	74046.305
17	0x47454be6	50507.9
18	0x47ac7218	88292.19
19	0x476d0e20	60686.125
20	0x477bea70	64490.438
21	0x479a0e7f	78876.99
22	0x47c86e69	102620.82
23	0x473a13c0	47635.75
24	0x473f1738	48919.22
25	0x47c7e5b1	102347.38
26	0x47b32698	91725.19
27	0x4794456c	75914.84
28	0x473d0ee4	48398.89
29	0x4726d931	42713.19
30	0x4756c7d5	54983.832
31	0x4794bfcb	76159.586

conv3.weight f4 [16, 32, 5, 5]
0	0x3e8a04ee	0.26956886
1	0x3f018d4c	0.50606227
2	0x3e823e22	0.2543803
3	0x3cbf0785	0.023319015
4	0x3e3ffa67	0.18747865
5	0xbe30525b	-0.17218916
6	0x3d3b3f04	0.045714393
7	0xbc9afb2e	-0.0189186
8	0xbe6c304a	-0.23065296
9	0xbe63c861	-0.22244407
10	0xbecc27da	-0.39874154
11	0xbe317481	-0.17329599
12	0xbe1ddbb1	-0.15415837
13	0xbe3fccfc	-0.18730539
14	0xbebe60e6	-0.37183303
15	0x3c66347b	0.014050598
16	0xbd191513	-0.037373614
17	0xbcefab22	-0.029256407
18	0xbd3b3447	-0.045704152
19	0xbee4ad8e	-0.44663662
20	0xbe5dd437	-0.21662985
21	0xbeb7a633	-0.35868987
22	0xbe14d520	-0.14534426
23	0xbda00c66	-0.07814865
24	0xbe1f0991	-0.15530993
25	0xbe886769	-0.26641396
26	0xbd8077d1	-0.06272853
27	0x3cd16923	0.025562828
28	0xbe194456	-0.14967474
29	0xbebf028e	-0.37306637
30	0xbebdcabf	-0.37068745
31	0xbd928c6b	-0.07155689
32	0x3e2a782b	0.16647403
33	0xbce4c902	-0.02792788
34	0xbe527184	-0.20551115
35	0x3cb9dab9	0.022687303
36	0x3c2fb824	0.010725055
37	0xbc81f3c6	-0.01586331
38	0xbdd3224c	-0.10309276
39	0xbc9adc1d	-0.018903786
40	0x3e9dc667	0.3081543
41	0x3e516d31	0.2045181
42	0x3ccbe3eb	0.024888953
43	0xbdea25f4	-0.1143302
44	0x3d06d6b4	0.0329196
45	0xbdce4e94	-0.10073581
46	0xbe18bdb6	-0.14916119
47	0x3acec763	0.0015775975
48	0x3c0e363b	0.008679922
49	0x3dd26c78	0.10274595
50	0xbeaefbc3	-0.34176454
51	0xbf19908f	-0.59986204
52	0xbee577b2	-0.44817883
53	0xbe3be25c	-0.18348068
54	0xbc9940ec	-0.018707715
55	0xbe79909c	-0.2437157
56	0xbefb5477	-0.4908788
57	0xbe29c25e	-0.16578051
58	0xbda8905c	-0.08230659
59	0x3c89675d	0.01677292
60	0xbdcd9b26	-0.10039358
61	0xbea05ed3	-0.31322345
62	0xbd31e71c	-0.043433294
63	0x3e4f16dc	0.20223564
64	0x3ebe4d33	0.37168273
65	0xbe95d1ae	-0.29261535
66	0xbec4c6c8	-0.38432908
67	0xbe5cf600	-0.21578217
68	0x3dd32c40	0.103111744
69	0x3e738172	0.23779848
70	0xbe3bf2a1	-0.18354274
71	0xbdb37a14	-0.08763519
72	0x3dd3d72e	0.10343777
73	0x3e2cbb8d	0.1686842
74	0x3d8de086	0.0692759
75	0x3de09312	0.109655514
76	0xbe004027	-0.12524472
77	0xbdad956b	-0.08475765
78	0x3d050192	0.0324722
79	0x3e933535	0.2875153
80	0xbd9874ba	-0.07444139
81	0xbdcedae5	-0.101003446
82	0x3de3e2d3	0.11127248
83	0x3e3be584	0.18349272
84	0x3ecfd24b	0.40590128
85	0xbd8f1254	-0.06985918
86	0xbd467495	-0.048451025
87	0x3e6c356b	0.23067252
88	0x3e5fb3c4	0.21845919
89	0x3ea28799	0.31744078
90	0xbea5171e	-0.322442
91	0xbe531ec7	-0.2061721
92	0x3e02a854	0.12759525
93	0x3e0c4364	0.13697582
94	0x3d9c6075	0.07635585
95	0xbe605a8b	-0.2190954
96	0x3cc52683	0.024066215
97	0x3e55f15a	0.2089285
98	0x3dd1336f	0.10214888
99	0xbc9993c0	-0.01874721
100	0x3c6db066	0.014507389
101	0xbe951b56	-0.29122418
102	0xbe79d0c6	-0.24396047
103	0xbefc0fc8	-0.4923079
104	0xbf13e4bb	-0.5777089
105	0x3e9eb6d2	0.30998856
106	0xbe03f85c	-0.1288771
107	0xbcf5ca91	-0.030003818
108	0xbec239c1	-0.37934688
109	0xbe444fb0	-0.19171023
110	0x3e336a4e	0.17521021
111	0xbe96e5c3	-0.2947217
112	0xbebb4183	-0.3657342
113	0xbebdc8af	-0.37067172
114	0x3dea1226	0.11429243
115	0x3e8781d1	0.2646623
116	0xbc21a795	-0.009866615
117	0xbe0afa3c	-0.1357202
118	0xbe248a6d	-0.1606843
119	0x3ed22dd4	0.4105059
120	0x3eb89cc8	0.36057115
121	0x3e4abd3f	0.19798754
122	0x3e420c36	0.1894997
123	0x3e0997de	0.13436839
124	0x3ecf7049	0.40515354
125	0x3e41097b	0.18851273
126	0x3e640237	0.2226647
127	0x3e75f099	0.24017562
128	0x3d37289a	0.044716455
129	0x3d1d9931	0.038476173
130	0xbda1b4dd	-0.07895825
131	0xbc17703e	-0.009243069
132	0x3ce72150	0.028214127
133	0xbea00b2c	-0.31258523
134	0xbee47e3d	-0.44627562
135	0xbea5225c	-0.32252777
136	0xbe191788	-0.14950383
137	0xbb6793a6	-0.0035335808
138	0xbe3865e0	-0.18007612
139	0xbec91539	-0.39274004
140	0x3d30163a	0.042989947
141	0x3e3e1036	0.18560871
142	0x3e212e7f	0.15740393
143	0xbde51336	-0.11185305
144	0xbe9e0fb3	-0.30871353
145	0xbda39bb6	-0.07988684
146	0x3d506cd3	0.050885033
147	0x3c907e8c	0.017638467
148	0xbe0bc56a	-0.13649526
149	0xbe15250b	-0.14564912
150	0xbc871130	-0.016487688
151	0xbe0a45de	-0.13503215
152	0xbe89a23d	-0.2688159
153	0xbec587d5	-0.38580194
154	0xbde47405	-0.111549415
155	0x3cdc17db	0.026866844
156	0xbdbd976f	-0.09257399
157	0xbe40cc72	-0.1882799
158	0xbe6a90a7	-0.22906743
159	0xbc2ab603	-0.010419372
160	0x3d6b12b9	0.057390902
161	0x3d37a3a6	0.0448338
162	0xbd282166	-0.041047476
163	0xbdf46841	-0.11933947
164	0xbdabcc50	-0.08388579
165	0xbeb3ee1b	-0.35142598
166	0xbe9f32cf	-0.3109345
167	0xbe52e518	-0.20595205
168	0xbe51acb5	-0.20476039
169	0xbe373fd2	-0.1789544
170	0xbeeaea6a	-0.4588197
171	0xbedaf9b9	-0.42768648
172	0xbe247b29	-0.16062607
173	0xbe2b7468	-0.16743624
174	0xbd5cb5f8	-0.053884476
175	0xbefa88e6	-0.4893257
176	0xbea31474	-0.31851542
177	0xbd752379	-0.059848282
178	0x3d1242a5	0.03570809
179	0x3e2925f2	0.16518381
180	0xbf0ffc9e	-0.5624484
181	0xbf02fcda	-0.5116707
182	0xbe995b1a	-0.29952317
183	0xbdfc0893	-0.12306323
184	0x3c8db3bf	0.017297624
185	0xbea6eaef	-0.32601115
186	0xbeda99fc	-0.42695606
187	0xbe9e8af8	-0.309654
188	0xbe204801	-0.15652467
189	0x3e250a73	0.16117267
190	0x3d383fd8	0.04498276
191	0xbe62a690	-0.22133851
192	0xbe8143b1	-0.25246957
193	0xbdeff811	-0.11717237
194	0x3e53b36c	0.20673913
195	0x3e354e08	0.17705548
196	0xbdf879f5	-0.121326365
197	0x3d66472a	0.05622021
198	0x3e0113dc	0.12605232
199	0x3e647c93	0.22313146
200	0x3e8a3905	0.26996627
201	0xbe17d993	-0.14829092
202	0x3d4fe267	0.050753023
203	0x3e390e0e	0.18071768
204	0x3d42c990	0.047555506
205	0x3d9cc01a	0.07653828
206	0xbdf5f57e	-0.120097145
207	0xbbf7be0f	-0.0075604985
208	0xbd79637a	-0.060885884
209	0xbe4ba837	-0.19888388
210	0xbcea0da1	-0.028570952
211	0xbda2839d	-0.079352595
212	0x3d65c678	0.056097478
213	0xbd81562a	-0.063152626
214	0xbe0f7682	-0.14010051
215	0xbe3d50fd	-0.18487926
216	0xbda6774d	-0.081282236
217	0x3def69e2	0.116901174
218	0xbc3a9f1a	-0.011390472
219	0xbd5acb49	-0.053416524
220	0xbea35bba	-0.3190592
221	0xbc21d13f	-0.009876548
222	0x3e8d3b7f	0.27584454
223	0x3d2a1a70	0.04152912
224	0xbdb73d29	-0.08947212
225	0x3c83eee6	0.016105127
226	0xbe41f3df	-0.18940686
227	0xbe5e0d1f	-0.21684693
228	0xbd76c8e1	-0.060250167
229	0xbe38a04b	-0.18029897
230	0xbe6a0f2d	-0.22857352
231	0xbde632ec	-0.11240181
232	0xbde64bc3	-0.11244919
233	0xbe0419b8	-0.12900436
234	0xbe193585	-0.14961822
235	0xbe6cc575	-0.23122199
236	0x3c3f5469	0.01167784
237	0xbe293665	-0.16524656
238	0xbe8c72d8	-0.2743137
239	0xbcd680b1	-0.026184412
240	0xbdacc6a4	-0.08436325
241	0x3e2c5cc0	0.16832256
242	0x3d2293b9	0.03969166
243	0xbd8a7fc1	-0.067626484
244	0x3e68799b	0.22702639
245	0x3d7300e9	0.05932704
246	0x3e038bda	0.12846318
247	0x3dd2f25b	0.10300132
248	0x3dff6bf7	0.124717645
249	0x3e82e134	0.2556244
250	0xbd361bde	-0.04446017
251	0xbcedfeb1	-0.02905211
252	0x3aa76a33	0.0012772739
253	0x3dc0ad67	0.09408074
254	0x3da32ad1	0.07967151
255	0xbde06186	-0.10956101

conv3.bias f4 [16]
0	0x3ecd85a0	0.4014101
1	0x3e1ceb97	0.15324245
2	0xbdbc854a	-0.0920511
3	0xbd966ed9	-0.07345361
4	0x3df9db12	0.121999875
5	0xbe07fbe1	-0.13279678
6	0x3ef1c039	0.47216967
7	0x3e88499c	0.2661866
8	0x3f17bb6c	0.5927036
9	0xbf0a4b27	-0.54020923
10	0x3f230b93	0.63689536
11	0x3c393929	0.011305132
12	0x3ed1cc35	0.4097611
13	0x3ebcd366	0.36880034
14	0xbf073d2f	-0.52827734
15	0xbe5a1646	-0.21297559
