models/net_new_bs64_dr0_2_adam_augm/model_epoch_51.pt (torch, 763336 bytes, 28 tensors)

conv1.weight f4 [8, 3, 5, 5]
000000 91 c3 e9 3d 6b 12 c0 3d 3b 61 06 be d7 57 45 3e
       0.114142545 0.09378513 -0.13123028 0.1927179
000010 67 de c5 bc 45 b9 04 3e aa 88 17 bd 4e 20 67 3e
       -0.024153901 0.129613 -0.036995567 0.22570917
000020 30 45 f5 3e 54 92 39 be 6a c2 25 bb f0 01 05 bc
       0.47904348 -0.18122226 -0.0025292882 -0.008118138
000030 13 07 65 3e 7f b4 92 3e 66 69 83 3d 57 77 5f be
       0.2236598 0.28653333 0.064165875 -0.21822868
000040 34 ea 99 bd 79 b8 24 be 1b 1d da bd 76 df c1 3d
       -0.07515374 -0.16085996 -0.10650083 0.0946645
000050 db ac 4a be 06 24 78 be 63 20 7c be 2c 25 19 bc
       -0.19792502 -0.24232492 -0.2462173 -0.009347241
000060 ca 8e 2a bd 34 e6 9b bd fb 97 e8 bd 61 d9 72 be
       -0.04164008 -0.07612267 -0.11357113 -0.23715736
000070 bd 21 84 3d 83 bf 04 be 83 b2 7e 3e 3e eb cc bd
       0.064517476 -0.12963681 0.24872784 -0.100058064
000080 47 db 35 3e d7 ea 83 3e e4 93 98 be 08 2f 1d 3e
       0.17759429 0.25765106 -0.29800332 0.15349972
000090 84 01 31 3e 70 47 96 3e 36 ef 11 3e eb 3d 70 be
       0.17285734 0.29351377 0.14251408 -0.2346112
0000a0 36 e5 d3 3d 2f 43 13 3e 6e 3a af 3d 1e 6e 36 3d
       0.10346453 0.14381097 0.085560665 0.04453861
0000b0 e9 3e 0d 3d b7 43 0b bb 6a f6 c9 3d c5 66 ea 3c
       0.034483824 -0.0021250078 0.09861453 0.028613457
0000c0 8b 34 b5 3c 70 71 a3 bd 63 8a 1f be b4 18 02 be
       0.022119781 -0.07980621 -0.15580134 -0.12704736
0000d0 3d 89 a0 be a9 1b c1 3d 26 fc e6 3d 0a f3 fa 3d
       -0.31354704 0.09429104 0.11278562 0.12253387
0000e0 04 05 8f bd 49 b9 ee bd 61 0b 1c 3e ce e5 91 be
       -0.069833785 -0.11656434 0.15238716 -0.2849564
0000f0 10 90 c6 3d ba 09 38 3c c3 dc 01 3d 7b e6 fe bd
       0.096954465 0.011232788 0.031704675 -0.124463044
000100 2a 50 39 be 45 0a 09 3e e8 b1 a2 3e 81 81 f1 bd
       -0.18096986 0.13382824 0.31776357 -0.11792279
000110 75 6a 8d be ea a4 13 be b5 c5 9d 3e 0e a3 6b 3e
       -0.27620283 -0.14418378 0.308149 0.23011419
000120 72 df 36 3e 45 f8 1b be 95 40 05 be 1a 0b 41 be
       0.17858675 -0.15231426 -0.13012917 -0.18851891
000130 9d 08 4e be 03 7e 90 3e 0d 63 ca 3e 44 50 69 3e
       -0.20120473 0.2822114 0.39528695 0.22784525
000140 9b 36 80 be cb 25 9c be bd 2c b2 3d d4 39 e3 3e
       -0.2504166 -0.30497584 0.086999394 0.44380057
000150 0f 76 18 3f fd d6 98 be 1b e5 85 be 5d 86 28 be
       0.59555143 -0.29851523 -0.26151356 -0.16457506
000160 39 4a 4a 3e ca 41 fc 3e f5 84 04 be 55 a5 d3 be
       0.19754876 0.49268943 -0.12941344 -0.41337076
000170 cc 05 1e 3e e9 8d 04 3e d2 ce c0 bd 71 f1 f3 bd
       0.15431899 0.1294476 -0.09414448 -0.11911286
000180 67 f0 1a be 42 40 44 bd 8b ea 41 bd d7 82 dc bd
       -0.15130769 -0.047912844 -0.04734282 -0.10767143
000190 cf 68 3d 3e 8c a6 bd 3d 5d 7d 32 3d 52 85 0e be
       0.18497013 0.09260282 0.043576587 -0.13918045
0001a0 c5 51 f6 bd c1 32 5c 3e 60 7a 92 bd a7 77 b3 be
       -0.12027315 0.21503736 -0.071522474 -0.35052225
0001b0 a1 da 9e be 71 b1 93 bd d7 9c e0 3e 93 7f e0 3d
       -0.31026176 -0.07211579 0.4386966 0.10961833
0001c0 60 8a 38 be da 9b f7 be 32 36 18 be 84 60 9d 3e
       -0.18021536 -0.48361093 -0.14864424 0.30737698
0001d0 dc 0b 96 3d 80 99 e9 3d 21 6a 8a be 66 1b b5 be
       0.07326481 0.11406231 -0.27034095 -0.35372466
0001e0 63 15 6d 3e ad ac 00 bd 05 26 0a 3e a5 88 04 be
       0.2315269 -0.031414676 0.13491066 -0.12942751
0001f0 6c b6 de bd b7 8c 0f be e9 f1 22 be 86 5a ea bd
       -0.10874638 -0.14018522 -0.15912594 -0.11443047
000200 ed c6 9f bd 7d 42 65 be 9b cd cd 3d 25 27 68 3b
       -0.07801614 -0.22388645 0.10048982 0.0035423723
000210 82 25 89 be 5d 00 a6 bd 7c a2 47 bc e8 f9 76 3d
       -0.2678643 -0.08105538 -0.012184735 0.060296923
000220 84 fd 79 3d 44 1c 62 bd c9 19 a8 bd 0c 8f e0 3d
       0.061032787 -0.055202737 -0.08208043 0.10964784
000230 58 63 12 3e 84 f7 0c 3c 5d 00 11 3f f7 25 c6 bb
       0.14295709 0.008603934 0.5664118 -0.006047006
000240 1b 4a 44 bd 97 67 4d 3d 36 6b 53 3d 63 4a c4 3e
       -0.047922235 0.05014762 0.051615916 0.38338003
000250 1c 90 63 3e 21 ea 34 3d fd 58 38 3d b4 02 8b be
       0.22222942 0.044168595 0.04500674 -0.271505
000260 7d a4 42 3d 0a 5a 14 3d 4e 2a d2 3c ac f2 5c be
       0.04752015 0.03621868 0.025654938 -0.21576947
000270 0d 61 88 bd 38 0b 85 bd e3 37 07 3e da 1e 31 3d
       -0.06659136 -0.064962804 0.13204913 0.043242313
000280 21 dc f9 bd a5 97 e3 bc 22 3a 3b be e5 a5 a7 bd
       -0.122001894 -0.02778227 -0.18283895 -0.08185939
000290 92 cb a2 3e 12 27 8b be e0 c3 ca be dd ea d7 3e
       0.31795937 -0.27178246 -0.39602566 0.42171374
0002a0 ba ae 00 3f 9c be 22 3d fe cd 31 be 9f 26 ab be
       0.5026661 0.03973256 -0.17363736 -0.33427903
0002b0 a1 9f 58 3d 81 a5 96 3d e4 17 d1 bc 7c 80 d0 bd
       0.05288661 0.07355786 -0.025524087 -0.101807564
0002c0 11 e1 99 be 7e cf dd 3d c5 d3 36 3e c7 6f 3d be
       -0.30054525 0.108305916 0.17854221 -0.18499671
0002d0 86 05 d2 bd f2 2b 9c 3d c3 33 cd bc f8 f9 ff ba
       -0.1025496 0.076255694 -0.025049096 -0.0019529453
0002e0 b3 25 23 3e 20 78 61 bd 03 de 82 3e d2 84 d6 bd
       0.1593235 -0.0550462 0.25560006 -0.10474552
0002f0 99 0b 71 bd d8 d3 8d 3e bc 01 36 be 89 a9 1f be
       -0.05884895 0.27700686 -0.17774099 -0.15592016
000300 a9 82 14 3f 5b 7d 1d 3f 1a a7 a7 3d 9a 3b fe bd
       0.5801187 0.615194 0.08186169 -0.12413712
000310 5d 1f 6c be 10 17 8e 3d 86 47 06 3e f8 49 0b 3d
       -0.23058839 0.069379926 0.13113222 0.03400609
000320 9d 74 5e 3e 69 55 a5 3d 19 8d 92 3e ec 59 13 3e
       0.21724172 0.08072931 0.28623274 0.14389771
000330 ac 1e 6f 3d 0d bf 19 3e 4d 72 16 3e a2 c8 9b be
       0.05837886 0.15014286 0.1469204 -0.30426508
000340 88 22 bc be 06 a0 97 bd 91 ca ea 3e 30 8f ed 3e
       -0.36745095 -0.07403569 0.4585767 0.46398306
000350 7c f5 24 bf 5d e9 58 bf 12 8a 67 be 12 34 04 3f
       -0.6443708 -0.84731084 -0.22611263 0.51641953
000360 a6 c4 11 3e b8 e6 36 3d bc a5 22 be f0 ff d7 be
       0.14235172 0.044653624 -0.15883535 -0.42187452
000370 03 ec ae 3e 3f 87 00 3e 1b a4 0e be 5c 8d 9e be
       0.34164438 0.12551592 -0.13929789 -0.30967224
000380 4c 3e bc be 2d 7b 06 3e 18 37 2e 3e 61 c0 04 3e
       -0.3676628 0.13132925 0.17013204 0.12964012
000390 e1 3b 91 bd bf 52 ae bd 8a 43 d5 3d a4 6c 8e 3e
       -0.07091499 -0.08511876 0.10413273 0.2781726
0003a0 22 94 91 3e 2f 9c 9e 3d be c4 9a 3a 0e e0 8b 3e
       0.2843333 0.077446334 0.0011807901 0.27319378
0003b0 42 69 09 3e e7 e3 12 bd d2 e7 ab be 61 01 6b be
       0.13419059 -0.035861876 -0.33575302 -0.22949745
0003c0 11 52 e4 3d f6 84 61 be ca 0b 8c be ca de e4 be
       0.111484654 -0.22023377 -0.27352744 -0.44701225
0003d0 a2 80 38 be 61 cc c7 bd 6a d1 3a be 33 84 18 bd
       -0.1801782 -0.09755779 -0.18243948 -0.03723545
0003e0 8b 3c e5 bd e2 ee f5 3d 52 79 1d be 52 c5 5d be
       -0.11193188 0.12008454 -0.15378311 -0.21657303
0003f0 a6 83 89 bd 7a 25 ad bd 5a ba aa bd 1a c8 92 bd
       -0.06714563 -0.08454414 -0.08336325 -0.071670726

conv1.bias f4 [8]
000000 2c 6b dc be bf 1e 7b 3e f6 f0 34 3e 8b 0f 2f 3e
       -0.43050516 0.24523447 0.17670044 0.17095773
000010 0e 9a 2e bd 64 26 98 3b 90 46 11 bf a4 3a 37 be
       -0.042627387 0.0046432484 -0.56748295 -0.17893463

conv11.weight f4 [32, 8, 5, 5]
000000 dd a4 a7 bd c4 21 63 bd 39 88 ad 3d 7f e7 a9 bb
       -0.08185742 -0.055452123 0.08473248 -0.005185067
000010 f7 a8 11 be 9b cf 85 3d 7f 39 42 bd 16 1f 0d 3d
       -0.14224611 0.06533738 -0.047418114 0.034453474
000020 0f 93 bb 3c 75 42 63 be bb 37 73 3d 47 1c 97 3c
       0.022897271 -0.2219332 0.05937932 0.0184461
000030 7a eb a2 bd 1b ed 8a bd 3f 3d 33 be be 34 4b 3e
       -0.0795507 -0.067835055 -0.17503832 0.19844338
000040 d1 27 2c be 04 68 8a be da 53 45 bd e5 31 ef bc
       -0.16812064 -0.27032483 -0.04817567 -0.029198596
000050 5d af dd bd 37 9b c6 be b5 eb a8 bd d5 19 68 3e
       -0.108244635 -0.38790295 -0.082480825 0.22666104
000060 85 6d 0f 3e 78 dc d3 3e 78 41 9d 3e 51 b2 2e bd
       0.14006622 0.41379142 0.3071401 -0.042650525
000070 9f be ee bd 35 01 c9 be f8 cb f1 3e fd a6 0c 3e
       -0.11657452 -0.39258733 0.47225928 0.13735576
000080 76 fb a3 be 07 19 90 be 0d 02 7b bd 92 2f da 3e
       -0.32027787 -0.28144094 -0.061281253 0.42614418
000090 38 c6 84 be d7 78 cb be e0 39 7f bd 8f 55 bd 3d
       -0.2593248 -0.3974063 -0.062311053 0.09244835
0000a0 4b 9e 0c be ac a6 a4 be ed 90 97 bd b1 2b e1 bd
       -0.13732259 -0.3215841 -0.07400689 -0.109946616
0000b0 75 6a 7d 3e ab 95 85 be 25 7f c3 bd f7 60 a4 bd
       0.24747641 -0.2609075 -0.09545735 -0.08026307
0000c0 9d 3e 49 bc df de 32 3e 3a 0e 8e be 60 58 40 bd
       -0.012282995 0.17467831 -0.2774523 -0.04695928
0000d0 97 c8 33 be 98 4c 46 3d b5 c1 a6 3c 2c 6c 60 bd
       -0.17556988 0.04841289 0.020356039 -0.05479066
0000e0 74 73 6d be 8b bc 98 be 77 e1 15 3e 71 3d 77 3e
       -0.23188573 -0.29831347 0.1463679 0.24144532
0000f0 50 de 1a be fb 23 f5 be ab 52 ec 3c d5 ad bf 3e
       -0.15123868 -0.47879013 0.028848013 0.3743731
000100 e8 c1 90 3d 54 2c 3b be 98 89 6f 3e 23 96 21 3f
       0.07068235 -0.18278629 0.23392332 0.63119715
000110 5c fc 33 3d 1d d0 90 3c 8b 64 c1 3d b9 48 93 3e
       0.04394184 0.017677361 0.09443005 0.2876642
000120 a2 6c 88 3d d9 0d f2 3c 83 cf 17 3e cd 26 97 bd
       0.06661345 0.029547619 0.14825253 -0.073804475
000130 2c 43 a1 be 75 74 64 be e8 d1 fe 3c 97 fb 83 3e
       -0.3149656 -0.2231005 0.03110595 0.25777885
000140 a8 5a 6b be 08 9f 84 be f9 2b 81 bd 5e 83 b4 3e
       -0.22983801 -0.2590258 -0.06307215 0.35256475
000150 56 97 3f 3e f5 c2 f2 bc 29 f4 35 3c 09 f8 13 3e
       0.18710074 -0.029633978 0.011105576 0.14450087
000160 52 1d 28 3e ee 6b 2d 3c 1b 11 2e 3e 59 d7 2c 3e
       0.16417435 0.0105848145 0.16998713 0.16879024
000170 fe 57 13 3c e6 b0 07 be 7d 72 dd bd ac cc 2e 3e
       0.008993147 -0.13251075 -0.108128525 0.17070264
000180 84 16 aa 3d c0 e9 8d bd 3b 68 5c 3c 57 a7 bc 3d
       0.08305076 -0.0692935 0.013452585 0.09211605
000190 41 b5 20 be a9 83 a5 3c c6 51 85 3d cf 76 7f bb
       -0.15694143 0.020204382 0.06509738 -0.0038980728
0001a0 40 8e a7 bc d7 96 69 3a 90 d9 41 3e eb 60 48 3e
       -0.020453572 0.00089107215 0.1893065 0.19568221
0001b0 c1 50 5b bc 3f 10 26 3d a1 b4 19 3e 35 25 c5 bc
       -0.013385952 0.040542837 0.1501031 -0.024065593
0001c0 af 69 ef bc c9 24 41 3d 27 07 2f 3e 17 1f 24 3e
       -0.029225199 0.04715422 0.17092572 0.16027485
0001d0 cf 50 f3 bd 0b 34 cb 3d 32 cc c2 3d 0b 0d 04 be
       -0.118806474 0.09922036 0.095116034 -0.128956
0001e0 f7 79 b6 3d c2 df eb 3d bb 57 42 3e d8 15 23 be
       0.08909982 0.11517288 0.18978779 -0.15926301
0001f0 4c 12 94 be 96 43 01 be 2e 19 13 be cf bf 40 be
       -0.2892021 -0.12623438 -0.14365074 -0.18823169
000200 2f 82 06 bc 31 80 5a 3e 30 b4 97 be 92 b2 4f be
       -0.008209749 0.21337964 -0.2962966 -0.20282963
000210 b0 fc 57 be 52 f5 7d 3e ba 9e f9 3e 85 7e 05 bd
       -0.21092486 0.24800614 0.4875391 -0.03259136
000220 03 00 c2 bd ab db 7f 3d e4 59 27 3f d0 ef be 3e
       -0.094726585 0.06246535 0.6537154 0.37292337
000230 63 d4 13 be 18 09 fd 3d d8 b7 e1 3e fb 3c 00 3f
       -0.14436488 0.1235525 0.44085574 0.5009305
000240 57 1e 72 be d4 6b fe 3c 5f ca 01 3f 03 7f 85 3e
       -0.23644386 0.031057276 0.5069942 0.26073465
000250 8e 03 a1 be 97 b6 2e bf 98 dc 07 3e 0a ab fe 3d
       -0.31448025 -0.6824736 0.13267744 0.12434967
000260 c9 13 cd bd 4c ca a0 be 0c b6 40 bd e6 c0 e6 bc
       -0.10013539 -0.3140434 -0.047048613 -0.028168153
000270 9d 8f 66 be 14 de 10 be d8 50 2a be 69 b1 4f 3e
       -0.22515722 -0.14147216 -0.16632402 0.2028252
000280 d8 b2 b6 be 8e 8e 85 be 21 8b 8e bd 3f 0c 02 3e
       -0.35683322 -0.26085323 -0.069601305 0.12699984
000290 7e 64 bc 3e 80 c1 e2 be 76 a5 65 be f8 db 89 bb
       0.3679542 -0.44288254 -0.224264 -0.0042071305
0002a0 ea 1c 28 3e 32 c2 99 3e a2 8a 1c bd 89 3d b3 3d
       0.1641728 0.30030972 -0.038218148 0.08751971
0002b0 43 05 8d 3e 08 93 a5 3e e5 8f 28 3e 97 1e a5 3c
       0.27543077 0.32338738 0.16461141 0.020156188
0002c0 9a c0 a1 3c 4d fc 29 be 1a f8 30 be 55 28 9d bd
       0.01974516 -0.16600151 -0.17282143 -0.07673708
0002d0 78 72 aa bc 48 6a 07 3e cb 2c af bc 8c 38 8d bd
       -0.020806536 0.13224137 -0.021383664 -0.06895551
0002e0 1f e5 39 bd d6 bc 96 be 49 73 0f 3e 83 97 6b bd
       -0.045384523 -0.29440945 0.14008822 -0.05751754
0002f0 0a 80 43 be ac 48 3d bd e5 58 cf bd 9e 8e 80 3e
       -0.19091812 -0.046211883 -0.10124377 0.25108808
000300 3f 8a 10 be 92 e4 1d be 7f 40 28 3d 5b 70 6d be
       -0.14115237 -0.15419224 0.041077133 -0.23187391
000310 b7 1f d3 bb c6 22 d9 bd 91 10 ad 3c b7 cd 44 3e
       -0.0064429897 -0.10602336 0.021126064 0.19219099
000320 bd 6a 19 3f 96 20 d6 3d c4 0f 43 bd 0c 02 0b be
       0.59928495 0.10455434 -0.047622457 -0.13575
000330 1d 88 9e 3e f2 03 19 3f 34 92 1e 3e c6 b9 29 be
       0.3096322 0.59771645 0.1548546 -0.16574773
000340 4a 3d 23 be fe 6c 67 3e bd de d5 3e c1 35 0b 3e
       -0.15941349 0.22600171 0.41771498 0.13594724
000350 3f f8 5c bd f9 3a da bc d0 f3 42 3e 03 f7 b0 3e
       -0.053947683 -0.026639448 0.1903832 0.34563455
000360 7a 63 08 3e a7 8e 59 3d 6a ed 14 3e cd c2 e2 3e
       0.13319197 0.05311456 0.14543691 0.44289246
000370 16 8e c5 3e 70 aa 06 3d 16 ca a8 3b db f7 e5 bb
       0.38584965 0.032877386 0.0051510436 -0.007018072
000380 32 4b 54 3e bb 23 75 be 46 80 81 be ac 9d 43 be
       0.2073181 -0.23939411 -0.25293177 -0.19103116
000390 94 a9 06 be 01 a0 b5 3d bf 85 14 3d 84 8f b1 bc
       -0.13150626 0.08868409 0.036260363 -0.021674879
0003a0 31 f8 f4 bc 89 7c 4e be 02 61 02 be 94 23 f4 bd
       -0.029903503 -0.20164694 -0.12732318 -0.119208485
0003b0 2d 64 ce bd 5c 56 0c be 28 e3 6a be 93 c7 9e be
       -0.10077701 -0.13704818 -0.22938216 -0.31011638
0003c0 f8 91 27 bc 85 7c 4c 3e d0 42 89 3e 5a 09 9b 3d
       -0.010227673 0.19969375 0.26808786 0.07570143
0003d0 29 ab 28 be b1 52 05 bf 47 b7 77 be 33 29 f0 3d
       -0.16471542 -0.520793 -0.24191009 0.11726608
0003e0 e1 d3 31 3e 1b 51 8d 3c 91 b1 83 be 25 55 0d be
       0.17365982 0.017250588 -0.2572141 -0.13802011
0003f0 32 9a 30 bd 08 03 4d bd dd 86 b3 3d 95 42 55 bd
       -0.043115802 -0.05005172 0.087659575 -0.05206545

conv11.bias f4 [32]
000000 4a d4 0e 3c 95 4e 9d 3c 93 00 c4 3d 1c 2e 51 bd
       0.008717606 0.01920251 0.09570422 -0.051069364
000010 5c c1 af bd 34 00 e5 3b cb 81 03 3e 90 88 b3 3c
       -0.08581802 0.0069885496 0.12842481 0.021915704
000020 8c 83 3e 3e d9 41 c5 3d 12 b3 0f 3e 5a 2f 62 3d
       0.18604869 0.096317 0.14033154 0.05522094
000030 3e 2d 18 3d 91 cf 93 3c c8 99 98 bd eb 89 f1 bc
       0.03715252 0.018043311 -0.074512064 -0.02948471
000040 b2 ee 23 be 15 84 5d bd ff f1 58 bd 29 cf 8c bd
       -0.16009024 -0.05408104 -0.05296516 -0.0687545
000050 92 b8 8b 3d a9 6c a4 bd 02 56 88 bb b1 e6 15 3d
       0.06822313 -0.08028538 -0.0041606436 0.036596958
000060 14 bc 2f 3c c3 da d2 bc 75 41 ec bc f8 f4 2d be
       0.010725994 -0.02573908 -0.028839806 -0.1698798
000070 e5 12 86 bd 23 64 01 3e 62 41 14 3d d2 b4 88 3d
       -0.065465726 0.12635855 0.036195166 0.06675114

batch1.weight f4 [32]
000000 b1 dd 70 3f 7a 75 7c 3f 84 7d 80 3f 57 0e 8f 3f
       0.94088274 0.98616755 1.0038304 1.1176251
000010 4c 15 77 3f b9 4c 67 3f 11 b8 87 3f 23 8e 89 3f
       0.9651687 0.90351444 1.0603048 1.0746502
000020 43 bb 50 3f 03 d4 55 3f 13 71 62 3f d8 76 9b 3f
       0.8153574 0.8352663 0.8845379 1.2145643
000030 58 55 59 3f 5c 76 82 3f 0a 9a 67 3f e7 01 88 3f
       0.8489585 1.019237 0.9046942 1.062558
000040 4c c8 65 3f da 82 72 3f 6c 80 81 3f 53 98 81 3f
       0.89758754 0.94730914 1.0117316 1.0124611
000050 52 8b 84 3f c7 73 78 3f c4 4d 7a 3f d9 cf 81 3f
       1.0355017 0.9705166 0.9777491 1.0141555
000060 20 65 84 3f ca 05 71 3f 78 4f 89 3f be 68 79 3f
       1.0343361 0.9414946 1.0727377 0.9742545
000070 79 6a 87 3f 23 d4 87 3f 31 6f 6a 3f 91 bc 5a 3f
       1.0579368 1.0611614 0.91575915 0.8544398

batch1.bias f4 [32]
000000 4f ca c8 be 52 41 72 be 20 86 64 be 15 c1 8b be
       -0.3921685 -0.2365773 -0.2231679 -0.27295747
000010 e4 8e 8d bf e5 16 c3 be 8f 69 12 be 63 31 7a be
       -1.1059232 -0.38103405 -0.1429808 -0.24432902
000020 ed 98 a7 bd 8a ba a6 be d3 34 af be a6 9e 89 be
       -0.08183465 -0.32564193 -0.3421999 -0.26878852
000030 9e 0d b4 be a9 c8 81 be 43 c5 f4 be 39 2a c4 be
       -0.3516664 -0.25348404 -0.4780675 -0.38313463
000040 ed bd b1 be b2 69 89 be 27 1f ad be fb ed c4 be
       -0.34715214 -0.26838452 -0.3381283 -0.38462815
000050 5f 3b d2 be f2 63 6f be 8e ff 91 be 5e b6 cc be
       -0.41060922 -0.2337797 -0.28515285 -0.39982885
000060 44 a4 82 be c3 e3 3e be 18 e0 9d be 6e 4e 89 be
       -0.2551595 -0.18641572 -0.30835032 -0.2681765
000070 5b 4f 51 be 5e 4f aa be 73 d5 b3 be d3 53 18 be
       -0.20440428 -0.33263677 -0.35123786 -0.14875726

batch1.running_mean f4 [32]
000000 ae bd d1 3c a7 1e 21 be b3 0b a4 bd 28 26 59 be
       0.025603142 -0.15734349 -0.08010044 -0.21205962
000010 3c 73 51 3f a7 f5 b1 bc d3 b7 31 bd 9a be 4a bf
       0.8181646 -0.021723581 -0.0433882 -0.79197085
000020 bc 0e 5a 3f bc 4a 8f be bf d0 97 3f 4e b4 83 bd
       0.8517873 -0.27986705 1.1860579 -0.06430875
000030 6a 01 fc 3f 4e 7f dd 3e 90 f9 93 3d be a9 fb bf
       1.9687932 0.43261188 0.07225335 -1.9661176
000040 5a 5a 1e 3e 59 41 a6 3e e3 d2 95 be 20 1c c5 3f
       0.15464154 0.3247173 -0.29262456 1.5399208
000050 43 b2 e7 3e 2c 9c 84 bd f1 1d 27 3c 6c 9c ae 3f
       0.4525319 -0.064751 0.01020001 1.3641486
000060 50 5d bd be 28 2a 58 3f 98 c1 a1 3c 02 44 74 be
       -0.36985254 0.84439325 0.019745633 -0.23854068
000070 cf ed ac be 4b 40 83 be dc 30 f6 bf 01 3d 7e bd
       -0.33775184 -0.2563499 -1.9233661 -0.062069897

batch1.running_var f4 [32]
000000 91 da ef 3f 7a 52 6a 40 7f 6c b0 3f 36 02 14 40
       1.8738576 3.661284 1.378311 2.312635
000010 09 da 9a 3f 18 17 4e 40 e2 57 6f 3f b0 53 15 40
       1.2097789 3.2201595 0.93493474 2.3332329
000020 68 53 8e 40 87 08 be 3f c9 f5 ec 3f 09 76 0e 40
       4.4476814 1.4846352 1.8512508 2.2259543
000030 e2 cd 5b 40 11 25 06 40 08 54 2b 40 5b 3a 8e 40
       3.434441 2.0960124 2.6770039 4.4446235
000040 24 cb 9e 3f 1f d9 94 3f 0c 73 ba 40 5b 18 78 40
       1.2405744 1.162876 5.826544 3.8764865
000050 a3 71 af 3f 9e 28 88 3f 3e 92 89 3f 24 c5 5e 40
       1.3706554 1.0637395 1.0747755 3.4807825
000060 07 ec a3 40 09 4c 59 40 8c 48 7b 40 a2 b6 cc 3f
       5.122562 3.3952658 3.926303 1.5993235
000070 54 42 18 40 99 fd 23 40 01 28 8e 40 3b 4c c6 3f
       2.3790483 2.5623534 4.4423833 1.5492014

conv2.weight f4 [64, 32, 5, 5]
000000 2a 20 2b be 7c 2f a8 be 7b 79 97 be 06 aa b3 be
       -0.16711488 -0.32848728 -0.2958487 -0.35090655
000010 b2 3c 94 be 69 5a 72 be e9 ac 51 be d8 5b d1 be
       -0.28952557 -0.23667301 -0.20476116 -0.40890384
000020 cf 23 ec be a1 c8 96 be 58 2f 88 be 37 a2 46 be
       -0.4612107 -0.29449943 -0.2659862 -0.19397818
000030 55 fa fa be 00 af 05 bf eb eb 89 be c8 0a ab 3c
       -0.49019113 -0.52220154 -0.26937804 0.020879164
000040 58 ea 68 3d fc d7 88 be 60 ea 83 be 65 fc 33 be
       0.056864113 -0.26727283 -0.2576475 -0.1757675
000050 6d 99 01 be 5d 21 a0 bd 30 56 72 be 49 67 91 be
       -0.12656184 -0.078188635 -0.2366569 -0.28399113
000060 5b d4 65 be 24 6b fa bd 93 c0 b1 bd d0 a7 38 3e
       -0.22444288 -0.12227467 -0.08679309 0.18032765
000070 c3 b5 c4 3e 6c 23 42 3e f7 98 0a bd f9 2c d0 bd
       0.38419923 0.18958825 -0.033837285 -0.10164828
000080 d5 21 1a 3e fa df c7 3e 1e 3f a7 3e ca 08 34 3e
       0.15051968 0.39038068 0.32665342 0.17581478
000090 af 57 a9 3c f4 8e 04 3e 82 5c 9f 3e 4e 0c 74 3e
       0.020671694 0.12945157 0.31125265 0.23832819
0000a0 cf c5 86 3e a1 a9 bd 3d f3 51 03 3e 0e 3a ab 3e
       0.2632279 0.0926087 0.1282423 0.3344273
0000b0 56 40 05 3e d1 3a 9a 3e fe e4 32 3e 13 6a 5e 3e
       0.13012823 0.30122998 0.17470166 0.21720152
0000c0 4e 85 89 3e 71 88 b1 3d 7b 6e e5 3e 60 2d b4 3e
       0.26859516 0.08668602 0.44810852 0.35190868
0000d0 5a 9b ae 3d 45 49 3b be 60 29 e2 be 42 1c d5 3e
       0.08525725 -0.18289669 -0.44172192 0.41623122
0000e0 44 64 04 3f 93 c1 a2 3e c3 b3 81 bd ef f8 5d be
       0.51715493 0.3178831 -0.06333115 -0.21676992
0000f0 83 e7 83 3e 50 b8 83 3e 75 fe 30 bb e8 63 95 be
       0.25762567 0.25726557 -0.0027007137 -0.29177785
000100 92 53 8c be 00 cb de 3e 25 4b e1 3e 4e b7 e3 3e
       -0.2740751 0.43514252 0.44002643 0.44475788
000110 f4 02 13 3e cd 73 44 3e 91 bb 02 3f e5 b7 b2 3e
       0.14356595 0.191848 0.51067454 0.34905925
000120 a8 b3 84 3e 15 ee 0b 3e 8d d5 83 3e e4 47 80 3e
       0.25918317 0.1366504 0.25748864 0.25054848
000130 6b 8a a3 bc 26 e7 06 be 73 33 6b bd 97 9a 7c 3d
       -0.019963464 -0.13174114 -0.057422113 0.061670866
000140 7e 13 1e 3f 23 a7 74 3e e8 6f 8c bd 02 a4 0a be
       0.6174849 0.23891883 -0.06857282 -0.13539127
000150 86 98 7d 3d 9a 41 a6 3e 62 de a1 bd fe af e2 be
       0.061913036 0.32471925 -0.07903744 -0.44274896
000160 42 81 af be 44 00 cb bd 09 3b 0d 3f af d5 72 3e
       -0.34278303 -0.0991216 0.55168205 0.23714326
000170 d0 68 94 bd 1a 13 fe 3b 79 00 a9 3d 31 e3 1e 3f
       -0.07246554 0.007753742 0.08252043 0.62065417
000180 86 7d af 3e b1 ac 01 3d af cf 62 bc f3 e1 a7 3c
       0.34275454 0.031658832 -0.013843461 0.020493483
000190 b6 a2 ed be 80 4c 45 be 30 6a 86 bc ec 7f 5a 3d
       -0.464132 -0.19267464 -0.016408056 0.053344652
0001a0 83 8f 7c 3c a4 72 af be 58 cc 27 bd a4 31 6c 3e
       0.015415075 -0.3426715 -0.04096636 0.23065811
0001b0 3b 6e da 3e 31 9d f1 3e e2 62 0c bf 08 e0 7b be
       0.42662224 0.4719024 -0.54838383 -0.2459718
0001c0 c3 be b7 3d a2 d8 c1 3e 84 de de 3e 7f fb 09 bf
       0.08971932 0.3786059 0.4352914 -0.5389938
0001d0 23 5f 92 be 62 73 40 3d 28 47 9f 3e 14 b1 cc 3e
       -0.2858821 0.046985038 0.31108975 0.3997885
0001e0 ef f9 fd be fd 6f 7a be d0 3a 19 3d 47 9d 9c 3e
       -0.49604747 -0.24456783 0.037409604 0.30588743
0001f0 62 36 d8 3e 5c bb 1c 3d a1 76 b8 3d f7 86 03 3e
       0.4222899 0.038264617 0.09007002 0.12844454
000200 16 78 23 3d 2c 0f b2 3d eb 91 b0 be 11 e4 13 be
       0.039909445 0.086943 -0.34486327 -0.14442469
000210 22 e2 2e be 1a 21 67 be 5a 98 29 be d9 00 82 be
       -0.1707845 -0.22571221 -0.16562024 -0.25391272
000220 a3 be 92 be 88 78 86 be 4f 6a c3 be 3d 03 17 be
       -0.2866107 -0.26263833 -0.38167045 -0.14747329
000230 34 25 2b 3d 37 ca fb bc 13 28 d3 bc 55 2c fe bd
       0.041783527 -0.030736072 -0.025775945 -0.124107994
000240 af fe 16 be 00 12 5d 3e d5 4f 15 3e b2 1c 23 3e
       -0.14745592 0.21588898 0.14581235 0.15928915
000250 52 0f 4e bb 81 4d b7 bd 54 e5 53 be cb 5f ea 3e
       -0.0031442237 -0.089503296 -0.2069295 0.4577621
000260 af 3e 50 3f 22 4d 48 3f a8 2f 2c 3f c4 07 47 be
       0.8134565 0.78242695 0.6726022 -0.19436556
000270 4b cc 8c 3e 68 20 32 3f 2a b3 41 3f f8 5d 3f 3f
       0.27499613 0.695807 0.7566401 0.7475276
000280 2d 3a 22 bf 89 e9 b7 be 0c f8 58 bc 8d 15 a0 3e
       -0.6337002 -0.3592036 -0.013242733 0.31266442
000290 63 61 e1 3e 72 87 64 bf 47 6f 6b bf fe 3a 11 bf
       0.44019613 -0.89269173 -0.9196667 -0.5673064
0002a0 46 47 59 be bb 2f 82 3b 42 4b 3b bf d5 9f 6c bf
       -0.21218595 0.003972975 -0.7316171 -0.92431384
0002b0 78 ea 38 bf 45 e9 fe be 17 a3 7d be e8 1c 90 3e
       -0.7223277 -0.49787346 -0.24769245 0.28147054
0002c0 36 6a 25 3e 72 f9 02 bd 89 c4 a6 bd ea 7d cf ba
       0.16153798 -0.03197617 -0.08142955 -0.0015830372
0002d0 e1 ef 6e 3d b4 0d 8c 3d 86 02 ae bb 2f 59 24 be
       0.058334235 0.06838551 -0.0053103594 -0.16049646
0002e0 19 11 4f bd 6b 17 12 3d d5 86 72 bd c8 5e de bd
       -0.050553415 0.035666864 -0.059210617 -0.10857922
0002f0 d7 30 80 be 33 aa 02 be 6c a1 17 bd 23 0e 8e bd
       -0.25037262 -0.12760238 -0.03701918 -0.0693629
000300 73 eb 71 bd a4 e8 1b be 29 11 1f be 93 fc 2a 3c
       -0.059062432 -0.15225464 -0.1553389 0.010436195
000310 1f 96 88 bd 74 ba 06 bd 7e 8a 2a be 71 68 7f be
       -0.06669258 -0.03289266 -0.16654393 -0.24942185
000320 ca 86 e8 be 45 94 9c be 66 65 8b be a1 76 4b bd
       -0.45415336 -0.3058187 -0.27225798 -0.04967368
000330 bc d3 0d 3e 73 11 07 bf 3a 85 6d be 55 7f 99 bd
       0.13850302 -0.52761 -0.23195353 -0.0749499
000340 f2 c3 31 3e f3 b4 a1 3e a0 ac f2 be eb f2 84 be
       0.17359903 0.31583366 -0.47397327 -0.25966582
000350 7e 78 b3 39 b7 f1 9a 3e 69 0e de 3e ce 47 ae be
       0.00034231314 0.3026254 0.4337037 -0.34039158
000360 a7 cb 19 be 85 30 3d 3d 07 d4 a4 3e ec 9a ee 3e
       -0.15019093 0.04618885 0.32193014 0.4660257
000370 3f c9 66 be 1d b0 b0 bd 81 e7 30 3e c7 42 b8 3e
       -0.22537707 -0.08627341 0.17275812 0.35988447
000380 c4 98 eb 3e e8 ce 87 be bf 0d d4 bd 94 ca 1d be
       0.46014988 -0.26525044 -0.10354184 -0.15409309
000390 5b 08 7d be 47 9c fb bd 20 91 4a be 71 ea 34 3d
       -0.24710219 -0.12285667 -0.19781923 0.044168893
0003a0 e7 8f 67 3d 05 8f a8 bd 5f 12 f2 3c 09 54 59 be
       0.05653372 -0.08230404 0.029549776 -0.21223463
0003b0 36 60 05 3d 22 f6 91 3d a4 c6 8e 3b 45 96 61 3e
       0.032562457 0.07127024 0.004357176 0.2202998
0003c0 d8 c0 9a be 77 ff 10 be 36 af 8a 3d d4 c0 b6 3d
       -0.30225253 -0.14159952 0.067717 0.08923498
0003d0 58 bb bc 3e f5 3c 67 be dd eb ee bd 38 ec b3 3c
       0.36861682 -0.22581847 -0.11666081 0.021963224
0003e0 70 2a 04 3e 22 2b bd 3e b3 54 44 be 72 b2 f3 bd
       0.12906814 0.3694697 -0.19172935 -0.1189927
0003f0 e0 5b 1d 3d 8c 10 26 3e 4d 79 3e 3e 76 1e d4 3c
       0.038417697 0.1621725 0.1860096 0.025893431

conv2.bias f4 [64]
000000 17 71 96 3d 08 8b 4b bf ae 6f aa be 21 0e ae 3d
       0.07345789 -0.7950902 -0.3328833 0.084987886
000010 7f ed 91 3e bd 80 0e bf 00 a4 b3 be b0 15 d9 be
       0.28501508 -0.5566519 -0.3508606 -0.4239936
000020 14 8b 0b 3f b5 91 17 3f 1e 6e bb 3e 17 12 23 3e
       0.5450909 0.59206706 0.3660745 0.1592487
000030 57 26 f4 3e ba a4 0f 3f f8 9c 3e 3f 90 60 ba be
       0.476855 0.5611073 0.74458265 -0.36401796
000040 23 84 1d bf 45 a0 d2 3d 89 24 2a bf 1c fc 97 be
       -0.6152975 0.10284475 -0.66462 -0.29684532
000050 ea c3 2f bd 12 3b 05 bf 76 1d 61 be 41 f4 0e bf
       -0.042911448 -0.5204326 -0.21983895 -0.5584145
000060 30 5f e9 3d eb 24 08 3f d2 62 1c bf 87 e9 89 be
       0.11395109 0.5318133 -0.6108829 -0.2693598
000070 da 69 d2 3e 8c 8f 83 bb 50 43 95 3d b3 bb 4b bd
       0.41096383 -0.004014915 0.072882295 -0.04973955
000080 79 63 15 bf b8 fa 86 bd 48 09 51 bf 2c 50 8e be
       -0.5835491 -0.065907896 -0.8165479 -0.2779554
000090 88 8d c1 be ea f1 a9 3e e4 90 a6 bd 06 00 bd be
       -0.37803292 0.33192378 -0.081331044 -0.3691408
0000a0 f2 16 f0 be 49 06 91 bd 19 87 90 be a3 6b bf 3d
       -0.46892506 -0.07081277 -0.2822807 0.09346702
0000b0 01 e0 a0 3e 36 8b 9b 3e c3 40 d7 3e 80 e0 fe 3d
       0.314209 0.30379647 0.42041597 0.12445164
0000c0 7e d1 3d 3e 46 9b 8d be 0d f4 97 3e 2c 67 04 be
       0.18536946 -0.27657527 0.29678383 -0.12929982
0000d0 af c2 d4 3e ad 8d 00 bf df 5b 25 3e e8 54 ab 3c
       0.41554782 -0.5021618 0.16148327 0.02091451
0000e0 e7 1c 21 3f 97 ee 95 be 9d 3b 51 3e 51 0c 71 3e
       0.62934726 -0.29283592 0.20432897 0.23539855
0000f0 52 30 93 bd 30 34 4d 3e c4 ac 18 be c5 ab a2 be
       -0.07186951 0.20039439 -0.14909655 -0.31771675

conv22.weight f4 [32, 64, 5, 5]
000000 ee 2c 33 bb 8a 77 eb 3d 78 7f 72 3e 3e d7 76 3d
       -0.0027340013 0.1149741 0.23681438 0.060263865
000010 a4 bc ef bd 0b b1 65 3e 66 68 4e 3e f1 f8 79 3e
       -0.11705902 0.22430818 0.20157012 0.2441137
000020 e6 d2 79 3d d8 79 0e be a0 d0 81 3e 5e 57 cd 3e
       0.060992144 -0.13913667 0.2535448 0.40105718
000030 03 cf e9 3e 5b 82 52 3e 91 86 75 bd a8 08 bd 3d
       0.4566575 0.20557539 -0.059942786 0.09230167
000040 74 8a a6 3e 21 28 01 3f b1 09 95 3e ae 11 10 be
       0.32527506 0.50451857 0.29108956 -0.14069244
000050 6f ed ec be 22 03 d0 be 85 5e 2f be c6 2c 3c be
       -0.46274897 -0.4062739 -0.171259 -0.18376455
000060 3d 0e a1 be 9c b4 c9 3d a8 7d 05 3d 6a 89 05 3e
       -0.31456175 0.09848902 0.03259054 0.130407
000070 d4 12 1d 3e 77 ee 25 3b 70 ee 3f 3e c0 93 3a 3e
       0.15339214 0.0025319138 0.187433 0.18220425
000080 f3 70 a9 3e ce 72 dd 3e bc b0 94 3e 26 87 dc bd
       0.33093986 0.43251652 0.29041088 -0.10767965
000090 f2 af 5a be 10 68 0f be 1e 9b 66 3d 81 70 c1 b9
       -0.2135618 -0.1400454 0.056300275 -0.0003689565
0000a0 ac 7e 94 be 4c d9 da be cc 59 f7 be 79 7f c2 be
       -0.29002893 -0.4274391 -0.48310697 -0.3798788
0000b0 b4 e3 bc be dd a9 eb bd 2c 29 44 be 64 16 41 be
       -0.36892474 -0.11507008 -0.19156331 -0.18856198
0000c0 5f 9a 1f be c9 dc ed bd 2e f6 37 be d2 f7 f4 bd
       -0.15586232 -0.11614377 -0.17965004 -0.119613305
0000d0 18 d0 05 be 95 31 b9 3d 7c 2a 4a 3c a4 00 dd bd
       -0.13067663 0.0904266 0.012339231 -0.10791138
0000e0 94 71 86 bc 0c 93 01 bd f5 83 d2 3d 84 52 0c 3d
       -0.01641158 -0.031634375 0.10279075 0.03425838
0000f0 f1 61 2b 3e 26 3e 0e 3e 52 a1 da 3d 61 f0 55 3e
       0.1673658 0.13890895 0.10675301 0.20892479
000100 e2 db e2 3d 08 93 5f bd b4 98 72 be 41 db 9c be
       0.110770956 -0.05458358 -0.23691064 -0.30636027
000110 4b 63 18 bd 83 4b 31 bb 0c a2 0a 3e 10 3a 8b 3c
       -0.03720407 -0.0027053065 0.13538378 0.01699546
000120 4d 4a 4d be f7 66 2a be a9 20 ac bd 4c 06 8d be
       -0.20047875 -0.1664084 -0.08404667 -0.27543867
000130 29 16 b1 bc ce 99 86 3d 69 27 dd bd fa c6 86 be
       -0.021617012 0.06572305 -0.107985325 -0.26323682
000140 b4 80 ef 3d 06 bb 6d 3e 88 f2 58 3e 67 c7 fa 3d
       0.1169447 0.23215875 0.21186268 0.12245064
000150 a8 78 af bb 4c bc 17 be 89 75 6e be 4e 11 47 be
       -0.0053549595 -0.14817923 -0.23287024 -0.19440195
000160 7a c5 4e be 09 b3 59 bd 21 6d bc bc 29 40 b7 bb
       -0.20192519 -0.053149257 -0.023001255 -0.0055923653
000170 b1 a7 48 3d 6e db 61 3d ee 3c 1e 3e a3 dd 8d 3e
       0.048988048 0.055140905 0.1545293 0.27708158
000180 a8 04 7f 3e d6 8f 9c 3e 05 f3 8f 3e 01 22 4e 3e
       0.2490412 0.30578488 0.28115097 0.20130159
000190 bd 41 8f be b9 26 85 be 21 b5 cb be 54 33 9a be
       -0.27979842 -0.26006106 -0.39786628 -0.30117285
0001a0 ad 4f d6 bd 53 22 48 bd 00 24 04 be 43 51 7a be
       -0.10464416 -0.04886086 -0.12904358 -0.24445061
0001b0 77 24 37 be b7 8f 28 be 16 43 ff 3d 35 c6 b7 bc
       -0.17885004 -0.16461073 0.124639675 -0.02243338
0001c0 ca 7e d1 bc ad f0 2f 3e 95 51 a4 3e 20 e1 a5 3e
       -0.025573153 0.17181654 0.32093492 0.3239832
0001d0 2b f0 47 3e f0 7c 0b 3e be 3e 38 3e 70 ad d5 3e
       0.1952521 0.13621879 0.17992684 0.41733885
0001e0 80 28 c0 3e e1 46 56 3e 9a 77 6f bb d8 4d 82 bd
       0.375309 0.20925476 -0.0036539794 -0.06362504
0001f0 96 50 17 3e 1b e9 31 3d 03 f7 07 bd 6b 53 84 be
       0.14776835 0.043435197 -0.033194553 -0.25844893
000200 c5 a7 40 be 23 9f 25 bd 35 b0 62 be 9c 25 6b be
       -0.18813999 -0.040434968 -0.2213753 -0.22963566
000210 60 ee 50 be 57 39 08 be f7 e9 f7 bc cb 33 2b be
       -0.20403433 -0.13303123 -0.03026293 -0.16718976
000220 6d 11 f4 bd 20 2f f9 3b e7 24 a7 bd 81 d7 92 bd
       -0.11917386 0.0076044947 -0.081613354 -0.0717001
000230 dd 48 d2 bd af ba e0 bd 3a d6 fb bc d2 8e 04 bd
       -0.10267804 -0.10973107 -0.0307418 -0.032362767
000240 c0 19 62 3d 88 2a 12 bd 12 9f 50 bd e7 7b 09 be
       0.05520034 -0.035685092 -0.05093295 -0.13426171
000250 d0 29 f5 bd 2a c2 f9 3c 9a c3 83 bd 52 5f 6f be
       -0.11970866 0.030488092 -0.064337924 -0.23376206
000260 56 66 1e be 89 d6 50 be 5e ea ae be fb c3 0b 3e
       -0.15468726 -0.20394339 -0.34163183 0.1364898
000270 e7 24 bf 3d 3e 74 1d 3e 91 a5 63 3e 8f 16 03 3e
       0.093332104 0.15376374 0.22231127 0.12801574
000280 97 e8 8c bd aa 74 40 bd 66 5f 2b 3d 64 16 e8 3d
       -0.068803005 -0.04698626 0.041839026 0.11332396
000290 ef 69 aa bc 3a b8 c7 bd d0 22 c2 bd 68 84 04 be
       -0.020802466 -0.09751935 -0.09479296 -0.12941134
0002a0 d2 cb 3f bc 4a d9 5e bd da fe 1e be 6d b1 64 bc
       -0.011706309 -0.05440644 -0.15526906 -0.013958317
0002b0 d2 84 45 bd d9 7b 0c 3e bc 34 c0 3d a5 e6 72 bd
       -0.04822237 0.13719119 0.09385058 -0.05930199
0002c0 74 cb fa bd d4 23 2a be f1 07 72 be 9c b5 26 be
       -0.12245837 -0.1661523 -0.23635842 -0.16280216
0002d0 75 57 a6 bd 33 31 e6 bd 1b 95 07 be 7b 4f 2a be
       -0.0812215 -0.11239853 -0.13240473 -0.16631882
0002e0 af 3f 9a bd 19 de 4b bd d0 f4 af 3d 8d a5 f8 3d
       -0.07531678 -0.049772356 0.08591616 0.12140951
0002f0 e4 d3 5c 3d ce b6 06 bc 2d d1 a8 bd d4 7b 14 3d
       0.053913012 -0.008222295 -0.08243022 0.036250904
000300 63 a0 cc 3d b4 bc d0 3c bc 2e f2 bc 8a cb a2 bd
       0.09991529 0.025480606 -0.0295633 -0.07948978
000310 1c 88 6b bd cc 81 c6 bd 21 6d da bd e6 37 03 be
       -0.05750285 -0.096927255 -0.10665346 -0.12814292
000320 5e 29 ea be 8d 6d 64 be 0e 0e 02 bf 55 b4 ea be
       -0.45734686 -0.22307415 -0.50802696 -0.45840707
000330 51 3a 95 be 16 57 3a be ba 16 cf 3d 8c c6 fd bd
       -0.29146054 -0.18197283 0.101117566 -0.123913854
000340 5f eb af be 4a b0 8d be b7 14 5a bd 8d fa af 3e
       -0.3435926 -0.2767356 -0.05324241 0.34370843
000350 7c f9 8c 3e d8 5c d6 3d a7 fb 9a bc 70 ec e6 bd
       0.2753409 0.10466927 -0.018918825 -0.112755656
000360 3c dc 8d bb 37 5d 33 3e ec fb 17 3e 4d bd d2 3d
       -0.0043292325 0.17516027 0.14842194 0.102900125
000370 94 3e e3 bd b0 57 7c be f1 0b 87 bd 34 87 58 bd
       -0.1109592 -0.24642825 -0.065940745 -0.052863315
000380 dc b8 22 3e 7a 2f bd be b0 d2 c9 bd b5 2d 2d 3d
       0.15890831 -0.36950284 -0.098546386 0.042279918
000390 f9 b2 03 3e cc 96 96 3d c4 31 85 be 9c e6 13 bd
       0.12861241 0.07352981 -0.2601453 -0.036108598
0003a0 b0 35 5c 3e 2d ec e1 3e 86 b3 c1 3e 14 fb 82 be
       0.21504855 0.441255 0.37832278 -0.25582182
0003b0 5b 97 90 be 50 45 47 be dd 43 f9 3c d8 bd 45 3e
       -0.28240475 -0.19460034 0.030427868 0.19310701
0003c0 95 5e c6 3d fc 2d ed 3b f2 c6 3e bc d2 8e 1e 3d
       0.09686009 0.007238148 -0.011644112 0.038710423
0003d0 93 ab 6c 3e 45 38 14 3e 61 86 74 3d 5c 62 d8 bc
       0.23112325 0.1447459 0.059698466 -0.026414089
0003e0 c5 bb c1 bd 8b c2 7b 3d d2 34 bb bb 95 3c 76 3d
       -0.09459642 0.061464828 -0.005713084 0.06011637
0003f0 62 26 8e 3d 14 92 60 3e 0c 6c 3c 3e e1 8f f3 3d
       0.06940915 0.21930724 0.18400592 0.11892677

conv22.bias f4 [32]
000000 e8 bd 92 3c 54 3b 6d 3c 31 20 7a bc eb bd 1d 3c
       0.01791282 0.014479477 -0.015266464 0.0096277995
000010 d4 39 69 bc 4c b4 00 3c 21 63 21 bc bb 45 ab 3c
       -0.014234979 0.007855486 -0.009850294 0.020907274
000020 50 b8 9c 3c 4e a3 70 bc e1 b2 25 3b b7 ea 39 3c
       0.019130856 -0.014687372 0.0025283622 0.011347464
000030 1c 88 e0 bb 44 d1 85 3c 4e fd f1 3b c9 9b e8 bb
       -0.006852163 0.016335137 0.0073849326 -0.007098649
000040 7e 10 2f bb 08 b9 85 3c 82 4a c9 3a 13 6d 4a bc
       -0.002671271 0.016323581 0.0015357288 -0.012355107
000050 ff c8 be 3b 3d 0b 51 3c 96 70 be bc 89 c8 c4 3c
       0.0058223004 0.012759027 -0.023247045 0.024021404
000060 43 d0 53 3c bd d1 5c bc f8 97 87 bc 59 91 83 3c
       0.012928071 -0.01347774 -0.016551957 0.016060518
000070 32 27 28 bc 93 04 ad bb 2c 82 0c 3c 52 f6 da 3b
       -0.010263251 -0.0052800863 0.008575957 0.0066821957

batch2.weight f4 [32]
000000 0d da 3d 3f cb 12 4c 3f ee 59 74 3f 6d 2b 69 3f
       0.74160844 0.79716176 0.9544972 0.9108189
000010 33 da 5b 3f 62 a3 3b 3f 54 ef 83 3f f6 61 46 3f
       0.8587982 0.7329618 1.0307412 0.77493227
000020 b2 a5 8e 3f cb 6b 48 3f 47 c2 5e 3f c0 66 4d 3f
       1.1144316 0.7828948 0.87015194 0.8023491
000030 c0 30 64 3f 05 2d 33 3f 14 78 87 3f 75 5c 5b 3f
       0.89136887 0.6999057 1.058352 0.85687953
000040 2c de 7f 3f 68 da 5d 3f 97 be 79 3f 53 0b 6f 3f
       0.9994838 0.86661386 0.9755644 0.93376654
000050 57 e6 5a 3f 11 e0 58 3f a5 97 75 3f ce 88 45 3f
       0.8550772 0.847169 0.95934516 0.7716187
000060 38 71 5c 3f b7 e9 80 3f ba fc 54 3f a1 34 8b 3f
       0.8611026 1.0071324 0.8319813 1.0875436
000070 e7 10 4f 3f d2 20 50 3f f7 a1 47 3f 63 5a 7c 3f
       0.80885166 0.8130008 0.77981514 0.9857542

batch2.bias f4 [32]
000000 76 a4 14 bf 86 18 02 bf b4 37 3b bf 15 0c 0a bf
       -0.5806345 -0.5081867 -0.7313187 -0.53924686
000010 1a 13 c3 be a9 d0 c3 be c9 2b 4d bf ff 12 07 bf
       -0.3810051 -0.38245133 -0.80144936 -0.5276336
000020 1d 9a 40 bf c9 49 09 bf a9 58 03 bf 59 45 15 bf
       -0.7523516 -0.5362821 -0.5130716 -0.5830894
000030 89 e4 cf be 8b b1 e3 be 1e 24 2f bf 2e e3 09 bf
       -0.40604046 -0.44471392 -0.68414485 -0.53862274
000040 37 e2 12 bf fd ce 28 bf 11 ad 29 bf e8 23 1e bf
       -0.57376426 -0.6594084 -0.66279703 -0.6177354
000050 de 70 13 bf c2 3c ba be df 67 03 bf 39 1f 06 bf
       -0.57594097 -0.3637448 -0.5133037 -0.5239139
000060 e7 3d 0c bf ed 4c 05 bf 7c 16 e2 be 6d 26 41 bf
       -0.54781955 -0.52070504 -0.4415778 -0.7544926
000070 d1 b1 01 bf 7b dd 59 bf 4f 15 ce be 88 a9 11 bf
       -0.5066195 -0.8510358 -0.40250632 -0.5689931

batch2.running_mean f4 [32]
000000 61 9f 4f c2 62 0b e1 c2 4c 6f 87 c3 8f 86 3a c3
       -51.905643 -112.52223 -270.8695 -186.52562
000010 19 ec 2d c3 74 a5 2e c2 10 d9 9a c3 97 56 4c c3
       -173.92226 -43.661575 -309.6958 -204.33824
000020 33 e6 60 c3 25 3a 39 c3 bc dd 4b c3 ca e2 11 c3
       -224.89922 -185.22713 -203.86615 -145.8859
000030 38 a5 66 c3 5b 1f 06 42 d3 e0 8d c3 64 61 1a c3
       -230.64539 33.53062 -283.75644 -154.38043
000040 ff 34 88 c3 ea 9e 66 c3 ba 35 8a c3 2a ea 4c c3
       -272.41403 -230.62076 -276.41974 -204.9147
000050 21 26 28 c3 ef ef 49 c3 2f 29 5b c3 56 8e 2e c3
       -168.14894 -201.93724 -219.16087 -174.556
000060 be c4 03 c3 7b ad 85 c3 d7 0c 3a c3 24 14 77 c3
       -131.76852 -267.35532 -186.05016 -247.07867
000070 68 02 0d c3 f5 a1 f2 c2 4e 72 19 c3 17 d7 56 c3
       -141.0094 -121.31632 -153.4465 -214.8402

batch2.running_var f4 [32]
000000 8a ba 01 47 95 29 21 47 30 98 84 47 1f f1 86 47
       33210.54 41257.582 67888.375 69090.24
000010 0a 4f 5d 47 e2 8c 34 47 d0 43 93 47 55 be 37 47
       56655.04 46220.883 75399.625 47038.332
000020 25 f1 a5 47 e0 20 2b 47 13 91 29 47 6d 2d 4b 47
       84962.29 43808.875 43409.074 52013.426
000030 13 23 93 47 2b c6 23 47 cd ab 89 47 8c b5 57 47
       75334.15 41926.168 70487.6 55221.547
000040 f0 d0 76 47 7f b7 2a 47 68 bf a3 47 74 8b 5a 47
       63184.938 43703.496 83838.81 55947.453
000050 88 a6 63 47 44 b9 70 47 d7 9a a8 47 90 04 11 47
       58278.53 61625.266 86325.68 37124.562
000060 8a 5f 1b 47 0f 96 cc 47 79 c7 a1 47 8d e4 6a 47
       39775.54 104748.12 82830.945 60132.55
000070 9d b2 19 47 61 7b 13 47 2f f0 33 47 81 78 86 47
       39346.613 37755.38 46064.184 68849.01

conv3.weight f4 [16, 32, 5, 5]
000000 fa aa 88 3e c6 3d e8 3e 30 7b 80 3e 23 d8 24 3d
       0.26692945 0.4535963 0.25093985 0.040245187
000010 8d 80 22 3e 1d 33 1b be ec 12 21 3c c3 a3 4c bd
       0.1586935 -0.15156217 0.0098311715 -0.049960863
000020 a3 84 74 be be c7 7c be 90 df cb be fb c6 51 be
       -0.23878722 -0.2468557 -0.39819002 -0.20486061
000030 ee 1a 21 be 94 a7 2e be 79 9f a2 be 53 11 62 bd
       -0.15732929 -0.17056113 -0.31762293 -0.055192303
000040 77 05 a3 bd 35 24 38 bd 6c 01 63 bd 91 1c dd be
       -0.07960027 -0.044956405 -0.055421278 -0.43185857
000050 f8 3b 86 be 6a d2 b5 be f0 5e e4 bd 79 5f 14 bd
       -0.26217628 -0.35512096 -0.111509204 -0.036223862
000060 54 1c 17 be fd 2e 62 be 43 d3 55 bd 1d 05 ff 3b
       -0.147569 -0.22088237 -0.052203428 0.007782592
000070 a1 50 11 be c8 c2 ab be 9f 37 ac be b8 ed 4d bd
       -0.14190914 -0.33547044 -0.33636186 -0.050275534
000080 18 8b 0f 3e 72 bb 11 bd e3 14 4c be 70 11 11 3b
       0.14017904 -0.035579152 -0.19929843 0.0022135638
000090 81 ca df bb 5d 66 5c bd 27 29 17 be 69 10 53 bd
       -0.0068295603 -0.05380856 -0.14761792 -0.05152932
0000a0 8a 33 82 3e de f3 2d 3e 5a 05 76 3c a4 43 f6 bd
       0.25429946 0.16987559 0.015015924 -0.1202462
0000b0 b6 96 47 3d d3 09 c3 bd 50 22 1a be a9 77 08 bc
       0.048727714 -0.09523358 -0.15052152 -0.00832931
0000c0 75 a9 6c 3b 47 c6 fd 3d 85 e0 b0 be 0f 51 10 bf
       0.0036111746 0.12391334 -0.34546295 -0.56373686
0000d0 f0 ce e1 be e1 9c 22 be ef 19 33 3c a1 c6 64 be
       -0.44103193 -0.15880157 0.010931476 -0.22341396
0000e0 c7 cb f1 be af 45 4e be 12 2b bb bd d5 12 14 3d
       -0.47225782 -0.2014377 -0.091390744 0.036150772
0000f0 3c 24 9e bd 2c 59 ab be c1 3a dd bd 43 39 1f 3e
       -0.07721755 -0.3346647 -0.10802222 0.15549187
000100 0c 85 b0 3e 20 b5 89 be 22 cc bd be d1 d7 6b be
       0.34476507 -0.26896 -0.37069803 -0.23031546
000110 79 9f 9c 3d 66 29 6c 3e 40 a6 33 be 3b 88 79 bd
       0.076476045 0.23062667 -0.17543888 -0.060920935
000120 03 d7 e6 3d 6b 75 27 3e 6c 4c c2 3d 57 cd bf 3d
       0.11271479 0.16353385 0.094872326 0.09365337
000130 bd 57 02 be e0 64 e3 bd 94 c8 f9 3b 3e c3 85 3e
       -0.12728782 -0.11103225 0.0076227877 0.2612552
000140 40 59 90 bd 68 57 f7 bd 18 42 af 3d 72 c4 28 3e
       -0.07048273 -0.12077218 0.08557528 0.16481188
000150 b0 ed c4 3e 2a 45 cc bd 6e 2b a5 bd 5c 38 4e 3e
       0.3846259 -0.099741295 -0.08064924 0.20138687
000160 1f e5 3a 3e 3e 90 8a 3e 3e f7 a9 be c4 38 65 be
       0.18251465 0.27063173 -0.33196443 -0.22384936
000170 33 1f f5 3d 5e 03 d9 3d e2 86 50 3d ed e8 49 be
       0.119688414 0.10596345 0.050909884 -0.1971776
000180 94 d5 41 3d be 97 58 3e 2b 00 8e 3d 9e 7e 08 bd
       0.047322825 0.21151635 0.06933626 -0.033323877
000190 d0 f7 07 3c 42 39 8c be 21 ca 6f be fb d3 df be
       0.008298829 -0.27387434 -0.2341695 -0.43716416
0001a0 05 d5 01 bf c2 d5 8a 3e 5e 7d f8 bd 4f 38 07 bd
       -0.50715667 0.2711621 -0.12133287 -0.033012684
0001b0 d5 96 ad be 42 28 3a be ed cf 1e 3e 98 64 8b be
       -0.33904138 -0.1817942 0.15509005 -0.27225184
0001c0 8d 2b b5 be 7a 46 ab be df 7b a6 3d aa d9 7c 3e
       -0.3538479 -0.33452207 0.08129095 0.24692407
0001d0 b4 54 87 bc c0 75 da bd d2 8c d6 bd 17 da c7 3e
       -0.016519882 -0.1066699 -0.10476078 0.39033577
0001e0 ff e7 a2 3e 50 2b 3e 3e ca 83 53 3e ce 59 39 3e
       0.31817624 0.1857121 0.20655742 0.18100664
0001f0 4a 4a d2 3e 0c 76 64 3e 3c 65 6a 3e 40 3a 43 3e
       0.41072303 0.22310656 0.2289018 0.1906519
000200 fc c7 27 3c 5a 53 58 3d 82 29 1c bd c8 d4 bb 3b
       0.010240551 0.052813865 -0.038125522 0.0057321526
000210 ab eb 3d 3b 2c 73 99 be 8b c7 c6 be c0 56 88 be
       0.002897958 -0.29970682 -0.38824114 -0.26628685
000220 c8 3b f9 bd 1b 05 bf bc f7 d9 3d be a2 3d b2 be
       -0.121696055 -0.023317864 -0.18540178 -0.34812647
000230 77 5e c9 3d ee ce 3b 3e f4 85 ff 3d 1c f6 fb bd
       0.09832471 0.18340656 0.124767214 -0.12302801
000240 37 89 8f be 15 75 a5 bd 1b 3a 5f 3d 8e 21 03 3d
       -0.28034374 -0.08078972 0.054498773 0.032014422
000250 cd 18 fe bd f3 0c 13 be 57 21 79 bd fb 07 15 be
       -0.12407074 -0.14360408 -0.06082281 -0.14553826
000260 6d 93 80 be a4 21 bb be 30 62 d1 bd 68 27 07 bd
       -0.25112477 -0.36549103 -0.10223806 -0.032996565
000270 d5 bf d4 bd 40 ba 35 be a4 43 5a be f0 47 97 bc
       -0.103881516 -0.1774683 -0.21314865 -0.01846692
000280 39 81 5b bb 67 6f 34 bc e5 21 85 bd 3c 71 ee bd
       -0.003349377 -0.0110128885 -0.065006055 -0.116426915
000290 dd 01 94 bd 3c 4a ae be 1f 95 9f be 50 d2 77 be
       -0.07226918 -0.3404101 -0.31168458 -0.24201322
0002a0 81 bd 6f be 7e 87 37 be 44 dd c6 be d9 36 b5 be
       -0.23412134 -0.1792278 -0.38840687 -0.35393408
0002b0 67 a7 20 be fd 70 3c be 1e 87 9a bd 28 17 eb be
       -0.15688859 -0.18402477 -0.07545303 -0.45916104
0002c0 53 04 96 be 55 14 64 bd 27 55 08 3d 5e 11 2a 3e
       -0.29300174 -0.055683453 0.033284333 0.16608188
0002d0 fc 9f f5 be cb df f2 be 52 1a 93 be 77 01 ea bd
       -0.4797362 -0.47436365 -0.28731018 -0.11426061
0002e0 96 b6 5b 3c 7d fc 84 be 66 9a c8 be e5 d2 86 be
       0.013410231 -0.25973883 -0.39180297 -0.26332775
0002f0 6f 88 0b be 6a c6 1b 3e 2e 4e e3 3b 7e b1 6e be
       -0.13626264 0.15212408 0.00693681 -0.23309895
000300 4f 13 67 be 0b fb df bd 36 d1 44 3e af cd 0c 3e
       -0.2256596 -0.109365545 0.19220433 0.13750337
000310 a1 8b d5 bd 2f 62 c3 3d 28 4d 0f 3e 86 cf 58 3e
       -0.10427023 0.095402114 0.13994277 0.21172914
000320 1b b6 94 3e 71 bb af bd 0e 7c 8f 3d 48 94 39 3e
       0.29045185 -0.085806735 0.070060834 0.18122971
000330 91 39 83 3d 80 bc 12 3e 8e df 65 bd b1 8c d8 3c
       0.06407464 0.1432972 -0.0561214 0.026434274
000340 1e 88 8b bc 87 c5 09 be 1b 6d 0d 3d d7 8b 86 bc
       -0.01703268 -0.13454257 0.03452788 -0.016424103
000350 18 88 96 3d bb d4 46 bd 77 51 e3 bd a0 0f 0e be
       0.073501766 -0.04854272 -0.110995226 -0.13873148
000360 98 be 2c bd b5 0d e1 3d 42 6e 17 bd c0 6b b9 bd
       -0.042173952 0.109889425 -0.036970384 -0.09053755
000370 e0 1e 99 be 07 41 3e bc f3 00 6e 3e ef a9 43 bc
       -0.29906368 -0.011612183 0.2324255 -0.011942371
000380 10 6d 0c be a7 94 bf 3b 86 25 40 be a7 b4 74 be
       -0.13713479 0.005846578 -0.18764314 -0.23897038
000390 14 40 83 bd e3 0b 24 be 69 c4 7f be e5 d2 ee bd
       -0.06408706 -0.1602016 -0.24977268 -0.11661319
0003a0 0f fc c4 bd cc 9b e1 bd 2a 45 0d be 2a 5c 5e be
       -0.09618389 -0.11016044 -0.13795915 -0.21714845
0003b0 dd 17 a0 3c 54 0d 08 be 93 6f 75 be 69 ad 97 bb
       0.019542629 -0.13286334 -0.23968343 -0.0046288264
0003c0 52 13 14 be cf 9c fd 3d 68 ac 7f 3d 40 86 63 bd
       -0.14460495 0.123834245 0.06242028 -0.055547953
0003d0 4c c3 6c 3e 8e b8 ee bc fe fb ae 3d 01 6f f0 3d
       0.23121375 -0.029140737 0.085441574 0.11739922
0003e0 fb 48 ed 3d da e8 84 3e c8 64 ef bc a6 c2 28 bd
       0.115861855 0.25958902 -0.029222861 -0.041201256
0003f0 e6 f5 09 bd f1 61 98 3d b6 ce 86 3d 12 ed e2 bd
       -0.033681773 0.07440556 0.06582396 -0.11080374

conv3.bias f4 [16]
000000 18 30 c3 3e cd c1 0a 3e d6 a4 be bd 6d d5 ed bd
       0.3812263 0.13550492 -0.09308784 -0.11612973
000010 ec 23 b5 3d 1b cc fc bd 44 89 e3 3e ff ca 94 3e
       0.08844742 -0.123436175 0.44440663 0.29061124
000020 52 bc 12 3f 66 a3 01 bf 59 a2 22 3f 42 7a 82 3c
       0.57318604 -0.5063995 0.6352897 0.015927438
000030 1b dd c7 3e 00 ea b9 3e b0 4d fc be 87 78 47 be
       0.39035878 0.3631134 -0.4927802 -0.19479571
