models/net_new_bs64_dr0_2_adam_augm/model_epoch_54.pt (torch, 763336 bytes, 28 tensors)

conv1.weight f4 [8, 3, 5, 5]
00000000: 1562 e03d b998 bc3d e73c 12be 899f 413e
00000010: ab1e 1ebd c7ba 073e 704e 1bbd 5796 683e
00000020: f88e fc3e 59ba 41be ec0f 933b 9de5 9abc
00000030: 92ea 5c3e c110 983e 9507 8a3d 6ef0 53be
00000040: 100e b1bd ab3f 33be 4a48 ccbd a5e3 df3d
00000050: 1e80 43be d441 80be ecb2 81be a766 75bb
00000060: a773 f7bc e44d aebd fd7d eebd a43a 80be
00000070: 8e85 743d c08e 14be b169 7a3e 11c6 d4bd
00000080: 3ec9 323e 8dca 873e f40f a1be 32a6 203e
00000090: 08f0 2b3e 0a6a 933e 18fb 153e 3485 75be
000000a0: 8b3f ee3d d970 143e aa5b a53d e908 593d
000000b0: 0323 473d 1132 b33b 7e1d c73d cd8b df3c
000000c0: 03a5 e73c 71f4 8dbd ebac 33be 5f95 09be
000000d0: 3868 a6be 923a bd3d 1716 dc3d e7bd d43d
000000e0: 2aa5 a5bd 5582 f6bd 60e7 243e b873 94be
000000f0: abda b63d 61e4 113a 8072 c53c 1c85 fcbd
00000100: a9ad 39be db26 143e 44a2 a43e 32e9 f7bd
00000110: 68f3 8abe d43e 03be f018 a43e fc52 723e
00000120: d6d1 393e 47a9 18be 0925 f8bd f934 45be
00000130: 2757 4bbe 1aad 953e 480e d73e 1dc6 733e
00000140: dae6 78be 8e92 9abe e5e7 ca3d ab63 f43e
00000150: b89a 1d3f 7fe2 9cbe 2eae 8cbe 3512 28be
00000160: 5b01 5b3e 8dd8 003f 9ca6 0abe 20f1 dcbe
00000170: 8e7a 1b3e d751 0c3e dad7 bbbd de9f f3bd
00000180: c3ed 27be 362d 7dbd 988d 60bd 416b e3bd
00000190: ac44 3f3e 6a2a dc3d 2a92 593d 3fb5 00be
000001a0: 3706 edbd 3e60 693e 3b65 7abd a6c7 b6be
000001b0: c8fd 9fbe 8434 96bd b62e e13e a7b3 d93d
000001c0: b815 4dbe 9cc6 02bf 2a59 29be 878c 9e3e
000001d0: 0d9e 8a3d 5f26 dc3d b3cd 93be ee39 bdbe
000001e0: d5d7 703e 46ba 18bd b9cc fc3d c12b 12be
000001f0: 42be eabd 1dae 22be 63d8 25be 6a54 ebbd
00000200: dfb2 9bbd c1da 68be 1910 be3d bc18 1fbb
00000210: c203 8ebe 512c a7bd 8c51 2ebc d55c 433d
00000220: 07d7 763d 78d5 7abd 9744 c0bd 161f dd3d
00000230: 75ae 043e a381 fd3b 4dd0 143f a8c4 29bb
00000240: 7f38 3fbd 4890 0c3d 0930 153d 8d6f c33e
00000250: d346 643e 21d4 443d 4b6c 5d3d 074a 86be
00000260: 6ded 723d e7df 2f3d f90a fc3c 3757 5abe
00000270: 08b5 9abd 7397 88bd 5ce5 113e c78f 283d
00000280: d575 e6bd 5593 0abd 14a1 3fbe b9ce 8dbd
00000290: 4364 a53e b98b 8cbe c06a d4be 6d4b dd3e
000002a0: db51 073f e54d 253d d0c2 38be 63d7 afbe
000002b0: f880 623d 27a0 af3d d78d bdbc c272 babd
000002c0: b78c 92be 666d fa3d c8cc 3b3e de6f 38be
000002d0: e372 d1bd 485f 9f3d 45de b3bc ef24 203b
000002e0: 21a9 1f3e b767 49bd 878c 863e 759a dcbd
000002f0: f459 6cbd 50e2 8f3e 61b2 3cbe a443 28be
00000300: 3a73 193f da7c 233f 98c6 b13d 9f75 0bbe
00000310: ee73 74be 932a 933d 65b8 0e3e 6f15 293d
00000320: 80b6 773e e95d dd3d 63be 9b3e b40d 1a3e
00000330: 95d0 8f3d 6fd7 2a3e 166b 213e c6a6 9fbe
00000340: d398 c1be beb8 aabd e8c0 f53e fcbe f63e
00000350: 29ea 2bbf 3a81 62bf 978b 75be d227 063f
00000360: a139 163e d76e 4b3d 7d62 27be 31ae dabe
00000370: 7952 b03e 2300 013e c213 0cbe 7019 9dbe
00000380: fc48 b7be b7b0 093e 8123 373e 4117 063e
00000390: c2b2 8cbd be0c aabd 286c cf3d 7a15 933e
000003a0: 68e4 953e 2d29 a83d f269 153c 4132 893e
000003b0: 74a1 093e 4a87 19bd f323 b2be af54 6fbe
000003c0: 5e88 cf3d 721d 6cbe bb68 92be c152 f0be
000003d0: 95c3 45be 56cd c8bd 2db6 39be 261d 0cbd
000003e0: 792c ebbd 7c49 fa3d 7ce2 1bbe 55a4 5dbe
000003f0: 9a32 a3bd 805d c0bd cc9e c4bd 9d41 98bd
0.10956208 0.09208817 -0.14281045 0.18908514 -0.038603466 0.13254844 -0.0379166 0.227136
0.49327826 -0.18918742 0.004487982 -0.018908316 0.21573856 0.29700282 0.067397274 -0.20697185
-0.0864526 -0.17504756 -0.099747255 0.109320916 -0.19091842 -0.25050223 -0.2533182 -0.0037445219
-0.030206515 -0.0851095 -0.11645124 -0.2504474 0.05969768 -0.1450758 0.2445438 -0.10389341
0.1745958 0.2652172 -0.31457484 0.15688398 0.16790783 0.2879184 0.14646566 -0.23976594
0.116332136 0.14496173 0.08074124 0.052987013 0.048617374 0.005468615 0.09722422 0.027288342
0.028276926 -0.06931389 -0.17546432 -0.13435887 -0.32501388 0.09239687 0.10746401 0.103877835
-0.08088143 -0.120365776 0.16103888 -0.28994536 0.08928426 0.0005565342 0.02410245 -0.12330076
-0.18132652 0.14467947 0.3215505 -0.12105025 -0.2713883 -0.12816936 0.32050276 0.23664469
0.18146452 -0.14908324 -0.12116439 -0.19258489 -0.19857465 0.2923363 0.42003083 0.23806043
-0.24306813 -0.30189937 0.099075116 0.4773229 0.6156421 -0.30641553 -0.2747664 -0.16413195
0.21387236 0.5033043 -0.13540119 -0.43152714 0.1518347 0.13703094 -0.0917203 -0.118957266
-0.16399293 -0.061810695 -0.054822534 -0.111044414 0.1867854 0.10750277 0.05311791 -0.1256914
-0.11573451 0.2279062 -0.061131697 -0.35699195 -0.31248307 -0.07334235 0.4398095 0.10629969
-0.20027816 -0.51084304 -0.1653792 0.3096659 0.06768427 0.10749506 -0.28867874 -0.3695826
0.23519833 -0.03728702 0.12343735 -0.14274503 -0.1146207 -0.15886731 -0.16195826 -0.1149071
-0.07602476 -0.22739698 0.09280414 -0.0024276217 -0.27737242 -0.081627496 -0.0106395595 0.047695953
0.06026366 -0.061238736 -0.093880825 0.10796945 0.12957175 0.007736401 0.5813034 -0.002590457
-0.04668474 0.034317285 0.036422763 0.38171044 0.22292642 0.048053864 0.054058354 -0.26228353
0.059308458 0.04293814 0.03076695 -0.21322332 -0.0755406 -0.06669512 0.1424765 0.04115274
-0.112529434 -0.033831913 -0.1871379 -0.06924195 0.32303056 -0.2745035 -0.41487694 0.43221608
0.52859277 0.04035749 -0.18043065 -0.34344015 0.055298775 0.085754685 -0.023138924 -0.091039196
-0.28622982 0.12227897 0.18339837 -0.18011424 -0.10226991 0.07781845 -0.021956572 0.0024436077
0.15591861 -0.049171176 0.2627909 -0.10771648 -0.057702973 0.2810235 -0.18427421 -0.16432053
0.59941447 0.63862383 0.08680457 -0.13619088 -0.23872349 0.07185855 0.13937528 0.041280206
0.24190712 0.108089276 0.3041869 0.1504429 0.07022206 0.16683744 0.15763506 -0.31181926
-0.37811908 -0.08336018 0.47998738 0.48192585 -0.67154175 -0.88478434 -0.2397903 0.5240451
0.14670421 0.049666252 -0.16346164 -0.42711022 0.34437922 0.12597708 -0.13679412 -0.3068347
-0.3579787 0.13446318 0.17884637 0.13094808 -0.06870033 -0.08303212 0.10128051 0.28727323
0.29275823 0.08210979 0.009119498 0.26796153 0.13440496 -0.037482537 -0.34793052 -0.23372148
0.10133432 -0.23058107 -0.28595528 -0.46938136 -0.1931289 -0.0980479 -0.18135901 -0.034207486
-0.11483092 0.12221047 -0.15223116 -0.21644719 -0.07968636 -0.09392834 -0.096006006 -0.0743439

conv1.bias f4 [8]
00000000: d67c e6be 32dc 843e c60f 3b3e 0df6 3c3e
00000010: 4d43 7dbd c5b6 3a3c f83b 10bf 3385 42be
-0.45017117 0.25949246 0.18267736 0.18453236 -0.06183176 0.011396115 -0.56341505 -0.18996124

conv11.weight f4 [32, 8, 5, 5]
00000000: c328 86bd b794 80bd ab0d cb3d f029 9b3c
00000010: d737 e8bd 87c3 8e3d bd91 58bd 5659 0c3d
00000020: 1e57 e93c 7166 4ebe 5291 743d c0b2 5c3c
00000030: dc8a 9bbd 0ee2 37bd fd6e 19be 7701 5e3e
00000040: 3661 33be 89bc 88be d91e fcbc b6a5 73bc
00000050: 924a 99bd a392 c4be 2f15 93bd 4132 793e
00000060: 7087 203e b401 d63e a249 a73e 341b 2ebd
00000070: 15d9 d3bd 8b9d c2be 5fa5 ef3e 8307 f53d
00000080: 5c1b abbe f1df 89be 491e 28bd d701 e43e
00000090: 966e 96be d991 debe 89e7 acbd fae7 e83d
000000a0: da33 e5bd c48f acbe 09e6 c7bd 33ba 14be
000000b0: 5d63 853e 29b4 71be d9ff c2bd 7065 b2bd
000000c0: d245 e0bc 405b 333e 13dc 9abe f0ba a8bd
000000d0: 6499 55be 08d8 583d e7dc e33c 4854 cebd
000000e0: 4e54 8ebe 6243 97be 835f 403e 6255 893e
000000f0: 7930 46be 359a 05bf 9af6 e03c e101 c83e
00000100: 2f08 bc3d e0f1 48be bbea 813e 091e 283f
00000110: 7a8a 483d d31d 0e3d edaa c93d fcfd 9d3e
00000120: a303 9b3d a709 d93c 517c 063e 595e c4bd
00000130: e2bb afbe 534e 86be 8cae 4239 5b13 673e
00000140: 88a7 80be 8b0a 93be d2bd c0bd 9223 ad3e
00000150: e292 283e dd4f 1bbd 71a9 2dbc 9aed 073e
00000160: 7673 1f3e 41bb 8c3b c704 323e 60aa 1e3e
00000170: e83a 0a3c 1cc3 09be 474e cfbd 6716 413e
00000180: 4f1b b43d a183 36bd 5d0a 183d 1613 f33d
00000190: 2d90 0abe 613a 473d fa63 bc3d 2a08 ca3c
000001a0: ff8e 6e3c 6aa6 a33c 9de7 5e3e d1e6 5f3e
000001b0: cca4 6438 ad37 5f3d 1793 253e a742 57bb
000001c0: fd2b 8abc 3f40 4b3d fcdb 2d3e b0f8 283e
000001d0: 5d78 e9bd 7fe6 ca3d abb6 9c3d b282 20be
000001e0: 37ae d23d 1d0b 013e f7d8 453e 6e12 3abe
000001f0: 748e a5be 4706 15be 7f37 18be b1ed 31be
00000200: 679d 193d 05af 873e b5b6 9fbe 53b9 5fbe
00000210: 7703 54be 608a 973e ca04 033f c998 e6bc
00000220: 6ce5 f0bd 16cd 783d 449c 2b3f b9c9 b43e
00000230: e5e4 fcbd c85c ef3d 1158 f03e ebc7 053f
00000240: 0702 76be 649d 243d 86cf 023f 3d3a 923e
00000250: 499c 9ebe 2238 2bbf 2693 f73d cbe7 be3d
00000260: d28a e0bd 7be0 adbe 3807 5abd 909d 07bd
00000270: 0c7b 6abe f018 08be db7d 3bbe 8eae 4e3e
00000280: dcca bdbe fa1d 86be 084c 5fbd c337 083e
00000290: 0df9 bc3e c9c0 e0be 61f6 5ebe b0e0 203c
000002a0: 8230 333e 6194 963e 9389 eabc 4241 b23d
000002b0: 4d44 913e 9b50 a53e 37e9 113e 1765 583d
000002c0: f813 583d 6e38 fabd 3607 19be ee33 81bd
000002d0: 5421 aebb 4cdd 0f3e 61fc 483b 0732 3abd
000002e0: 9b4b a5bc aa31 8ebe a60f 2c3e de14 fbbc
000002f0: 8089 29be 49d4 82bc 14f5 f0bd a4b5 823e
00000300: 1df1 0ebe 196c 18be ef69 0a3d 08a3 87be
00000310: 7dd0 bdbc b624 e0bd 89db e73c 0306 353e
00000320: d40a 1c3f 131f c83d ae85 7cbd da74 1ebe
00000330: 89a6 a33e a1dd 1c3f ff51 133e 7313 3cbe
00000340: 7af3 35be 46af 623e 396f da3e 10d9 fa3d
00000350: 70b8 9abd 75ee 47bd 85c7 2b3e 6bbb ae3e
00000360: 6afd eb3d 5eed f43c 097b e53d cffd d03e
00000370: 4b82 c13e d09c c43c 7adc 61bc 6288 2bbd
00000380: 24fa 2f3e cd09 57be 1469 68be 1ef7 1bbe
00000390: 279c dcbd 06f3 0e3e 4668 783d a932 bc3c
000003a0: 07a8 993c bd8e 53be 07a3 e1bd 17ab c9bd
000003b0: 52d5 66bd 8396 9fbd 3062 61be 119b 96be
000003c0: e166 ac3b 639e 7a3e 9d6b a53e ebcf dd3d
000003d0: 654e fdbd 7451 08bf cbea 68be 50ea 123e
000003e0: e6a8 473e d205 5f3d 42d1 91be 73a6 1bbe
000003f0: 0430 f4bc 60f4 c8bc 92da ec3d eacd abbd
-0.065507434 -0.06278365 0.09914716 0.018940896 -0.113387756 0.06970888 -0.05287336 0.034264885
0.028483924 -0.20156266 0.0597089 0.013470352 -0.07594845 -0.044893317 -0.14983745 0.21680246
-0.17517552 -0.2670634 -0.030776428 -0.014871052 -0.07484926 -0.38393125 -0.07181775 0.24335577
0.15676665 0.41798174 0.32673365 -0.04250641 -0.103441395 -0.3801082 0.46805856 0.11964323
-0.3341931 -0.26928666 -0.041044507 0.44532654 -0.29381245 -0.43470648 -0.08442599 0.11372371
-0.111915305 -0.33703434 -0.097606726 -0.14524154 0.2605237 -0.23603882 -0.09521455 -0.08710754
-0.027377043 0.17515278 -0.30246028 -0.082387805 -0.20859295 0.0529404 0.027815295 -0.10074669
-0.27798694 -0.29543597 0.18786435 0.26822954 -0.19354428 -0.52188426 0.027461339 0.39063933
0.091812484 -0.19623518 0.25374398 0.6567083 0.048960187 0.03469641 0.09847055 0.30857837
0.07569053 0.02649386 0.1313336 -0.09588308 -0.3432303 -0.26231632 0.00018566306 0.22565977
-0.25127816 -0.2871898 -0.09411205 0.338162 0.16462281 -0.03791796 -0.01059948 0.13274232
0.15571389 0.0042947833 0.17384635 0.1549468 0.008436896 -0.13453335 -0.10122352 0.18856202
0.08794271 -0.044559125 0.03711926 0.11868875 -0.13531561 0.04863966 0.091987565 0.024662096
0.01456046 0.019976813 0.21768041 0.21865393 5.4512915e-05 0.054496456 0.16169392 -0.0032846124
-0.016866678 0.049621817 0.16978449 0.16501117 -0.113999106 0.09907245 0.07652029 -0.15674856
0.10287135 0.12601896 0.19321047 -0.18171093 -0.32335246 -0.14553176 -0.1486492 -0.17375828
0.037503626 0.26500717 -0.31194082 -0.2184804 -0.20704447 0.2959776 0.5117918 -0.028149026
-0.11762509 0.06074246 0.6703532 0.35310152 -0.12348346 0.116876185 0.4694219 0.52258176
-0.24024211 0.040189162 0.51097906 0.28560057 -0.3097861 -0.66882527 0.12088613 0.09321555
-0.10963978 -0.33960328 -0.05322954 -0.033109248 -0.22898501 -0.13290763 -0.18309729 0.20183775
-0.37068832 -0.26194745 -0.05451587 0.13302521 0.3690876 -0.43897083 -0.21773674 0.009819195
0.17498973 0.2941008 -0.028630054 0.08703853 0.28372422 0.3228806 0.1424912 0.05283078
0.05275342 -0.12217794 -0.14944157 -0.06308733 -0.0053140316 0.14049262 0.0030668008 -0.045457866
-0.020177653 -0.27772266 0.16802844 -0.030649599 -0.16556358 -0.015970366 -0.11765495 0.25529206
-0.13959165 -0.14884986 0.033792432 -0.2649157 -0.023170704 -0.10944502 0.028302925 0.17678075
0.6095402 0.09771552 -0.061650924 -0.15474263 0.31962994 0.6127568 0.14386748 -0.18366794
-0.1776866 0.22137174 0.4266298 0.12248433 -0.0755471 -0.048811395 0.1677533 0.34127364
0.11522944 0.029898342 0.11205108 0.4081864 0.37794718 0.024000555 -0.013785476 -0.04187811
0.17185265 -0.20999832 -0.22696334 -0.15230986 -0.10771971 0.13959894 0.060646318 0.022973375
0.01875688 -0.20659919 -0.11017423 -0.09847086 -0.05635578 -0.0779238 -0.22010112 -0.2941518
0.0052612876 0.24474482 0.32308665 0.10830673 -0.12368468 -0.5324929 -0.22745816 0.14347196
0.19498023 0.05444891 -0.28479964 -0.15200214 -0.029808052 -0.02453059 0.115651265 -0.08388884

conv11.bias f4 [32]
00000000: cb0e db3c a8b7 cf3c dabd cf3d cc4b 48bd
00000010: 3c02 88bd e048 be3b ecab 183e 266e ee3c
00000020: db62 3f3e c062 df3d 5fe4 063e fc2f b63c
00000030: f521 f73c 5cea ad3c ac04 8cbd 79f3 ecbc
00000040: 74cd 24be 41dd 95bd 559b 4cbd 2bda 85bd
00000050: a199 733d 0cad 0cbe 55df 7e3c 7443 b43c
00000060: de7b 01bb 5d58 c8bc 1eae 2dbd 6fc3 49be
00000070: c220 cabd c708 de3d 0bbb ea3c 45ee 8c3d
0.026740452 0.025356129 0.10143633 -0.04890041 -0.06641051 0.005807027 0.14909333 0.029105257
0.18690054 0.10907507 0.13173054 0.022239678 0.03016756 0.021229915 -0.068368286 -0.02892469
-0.16093999 -0.073175915 -0.049952824 -0.06535753 0.059472684 -0.13737887 0.015556176 0.02200482
-0.0019757668 -0.024456197 -0.04240238 -0.19703458 -0.09869529 0.10841518 0.028653642 0.06881384

batch1.weight f4 [32]
00000000: 58d5 703f 6120 793f 5def 803f d46d 903f
00000010: 83e7 733f 0b98 6a3f b4b4 863f 138b 863f
00000020: 376f 4f3f 6e02 543f c10b 6a3f 3cb2 9b3f
00000030: dc22 5d3f 5fda 833f d868 643f cdbe 873f
00000040: 390f 6e3f 9af7 703f da7f 823f 3254 833f
00000050: 8e99 853f 2ab6 723f de39 793f be3b 823f
00000060: 5c9a 883f 9c30 733f 16da 873f 1f8c 743f
00000070: 98d5 843f 4729 8a3f 7e7d 6e3f 2f13 5d3f
0.94075537 0.9731503 1.0073048 1.1283517 0.95275134 0.9163825 1.0523896 1.0511192
0.81029075 0.8281621 0.91424185 1.2163768 0.86381316 1.0301017 0.8922248 1.0605103
0.9299198 0.9412781 1.0195267 1.0260069 1.0437486 0.9480921 0.97353923 1.0174482
1.0672107 0.9499605 1.061343 0.9552631 1.0377684 1.0793847 0.93160236 0.86357397

batch1.bias f4 [32]
00000000: 0e10 ccbe d0d5 83be 4b3d 69be 845a 81be
00000010: b447 91bf 8bcb bbbe f0ff 13be 5f0d 87be
00000020: f67f 8cbd a526 a9be 90c8 abbe 552e 7dbe
00000030: db68 a7be ac31 79be 6b67 f3be 728a c1be
00000040: e6d5 a3be ab21 90be e6a3 b0be 1395 c5be
00000050: 85e6 cbbe cdb7 6dbe 04c5 97be 81ad cfbe
00000060: 89aa 81be c0ee 36be e031 acbe af25 8fbe
00000070: 3d33 4fbe 305b 9cbe 109d b5be 271d 17be
-0.39856 -0.25749063 -0.22777288 -0.2526437 -1.1350007 -0.36678728 -0.14453101 -0.2637739
-0.06860344 -0.33037296 -0.33551455 -0.24724706 -0.32697186 -0.24335355 -0.4753984 -0.37800938
-0.3199913 -0.28150687 -0.34500045 -0.38590297 -0.3982431 -0.23214646 -0.29642498 -0.4056206
-0.2532542 -0.17864513 -0.33631802 -0.27958438 -0.2023439 -0.3053832 -0.35471392 -0.14757214

batch1.running_mean f4 [32]
00000000: 2789 fa3d 7790 68bf 4e9f 9dbc b7dc c8be
00000010: 87f4 643f 39e4 bebe a7c6 113d 54af 68bf
00000020: 2fd4 bd3f e5be e1be 6391 bd3f 3659 8b3d
00000030: 4fb3 f03f 290e ef3e ecee 383e 3631 0cc0
00000040: 4a38 4a3d c6d4 2f3f 9f13 18be 9fec 0040
00000050: 4f15 e43e cbcc d3be e8b6 1e3d cdb8 fe3f
00000060: 29ee 98bd 6404 c73f a27b bf3d 5a72 1bbe
00000070: c5ac 02bf ce3b 81be 0b69 14c0 54b7 c3bd
0.12233191 -0.90845436 -0.019241001 -0.39230892 0.8943562 -0.37283495 0.03558984 -0.9089253
1.4830378 -0.44090953 1.4809994 0.06804125 1.8804721 0.4669049 0.18059891 -2.1905036
0.049370088 0.6868404 -0.14851235 2.0144422 0.44547507 -0.41367182 0.03874865 1.9900147
-0.074673004 1.5548215 0.09349753 -0.1518034 -0.51044875 -0.2524094 -2.3189113 -0.095564514

batch1.running_var f4 [32]
00000000: e581 e83f cb2f 8c40 eaa3 b43f f65f 1c40
00000010: 1d57 af3f 61cf 7140 b12e 733f 0cfe 1d40
00000020: 123a 9640 5bf9 ca3f 9a34 0b40 d58b 1840
00000030: f117 6040 fdad 0a40 04bd 2340 ccdf 9140
00000040: 2e55 a93f 8109 a03f 2bd0 cb40 5879 6540
00000050: 4082 b33f c33f 9b3f 55a8 9f3f a0c0 6f40
00000060: 1ab3 ab40 acab 6a40 3f55 8e40 4452 cf3f
00000070: 2b98 1940 56c7 3440 a0fa 8040 8c66 cb3f
1.8164641 4.380834 1.4112523 2.443357 1.369846 3.7782824 0.9499312 2.4686308
4.6945887 1.5857347 2.1750855 2.3835347 3.5014613 2.1668694 2.5584116 4.558569
1.322912 1.25029 6.369161 3.5855312 1.4024124 1.2128834 1.2473246 3.746132
5.365613 3.666728 4.447906 1.619698 2.3999126 2.8246665 4.030594 1.589067

conv2.weight f4 [64, 32, 5, 5]
00000000: 2b04 31be aaf7 a9be 113c 8fbe ccae afbe
00000010: 3c7b 92be 5ba3 88be 7d2b 5bbe bbfb dabe
00000020: 29e4 ffbe c57b a2be f0d4 92be 2358 34be
00000030: 3d59 00bf 8748 0ebf 71ba 89be bd79 9d3d
00000040: 8764 ed3d 238a 86be 90e4 90be 5d2b 4fbe
00000050: cd41 d2bd 13c4 8cbd 960c 88be 8a5d a9be
00000060: ca99 82be 6c27 20be 7a97 9abd 6c5b 553e
00000070: a6b9 cd3e fe99 433e e717 62bd 6a72 9fbd
00000080: 7987 323e b3a7 c23e 3a06 9d3e e03e 1f3e
00000090: 7ed0 123d 2ac0 123e 96b6 9b3e c930 683e
000000a0: e97d 703e 762f cf3d b96b 0a3e e673 a73e
000000b0: 7191 fc3d 7282 a13e 4f9a 5a3e 0d50 7f3e
000000c0: d6f6 8b3e 88a9 b73d 38d4 c53e f61b 9c3e
000000d0: f5fe 9a3d b09c 41be 870c e2be 7697 d73e
000000e0: 93b6 083f 504c ac3e bb60 8dbd 4e78 67be
000000f0: db31 893e b276 8e3e b528 ddba 8cf0 b2be
00000100: 60ee aabe 5315 d93e 19af d43e 0e75 e73e
00000110: 78d4 0a3e b886 2c3e b7cc f93e 9d03 a63e
00000120: 1523 823e 7d47 1a3e feae 893e 0640 523e
00000130: d88f 0dbd 6c90 f4bd 277f 9cbc 7069 d53d
00000140: b21a 1d3f 4464 673e eef4 aabd 8b4f 15be
00000150: 4b43 7a3d b6dd 9b3e 6bdd cbbd f2e9 eebe
00000160: 7f9f b4be c313 e2bd 84a9 0f3f c23d 833e
00000170: d539 5ebd 13f1 7b3c 13be 963d a868 253f
00000180: 7eac b43e a8e4 103d 0c57 c8bc 2dd1 01bb
00000190: 2111 ecbe 551c 33be c74d b73b ceed a13d
000001a0: 95c3 393d 6b13 afbe 8b46 2fbd 3cf5 733e
000001b0: 8c59 ed3e 1a77 063f 38df 0cbf 66bd 82be
000001c0: 31cf af3d 6310 d33e 44b9 f73e 3f67 0abf
000001d0: 429f 97be a52c dc3c ede1 a23e 425c d13e
000001e0: f2ad 07bf 79e3 92be 2f5f c0bc fc52 8a3e
000001f0: 8fb1 ca3e 3cba 53bc 2bd2 d53d 9b6e 4f3e
00000200: 1220 f43d 91aa 1b3e 751f c6be 8106 2cbe
00000210: a59f 18be 07cb 49be 00cc 20be ab4d 87be
00000220: 5e01 9dbe dd3a 8ebe df59 d1be 737a 36be
00000230: 9dc9 8a3c c566 86bd 2917 56bd 96f1 21be
00000240: 0cca 2bbe df46 393e 8e67 c93d befe fa3d
00000250: 2b88 bdbc 50d2 c6bd 3e6f 3fbe acb5 f23e
00000260: 8ced 4e3f 77bc 443f 6278 273f b549 38be
00000270: 0d9e 8c3e 92f1 303f 0d0a 403f e19c 3b3f
00000280: c8fd 29bf beda cfbe bc72 90bd ecdb 8a3e
00000290: 9374 d83e 5223 79bf 3871 81bf 425b 24bf
000002a0: 975f 76be a766 ce3c 2a63 44bf 9900 7abf
000002b0: 61ac 44bf 1a7e 04bf 588c 59be ba4b 803e
000002c0: 8170 0d3e 4d75 0fbd b710 a0bd 3c9c 1b3b
000002d0: 8530 793d 3067 4b3d f000 8ebc e344 32be
000002e0: 88fc 73bd 5c9d 713d 59c0 2ebd f4ce d8bd
000002f0: 7767 8ebe 1653 23be 6b88 70bd 17ce 8ebd
00000300: 3459 7ebd 05a4 2fbe 8196 34be 820e 4dbc
00000310: 3aa8 70bd f958 fbbc 32d9 35be d63b 8ebe
00000320: 7b6e f1be bac7 abbe 4b0a 9fbe e075 6abd
00000330: fc64 223e be2e 0dbf c2a2 88be 4b7f d9bd
00000340: 403b 323e 9287 b63e ba0d 01bf cbd4 91be
00000350: 2a9b 07bc 59b8 a13e 9e02 ec3e 306f b7be
00000360: 98d1 3fbe 35f9 993c 1ea8 9e3e 6837 eb3e
00000370: a8e9 5cbe 779e b5bd 40bc 443e 2b83 ca3e
00000380: aa96 ff3e 5afc 8cbe c783 07be 1bce 33be
00000390: 2ead 87be f14e 13be dd2e 2fbe 43da 333d
000003a0: 97c1 173d baae e5bd 4924 ac3b 3cb6 37be
000003b0: d7cb 5b3d b1dd 793d 2e37 03bd 4092 403e
000003c0: 26de 86be d93d c6bd 2534 c13d 0a90 ae3d
000003d0: 4d80 b53e 7279 6bbe d7bb c0bd 3555 5d3d
000003e0: d3e2 193e 80c0 c23e 77d2 4ebe 1586 dbbd
000003f0: 85f5 683d 2e35 363e f658 6a3e 884c 1c3d
-0.17286746 -0.33196765 -0.27975515 -0.34313047 -0.28609645 -0.2668713 -0.21403308 -0.4277018
-0.4997876 -0.31735054 -0.28678083 -0.17611746 -0.50136167 -0.5557942 -0.26900056 0.07689235
0.1159144 -0.26277265 -0.2829938 -0.20231386 -0.10266457 -0.06873336 -0.26572102 -0.33079177
-0.25507957 -0.15640038 -0.07548423 0.20835656 0.401807 0.19101712 -0.055198576 -0.077854946
0.17434491 0.3801857 0.30668813 0.15551329 0.035843365 0.14331117 0.3041274 0.2267486
0.23485531 0.10116474 0.13517655 0.3270561 0.12332428 0.31544834 0.21347927 0.2493288
0.27336758 0.089678824 0.38638473 0.30490083 0.075681604 -0.18907428 -0.44150183 0.42107743
0.53403586 0.33651972 -0.069032155 -0.22604486 0.2679585 0.27824932 -0.0016873094 -0.34949148
-0.3338499 0.42399082 0.4153984 0.45206493 0.13557613 0.16848266 0.48788998 0.32424632
0.2541739 0.15066333 0.2689132 0.20532236 -0.03456101 -0.11941609 -0.0191036 0.10420501
0.6136886 0.22596842 -0.08347498 -0.14581124 0.06109933 0.3044259 -0.099543415 -0.4666286
-0.35277936 -0.110389255 0.56118035 0.25633055 -0.05425437 0.015377301 0.073604725 0.6461282
0.3528785 0.035374314 -0.02445557 -0.0019808516 -0.46106818 -0.17491277 0.0055939886 0.07906686
0.045352537 -0.34194502 -0.042791884 0.23824018 0.4635738 0.52525485 -0.55028105 -0.25535125
0.085844405 0.4122344 0.48383534 -0.5406379 -0.29613692 0.026876757 0.31812993 0.408907
-0.52999794 -0.28689173 -0.023482887 0.27016437 0.3958859 -0.01292282 0.10440477 0.20257036
0.119201794 0.15201785 -0.38695875 -0.16799356 -0.1490465 -0.19706355 -0.1570282 -0.26426443
-0.30665106 -0.27779284 -0.4088888 -0.17820148 0.01694184 -0.065625705 -0.05226818 -0.15814814
-0.16776294 0.18093441 0.098342046 0.122556195 -0.023136219 -0.09708083 -0.1869478 0.4740423
0.8083122 0.76850075 0.65418065 -0.17996867 0.27464333 0.6911861 0.75015336 0.73286253
-0.66402864 -0.40596575 -0.07053134 0.27120912 0.4227644 -0.9731952 -1.0112677 -0.6420175
-0.24059902 0.025195433 -0.7671381 -0.9765716 -0.7682553 -0.51754916 -0.21244943 0.25057775
0.13812448 -0.035023976 -0.07815688 0.0023744246 0.060837287 0.049658954 -0.017334431 -0.1740909
-0.059567004 0.05898796 -0.042663906 -0.10586348 -0.27813312 -0.15949664 -0.05872385 -0.06972902
-0.06209679 -0.17152412 -0.17635538 -0.012515666 -0.058754183 -0.030682074 -0.17758635 -0.27780026
-0.47154602 -0.33550817 -0.3106254 -0.05724132 0.15858835 -0.5514945 -0.26686674 -0.10619982
0.17405415 0.35650307 -0.5041157 -0.2848266 -0.00827674 0.3158596 0.46095747 -0.35827017
-0.18732297 0.018795589 0.30987638 0.4594071 -0.21573508 -0.088681154 0.19212437 0.39553198
0.49919635 -0.2753628 -0.13233863 -0.17559092 -0.26499313 -0.14385583 -0.1710772 0.043909322
0.037049856 -0.11214967 0.005253349 -0.1794061 0.053661194 0.061002437 -0.032035045 0.1880579
-0.2634136 -0.09679765 0.09433774 0.08523567 0.35449448 -0.22995546 -0.094108276 0.054036338
0.15027933 0.3803749 -0.20197473 -0.107189335 0.05687477 0.17793724 0.22885498 0.038158923

conv2.bias f4 [64]
00000000: d9de 993d 1c41 54bf 4165 b0be e731 9a3d
00000010: fb35 893e a12e 17bf adeb b5be 95ad d5be
00000020: 52fa 063f fdfa 1b3f e776 b93e 6d60 353e
00000030: a24d 013f f041 1a3f ad83 3f3f 4bf5 c1be
00000040: 0ae7 21bf e22a b03d 7a64 37bf 50d2 85be
00000050: b53c 97bc 6368 0bbf 44ff 61be 1428 11bf
00000060: dd1c 143e 33e9 0e3f 2b24 24bf 4c24 98be
00000070: adcd d13e bd57 413c d676 4a3d fe88 98bd
00000080: 6eb1 1ebf 96f8 87bd 5a42 5fbf ef08 96be
00000090: 664a c5be f945 b73e acf4 62bd 5706 c3be
000000a0: cb47 f6be a478 23bd b66a 97be 7a59 9a3d
000000b0: e696 a43e 745a a93e 2b6a ed3e 538f 223e
000000c0: 7f1a 393e 8bf3 93be 2933 903e 6523 14be
000000d0: 3859 e33e ed40 0abf 7278 403e 9923 34ba
000000e0: 850c 273f dfaa adbe 6a58 2a3e c7dd 6f3e
000000f0: bfba 84bd 627c 3c3e 5dc8 23be 7e17 a6be
0.07513208 -0.8291185 -0.3445225 0.07529049 0.26798996 -0.59055525 -0.3553137 -0.41733995
0.5272571 0.6092985 0.36223528 0.17712565 0.50509083 0.6025686 0.74810296 -0.37882456
-0.6324316 0.08601929 -0.7163769 -0.26137018 -0.018461565 -0.54456156 -0.22070032 -0.5670178
0.14464135 0.55824584 -0.6411769 -0.29715192 0.4097723 0.011800704 0.049429737 -0.07448004
-0.61989486 -0.06639211 -0.8721062 -0.2930369 -0.38533324 0.35795572 -0.05540912 -0.38090774
-0.4810165 -0.039909974 -0.295736 0.075365975 0.32146376 0.33076823 0.46370062 0.15874986
0.18076514 -0.28896746 0.28164032 -0.14466627 0.44404006 -0.5400532 0.18795946 -0.00068717595
0.6525348 -0.33919427 0.1663529 0.23424445 -0.064809315 0.18406823 -0.15994401 -0.32439798

conv22.weight f4 [32, 64, 5, 5]
00000000: 8437 363c 8020 e03d cabc 723e 3cbc 88ba
00000010: e3ad 30be b92a 7f3e d58a 573e ff4d 873e
00000020: 7817 593d a0a4 07be 4e18 8b3e 82fd d03e
00000030: 076a fb3e 9575 8a3e 2069 6bbc 2a84 e33d
00000040: 00a2 a73e 113f 0d3f 1c61 b23e 9650 ffbd
00000050: acd8 e5be 7c58 e1be 8f11 37be 48b2 42be
00000060: d6e1 a1be 53ed d43d e890 093d 578f 0b3e
00000070: 6300 263e 04d2 91ba 752d 433e 7c3a 2f3e
00000080: f596 a33e c703 e43e 755c a13e a496 dabd
00000090: 6257 61be f277 15be 259b 923d 8490 763c
000000a0: 3174 86be 6f80 cfbe 034d ecbe fbf7 b1be
000000b0: e86a b3be 1170 aabd 0d89 22be a8fc 19be
000000c0: c0fc d5bd 7453 b2bd fd2c 78be 6488 34be
000000d0: c4f7 45be aedb 943d b666 483c 51d8 c1bd
000000e0: defe 44bc fa00 0bbd 566c 003e 20b9 843d
000000f0: 3ef2 553e dff8 153e ad9b d53d 6877 6b3e
00000100: 34d5 273e 13b4 3fbd 2fd3 8bbe 48ae afbe
00000110: 991e 83bd ff7b 8d3c 38cb 453e e642 073d
00000120: e7e4 46be 0170 4fbe 5bce c5bd 3e69 90be
00000130: d044 16bd ff03 0b3d 1a0a 12be 4a58 91be
00000140: e268 b13d 2aa5 4b3e 9438 393e f717 d53d
00000150: 00c7 d0bb b964 31be 2c5d 89be ec15 5cbe
00000160: c296 5fbe 709c a4bd bc6b febc f66f 97bc
00000170: cd8f 503d 900d 4c3d 95b8 003e f8db a03e
00000180: 0b4c 943e db19 b13e eb53 a13e 5730 5a3e
00000190: 5eb1 9fbe 8eb4 90be 1ffc cebe fa38 99be
000001a0: 0392 b2bd b463 fdbd 488c 26be e5f0 83be
000001b0: 8467 3dbe a96c 33be 9526 aa3d ec3e eabc
000001c0: 5a89 c1bc 5a43 123e 97e6 883e cf0a a63e
000001d0: f2b1 4f3e b585 123e 071c 183e e8f4 be3e
000001e0: e1eb c23e 8617 513e 4b9e 47bc 288e a5bd
000001f0: ee29 0e3e 68f1 39bd 8974 8bbd cc5e 95be
00000200: ac1e 62be 358e a7bd 5718 97be 251e 96be
00000210: 989d 87be 6750 30be a42c 82bd 3721 3dbe
00000220: af21 2fbe c347 4dbd 586f 03be 90e5 c0bd
00000230: 09d0 dfbd 8029 1ebe 1597 b0bd 2e13 c6bd
00000240: 3c40 493d 0f7e 3fbd 37b2 c2bd 08e6 44be
00000250: 39bd 6abe ffbb f5bb 9278 f2bd 13e4 86be
00000260: 477f 61be 57ef 68be 226e aebe e6f1 1e3e
00000270: 7197 093e 2c24 183e 789a 5b3e a843 0e3e
00000280: f7ca 7abd 586d 0fbd a1d2 2a3d 9cfb cc3d
00000290: 6094 a5bb 657b e2bd 2f59 79bd 3ae9 c6bd
000002a0: 59bb 193c 8765 8c3c f51e 4ebe cd58 c8bb
000002b0: 9420 a4bc 16d1 e53d 324b ed3d c5a5 d9bd
000002c0: fe2d 23be f7f3 41be 352c 85be 3cb4 3abe
000002d0: e77c 00be 0da0 18be 3f98 23be 7a78 44be
000002e0: d669 c1bd 8603 bbbd e115 563d 6dad b93d
000002f0: bba1 8d3c 8e5c 16bd da82 cabd 049e d73c
00000300: 883b af3d 5298 07b9 d19b 16bd ecc5 cbbd
00000310: 8490 acbd 1476 02be 1f02 15be d386 05be
00000320: 3f73 f3be 84c0 83be eeb5 0cbf b157 eabe
00000330: 72a5 8dbe 3606 81be 1ec5 553d 3312 17be
00000340: a212 b3be ef7a a1be fdc6 cbbd da9c af3e
00000350: c387 a03e a0b3 f33d e2e0 7fbd 5f8c 00be
00000360: a803 13bb 4083 513e 629f 263e f923 e43d
00000370: 1b36 1abe 98cb a4be 6518 b9bd 7f29 4abd
00000380: b109 423e 6530 bdbe ab1f 42bd 0379 e63d
00000390: aef2 523e 4b32 163e f5c3 91be 2613 d9bc
000003a0: 557e 803e 121e f93e 61a3 cd3e 52df 75be
000003b0: 9a5d 90be 9a7b 28be 3ff9 493d 0045 3d3e
000003c0: 4e1d f13d 8589 70bb 11d2 adbc 55ba ee3c
000003d0: 7aee 673e b61a 163e 3bba ef3b ced9 aebd
000003e0: 2381 0fbe 6620 463d 7d12 a23c a636 8a3d
000003f0: 425e 963d 1dc5 4a3e 2ab9 213e d209 fd3d
0.011121634 0.10943699 0.2370483 -0.0010432075 -0.17253833 0.24918641 0.21049054 0.26426694
0.053000897 -0.13246393 0.2716698 0.4081841 0.4910433 0.27042833 -0.0143683255 0.11109193
0.32740784 0.55174357 0.34839714 -0.124665424 -0.4489187 -0.4401282 -0.17877792 -0.19013321
-0.31617612 0.103968285 0.03358546 0.13628899 0.16211085 -0.0011125212 0.19060309 0.17112154
0.3195111 0.44534132 0.31515852 -0.10673264 -0.2200599 -0.14596537 0.07158498 0.015049104
-0.26260522 -0.40527675 -0.46152505 -0.34759507 -0.350425 -0.08322156 -0.15872593 -0.15037787
-0.10448599 -0.08707324 -0.24235912 -0.17630154 -0.19332796 0.07268463 0.012231519 -0.09465087
-0.012023656 -0.03393648 0.12541327 0.06480622 0.2089319 0.14645718 0.104300834 0.22994769
0.16389924 -0.04680259 -0.27309558 -0.34312654 -0.064023204 0.01727104 0.19315803 0.033022784
-0.19423257 -0.2025757 -0.096585 -0.28205293 -0.03668672 0.033939358 -0.14261666 -0.28387672
0.08662583 0.19887224 0.18087989 0.104049616 -0.006371379 -0.17323579 -0.26828897 -0.21492738
-0.21834853 -0.080376506 -0.031057231 -0.018486004 0.05091839 0.04981762 0.12570412 0.31417823
0.28964266 0.3459004 0.31509337 0.21307503 -0.31190008 -0.28262752 -0.40426728 -0.29926282
-0.08719256 -0.123725325 -0.1626445 -0.25769725 -0.1849652 -0.1752192 0.0830814 -0.028594457
-0.023625065 0.14283505 0.26738426 0.3243012 0.20282724 0.14308818 0.14854442 0.37296224
0.38070586 0.2041913 -0.012183736 -0.08083755 0.13883182 -0.04539624 -0.06809337 -0.29173887
-0.22082013 -0.08181421 -0.29510757 -0.29319873 -0.26487422 -0.17218171 -0.06356171 -0.18469702
-0.17102693 -0.050117265 -0.12835443 -0.094187856 -0.109283514 -0.15445518 -0.086225666 -0.09671627
0.049133524 -0.04675108 -0.09506648 -0.19228375 -0.22923745 -0.0074992175 -0.11839403 -0.26345882
-0.22021209 -0.22747551 -0.340684 0.15521964 0.13436677 0.14857548 0.21445644 0.13892996
-0.06122872 -0.035016388 0.041704778 0.10008928 -0.005053088 -0.11058692 -0.060876068 -0.09712453
0.009383046 0.017138256 -0.20128997 -0.0061141015 -0.020035066 0.112215206 0.11586608 -0.10627321
-0.15935513 -0.18940721 -0.2601029 -0.18232816 -0.12547646 -0.14904805 -0.15976046 -0.19186583
-0.09444015 -0.091315314 0.05226696 0.090662815 0.017289033 -0.03670936 -0.09888239 0.026320465
0.085562766 -0.00012931347 -0.03676969 -0.0994986 -0.08426002 -0.12740356 -0.1455159 -0.13039713
-0.47548863 -0.25732815 -0.549651 -0.45770028 -0.27665287 -0.2520005 0.05218994 -0.14753036
-0.34975153 -0.31539103 -0.099500634 0.34299356 0.31353578 0.11899495 -0.062470324 -0.12553547
-0.00224326 0.20460224 0.16271737 0.11139674 -0.15059702 -0.3218658 -0.09037856 -0.04935598
0.1894901 -0.36950985 -0.047393482 0.1125355 0.20600387 0.14667623 -0.28469816 -0.026498388
0.25096384 0.48655754 0.4016371 -0.24010971 -0.28196412 -0.164534 0.049309965 0.18483353
0.117731676 -0.0036703062 -0.021218332 0.029141584 0.22649565 0.14658627 0.0073159016 -0.08537637
-0.14014105 0.04837074 0.019784207 0.067487046 0.07342197 0.19801755 0.1579329 0.12355389

conv22.bias f4 [32]
00000000: 0031 933c bfc4 6f3c 2c79 7cbc f3d3 1b3c
00000010: cb32 6dbc e8c3 ff3b b279 21bc 1499 ac3c
00000020: 7663 9c3c c087 6dbc f201 243b b327 3b3c
00000030: 6ad5 e1bb 3b1d 853c db4e ed3b 2f7e e8bb
00000040: 8d00 32bb a754 853c 369d c73a d06c 49bc
00000050: bccc c03b 7c92 503c c48c bebc c13e c63c
00000060: 5873 503c 26c3 57bc 28a1 88bc b982 853c
00000070: e338 27bc e725 adbb 4a01 0c3c a1b8 db3b
0.017967701 0.01463431 -0.015409749 0.009510982 -0.014477442 0.0078053363 -0.009855675 0.021069087
0.019090395 -0.014497697 0.0025025574 0.011423039 -0.006891896 0.01624929 0.0072420663 -0.0070951204
-0.0027160973 0.016275717 0.0015229348 -0.012294009 0.0058837812 0.012730237 -0.023260482 0.024199845
0.012722813 -0.013169086 -0.016678408 0.016297685 -0.010206434 -0.0052840593 0.008545229 0.006705359

batch2.weight f4 [32]
00000000: c70c 3e3f 309c 4c3f 5ed0 733f 67ca 6b3f
00000010: 73f8 5f3f 6574 343f e830 843f af64 4b3f
00000020: 3539 8e3f ac2b 483f c205 603f 63c8 4c3f
00000030: 4881 603f f656 333f 1a85 863f 6784 563f
00000040: 4f39 803f 6ac0 603f 0028 703f 4e52 733f
00000050: 5e27 5c3f 1beb 573f c9f4 743f 9006 443f
00000060: 2e78 5b3f dd52 833f 1fd1 553f 6307 893f
00000070: 260a 4c3f 6695 4e3f b4e3 443f 8ba6 7a3f
0.74238247 0.79925823 0.9523982 0.92105716 0.8748848 0.70490104 1.0327425 0.79450506
1.1111208 0.7819164 0.87508786 0.79993266 0.8769727 0.70054567 1.0509369 0.8379578
1.0017489 0.877936 0.93811035 0.9504746 0.8599757 0.8434312 0.9568601 0.76572514
0.85730255 1.0259663 0.8352222 1.0705379 0.79702985 0.80696714 0.7690995 0.97910374

batch2.bias f4 [32]
00000000: 567d 16bf f833 06bf a391 3fbf 44af 09bf
00000010: c5c4 c8be 3e58 cdbe 75c9 4ebf abc5 05bf
00000020: 51a1 46bf aa49 0abf 9fd4 06bf db5f 14bf
00000030: 8783 d2be 05bc edbe 72e2 32bf 4d60 0fbf
00000040: 2036 11bf b311 27bf 5c28 34bf 744b 18bf
00000050: 03ac 17bf 3108 bdbe 6b63 04bf b26f 05bf
00000060: b6ee 0dbf a019 04bf 2681 cfbe cf19 47bf
00000070: bea3 04bf 3129 5dbf d259 cebe 8ff1 17bf
-0.58785 -0.5242305 -0.748316 -0.5378306 -0.39212623 -0.40106386 -0.8077615 -0.5225474
-0.775899 -0.5401865 -0.52668184 -0.57958764 -0.41115972 -0.4643251 -0.6987678 -0.5600632
-0.56723213 -0.6526138 -0.70374084 -0.5949013 -0.59246844 -0.36920312 -0.517142 -0.5212356
-0.5544237 -0.516016 -0.4052822 -0.77773756 -0.5181235 -0.8639098 -0.40302902 -0.59352964

batch2.running_mean f4 [32]
00000000: 691e b1c2 a1b8 ecc2 86b6 83c3 8173 54c3
00000010: 0296 26c3 9111 80c2 2fce 96c3 cc3a 75c3
00000020: da5c 6ec3 218c 64c3 bf3f 3ac3 62ec 10c3
00000030: 8eb1 80c3 5a8c 3041 d1c3 8cc3 960b 22c3
00000040: 7347 76c3 2e58 75c3 3e4b 8dc3 6bac 71c3
00000050: 6d89 55c3 3e34 67c3 339c 57c3 9250 42c3
00000060: aba3 22c3 52e1 74c3 d861 4dc3 ff97 73c3
00000070: feda 29c3 f32a 1ac3 3d19 33c3 e487 58c3
-88.559395 -118.3606 -263.42596 -212.45119 -166.58597 -64.03431 -301.6108 -245.22968
-238.3627 -228.54738 -186.24901 -144.92337 -257.38715 11.0342655 -281.52982 -162.04526
-246.2791 -245.34445 -282.58783 -241.67351 -213.53682 -231.20407 -215.61015 -194.31473
-162.63933 -244.88016 -205.3822 -243.59373 -169.85544 -154.16777 -179.09859 -216.53082

batch2.running_var f4 [32]
00000000: ef38 1847 0a8b 2347 f5fa 8f47 b513 9847
00000010: 471e 6347 ee39 4547 f268 8d47 9b07 6147
00000020: 4f03 af47 ed9b 3947 ab1e 2e47 d4a2 4947
00000030: b183 9547 3498 2747 28f8 9247 d9a0 5d47
00000040: 427f 7c47 d118 4747 b5c6 a547 371e 6947
00000050: 910b 6c47 3dd6 7b47 7735 b847 085d 2f47
00000060: 111a 3c47 ec2b c747 33ed ba47 acdb 7b47
00000070: 2688 3147 f453 2447 dd28 4147 221c 8d47
38968.934 41867.04 73717.914 77863.414 58142.277 50489.93 72401.89 57607.605
89606.62 47515.926 44574.668 51618.83 76551.38 42904.203 75248.31 56736.848
64639.258 50968.816 84877.414 59678.215 60427.566 64470.24 94314.93 44893.03
48154.066 101975.84 95706.4 64475.67 45448.15 42067.953 49448.863 72248.266

conv3.weight f4 [16, 32, 5, 5]
00000000: 71c3 923e 2417 ff3e 0eed 853e 74a8 403d
00000010: 227b 423e 4423 31be 2a67 d83c ec8b 38bd
00000020: 58e9 76be 0b42 6dbe fb4a d4be 9a47 3bbe
00000030: 7b0e 25be e8a0 3ebe f3ba b4be cde2 06bc
00000040: 0690 e8bc 1d8e ddbc ea7c 82bd 0173 e3be
00000050: 75d6 68be bcff abbe 0110 e7bd 9b03 6bbd
00000060: 595b 06be 7177 62be 5fc4 2bbd e771 253c
00000070: 8c90 21be 26c3 babe 464b b0be 98c8 82bd
00000080: f912 053e 982f 68bd 869b 60be 7fcb ef3c
00000090: 5832 9f3c bf5e fdbc 83e0 f8bd 8a05 babc
000000a0: 7417 953e d1a9 4a3e c8d7 fc3c 3f3e cbbd
000000b0: ce9e 773d e76c f5bd 1176 2fbe e72d fdbc
000000c0: 9802 97bc 4f5d c43d 59db acbe 04b8 16bf
000000d0: 0553 e4be 8f37 3bbe 55f1 d8bb 9857 87be
000000e0: 14aa fdbe 12be 35be e585 dcbd 3b43 1e3c
000000f0: a1d2 eebd 01a6 a7be 2be8 8abd bcb8 263e
00000100: c6ea b13e dec3 98be e045 c1be 3c11 54be
00000110: b4e3 ca3d 3658 6f3e cb0b 41be 9d1c b5bd
00000120: aed1 e03d 9e8c 293e aa48 b03d cc58 be3d
00000130: cf86 febd 18ef a3bd 8e8e 2c3d 05f4 933e
00000140: 961d 91bd 5ac8 c2bd a879 f43d 269b 3e3e
00000150: 29db d03e 4ab8 d0bd f1c8 83bd d07d 5c3e
00000160: b18f 4e3e 7587 9f3e 5581 acbe 733b 4cbe
00000170: 223a 093e b592 113e 641a c53d 525a 52be
00000180: 899f 4e3d b337 653e 5204 db3d db57 1fbb
00000190: d45f f03b 6ccf 90be 4118 76be a3d7 f7be
000001a0: e411 0cbf 2f28 973e 5284 f0bd 0e2a e6bc
000001b0: 0c6d bebe c35c 23be 0df8 2a3e feb6 8bbe
000001c0: ed1b b1be 4a6e aabe 381e fc3d 888b 863e
000001d0: c30d 173b 54d6 f2bd a7cf 07be 3fe5 cc3e
000001e0: d871 b03e 3829 4b3e 3e73 433e 7104 0e3e
000001f0: aaf8 c53e 463b 563e 38c8 663e e959 5f3e
00000200: 4674 343d 6333 813d af39 85bd 653a 1dbc
00000210: c5b1 a83c 6516 96be fa0d d3be b132 96be
00000220: f154 13be 5918 37bc db62 32be 21fa bcbe
00000230: 2e66 953d 1a6e 3d3e 0422 253e 86e2 9fbd
00000240: ed9f 84be a836 aebd b6c0 063d 8a83 0c3d
00000250: 195d acbd 6b0b a9bd 9c77 14bd bdb7 15be
00000260: 85c7 8bbe 4c4b c5be e150 e7bd 356d 933b
00000270: 6662 c4bd b9e5 3ebe f94b 6abe 52b3 eebc
00000280: 3b5e 123d 1fca b73c ed98 40bd 46c9 efbd
00000290: cb4e b3bd 24e6 b6be 06e4 9cbe c9b6 54be
000002a0: 464a 50be 6f9c 2dbe 1fba dfbe 64f8 cdbe
000002b0: ee74 26be 4b72 2abe c76b 31bd 7820 febe
000002c0: a721 a1be 137c 7abd 5fe4 503c 5b98 163e
000002d0: d216 10bf b839 02bf 0bd4 92be 9149 06be
000002e0: 8322 2d3c ea3f b1be af64 dcbe 2ae4 8fbe
000002f0: 7836 17be acbb 273e ac21 19bc 5c0c 78be
00000300: b688 7abe 525a eebd 24cb 443e b229 163e
00000310: c3d2 febd 24ad 8b3d 53a1 023e 7be6 473e
00000320: 9727 933e b9bb 0bbe 300f 803d a53d 313e
00000330: 0e5c 443d 9c70 dd3d 6816 c9bd 4299 d43c
00000340: b41b 04bd 4a23 2cbe 39d4 cd3c 111d 34bd
00000350: 66e6 9c3d 3de9 19bd f771 e1bd 6327 23be
00000360: f25c b2bd cf52 c13d 580e e6bb 9487 6bbd
00000370: 4198 9fbe a7b9 c3bc 8e86 783e f507 f33c
00000380: 1826 c9bd ebbc c73c 9205 28be c36e 48be
00000390: 626d 3dbd 5fe5 2ebe 8d03 68be 33f8 d8bd
000003a0: 137a bebd e4d3 e3bd 7d58 0fbe 408b 63be
000003b0: f98d 5b3b 0649 29be dc7b 83be 724a cbbb
000003c0: 0472 01be 9e7d 073e 9095 153d 4095 8fbd
000003d0: 2c56 673e 2f88 0d3c ef6f c53d 97e9 c23d
000003e0: 4e34 dd3d 0b99 7f3e 9479 1fbd 9448 bcbc
000003f0: c203 2b3c ea45 e13d 5aab 9e3d 013b c8bd
0.28664735 0.49822342 0.2615742 0.04703565 0.18992284 -0.17298609 0.02641638 -0.045055315
-0.24112451 -0.23169725 -0.41463456 -0.18289033 -0.16118805 -0.18616068 -0.3529888 -0.008232784
-0.028388988 -0.027045304 -0.06371482 -0.4442368 -0.22738059 -0.33593547 -0.112823494 -0.057376485
-0.13120784 -0.22115876 -0.04193532 0.010097957 -0.15777797 -0.3647701 -0.3443243 -0.063859165
0.12995519 -0.056686014 -0.21934327 0.02927184 0.019433185 -0.030928968 -0.12152197 -0.02270772
0.29119456 0.19791342 0.030864611 -0.09923982 0.060454182 -0.11983662 -0.17134883 -0.030905677
-0.018433854 0.0958811 -0.337611 -0.58874536 -0.4459459 -0.18282913 -0.006620566 -0.26434016
-0.49543822 -0.17748287 -0.10767726 0.009659584 -0.11661268 -0.32743838 -0.06782564 0.16281408
0.3474943 -0.29836935 -0.37748623 -0.207097 0.09906712 0.23373494 -0.18852155 -0.08843348
0.10977493 0.16557547 0.086076096 0.092942804 -0.124280564 -0.08004588 0.04212814 0.2889711
-0.07085721 -0.0951087 0.119372666 0.18613872 0.40792206 -0.101914 -0.06434811 0.21532369
0.20172001 0.31158033 -0.33692423 -0.19944553 0.13401082 0.1421612 0.09624174 -0.20542267
0.050445113 0.22384529 0.106941834 -0.002431384 0.0073356424 -0.2828325 -0.2403269 -0.48406705
-0.547148 0.29522845 -0.11743988 -0.028096225 -0.3719257 -0.15953355 0.16696186 -0.2728805
-0.34591618 -0.3328727 0.12310451 0.2627833 0.0023048974 -0.11857286 -0.13262807 0.4001865
0.34461856 0.19839942 0.1908693 0.13868882 0.38666278 0.20921049 0.22537315 0.21811642
0.0440562 0.06308629 -0.06505143 -0.009596442 0.02059258 -0.2931396 -0.412216 -0.2933555
-0.14387871 -0.0111752385 -0.17420523 -0.36909583 0.0729488 0.18499032 0.16126257 -0.07806878
-0.25903264 -0.085065186 0.032898627 0.034305133 -0.084161945 -0.08254131 -0.03624688 -0.14620872
-0.2730066 -0.3853401 -0.11294723 0.0044991025 -0.095890805 -0.1864232 -0.22880544 -0.029138241
0.035734396 0.022435246 -0.04702084 -0.11708312 -0.08755263 -0.35722458 -0.30642718 -0.20772852
-0.20340833 -0.16954206 -0.43696687 -0.4022857 -0.16255543 -0.16645162 -0.043315675 -0.49634147
-0.31470987 -0.061153483 0.01274976 0.14706556 -0.5628482 -0.5086932 -0.286774 -0.13114001
0.01056731 -0.34619075 -0.43045565 -0.28103763 -0.14766872 0.16380185 -0.009346407 -0.24223465
-0.24466214 -0.11638321 0.19218117 0.14664343 -0.12442543 0.06820133 0.12756853 0.19521515
0.28741142 -0.1364583 0.06252897 0.17308672 0.047939353 0.10812494 -0.09818727 0.025951985
-0.032252982 -0.16810337 0.02512561 -0.043973032 0.076611325 -0.03757595 -0.11008065 -0.15932994
-0.08709134 0.094396226 -0.007020753 -0.057502344 -0.31170848 -0.023892237 0.24270079 0.02966688
-0.09821719 0.024382075 -0.16408375 -0.19573502 -0.046246894 -0.17079686 -0.22657605 -0.10594215
-0.093006276 -0.11124399 -0.139986 -0.22221088 0.003350137 -0.16531762 -0.25680435 -0.006203943
-0.1264115 0.13231513 0.036519587 -0.07010889 0.22591466 0.008638426 0.0964049 0.0951721
0.10800992 0.24960725 -0.038934305 -0.022983827 0.010437908 0.10999663 0.077475265 -0.09776879

conv3.bias f4 [16]
00000000: 2ca9 cc3e c51a 1c3e 5d01 bdbd b1e2 b0bd
00000010: 4c2e d03d a729 febd ef18 ea3e 2256 853e
00000020: cbd1 163f 8cec 06bf 014b 213f e427 c73b
00000030: f5ce d33e e570 c43e b054 01bf 612c 4cbe
0.39972818 0.15244587 -0.09228776 -0.08636988 0.101650804 -0.12410288 0.45722148 0.26042277
0.5891387 -0.5270469 0.6300507 0.0060777534 0.41368833 0.38367382 -0.5051985 -0.19938804

conv33.weight f4 [8, 16, 5, 5]
00000000: 60e4 95be 2a5d abbd e585 463e a89d 143e
00000010: 0d7a f83d 75ef 2dbe a2b0 283d 9ccf ff3e
00000020: 3ff5 fc3e 2d4c d13e f7cb dbbc bc8a d63d
00000030: 6648 9a3e ae81 ff3e cf67 043f 754e 943d
00000040: 7f49 863b 06a2 a93d da6c bf3e ead5 793e
00000050: d4c8 10bd 41f1 a6bd 6a68 2bbe 2b90 7cbe
00000060: 596d a0be 8f4e 993d 4863 01be d8f4 f4be
00000070: 7397 7bbe 9372 35be 0896 c53e 3810 9b3d
00000080: 923d 90be 8050 103e 7067 c03e aae6 a53e
00000090: bb67 cb3d 39a6 e6bd fcad b03d 5d34 913e
000000a0: 8324 28be 36cd 61bb 1699 e2bd dece 253d
000000b0: 13d3 583e c7b7 d3bd 84ee 4f3c 483d 93bd
000000c0: 1a30 a63d f556 093e 4c07 993d 081d 8e3c
000000d0: b0c0 76be fb04 5bbe 1e1c 23bd 800e 1d3e
000000e0: 0239 0f3e f1e7 91bd 1537 e0bd 325b a33d
000000f0: 470e c7be c3c6 43be 18f9 5abe 4445 58bd
00000100: 7843 803e 2085 aabd 2537 363d 3323 35be
00000110: 0ea7 96bc 1cb7 153d 083a 06bd d066 263d
00000120: 51e6 a4bd 03d9 b7bd 3868 8d3c aea4 ddbd
00000130: d509 00bf e28a 66be 0c8a 81be 56be 19be
00000140: b332 82bd caff 88bd b5cf 6a3e 8d3f 88bd
00000150: adae 83bd 1df2 acbd bede c6bd 7f50 b93e
00000160: 06f0 533d a5a4 75bd 80fe 273e cb6d 17bd
00000170: 6d5b 5a3e f0f9 8f3e e15e c1bc 06a3 4c3e
00000180: 728e 46bd e760 2abe 84db 4b3e 5868 a9bd
00000190: d791 c43e 0abb 8b3e e117 943e f96f fc3e
000001a0: b245 ec3d 0f6e 713e 9470 97bd fcb0 703d
000001b0: 678b b53e 3f46 3ebc 11ea 92be 8a69 04bf
000001c0: 0716 f4be 00c5 f4bd 8e47 6dbe 82cc 14bf
000001d0: 313f 79be 2f7b 03be ee3e 7dbd ad6c cfbb
000001e0: 2e69 e6be 11be a4bd 1d08 a73c b70e 0ebd
000001f0: 95d4 f23c a3ca f1bc e4da 0abe 177f 03be
00000200: c0a1 493d 571a 19be 11aa 5abb 1040 4fbd
00000210: 5f69 f43c b6de babc f133 bdbe a2a1 7ebd
00000220: e09f 363c 1d10 0a3e 3907 a8bd b6f9 3dbe
00000230: 3c56 42be c112 42be af54 abbd 7a17 4f3b
00000240: 6288 393e 9c6d ff3c cc95 8bbe a4af 90be
00000250: da14 32bd 98d3 6e3e d25d 963d 7efd 2dbe
00000260: d6b4 5c3d 9043 983e ee70 b43e ebbb 703b
00000270: d98c aebe 2220 bcbd 462d 79be ec3b 95be
00000280: 44e0 853e 5efa bbbc 04e1 253e 5d22 b33c
00000290: 1d91 0bbe ca0d 513d 0e85 cabc 82bf ea3b
000002a0: 694a 233e 9e3e 7b3e 2a0e c0be 0595 62be
000002b0: 6018 adbe f16f edbd 8e20 b8bd e46c 0ebe
000002c0: 1a81 2c3e cc56 6fbd b4a0 1dbe 4859 72bd
000002d0: 590a 41bd 8703 6d3e edcf 8f3c 4b90 94be
000002e0: 0144 5bbe 4e71 3bbe b28f ce3d bd4b dcbd
000002f0: 4432 09be 03ac 55bd cad8 4ebe 056e 10bd
00000300: 0a14 12be 6fb6 d63d dd3a 473d 8a0f 403d
00000310: 2107 143e 3611 eb3d e02a bf3e f38d 7a3e
00000320: cd2c 6dbe b1e1 7bbe 7b2a 8fb9 1275 053e
00000330: 5634 49bd f61a 88be 8ec4 15be 9d59 9e3e
00000340: 4363 1d3f 5689 943d 44ae 29be d45b 9ebe
00000350: 3aaf 78bd 4a22 f83e 56b1 da3d 1507 57bd
00000360: 2aaa 053e cf30 00be 3ea8 053e 276f 513d
00000370: 340b 2e3c 835d 523e d0d9 b6bd f168 5c3d
00000380: b757 b7bb 71b3 81bd a95f c53d d03d 0abe
00000390: 568c 1cbe dc28 bb3d 067e bebb 2d42 f3bd
000003a0: 01f5 a0be bc11 efbc 94c9 bc3e 0f56 f93c
000003b0: c113 95bd 4bd1 37be bb86 673e 34c2 b73e
000003c0: 2f44 9d3d 92d6 523d eaa5 44be 96da 91bd
000003d0: d3a7 4ebc 74b0 613e 5493 383e 82a8 d93d
000003e0: cd54 413e 510c 963d 65a3 d5bd 2987 2a3e
000003f0: f654 f33d 1ecb 873d a241 1b3b c54e 1e3d
-0.292758 -0.08367379 0.19387014 0.14513266 0.12132654 -0.16985877 0.041184075 0.4996308
0.49405858 0.4087843 -0.026830656 0.1047568 0.3013336 0.49903625 0.517209 0.07241527
0.004098117 0.08282857 0.37387735 0.24398008 -0.035347775 -0.08151484 -0.1673905 -0.2466437
-0.31333426 0.07485687 -0.12635529 -0.4784305 -0.24569492 -0.17719488 0.38591027 0.07571453
-0.28171974 0.14093208 0.37578917 0.32402545 0.099318944 -0.11262173 0.08626935 0.28360263
-0.16420178 -0.003445459 -0.11064355 0.040480487 0.21174268 -0.10337787 0.012691144 -0.07189423
0.081146434 0.13412078 0.07472095 0.017347828 -0.24096942 -0.21388619 -0.039821737 0.15337563
0.1398659 -0.071243174 -0.10948006 0.079763785 -0.3887808 -0.1911879 -0.21384084 -0.05280043
0.25051475 -0.08326173 0.044486184 -0.17689209 -0.018390205 0.03655158 -0.032770187 0.040625393
-0.08051742 -0.089769386 0.01726161 -0.10822426 -0.50015 -0.22513917 -0.25300634 -0.15014014
-0.06357326 -0.06689413 0.22930796 -0.06652746 -0.06429801 -0.08444617 -0.097104535 0.36194226
0.051742576 -0.05997147 0.16405678 -0.03696994 0.21323939 0.28120375 -0.023604812 0.19984064
-0.04847569 -0.16638528 0.19907957 -0.08271855 0.38392517 0.27291137 0.28924468 0.49304178
0.11536731 0.2357714 -0.073945194 0.058762535 0.35457918 -0.011613428 -0.28694203 -0.5172354
-0.47673056 -0.11951637 -0.23171827 -0.58124554 -0.24340512 -0.1283996 -0.061827593 -0.006330094
-0.4500212 -0.08044065 0.02038961 -0.034682002 0.029642383 -0.02951557 -0.13560063 -0.1284145
0.049226522 -0.14951454 -0.0033365528 -0.050598204 0.029835401 -0.022811275 -0.3695369 -0.062165864
0.011146516 0.13482709 -0.082045026 -0.18552288 -0.18978208 -0.18952467 -0.083657615 0.0031599686
0.18118432 0.031180196 -0.27262723 -0.28259003 -0.043476917 0.23322904 0.073421136 -0.16991231
0.053883396 0.29739046 0.3524241 0.0036733102 -0.34091833 -0.09185816 -0.24333677 -0.2914728
0.26147664 -0.022946533 0.16199118 0.021866972 -0.13629575 0.05103854 -0.024721649 0.007163943
0.15946354 0.24535605 -0.37510806 -0.22127159 -0.3380766 -0.11593617 -0.08990584 -0.13908726
0.16846123 -0.058432385 -0.15393335 -0.059167176 -0.04712901 0.23145877 0.017555201 -0.29016337
-0.2141266 -0.18304941 0.100860015 -0.107566334 -0.13398081 -0.052165996 -0.20199886 -0.035261173
-0.14265457 0.10484015 0.04864012 0.04688982 0.14455844 0.11477892 0.373374 0.24468212
-0.23161621 -0.24597813 -0.00027306736 0.1303294 -0.049122177 -0.2658307 -0.14625761 0.30927745
0.61479586 0.07252757 -0.16570383 -0.30929434 -0.060713984 0.4846366 0.106783554 -0.05249699
0.13053194 -0.12518619 0.1305246 0.051131394 0.010622788 0.20543484 -0.08928263 0.053811017
-0.005595173 -0.06333054 0.09637386 -0.13500142 -0.15287909 0.09138653 -0.005813363 -0.118778564
-0.31436923 -0.029183261 0.36872542 0.030436544 -0.072791584 -0.17950933 0.2260999 0.35890353
0.076790206 0.05147416 -0.19203916 -0.0712177 -0.012613255 0.22039968 0.18024951 0.106278434
0.18880005 0.07326568 -0.10431556 0.16653122 0.118814394 0.066305384 0.0023690243 0.03864934

conv33.bias f4 [8]
00000000: 4be7 2c3d 9d41 553d 8dfb 123d 7ac4 28bc
00000010: d0b0 6d3d 9475 95bc 20ed 673c 25b7 1c3d
0.042212766 0.052064527 0.03588443 -0.01030075 0.05802995 -0.018244542 0.014155656 0.038260598

batch3.weight f4 [8]
00000000: 37ce 323f 558d 383f 8b99 223f 619d 223f
00000010: 5367 283f 12a6 3b3f ee6f 353f 1b9e 413f
0.6984591 0.72090656 0.6351554 0.6352139 0.6578266 0.7330028 0.70873916 0.75631875

batch3.bias f4 [8]
00000000: d487 15be ba04 02be 9990 3fbd 8b6c bcbd
00000010: 2007 e3bd 3ffa 52be ab1a e0bd d3a2 20be
-0.14602596 -0.12697116 -0.04676876 -0.092003904 -0.11085343 -0.20603274 -0.109425865 -0.15687113

batch3.running_mean f4 [8]
00000000: a66f 54c1 6fb9 60c0 625e 86c1 827a 0bc1
00000010: 2653 7cc1 1415 a0c1 9579 6cc0 ddf4 a6c1
-13.277258 -3.511318 -16.796085 -8.717409 -15.7703 -20.010292 -3.6949208 -20.869562

batch3.running_var f4 [8]
00000000: ddd4 1244 d0f4 f343 de53 f943 e087 0444
00000010: e579 ef43 4473 0844 3343 c443 f2c5 1f44
587.326 487.9126 498.6552 530.12305 478.9523 545.801 392.525 639.0929
