models/net_new_bs64_dr0_2_adam_augm/model_epoch_46.pt (torch, 763336 bytes, 28 tensors)

conv1.weight f4 [8, 3, 5, 5]
000000 47 01 dc 3d 2a 00 ac 3d dc ef 0b be bd 24 32 3e
       0.10742431 0.08398469 -0.13665718 0.17396827
000010 ca 82 d7 bc f4 60 ed 3d fd 70 51 bd 4e 9a 51 3e
       -0.026307482 0.11590758 -0.051133145 0.20469019
000020 24 83 e4 3e 12 1e 32 be b2 61 7e 3c c9 d4 17 bb
       0.44631302 -0.17394283 0.015526222 -0.0023167601
000030 50 98 57 3e c4 60 87 3e 1b 36 75 3d bf de 45 be
       0.21054196 0.26441014 0.059866052 -0.19323252
000040 99 c3 68 bd 40 80 1f be 00 fa d3 bd 66 af c4 3d
       -0.05682716 -0.15576267 -0.10350418 0.09603767
000050 de 3f 43 be b8 bc 6d be b8 41 7e be a6 4f 8e bb
       -0.19067332 -0.23216522 -0.24829757 -0.004342991
000060 9b 4d 1f bd a2 34 9a bd 86 c1 ed bd 24 f4 6b be
       -0.03889237 -0.0752957 -0.11609177 -0.23042351
000070 62 18 78 3d 47 0c f8 bd 53 0e 6e 3e ee da e8 bd
       0.06057013 -0.12111717 0.23247652 -0.113698825
000080 e2 c5 2c 3e ed 6a 7e 3e 6d b7 89 be 69 17 23 3e
       0.16872361 0.24845476 -0.26897755 0.15926899
000090 a6 1c 2b 3e 9f 6f 92 3e b8 9a 17 3e e8 12 57 be
       0.16710147 0.28600785 0.14805114 -0.21003306
0000a0 6d c2 e6 3d 59 5c 0f 3e ad 06 a4 3d de 55 70 3d
       0.112675525 0.14000072 0.08009086 0.05867564
0000b0 06 aa 4e 3d e6 e2 95 bb 62 30 bf 3d 68 0e 4f 3c
       0.050455116 -0.0045741675 0.093354 0.012637712
0000c0 f2 0c d5 3c d4 15 93 bd 48 c6 18 be b3 da 01 be
       0.02600715 -0.07181898 -0.14919388 -0.12681083
0000d0 d1 32 9c be 22 69 b5 3d c3 26 db 3d bb a5 f1 3d
       -0.3050752 0.08857943 0.107007526 0.11799189
0000e0 21 f3 93 bd 96 64 eb bd 87 7e 17 3e 44 50 89 be
       -0.072241075 -0.114937946 0.1479436 -0.2681905
0000f0 24 63 dd 3d bc a4 7d 3c c4 ff 19 3d 5a a4 db bd
       0.10809925 0.01548117 0.037597433 -0.10724707
000100 fa 1d 25 be e7 2e 10 3e 91 81 a0 3e 78 d4 ee bd
       -0.16124716 0.14080392 0.3134885 -0.11661619
000110 ff eb 82 be b5 29 0c be 54 c3 9b 3e 9c b0 63 3e
       -0.25570676 -0.13687785 0.3042246 0.2223534
000120 bf 94 28 3e 78 30 19 be 9b 02 07 be e0 d2 43 be
       0.16462992 -0.14959896 -0.13184588 -0.19123411
000130 12 df 32 be 60 67 93 3e 5d 7b c7 3e ba 7f 6f 3e
       -0.17467907 0.28789806 0.38961306 0.23388568
000140 4c be 81 be 01 8d 8f be c8 49 c4 3d 5d 1c d9 3e
       -0.25340497 -0.28037265 0.09584385 0.42404452
000150 37 66 14 3f bd b4 97 be be c4 67 be 9f 68 18 be
       0.5796847 -0.2963008 -0.22633645 -0.1488366
000160 01 59 44 3e 4e fd f6 3e f5 cc 17 be 71 36 c8 be
       0.19174577 0.4824013 -0.14824279 -0.39104035
000170 19 18 24 3e 17 c2 0c 3e f7 0e a1 bd 94 2a 06 be
       0.16024818 0.13745914 -0.078641824 -0.1310218
000180 9e 5c 13 be 23 f5 30 bd b0 5d 2d bd 34 99 d1 bd
       -0.143908 -0.04320253 -0.042325675 -0.10234299
000190 c3 30 2c 3e 81 b8 cd 3d bf 67 39 3d e8 c5 10 be
       0.16815476 0.10044957 0.045264956 -0.14137995
0001a0 08 c0 f8 bd 32 3f 36 3e c9 e1 a3 bd 78 57 ad be
       -0.12146002 0.17797545 -0.080020495 -0.33855796
0001b0 71 7e 99 be fc d6 95 bd 9a ba cc 3e 69 9d ca 3d
       -0.2997928 -0.07316396 0.39986116 0.09893305
0001c0 3a 03 2d be f0 a1 e9 be 22 3d 14 be 63 6d 87 3e
       -0.16895762 -0.4563136 -0.14476445 0.26450643
0001d0 d6 29 77 3d 4d ad d0 3d 46 ed 80 be 6e 04 ae be
       0.060342632 0.101893045 -0.25181025 -0.33987755
0001e0 c5 11 5d 3e cc d2 1d bd ce ef fe 3d 84 00 05 be
       0.2158881 -0.03853111 0.12448083 -0.12988478
0001f0 7a 7e f1 bd d5 cb 00 be 5b 45 08 be ac f9 d7 bd
       -0.117917016 -0.12577756 -0.13307707 -0.10545668
000200 79 95 94 bd d1 d1 60 be f5 dd cf 3d b3 cb 49 3c
       -0.07255072 -0.21955039 0.10149757 0.012316632
000210 c3 5b 85 be 29 32 96 bd 83 04 49 bc 60 98 6a 3d
       -0.2604657 -0.07333786 -0.012269142 0.057274222
000220 5e 34 6e 3d 7e 0a 73 bd 45 fe 91 bd c5 2f d8 3d
       0.05815541 -0.059336178 -0.07128576 0.10555986
000230 e0 b5 08 3e 10 c3 1a ba 6d 28 09 3f 79 bc bf ba
       0.1335063 -0.00059037004 0.5357731 -0.0014628313
000240 ed 9f 14 bd e6 85 53 3d c0 ce 3a 3d bb f7 b8 3e
       -0.03628533 0.051641367 0.04560733 0.36126503
000250 a6 b8 5e 3e 35 9a 15 3d ed 66 69 3d 07 11 84 be
       0.21750125 0.036524016 0.056982923 -0.2579424
000260 4a 45 3a 3d 0e 5c 0f 3d fe 97 2c 3d 5b c0 46 be
       0.045476235 0.0349999 0.04213714 -0.19409315
000270 d2 1d 77 bd 18 98 8a bd 3b c2 f7 3d 55 7b 3c 3d
       -0.060331173 -0.06767291 0.120975934 0.046016056
000280 77 3b de bd 28 ff c9 bc c4 06 38 be 9d 35 b5 bd
       -0.10851186 -0.0246578 -0.17971331 -0.088481165
000290 f3 51 9f 3e 97 64 88 be 63 f9 c7 be 2b da c5 3e
       0.3111721 -0.26639244 -0.39057454 0.3864301
0002a0 bb fb ed 3e 97 ae eb 3c ea b6 23 be 74 17 a5 be
       0.46481118 0.028769774 -0.15987745 -0.32244456
0002b0 b0 b5 62 3d c8 b6 a5 3d 18 dc e7 bc 9b fe a0 bd
       0.055349052 0.080915034 -0.028303191 -0.07861062
0002c0 1f 10 90 be 2f 92 f3 3d 51 4d 44 3e e9 e0 28 be
       -0.281373 0.11893117 0.19170119 -0.16492046
0002d0 43 f6 a1 bd 66 32 8d 3d 66 cf fc bc 61 fb b9 bb
       -0.07908299 0.06894378 -0.030860614 -0.0056757187
0002e0 3d c1 24 3e 35 8e 2e bd 5e b0 6c 3e d0 8f e8 bd
       0.1608934 -0.042616088 0.23114154 -0.11355555
0002f0 11 94 66 bd 1b 9d 8a 3e 2c 6f 2c be 17 9f 2a be
       -0.05629355 0.27072987 -0.16839284 -0.1666225
000300 c3 d5 08 3f 9d a8 15 3f 20 e0 9e 3d d3 e8 db bd
       0.53451174 0.5846041 0.07757592 -0.10737767
000310 8e 21 67 be 7f a0 8c 3d 81 90 12 3e 0e ef 0a 3d
       -0.22571394 0.0686655 0.14312936 0.033919387
000320 6a 20 5e 3e 15 7d 96 3d 05 04 8f 3e 3b 2d 15 3e
       0.21692052 0.07348076 0.27932754 0.14568035
000330 83 5a 6e 3d 5a 74 18 3e cb 0d f7 3d b6 7c 9e be
       0.058191787 0.14888135 0.12063178 -0.30954522
000340 7f 1d b7 be f4 04 95 bd 5c c3 e2 3e f7 ec d9 3e
       -0.3576469 -0.07276335 0.44289672 0.42563602
000350 60 2d 1f bf 5c 5a 4c bf 39 a3 57 be 75 41 00 3f
       -0.6217861 -0.7982538 -0.21058358 0.5009988
000360 f9 bb f1 3d b4 b4 dd 3c ba a7 15 be f7 1c cd be
       0.11803431 0.027063705 -0.14614764 -0.4006116
000370 2e cf ae 3e d3 cc ee 3d 87 51 0c be 08 4f 8f be
       0.3414244 0.11660161 -0.13702975 -0.27989984
000380 27 05 b5 be 89 b5 09 3e a0 c8 30 3e 6a 3d 09 3e
       -0.35355493 0.13448156 0.17264032 0.13402334
000390 ff 9b 7b bd 2c 23 ad bd 1d 12 b9 3d f0 74 86 3e
       -0.061428066 -0.08453974 0.09036658 0.2626109
0003a0 04 b8 8c 3e 35 4b b1 3d 16 9c bf 3b e8 30 83 3e
       0.27484143 0.08656923 0.0058474643 0.2562325
0003b0 58 ff fc 3d 97 75 23 bd db da a4 be 63 a6 71 be
       0.123533905 -0.039907064 -0.32198223 -0.23598628
0003c0 6f 1e e5 3d 1e 62 57 be 72 ea 84 be ed 10 d9 be
       0.11187445 -0.21033522 -0.25960118 -0.42395726
0003d0 85 96 36 be a6 fa bd bd d2 f7 35 be e9 52 0c bd
       -0.17830856 -0.09276323 -0.17770317 -0.034258757
0003e0 b2 b4 dd bd 4b ec f4 3d 8e 93 10 be 3b 23 4b be
       -0.108254805 0.11959132 -0.14118788 -0.19837658
0003f0 c7 60 54 bd ba bd 98 bd cf 5a a4 bd 2c 1d 9f bd
       -0.051850107 -0.074580625 -0.08025133 -0.07769236

conv1.bias f4 [8]
000000 0f 72 cc be 3f 5c 6a 3e 8a 19 41 3e e9 76 0a 3e
       -0.3993077 0.22886752 0.18857399 0.13521923
000010 46 03 87 bd 09 3c 93 bb 81 21 02 bf 6a b1 27 be
       -0.06592421 -0.0044932407 -0.5083237 -0.16376272

conv11.weight f4 [32, 8, 5, 5]
000000 ce 2e 8a bd 72 d8 03 bd e2 df c5 3d f2 12 6a 3c
       -0.067472085 -0.03218884 0.09661843 0.0142867435
000010 8e 81 d8 bd b8 9e 8e 3d e5 33 17 bd 3d 16 1d 3d
       -0.105715856 0.06963867 -0.036914725 0.038351286
000020 77 d0 d5 3c 78 d5 42 be 82 e3 5c 3d cc b2 bf 3c
       0.02610038 -0.19026744 0.053927906 0.023400687
000030 8e b9 9a bd ed ea 5d bd c7 57 10 be 76 75 41 3e
       -0.07554923 -0.05417912 -0.14095984 0.18892464
000040 72 1d 24 be 1e 5f 88 be 40 83 20 bd bd 52 20 bc
       -0.16026857 -0.2663507 -0.03918767 -0.009785351
000050 cc 0b c3 bd 38 cd bc be 29 0d c5 bd 84 0e 5e 3e
       -0.095237345 -0.3687532 -0.09621651 0.21685225
000060 9d 24 00 3e 0a 4c e3 3e f6 0c ae 3e f9 7b 53 bc
       0.12513967 0.4439395 0.33994263 -0.012907975
000070 84 89 97 bd b9 d1 b6 be 16 ca ee 3e 3a 6a 21 3e
       -0.07399276 -0.3570688 0.46638554 0.15763178
000080 61 bb 9c be 27 42 82 be fe a2 25 bd 4a 5b cf 3e
       -0.3061171 -0.25441095 -0.040438645 0.40499336
000090 4b e1 60 be 7c fb bc be 5c 76 46 bd 25 02 ac 3d
       -0.21960942 -0.36910617 -0.04845272 0.083988465
0000a0 d9 46 12 be a7 05 8a be ae 23 17 bd 53 79 bd bd
       -0.14284839 -0.26957437 -0.03689926 -0.092516564
0000b0 bc dd 6d 3e be 28 78 be 8e b7 68 bd 9b 64 3e bd
       0.23229116 -0.24234292 -0.056815676 -0.046482664
0000c0 53 0c 2f bc 2a 1f 30 3e 4d 03 82 be 2a 73 60 bc
       -0.010684091 0.17199388 -0.25393143 -0.013699332
0000d0 f3 6e 2a be 9e f9 52 3d 6e ba b9 3c a8 bf 8d bc
       -0.16643886 0.051507585 0.022671904 -0.017303303
0000e0 5a e4 43 be 0e d2 91 be 03 2b 2c 3e dd aa 8a 3e
       -0.19130078 -0.28480572 0.16813283 0.27083483
0000f0 d8 b2 18 be ba 01 e9 be 43 ae a5 3c 0b 71 b1 3e
       -0.14911973 -0.4550913 0.020224696 0.34656557
000100 bb fb 84 3d a7 72 41 be 61 cb 74 3e aa 3d 19 3f
       0.06493326 -0.18891393 0.23905708 0.59859717
000110 53 51 15 3d 22 73 8b 3c 59 85 7b 3d 1c 88 8f 3e
       0.03645451 0.017022673 0.061406467 0.2803353
000120 62 aa 84 3d c2 be f8 3c b5 69 2e 3e ba b6 80 bd
       0.064778104 0.030364398 0.17032512 -0.06284852
000130 8a 65 90 be 10 4d 39 be 57 46 5f 3d 5c 23 86 3e
       -0.28202468 -0.18095803 0.05451044 0.26198852
000140 2e 93 73 be 26 9f 74 be 45 a9 3b bd 8a 53 ae 3e
       -0.23786613 -0.23888835 -0.045815725 0.3404811
000150 ca 25 2e 3e 33 71 ae bc 6f 9d 3b 3d 9a b4 2b 3e
       0.17006603 -0.021294212 0.045804437 0.16768113
000160 b8 88 2b 3e 0c 70 9b 3c 37 8b 2e 3e 7b c7 41 3e
       0.16751373 0.018974327 0.17045294 0.18923752
000170 cf 53 ed 3c 97 4e f7 bd 48 55 af bd ad 41 2e 3e
       0.028970627 -0.12075537 -0.08561188 0.17017241
000180 97 ee c6 3d 17 6c 6a bd d9 28 a3 3c d5 9c d9 3d
       0.09713476 -0.05723199 0.019916939 0.106256165
000190 e2 9b 0f be 33 97 fe 3c b9 f4 8e 3d 8d d8 40 bc
       -0.14024308 0.031077957 0.06980271 -0.01177038
0001a0 c6 8b e2 bc 93 a4 08 3c f7 c4 3a 3e df 0d 41 3e
       -0.02765454 0.008340019 0.18239199 0.18852948
0001b0 9b 88 ad bc 62 84 40 3d ba 95 13 3e a8 30 fc bc
       -0.021183303 0.04700125 0.14412585 -0.03078492
0001c0 c3 c9 fc bc c8 63 21 3d fd 98 37 3e 1c 2c 0f 3e
       -0.030857926 0.0394018 0.17929454 0.1398167
0001d0 91 57 03 be 79 ab ca 3d f9 8e a6 3d b6 6a f7 bd
       -0.12826373 0.09895987 0.081327386 -0.120809
0001e0 37 d9 57 3d 11 c5 98 3d 7a 17 2b 3e 26 4d 3a be
       0.052697387 0.074594624 0.16708174 -0.18193492
0001f0 e9 80 94 be 0f fd 0b be cd b9 13 be a2 91 49 be
       -0.290046 -0.13670753 -0.14426346 -0.19684461
000200 7d 49 f2 bc ff 1f 2b 3e 17 bc 97 be c2 08 51 be
       -0.029576058 0.16711424 -0.2963569 -0.20413497
000210 a2 19 6e be 61 4d 70 3e b8 44 e6 3e b7 1d 5f bd
       -0.23251966 0.23467018 0.44974303 -0.054471698
000220 cd 03 d0 bd 39 bc f7 3c 16 26 27 3f 9b a0 b7 3e
       -0.10156975 0.030241119 0.6529249 0.3586472
000230 81 37 45 be ab d4 c0 3d 66 fa bd 3e eb 88 f7 3e
       -0.19259454 0.09415563 0.371051 0.48346648
000240 83 5a 6c be 0a a6 73 bb 72 09 f8 3e ab 42 5c 3e
       -0.23081402 -0.0037177824 0.48444706 0.21509807
000250 bf df 8d be ff e2 1e bf f1 16 0c 3e 43 2e 0b 3e
       -0.27709767 -0.6206512 0.13680626 0.13591866
000260 b2 e0 b8 bd a7 2b 90 be 5e 0e 77 bd 78 f5 73 bc
       -0.09027232 -0.28158304 -0.060316436 -0.014890067
000270 4b 83 5f be 94 1c 0d be 39 42 1c be 5f 4b 2c 3e
       -0.21827428 -0.13780433 -0.15259637 0.16825627
000280 9e 01 a9 be af 7b 83 be 64 d8 96 bd 46 e1 03 3e
       -0.33009046 -0.256803 -0.07365492 0.12878904
000290 25 90 aa 3e 84 89 d9 be aa 06 66 be 2a 28 1e bc
       0.333131 -0.4248773 -0.2246348 -0.009653131
0002a0 e9 a7 29 3e 6a ed 8b 3e d6 15 86 bd a8 71 31 3d
       0.16567959 0.2732957 -0.065471336 0.04332128
0002b0 30 55 6f 3e 86 ca 9f 3e 3a df 11 3e 2c 8e 2c 3d
       0.2337234 0.312092 0.1424531 0.042127773
0002c0 4e a0 dd 3c 4b 2f 25 be 3a 4b 13 be 31 f0 a2 bd
       0.027053978 -0.16131322 -0.14384165 -0.07955969
0002d0 33 e4 34 bc d3 da fe 3d bc 65 d2 bc 45 ec 3d bd
       -0.011040735 0.12444081 -0.025683276 -0.046367902
0002e0 12 3f 51 bd ff 51 92 be 68 7a 0b 3e 28 e0 60 bd
       -0.05108554 -0.28578183 0.13620913 -0.054901272
0002f0 3e 73 34 be e4 1e 9c bd d2 43 b2 bd 7b f0 7f 3e
       -0.17622086 -0.076230794 -0.08704342 0.2499408
000300 65 56 f8 bd 92 e5 d5 bd 00 01 2e 3d 48 53 58 be
       -0.121258534 -0.10444178 0.042481422 -0.2112552
000310 06 d9 77 bc 8e 20 df bd 5a aa 5a 3d fd ab 4c 3e
       -0.015127426 -0.10894881 0.053385116 0.19987483
000320 35 11 14 3f 66 16 bd 3d f6 96 6d bd c5 cb 08 be
       0.57838756 0.09232788 -0.058005296 -0.13358982
000330 b7 c7 90 3e fe 73 16 3f 88 62 31 3e 53 cf 1d be
       0.2827737 0.5877074 0.17322743 -0.15411119
000340 eb 32 0c be 52 a3 66 3e 2e 87 d0 3e ca bb 0f 3e
       -0.13691299 0.2252324 0.40728134 0.1403648
000350 c7 08 68 bd 1d 3e a0 bc 5f 87 31 3e de fa a1 3e
       -0.056648996 -0.019560868 0.17336796 0.3163671
000360 d4 f9 02 3e 5c ce 59 3d e0 5b 1a 3e 8a 27 d1 3e
       0.12790614 0.053175315 0.1507411 0.40850478
000370 70 5f af 3e de ab 39 3d 07 71 b7 3c f4 19 72 39
       0.342525 0.04532992 0.022392763 0.00023088587
000380 4c c1 35 3e ae 57 45 be d1 3f 51 be 2f 8e 15 be
       0.17749518 -0.19271728 -0.204345 -0.1460502
000390 06 00 f4 bd bc b6 b1 3d cd 43 d8 3d 4c c2 d0 3c
       -0.11914067 0.08677432 0.10559807 0.025483273
0003a0 12 cd cf 3b a8 61 49 be 73 a5 01 be 4f 83 94 bd
       0.006341585 -0.19666159 -0.1266077 -0.072516076
0003b0 61 49 e6 bc 84 be 9b bd 8b 07 60 be ac be 94 be
       -0.028111162 -0.07604697 -0.21877877 -0.2905172
0003c0 8b 6b 79 3c 66 1d 77 3e 0f cb 93 3e 76 df 56 3d
       0.015223394 0.24132308 0.2886586 0.052459203
0003d0 1d 68 31 be a5 e7 dc be 33 0f 3e be cc d3 fe 3d
       -0.17324872 -0.4314548 -0.18560486 0.12442741
0003e0 f8 0a 09 3e 04 99 0b bc d4 ce 54 be 63 f7 d4 bd
       0.1338309 -0.0085203685 -0.20782024 -0.10398748
0003f0 c0 0d e9 bb 0f b3 fd bc 08 62 b6 3d 19 fc 32 bb
       -0.007112235 -0.03096917 0.08905417 -0.0027310906

conv11.bias f4 [32]
000000 97 8c d9 bb f9 2d 22 3c c2 c4 ca 3c ab 2e 01 bc
       -0.006639074 0.009898656 0.024752025 -0.007884662
000010 06 cd e3 bd fb 07 b5 3b a5 ad de 3d a5 38 11 3c
       -0.111230895 0.005524633 0.10872964 0.008863603
000020 ce 81 2a 3e c3 72 e5 3d f2 a6 1b 3e 69 58 27 3d
       0.16651079 0.1120353 0.15200403 0.0408558
000030 e6 5c 18 3d b8 72 8b 3c f1 94 a5 bd ce 3a 1f bd
       0.03719797 0.017022476 -0.08085049 -0.03887444
000040 d7 70 18 be 3f ab 71 bc 3b 74 e9 bc 42 59 59 bd
       -0.14886795 -0.014750301 -0.028497806 -0.05306364
000050 58 4e 9a 3d b4 28 99 bd 60 f3 5e 3c 7d a2 48 3d
       0.07534474 -0.07478467 0.01360783 0.048983086
000060 58 f4 81 3c 7f b7 38 bd 71 72 97 bc 31 8a 30 be
       0.015863582 -0.04509687 -0.018487187 -0.17240216
000070 9a 80 ca bd c2 57 22 3e 0d c0 7e 3c 8e db 81 3d
       -0.0988781 0.1585379 0.015548718 0.06340705

batch1.weight f4 [32]
000000 b3 02 6d 3f 5e d6 7d 3f 68 d1 7f 3f 18 92 8e 3f
       0.92582244 0.99155223 0.99928904 1.1138334
000010 2e 2e 6b 3f 17 50 6b 3f 4c 99 88 3f ab 01 87 3f
       0.9186734 0.9191908 1.0671782 1.0547384
000020 04 48 4e 3f 97 8c 53 3f 75 72 64 3f 38 67 99 3f
       0.8057864 0.826364 0.8923715 1.1984625
000030 e2 58 58 3f 2f 6d 83 3f 5e 2c 65 3f a1 de 86 3f
       0.84510624 1.0267695 0.89520824 1.0536691
000040 92 61 67 3f 73 78 73 3f dc 4b 80 3f e6 33 81 3f
       0.90383255 0.95105666 1.002315 1.0093963
000050 ba 4f 84 3f 03 41 79 3f d2 3d 7d 3f c6 08 82 3f
       1.0336831 0.97364825 0.98922455 1.0158927
000060 45 d4 86 3f 85 4f 6e 3f ba 6c 8d 3f 85 a7 78 3f
       1.053353 0.9309009 1.1048806 0.97130615
000070 6a d1 86 3f d1 a3 87 3f ac e1 6a 3f a0 36 60 3f
       1.0532658 1.0596868 0.917506 0.8758335

batch1.bias f4 [32]
000000 ee 07 c9 be 08 a0 75 be 61 78 67 be cf 29 6e be
       -0.39263862 -0.23986828 -0.22604515 -0.23258136
000010 e1 9f 8e bf ff 50 b4 be a8 3e ea bd 41 90 80 be
       -1.1142541 -0.35218045 -0.11437732 -0.25110057
000020 fc cc b4 bd e7 c1 aa be b6 cb b4 be f3 d7 83 be
       -0.0882816 -0.3335106 -0.3531167 -0.25750694
000030 2c 55 bc be 0b a9 6e be b6 b6 f4 be 02 9b be be
       -0.3678373 -0.23306672 -0.47795647 -0.37227637
000040 32 9d b9 be 53 42 87 be b2 7e a4 be 54 bb b6 be
       -0.36252743 -0.2641779 -0.3212791 -0.35689795
000050 18 dd d4 be b0 2d 59 be d6 a5 95 be e5 0f c8 be
       -0.4157493 -0.21208835 -0.29228085 -0.39074627
000060 20 16 81 be 7a 35 41 be 7e 5c 97 be b2 b5 86 be
       -0.25212193 -0.18868056 -0.29562753 -0.26310498
000070 51 9f 46 be 88 f1 95 be 70 e0 b2 be dd bd 21 be
       -0.19396712 -0.29285836 -0.34936857 -0.15795083

batch1.running_mean f4 [32]
000000 0d ee a5 bc d2 26 ba be 4b 47 2f be 60 41 7b be
       -0.020255113 -0.36357743 -0.1711704 -0.24536657
000010 ec ea c2 3e 85 44 af bd 7e d7 4d 3e 75 73 3a bf
       0.38069856 -0.08557991 0.20101735 -0.72832423
000020 2e c5 d1 3f 42 d1 f3 be b3 e2 74 3f 62 6e 3a 3d
       1.63883 -0.4762059 0.95658416 0.045515426
000030 62 8e db 3f dd b2 07 3f 51 c9 9f bd a6 6a f4 bf
       1.7152827 0.530073 -0.0780207 -1.9095047
000040 97 05 8d 3d 68 cb ce 3e 8f b3 86 be c2 8a c6 3f
       0.06885832 0.40389562 -0.26308867 1.5511096
000050 52 b6 1a 3f 78 4a 96 be 75 6c 3b bc e1 14 d4 3f
       0.6043445 -0.2935369 -0.011439432 1.6568872
000060 0c c9 67 b9 2a 59 36 3f 52 98 29 be 96 c9 bc bc
       -0.00022104773 0.71229804 -0.16562012 -0.023045342
000070 55 24 fb be 46 2c 3d be 4b ab a9 bf 99 d5 20 3b
       -0.49051157 -0.1847392 -1.32554 0.0024541377

batch1.running_var f4 [32]
000000 08 64 d9 3f 8a f8 56 40 c3 30 95 3f 40 79 f2 3f
       1.6983652 3.3589196 1.1655506 1.8943253
000010 5f 74 86 3f a2 d0 2e 40 46 97 45 3f b8 ac eb 3f
       1.0504264 2.731484 0.7718395 1.8412085
000020 82 ff 87 40 ba 2a a9 3f 33 27 e1 3f 34 c1 f1 3f
       4.24994 1.3216164 1.7590088 1.8887086
000030 2e 3a 32 40 54 ff df 3f ef f2 0e 40 a1 6e 6b 40
       2.784801 1.7499795 2.2335775 3.6786273
000040 04 9c 90 3f e2 ca 84 3f 40 0a a1 40 05 db 39 40
       1.1297612 1.0374415 5.032501 2.903993
000050 81 fa 9e 3f ad fc 77 3f 0c 82 71 3f 38 01 3d 40
       1.2420198 0.9686993 0.9433906 2.9531994
000060 0b 30 90 40 af a4 39 40 44 e0 60 40 6a d5 a8 3f
       4.5058646 2.9006765 3.513688 1.3190129
000070 3d e0 ee 3f 6f a3 0f 40 15 bb 71 40 ff 88 a5 3f
       1.8662182 2.2443502 3.7770436 1.2932433

conv2.weight f4 [64, 32, 5, 5]
000000 82 c9 31 be fc b9 9f be 6a f7 81 be 23 4c b5 be
       -0.17362025 -0.31196582 -0.25384074 -0.3540965
000010 85 1c 99 be e7 1f 4d be 3e 15 45 be e5 a8 ca be
       -0.2990457 -0.20031701 -0.19246385 -0.3958198
000020 e7 2b ef be 5e 07 8e be 4b e7 8a be 28 f7 79 be
       -0.46713182 -0.27739996 -0.27129588 -0.24410689
000030 3d 4a 00 bf a0 86 02 bf f0 df 80 be 4c 8b 02 3c
       -0.5011328 -0.5098667 -0.2517085 0.007967781
000040 d3 db 93 3c 82 f6 87 be b5 ab 77 be 49 7d 33 be
       0.018049156 -0.26555258 -0.24186595 -0.17528261
000050 82 f1 cc bd 3a 3d 0e bd 13 f5 39 be c5 f9 82 be
       -0.100070015 -0.03472636 -0.18159895 -0.25581184
000060 7b b8 7e be 8d 90 01 be 88 d8 82 bd 47 b7 36 3e
       -0.24875061 -0.12652798 -0.06388956 0.17843352
000070 aa 7f c1 3e e3 75 3e 3e c6 9b 93 bd 1a d2 c5 bd
       0.37792712 0.18599658 -0.07207446 -0.09659214
000080 18 d7 1d 3e ad af c3 3e 32 61 98 3e 0e e0 07 3e
       0.15414083 0.38219967 0.29761654 0.13269064
000090 b7 fe 7f 3c c2 5b 26 3e ec 16 a5 3e 22 9f 5c 3e
       0.015624694 0.1624594 0.3224405 0.2154508
0000a0 a8 21 7a 3e d8 8b f4 3d a3 fc 3e 3e da 8c ae 3e
       0.24426901 0.119407356 0.18651061 0.34091836
0000b0 d9 f6 d0 3d 65 ee 89 3e 56 be 2b 3e 61 54 72 3e
       0.102033325 0.26939693 0.16771826 0.23665
0000c0 95 e0 7a 3e 0b 0a f2 3c a8 82 d7 3e ed 8b 95 3e
       0.24499734 0.029545804 0.4209187 0.29208317
0000d0 b1 6c 64 3d 90 51 2f be 76 98 e7 be 34 d9 cd 3e
       0.05576772 -0.17120957 -0.45233506 0.40204775
0000e0 a7 84 fb 3e d6 6e a5 3e c3 ac c6 bc 74 5a 39 be
       0.49124643 0.32311124 -0.024252301 -0.18100911
0000f0 94 bd 84 3e 4a a8 73 3e 76 8f c3 bc 6c de 90 be
       0.25925887 0.23794666 -0.023872118 -0.28294694
000100 a3 47 81 be b6 f3 ce 3e 71 78 d6 3e 32 ce db 3e
       -0.25249967 0.40420312 0.41888765 0.42930752
000110 dc 6e 03 3e d7 ca 3f 3e 1a db fe 3e f7 7a b7 3e
       0.12835258 0.18729721 0.49776536 0.35836002
000120 56 e0 85 3e aa 92 f1 3d a3 ad 6f 3e 3b d0 6b 3e
       0.26147717 0.11795552 0.23406081 0.23028652
000130 17 b8 02 bc b6 76 00 be 30 db 96 bd 60 e2 44 3c
       -0.007978461 -0.12545285 -0.073660254 0.012016863
000140 1a b8 11 3f db d8 70 3e 28 c1 40 bd 97 d0 17 be
       0.5692154 0.23520224 -0.04705921 -0.14825664
000150 59 b1 1e 3d d5 02 82 3e a0 ce cf bd 2f 86 d1 be
       0.03874335 0.25392786 -0.101468325 -0.40922686
000160 1f c4 a5 be 62 81 bf bd e3 19 06 3f 42 5a 7f 3e
       -0.3237619 -0.0935085 0.5238325 0.24936774
000170 96 eb 19 bd b0 0d 94 3a b6 dd 9c 3d 34 6d 1d 3f
       -0.037578188 0.0011295583 0.076594755 0.61494756
000180 45 31 c2 3e 85 43 87 3d 48 9c 8d bc 8f d0 f9 ba
       0.37928215 0.06604675 -0.017286435 -0.0019059348
000190 a5 06 ce be 1b 80 1b be 6b 0c 1f 3d 67 a2 d6 3d
       -0.40239444 -0.15185587 0.038830202 0.104801945
0001a0 0b 4a b0 3d 7d 61 92 be d5 33 a0 bc c3 3d 75 3e
       0.086078726 -0.28590003 -0.019555965 0.23949341
0001b0 f9 58 ce 3e 1d a0 f0 3e 2f 87 01 bf 13 83 76 be
       0.40302256 0.46997157 -0.505969 -0.24073438
0001c0 97 cd a4 3d 86 2e af 3e a6 6e cf 3e 71 b3 f4 be
       0.08047026 0.34215182 0.40514106 -0.47793153
0001d0 6e 4a 83 be 55 18 72 3d 00 ad 92 3e a1 ed ba 3e
       -0.25642723 0.059105236 0.28647614 0.3650942
0001e0 88 16 d7 be ce 14 4a be c8 21 8f 3d 5e aa 9a 3e
       -0.42009377 -0.19734499 0.06988865 0.30208105
0001f0 2b 15 ce 3e fd 27 b4 bb e2 17 78 3d 1d d9 02 3e
       0.40250525 -0.005497931 0.06056965 0.12778135
000200 f5 74 04 3d 96 f7 98 3d 66 77 b8 be b1 03 2c be
       0.0323381 0.07469098 -0.36028594 -0.16798283
000210 b0 ce 34 be 2f 26 59 be 53 db 20 be d5 be 82 be
       -0.1765697 -0.21205972 -0.15708666 -0.25536218
000220 46 27 8c be 57 c8 85 be c3 79 b0 be 9d 3c 00 be
       -0.27373713 -0.2612941 -0.34467897 -0.12523122
000230 64 5a 25 3d a1 19 31 bc ed 2a 1c bd 14 f0 d6 bd
       0.040369406 -0.010809333 -0.038126875 -0.1049501
000240 31 13 f2 bd f3 96 49 3e a7 90 0c 3e 8c 9c 13 3e
       -0.11820067 0.19686489 0.13727055 0.14415187
000250 a5 40 cf 3b 0c e2 82 bd 9b 56 22 be ac 72 e8 3e
       0.006324845 -0.06390771 -0.1585335 0.45399988
000260 1e 22 4d 3f cb fd 44 3f bb ce 27 3f 06 ee 27 be
       0.80130184 0.7694976 0.6554982 -0.16399392
000270 4b 6d 85 3e d7 a6 2b 3f d4 d3 39 3f 7a 38 37 3f
       0.26059946 0.6705145 0.7258885 0.7157055
000280 29 4b 21 bf 8e 59 ba be 52 14 11 bd 96 6d 8e 3e
       -0.6300531 -0.3639645 -0.03541977 0.27817982
000290 ac e4 cd 3e 80 d8 67 bf 8c 47 67 bf 2c e9 0e bf
       0.40213525 -0.9056473 -0.90343547 -0.5582454
0002a0 bf 21 58 be 4e 27 78 bc fd 4f 47 bf 92 75 6e bf
       -0.21106623 -0.01514609 -0.7785643 -0.9314815
0002b0 6a 2e 38 bf e4 0c ff be 31 67 8b be d5 12 82 3e
       -0.7194582 -0.49814522 -0.27227166 0.25404993
0002c0 fe 65 27 3e d2 44 26 bc d4 f8 2f bd 8b 8f 4a 3d
       0.163475 -0.010148244 -0.04296191 0.0494533
0002d0 86 74 16 3d 72 7c 85 3d 51 a0 aa bb da c4 0b be
       0.03673222 0.06517877 -0.0052070995 -0.13649312
0002e0 c8 3b 44 bc 92 53 89 3c c9 40 85 bd e3 4b da bd
       -0.011977144 0.016763482 -0.065064974 -0.106590055
0002f0 64 75 62 be 04 cd c5 bd 15 e3 8f bd e8 95 9e bd
       -0.22115093 -0.09658244 -0.07025734 -0.07743436
000300 fc 85 41 bd 15 86 d2 bd a5 4c f6 bd 64 ee 44 bd
       -0.047246918 -0.1027948 -0.120263375 -0.04807891
000310 51 27 d5 bd 18 96 2c bd 45 9e 14 be 01 5c 87 be
       -0.1040789 -0.042135328 -0.145135 -0.2643738
000320 f2 5b dd be 5b 91 8a be b7 bb 65 be 93 04 b4 bc
       -0.4323421 -0.27064022 -0.22434889 -0.021974837
000330 d6 09 17 3e 60 64 02 bf fb 22 40 be 5e b7 e8 bc
       0.14749846 -0.5093441 -0.18763344 -0.028407749
000340 09 d5 40 3e d1 ec 98 3e c1 78 e9 be c0 32 62 be
       0.18831266 0.29868177 -0.4559994 -0.22089672
000350 1c ef fb 3c 26 91 98 3e c8 af cb 3e a3 62 aa be
       0.030753665 0.2979824 0.39782548 -0.3327838
000360 8e 0f 13 be 4b 26 4a 3d 44 e5 97 3e ef a3 d1 3e
       -0.14361402 0.049352925 0.29667103 0.40945384
000370 e3 47 60 be bb 81 9a bd 37 78 36 3e a9 40 b7 3e
       -0.21902423 -0.075442754 0.17819296 0.3579152
000380 d1 de de 3e c8 66 6a be 2c 9f e0 bd 72 e0 2f be
       0.4352937 -0.2289077 -0.109678596 -0.17175463
000390 05 82 78 be 47 db 04 be 25 dc 38 be 8d a6 c5 3c
       -0.24268349 -0.12974273 -0.18052728 0.02412727
0003a0 96 52 ca 3c b7 15 ac bd 72 36 64 3c bd 73 5e be
       0.024697583 -0.08402579 0.013928996 -0.21723838
0003b0 e0 10 43 bb 74 21 46 3d 63 41 1e 3c 35 b1 50 3e
       -0.0029764697 0.048371747 0.009659144 0.20380099
0003c0 53 bb 90 be cc a2 16 be 6e 0a 91 3d 44 ce e4 3d
       -0.28267917 -0.1471054 0.070820674 0.111721545
0003d0 db 45 b6 3e 61 0d 4a be 98 58 ea bd 91 cd 9c 3c
       0.3560017 -0.19731666 -0.11442679 0.01914099
0003e0 ba 29 05 3e 2f 00 ad 3e c0 3d 37 be 99 de a8 bd
       0.13004199 0.33789203 -0.1789465 -0.08245582
0003f0 b9 74 d2 3d 14 bc 4e 3e 2d d0 5d 3e 5a d0 2b 3c
       0.10276169 0.20188934 0.21661444 0.010486687

conv2.bias f4 [64]
000000 95 bd bd 3d 5c 49 42 bf 65 20 9f be c1 7d fe 3d
       0.092646755 -0.7589319 -0.31079403 0.124263294
000010 48 70 95 3e 6c de f0 be 53 8e bb be e8 a5 c2 be
       0.29187226 -0.47044694 -0.36632022 -0.380172
000020 9d cb f7 3e 0d 3a 0a 3f 75 86 a6 3e ff bb 21 3e
       0.48397532 0.5399483 0.32524458 0.15794371
000030 0d 89 d4 3e 95 7e 0b 3f 22 5b 39 3f 71 c9 a8 be
       0.4151081 0.54490024 0.7240468 -0.32966188
000040 f0 87 09 bf 3d 75 f5 3d ed 20 19 bf 76 f0 7f be
       -0.5372305 0.11985252 -0.59815866 -0.24994072
000050 af 7d bc bc 7f ca e3 be df 4a 51 be 0d f0 06 bf
       -0.02300915 -0.4449043 -0.20438717 -0.5271004
000060 be ff eb 3d 50 4d f5 3e 1c fc 14 bf 20 e7 8c be
       0.11523388 0.47910547 -0.5819719 -0.27520084
000070 44 e7 cc 3e e6 dc 2e 3d 3f 92 8f 3d 76 4a 32 bd
       0.40020192 0.042691134 0.07010316 -0.043528043
000080 e8 d1 13 bf 77 61 9d bd 65 e6 44 bf ca 4f 65 be
       -0.57742167 -0.076846056 -0.76914054 -0.22393718
000090 43 f4 b2 be dc 28 9a 3e 3d 9a 05 be b1 da a1 be
       -0.34951982 0.30109298 -0.13047118 -0.3161216
0000a0 91 3f e8 be 99 46 c3 bd 9f 37 9a be fc 7c b1 3d
       -0.45360997 -0.0953495 -0.3012056 0.08666417
0000b0 22 ff 9e 3e 64 d6 a0 3e ba 18 c2 3e 97 8d ad 3d
       0.31054026 0.31413567 0.3790949 0.08474272
0000c0 27 76 1c 3e 0a b8 6f be 0f c1 85 3e 53 b1 0e be
       0.15279447 -0.23410049 0.26123855 -0.13934831
0000d0 a8 4f c7 3e 16 0d 01 bf 94 73 03 3e a9 10 61 3c
       0.3892796 -0.5041059 0.12837058 0.013736882
0000e0 65 78 15 3f 49 cf 86 be 71 58 2d 3e 8e d8 60 3e
       0.5838683 -0.2633002 0.16928269 0.21957609
0000f0 67 72 73 bd 30 ec 1e 3e 7e b9 34 be f6 26 9e be
       -0.059435274 0.15519786 -0.17648885 -0.308891

conv22.weight f4 [32, 64, 5, 5]
000000 e0 93 17 3d aa c8 bd 3d db 99 10 3e 38 1e 98 bc
       0.03700626 0.09266789 0.14121191 -0.018569097
000010 ef 03 fc bd 3a cd 67 3e c4 72 29 3e 48 73 2a 3e
       -0.12305438 0.22636881 0.16547686 0.16645539
000020 03 60 91 bc e1 2e 35 be fb 99 81 3e 95 3a b7 3e
       -0.017745977 -0.17693664 0.2531279 0.35786882
000030 fb 5f ca 3e 6d 48 28 3e dc a8 96 bd fe a9 b2 3d
       0.39526352 0.16433878 -0.07356426 0.0872383
000040 b1 d2 94 3e 4b cf e6 3e 36 a5 85 3e db e8 03 be
       0.29066995 0.45080027 0.26102608 -0.12881796
000050 4d 83 d2 be 39 a6 c7 be d1 66 5f be c3 79 68 be
       -0.411158 -0.38994005 -0.21816565 -0.22702698
000060 6e 77 9c be 5a 68 cc 3d 6b f6 84 3d 45 2a 16 3e
       -0.30559868 0.09980841 0.06492313 0.14664562
000070 0f 36 2d 3e a9 86 ca 3c 1a ef 30 3e 43 35 38 3e
       0.16915153 0.024722414 0.1727871 0.17989068
000080 3e ad 9c 3e c2 5b d1 3e ce dd 8d 3e bc dd 01 be
       0.30600923 0.40890318 0.27708286 -0.12682241
000090 23 ba 5d be a9 b8 29 be 11 34 9e 3c ee 7f ea bc
       -0.21653037 -0.16574349 0.019311937 -0.028625455
0000a0 13 ac a3 be a9 c3 d3 be 22 09 f0 be e2 f4 be be
       -0.3196722 -0.41360214 -0.46881968 -0.37296206
0000b0 f0 0c b9 be ea 8e 00 be 66 29 2c be 22 a5 42 be
       -0.36142683 -0.12554517 -0.16812667 -0.19008306
0000c0 a0 b5 31 be 8b 40 13 be f3 4d db bd d5 85 d0 bd
       -0.1735444 -0.1438009 -0.10708227 -0.101817764
0000d0 ae e7 10 be 05 a9 c2 3d ba 64 51 3d c1 a8 a7 bd
       -0.14150879 0.09504894 0.05112145 -0.08186484
0000e0 ca e6 1d bd 0f 3a 94 bd 9c 7a d9 3d 8c ce d4 3d
       -0.038550176 -0.07237636 0.10619089 0.10390958
0000f0 97 e4 15 3e e0 00 df 3d 55 27 ce 3d c1 fe 49 3e
       0.14637981 0.10888839 0.10066096 0.19726087
000100 43 72 1b 3e b4 e4 da bb 5c 53 61 be 8d 3a 91 be
       0.15180306 -0.0066800956 -0.22004455 -0.28364983
000110 48 4c 23 bd 92 fb ee 3c 7d e2 3a 3e e4 e1 14 3d
       -0.03986767 0.029172692 0.18250461 0.03634824
000120 e5 ca 48 be ba 9b 45 be fd 19 bb bd bd 13 82 be
       -0.19608648 -0.19297686 -0.09135816 -0.25405684
000130 32 8a 4a 3b 47 e6 8f 3d 11 2a b9 bd fa a6 65 be
       0.0030905125 0.07026344 -0.09041227 -0.22426978
000140 10 85 fe 3d fe e8 84 3e 9a cc 5e 3e 88 0b 02 3e
       0.124277234 0.2595901 0.21757737 0.12699711
000150 05 a4 89 3c 3e e8 fe bd f8 a7 3c be 07 9d 39 be
       0.016801843 -0.124466404 -0.1842345 -0.18126307
000160 98 22 40 be 20 1d 1a bd 66 7c 3f bd 01 f3 c3 3a
       -0.18763196 -0.037625432 -0.046749495 0.001494974
000170 6c c5 08 3d 98 30 58 3d 57 e9 15 3e e5 a8 64 3e
       0.0333914 0.052780718 0.14639793 0.22330053
000180 bd 5d 54 3e 1f 6b 85 3e 45 b8 7e 3e c6 b8 34 3e
       0.20738883 0.2605829 0.24874981 0.1764861
000190 57 b3 a3 be c3 f8 8a be 85 db cd be e1 9c 98 be
       -0.31972763 -0.27142915 -0.40206543 -0.2980719
0001a0 65 7c f3 bd 08 ce 95 bd 40 a9 c3 bd 2e 1e 53 be
       -0.11888961 -0.07314688 -0.09553766 -0.20616981
0001b0 3e 3a 2e be 87 cd 2c be c3 9e fd 3d 02 a5 99 3b
       -0.17014405 -0.16875277 0.12383797 0.00468886
0001c0 07 d5 06 bd d7 46 0b 3e a6 24 95 3e 6f 0c 90 3e
       -0.032918002 0.13601242 0.29129523 0.28134486
0001d0 5e 93 34 3e c3 49 be 3d a8 16 20 3e 96 da d1 3e
       0.17634341 0.09291413 0.15633643 0.4098708
0001e0 12 ca 9c 3e 25 97 2f 3e fb 5f 71 bc 50 05 37 bd
       0.30622917 0.17147501 -0.014732356 -0.0446828
0001f0 4c 42 29 3e 42 7f 41 bc 45 9d 8c bd 82 cd 76 be
       0.16529197 -0.011810126 -0.06865934 -0.24101833
000200 b2 65 f6 bd 7e 31 b8 3c 3e 31 6f be 66 c3 5d be
       -0.120311156 0.022484537 -0.23358628 -0.2165657
000210 e3 9b 3c be ca 10 75 bd 3f 66 59 3d e8 b3 48 be
       -0.18418841 -0.059830464 0.053076025 -0.19599879
000220 0e 58 b5 bd 79 18 a1 3c 64 4c 76 bd d3 b5 b0 bc
       -0.08854686 0.01966499 -0.060131446 -0.021571076
000230 5c d6 02 be 04 15 6f bd 8f 5a b6 bc 3c dd 88 bd
       -0.12777084 -0.05836965 -0.022259979 -0.06682822
000240 21 13 62 3d 67 09 9d bd 95 b1 c2 bc ee 03 0d be
       0.055194024 -0.07667809 -0.023766318 -0.1377103
000250 8b 2a 3e be 54 e4 9f 3c 40 2b a3 bd 84 4c 5b be
       -0.18570916 0.019518055 -0.07967234 -0.21415907
000260 b6 5d 10 be a0 8f 08 be 47 1c 96 be c8 04 11 3e
       -0.14098248 -0.13336039 -0.2931845 0.1416198
000270 93 e0 b1 3d c2 4d 02 3e 24 91 51 3e 80 a8 f7 3d
       0.08685412 0.12724975 0.20465523 0.12092686
000280 a6 b7 50 bd bf 21 74 bd eb 47 65 3d 4b 73 7d 3d
       -0.05095639 -0.059602495 0.05597679 0.06187753
000290 55 eb d1 bc 7e 7d 90 bd e9 25 d4 bd 9c ca ab bd
       -0.02562491 -0.07055186 -0.10358793 -0.08388254
0002a0 69 71 81 bd f2 60 85 bd 5b 3c 18 be bb f5 1e bd
       -0.063204594 -0.065126315 -0.14866774 -0.038808566
0002b0 f2 2b 46 bc 3f 8f 9c 3d be 2e 28 3d a7 1c a3 bd
       -0.012095438 0.076445095 0.0410602 -0.079644494
0002c0 43 73 05 be c7 3c 21 be e5 64 5f be 57 87 21 be
       -0.1303225 -0.15745841 -0.21815832 -0.15774284
0002d0 0c 26 b0 bd de 63 e8 bd 99 c6 f9 bd 17 c4 1f be
       -0.08601007 -0.11347173 -0.121960826 -0.15602146
0002e0 be 80 b0 bd fb 1f 8c bd 06 69 55 3d f9 10 de 3d
       -0.086183056 -0.06842037 0.05210211 0.10843081
0002f0 f6 05 23 3d af 68 81 bc d3 d5 a3 bd f0 f9 c0 3b
       0.039800607 -0.015796987 -0.07999768 0.00588917
000300 f2 ee c6 3d 17 f7 ac 3c 34 39 84 bb 7d 99 ab bd
       0.09713544 0.021113915 -0.0040351395 -0.08378885
000310 b9 1c a0 bd 7a 60 aa bd a6 eb d2 bd 75 60 d7 bd
       -0.078179784 -0.08319183 -0.102988526 -0.105164446
000320 92 71 f6 be b2 11 92 be e6 5b fa be a6 81 e0 be
       -0.48133522 -0.28529125 -0.48898238 -0.43848914
000330 95 ac a9 be 70 33 5b be 23 15 1f 3d f6 67 e2 bd
       -0.33139482 -0.2140634 0.038838517 -0.11054985
000340 cf f2 ac be 0b 82 9f be 19 80 74 bd 0b 15 92 3e
       -0.33778998 -0.31153902 -0.059692476 0.2853168
000350 74 a3 7d 3e af 1c 85 3d 5f 76 a9 bd cb 92 df bd
       0.24769384 0.064996116 -0.082745306 -0.109166704
000360 64 94 44 bd 00 52 fd 3d bf 35 cd 3d 8e b1 94 3d
       -0.04799308 0.12369156 0.10020017 0.07260428
000370 3f 65 f7 bd e4 71 9a be 59 f4 c0 bd 97 5c 95 bc
       -0.12079858 -0.30165017 -0.094216056 -0.018232627
000380 a7 7d 3b 3e 65 db a4 be b7 e1 72 bd 7b 6b b9 3d
       0.18309651 -0.32198635 -0.05929729 0.090537034
000390 a2 82 12 3e f1 96 e3 3d 27 4f 30 be 86 04 b5 3c
       0.14307645 0.11112774 -0.17217694 0.022096884
0003a0 9a 89 8c 3e 18 57 f0 3e e6 b3 d0 3e 11 f0 29 be
       0.27448732 0.46941447 0.40762252 -0.16595484
0003b0 77 7a 6a be e5 3b 1f be 99 aa 6a 3d b3 1d 52 3e
       -0.22898279 -0.15550192 0.0572916 0.20519142
0003c0 fc cc 2d 3e 29 42 14 3c 86 2c 0d bd 3b 6a 5b 3d
       0.16972727 0.009048977 -0.03446629 0.053568106
0003d0 53 84 78 3e 22 32 39 3e 8a e6 84 3d 41 72 93 bc
       0.24269228 0.1808553 0.06489284 -0.017998816
0003e0 ca 27 b1 bc 7f 08 e1 3d 48 23 39 3d 6a 47 d1 3d
       -0.021625418 0.109879486 0.045199662 0.10218699
0003f0 15 f3 af 3d 37 94 2a 3e f3 3f 0f 3e a3 5f 00 3e
       0.08591286 0.16658102 0.13989238 0.12536483

conv22.bias f4 [32]
000000 7a bc 93 3c ee b2 6c 3c 33 8b 7b bc 34 2a 1d 3c
       0.018034209 0.014446957 -0.015353012 0.009592582
000010 c8 8b 68 bc e3 e5 00 3c a7 ec 1f bc 18 c9 ab 3c
       -0.014193483 0.007867309 -0.009761012 0.020969912
000020 67 d4 9e 3c c0 01 71 bc 4d 8e 23 3b 35 f9 3c 3c
       0.01938839 -0.01470989 0.0024956644 0.011534025
000030 10 b0 da bb f4 5b 86 3c fe 6c ee 3b fe 5d e9 bb
       -0.0066738203 0.016401269 0.0072761765 -0.0071218004
000040 7e d1 38 bb e8 ae 82 3c 78 59 de 3a 46 05 4e bc
       -0.002820104 0.015952542 0.001696392 -0.0125744995
000050 4f 8f bf 3b f3 b4 55 3c bc 10 bb bc 22 90 c6 3c
       0.005845941 0.01304363 -0.022835128 0.02423865
000060 4e ea 4e 3c 34 b4 61 bc d6 a8 89 bc 70 2b 84 3c
       0.012629105 -0.013775874 -0.01680414 0.016133994
000070 d4 eb 28 bc 42 f2 ae bb d7 d8 0a 3c 47 ad d7 3b
       -0.010310132 -0.005338938 0.00847455 0.0065819356

batch2.weight f4 [32]
000000 e1 88 3d 3f bb cb 4f 3f 46 4a 75 3f 60 26 6a 3f
       0.74036986 0.81170243 0.9581646 0.91464806
000010 bb 8d 61 3f 52 b9 39 3f e7 90 81 3f f4 b4 49 3f
       0.8810689 0.725484 1.0122346 0.7879174
000020 d1 e5 8c 3f 52 6e 4a 3f 9c ea 5f 3f f9 5b 4d 3f
       1.1007634 0.79074585 0.8746736 0.80218464
000030 7b 70 61 3f 8d 87 32 3f 8b 03 86 3f da 1a 5a 3f
       0.88062257 0.69738084 1.0469831 0.8519722
000040 20 01 80 3f 73 69 5e 3f e9 8e 73 3f d3 71 6e 3f
       1.0000343 0.8687965 0.9513994 0.9314243
000050 6a 65 5a 3f b3 b5 5b 3f 1f 7a 74 3f 16 98 43 3f
       0.85310996 0.85824126 0.9549884 0.7640394
000060 bb 32 5d 3f f5 19 81 3f b6 8f 57 3f 24 cc 87 3f
       0.86405534 1.0086046 0.8420366 1.0609174
000070 f1 39 4a 3f 34 e5 4c 3f 61 5f 47 3f 95 bb 7c 3f
       0.7899466 0.80037236 0.7787991 0.9872373

batch2.bias f4 [32]
000000 af 6b 19 bf c9 a7 fa be 25 b8 38 bf 94 23 04 bf
       -0.5992994 -0.48956135 -0.7215598 -0.5161679
000010 da 28 bf be 69 cd c2 be 4c ce 4a bf 5d 53 04 bf
       -0.37335855 -0.3804734 -0.79221034 -0.516897
000020 10 31 40 bf f3 68 fe be 72 43 05 bf 85 41 17 bf
       -0.75074863 -0.49689445 -0.5205604 -0.5908435
000030 46 e1 d7 be 4d 5f e6 be 6a 44 30 bf a0 35 0b bf
       -0.42164057 -0.44994584 -0.6885439 -0.543787
000040 64 22 14 bf cc 01 24 bf 10 30 2d bf c3 20 20 bf
       -0.57864976 -0.6406524 -0.6765146 -0.6254999
000050 9b 94 14 bf 00 94 b7 be 31 61 03 bf d9 22 05 bf
       -0.58039254 -0.35855103 -0.5132018 -0.520063
000060 bd 36 09 bf 70 50 02 bf 15 4e db be b7 7a 43 bf
       -0.5359915 -0.5090399 -0.4283301 -0.76359123
000070 5a 07 02 bf f1 8a 59 bf 53 5a d6 be ed d7 10 bf
       -0.5079247 -0.8497763 -0.41865787 -0.56579477

batch2.running_mean f4 [32]
000000 85 32 2b c2 bf 03 c9 c2 34 e6 58 c3 89 c6 2e c3
       -42.799335 -100.50732 -216.89923 -174.77553
000010 cf 9a 0a c3 52 34 7a c1 e6 99 88 c3 1d bc 36 c3
       -138.60472 -15.6377735 -273.20233 -182.73482
000020 d1 27 55 c3 3a a2 48 c3 dd e5 37 c3 20 70 d3 c2
       -213.15553 -200.6337 -183.8979 -105.718994
000030 2e 25 59 c3 90 64 32 42 77 8d 8d c3 bd 38 40 c3
       -217.14523 44.598206 -283.1052 -192.22163
000040 71 b5 7c c3 ae 01 81 c3 f2 a2 81 c3 a4 8d 3f c3
       -252.70876 -258.01312 -259.273 -191.55328
000050 99 b3 1f c3 4b ee 3f c3 29 ba 57 c3 d0 3b 34 c3
       -159.70155 -191.93083 -215.72719 -180.23364
000060 b8 8c 39 c3 a3 34 4a c3 7e 80 2b c3 59 73 51 c3
       -185.54968 -202.20561 -171.50192 -209.45058
000070 fb 48 ff c2 68 71 07 c3 0a 86 0a c3 7a f6 46 c3
       -127.64254 -135.443 -138.52359 -198.9628

batch2.running_var f4 [32]
000000 52 f5 e3 46 74 be 10 47 74 82 58 47 cd d2 59 47
       29178.66 37054.453 55426.453 55762.8
000010 f2 eb 33 47 e4 fd 08 47 0a 5e 72 47 5c 32 2e 47
       46059.945 35069.89 62046.04 44594.36
000020 db 7f 82 47 9c ea 1d 47 22 88 0d 47 ee 8c 1d 47
       66815.71 40426.61 36232.133 40332.93
000030 63 32 81 47 82 86 0d 47 3c 50 72 47 c4 28 45 47
       66148.77 36230.508 62032.234 50472.766
000040 3e 02 54 47 81 b0 22 47 d0 2a 82 47 0c 9c 32 47
       54274.242 41648.504 66645.625 45724.047
000050 4e bd 40 47 35 5a 58 47 68 90 8e 47 77 0d 09 47
       49341.305 55386.207 72992.81 35085.465
000060 69 8d 15 47 d4 d1 a8 47 f1 45 92 47 b0 5e 46 47
       38285.41 86435.66 74891.88 50782.688
000070 e2 01 02 47 7b ac 02 47 44 df 1a 47 a4 3c 5d 47
       33281.883 33452.48 39647.266 56636.64

conv3.weight f4 [16, 32, 5, 5]
000000 1a 4b 82 3e b1 bc d6 3e b3 bd 67 3e a6 24 f0 3c
       0.25447923 0.41940835 0.22630958 0.02931435
000010 28 e2 ec 3d 49 d8 1a be 31 0d 34 3b 43 0d 60 bd
       0.115665734 -0.15121569 0.0027473683 -0.054700147
000020 92 64 85 be a7 e4 96 be e0 0b c4 be 02 d6 1b be
       -0.26053292 -0.29471323 -0.3829031 -0.15218356
000030 63 6b 00 be dc ab 22 be 68 f1 99 be 3a 46 af bd
       -0.12540965 -0.15885872 -0.3006699 -0.085583165
000040 97 80 3b bd df 3f d3 bc 12 59 44 bd 46 43 d6 be
       -0.04577693 -0.025787292 -0.047936507 -0.418482
000050 21 97 88 be ab dc 99 be 74 41 6f bd e7 3a e0 3b
       -0.26677802 -0.3005117 -0.05841203 0.006842959
000060 cb 78 da bd ca ed 59 be 85 f6 43 bd 12 81 27 3c
       -0.10667571 -0.21282116 -0.04784252 0.010223644
000070 06 11 11 be d4 21 9a be 39 0d 93 be 76 d8 cf bc
       -0.1416665 -0.30103934 -0.28721026 -0.025371771
000080 ba f7 18 3e 76 fe 9d bb da ce 28 be 3b 98 8c 3b
       0.1493825 -0.004821594 -0.16485158 0.004290608
000090 28 5c 26 ba 66 b4 83 bd 44 09 10 be 05 e1 f3 bc
       -0.000634613 -0.06430893 -0.14066035 -0.029770384
0000a0 43 52 84 3e 93 c9 44 3e 20 70 8f 3c 90 a5 ae bd
       0.2584401 0.1921752 0.01750952 -0.08527672
0000b0 a1 d1 84 3d af 05 76 bd 1d 61 eb bd 60 24 a9 bc
       0.06485296 -0.060064014 -0.11493132 -0.020647228
0000c0 4b 19 21 3d f5 3b 27 3e 87 8c c6 be 6e c7 0e bf
       0.039330762 0.16331466 -0.3877909 -0.55773056
0000d0 b5 e1 e8 be 27 ee 59 be 31 39 6b bc 3f 80 69 be
       -0.454847 -0.21282254 -0.014356897 -0.22802828
0000e0 c2 52 e6 be e4 b0 52 be ec b2 fa bd d2 9c bb 3c
       -0.44985014 -0.20575291 -0.12241158 0.022901926
0000f0 5d 0b a9 bd cb 2a a1 be 59 d1 ae bd bc b0 09 3e
       -0.082541205 -0.3147796 -0.08536024 0.13446325
000100 0d ca a1 3e f7 db 92 be ee d6 c7 be 9d 4a 65 be
       0.31599465 -0.28683445 -0.39031166 -0.22391744
000110 88 89 5d 3d f3 5a 56 3e 83 ec 71 be 78 a1 f9 bd
       0.05408624 0.20933132 -0.23625378 -0.12189001
000120 a7 75 c7 3d f7 e1 20 3e 54 90 8e 3d bd 76 fa 3d
       0.09739237 0.15711199 0.06961122 0.12229679
000130 5f 58 e7 bd 39 a3 c4 bd 12 06 49 3c 80 c8 80 3e
       -0.11296152 -0.09601445 0.012269514 0.2515297
000140 f6 83 ad bc 46 80 e0 bd 9b 33 bb 3d e1 5e 29 3e
       -0.021181088 -0.10961966 0.09140702 0.165401
000150 d0 5c b7 3e 15 1f ea bd a7 a1 ca bd 73 d7 47 3e
       0.35812998 -0.1143171 -0.09894114 0.19515781
000160 a2 c9 4b 3e 67 1c 89 3e 39 e8 a0 be 02 da 61 be
       0.19901136 0.26779482 -0.31427172 -0.2205582
000170 3e 9c f2 3d 32 92 0b 3e 1e c8 51 3d 0b 00 36 be
       0.11846207 0.13629988 0.051216237 -0.17773454
000180 af 3f ee 3c 29 f2 5b 3e 99 9a bb 3d f9 eb fc bc
       0.029083101 0.21479096 0.091603465 -0.03087424
000190 de e9 29 3d 18 33 67 be d8 ff 53 be bb b1 dc be
       0.0414828 -0.22578084 -0.20703065 -0.43104348
0001a0 42 65 00 bf 3c e3 8a 3e 68 76 c6 bd 83 5e f0 bc
       -0.5015451 0.2712649 -0.09690553 -0.029341942
0001b0 fa 73 9b be 72 c5 15 be 4a f9 cf 3d 48 82 91 be
       -0.3036192 -0.146261 0.1015497 -0.2841971
0001c0 90 6f c5 be 52 a3 9d be d6 a6 fd 3d 5e 37 36 3e
       -0.38561678 -0.30788666 0.12385337 0.17794558
0001d0 e1 96 d9 bc cb 0d ca bd c3 e2 b8 bd 96 4b c9 3e
       -0.026561202 -0.09865912 -0.09027626 0.3931548
0001e0 1b 6d 8e 3e dc 91 49 3e a9 c0 6f 3e 31 e7 3a 3e
       0.27817616 0.19684547 0.23413338 0.18252255
0001f0 fd f7 db 3e 8c b8 63 3e cd 60 6d 3e e1 43 28 3e
       0.42962638 0.22238368 0.23181458 0.16432144
000200 be da c9 3c df 4a 44 3d 61 31 98 bd ef 8b ba bc
       0.024640437 0.047922965 -0.07431293 -0.022771804
000210 8b ee 4a bc 40 ab 8e be d6 95 bc be 56 00 85 be
       -0.012385975 -0.27865028 -0.36833066 -0.2597682
000220 11 de f6 bd 07 3b da bc 4f f2 37 be 4b 91 a7 be
       -0.120540746 -0.026639475 -0.17963527 -0.32728037
000230 ea e9 60 3d fd 0f 1c 3e eb 15 fa 3d 08 fd 04 be
       0.054910578 0.15240474 0.12211212 -0.12987149
000240 88 f3 8b be c4 a9 77 bd b2 63 7c 3d b3 9d e7 3c
       -0.27334237 -0.060464635 0.061618514 0.028273439
000250 bc 2c 18 be 80 4c 28 be 0b 21 79 bd 17 e2 08 be
       -0.14860815 -0.16435432 -0.060822528 -0.13367496
000260 88 77 68 be ef a1 aa be b7 ef 93 bd fe 0a 08 bd
       -0.22701848 -0.3332667 -0.07223456 -0.033213608
000270 6f 8e d2 bd b5 12 3c be 0a 96 68 be ac b8 25 bd
       -0.10281073 -0.18366511 -0.22713485 -0.04045932
000280 ce 3c d3 bc b0 28 04 bd 56 e9 b7 bd bd cc 08 be
       -0.02578583 -0.032265365 -0.08980052 -0.13359351
000290 72 b1 76 bd 70 a0 a1 be a9 da 95 be 51 0e 6b be
       -0.06022782 -0.31567717 -0.29268387 -0.2295468
0002a0 58 02 68 be af 60 14 be e5 95 c1 be 77 7c b5 be
       -0.22657144 -0.14490007 -0.37809673 -0.35446522
0002b0 c7 dc 18 be 73 a7 28 be 67 cd 10 bd 8d 79 e3 be
       -0.1492797 -0.16470127 -0.035352137 -0.44428673
0002c0 e4 42 97 be 22 5b b9 bd 27 c7 df bc 86 e1 23 3e
       -0.2954322 -0.09050585 -0.027316643 0.16003999
0002d0 55 06 f4 be 22 7b f2 be 38 81 9e be 0d e0 11 be
       -0.4766108 -0.47359568 -0.3095796 -0.14245625
0002e0 ae a8 9d 3c fa e9 7f be 1e a5 c5 be 2c ec 92 be
       0.019245472 -0.24991599 -0.38602537 -0.2869581
0002f0 ab 9d 12 be 16 f5 26 3e fd 08 c0 3c b6 52 6d be
       -0.14317958 0.1630443 0.023441786 -0.23176083
000300 26 30 80 be ed 9c f6 bd ab 74 48 3e 0b a8 0f 3e
       -0.25036734 -0.1204165 0.19575755 0.14028947
000310 6b 1b 03 be 63 00 7f 3d da ef 10 3e 7f 49 7a 3e
       -0.12803428 0.06225623 0.14153996 0.24442099
000320 7d 9c 84 3e 38 2c 7a bd 96 30 ce 3d b1 2b 56 3e
       0.2590064 -0.061077327 0.10067861 0.20915104
000330 b1 0b 94 3d 85 bf 39 3d 39 26 ca bd 51 2b 0f 3d
       0.072287925 0.045348663 -0.09870572 0.03495342
000340 23 a2 b8 3b f6 72 0d be 95 66 86 bd eb 69 9d bd
       0.0056345626 -0.13813385 -0.06562535 -0.07686218
000350 43 d8 3f 3d 6c 9d 72 bd 76 43 c8 bd de 26 2d be
       0.046837103 -0.05923216 -0.09778492 -0.16909358
000360 a5 ee 84 bd a5 9d b2 3d cb 57 80 bc 61 61 47 bd
       -0.0649083 0.087214746 -0.015666863 -0.048676852
000370 47 c0 99 be 71 bc 40 bd 15 c8 2e 3e 94 a2 3a 3b
       -0.30029508 -0.04705471 0.17068513 0.0028478252
000380 06 ff b1 bd be cc 71 3d c4 85 06 be b0 a0 31 be
       -0.0869122 0.059033148 -0.13136965 -0.17346454
000390 1c b7 96 bd be c5 25 be b8 28 63 be 3a 87 00 be
       -0.07359144 -0.16188714 -0.22183502 -0.12551585
0003a0 fa 59 04 be 32 42 3a be 0b 75 26 be c0 3a 2b be
       -0.12924948 -0.18189314 -0.16255586 -0.1672163
0003b0 6c 2b 07 3c de 61 1c be 88 7c 88 be a2 8a e0 3b
       0.008250099 -0.15271708 -0.2665751 0.006852464
0003c0 50 20 bd bd 9f 8f fc 3d 56 a4 90 3d 7c 95 2b bd
       -0.09234679 0.12332081 0.070625946 -0.041890606
0003d0 4a c7 72 3e 75 53 ca 3a db 03 fe 3d 31 39 20 3e
       0.23708835 0.0015436249 0.12403079 0.15646817
0003e0 83 2f d8 3d 31 0e 86 3e 09 01 1b bc c5 3c fd bc
       0.10555937 0.26182702 -0.009460696 -0.030912766
0003f0 92 2c d9 3c ed 21 cf 3d b4 8e 8c 3d dc d0 11 be
       0.02651051 0.10113893 0.06863156 -0.1423983

conv3.bias f4 [16]
000000 ff d0 ba 3e 7a 3b ec 3d 72 88 b8 bd 84 75 02 be
       0.36487576 0.11534782 -0.090104 -0.12740141
000010 b2 49 40 3d ee b1 01 be 64 e2 d6 3e 62 d2 92 3e
       0.04694528 -0.12665531 0.41969597 0.28676134
000020 7c a8 0a 3f bb 83 f9 be ce 6b 22 3f dd e7 34 3c
       0.54163337 -0.48733315 0.63445747 0.011041609
000030 dc 30 b7 3e df 4f b4 3e 44 93 fa be bc 51 37 be
       0.35779464 0.35217187 -0.4894048 -0.17902273
