models/net_new_bs64_dr0_2_adam_augm/model_epoch_50.pt (torch, 763336 bytes, 28 tensors)

conv1.weight f4 [8, 3, 5, 5]
00000000: 12a0 d43d 9833 9e3d 689f 14be 0ef6 333e
00000010: 1ae3 2dbd e4e2 f43d 5981 53bd 5d8b 573e
00000020: fd9e ed3e d62d 42be bdb4 76ba 4644 51bc
00000030: a7e3 5b3e 7c7d 903e 2b9b 823d 7a88 59be
00000040: 6773 9dbd 7cd6 29be a19a d3bd ca55 cb3d
00000050: f24d 47be a9fe 78be 615b 7fbe 4ce8 f5bb
00000060: 23aa 1bbd ff5e b5bd 4b0d 06be 3b34 80be
00000070: 7aa9 3f3d 9865 18be 2cfe 6f3e f2f0 efbd
00000080: 56a3 263e 0b0d 793e 9961 9cbe a589 193e
00000090: 57b6 283e 49ad 913e 245c 0f3e dbe8 6fbe
000000a0: 3d0b d13d 89e7 0a3e 05e7 993d 0dfb 333d
000000b0: 4b7a 0b3d 4c98 cfbb 7a64 b83d b691 843c
000000c0: fb8b 813c 5253 acbd 6938 25be 176b 0dbe
000000d0: 8014 a3be 809d ac3d 086f d13d 1aea ed3d
000000e0: d0df a0bd ef24 f8bd 2757 163e 63fe 90be
000000f0: be4b ce3d 04ff 3d3c 4d95 063d d057 f0bd
00000100: 7530 2fbe 6013 0c3e 6567 a13e 9bd9 f4bd
00000110: 1512 89be 9d05 0bbe dca5 9c3e 50f1 663e
00000120: 98fb 313e 5bba 18be ae47 ffbd 0690 32be
00000130: ea38 3ebe 2bdc 943e d760 ce3e 0993 713e
00000140: 7374 7bbe 5412 98be 4854 be3d 5e8a e63e
00000150: 9674 1a3f dbfa 96be 01ec 82be a9b6 21be
00000160: a21e 553e 8cda 003f 65d2 03be a995 d0be
00000170: 98a3 233e 01ef 0f3e 7f99 a9bd e6fe f5bd
00000180: 3d86 19be bfbf 39bd 6802 37bd 0090 e2bd
00000190: 9f00 473e 648d d73d c1b3 4f3d f37f 0abe
000001a0: f017 f1bd 0a69 593e eecc 8cbd 81df afbe
000001b0: df22 9abe 3ced 85bd 8a95 dd3e 2bad d73d
000001c0: 6749 36be 1543 f2be 0faa 10be 7531 9b3e
000001d0: f85f 903d 8d86 e63d 2593 86be 9306 b2be
000001e0: e6e1 6c3e 9b1b 0abd 7bf8 083e a284 04be
000001f0: 9555 eebd b2d3 07be 8bed 19be 5545 ecbd
00000200: efe2 a5bd 7b08 67be 9649 cc3d 79c2 533b
00000210: bc75 8abe b016 a2bd f83f 1ebc 1c18 6d3d
00000220: 3d22 593d 3377 84bd e03e aabd e9bb e03d
00000230: 2426 153e 9580 be3b d455 0e3f eb3f e8bb
00000240: 2a26 3bbd b9f0 623d a22e 573d 9cbd c23e
00000250: b9d2 623e 2d01 203d abb2 493d 2c2e 8abe
00000260: ced7 4a3d 4571 2e3d 312c 0a3d 27d2 59be
00000270: 2973 93bd 5f57 90bd b47c 013e 66a3 0e3d
00000280: b4f7 efbd 4c8d 0fbd 85d9 3abe a438 a5bd
00000290: 5abb 9e3e f8e7 87be 2804 cdbe 3f56 d23e
000002a0: 0d93 fd3e a16e 133d e27c 2abe 52a3 aabe
000002b0: 5d84 523d b606 9d3d 55ce dfbc ecb4 c4bd
000002c0: c5a8 97be e0d2 e43d fa4a 3b3e 8b12 38be
000002d0: dd55 cfbd d33f 8a3d 7a9f 04bd ba8c 0ebc
000002e0: adb1 173e 7465 55bd 2828 7a3e e217 d9bd
000002f0: b33f 6ebd 7c52 883e fc84 2ebe ffd9 24be
00000300: d5e9 113f 67f1 1b3f 383d a03d 3f2e efbd
00000310: ec23 70be 3a80 873d c563 0a3e 3ebc ff3c
00000320: 1b47 633e 1a53 ac3d 70a0 933e 6996 123e
00000330: 6c1f 683d 2c66 183e ff63 0b3e 4d46 9fbe
00000340: d7ab bebe 801b b0bd 5233 ea3e 5f2b e73e
00000350: e031 23bf 8474 56bf 305c 6ebe 0678 053f
00000360: 4bee 0d3e f67f 2f3d f0d9 1fbe ea51 d7be
00000370: 396a b13e 617e f93d c728 0fbe a358 9abe
00000380: 9a38 bbbe 97bc f93d 0b4f 2c3e c4a2 013e
00000390: 3319 a0bd dfe5 bfbd 64d0 bb3d 9d78 8b3e
000003a0: 9504 8f3e 3ddb 943d 023b 2abb 0e69 833e
000003b0: 8c9f 003e d9fc 34bd 536d afbe ef14 72be
000003c0: 4b47 cb3d f770 67be d06f 8ebe fedb e6be
000003d0: c738 3fbe c9f2 cfbd 29ad 37be b713 07bd
000003e0: 9d26 ddbd 88cd fb3d 6095 20be 3da4 5bbe
000003f0: e170 8fbd 0ff5 bbbd c266 b8bd fcf3 a1bd
0.103820935 0.077246845 -0.14513934 0.17574331 -0.04245291 0.119573385 -0.051637027 0.21049257
0.4641036 -0.18962798 -0.00094110874 -0.012772625 0.21473561 0.28220737 0.06377252 -0.21243468
-0.07688027 -0.16585726 -0.103322275 0.09928472 -0.19463328 -0.24315895 -0.24937202 -0.0075044986
-0.038004052 -0.0885601 -0.13091008 -0.2503985 0.046792485 -0.14882505 0.23436803 -0.117158785
0.16273245 0.24321382 -0.3054321 0.14993913 0.16475807 0.2845252 0.13999993 -0.23428671
0.10207222 0.13564886 0.075147666 0.043940593 0.034052175 -0.006335294 0.090035394 0.016182762
0.015813818 -0.084143296 -0.161348 -0.13810383 -0.31851578 0.08428478 0.10226256 0.11616917
-0.07855189 -0.121164195 0.14681683 -0.28319082 0.100730404 0.011596445 0.032857228 -0.11735499
-0.17108329 0.13679266 0.31524196 -0.119555674 -0.26771608 -0.1357636 0.3059529 0.22552991
0.17381132 -0.14914839 -0.12464844 -0.17437753 -0.18576398 0.29074225 0.40308258 0.23591246
-0.2455614 -0.29701483 0.09293419 0.4502744 0.60334146 -0.29488263 -0.25570682 -0.15792336
0.20812467 0.50333476 -0.12873228 -0.40739182 0.15980375 0.14056017 -0.0828123 -0.12011509
-0.14992614 -0.04534888 -0.04468003 -0.11062622 0.1943383 0.10525015 0.050708536 -0.13525371
-0.11772144 0.21231475 -0.06875025 -0.34350207 -0.3010473 -0.065393895 0.43278152 0.10531076
-0.17801438 -0.47316805 -0.14127372 0.3031117 0.070495546 0.11256132 -0.26284137 -0.3477064
0.23133048 -0.033717733 0.13376038 -0.1294122 -0.11637417 -0.13264349 -0.15032022 -0.115366615
-0.08099925 -0.22561829 0.09974973 0.003231196 -0.2704295 -0.079144835 -0.009658806 0.05788432
0.053011168 -0.06468048 -0.08312774 0.10973341 0.1456533 0.005813668 0.55599713 -0.0070876977
-0.045690693 0.055405352 0.052534707 0.38035285 0.22150697 0.03906362 0.049242657 -0.2698835
0.049522214 0.04258849 0.03373355 -0.21271573 -0.071996994 -0.07047915 0.12645227 0.034823798
-0.117171675 -0.03504686 -0.1824704 -0.08067444 0.31002313 -0.26544166 -0.40042233 0.41081426
0.49526253 0.035994176 -0.16649202 -0.3332773 0.051395763 0.07667296 -0.027320066 -0.096048206
-0.29620948 0.11173034 0.1829032 -0.17975824 -0.10123799 0.06750455 -0.03237865 -0.008700544
0.14813872 -0.052098706 0.24429381 -0.106002584 -0.058166217 0.2662543 -0.17042917 -0.16098784
0.56997424 0.60915226 0.078241765 -0.116787426 -0.23451203 0.06616254 0.13514622 0.03121769
0.22195093 0.08414288 0.28833342 0.1431519 0.05667059 0.14882725 0.13612364 -0.31108323
-0.37240478 -0.08598995 0.4574228 0.45150277 -0.6374798 -0.8377154 -0.23277354 0.52136266
0.13860433 0.042846642 -0.1561048 -0.42054683 0.34651354 0.12182308 -0.13980399 -0.3014575
-0.3656662 0.12194174 0.16827027 0.12659746 -0.07817306 -0.09370016 0.09170607 0.27240458
0.27933183 0.07268379 -0.0025975113 0.25666088 0.12560862 -0.044186447 -0.34263095 -0.23640798
0.099257074 -0.22601686 -0.2781968 -0.45089716 -0.18674003 -0.101537295 -0.17937149 -0.032977786
-0.107983805 0.12295061 -0.15681982 -0.2144937 -0.07003952 -0.091776006 -0.090039745 -0.079078645

conv1.bias f4 [8]
00000000: 70e6 e0be 2691 813e 7dc8 353e 4677 333e
00000010: 1a3b 6ebd d17c fc3c 57d7 09bf f917 4abe
-0.4392581 0.25306052 0.17752261 0.17525968 -0.058161832 0.030821236 -0.5384421 -0.19735707

conv11.weight f4 [32, 8, 5, 5]
00000000: e13c 99bd 828f 4fbd 1d07 a33d 5eea b4bb
00000010: 9850 fcbd 87fa 8d3d 51cc 4ebd 0a48 b43c
00000020: 4858 b03c c133 4ebe 8f48 8f3d 4ff3 f23c
00000030: 4f0f 9bbd a7cd 61bd dbb8 1abe 2c96 5b3e
00000040: 2bf2 17be 855d 83be 79b3 16bd 3c25 89bc
00000050: 1346 a7bd acfc babe bfd6 86bd b0f9 743e
00000060: 0455 1d3e d23c e23e e0ee a73e e65c 0dbd
00000070: e390 e8bd c706 c5be e930 fa3e d7e4 1e3e
00000080: d59c 9abe 0943 89be eb91 82bd 1cb9 dc3e
00000090: 192b 7ebe 565f cabe d703 75bd 1fc4 a53d
000000a0: e421 0bbe 14ea 9dbe 09d5 a1bd 2845 f1bd
000000b0: 5a10 703e b24b 83be 87f9 a3bd ca5e acbd
000000c0: d3bc 06bd c437 1e3e 1f22 81be b47c 0fbd
000000d0: c731 3abe f79c 3e3d 23cd 223d c5eb a3bc
000000e0: 0db2 57be c24d 91be dace 213e 8d0f 853e
000000f0: f5c5 07be 3e0b f2be afa1 a13c af83 be3e
00000100: 47b7 a73d fd38 37be e54b 7f3e f1ce 213f
00000110: 1d1d 653d 66e8 1f3d 0996 d33d 70d4 a33e
00000120: a109 a13d 66a9 0c3d 3f96 2d3e de79 8bbd
00000130: cac7 99be 873b 50be 3848 1e3d 6e72 833e
00000140: d696 74be 646a 82be 2fb2 6dbd 665b b23e
00000150: e771 363e 2e15 16bd c5bb aa3c 6d3c 203e
00000160: a665 2e3e 9076 1d3c 4528 213e 01f0 343e
00000170: 6ca7 933c 979a 02be 4f5a d7bd 7b33 243e
00000180: 27fe c83d 4da2 60bd 5a23 bc3c b3f0 ca3d
00000190: 4394 1bbe 9461 783c 760e 5a3d 1f9e 7abc
000001a0: 26fa adbc bf0d f53b 185d 3a3e 9437 393e
000001b0: 38c5 f1bc c3a6 0b3d d56c 243e 0d30 b3bc
000001c0: 6cec 17bd da74 123d a51b 2d3e aa5e 293e
000001d0: 97af edbd a200 bf3d 5e9e aa3d 409a 01be
000001e0: f364 b03d 9a99 e53d 5473 413e 6377 2bbe
000001f0: 05cb 94be 09a2 20be 4f9f 25be 3c1c 3ebe
00000200: b813 56ba 4c4a 4b3e 9e63 9dbe 1c69 52be
00000210: 45c5 4ebe 46fd 883e ce46 f03e a9cd 48bd
00000220: 7380 cbbd 988f 7e3d bc37 293f d7cd b33e
00000230: 5ca4 34be 66aa d53d aa72 dd3e 2124 023f
00000240: 0e58 7ebe 8fd4 64bc b0ba fb3e 4866 823e
00000250: 3199 9bbe 09b6 2ebf 9c48 053e 84fe f73d
00000260: c03b dfbd 6e5c a5be 06e7 74bd 210e 84bc
00000270: bda5 5fbe 3c9c 10be 22af 30be f7e0 413e
00000280: 4c7a acbe 67b2 80be fca7 88bd 7287 fe3d
00000290: 86de b63e e466 d8be a945 59be aeea f63b
000002a0: 71be 2d3e 5f9b 983e 6c8c 0dbd 32bf ab3d
000002b0: 0cd6 913e 92ae a93e de67 2a3e 6b07 2d3d
000002c0: ab1c 4c3d c62a 0ebe 2250 20be 8f41 9bbd
000002d0: 24c9 ddbc c830 033e 34af 89bc 04a3 85bd
000002e0: 72ba 67bd e92b 99be 48e5 0d3e 1f22 4dbd
000002f0: a4ad 39be 403d 4cbd 7e30 debd 9ebb 7d3e
00000300: d801 09be 55f9 17be e90e 003d 7a09 71be
00000310: f793 43bc d026 d3bd beac d53c 7d43 3a3e
00000320: 8b64 123f 7c6b b73d 0c9b 76bd d3ad 0cbe
00000330: 5d03 973e cbe2 133f 9d1b 1f3e a8b3 2fbe
00000340: a28b 1bbe 7517 613e 923e c93e 9770 fd3d
00000350: e225 8abd 3138 bebc bef0 343e 0b28 a53e
00000360: 7255 f33d b4d5 033d 0e6d 153e 9859 d83e
00000370: 5112 ba3e 5188 b73c ea57 56bc 596e 6ebb
00000380: 1750 3d3e 7075 64be 6314 65be 338e 3fbe
00000390: d133 08be 32a1 c93d 6ef0 823d 1edc 533c
000003a0: ec86 9dbc da48 4cbe fc37 efbd 20fb babd
000003b0: 5728 6bbd 06f0 e9bd 9bb3 68be c87b 9abe
000003c0: af82 163b 64ba 613e 831d 933e b398 983d
000003d0: 762c 32be afa7 00bf 00ea 71be f7e7 f13d
000003e0: b9e7 2a3e 517d 223c 7fb4 7abe 1582 07be
000003f0: d690 5fbd 411f 61bd 3707 a73d 6a94 9ebd
-0.07482315 -0.05067397 0.07960341 -0.005521103 -0.123200595 0.0693255 -0.05048782 0.022007007
0.02152647 -0.2013693 0.06996261 0.029657034 -0.07571279 -0.055127766 -0.1510958 0.21444005
-0.14838473 -0.25657287 -0.036792252 -0.016741388 -0.081676625 -0.36520898 -0.06583928 0.23923373
0.15364462 0.44187027 0.32799435 -0.034512423 -0.1135576 -0.38481733 0.4886544 0.15516983
-0.30197778 -0.26808956 -0.06375488 0.43109977 -0.24821128 -0.3952586 -0.059818115 0.08094048
-0.13587147 -0.3084265 -0.07901961 -0.11780769 0.23443738 -0.25643688 -0.08006578 -0.08416517
-0.03289492 0.1545096 -0.25221345 -0.035031036 -0.18183051 0.046536412 0.039746415 -0.020009885
-0.21064015 -0.28379637 0.15801564 0.25988427 -0.13259108 -0.47274202 0.019730417 0.37209842
0.08189254 -0.17892833 0.24931295 0.6320639 0.055935968 0.03903999 0.10331351 0.31998014
0.07863165 0.03434124 0.16951846 -0.06810354 -0.3003524 -0.20335208 0.038643092 0.2567324
-0.23885664 -0.25471795 -0.058031257 0.34835356 0.17816888 -0.036641292 0.020841489 0.1564805
0.17030963 0.009610787 0.15738018 0.17669679 0.018024169 -0.12754284 -0.10515272 0.16035263
0.09814101 -0.054842282 0.022966076 0.09909191 -0.15193276 0.015159983 0.053236447 -0.015296488
-0.021237444 0.0074784453 0.18199575 0.18087608 -0.029512987 0.034094583 0.16057141 -0.021873498
-0.037090704 0.03575597 0.16905077 0.16540018 -0.11605757 0.093262926 0.083309874 -0.12656498
0.086130045 0.11210938 0.1889165 -0.16744761 -0.29061142 -0.15686812 -0.16174053 -0.18565458
-0.00081663905 0.19852561 -0.30740064 -0.20547909 -0.2019244 0.26755732 0.4692902 -0.049024258
-0.09936609 0.06214866 0.6610067 0.3511798 -0.17640823 0.104328915 0.43251544 0.5083638
-0.24838278 -0.013966694 0.4916587 0.2546866 -0.30390313 -0.68246514 0.1301598 0.12109092
-0.10900068 -0.3229708 -0.059790634 -0.016120018 -0.21840568 -0.14122099 -0.17254308 0.18933474
-0.33687055 -0.2513611 -0.066726655 0.12428178 0.35716647 -0.42266 -0.2121798 0.0075353
0.16967179 0.2980604 -0.034557745 0.08386077 0.28483617 0.33141 0.16641185 0.042243402
0.049832027 -0.13883504 -0.15655568 -0.07580864 -0.02707345 0.12811577 -0.016807176 -0.065252334
-0.056574292 -0.29916313 0.13856995 -0.05008137 -0.18132645 -0.0498631 -0.10849093 0.24778602
-0.1337961 -0.14841206 0.03126422 -0.23538771 -0.011937133 -0.10310137 0.026083346 0.18189807
0.57184666 0.08956048 -0.060206458 -0.13738184 0.29494753 0.57767934 0.15537877 -0.17158377
-0.15189984 0.21981604 0.3930555 0.123749904 -0.06745507 -0.023220154 0.17669961 0.32257113
0.11881532 0.032186225 0.14592382 0.42255855 0.363421 0.022403868 -0.013082484 -0.003638169
0.18487583 -0.22310424 -0.22371058 -0.18706588 -0.13301016 0.09845199 0.063935146 0.012930898
-0.019229375 -0.19949666 -0.116806 -0.091299295 -0.057411518 -0.11422734 -0.22724764 -0.30172563
0.0022966077 0.22043759 0.28733453 0.07451 -0.17399773 -0.50255865 -0.2362442 0.11811822
0.16689958 0.009917573 -0.24482916 -0.13233216 -0.054581486 -0.054961447 0.08155673 -0.077431515

conv11.bias f4 [32]
00000000: e315 7bbb e7e2 853c e200 bd3d bf84 42bd
00000010: 1a29 afbd 97dc 3fbb 082f ee3d ba97 a93c
00000020: 1739 373e a054 cf3d d13a 0d3e 2700 253d
00000030: 8bfd 223d d85c 833c 4427 8ebd 1586 2fbd
00000040: b2dd 27be a90c 36bd eeb2 4cbd 4b40 83bd
00000050: f512 843d 1c6c c6bd 3263 6ebb 2a86 193d
00000060: 2577 593c a3dc febc 6765 0bbd be2f 31be
00000070: 5b07 9bbd 25a2 0c3e d812 2f3d 249c 5a3d
-0.0038312606 0.016343547 0.09228684 -0.047489878 -0.085527614 -0.002927577 0.11630064 0.020702232
0.17892872 0.10123563 0.13791968 0.04028335 0.03979258 0.016035482 -0.06941083 -0.04285248
-0.16393164 -0.044445667 -0.04997533 -0.06408747 0.06448928 -0.09688589 -0.0036375043 0.037481464
0.013273035 -0.031111067 -0.03403225 -0.17303368 -0.07569762 0.13733728 0.04274258 0.053371564

batch1.weight f4 [32]
00000000: 9450 6e3f cea2 7b3f 1f76 803f 5d45 923f
00000010: 2f06 723f 1ed5 683f fc88 863f 1c28 883f
00000020: f2c3 4e3f e0d3 523f 0150 663f 72ab 9a3f
00000030: 0888 573f 18d9 813f 5dc8 693f d077 883f
00000040: 8f95 663f 4b0a 743f 7ae2 813f fa14 833f
00000050: 44b9 803f 9bdc 763f ebfb 793f 69e6 813f
00000060: 608f 863f b610 6f3f 43d9 8a3f 8e1f 783f
00000070: e6ed 853f 00a9 883f b72b 683f 0d18 5f3f
0.930917 0.98295295 1.0036048 1.1427418 0.94540685 0.9095019 1.0510554 1.063724
0.8076774 0.82354546 0.89965826 1.2083571 0.8419194 1.0144377 0.91321355 1.0661564
0.9007196 0.95328206 1.014724 1.0240777 1.0056539 0.9643037 0.9765002 1.0148441
1.0512505 0.93384874 1.0847553 0.9692315 1.0463226 1.0676575 0.90691704 0.87146074

batch1.bias f4 [32]
00000000: 074e d0be be2d 7cbe 75f2 6dbe 14ca 72be
00000010: 9585 8fbf 6ffe bcbe 63a3 03be 32d3 80be
00000020: 6489 99bd 2979 b0be 8e65 acbe a9a4 8ebe
00000030: 3687 b7be 20d4 8bbe e62a f3be 1fdc c1be
00000040: 51ee b1be e5ec 7abe b51f a6be eeee bebe
00000050: 12ed e1be f14f 76be 5268 92be bca5 cabe
00000060: ade8 81be 8b16 3ebe dcf2 9bbe db37 8bbe
00000070: ae3c 64be 88c7 a9be a40d babe ae81 0ebe
-0.4068453 -0.24626824 -0.23237021 -0.23709899 -1.1212641 -0.36912867 -0.12855296 -0.2516113
-0.07496908 -0.34467438 -0.3367123 -0.2786 -0.35845345 -0.27310276 -0.47493666 -0.37863252
-0.34752133 -0.2450443 -0.32446066 -0.37291664 -0.44126183 -0.24053933 -0.28595215 -0.3957957
-0.2537283 -0.18563287 -0.30458724 -0.27191052 -0.22288772 -0.33160043 -0.36338532 -0.13916656

batch1.running_mean f4 [32]
00000000: 9c24 da3d 8945 edbc 8732 91be 5dfb 7ebe
00000010: 325a 7f3f 5d3a ef3e e3b1 18be fac4 f4be
00000020: 5e45 993f ccc4 b4be 64f2 c33f 73cc 753d
00000030: 617d d63f cd0e e13e b02e 263f e5b5 a2bf
00000040: 422f ed3e 928f d43e 7d7b e2bd b822 1240
00000050: e220 003f 0e87 20be 5993 c9bd 2bea c23f
00000060: 4465 e8be abdb 513f 2497 163d 293c de3c
00000070: 2cf1 acbe 141c c43d 576f 2dc0 723f 07bd
0.10651514 -0.028963821 -0.28358862 -0.24900575 0.99747 0.46724215 -0.14911608 -0.4780653
1.1974294 -0.35306394 1.5308347 0.06000943 1.6757013 0.43956605 0.6491499 -1.271176
0.46325117 0.41515785 -0.1105871 2.283369 0.50050175 -0.1567652 -0.098425575 1.5227712
-0.4538976 0.8197581 0.036765233 0.027128296 -0.3377775 0.09575668 -2.7099206 -0.03301949

batch1.running_var f4 [32]
00000000: 7391 e33f 7973 6d40 ce47 a43f 6761 0a40
00000010: 0116 8e3f 3141 3540 9b6c 6e3f fca8 0340
00000020: 64dd 8940 1a89 b73f 0c92 fe3f 069f 0240
00000030: a939 4840 a243 fc3f 9bf7 1940 dbe0 8340
00000040: 0f88 9f3f e614 863f dcf2 bd40 8043 4f40
00000050: 2ba6 a83f 9e1e 883f b56b 7e3f a4c0 4e40
00000060: e89f 9c40 393e 6440 70b5 7b40 10c1 cf3f
00000070: d11e 0e40 caac 1e40 e804 5640 691d c03f
1.7778763 3.710173 1.2834413 2.162195 1.1100465 2.832104 0.9313447 2.057189
4.308275 1.4338715 1.988832 2.040956 3.1285193 1.970814 2.4057376 4.121198
1.2463397 1.0475128 5.935896 3.2384949 1.317571 1.0634344 0.993831 3.2305079
4.89452 3.5662978 3.932949 1.6230793 2.220631 2.4792962 3.3440495 1.5008975

conv2.weight f4 [64, 32, 5, 5]
00000000: ac9b 2ebe 799e a2be 6e61 8ebe d75b b3be
00000010: 6d2a 95be 6537 76be c335 59be efe8 ccbe
00000020: 39c8 e7be 9470 8dbe 5b06 8cbe 06f5 56be
00000030: e7bb f8be d773 03bf 7f25 84be 9097 d63c
00000040: 6579 393d 90e2 86be d71c 7bbe 7874 23be
00000050: 2557 0cbe be6f babd fa1a 76be e0bf 93be
00000060: 206a 64be e1ec fbbd 4a78 91bd 2fff 393e
00000070: d703 bc3e 9d9a 323e 074a eebc a51d afbd
00000080: 41eb 173e e432 bb3e 307d 983e ccbb 403e
00000090: c227 223d fa65 0c3e 3598 993e 5189 633e
000000a0: 46fa 873e ad29 d03d 24c5 033e 7e57 a63e
000000b0: a385 f73d 77ba 963e de0f 2e3e 9687 573e
000000c0: 35a2 823e 195c 963d f854 d03e 8ebf a43e
000000d0: 6d7c a23d 7530 22be 7749 dbbe d29b d23e
000000e0: 9cbd 013f 35c2 a53e d930 0fbd 0e32 3dbe
000000f0: 5a2c 833e a2a5 843e a4b5 b03b a662 8dbe
00000100: 2a0f 82be 8de1 d63e 6846 e03e 3b32 e53e
00000110: 4322 163e 6133 543e 61bd fb3e 2907 ac3e
00000120: 6050 793e cb21 ef3d affa 793e 43f9 7b3e
00000130: e740 54bc 83c3 06be 10fa 86bd b17a 8b3d
00000140: de39 1f3f 3516 833e 8866 6cbd 83d9 05be
00000150: 30f9 8e3d 4e0a aa3e 0fb0 5cbd cc81 d3be
00000160: b1ad a8be 4046 b3bd 3edf 0e3f 9dde 813e
00000170: 8093 23bd 84b6 873c 7c64 a93d 2e93 223f
00000180: e5c1 b73e 6408 483d 3b6a 90bc 9fe6 833b
00000190: 081a dfbe ff4d 36be 8c08 993b e368 a83d
000001a0: 8621 603d 7848 a5be b031 ecbc bfc3 7f3e
000001b0: 9d96 df3e 02cb f93e 8729 09bf b6c3 71be
000001c0: b40b dd3d 96e3 c63e bc37 e33e c523 08bf
000001d0: 683e 90be 3b55 723d 76b0 a03e 9782 ca3e
000001e0: 1b79 f1be be77 66be 4434 713d 048a a23e
000001f0: 34d5 da3e f7d6 c73c 88cf a73d 836e 0e3e
00000200: ad03 563d a45b ce3d 4b4b b6be 2e7f 25be
00000210: c435 2cbe 579d 5bbe 1dfc 1dbe 9060 83be
00000220: 4a93 8ebe d75c 82be 21e3 babe 7c54 0fbe
00000230: c6f1 ae3c c4df d2bc e87d 05bd 71e6 f5bd
00000240: 8139 10be 3520 3e3e 868d 073e f05e 103e
00000250: 572e 69bc 9f5b bfbd 23f9 5bbe 1958 e13e
00000260: bcf8 4c3f e0e9 453f 122a 2d3f 8707 41be
00000270: cea5 8a3e a77b 313f 7b0e 413f 8a76 3f3f
00000280: 60a4 20bf 7415 b6be 7593 91bc 7d0f 993e
00000290: 7897 d63e 4adc 64bf 39bd 6abf 0603 11bf
000002a0: a6a8 64be 1d32 a6bc 084b 3cbf a760 6bbf
000002b0: 8315 37bf 59bb 00bf 1c4a 8dbe 9b13 893e
000002c0: 1d64 293e 6aa8 c7bc 12dc a2bd a225 dc3b
000002d0: 6fd0 253d ea8d 773d 9019 08bc 3bf2 1fbe
000002e0: 92d1 38bd 2733 023d 2758 67bd 5162 bebd
000002f0: 4a61 6abe 621b e2bd 5b0e febc 0fe0 5abd
00000300: 6dad d5bc 3ea0 e4bd 88ca f4bd db21 d63b
00000310: 2c5d 7ebd 63c8 90bc 1ca8 0dbe 9eef 63be
00000320: 3741 dabe 582b 8ebe 009a 7dbe f4a8 c4bc
00000330: 43a2 223e 9c02 01bf 9cf8 54be 53ea 48bd
00000340: 409e 4e3e 3758 ad3e 0be1 ecbe 7c93 81be
00000350: f6bf d23b 299c a23e d48a ea3e d996 b0be
00000360: 099a 29be d6aa f33c 508a 9e3e 5bd0 ea3e
00000370: 8ce3 68be 2672 c5bd 8046 253e a72f b63e
00000380: bb56 ed3e 43d6 6abe 278c 99bd 2519 07be
00000390: 3e8a 6bbe d9a8 debd 3166 3ebe 8e92 733d
000003a0: 0804 a03d 2fb7 5fbd 092d 463d 4193 5cbe
000003b0: 66fc 313d 30dd be3d 98dc 183d c467 803e
000003c0: 2b19 9fbe 476f 12be 11aa a43d e55b ea3d
000003d0: 240d ce3e 2876 71be 6090 07be 5746 6a3c
000003e0: b410 0f3e d5b1 cb3e ecae 2fbe 1076 babd
000003f0: 9161 913d 3c71 433e d92a 573e 78cc 143d
-0.17051572 -0.3176153 -0.27808708 -0.35031006 -0.2913393 -0.24044569 -0.21211915 -0.40021464
-0.45269945 -0.27624953 -0.273486 -0.20991907 -0.48580858 -0.5134863 -0.25809857 0.026195318
0.045281786 -0.26344728 -0.2452272 -0.15962398 -0.13705118 -0.091033444 -0.24033728 -0.28857327
-0.22306108 -0.123010404 -0.071030214 0.18163751 0.3672168 0.17441793 -0.029088033 -0.08550576
0.14835836 0.36562264 0.2978301 0.18821639 0.039588697 0.13710776 0.29998937 0.22220351
0.2655813 0.10164199 0.12868172 0.32488626 0.12086036 0.29439136 0.1699824 0.21047816
0.2551438 0.07341785 0.40689826 0.32177395 0.079338886 -0.15838797 -0.42829487 0.41134506
0.50679946 0.3237473 -0.034958694 -0.18476126 0.25619775 0.25907618 0.005392747 -0.27614325
-0.25402194 0.41968957 0.43803716 0.44764885 0.14661507 0.20722724 0.49167922 0.33599213
0.24347067 0.11676367 0.24412034 0.24606805 -0.012954927 -0.1316052 -0.065906644 0.06810511
0.62197673 0.2560288 -0.05771497 -0.13071255 0.069811225 0.33210987 -0.05387884 -0.41309965
-0.32945016 -0.087536335 0.5580939 0.25365153 -0.03993559 0.016566522 0.08271119 0.6350583
0.35890117 0.048836127 -0.01762878 0.004025295 -0.43574548 -0.1780319 0.0046702083 0.082231306
0.05471947 -0.32281852 -0.028832287 0.24977015 0.43669596 0.48787695 -0.5357899 -0.23609814
0.10793248 0.3884551 0.4437846 -0.5317958 -0.28172612 0.059163313 0.3138463 0.39552757
-0.4716271 -0.22506616 0.058887735 0.31745923 0.42740786 0.024394495 0.0819388 0.13909344
0.0522496 0.10076073 -0.3560432 -0.16161796 -0.16817385 -0.21446739 -0.15428205 -0.2565961
-0.27846748 -0.25461456 -0.3650141 -0.13997072 0.021355521 -0.025741465 -0.032590777 -0.12006844
-0.14084436 0.18566974 0.1323758 0.14098716 -0.01423224 -0.09343647 -0.21481757 0.44012526
0.8006704 0.7730999 0.6764232 -0.18850528 0.27079624 0.69329304 0.7541272 0.7479025
-0.62750816 -0.35563242 -0.017770508 0.2989463 0.41912436 -0.89398634 -0.9169498 -0.5664524
-0.2232996 -0.020287568 -0.7355199 -0.91944355 -0.715172 -0.5028587 -0.27595603 0.2677277
0.16542096 -0.024372298 -0.07952131 0.0067183534 0.04048198 0.060438074 -0.008306876 -0.15619747
-0.045121737 0.031787064 -0.056480553 -0.09296096 -0.22888675 -0.11040379 -0.031012705 -0.053436335
-0.026083672 -0.11163376 -0.11952692 0.0065347976 -0.062100574 -0.017673677 -0.1383366 -0.22259375
-0.4262788 -0.27767444 -0.24765778 -0.024006344 0.1588221 -0.50394607 -0.20797962 -0.049051594
0.20177555 0.33856365 -0.46265444 -0.25307834 0.006431575 0.31759766 0.45809042 -0.34490088
-0.16562666 0.029744547 0.309649 0.45862088 -0.22743052 -0.09640913 0.16140175 0.3558323
0.46355233 -0.22933297 -0.07497435 -0.13193186 -0.23001954 -0.10872049 -0.1859367 0.059465937
0.07813269 -0.054618057 0.048382793 -0.21540548 0.043453597 0.09319532 0.03731975 0.25079167
-0.3107389 -0.14300261 0.0804025 0.11443309 0.402444 -0.2358023 -0.13238668 0.014298997
0.13971215 0.39784113 -0.17156571 -0.0910455 0.070986874 0.19086164 0.21012439 0.03632781

conv2.bias f4 [64]
00000000: 85e6 af3d 8bc6 49bf b799 a6be c6ee bc3d
00000010: 539e 8f3e 9d13 0ebf d485 b9be aeb5 d2be
00000020: a2da 033f da6c 133f a447 b53e 1ab7 283e
00000030: 8953 ec3e 1655 0c3f cefc 3f3f cd73 c0be
00000040: 73db 19bf c4d0 af3d 3364 25bf 7350 98be
00000050: 4c0c 29bc 252d 04bf 2aa9 58be dcb7 0bbf
00000060: 03a7 073e e6d1 053f 5909 1bbf c24d 8dbe
00000070: d981 d03e 2a90 ec3b e5bc 853d b8c6 66bd
00000080: 0d03 12bf 0a83 abbd 2260 50bf f752 8abe
00000090: 1c35 bbbe 44db a23e f1c9 ccbd 3392 b0be
000000a0: fbe3 e9be 8b49 bcbd e56c 8ebe 2671 bb3d
000000b0: ca30 9e3e f35c a33e 6590 d73e 3434 da3d
000000c0: 615e 363e 889e 89be d81f 913e 3a79 03be
000000d0: 1754 c83e 715e 04bf f44d 263e 83b9 ad3b
000000e0: e720 203f 4612 9cbe a896 483e 4f42 673e
000000f0: 8f0b a5bd ed33 443e 76ef 1dbe e931 9bbe
0.0858889 -0.7881858 -0.3253915 0.0922523 0.2805048 -0.5549868 -0.36234915 -0.41154236
0.5150548 0.5758797 0.3540622 0.16476098 0.46157482 0.5481733 0.74995124 -0.3758835
-0.6010048 0.08584741 -0.64606017 -0.29748878 -0.010317873 -0.51631385 -0.21158281 -0.5457742
0.13247304 0.52273405 -0.6056114 -0.27598387 0.40724066 0.007219334 0.065301694 -0.056341857
-0.57035905 -0.08374603 -0.8139669 -0.27016422 -0.36563957 0.3180791 -0.09999455 -0.3448654
-0.45681748 -0.09193715 -0.27817455 0.09152441 0.30896598 0.31906852 0.42102352 0.10654488
0.1780944 -0.26878762 0.28344607 -0.12839213 0.39126655 -0.51706606 0.16240674 0.0053016557
0.62550205 -0.30482692 0.19588721 0.22583888 -0.08058845 0.19160433 -0.15423378 -0.30311516

conv22.weight f4 [32, 64, 5, 5]
00000000: 9b2f 40bd 5145 8d3d 9e1b 4c3e 7da7 ec3c
00000010: b0d2 0abe 2979 4a3e c767 3b3e 0137 663e
00000020: 5967 3f3d bcd3 0fbe de04 773e ee3d c33e
00000030: e5cc e13e 6f62 533e a520 36bd 171e c73d
00000040: ae45 a63e 02a7 fb3e ada8 923e c804 fdbd
00000050: 38af e6be a864 cabe a10e 2fbe c4f6 23be
00000060: 7441 8bbe 914f d03d 6a3a 213d 1c70 113e
00000070: f755 2d3e 6de3 9a3c db4c 363e 8fec 2f3e
00000080: 1a8a a63e f8c0 e23e d0ad 9d3e 5225 d6bd
00000090: 1804 57be 4f55 0dbe c5eb 833d 2976 423c
000000a0: 91a7 92be d08b d5be 4322 f1be a0a9 b9be
000000b0: 2aaa b1be 17e2 c2bd f637 27be c1c2 29be
000000c0: a0b6 01be 1a50 b5bd 1d03 0fbe 24a4 e1bd
000000d0: d689 1cbe 9fd3 a13d 5690 d73b da1b 9abd
000000e0: 2741 8bbc a394 81bd 236c b63d c2c4 033d
000000f0: 3bae 443e 574b 093e b989 b73d e292 5a3e
00000100: 76b1 093e 106e 35bc d9b7 5bbe 6724 9abe
00000110: 5511 8dbc df67 a63c b9fc 453e 3bed 4b3d
00000120: 1f3b 4cbe 398a 3bbe c0f2 d3bd 68d3 94be
00000130: 6313 e4bc 2a70 703d 4eee e5bd f743 88be
00000140: c2f8 da3d 4895 763e 1e80 673e 6ba9 0c3e
00000150: a35a 043c 99f6 08be 0546 4ebe 5361 29be
00000160: 822c 36be 174b 05bd 5950 91bc 4803 7c3c
00000170: 696d 9c3d dc42 9b3d e559 293e b5fb 843e
00000180: c225 783e d526 a33e de85 953e fb55 5a3e
00000190: ea31 9abe 007f 89be c1af cbbe aac0 97be
000001a0: 6392 ddbd 5dbc 8ebd cf08 febd 17dc 66be
000001b0: 9b64 26be 306b 1ebe 57b2 f53d 167a 343c
000001c0: 22c5 283c cb49 483e 0356 b13e 74d1 9f3e
000001d0: 9f2d 653e c4d8 2d3e a0e3 553e ccfe e93e
000001e0: e6f0 b83e 2797 693e d455 b13c 4e49 3abd
000001f0: f6da 373e 6983 7f3c 3193 72bd 08cd 88be
00000200: 8a26 32be 6c70 10bc b0d3 75be 3200 80be
00000210: 5011 5abe 45d0 e3bd 0f6e a93b 1127 43be
00000220: d3b3 17be 9068 28bc 1ab1 afbd 54a0 60bd
00000230: b392 dcbd d871 08be 093c 70bd 824d 88bd
00000240: b21b 0f3d 5ad1 25bd 7e50 acbd 5130 38be
00000250: e2da 36be 7993 efbb c597 6cbd b094 67be
00000260: 5891 0bbe 34d1 10be 68b1 92be 74eb 263e
00000270: b3bc bd3d c47a 0d3e 94c7 723e f80f 1a3e
00000280: adcf 5dbd c049 73bd 3d28 903c cbf7 d43d
00000290: 1d68 28bb 6e4e a4bd 004d cabd f4f3 13be
000002a0: dc1d f8bc 8830 61bd 9c80 11be 00ba 8cbc
000002b0: bfa9 9cbd be21 c53d c38b 5a3d 4ad7 79bd
000002c0: d3e4 efbd 3caf 1ebe 43e6 61be 8fe4 18be
000002d0: a645 93bd 1887 ccbd 114b e9bd 4f62 15be
000002e0: acb7 7fbd 5731 3abd a6e2 b63d 39a9 043e
000002f0: 5d7e 803d 3a62 53bb 6006 93bd 3ef7 113d
00000300: f095 cf3d 1278 ed3c 8b5d cabc 41d2 99bd
00000310: 0e7d 8bbd 7f1f d9bd d53c e0bd aaa8 04be
00000320: 966d fcbe 3c59 82be 1367 02bf 507d e4be
00000330: e660 8cbe b88c 60be f620 953d 4f1e 00be
00000340: ed35 b4be f352 93be 3f4d bfbd 1342 a63e
00000350: 93ed 8f3e bdbf ca3d 654e 08bd 283d 1bbe
00000360: 552c a5bc 4dc8 333e 6fa8 0f3e b9e1 d93d
00000370: 3785 f5bd 3814 7bbe 6172 4bbd 674e 03bd
00000380: 0b95 3f3e 521d abbe 9ae8 7abd 33d3 8d3d
00000390: 0b8f 1f3e cb8a e23d 6cf9 5fbe 3c2d 7aba
000003a0: 67c2 7b3e d719 ec3e e497 cf3e 3d88 6bbe
000003b0: 398e 85be b163 3bbe 890b 1c3d 9c00 4b3e
000003c0: 814c e73d 14b3 1c3c d236 99bb 12c1 7c3d
000003d0: 9d47 813e ba63 163e 210d 573d 1bce 27bc
000003e0: c113 80bd 1006 943d a1a8 1ebc 8519 803d
000003f0: b9de 7f3d 9a91 4b3e 490d 233e 1127 e83d
-0.0469204 0.06897987 0.1993241 0.028888458 -0.13556933 0.19772781 0.18301307 0.2248192
0.04672942 -0.14045614 0.2412295 0.38133186 0.44101635 0.20643018 -0.044464726 0.09722536
0.32475036 0.49150854 0.28644314 -0.123544276 -0.45055556 -0.3952992 -0.17095424 -0.16012102
-0.27198374 0.10171426 0.03936235 0.14202923 0.16927324 0.018907273 0.17802756 0.17180084
0.32527238 0.44287848 0.3079667 -0.10456337 -0.20997655 -0.13802074 0.06441454 0.011868992
-0.28643468 -0.4170823 -0.47096452 -0.36262226 -0.34700137 -0.095157795 -0.16329941 -0.16578199
-0.12667322 -0.08853169 -0.13966031 -0.110176355 -0.15286955 0.07901692 0.0065784855 -0.075248435
-0.01699884 -0.06327178 0.08907344 0.032170065 0.19207089 0.13407646 0.089618154 0.21345094
0.13446602 -0.011073604 -0.21456851 -0.30105898 -0.017220179 0.020313201 0.19334687 0.049786787
-0.19944428 -0.18314447 -0.10349035 -0.2906754 -0.027841276 0.058700718 -0.11227094 -0.26614353
0.10691978 0.24080384 0.22607467 0.13736503 0.00807825 -0.1337532 -0.20143898 -0.16541032
-0.17790416 -0.032542314 -0.017738508 0.015381642 0.07638056 0.07581112 0.16538198 0.25973287
0.24233153 0.31865564 0.29203695 0.21321861 -0.30116206 -0.26854706 -0.39782527 -0.2963918
-0.10818937 -0.06969521 -0.12404024 -0.22544895 -0.16249315 -0.15470576 0.11996906 0.011015436
0.010300906 0.195594 0.34635934 0.31214488 0.22380684 0.16977221 0.20887613 0.45702207
0.3612129 0.22811566 0.021647371 -0.045480065 0.1795462 0.0155952955 -0.059222404 -0.26718926
-0.17397514 -0.008815866 -0.24006534 -0.2500015 -0.21295667 -0.11123709 0.0051705907 -0.19057871
-0.14814691 -0.010278836 -0.08578701 -0.0548404 -0.10770168 -0.13324678 -0.058651004 -0.066554084
0.03493852 -0.040482856 -0.0841379 -0.17987181 -0.17856935 -0.0073112813 -0.057761926 -0.22615314
-0.13629663 -0.14142305 -0.28650975 0.16300756 0.09264507 0.13816363 0.23708946 0.15045154
-0.054153133 -0.059396505 0.017597312 0.10398825 -0.0025696822 -0.08022772 -0.09877968 -0.1444853
-0.030287676 -0.054977924 -0.14209217 -0.017178535 -0.07649564 0.096255764 0.053355943 -0.06099633
-0.11713567 -0.15496534 -0.22060494 -0.14930938 -0.07191019 -0.099867046 -0.11391271 -0.14588283
-0.062431023 -0.04545721 0.089299485 0.12955178 0.06274102 -0.0032254593 -0.0717895 0.03563618
0.1013602 0.028987918 -0.024702808 -0.07510806 -0.06810962 -0.106017105 -0.10949103 -0.12954965
-0.49302357 -0.25458705 -0.5093853 -0.44626856 -0.27417678 -0.2192868 0.072816774 -0.12511562
-0.35197392 -0.28774223 -0.093409054 0.32472286 0.28110942 0.098998524 -0.033277888 -0.15160048
-0.02016274 0.17556877 0.14029096 0.10638756 -0.11988299 -0.24519432 -0.049669627 -0.032057192
0.18709199 -0.33420807 -0.061256982 0.06925049 0.1558191 0.11061629 -0.2187249 -0.00095434836
0.24585877 0.46113464 0.4054557 -0.2300119 -0.2608507 -0.18299748 0.03809694 0.19824451
0.11293889 0.00956418 -0.0046757245 0.061707564 0.2524995 0.1468648 0.052502755 -0.0102420105
-0.06253768 0.07227719 -0.009683759 0.062548675 0.062468264 0.19879761 0.15923037 0.11335576

conv22.bias f4 [32]
00000000: 1e94 933c 5ae0 6d3c b432 7bbc 6521 1d3c
00000010: ca09 6abc b7f2 013c a59f 1fbc 486b ab3c
00000020: dae7 9c3c 2f38 71bc 0cb0 233b bd01 3a3c
00000030: 5ab5 debb a090 853c baf0 f23b 7e38 e8bb
00000040: c66c 31bb d15c 853c bad0 d63a 955a 4abc
00000050: 379c bd3b 719a 503c 2505 bebc 07e0 c43c
00000060: c52d 523c d8a2 5cbc 316b 88bc 28d3 823c
00000070: 1da7 27bc 9d74 abbb 4131 0d3c 166f dc3b
0.018014964 0.014518822 -0.015331913 0.009590481 -0.01428456 0.007931403 -0.009742652 0.02092518
0.019153524 -0.014722868 0.0024976758 0.0113529535 -0.006796521 0.016304314 0.0074139507 -0.0070868125
-0.002707289 0.01627961 0.001638911 -0.012350698 0.0057864445 0.012732134 -0.023195812 0.024032606
0.012828295 -0.013466559 -0.016652675 0.015969828 -0.010232714 -0.0052324072 0.0086177 0.0067271097

batch2.weight f4 [32]
00000000: 8d85 3e3f cdf8 4c3f 50c7 753f f2b6 6a3f
00000010: 3722 5b3f 5078 383f 7350 823f d0b4 473f
00000020: 4751 903f f617 483f b7ef 613f 51a5 4f3f
00000030: e21a 603f b898 313f 9bf2 863f ee65 5a3f
00000040: 9648 7f3f 4bda 5e3f c393 783f 69bc 6f3f
00000050: ca61 5d3f 8570 583f f50b 763f 853f 423f
00000060: 565a 593f cab8 823f ed0c 543f ba04 8a3f
00000070: c531 4d3f e6e5 4e3f 583b 443f 557c 7b3f
0.7442253 0.8006714 0.9600725 0.916854 0.8559908 0.7205858 1.0180801 0.7801027
1.1274804 0.7816156 0.882564 0.8111163 0.8754102 0.69373655 1.0542787 0.8531178
0.9972013 0.8705184 0.97100466 0.93646866 0.8647734 0.8454669 0.96111995 0.75878173
0.84903467 1.0212643 0.82832223 1.0782692 0.8015407 0.8081955 0.7665305 0.9823659

batch2.bias f4 [32]
00000000: af3e 13bf c462 02bf afb7 39bf c472 06bf
00000010: 4001 c0be eb1b c5be 6480 4fbf 0c4c 06bf
00000020: 85db 3cbf 8dac 07bf 3b28 02bf 8437 15bf
00000030: e16f d5be 5d34 ebbe 651a 31bf 5f58 07bf
00000040: de5c 13bf 6638 28bf c674 2abf 402c 1ebf
00000050: b486 12bf 0716 bebe 31d4 01bf 783c 07bf
00000060: 6135 0ebf b18d 04bf 1d0e e4be 48d3 40bf
00000070: 5f94 05bf d722 5abf 99da d6be ef78 12bf
-0.5751752 -0.50931954 -0.72545904 -0.5251887 -0.37500954 -0.38497862 -0.81055284 -0.5245979
-0.7377246 -0.52997667 -0.50842637 -0.58287835 -0.4168692 -0.45938388 -0.691809 -0.5286922
-0.5756358 -0.6571106 -0.6658443 -0.6178627 -0.5723679 -0.3712618 -0.50714403 -0.52826643
-0.555502 -0.51778704 -0.44542018 -0.7532239 -0.5217952 -0.8520941 -0.41963652 -0.5721578

batch2.running_mean f4 [32]
00000000: 4fdb 14c2 31f5 e4c2 745d 8dc3 0ee6 4bc3
00000010: 44a8 07c3 a809 7cc2 b0de 84c3 4033 43c3
00000020: e6d2 5ac3 85c1 49c3 a14b 22c3 1747 10c3
00000030: 1409 48c3 bca2 5f41 64ea 87c3 a0d1 27c3
00000040: e727 6fc3 c93f 67c3 1068 85c3 1418 3ac3
00000050: 45c5 0cc3 29f5 48c3 e705 58c3 bdd5 39c3
00000060: 0335 22c3 f296 6dc3 97fc 3dc3 ea1e 71c3
00000070: 9bad 19c3 4a2f 03c3 fa39 0ec3 4f32 4ac3
-37.21417 -114.47889 -282.7301 -203.89865 -135.65729 -63.00943 -265.73975 -195.2002
-218.82382 -201.75594 -162.29543 -144.2777 -200.03546 13.97723 -271.83118 -167.81885
-239.15587 -231.24916 -266.813 -186.09406 -140.77058 -200.95766 -216.02306 -185.83492
-162.20708 -237.58963 -189.98668 -241.12076 -153.67815 -131.18472 -142.22647 -202.19652

batch2.running_var f4 [32]
00000000: 7f15 0a47 7cb6 1947 fa1d 8a47 3796 8447
00000010: eec5 4a47 0464 2e47 de41 8247 e46e 2a47
00000020: d5fb 9b47 8a39 2547 8f86 1247 9ba6 2e47
00000030: ebce 9547 bd66 1947 3fbf 8747 b635 5b47
00000040: 3f51 6c47 4134 2047 b089 9b47 fa23 4547
00000050: 01b5 4e47 fe57 8147 fdb3 9c47 aeb3 1747
00000060: d661 1447 8cfb be47 9380 a547 af17 7947
00000070: ab8d 1947 b218 0447 15e5 3a47 1d45 7c47
35349.496 39350.484 70715.95 67884.43 51909.93 44644.016 66691.734 43630.89
79863.664 42297.54 37510.56 44710.605 76701.836 39270.74 69502.49 56117.71
60497.246 41012.254 79635.375 50467.977 52917.004 66223.984 80231.98 38835.68
37985.836 97783.09 84737.15 63767.684 39309.668 33816.695 47845.082 64581.113

conv3.weight f4 [16, 32, 5, 5]
00000000: 2114 863e 6b4e d63e 2b19 663e 707e c63c
00000010: 1cf7 0b3e 74b6 22be 3104 7abc ef4f 67bd
00000020: 5d15 7bbe c28b 8abe 8718 d0be db96 54be
00000030: 4709 25be c6b3 2abe bef4 9fbe 208e 96bd
00000040: 2d18 9cbd bbe9 31bd 89b7 51bd 9301 ddbe
00000050: 2ee9 82be a112 afbe 6fc3 b1bd fabd 8abc
00000060: dbc4 07be f444 5cbe 4749 42bd d330 ef3b
00000070: e332 05be 3c4e adbe 264a a1be 24d4 d3bc
00000080: dc35 293e 6c07 5e3c a9a0 31be aae3 333c
00000090: 4fcd 7abb 4a21 29bd f00b f6bd 30da fabc
000000a0: 3f88 823e e8e7 243e 6491 963c a7ec d9bd
000000b0: 0910 7f3d c6b6 c5bd 7577 25be 9863 89bc
000000c0: ad8c 83b9 460b 023e b092 b7be ed1a 0cbf
000000d0: b796 d2be 8104 1bbe 1ccc dd3b 5b5a 67be
000000e0: 7243 f2be 9b81 52be dc98 dcbd 870a 4a3c
000000f0: 0839 c5bd 00ca aebe 55b4 c5bd 13ee 0d3e
00000100: c105 9c3e b9ce 98be 6a26 cabe bbe8 73be
00000110: b009 6f3d e93f 633e ece1 54be eb1e a7bd
00000120: 25c4 f93d 6442 303e acc0 d23d c619 ba3d
00000130: 9751 0dbe 2040 febd 0aca 56bc 2ae8 7e3e
00000140: cdbd 87bd de81 01be adfd b43d 9192 283e
00000150: 2986 c43e a8ca c9bd c92f afbd 69e9 653e
00000160: a5c4 583e de13 963e f397 a7be 4dd0 61be
00000170: 320b 183e e670 1b3e 96d3 af3d ced0 42be
00000180: 5099 313d ec68 753e c394 db3d 7c48 87bb
00000190: 594e e33c f91b 80be 7473 3fbe 05c3 d3be
000001a0: cbe6 fdbe aed1 943e 42c0 b4bd 9e57 003b
000001b0: 0b7e a8be 538c 31be 4754 253e 2b4e 7dbe
000001c0: dfc6 a8be 60c1 aebe 5524 c33d a355 773e
000001d0: 5b3e adba cde0 bebd 4726 fbbd c9a5 c93e
000001e0: 7efa 9b3e 6172 483e cf37 543e d27a 263e
000001f0: ecf5 d33e 4eb9 6d3e 029a 643e b9aa 423e
00000200: 3463 203c acc6 533d 90c1 23bd 3fc8 a2bb
00000210: ae14 3a3c 040e 98be ace6 c0be 45f1 8abe
00000220: c582 fbbd 2e4f e0bb a11d 32be 3764 abbe
00000230: cbb1 af3d 9be4 423e b660 1d3e 5649 d7bd
00000240: 5020 8ebe ccc5 a1bd c7da 923d b7ab 543d
00000250: b1f6 ffbd cd59 2abe d9e7 32bd 4128 0cbe
00000260: 0e73 73be 77a9 aebe 0800 86bd 8388 25bc
00000270: b6d3 d9bd a33d 33be d63a 4fbe 1fed 43bb
00000280: 2c82 8dbb 7b07 a5bc 0e2f 93bd e678 eebd
00000290: 12b1 85bd c5e2 a5be 780c 99be a27c 6fbe
000002a0: dfda 6ebe 0d56 2dbe 2c9b bcbe a999 abbe
000002b0: 2b3d f6bd e471 14be 95b9 11bd e35f f2be
000002c0: b85e 8fbe 8601 28bd d01f 073d 6cf2 263e
000002d0: 6d0d febe a2e2 efbe eb63 8abe a800 cdbd
000002e0: f4bc bf3c 32cf 87be d051 c6be e196 84be
000002f0: 1afe 02be d9d3 1e3e 1037 8dbc 1569 7bbe
00000300: c352 6ebe ccd4 dfbd 07e7 493e 02bf df3d
00000310: 90de 04be 4157 b13d da45 153e 0526 643e
00000320: fc93 953e b59d bbbd 12af 893d 3c1e 3d3e
00000330: 77be 603d f9d4 f63d c834 a5bd 2c6f d53c
00000340: 45d3 91ba 859e 08be c1a0 6d3c dd19 e1bc
00000350: b4d0 8e3d a85b 51bd c829 ecbd 770e 17be
00000360: 5409 53bd 314d c93d bad2 2abd 4668 c4bd
00000370: 9a5a a1be 1c50 d6bc a4e1 603e 8180 efbb
00000380: 311d f8bd ffa3 873c feda 3bbe 9808 59be
00000390: 94c4 6cbd 0db4 2ebe ea76 6cbe 50b5 efbd
000003a0: b86c c5bd fc42 0fbe 4ce0 26be 90c6 52be
000003b0: f7ac ff3c 741d f5bd 33b2 84be e045 72bc
000003c0: f8d1 15be 18df 053e 8d72 a33d 05b0 72bd
000003d0: 5bec 673e d9e7 2cbd 8ef0 b73d 3fbb 043e
000003e0: 15c4 ca3d 2c9f 813e 23ff cbbc ff04 89bc
000003f0: ff94 e5bc f013 813d 6204 3b3d 90ed 02be
0.26187232 0.41856703 0.22470538 0.024230212 0.13668483 -0.15889913 -0.015259788 -0.056472715
-0.24519868 -0.27059752 -0.40643713 -0.20760672 -0.1611682 -0.1667014 -0.3124141 -0.07351327
-0.07621799 -0.043435793 -0.051200423 -0.43165264 -0.25568527 -0.341939 -0.08679854 -0.016936291
-0.13258688 -0.21510679 -0.047433164 0.0072995215 -0.13007693 -0.3384875 -0.31501883 -0.025857992
0.16524452 0.013551574 -0.17346443 0.010979572 -0.0038269346 -0.041291513 -0.12013996 -0.030621618
0.25494573 0.1610409 0.018379875 -0.10640841 0.06227115 -0.09654002 -0.1615885 -0.016771123
-0.0002509108 0.12699613 -0.358541 -0.54728585 -0.4113061 -0.15138437 0.0067687165 -0.22593062
-0.47317082 -0.20557253 -0.10771343 0.0123316115 -0.096300185 -0.3413849 -0.09653536 0.1386035
0.3047314 -0.29845217 -0.39482433 -0.23819248 0.058358848 0.22192349 -0.20789307 -0.08160194
0.12195615 0.17212826 0.102906555 0.09086947 -0.13800655 -0.124145746 -0.013109693 0.24893251
-0.066279985 -0.12647197 0.08837447 0.1646216 0.38383606 -0.09853107 -0.08554036 0.2245232
0.21168764 0.29312032 -0.32733116 -0.22052117 0.1484802 0.15179786 0.08585279 -0.19024965
0.0433591 0.23965806 0.107217334 -0.004128514 0.02774732 -0.2502134 -0.18696386 -0.41359726
-0.49590144 0.29066223 -0.08825733 0.0019583474 -0.32908663 -0.17338686 0.1614543 -0.2473685
-0.32964227 -0.34131908 0.09528414 0.24153762 -0.0013217436 -0.09320221 -0.1226316 0.39384297
0.30464548 0.19574882 0.20724414 0.1625779 0.4139856 0.2321522 0.22324374 0.19010438
0.009789277 0.05170314 -0.039979517 -0.004967719 0.0113574695 -0.29698193 -0.3767599 -0.271372
-0.12280802 -0.0068453765 -0.17394115 -0.33474895 0.08578833 0.19032519 0.15368924 -0.105120346
-0.27759027 -0.07899055 0.07170635 0.051921573 -0.124982245 -0.16635819 -0.04367814 -0.1368723
-0.23774359 -0.34113666 -0.06542975 -0.010103348 -0.10636084 -0.17503981 -0.20237288 -0.0029895974
-0.004318496 -0.020145169 -0.07186709 -0.11644153 -0.06527914 -0.32399574 -0.29892325 -0.23387387
-0.2332568 -0.16927357 -0.36837137 -0.3351567 -0.120233856 -0.14496571 -0.035577375 -0.4733878
-0.28001952 -0.041017078 0.032989323 0.16303414 -0.49619618 -0.46852595 -0.27029356 -0.10009891
0.02340553 -0.26525265 -0.38734293 -0.2589636 -0.12792245 0.15510501 -0.01723817 -0.24551804
-0.23273759 -0.1092926 0.19717036 0.10925104 -0.12975526 0.086592205 0.14577428 0.22280128
0.29214466 -0.091609396 0.06722845 0.18468565 0.05486914 0.1205234 -0.08066708 0.026053987
-0.0011125585 -0.1334172 0.014503659 -0.027478153 0.06973401 -0.0511128 -0.11531407 -0.14751612
-0.051522568 0.09829176 -0.04170487 -0.09590201 -0.31514436 -0.026161246 0.21961075 -0.00730902
-0.12114943 0.016557692 -0.18345258 -0.21194685 -0.05780466 -0.17060871 -0.23092237 -0.117045045
-0.09639877 -0.13990396 -0.162965 -0.20583558 0.031210406 -0.11968508 -0.25917205 -0.014787167
-0.14630878 0.13073385 0.07980833 -0.059249897 0.22648756 -0.042213295 0.08981429 0.12962054
0.09900681 0.2531675 -0.024901932 -0.016726015 -0.028025148 0.06302631 0.045658477 -0.12785935

conv3.bias f4 [16]
00000000: 27f1 c13e ab0f 063e de54 b3bd 71cc e9bd
00000010: 988e 9f3d 9e77 f6bd 02c0 e43e 4da4 913e
00000020: 5e21 103f aef1 03bf 844c 203f 1f0a 1a3c
00000030: b10a c83e 2376 b93e 77c8 01bf b734 49be
0.37879297 0.13091914 -0.087564215 -0.11415947 0.077908695 -0.12034534 0.4467774 0.28445664
0.56300914 -0.5154065 0.62616754 0.009401827 0.39070657 0.36222944 -0.5069651 -0.19649015

conv33.weight f4 [8, 16, 5, 5]
00000000: ceed 91be 0644 d3bd 24d9 3e3e f0df 1e3e
00000010: 9fe7 0a3e a970 3cbe 33a3 db3c 4f2f 033f
00000020: d6d7 033f dd40 d33e ca69 27bd 3092 d13d
00000030: d964 a33e c2d5 fa3e 4bb2 fe3e 06b8 803d
00000040: 60ea 84bc 7922 943d 50a9 b13e b3ad 673e
00000050: 0d6c 26bd 8eba c4bd f1a2 20be dd66 79be
00000060: babe a1be 4d8e a43d 5b32 05be d869 ebbe
00000070: 335b 69be cd0d 3cbe 429c b73e ad70 7d3d
00000080: 7f07 76be 4647 343e b6b1 bd3e f34f 943e
00000090: 534c 923d a1b1 d1bd 4e38 bc3d 6ddf 863e
000000a0: 0e9f 14be 866f 3fbc 86f5 f7bd d0ee 273d
000000b0: 41b3 473e a421 a4bd a737 b63c ba28 a5bd
000000c0: a8f5 543d 6b74 b43d 8583 573d 7980 bebc
000000d0: 77b3 75be c301 4ebe 0bea c0bc 232d 113e
000000e0: 7bc3 fb3d 7aed 84bd 3502 b5bd 1ac8 ab3d
000000f0: 0592 c3be 161e 1cbe 2e03 42be 2832 21bd
00000100: 3a6e 783e 83de e6bd 4a51 893d e995 1dbe
00000110: 2c50 ac3a 1072 783d 959e f3bc 234b 8b3d
00000120: f969 9ebd 51b9 99bd 3d86 263d 58a7 73bd
00000130: d407 f7be cd14 82be b674 7ebe d6cb edbd
00000140: 0364 e9bc 9368 90bd fa77 323e f8f5 bfbd
00000150: 05b6 a8bd 1f0d 81bd 212f c3bd 906c ab3e
00000160: bc2c 573d 84a6 7ebd d9d1 283e e5db 3bbd
00000170: bc91 403e 8011 8d3e 9536 1abc 0ee4 523e
00000180: fb25 24bd 2ef4 3cbe 7baa 2f3e 8da5 9fbd
00000190: 3f58 c53e 9933 9c3e f025 9e3e 5635 f53e
000001a0: 8f8d fa3d 07c9 543e 4e15 9cbd 0dad 1a3d
000001b0: 5aa4 ad3e 99f2 90bc 4edc 8cbe 098e 03bf
000001c0: efc4 f0be dfbf e1bd fd4f 81be 4c69 0cbf
000001d0: 6f91 65be ec0f f6bd 88a2 4cbd 6094 febc
000001e0: 8ea5 d9be f02c 52bd e328 d93c a30d 2ebd
000001f0: f601 223b f812 05bd 9c77 00be 1380 0bbe
00000200: 4b9a d43c 925a 0ebe c1d6 27bc c010 25bd
00000210: c900 173d 0259 dfbc d6cb aebe 122c 8abd
00000220: afba eeba 55b6 f63d 4c59 c3bd bddd 3abe
00000230: c34e 40be 2018 3ebe 2599 90bd c7db 533c
00000240: 926b 403e afc9 e93b ca10 83be 1ce8 82be
00000250: 55d0 6bbc cefe 823e e982 a03d 88d1 11be
00000260: 4abe 373d 4600 843e 55b7 a93e c2c4 ef3b
00000270: 435b abbe ae3b 04be c9bb 83be 3ee3 8bbe
00000280: 67ec 723e bbf3 92bc 72dc 153e 1a87 1abb
00000290: 2b8b 1abe b1fc 7f3c 34c2 73bc 52bf 093d
000002a0: 097b 2e3e 1e67 753e a686 c2be c666 4ebe
000002b0: 78e6 95be 25b8 b5bd 4ea0 9abd b36f 1fbe
000002c0: 184a 113e 831e 91bd 4e8a 24be 267a 78bd
000002d0: fe25 fabc 0c67 713e 5f4f bf3c 3466 91be
000002e0: d404 51be 3fc4 19be 88af 063e e84d a3bd
000002f0: 88b4 e6bd 18f8 57bd d7d5 39be 58c2 6abc
00000300: 7057 07be c2ef c63d f75d 0f3d e0a7 2b3d
00000310: b0f0 163e a981 c13d 2071 ac3e f35b 663e
00000320: e112 93be 79aa 86be 827a efbc a19c 083e
00000330: 7c18 60bd 5be9 6ebe c9be d9bd baa2 a23e
00000340: 3151 193f 4315 4f3d 64dc 02be f9fa 8dbe
00000350: 9dd9 59bd 6481 e83e ab89 a03d 47ff 0cbd
00000360: 788b 083e 6ba8 eebd ead8 073e f825 583d
00000370: edd4 8bbc 3c9a 3b3e f6cc c7bd 2438 a93c
00000380: b788 c3bc 9539 adbd d072 e23d 6467 ccbd
00000390: 816c f2bd fd0a dd3d 39e7 933c acdf 7cbd
000003a0: e4f6 80be 89fe a03b 2f83 c53e 0bab 1a3d
000003b0: f900 6cbd 461c 2fbe 9f09 4d3e f564 b13e
000003c0: 585c 693d b832 343d 9b12 43be 76ef a0bd
000003d0: c6fc d33b 0612 533e c340 073e 2642 243d
000003e0: d4c8 193e f7ac c43d f149 f9bd 5c49 173e
000003f0: 94dc ce3d 0e16 9b3d 7835 e3ba f296 963c
-0.28501743 -0.10315709 0.1863752 0.15515113 0.13564919 -0.18402351 0.026811218 0.5124406
0.51501215 0.41260424 -0.040872373 0.10232961 0.31912878 0.4899121 0.49745402 0.062851
-0.01622504 0.07233138 0.34699488 0.22624855 -0.04063039 -0.09605895 -0.15687157 -0.24355645
-0.31590825 0.08034954 -0.1300749 -0.4597919 -0.22788696 -0.1836464 0.35861403 0.061875034
-0.24026297 0.17605314 0.37049645 0.28967246 0.07143464 -0.10238958 0.09190427 0.26342335
-0.145138 -0.011684304 -0.12107377 0.040999234 0.19501974 -0.08014229 0.022243334 -0.080644086
0.05199209 0.088112675 0.05261566 -0.02325462 -0.23994242 -0.2011786 -0.0235491 0.14177375
0.12293144 -0.064906076 -0.088383116 0.08387776 -0.38197342 -0.15245852 -0.18946525 -0.039354473
0.24260798 -0.112729095 0.06704958 -0.15389217 0.0013146452 0.060655653 -0.029738704 0.068014406
-0.077350564 -0.075060494 0.040655363 -0.059485763 -0.4824816 -0.25406495 -0.24849209 -0.11611144
-0.028490072 -0.07051196 0.1742858 -0.09373087 -0.082378425 -0.06301331 -0.095304735 0.33481264
0.052532896 -0.06217052 0.164863 -0.045864005 0.18805593 0.27552414 -0.009412427 0.20594808
-0.040075283 -0.18452522 0.17154877 -0.07795248 0.3854389 0.30508116 0.3088832 0.47892255
0.122340314 0.20779811 -0.07621251 0.03776269 0.33914453 -0.017693805 -0.2751183 -0.51388603
-0.47025248 -0.11022925 -0.2525634 -0.5484817 -0.2241876 -0.120147556 -0.04995969 -0.03107661
-0.4250912 -0.051312387 0.026508754 -0.042493474 0.0024720407 -0.032488793 -0.12545627 -0.13623075
0.025952479 -0.13901737 -0.010244072 -0.040299177 0.036865983 -0.027264122 -0.3413989 -0.06746687
-0.0018213595 0.12046496 -0.095385164 -0.18248649 -0.18780045 -0.1856389 -0.0706046 0.012930817
0.18791035 0.0071346383 -0.25598747 -0.2556771 -0.014392932 0.25585026 0.07837469 -0.14240086
0.04485921 0.2578146 0.33147684 0.0073171565 -0.33468065 -0.12913391 -0.25729206 -0.2732181
0.23722993 -0.017938485 0.14634874 -0.0023579062 -0.15092151 0.015624211 -0.014877845 0.033629723
0.17039122 0.23965117 -0.37993354 -0.20156392 -0.29277396 -0.088730134 -0.07550107 -0.15569954
0.14188421 -0.07085898 -0.16068384 -0.060663365 -0.030535694 0.23574466 0.023353277 -0.28398287
-0.20411998 -0.15016268 0.13152897 -0.07973844 -0.11264902 -0.052726835 -0.1814798 -0.014328562
-0.13216949 0.09713699 0.03500172 0.041908145 0.14740252 0.09448559 0.33680058 0.22496013
-0.2872534 -0.26301935 -0.029233221 0.13340999 -0.05471085 -0.23331206 -0.106320925 0.31764776
0.59889513 0.050557386 -0.12779385 -0.2773054 -0.053186048 0.45411217 0.07838758 -0.03442314
0.13334453 -0.11653217 0.1326634 0.052770585 -0.017069304 0.18320554 -0.0975589 0.020656653
-0.023868902 -0.084582485 0.11057055 -0.09980658 -0.11837102 0.107931115 0.018054591 -0.061736748
-0.25188363 0.0049131555 0.38576648 0.037760776 -0.057618115 -0.17100629 0.20023201 0.34647337
0.05697283 0.04399368 -0.19050066 -0.078581735 0.006469342 0.20612344 0.13208298 0.040102147
0.15018016 0.09603303 -0.12172306 0.14774078 0.10100666 0.07572566 -0.001733466 0.018382523

conv33.bias f4 [8]
00000000: 14d4 283d e2a2 5c3d 99e9 143d fe48 11bc
00000010: e1d4 643d 9351 6dbc eaec 4a3c 87c5 263d
0.04121788 0.053866275 0.03635559 -0.0088675 0.05586708 -0.014484781 0.012385586 0.04071572

batch3.weight f4 [8]
00000000: a1da 393f 4808 3e3f aeae 263f cb92 263f
00000010: a7db 2e3f 6f08 3f3f 1e07 3c3f 9577 493f
0.72599226 0.74231386 0.6511029 0.6506774 0.6830391 0.74622244 0.7344836 0.7869809

batch3.bias f4 [8]
00000000: d719 1fbe f89e 05be 0e69 70bd 4b09 a9bd
00000010: 3dd8 d0bd 6f2b 4bbe aea3 02be 4890 19be
-0.15537201 -0.13048923 -0.058693938 -0.082537256 -0.10197494 -0.19840787 -0.12757751 -0.14996445

batch3.running_mean f4 [8]
00000000: 3e0d 53c1 2209 dcbf 5357 70c1 d48e cec0
00000010: 7ed7 87c1 27ee a1c1 2b49 7ac0 ef28 92c1
-13.190733 -1.7190287 -15.021319 -6.454935 -16.98022 -20.241285 -3.9107158 -18.269987

batch3.running_var f4 [8]
00000000: cd76 0344 45c4 c943 83fb e843 95ff e843
00000010: 95ac d743 c275 f043 4498 aa43 ed35 0d44
525.85626 403.53336 465.96494 465.99673 431.3483 480.91998 341.18958 564.8426
