models/net_new_bs64_dr0_2_adam/model_epoch_49.pt (torch, 763336 bytes, 28 tensors)

conv1.weight f4 [8, 3, 5, 5]
0.13918327 0.1571351 -0.0431044 0.25851208 0.05328288 0.1926674 -0.2251635 0.185937
0.41229746 -0.23204896 0.05896883 -0.05735702 0.35361248 0.17836994 0.14549382 -0.27953905
-0.033952538 -0.121208414 -0.22575212 0.23687157 -0.18482754 -0.30752164 -0.26536575 -0.06297593
-0.052471474 -0.12974286 -0.18675898 -0.29505086 -0.0143721895 -0.18148164 0.221234 -0.39304337
0.020268613 0.07694581 -0.38508025 0.1356171 0.011752495 0.31926352 0.01579334 -0.17056122
0.0031871947 0.10831111 0.15068543 0.024105703 0.13158356 0.13035254 0.17596877 0.26430905
0.23960064 0.050266035 -0.21042246 0.004395843 -0.1007018 0.3163883 0.25478783 0.1720359
-0.17451356 -0.058699917 0.25111356 -0.22092257 0.14729197 -0.1064069 0.10030153 -0.10235748
-0.022066088 -0.0038643484 0.20473905 -0.21912844 -0.40742043 -0.119655386 0.23999685 0.09055498
0.11386523 -0.17526256 -0.18958151 -0.3626319 -0.20186757 0.108874604 0.26911905 0.23575336
-0.27813375 -0.19184725 0.16584897 0.24379098 0.46274295 -0.23320226 -0.12398275 -0.07588818
-0.31197616 0.3297997 -0.019455237 -0.25237948 0.5282694 0.11847822 -0.05932462 -0.07599403
0.04082522 0.07255058 -0.08302217 -0.13909738 0.087311536 0.13372046 0.026903829 -0.05188676
0.0012518616 0.16355911 0.05548684 -0.0026624594 -0.14417523 -0.03783792 0.3460658 0.017963434
-0.05550054 -0.7220492 -0.15227744 0.26173788 -0.09275022 0.2620259 -0.20452374 -0.22579418
0.09173962 -0.17514975 -0.078395635 -0.24575278 -0.1864365 -0.11020504 -0.16718793 -0.26849598
0.006605764 -0.17250407 0.18173636 0.026597844 -0.14112233 0.10325797 0.030259045 0.022476686
-0.12729447 -0.14402664 -0.38704187 0.012827906 0.22322482 -0.098139 0.6980444 0.094779536
0.03609124 0.07270005 0.07026733 0.33907837 0.2526281 -0.0657512 0.105522044 -0.20047706
0.10016177 -0.12475818 0.010166471 -0.31072843 0.040731143 0.09038663 0.16783799 0.027726289
0.09311951 0.3227189 -0.45184797 -0.15165833 0.30623513 -0.061724972 -0.44166118 0.3610453
0.5558234 -0.032504734 -0.16307473 -0.34833404 -0.0189839 -0.014723609 -0.018257344 -0.082699135
-0.3913437 0.008047739 -0.039070573 -0.17487133 -0.31359434 -0.038792487 0.028955664 0.042050645
0.085680574 -0.083328985 0.2996238 -0.43829516 -0.137762 0.1912281 -0.07608557 -0.28235206
0.52295166 0.5982199 0.038606305 -0.07509411 -0.14762312 0.040782083 0.12841669 0.26114145
0.2267032 0.027980514 0.37736323 0.16964176 0.10727783 -0.020298202 0.07069741 -0.05600766
-0.035806764 -0.001653185 0.3831814 0.58101606 -0.78432715 -0.7062353 -0.2383867 0.5838087
0.050217308 0.08242847 -0.025833355 -0.45505297 0.29851288 0.08300505 -0.18138771 -0.3057941
-0.2737448 0.14797093 0.24317253 0.1888714 -0.053370126 -0.09389493 -0.11081803 0.27666318
0.4012222 0.041772988 0.08089042 0.19636111 0.08131399 0.19238402 -0.3281528 -0.3407292
0.21459794 -0.12437861 -0.0699924 -0.41283637 -0.22188316 -0.15383819 -0.1735806 0.09285205
-0.12339866 0.036660943 -0.09716336 -0.21028438 -0.11877245 -0.103489205 -0.04180147 -0.24994633
00000000: 0f86 0e3e 06e8 203e 3d8e 30bd b25b 843e
00000010: 263f 5a3d 9a4a 453e 4391 66be 4566 3e3e
00000020: a718 d33e 3e9e 6dbe 4d89 713d 32ef 6abd
00000030: b20c b53e 9ca6 363e 55fc 143e be1f 8fbe
00000040: d111 0bbd 1e3c f8bd 902b 67be 768e 723e
00000050: 6e43 3dbe 7a73 9dbe 05de 87be 86f9 80bd
00000060: 54ec 56bd 50db 04be bf3d 3fbe e810 97be
00000070: 5579 6bbc 53d6 39be 2a8b 623e fb3c c9be
00000080: 5d0a a63c c495 9d3d 3d29 c5be 36df 0a3e
00000090: 898d 403c 8276 a33e 0961 813c 9aa7 2ebe
000000a0: 41e0 503b 37d2 dd3d 484d 1a3e 5379 c53c
000000b0: d7bd 063e 237b 053e 2831 343e 8453 873e
000000c0: df59 753e c2e3 4d3d fc78 57be 010b 903b
000000d0: bf3c cebd a6fd a13e 8d73 823e 2e2a 303e
000000e0: afb3 32be 536f 70bd f591 803e 8739 62be
000000f0: b5d3 163e dceb d9bd e36a cd3d cca0 d1bd
00000100: f1c3 b4bc 0241 7dbb 1da7 513e 3563 60be
00000110: 6999 d0be e20d f5bd bcc1 753e e474 b93d
00000120: 2c32 e93d 0778 33be a821 42be e3aa b9be
00000130: 5fb6 4ebe a6f9 de3d f9c9 893e 5469 713e
00000140: 8c67 8ebe 9b73 44be 50d4 293e 58a4 793e
00000150: a5ec ec3e 93cc 6ebe abea fdbd 436b 9bbd
00000160: 57bb 9fbe 82db a83e 9760 9fbc e237 81be
00000170: aa3c 073f b6a4 f23d 5ffe 72bd c2a2 9bbd
00000180: 5938 273d 6695 943d 8707 aabd 8b6f 0ebe
00000190: 64d0 b23d 04ee 083e 6b65 dc3c 3687 54bd
000001a0: 8115 a43a 0a7c 273e 2b46 633d a87c 2ebb
000001b0: aca2 13be effb 1abd 892f b13e 0d28 933c
000001c0: 8954 63bd 37d8 38bf 9eee 1bbe 8202 863e
000001d0: d4f3 bdbd 4228 863e ac6e 51be 9736 67be
000001e0: fbe1 bb3d 755a 33be e48d a0bd 9ea6 7bbe
000001f0: 36e9 3ebe 2eb3 e1bd 5033 2bbe 4e78 89be
00000200: 2a75 d83b e8a4 30be 1919 3a3e b9e3 d93c
00000210: 5f82 10be ea78 d33d d1e1 f73c 0721 b83c
00000220: 7b59 02be b87b 13be 5a2a c6be 232c 523c
00000230: 0c95 643e 1afd c8bd 0ab3 323f c61b c23d
00000240: 68d4 133d c4e3 943d 51e8 8f3d ae9b ad3e
00000250: 7858 813e 91a8 86bd f11b d83d dc49 4dbe
00000260: 9d21 cd3d 3781 ffbd 4591 263c cc17 9fbe
00000270: b3d5 263d a01c b93d b9dd 2b3e 3e22 e33c
00000280: 71b5 be3d 693b a53e 9e58 e7be 524c 1bbe
00000290: daca 9c3e 53d3 7cbd 6a21 e2be eeda b83e
000002a0: 714a 0e3f af23 05bd 10fd 26be d758 b2be
000002b0: 2084 9bbc 4b3b 71bc 6d90 95bc 2a5e a9bd
000002c0: 345e c8be aada 033c 7708 20bd 7811 33be
000002d0: 708f a0be dfe4 1ebd 6e34 ed3c 4c3d 2c3d
000002e0: 4c79 af3d 63a8 aabd 4a68 993e 3968 e0be
000002f0: 7b11 0dbe 4dd1 433e c0d2 9bbd 7390 90be
00000300: 29e0 053f f024 193f a521 1e3d f1ca 99bd
00000310: 842a 17be 1d0b 273d aa7f 033e 55b4 853e
00000320: e224 683e 6437 e53c c135 c13e 92b6 2d3e
00000330: 7bb4 db3d 6a48 a6bc cec9 903d 4a68 65bd
00000340: 1daa 12bd afaf d8ba 5a30 c43e 78bd 143f
00000350: aac9 48bf d6cb 34bf a51b 74be 7d74 153f
00000360: aab0 4d3d 42d0 a83d 79a0 d3bc b4fc e8be
00000370: aed6 983e 8dfe a93d b3bd 39be 0b91 9cbe
00000380: 4728 8cbe b185 173e 3802 793e 8167 413e
00000390: a29a 5abd fc4b c0bd 90f4 e2bd cca6 8d3e
000003a0: ff6c cd3e 271a 2b3d e0a9 a53d e312 493e
000003b0: f387 a63d 5100 453e a503 a8be 0f74 aebe
000003c0: 90bf 5b3e 36ba febd 2d58 8fbd 4a5f d3be
000003d0: 5735 63be c287 1dbe 1dbf 31be 3729 be3d
000003e0: 70b8 fcbd c929 163d 95fd c6bd ca54 57be
000003f0: f83e f3bd 26f2 d3bd 0538 2bbd eef1 7fbe

conv1.bias f4 [8]
-0.290863 0.24685772 -0.0057127676 -0.049242035 -0.38089383 -0.35477674 -0.07839931 0.162485
00000000: ffeb 94be 45c8 7c3e 2b32 bbbb 04b2 49bd
00000010: 8404 c3be 4ca5 b5be d18f a0bd 7862 263e

conv11.weight f4 [32, 8, 5, 5]
0.1594959 0.11624472 0.026598502 -0.29201034 0.10520509 0.14701283 0.12956856 -0.026280912
-0.044393525 -0.1630883 0.014769522 0.24663669 0.02586259 0.24033643 0.11490981 -0.20639808
0.043211676 -0.1386906 0.062174205 0.24331637 -0.05668648 -0.07150899 -0.24468242 -0.058503143
-0.14506656 0.00893426 -0.18024988 -0.10075472 0.01636139 -0.08586313 0.03135166 0.15675698
0.17007028 -0.056487586 0.0152255865 0.05116028 -0.31598702 -0.16518573 0.050492577 -0.059805717
0.20335713 0.06011284 -0.00032512404 -0.12857147 -0.092489764 0.16095258 0.18042272 0.3249863
-0.04161127 -0.25247496 0.21511075 0.08035362 -0.37444964 0.14054772 -0.25598636 0.15333392
0.53120756 0.45131952 0.14695048 0.032628 -0.22602119 -0.66484815 -0.27509117 0.29190546
0.43131036 0.31738994 -0.2306585 -0.39414436 -0.25780424 0.02580519 0.09270653 0.15886393
0.20016226 0.01619076 0.038981084 0.27221283 0.21003263 0.17996444 -0.13343845 -0.46396124
-0.36101687 -0.40028667 -0.21192905 0.12148428 0.114155576 0.11353487 0.06223407 0.08901259
0.24118233 0.24160437 0.30350465 0.24195781 0.093499646 -0.038431343 -0.34133336 -0.0033079581
0.055824675 -0.06744423 -0.0074508535 -0.1028489 0.04036474 -0.047548395 -0.04697988 0.048411094
0.1368517 0.014014847 0.0119389305 0.1950427 0.21942753 0.2846709 0.07734853 -0.036008183
-0.047368113 -0.033571504 -0.015190475 0.0078333365 -0.21488646 -0.12928414 -0.047836185 0.004213123
-0.2039892 -0.3067077 -0.20912936 -0.29393515 -0.16070238 -0.024656406 -0.038849592 -0.24789406
-0.068148434 -0.0473819 -0.00031553558 0.14120114 0.038238462 0.23829027 -0.18386428 0.16262335
0.091864936 -0.14262791 0.4292553 -0.0069670035 -0.22992222 -0.04382174 -0.39721012 0.052116737
-0.010275765 -0.117736444 -0.05041799 -0.23667896 0.17702211 -0.05449536 -0.0586936 0.031291448
0.068385 0.28919217 0.16161561 0.18841985 0.09275375 -0.008388677 0.038842667 -0.3060045
-0.32585573 -0.008928737 -0.043441977 0.039914474 -0.10507399 -0.50345916 -0.26698077 -0.27215284
-0.029009588 0.05876583 -0.0810193 0.0032201372 -0.14581415 -0.057438225 -0.22377813 -0.049559478
0.19010353 -0.06970264 0.12063251 0.09211385 -0.3040662 -0.107374236 -0.24925324 -0.04656524
0.090049 -0.23896942 -0.17181964 -0.20474654 0.06149652 0.19634761 0.46616656 0.7783565
0.2522849 0.26677594 -0.024511129 0.03647922 0.09257502 -0.068438224 -0.020898614 -0.019248277
-0.20942374 0.096393384 -0.027334725 0.032411076 0.09544037 -0.026002022 0.29887155 0.06359622
0.17221251 0.087041095 -0.1120817 0.22894655 0.064557366 0.00044190654 -0.1896737 -0.34411374
-0.037911028 -0.04825594 0.05119739 -0.23257177 0.030521343 0.060212754 0.07937242 0.115282625
-0.1544685 -0.32795167 -0.08746091 0.002365654 -0.32224238 -0.09804116 -0.14015538 0.10520496
0.095901065 -0.17369609 -0.05308087 -0.19402757 -0.034068592 -0.095406584 -0.051865626 0.0036403376
-0.16389607 0.07167236 0.020220289 -0.060767703 -0.030638555 0.0272821 0.040235803 0.12115192
0.19900051 0.08856155 -0.13204989 -0.090252005 -0.26808923 0.023924295 0.361628 -0.031239148
00000000: e552 233e b611 ee3d 1ae5 d93c 6182 95be
00000010: c475 d73d 888a 163e 9fad 043e 114b d7bc
00000020: fcd5 35bd 9f00 27be ddfb 713c 548e 7c3e
00000030: c8dd d33c c11a 763e d655 eb3d 055a 53be
00000040: bafe 303d e904 0ebe 61aa 7e3d ed27 793e
00000050: 1530 68bd 4e73 92bd 078e 7abe fea0 6fbd
00000060: 548c 14be 0161 123c 6d93 38be 7e58 cebd
00000070: 5208 863c 02d9 afbd 996a 003d e784 203e
00000080: e726 2e3e 875f 67bd bd74 793c 718d 513d
00000090: 0dc9 a1be 7326 29be 4ed1 4e3d d7f6 74bd
000000a0: da3c 503e e238 763d 6975 aab9 3da8 03be
000000b0: 466b bdbd c1d0 243e bcc0 383e 9b64 a63e
000000c0: 9470 2abd 6644 81be fe45 5c3e 7090 a43d
000000d0: ddb7 bfbe beeb 0f3e a510 83be 9103 1d3e
000000e0: 38fd 073f 5a13 e73e 307a 163e f0a4 053d
000000f0: 1972 67be 7d33 2abf c0d8 8cbe a274 953e
00000100: b6d4 dc3e ef80 a23e be31 6cbe 4acd c9be
00000110: ebfe 83be 6865 d33c ecdc bd3d 3aad 223e
00000120: 56f7 4c3e 7ca2 843c a1aa 1f3d 7b5f 8b3e
00000130: cb12 573e 9948 383e 17a4 08be 548c edbe
00000140: 34d7 b8be 60f2 ccbe ee03 59be c0cc f83d
00000150: 66ca e93d f884 e83d 27e9 7e3d 3c4c b63d
00000160: 80f8 763e 2367 773e f664 9b3e cac3 773e
00000170: be7c bf3d 2f6a 1dbd 3fc3 aebe 54ca 58bb
00000180: 6aa8 643d 3320 8abd 4a26 f4bb 72a2 d2bd
00000190: 7f55 253d 1bc2 42bd fa6d 40bd b64a 463d
000001a0: da22 0c3e 879e 653c 819b 433c 46b9 473e
000001b0: 9cb1 603e 62c0 913e e868 9e3d 517d 13bd
000001c0: 1105 42bd 4682 09bd 78e1 78bc 6557 003c
000001d0: 320b 5cbe 1063 04be e0ef 43bd 3d0e 8a3b
000001e0: 8be2 50be cb08 9dbe 0226 56be ab7e 96be
000001f0: 2a8f 24be 3bfc c9bc c020 1fbd f1d7 7dbe
00000200: 6891 8bbd 8613 42bd 786e a5b9 0897 103e
00000210: ef9f 1c3d 5d02 743e eb46 3cbe bc86 263e
00000220: af23 bc3d 0d0d 12be 5ac7 db3e 764b e4bb
00000230: bb70 6bbe 6d7e 33bd 205f cbbe 5c78 553d
00000240: af5b 28bc ce1f f1bd 1883 4ebd f85b 72be
00000250: 4945 353e 8736 5fbd b368 70bd 762b 003d
00000260: 6f0d 8c3d ff10 943e 907e 253e 22f1 403e
00000270: aef5 bd3d a970 09bc 7d19 1f3d 9fac 9cbe
00000280: 90d6 a6be d649 12bc 37f0 31bd 5c7d 233d
00000290: 0831 d7bd b3e2 00bf b4b1 88be 9e57 8bbe
000002a0: 84a5 edbc 70b4 703d 72ed a5bd f008 533b
000002b0: 4e50 15be 5844 6bbd 1826 65be e1fe 4abd
000002c0: 80aa 423e 42c0 8ebd 2d0e f73d 30a6 bc3d
000002d0: 91ae 9bbe 06e7 dbbd 3e3c 7fbe 31bb 3ebd
000002e0: 9c6b b83d 66b4 74be 7df1 2fbe 14a9 51be
000002f0: c6e3 7b3d 590f 493e 62ad ee3e 5f42 473f
00000300: 7d2b 813e db96 883e 90cb c8bc 3c6b 153d
00000310: f997 bd3d 5729 8cbd 9233 abbc 90ae 9dbc
00000320: 2d73 56be e569 c53d 13ed dfbc 7ac1 043d
00000330: 3e76 c33d 3102 d5bc b105 993e bc3e 823d
00000340: 7a58 303e 9a42 b23d 178b e5bd f770 6a3e
00000350: a736 843d b1af e739 d339 42be ad2f b0be
00000360: 9848 1bbd 05a8 45bd 5bb4 513d 4b27 6ebe
00000370: e507 fa3c a6a1 763d 028e a23d 4c19 ec3d
00000380: fe2c 1ebe 48e9 a7be b51e b3bd 1709 1b3b
00000390: f4fc a4be cec9 c8bd e484 0fbe b375 d73d
000003a0: c767 c43d 63dd 31be 546b 59bd 2aaf 46be
000003b0: 828b 0bbd 8764 c3bd 0d71 54bd bb92 6e3b
000003c0: 5fd4 27be f5c8 923d 05a5 a53c 8ee7 78bd
000003d0: b5fd fabc b67e df3c 4cce 243d 7f1e f83d
000003e0: cac6 4b3e c25f b53d 1638 07be 0bd6 b8bd
000003f0: fe42 89be e2fc c33c 4e27 b93e 3ee9 ffbc

conv11.bias f4 [32]
-0.0043905997 0.022855274 0.00088550965 -0.15739389 -0.10467049 -0.05630045 -0.17766085 0.040617194
0.17947143 0.008887392 -0.011909307 0.035861067 -0.017457878 -0.0064483117 0.08650337 0.053853408
0.030601075 -0.0060818978 -0.15193413 -0.029626679 0.036186542 0.2210724 -0.029010838 0.033408288
0.034228187 -0.02123182 0.077987105 -0.10721874 -0.044801094 0.17987426 0.06560597 0.042291455
00000000: 05df 8fbb fc3a bb3c 8c21 683a dd2b 21be
00000010: 7b5d d6bd 4d9b 66bd baec 35be 375e 263d
00000020: 5cc7 373e 6c9c 113c 411f 43bc 0ee3 123d
00000030: d303 8fbc 5c4c d3bb ae28 b13d 6495 5c3d
00000040: 1baf fa3c a84a c7bb 9f94 1bbe a6b3 f2bc
00000050: 5738 143d ce60 623e 23a8 edbc 21d7 083d
00000060: db32 0c3d 5bee adbc b4b7 9f3d 8095 dbbd
00000070: 5a81 37bd f530 383e 6c5c 863d ce39 2d3d

batch1.weight f4 [32]
0.98927325 0.9112076 1.011395 0.96829855 0.9571167 1.0201099 0.99858564 0.9991181
0.95333767 1.0049738 0.9037476 1.0514386 1.081405 1.1909115 0.9157983 0.9347614
1.0621264 0.9452727 0.9769102 0.9339468 0.9002497 0.95627326 1.031123 1.0311025
0.9776713 0.8603026 1.0189911 0.9676377 0.8881448 0.84690815 1.092108 0.91496736
00000000: 0341 7d3f e744 693f 6475 813f 6ae2 773f
00000010: 9a05 753f f692 823f 4fa3 7f3f 34c6 7f3f
00000020: f00d 743f fba2 803f 015c 673f 8a95 863f
00000030: 7b6b 8a3f ca6f 983f c271 6a3f 864c 6f3f
00000040: c2f3 873f 64fd 713f c916 7a3f 2317 6f3f
00000050: c476 663f 53ce 743f d7fb 833f 2bfb 833f
00000060: ab48 7a3f cb3c 5c3f 4d6e 823f 1bb7 773f
00000070: 755d 633f f9ce 583f 32ca 8b3f 4d3b 6a3f

batch1.bias f4 [32]
-0.4037922 -0.3159727 -0.44016987 -0.4532607 -0.3934913 -0.38256013 -0.3452903 -0.50141066
-0.32810348 -0.44476026 -0.30404076 -0.35133573 -0.3266405 -0.2268979 -0.22781135 -0.37386307
-0.24161501 -0.26657993 -0.63943166 -0.14098501 -0.3016001 -0.2950793 -0.4754427 -0.37903604
-0.4768482 -0.3016702 -0.20715521 -0.30078387 -0.10247094 -0.36927053 -0.2562011 -0.3124168
00000000: dabd cebe 2cc7 a1be f25d e1be c911 e8be
00000010: b177 c9be ecde c3be e4c9 b0be 735c 00bf
00000020: 2efd a7be 9eb7 e3be 3bab 9bbe 47e2 b3be
00000030: 6c3d a7be ec57 68be 6147 69be fb6a bfbe
00000040: ed69 77be 2a7d 88be cbb1 23bf 605e 10be
00000050: 546b 9abe a214 97be 3a6d f3be 0311 c2be
00000060: 7325 f4be 8474 9abe 7f20 54be 5800 9abe
00000070: 49dc d1bd 0711 bdbe ca2c 83be 18f5 9fbe

batch1.running_mean f4 [32]
0.5403453 0.5514083 0.35271326 -0.8380954 0.1128872 -1.0297332 0.6630155 -0.7996345
1.0897795 -0.70329064 0.08493773 -0.2898342 1.2115376 -0.19571961 0.11656933 -0.29597846
-0.70305294 0.75457543 -0.16979502 1.5128851 -0.05564182 0.1281833 -0.17760876 -0.2598123
-0.2141856 -0.69034433 0.27510458 0.31183875 0.027063157 -0.34140164 -0.08933579 0.01977243
00000000: 1254 0a3f 1829 0d3f d596 b43e 6c8d 56bf
00000010: 6831 e73d 4cce 83bf 62bb 293f d9b4 4cbf
00000020: e57d 8b3f db0a 34bf d5f3 ad3d 2665 94be
00000030: aa13 9b3f b96a 48be e7bb ee3d 7d8a 97be
00000040: 47fb 33bf db2b 413f bfde 2dbe 38a6 c13f
00000050: ade8 63bd 7c42 033e 12df 35be 1e06 85be
00000060: 7853 5bbe 68ba 30bf 82da 8c3e 54a9 9f3e
00000070: 8eb3 dd3c 32cc aebe aff5 b6bd cbf9 a13c

batch1.running_var f4 [32]
1.5347838 2.4930944 1.0553805 0.74851936 1.2990284 2.8643863 1.3358105 1.7706784
3.0895545 2.18673 0.47637466 0.7791838 1.1012241 1.2761376 1.4504637 2.430892
3.1830728 3.3323607 0.9349861 1.4450631 1.248019 0.5942834 1.4921501 1.4100554
0.93312186 2.3985565 2.1084232 1.104947 2.4830668 1.343763 1.4955105 0.4272348
00000000: cc73 c43f dc8e 1f40 b516 873f f79e 3f3f
00000010: 9046 a63f 1b52 3740 d7fb aa3f 97a5 e23f
00000020: 43bb 4540 62f3 0b40 61e7 f33e 9778 473f
00000030: e9f4 8c3f 7a58 a33f cba8 b93f bc93 1b40
00000040: 77b7 4b40 6645 5540 405b 6f3f d4f7 b83f
00000050: 16bf 9f3f f522 183f c6fe be3f b27c b43f
00000060: 13e1 6e3f f381 1940 68f0 0640 e76e 8d3f
00000070: 91ea 1e40 6d00 ac3f e36c bf3f 85be da3e

conv2.weight f4 [64, 32, 5, 5]
0.236631 0.041598577 -0.043631535 -0.05575925 -0.08881336 0.019900704 -0.17318214 -0.323577
-0.13843334 0.12140293 0.17732872 0.22183742 0.15335177 0.011208107 -0.0328907 0.03758153
0.17806725 0.17413911 -0.080437474 -0.29325452 0.13438869 0.09754734 0.29251057 0.20704463
-0.12734754 0.35530913 0.49331987 -0.051315762 0.019110601 -0.1885733 0.41868046 0.36419186
-0.09859813 -0.026384927 -0.084890455 0.4482122 0.1509176 -0.18358213 -0.24541417 -0.17575167
0.4583604 0.23883194 -0.05403414 -0.013345836 -0.016175317 0.14336047 0.039250486 -0.1363595
0.08058792 0.06188366 0.061425533 -0.0016619388 -0.122459896 -0.02461173 -0.1665944 -0.02072602
0.007567923 -0.33808145 -0.4279165 -0.115229525 0.081339486 0.051038437 -0.33987632 -0.24709891
0.08111553 -0.022851119 -0.06550187 -0.017604169 0.06450198 0.22499593 -0.46990275 -0.11977407
-0.0360662 -0.11825541 0.08735598 -0.3562282 -0.17470205 -0.39397174 -0.43302992 -0.2368705
-0.3706735 -0.0036460198 -0.15460818 -0.26712582 -0.041193902 -0.17165092 0.13368514 -0.13949868
-0.21041499 0.03289586 -0.14378108 0.09337054 -0.09411763 0.0042691785 0.28159246 -0.081746764
0.118199684 -0.108969316 -0.042208888 0.037805714 0.16665109 0.021855569 0.10855782 0.18436107
0.13324276 -0.054792743 -0.020739881 -0.055381097 0.12147664 0.07747818 -0.19092432 -0.036698546
-0.11934026 -0.16559401 -0.23028709 0.030278297 0.107435435 0.0033290354 -0.07541916 -0.11752184
0.067144066 0.019047745 0.025119074 0.11630187 0.07971835 -0.2968787 -0.06585795 -0.20926751
-0.24480644 -0.19752748 -0.17994359 -0.01695089 -0.16157654 -0.08160143 -0.10784057 0.15364563
-0.019466782 -0.17367178 0.004627307 0.044583857 0.18872748 -0.03651323 -0.14712195 -0.033643357
-0.09696956 0.06002432 -0.024909632 -0.018856915 -0.076005526 -0.0672271 -0.68450874 -0.46616083
-0.24346149 -0.45615172 -0.22222033 -0.35691604 0.031765614 0.17851646 -0.08167828 -0.07755945
-0.11345076 0.5058761 0.32751328 0.1174034 0.013222247 -0.250704 0.24558373 0.10608928
0.05001678 0.047863897 -0.1822035 0.20108566 0.22455886 0.0982431 0.15349114 0.32930282
0.17798242 -0.14365965 -0.20653981 -0.22099029 -0.093839385 0.032739393 0.04329728 0.007945675
-0.18109871 -0.33399028 -0.34391695 -0.26145348 -0.017092785 -0.037334204 0.24067448 0.032793213
-0.13901956 0.09468146 0.21674992 0.1786597 0.10942697 -0.13240305 0.039082896 0.27696064
-0.32358065 -0.24820293 -0.013530977 0.033688843 0.06659638 -0.33415094 -0.14064622 -0.0063170614
0.10065971 0.18994902 -0.18746 0.13271771 0.20786574 0.22850412 0.22437245 -0.17383362
-0.04815554 0.0034988155 -0.1512454 -0.3147855 -0.18247555 -0.23311923 -0.104387246 -0.042412963
-0.119761705 0.0662671 0.1736424 0.035327796 0.06807829 -0.061120953 0.23915471 0.21888755
0.23700319 0.050195742 -0.1446516 -0.008372056 -0.06432012 -0.12948123 -0.27466053 -0.2771117
-0.18016154 -0.22090523 -0.025401564 0.10632523 0.19528736 -0.26850042 -0.24771176 0.30302507
0.45475674 0.34570026 0.22923511 0.059913114 0.24652961 0.18966016 0.027543733 -0.13740502
00000000: 664f 723e 4563 2a3d fbb6 32bd d063 64bd
00000010: c7e3 b5bd cd06 a33c a956 31be e2ab a5be
00000020: 78c1 0dbe 19a2 f83d a995 353e 5929 633e
00000030: 3f08 1d3e 35a2 373c 66b8 06bd 17ef 193d
00000040: 4357 363e 8651 323e 67bc a4bd 7525 96be
00000050: 309d 093e e6c6 c73d f2c3 953e 8203 543e
00000060: 6567 02be 14eb b53e 6c94 fc3e 7a30 52bd
00000070: d68d 9c3c 5c19 41be 495d d63e 5b77 ba3e
00000080: d1ed c9bd 3425 d8bc 0cdb adbd 127c e53e
00000090: 258a 1a3e f4fc 3bbe da4d 7bbe 3ff8 33be
000000a0: 37ae ea3e 5c90 743e e752 5dbd 7ea8 5abc
000000b0: 1982 84bc 16cd 123e 1ec5 203d d3a1 0bbe
000000c0: 480b a53d b879 7d3d 5799 7b3d 6ad5 d9ba
000000d0: 41cc fabd 8a9e c9bc b997 2abe 9dc9 a9bc
000000e0: 57fc f73b 0319 adbe df17 dbbe 75fd ebbd
000000f0: 5195 a63d ae0d 513d 4504 aebe 7f07 7dbe
00000100: e61f a63d 4532 bbbc d825 86bd 9e36 90bc
00000110: 9d19 843d 5565 663e 1897 f0be 1c4c f5bd
00000120: 27ba 13bd e42f f2bd b1e7 b23d 8b63 b6be
00000130: 18e5 32be aab6 c9be 19b6 ddbe 2e8e 72be
00000140: ebc8 bdbe 10f2 6ebb 9b51 1ebe b7c4 88be
00000150: f0ba 28bd 42c5 2fbe c2e4 083e bed8 0ebe
00000160: 0777 57be cfbd 063d 593b 13be 0e39 bf3d
00000170: bec0 c0bd 77e4 8b3b e32c 903e d96a a7bd
00000180: ad12 f23d 4e2b dfbd 3ae3 2cbd 2ada 1a3d
00000190: 95a6 2a3e 730a b33c 9053 de3d 26c9 3c3e
000001a0: ca70 083e 5b6e 60bd afe6 a9bc 4ad7 62bd
000001b0: bfc8 f83d e1ac 9e3d aa81 43be 3751 16bd
000001c0: ab68 f4bd 7a91 29be 61d0 6bbe 310a f83c
000001d0: 1c07 dc3d f22b 5a3b 5c75 9abd 4aaf f0bd
000001e0: d482 893d 040a 9c3c 84c6 cd3c ad2f ee3d
000001f0: 6043 a33d 7c00 98be 88e0 86bd 394a 56be
00000200: 8aae 7abe a544 4abe 2243 38be 98dc 8abc
00000210: 5274 25be a71e a7bd 84db dcbd 4855 1d3e
00000220: cd78 9fbc 04d7 31be aaa0 973b 909d 363d
00000230: c741 413e e68e 15bd 23a7 16be 9ecd 09bd
00000240: fa97 c6bd 10dc 753d 490f ccbc d179 9abc
00000250: c9a8 9bbd 5dae 89bd f73b 2fbf a2ac eebe
00000260: f84d 79be b88c e9be ba8d 63be b3bd b6be
00000270: a91c 023d 05cd 363e f146 a7bd 7dd7 9ebd
00000280: df58 e8bd 1981 013f d2af a73e 3271 f03d
00000290: 20a2 583c 465c 80be 4d7a 7b3e 5645 d93d
000002a0: 65de 4c3d ef0c 443d 8e93 3abe 66e9 4d3e
000002b0: c2f2 653e ae33 c93d c82c 1d3e 619a a83e
000002c0: 0641 363e 841b 13be 2c7f 53be 474b 62be
000002d0: dd2e c0bd be19 063d 7d58 313d 942e 023c
000002e0: f171 39be c600 abbe e215 b0be 3bdd 85be
000002f0: 2b06 8cbc c0eb 18bd 5f73 763e 2d52 063d
00000300: 255b 0ebe 5ae8 c13d b1f3 5d3e 92f2 363e
00000310: 3f1b e03d aa94 07be 6315 203d c9cd 8d3e
00000320: 5dac a5be e928 7ebe 08b1 5dbc 50fd 093d
00000330: af63 883d d515 abbe 9005 10be 5aff cebb
00000340: ae26 ce3d ff81 423e 84f5 3fbe 27e7 073e
00000350: c2da 543e fcfc 693e e4c1 653e 7101 32be
00000360: be3e 45bd 624c 653b 13e0 1abe 912b a1be
00000370: dfda 3abe cfb6 6ebe fbc8 d5bd 37b9 2dbd
00000380: a045 f5bd 0cb7 873d 50cf 313e e1b3 103d
00000390: a16c 8b3d f759 7abd f9e4 743e 0f24 603e
000003a0: f7b0 723e 0d9a 4d3d 8d1f 14be f32a 09bc
000003b0: 44ba 83bd ba96 04be 4ea0 8cbe 96e1 8dbe
000003c0: 447c 38be fb34 62be f116 d0bc 0bc1 d93d
000003d0: 69f9 473e e378 89be 27a8 7dbe 1a26 9b3e
000003e0: e0d5 e83e a0ff b03e 9cbc 6a3e 7467 753d
000003f0: 4272 7c3e 4636 423e 65a3 e13c e7b3 0cbe

conv2.bias f4 [64]
0.22442658 -0.4279927 0.27187917 0.1875821 0.26381606 -0.06910148 -0.5805611 0.018929528
0.19093524 -0.3415397 0.01391192 -0.23784164 0.15316582 0.3095889 0.5499036 -0.23186724
-0.08405716 -0.058302462 -0.021857208 0.08579869 -0.14354062 0.12719981 0.14837326 -0.17941344
0.22443864 0.3329469 -0.10291547 -0.28759578 0.14289911 -0.19167039 0.13059254 0.06643354
-0.14799272 0.039886508 -0.044207763 0.2737418 -0.43984583 0.087843254 -0.4088513 -0.17793241
-0.36278448 0.21681406 0.19192381 0.21351099 0.04778506 0.23523314 0.17331803 -0.19218025
0.23972675 0.10067433 0.2976573 0.014005346 0.13021986 -0.0662309 0.10849782 -0.562955
0.60602033 0.193679 -0.15368824 0.089707516 0.0828997 0.19364774 -0.5541089 0.08416228
00000000: 15d0 653e dc21 dbbe bf33 8b3e 8615 403e
00000010: e612 873e 1485 8dbd a79f 14bf 1912 9b3c
00000020: 8784 433e 4bde aebe d2ee 633c c28c 73be
00000030: 80d7 1c3e 7082 9e3e 7bc6 0c3f 9b6e 6dbe
00000040: 2926 acbd 90ce 6ebd e30d b3bc 39b7 af3d
00000050: 50fc 12be ab40 023e 29ef 173e 28b8 37be
00000060: 3ed3 653e 0478 aa3e 59c5 d2bd c13f 93be
00000070: 2554 123e 3e45 44be 0dba 053e 4f0e 883d
00000080: 678b 17be 0960 233d 3313 35bd e327 8c3e
00000090: 7933 e1be 2ae7 b33d f554 d1be ea33 36be
000000a0: e3be b9be 8104 5e3e ad87 443e a0a2 5a3e
000000b0: 44ba 433d f5e0 703e 487a 313e e6ca 44be
000000c0: ee7a 753e 582e ce3d 8a66 983e ae76 653c
000000d0: 5b58 053e 11a4 87bd 1b34 de3d d21d 10bf
000000e0: 2624 1b3f ca53 463e 7360 1dbe 93b8 b73d
000000f0: 51c7 a93d 984b 463e 15da 0dbf 465d ac3d

conv22.weight f4 [32, 64, 5, 5]
-0.43634683 -0.33144882 -0.22630957 -0.3190204 0.4394017 -0.33071128 -0.21888877 -0.068174966
0.038510475 0.4945887 0.04802216 0.14372487 0.19238096 0.12460383 0.42255086 0.16529605
0.50651914 0.2373142 -0.16524458 0.010909909 0.3162826 0.4490936 0.17685318 -0.18092789
0.12675008 0.114656925 0.073139794 0.015809352 0.06265277 0.09992137 0.06441176 0.04671758
-0.06752564 -0.017028427 -0.07715476 0.12935379 0.06897271 -0.0059803547 0.10845519 0.10459677
0.06626849 0.06575951 0.039695993 0.028195888 -0.06747565 -0.24097364 -0.061053418 0.06082765
0.008921254 -0.00986575 0.2891894 0.2639207 0.22522412 0.14329855 0.09897094 0.12189818
0.2638943 0.16429982 0.0074059484 0.054864626 -0.18536657 -0.18079829 -0.28103197 -0.3599069
-0.107700944 -0.31928107 -0.18061008 -0.14811622 0.025258735 0.11941362 -0.13572992 0.026094079
0.002042101 0.1470284 0.19912218 0.25055015 0.26528573 0.18623376 0.03764197 -0.00035061137
-0.057767674 -0.30319628 -0.307023 -0.15296972 -0.043791708 -0.22598691 -0.21451081 -0.05682663
0.05539191 0.070773475 0.01831841 -0.017577928 0.075493515 0.094604395 0.07501725 -0.13097209
-0.19609748 -0.05363196 0.02935235 -0.045810886 -0.118265755 0.11728437 -0.14662538 -0.1828016
-0.052196562 -0.071895905 0.29332983 0.2541563 0.28713024 0.2854131 0.09957512 0.33530217
0.13585092 0.038493466 -0.31525093 0.085415676 -0.06209348 -0.3798362 -0.360538 -0.64920634
-0.12857665 -0.23894052 -0.5251853 -0.3448159 -0.4867619 -0.48490965 -0.39002988 -0.2772559
-0.1643523 0.033552412 -0.1662828 -0.15900698 -0.24017586 -0.10951696 0.045415502 0.08125289
-0.031051176 0.028561722 0.085901536 0.25127602 0.30907264 0.19307207 0.0760833 -0.020895433
0.12483702 0.35927048 0.16815807 -0.11271509 -0.23000601 -0.06901051 -0.21614195 -0.031224199
-0.16586396 0.04080217 -0.18502164 -0.17515706 0.044000376 0.032258373 0.31622455 0.05494756
0.17903307 0.22104529 0.08795861 0.2542302 0.056050625 0.25649503 -0.03161184 -0.22306986
-0.038531493 -0.21771058 0.3258083 0.03382457 -0.0850009 -0.048726164 -0.33782735 -0.20201099
0.02989908 0.012976023 0.08251955 0.14453714 -0.08345226 0.04750957 -0.048880592 -0.04755082
-0.1786055 -0.04776218 -0.0757802 -0.20066066 -0.15359037 -0.25966394 -0.07492647 -0.19328897
-0.25520444 -0.17078796 -0.18207894 -0.16627277 -0.22804125 -0.2814761 -0.15399167 -0.103882745
-0.05465987 -0.00039397422 0.26397532 0.51126736 0.23263186 0.023094153 -0.023432055 -0.056702603
-0.13468471 -0.08685689 0.028031982 -0.09464214 -0.06700701 0.09952743 0.016442914 0.10268515
-0.21351473 -0.28858662 -0.06004538 -0.21549995 -0.11155205 -0.11262456 -0.011327419 0.32354504
0.03560131 -0.12541224 -0.02515531 -0.11017089 -0.081521444 -0.17250605 0.13789967 0.1642951
0.06422457 0.12850805 0.017253017 0.21196003 0.14555988 0.06516164 0.19219662 0.17119198
0.23789711 0.03199421 -0.058339413 0.043849558 0.009520906 0.1695508 0.008460353 -0.10331418
0.061912496 -0.0021355057 -0.23432393 -0.0024732002 0.24693571 -0.050020654 0.280369 -0.028628198
00000000: da68 dfbe a9b3 a9be b2bd 67be a456 a3be
00000010: 42f9 e03e fd52 a9be 6124 60be 519f 8bbd
00000020: 29bd 1d3d bb3a fd3e e2b2 443d 9d2c 133e
00000030: 84ff 443e 4b30 ff3d 9658 d83e 5e43 293e
00000040: 3dab 013f 7e02 733e e035 29be 7abf 323c
00000050: cbef a13e 99ef e53e 0019 353e 2945 39be
00000060: c6ca 013e 40d1 ea3d 51ca 953d 9d82 813c
00000070: 1850 803d 93a3 cc3d 50ea 833d ef5a 3f3d
00000080: e24a 8abd 337f 8bbc 5103 9ebd 5275 043e
00000090: 9041 8d3d daf6 c3bb c11d de3d d536 d63d
000000a0: c6b7 873d ecac 863d 4498 223d 10fb e63c
000000b0: ac30 8abd cbc1 76be 2613 7abd 6a26 793d
000000c0: 742a 123c f4a3 21bc a210 943e 9d20 873e
000000d0: 27a1 663e dbbc 123e 47b1 ca3d c1a5 f93d
000000e0: 271d 873e 363e 283e 99ad f23b bbb9 603d
000000f0: bcd0 3dbe 3023 39be 6ce3 8fbe b845 b8be
00000100: 5092 dcbd cf78 a3be d9f1 38be c7ab 17be
00000110: 68eb ce3c 218f f43d c9fc 0abe 40c3 d53c
00000120: c5d4 053b 9d8e 163e afe6 4b3e 1c48 803e
00000130: 88d3 873e 10b4 3e3e 772e 1a3d 43d2 b7b9
00000140: cc9d 6cbd 8b3c 9bbe 1e32 9dbe 18a4 1cbe
00000150: ef5e 33bd 1d69 67be b9a8 5bbe 0ac3 68bd
00000160: a1e2 623d aff1 903d 7d10 963c 96ff 8fbc
00000170: 589c 9a3d f3bf c13d a5a2 993d 8c1d 06be
00000180: c7cd 48be 30ad 5bbd 5774 f03c 32a4 3bbd
00000190: 5135 f2bd ca32 f03d f724 16be 5830 3bbe
000001a0: 10cc 55bd 293e 93bd 542f 963e c620 823e
000001b0: bc02 933e aa21 923e 0aee cb3d baac ab3e
000001c0: 811c 0b3e 53ab 1d3d 9268 a1be 6aee ae3d
000001d0: bc55 7ebd e479 c2be 7098 b8be 6332 26bf
000001e0: 99a9 03be d3ac 74be 8b72 06bf b68b b0be
000001f0: db38 f9be 1446 f8be ffb1 c7be 7cf4 8dbe
00000200: f84b 28be 416e 093d 0a46 2abe bad2 22be
00000210: a9f0 75be 6e4a e0bd 9b05 3a3d ea67 a63d
00000220: 095f febc 46fa e93c 25ed af3d 40a7 803e
00000230: c53e 9e3e afb4 453e 90d1 9b3d e62c abbc
00000240: 8daa ff3d 4df2 b73e a131 2c3e 2bd7 e6bd
00000250: b286 6bbe 6255 8dbd 5154 5dbe e4c9 ffbc
00000260: 3ed8 29be 2d20 273d 5076 3dbe 5f5c 33be
00000270: bd39 343d 5b21 043d 2fe8 a13e b110 613d
00000280: 7254 373e b259 623e a523 b43d 762a 823e
00000290: 5795 653d 5153 833e 6b7b 01bd 6d6c 64be
000002a0: 33d3 1dbd 86ef 5ebe 58d0 a63e a28b 0a3d
000002b0: f414 aebd 1695 47bd b5f7 acbe f8db 4ebe
000002c0: eaee f43c 6399 543c 0300 a93d 8b01 143e
000002d0: 05e9 aabd 6599 423d 0437 48bd a6c4 42bd
000002e0: 5ce4 36be 47a2 43bd a632 9bbd fd79 4dbe
000002f0: cb46 1dbe acf2 84be 0d73 99bd 8bed 45be
00000300: 28aa 82be 0ae3 2ebe e772 3abe 6943 2abe
00000310: a583 69be a31d 90be feaf 1dbe 7ac0 d4bd
00000320: 07e3 5fbd 538e ceb9 c627 873e 6be2 023f
00000330: 0c37 6e3e f32f bd3c 95f4 bfbc fd40 68bd
00000340: caea 09be 06e2 b1bd 54a3 e53c bdd3 c1bd
00000350: f93a 89bd 0ad5 cb3d 4ab3 863c 984c d23d
00000360: 9ba3 5abe a0c1 93be 25f2 75bd 05ac 5cbe
00000370: 6775 e4bd b5a7 e6bd a496 39bc b2a7 a53e
00000380: aed2 113d 116c 00be 8212 cebc 47a1 e1bd
00000390: b7f4 a6bd 6da5 30be 9235 0d3e fa3c 283e
000003a0: 2c88 833d 9d97 033e 3356 8d3c 0d0c 593e
000003b0: a60d 153e 7773 853d 31cf 443e f34c 2f3e
000003c0: 4d9b 733e 5c0c 033d 4ff5 6ebd 989b 333d
000003d0: 93fd 1b3c ba9e 2d3e 4b9d 0a3c 6396 d3bd
000003e0: f597 7d3d d7f3 0bbb 9df2 6fbe 6a15 22bb
000003f0: b7dc 7c3e 75e2 4cbd 878c 8f3e af85 eabc

conv22.bias f4 [32]
0.010791671 0.016592838 -0.019477043 0.007670252 -0.015362653 0.014341124 -0.008867424 0.01852251
0.021176128 -0.014268406 -0.004530004 0.004621422 -0.00664313 0.015668027 0.00819827 -0.0047526956
-0.0014184584 0.01641305 -0.00057052844 -0.010521051 -0.0015766142 0.010126462 -0.02620095 0.022230113
0.013998214 -0.0148035195 -0.0147565305 0.018078238 -0.006948554 -0.0032421728 0.012480928 0.008850103
00000000: 8dcf 303c b4ed 873c 528e 9fbc bd56 fb3b
00000010: a3b3 7bbc 09f7 6a3c ac48 11bc 85bc 973c
00000020: 8f79 ad3c 08c6 69bc 6e70 94bb 4c6f 973b
00000030: 9dae d9bb 3c5a 803c 0952 063c 80bc 9bbb
00000040: 91eb b9ba a974 863c 848f 15ba 7c60 2cbc
00000050: 65a6 ceba 76e9 253c 60a3 d6bc ed1b b63c
00000060: c458 653c 768a 72bc 60c5 71bc d018 943c
00000070: b2b0 e3bb a27a 54bb ce7c 4c3c 0600 113c

batch2.weight f4 [32]
1.000464 0.76921654 0.89379895 0.91721493 0.745075 1.0515289 0.8828032 0.8469714
0.96428615 0.8148661 1.0155792 0.8711432 0.8638578 0.8152136 0.9525697 0.6345771
1.0262512 0.898424 0.80012226 0.84220827 1.103332 0.634505 0.80439067 1.0395654
0.87357616 0.9207907 1.0157073 0.96792495 0.81056374 0.7840478 0.6071772 1.0057737
00000000: 340f 803f 60eb 443f 02d0 643f 99ce 6a3f
00000010: 3cbd 3e3f 8098 863f 64ff 613f 1ed3 583f
00000020: 75db 763f 119b 503f 80fe 813f 3e03 5f3f
00000030: c925 5d3f d7b1 503f 9cdb 733f a573 223f
00000040: 335c 833f 1eff 653f d0d4 4c3f f69a 573f
00000050: fc39 8d3f eb6e 223f 8cec 4d3f 7b10 853f
00000060: b0a2 5f3f f0b8 6b3f b202 823f eec9 773f
00000070: 1b81 4f3f 5bb7 483f f76f 1b3f 31bd 803f

batch2.bias f4 [32]
-0.63703805 -0.47412047 -0.5585141 -0.4830455 -0.5252283 -0.759906 -0.44882458 -0.4674686
-0.6309674 -0.5739957 -0.74597085 -0.5207723 -0.69609827 -0.5595314 -0.5319342 -0.40509915
-0.64706254 -0.67951137 -0.53857845 -0.5450484 -0.75012255 -0.28462827 -0.6726054 -0.7774735
-0.57264614 -0.60177004 -0.6739387 -0.62193036 -0.63162905 -0.7020285 -0.24521835 -0.66308576
00000000: ed14 23bf ebbf f2be c8fa 0ebf bd51 f7be
00000010: 5d75 06bf 3389 42bf 56cc e5be 0b58 efbe
00000020: 1487 21bf 62f1 12bf f2f7 3ebf 5551 05bf
00000030: 7f33 32bf 733d 0fbf d72c 08bf 2869 cfbe
00000040: e4a5 25bf 75f4 2dbf 47e0 09bf 4b88 0bbf
00000050: 0808 40bf ccba 91be de2f 2cbf 8108 47bf
00000060: f098 12bf 9a0d 1abf 3f87 2cbf d436 1fbf
00000070: 71b2 21bf 24b8 33bf 851a 7bbe fdbf 29bf

batch2.running_mean f4 [32]
-217.04298 -119.500885 -112.703156 -183.56299 -67.338066 -176.92076 -134.5105 -154.44939
-192.28502 -204.08604 -225.06099 -210.73834 -223.80444 -107.376915 -176.87317 37.445847
-234.72865 -171.2538 -208.11787 -142.76926 -275.8129 -104.87954 -124.440025 -220.44943
-241.8041 -230.68901 -259.45712 -212.46725 -102.02316 -154.54773 -118.524864 -196.47656
00000000: 010b 59c3 7400 efc2 0468 e1c2 2090 37c3
00000010: 17ad 86c2 b7eb 30c3 b082 06c3 0b73 1ac3
00000020: f748 40c3 0716 4cc3 9d0f 61c3 04bd 52c3
00000030: f0cd 5fc3 fbc0 d6c2 88df 30c3 8cc8 1542
00000040: 89ba 6ac3 f940 2bc3 2d1e 50c3 eec4 0ec3
00000050: 0de8 89c3 53c2 d1c2 4be1 f8c2 0e73 5cc3
00000060: d9cd 71c3 63b0 66c3 83ba 81c3 9e77 54c3
00000070: dc0b ccc2 388c 1ac3 bb0c edc2 007a 44c3

batch2.running_var f4 [32]
74873.03 29267.482 51184.062 69799.875 48728.105 53538.47 66171.56 48435.426
57741.973 48229.582 64545.168 51894.0 44601.754 39997.766 58043.32 33042.98
75676.0 39192.562 48911.496 38468.62 79327.68 43613.57 32366.783 59029.44
51479.137 65351.406 77175.59 55737.656 35929.914 32117.627 51055.156 67834.83
00000000: 843c 9247 f7a6 e446 10f0 4747 f053 8847
00000010: 1b58 3e47 7822 5147 c83d 8147 6d33 3d47
00000020: f98d 6147 9565 3c47 2b21 7c47 00b6 4a47
00000030: c139 2e47 c43d 1c47 52bb 6247 fb12 0147
00000040: 00ce 9347 9018 1947 7f0f 3f47 9f44 1647
00000050: d7ef 9a47 925d 2a47 91dd fc46 7195 6647
00000060: 2317 4947 6847 7f47 ccbb 9647 a8b9 5947
00000070: ea59 0c47 41eb fa46 286f 4747 6a7d 8447

conv3.weight f4 [16, 32, 5, 5]
-0.12986599 -0.08738106 0.22808176 0.34883794 0.13467203 -0.06449276 0.2684475 0.399478
0.26409766 0.055035524 -0.15597619 0.113417804 0.25089613 0.3214516 0.29567698 -0.07529908
0.12787522 0.21279672 0.39965367 0.12244271 0.21059984 0.32047403 0.35997665 0.17136931
-0.09371397 0.3058654 0.022541272 -0.029704656 0.071259245 -0.14152375 0.17772089 0.007869886
-0.0014140323 0.28699234 -0.27955893 0.18472031 -0.16120663 -0.23594904 0.08679466 -0.21398151
0.108067125 0.12150565 -0.0027387126 -0.015039796 -0.47584957 -0.025138626 0.044325016 0.024589797
0.03359511 -0.32220662 0.032090906 0.03018277 0.056154095 0.076216504 -0.2789017 -0.030389845
-0.3842041 -0.09923482 0.10766681 -0.2309322 0.06279755 -0.14784956 0.102831505 0.21722841
0.08939071 0.025704397 -0.08209301 0.014994769 -0.019565532 0.07697567 0.20726702 0.17579468
0.16745418 0.009208506 -0.018082041 -0.17932403 -0.021345284 -0.09879381 -0.006241778 0.06032131
0.08344062 -0.02637283 -0.092766464 -0.034120113 0.2630599 0.19136027 0.23361678 0.15200049
-0.25386974 -0.09825 0.29341736 0.28838477 0.41837144 0.34324285 0.09772865 -0.117736176
0.03608069 0.30849534 0.40593234 0.25832784 -0.06832677 -0.058684696 -0.01594459 0.0078029474
0.15949397 0.22237323 -0.14588904 -0.14439106 -0.18971214 -0.009531148 0.06950355 -0.13969512
0.1492622 0.10894309 0.04535078 -0.062171794 -0.23967496 0.03192278 -0.08070587 -0.15599567
-0.18099333 -0.3034684 -0.0047001014 -0.21020673 -0.40621266 -0.14892599 0.12427523 0.17834881
-0.07436956 -0.2460827 0.15986116 0.3097371 0.16012442 -0.16683942 -0.022524895 -0.2017405
-0.06288466 0.05942848 0.0008008302 0.13597298 -0.36249363 -0.2152962 -0.030265722 -0.09683967
-0.17232354 0.088219665 -0.080455706 0.034540366 0.03765777 -0.08170901 -0.22074385 -0.3848222
0.014613521 0.033234134 0.21890165 -0.09138318 0.055708807 0.44540328 0.43789342 0.29815605
0.014513855 0.28534818 0.5112276 0.40280795 0.2346293 -0.015040471 0.18579796 0.10650474
0.022069795 -0.09550865 0.04428775 0.15647829 -0.0021731814 -0.2295444 -0.37436786 -0.170493
0.15701522 0.118122675 -0.31902772 -0.54378575 0.01012796 0.22479641 0.21589446 -0.023868803
-0.40967 -0.09685791 -0.06396805 -0.14294676 0.042113625 -0.033314224 0.022757702 0.044410184
0.023839999 0.075777784 0.14686662 0.0013617971 0.07750429 0.2606445 0.19870521 0.28093934
0.08271147 -0.14580312 0.055299144 -0.11002106 -0.31307298 0.20111236 0.029422708 -0.035383713
-0.35613003 -0.37273967 0.10435421 0.08840915 -0.08869445 -0.2828459 -0.27434912 -0.015510037
-0.14301047 -0.21584709 -0.20466667 -0.30807075 -0.16447958 -0.31645715 -0.36307323 -0.23696609
-0.1763252 -0.115047604 0.10380683 0.12700312 0.031073397 0.06412564 -0.07302053 -0.11282056
-0.11445703 -0.16598076 -0.23923025 -0.11951997 -0.20179474 -0.17907856 0.03529856 -0.33220932
0.029453907 -0.15519701 -0.18053149 0.1956849 -0.12577492 0.17106424 -0.05262978 -0.1694773
-0.063816264 -0.23067555 -0.15720236 0.16418226 0.40804273 0.30693677 -0.40413424 -0.10971417
00000000: 97fb 04be d7f4 b2bd 448e 693e e39a b23e
00000010: 77e7 093e c814 84bd f371 893e 6188 cc3e
00000020: cf37 873e ee6c 613d 39b8 1fbe 9847 e83d
00000030: 7575 803e 4e95 a43e f962 973e 6736 9abd
00000040: b9f1 023e 62e7 593e 689f cc3e 3ec3 fa3d
00000050: 7ca7 573e 2c15 a43e dc4e b83e 707b 2f3e
00000060: 1ced bfbd 649a 9c3e 79a8 b83c 2e57 f3bc
00000070: 5ef0 913d 9aeb 10be 77fc 353e b2f0 003c
00000080: 0d57 b9ba a9f0 923e 5922 8fbe 5227 3d3e
00000090: 5a13 25be a09c 71be 66c1 b13d f81d 5bbe
000000a0: 4c52 dd3d f4d7 f83d f97b 33bb 7a69 76bc
000000b0: 8ea2 f3be 85ef cdbc 268e 353d 8b70 c93c
000000c0: 079b 093d 44f8 a4be c171 033d db41 f73c
000000d0: d601 663d 6617 9c3d 34cc 8ebe 20f4 f8bc
000000e0: 66b6 c4be a03b cbbd 6b80 dc3d 7e79 6cbe
000000f0: 009c 803d e065 17be 5399 d23d 2071 5e3e
00000100: 7a12 b73d 0792 d23c 6120 a8bd 9fac 753c
00000110: e547 a0bc 6ca5 9d3d ce3d 543e 8503 343e
00000120: 1c79 2b3e 46df 163c ca20 94bc b8a0 37be
00000130: 4edc aebc 6954 cabd d487 ccbb 7a13 773d
00000140: eae2 aa3d d50b d8bc 58fc bdbd 88c1 0bbd
00000150: caaf 863e f2f3 433e 3d39 6f3e 04a6 1b3e
00000160: 37fb 81be 4c37 c9bd cd3a 963e 2ba7 933e
00000170: c834 d63e 87bd af3e f525 c83d aa1f f1bd
00000180: 58c9 133d 1af3 9d3e 5dd6 cf3e 8c43 843e
00000190: e8ee 8bbd 5d5f 70bd 3b9e 82bc deaf ff3b
000001a0: 6352 233e cfb5 633e f063 15be 40db 13be
000001b0: e643 42be 8828 1cbc e157 8e3d 3d0c 0fbe
000001c0: 31d8 183e 8e1d df3d bdc1 393d daa7 7ebd
000001d0: 5a6d 75be 76c1 023d 1f49 a5bd 54bd 1fbe
000001e0: 5156 39be 3660 9bbe 4f03 9abb 6f40 57be
000001f0: 1bfb cfbe 0e80 18be 0384 fe3d 12a1 363e
00000200: 114f 98bd 1afd 7bbe a5b2 233e dc95 9e3e
00000210: a8f7 233e f4d7 2abe 2186 b8bc 1095 4ebe
00000220: acc9 80bd 476b 733d ceee 513a 803c 0b3e
00000230: c498 b9be 9b76 5cbe d2ef f7bc e053 c6bd
00000240: 9575 30be 83ac b43d f6c5 a4bd 337a 0d3d
00000250: 093f 1a3d 0e57 a7bd ad0a 62be 6a07 c5be
00000260: 8d6d 6f3c 8420 083d c127 603e 1b27 bbbd
00000270: eb2e 643d e60b e43e 9133 e03e e9a7 983e
00000280: 85cb 6d3c 2819 923e d0df 023f d83c ce3e
00000290: aa42 703e 4f6c 76bc d241 3e3e 281f da3d
000002a0: b7cb b43c 0a9a c3bd 1267 353d d83b 203e
000002b0: ef6b 0ebb b00d 6bbe 25ad bfbe b895 2ebe
000002c0: 99c8 203e 4dea f13d 9a57 a3be 8b35 0bbf
000002d0: beef 253c 0831 663e 7013 5d3e 8288 c3bc
000002e0: 44c0 d1be 715d c6bd ae01 83bd a360 12be
000002f0: 567f 2c3d 7f74 08bd 5c6e ba3c 74e7 353d
00000300: 1a4c c33c 6231 9b3d 3464 163e 547e b23a
00000310: 92ba 9e3d 3273 853e 6179 4b3e 48d7 8f3e
00000320: a264 a93d 6a4d 15be 5b81 623d b952 e1bd
00000330: 1a4b a0be 66f0 4d3e e407 f13c 83ee 10bd
00000340: ad56 b6be bcd7 bebe a9b7 d53d db0f b53d
00000350: 70a5 b5bd 2ed1 90be 7d77 8cbe cf1d 7ebc
00000360: 5671 12be 0507 5dbe 2494 51be 73bb 9dbe
00000370: 566d 28be ac06 a2be bce4 b9be 3da7 72be
00000380: 988e 34be 149e ebbd ad98 d43d 1b0d 023e
00000390: a38d fe3c 4e54 833d ca8b 95bd 770e e7bd
000003a0: 7368 eabd dcf6 29be c6f8 74be e3c6 f4bd
000003b0: 48a3 4ebe 5f60 37be 3995 103d 5717 aabe
000003c0: 5249 f13c f7eb 1ebe 3fdd 38be 9f61 483e
000003d0: 24cb 00be 772b 2f3e 5392 57bd 758b 2dbe
000003e0: 1ab2 82bd 3636 6cbe a8f9 20be 651f 283e
000003f0: faea d03e d126 9d3e afea cebe d3b1 e0bd

conv3.bias f4 [16]
-0.25946867 0.749632 -0.48185334 -0.23460376 -0.4797606 -0.28197914 0.11622246 0.40225637
0.13553692 -0.109274134 -0.050880104 -0.31094134 0.041857544 0.054267284 -0.13711686 0.46474314
00000000: 14d9 84be e2e7 3f3f 7bb5 f6be f83b 70be
00000010: 2ea3 f5be 925f 90be 0b06 ee3d 8cf4 cd3e
00000020: 31ca 0a3e 1ecb dfbd a867 50bd b433 9fbe
00000030: d172 2b3d 5f47 5e3d 5d68 0cbe d0f2 ed3e

conv33.weight f4 [8, 16, 5, 5]
-0.30832332 -0.12347256 0.34950817 0.08397162 0.08314396 -0.06346131 -0.16166025 0.32483745
0.42122874 0.24975471 0.08073416 -0.03730856 -0.04992175 0.079173215 0.0004935878 0.20589867
0.13103774 0.015460586 -0.025350804 -0.12502678 0.27466846 0.087646745 -0.23028636 -0.29332465
-0.136726 -0.21929267 -0.22212349 -0.013127545 -0.11367901 0.16790995 0.22509584 0.09575645
0.121195376 0.01878579 0.087078765 0.2098063 0.12048686 0.2130943 0.18954284 -0.08382141
0.2190002 0.06140102 -0.13421553 0.33781186 0.21475483 -0.21312925 0.1859611 -0.06818344
0.057671875 0.012232668 0.08206923 -0.14291851 0.07844798 0.24505156 0.043264274 0.013265947
-0.23045433 -0.01136049 -0.059347183 -0.053571712 -0.089528136 -0.28698555 0.14618292 -0.083237305
0.012322406 0.046084076 0.0041932045 0.5174395 0.3293587 0.07563179 0.22698423 0.099431664
0.16864915 -0.12508735 -0.11283041 -0.6000295 0.072319895 0.25978932 -0.110342406 -0.0073841405
0.098777376 0.32544628 0.06848149 -0.13980724 0.07748604 -0.040279236 0.010222041 0.15220329
0.26787293 0.2421132 -0.54003596 -0.5298821 -0.09550982 0.1964455 0.196375 -0.41900888
-0.39093006 -0.11891842 0.12746592 0.24920273 -0.19695139 0.33824232 -0.041525926 -0.2995306
0.041852206 -0.46304637 -0.038958445 -0.3325184 -0.16601111 -0.07474336 -0.21657863 -0.23518541
-0.42298338 0.043434456 -0.14331897 0.2604516 0.043985393 -0.39069435 0.025645206 0.14413103
0.2646915 0.049147 -0.15698478 -0.08512344 0.0076203975 0.3116172 0.25436392 -0.020298302
-0.08223775 -0.17337729 -0.046355367 0.1229911 0.09365804 0.0028876907 0.077873826 -0.5787847
-0.298388 -0.071964964 -0.041426767 -0.1797374 -0.12702502 -0.23051953 -0.108473554 0.32455212
0.048813708 -0.050290786 -0.1750602 -0.37748116 0.42335084 0.29921702 -0.14966153 -0.094606094
0.21925373 0.40753374 -0.12548427 0.06892716 -0.14046508 0.113812275 0.13358699 -0.18232624
0.57529944 0.04788432 0.2532745 0.15614861 0.11464172 0.14518054 0.0103801275 0.23811701
0.21673828 0.12292435 -0.27716577 -0.047179554 0.08213638 0.21705177 0.08370582 -0.025330659
-0.10522203 -0.1251281 -0.052209944 0.060593583 0.1990573 0.14544524 -0.0017930502 -0.16424038
-0.08812476 -0.022577846 0.14824274 -0.14573877 -0.20695879 -0.19168085 -0.14147577 -0.036903586
-0.095785215 -0.0360341 -0.04037967 -0.037092414 0.12383784 0.21275397 -0.05721598 0.01075458
-0.34410575 0.064227335 -0.13287455 0.024191413 0.08121963 -0.2147965 0.08450647 0.20734787
0.43103325 0.3784392 0.039875563 -0.20004854 0.24963948 0.28350547 -0.005818371 0.22889276
-0.03779001 0.3342895 0.35323423 0.14662027 0.07378628 0.006029222 -0.050446227 0.13867223
-0.08699325 -0.2463373 0.2473074 0.011044215 0.05878767 0.08261004 -0.18286106 0.18060637
0.11825281 -0.102414995 -0.21657807 -0.06740131 0.1030937 0.20456159 -0.0047017424 -0.06370365
0.036898483 -0.028573884 0.02287433 -0.11967749 0.2621186 0.5949973 0.23732488 0.12495749
0.237393 0.4732037 -0.31620905 -0.10064436 -0.37649888 -0.30423972 -0.038204886 0.12236754
00000000: 8edc 9dbe 2edf fcbd bcf2 b23e 50f9 ab3d
00000010: 6147 aa3d 01f8 81bd 448a 25be 1851 a63e
00000020: 4bab d73e b3bf 7f3e f457 a53d dcd0 18bd
00000030: c07a 4cbd 9125 a23d 1e64 013a 1ad7 523e
00000040: c22e 063e 664e 7d3c 7dac cfbc 0507 00be
00000050: 58a1 8c3e 2380 b33d 30d0 6bbe a62e 96be
00000060: e701 0cbe 428e 60be 5774 63be ea14 57bc
00000070: 8ad0 e8bd 96f0 2b3e 867f 663e f51b c43d
00000080: 4835 f83d a8e4 993c 5a56 b23d 76d7 563e
00000090: d1c1 f63d 6435 5a3e 8517 423e 8faa abbd
000000a0: 9741 603e a37f 7b3d cc6f 09be adf5 ac3e
000000b0: b1e8 5b3e 8e3e 5abe 966c 3e3e c2a3 8bbd
000000c0: 5839 6c3d 876b 483c ea13 a83d 3b59 12be
000000d0: 56a9 a03d ccee 7a3e e135 313d 6a59 593c
000000e0: 38fc 6bbe 5921 3abc 0816 73bd 036e 5bbd
000000f0: 875a b7bd c5ef 92be fab0 153e 5278 aabd
00000100: ebe3 493c a8c2 3c3d 2667 893b ea76 043f
00000110: b4a1 a83e d7e4 9a3d 8e6e 683e d4a2 cb3d
00000120: 5db2 2c3e e616 00be a113 e7bd 899b 19bf
00000130: 741c 943d 1b03 853e 33fb e1bd a9f6 f1bb
00000140: cb4b ca3d e5a0 a63e 0640 8c3d a129 0fbe
00000150: 00b1 9e3d d7fb 24bd 597a 273c 2edb 1b3e
00000160: a426 893e 86ec 773e cc3f 0abf 5aa6 07bf
00000170: a79a c3bd 0229 493e 8716 493e 5588 d6be
00000180: fc27 c8be 808b f3bd 6d86 023e 002f 7f3e
00000190: a0ad 49be 192e ad3e 1717 2abd 135c 99be
000001a0: 386d 2b3d 6a14 edbe e492 1fbd da3f aabe
000001b0: d1fe 29be 0c13 99bd cac6 5dbe 72d4 70be
000001c0: 4791 d8be 54e8 313d 35c2 12be ea59 853e
000001d0: 072a 343d 1709 c8be e515 d23c 1697 133e
000001e0: a585 873e 5d4e 493d 9ec0 20be 3355 aebd
000001f0: 87b4 f93b 4a8c 9f3e fd3b 823e a048 a6bc
00000200: 446c a8bd d189 31be 20df 3dbd c2e2 fb3d
00000210: c9cf bf3d 693f 3d3b 507c 9f3d 3c2b 14bf
00000220: 50c6 98be 5e62 93bd 1daf 29bd 150d 38be
00000230: d912 02be 500d 6cbe 6227 debd b22b a63e
00000240: e2f0 473d b6fd 4dbd fb42 33be 3645 c1be
00000250: 71c1 d83e f932 993e df40 19be d7c0 c1bd
00000260: 0d84 603e 43a8 d03e f37e 00be af29 8d3d
00000270: 14d6 0fbe 6916 e93d 07cb 083e bbb3 3abe
00000280: d346 133f 5922 443d 32ad 813e 6ce5 1f3e
00000290: 47c9 ea3d 35aa 143e 6911 2a3c f2d4 733e
000002a0: a4f0 5d3e c3bf fb3d ace8 8dbe 593f 41bd
000002b0: 1e37 a83d d242 5e3e f56d ab3d 3e82 cfbc
000002c0: a67e d7bd 9521 00be 18da 55bd fa30 783d
000002d0: add5 4b3e 99ef 143e c804 ebba a12e 28be
000002e0: c17a b4bd 2df5 b8bc f2cc 173e 8b3c 15be
000002f0: 01ed 53be fc47 44be 06df 10be 3728 17bd
00000300: 0a2b c4bd 7e98 13bd 2765 25bd 37ee 17bd
00000310: b29e fd3d 2ddc 593e 4e5b 6abd fa33 303c
00000320: a12e b0be 9f89 833d 4410 08be 122d c63c
00000330: 7a56 a63d 9df3 5bbe ba11 ad3d 0053 543e
00000340: 64b0 dc3e c8c2 c13e 8f54 233d 86d9 4cbe
00000350: 7ea1 7f3e a127 913e 09a8 bebb dd62 6a3e
00000360: b3c9 1abd fe27 ab3e 1edb b43e a023 163e
00000370: 431d 973d c890 c53b b4a0 4ebd 1800 0e3e
00000380: 8429 b2bd d83f 7cbe 273e 7d3e ccf2 343c
00000390: 57cb 703d 742f a93d ee3f 3bbe e0f0 383e
000003a0: 872e f23d f4be d1bd a4c6 5dbe b309 8abd
000003b0: ca22 d33d 9878 513e 1311 9abb 0f77 82bd
000003c0: dd22 173d c713 eabc f262 bb3c 7919 f5bd
000003d0: 6934 863e be51 183f 4b05 733e b6e9 ff3d
000003e0: 2717 733e c147 f23e 27e6 a1be a11e cebd
000003f0: 76c4 c0be 4fc5 9bbe ba7c 1cbd d59b fa3d

conv33.bias f4 [8]
0.014121213 0.0948837 0.09701621 -0.019094707 0.058192536 -0.06260962 0.07040245 0.020148713
00000000: a95c 673c 6352 c23d 6fb0 c63d 816c 9cbc
00000010: 4c5b 6e3d 7939 80bd 292f 903d ea0e a53c

batch3.weight f4 [8]
1.1041453 1.1681223 1.129741 1.0744299 1.1549938 1.059343 1.1180537 1.1731155
00000000: a254 8d3f 0885 953f 5a9b 903f eb86 893f
00000010: d6d6 933f 8d98 873f 621c 8f3f a628 963f

batch3.bias f4 [8]
-0.26962826 -0.2102127 -0.26242954 -0.23380269 -0.27296177 -0.23778085 -0.21832977 -0.3054324
00000000: b70c 8abe ff41 57be 2a5d 86be f969 6fbe
00000010: a5c1 8bbe d37c 73be d791 5fbe a361 9cbe

batch3.running_mean f4 [8]
-9.658529 -9.207255 -16.685658 -6.531509 -5.836803 -13.07565 -10.243123 -11.252105
00000000: 5689 1ac1 eb50 13c1 3a7c 85c1 1f02 d1c0
00000010: 17c7 bac0 dd35 51c1 d5e3 23c1 9f08 34c1

batch3.running_var f4 [8]
392.86224 360.23294 406.60928 418.69998 309.53976 370.0616 322.85275 361.00183
00000000: 5e6e c443 d11d b443 fd4d cb43 9959 d143
00000010: 17c5 9a43 e307 b943 276d a143 3c80 b443
