models/net_new_bs64_dr0_2_adam/model_epoch_52.pt (torch, 763336 bytes, 28 tensors)

conv1.weight f4 [8, 3, 5, 5]
0	0x3e154f29	0.14580978
1	0x3e326642	0.17421821
2	0xbcb8f188	-0.022576109
3	0x3e9389f3	0.28816184
4	0x3d9b7a8e	0.07591735
5	0x3e4e25d4	0.20131618
6	0xbe69a21e	-0.22815749
7	0x3e519c5b	0.20469801
8	0x3ede7411	0.43447927
9	0xbe67a350	-0.22620893
10	0x3d8e1b85	0.06938843
11	0xbd689657	-0.056784
12	0x3ebe990d	0.37226143
13	0x3e447df0	0.19188666
14	0x3e1a9986	0.15097627
15	0xbe8e257a	-0.27762967
16	0xbce259e0	-0.027630746
17	0xbdf5b78b	-0.11997899
18	0xbe664d96	-0.22490534
19	0x3e7736c7	0.2414199
20	0xbe3bfa2d	-0.18357153
21	0xbea01e5d	-0.31273165
22	0xbe8c54c4	-0.2740842
23	0xbd8b02d4	-0.06787649
24	0xbd528d57	-0.051404323
25	0xbe040e44	-0.12896067
26	0xbe34e0d2	-0.17663887
27	0xbe94e861	-0.2908354
28	0xbbc764f5	-0.006085033
29	0xbe36a378	-0.17835796
30	0x3e673d71	0.22582032
31	0xbecbc5c3	-0.39799318
32	0x3cc67401	0.024225237
33	0x3d9a2989	0.075274535
34	0xbecd384a	-0.40082008
35	0x3e1918ef	0.14950918
36	0x3c9aeaaf	0.018910734
37	0x3eaa8262	0.333026
38	0x3c7c3668	0.015393831
39	0xbe3d70c9	-0.18500055
40	0x3c696d85	0.014247303
41	0x3e01c4c7	0.12672721
42	0x3e254485	0.1613942
43	0x3cd85b8b	0.026410839
44	0x3df6ee0a	0.12057121
45	0x3e13e6b7	0.1444348
46	0x3e40d15b	0.18829863
47	0x3e8d6b68	0.27621007
48	0x3e7e64db	0.24843161
49	0x3d42b21e	0.047533147
50	0xbe6d23f5	-0.23158248
51	0xba4e9bcd	-0.00078814925
52	0xbdce786d	-0.10081563
53	0x3ea9dcba	0.33176214
54	0x3e88ce84	0.2672006
55	0x3e28b9d7	0.16477142
56	0xbe421d89	-0.1895658
57	0xbd731cc1	-0.059353594
58	0x3e82f60f	0.25578353
59	0xbe6ad7c8	-0.22933877
60	0x3e20a997	0.15689693
61	0xbddb3017	-0.10702532
62	0x3dd362e0	0.10321593
63	0xbdd73df8	-0.105098665
64	0xbd047492	-0.032337733
65	0x39d7a751	0.00041132656
66	0x3e5d9d55	0.21642049
67	0xbe6a17c8	-0.22860634
68	0xbed86091	-0.42261174
69	0xbe0ab9bb	-0.13547413
70	0x3e8063d7	0.25076172
71	0x3dcda6f5	0.1004161
72	0x3de4a6d9	0.11164636
73	0xbe35daf2	-0.17759302
74	0xbe49edb2	-0.1971958
75	0xbeb60c69	-0.35556343
76	0xbe514840	-0.20437717
77	0x3dd4107e	0.10354708
78	0x3e8359c3	0.2565442
79	0x3e6a9a8a	0.22910514
80	0xbe8ed599	-0.27897337
81	0xbe49e2e1	-0.19715454
82	0x3e2c4f0c	0.16827029
83	0x3e7c1faf	0.24621461
84	0x3eedf958	0.46479297
85	0xbe73b74b	-0.2380039
86	0xbe004020	-0.12524462
87	0xbd8a99af	-0.06767594
88	0xbea3e9a9	-0.32014206
89	0x3eaffec8	0.3437407
90	0xbc87d297	-0.01657991
91	0xbe86811f	-0.26270387
92	0x3f0ac64c	0.54208827
93	0x3dec9799	0.115523525
94	0xbd4e9b93	-0.050441336
95	0xbd7c3b5d	-0.06158005
96	0x3d3e1fa5	0.046416897
97	0x3da2f5fb	0.07957073
98	0xbdb65940	-0.08903742
99	0xbe0afb51	-0.13572432
100	0x3dda536e	0.10660444
101	0x3e11a9e0	0.14224958
102	0x3cc35663	0.023844903
103	0xbd932cf4	-0.071863085
104	0xbc5d0f36	-0.013492396
105	0x3e33ce87	0.17559253
106	0x3d67af6e	0.056563787
107	0xbbef5fa8	-0.0073051043
108	0xbe222697	-0.15835033
109	0xbd5cb92b	-0.053887527
110	0x3eb27dff	0.34861752
111	0x3c2d4a34	0.010576773
112	0xbd90198c	-0.07036123
113	0xbf4195f3	-0.7561943
114	0xbe250c04	-0.16117865
115	0x3e8aa03a	0.27075368
116	0xbddc9def	-0.10772311
117	0x3e82d667	0.255542
118	0xbe66953d	-0.22517867
119	0xbe6b2963	-0.22965007
120	0x3dd78ba0	0.10524678
121	0xbe3760a4	-0.17907959
122	0xbdbbc76b	-0.09168895
123	0xbe892e95	-0.26793352
124	0xbe465605	-0.19368751
125	0xbdb0103a	-0.08596845
126	0xbe1f9e2e	-0.15587685
127	0xbe8ad956	-0.2711894
128	0xbb42aca6	-0.0029704957
129	0xbe41ae49	-0.18914141
130	0x3e4bf19b	0.19916384
131	0x3d013adb	0.03155027
132	0xbe133381	-0.14375116
133	0x3dd3925e	0.10330652
134	0x3c93b882	0.018032316
135	0x3ce12218	0.027482077
136	0xbe0304e9	-0.12794842
137	0xbe1a26a3	-0.15053801
138	0xbed00f36	-0.40636605
139	0x3c157c2b	0.009123842
140	0x3e776751	0.24160506
141	0xbdc0cbb5	-0.09413854
142	0x3f374762	0.71593297
143	0x3dc8a8f6	0.09797852
144	0x3d2fe104	0.0429392
145	0x3dd05b7a	0.10173698
146	0x3db7a349	0.08966691
147	0x3eb3f120	0.351449
148	0x3e7e5f41	0.24841024
149	0xbd940340	-0.072271824
150	0x3def6654	0.116894394
151	0xbe426015	-0.18981965
152	0x3debedc9	0.11519963
153	0xbdf40e49	-0.11916787
154	0x3cf5c3c6	0.030000579
155	0xbe9ad226	-0.30238456
156	0x3d4965cf	0.049169358
157	0x3dcdf7b6	0.10057013
158	0x3e422011	0.18957545
159	0x3d09fb77	0.03368708
160	0x3dddc0b2	0.10827769
161	0x3eb17806	0.34661883
162	0xbeebab57	-0.4602916
163	0xbe0adfca	-0.13561931
164	0x3ea45c56	0.32101697
165	0xbd32305c	-0.04350315
166	0xbeeaa3b6	-0.45828027
167	0x3ebf2861	0.37335494
168	0x3f146aa1	0.579752
169	0xbcea7bcd	-0.028623486
170	0xbe142551	-0.1446736
171	0xbeb2ce4b	-0.34923014
172	0xbc5814cc	-0.013188552
173	0xbc291f44	-0.010322396
174	0xbc878119	-0.01654105
175	0xbdba9b37	-0.09111636
176	0xbec8c457	-0.39212295
177	0x3be4a0d7	0.0069771814
178	0xbd3d5e34	-0.046232417
179	0xbe2587cf	-0.16165088
180	0xbea6945c	-0.32535064
181	0xbd2ced3d	-0.042218436
182	0x3d018b44	0.031626955
183	0x3d694789	0.056952987
184	0x3da89157	0.082308464
185	0xbdb2703f	-0.087128155
186	0x3e9f3c7a	0.31100827
187	0xbee58ff0	-0.44836378
188	0xbe03bf37	-0.12865911
189	0x3e4980b1	0.19677998
190	0xbd9383d8	-0.072028816
191	0xbe9943ba	-0.29934484
192	0x3f0b5549	0.5442701
193	0x3f1f8a25	0.62320167
194	0x3d36dd3d	0.044644583
195	0xbd983307	-0.07431608
196	0xbe1d19ed	-0.15341921
197	0x3d362ce5	0.04447641
198	0x3e0b53c7	0.13606177
199	0x3e8ab7c7	0.27093336
200	0x3e697d43	0.2280169
201	0x3d1bb6ee	0.038016252
202	0x3ec3313f	0.3812351
203	0x3e222472	0.15834215
204	0x3de2e292	0.11078371
205	0xbc9fa425	-0.01948745
206	0x3d9a9026	0.075470254
207	0xbd7aaa53	-0.06119759
208	0xbd19b81d	-0.0375291
209	0xbc7c19d3	-0.015387016
210	0x3ecb9919	0.39765242
211	0x3f1a12d6	0.6018499
212	0xbf510ee9	-0.81663376
213	0xbf3a7cee	-0.7284688
214	0xbe8032cb	-0.25038752
215	0x3f1c3ac7	0.6102719
216	0x3d22d540	0.039754152
217	0x3db1e828	0.086868584
218	0xbcc13c74	-0.023588397
219	0xbeee812d	-0.46582928
220	0x3ea186e6	0.31548232
221	0x3d9d7ca5	0.0768979
222	0xbe3e539a	-0.18586579
223	0xbea31bd6	-0.31857175
224	0xbe913e11	-0.28367665
225	0x3e18d00b	0.14923112
226	0x3e793573	0.24336796
227	0x3e49eaef	0.19718526
228	0xbd5031ae	-0.05082863
229	0xbdb9ca45	-0.09071783
230	0xbde17588	-0.110087454
231	0x3e8f88c0	0.2803402
232	0x3ed36ffe	0.4129638
233	0x3d2b8061	0.04187048
234	0x3dbedc73	0.09319391
235	0x3e567981	0.20944788
236	0x3da2d7bc	0.07951304
237	0x3e4e72aa	0.20160928
238	0xbeabc63d	-0.3354968
239	0xbeaeb0e1	-0.34119323
240	0x3e6ff31d	0.23432584
241	0xbe0265e3	-0.12734179
242	0xbd9c474a	-0.07630785
243	0xbed85853	-0.42254886
244	0xbe61953e	-0.22029588
245	0xbe125cb6	-0.14293179
246	0xbe3abe8c	-0.1823675
247	0x3dac5e0e	0.08416377
248	0xbe03f826	-0.1288763
249	0x3d1c5fc5	0.03817727
250	0xbdea5f1d	-0.11443923
251	0xbe6c1e51	-0.2305844
252	0xbe024c40	-0.127244
253	0xbde6f2ff	-0.112768166
254	0xbd4a2d26	-0.049359463
255	0xbe894dfb	-0.26817307

conv1.bias f4 [8]
0	0xbe981fcb	-0.29711756
1	0x3e896040	0.26831245
2	0x3be16688	0.0068786778
3	0xbd8465cb	-0.06464728
4	0xbec422af	-0.3830771
5	0xbec1ad85	-0.37827697
6	0xbdb0f0de	-0.08639692
7	0x3e30b75e	0.17257449

conv11.weight f4 [32, 8, 5, 5]
0	0x3e140a74	0.14457113
1	0x3dfa5ba2	0.12224509
2	0x3b73175e	0.0037092785
3	0xbe9c1e70	-0.30491972
4	0x3e01bf55	0.12670644
5	0x3e0ef031	0.13958813
6	0x3e0f7cd4	0.14012462
7	0xbd023c53	-0.03179581
8	0xbd15c519	-0.03656492
9	0xbe1c3dfb	-0.15258019
10	0xbc3da1a8	-0.011574186
11	0x3e7588e1	0.23977996
12	0x3d09021a	0.03344927
13	0x3e8c0e67	0.27354738
14	0x3df75ae5	0.12077884
15	0xbe6958c8	-0.22787774
16	0x3d174110	0.036927283
17	0xbe0da72e	-0.13833305
18	0x3d77bdb3	0.060483646
19	0x3e717a67	0.23581849
20	0xbdb1fcd1	-0.08690799
21	0xbda93dd8	-0.08263749
22	0xbe8cdfd7	-0.27514526
23	0xbdcf1e21	-0.101131685
24	0xbe4334a4	-0.1906305
25	0x3c8e73b3	0.017389154
26	0xbe3af6b0	-0.18258166
27	0xbda58412	-0.08081831
28	0x3cd1f004	0.025627144
29	0xbdac5a60	-0.08415675
30	0x3c7eb856	0.015546879
31	0x3e12d432	0.14338759
32	0x3e3414f5	0.1758612
33	0xbd830aba	-0.0639853
34	0x3be7eb38	0.007077601
35	0x3c859f88	0.016311422
36	0xbeb1be99	-0.34715727
37	0xbe23c926	-0.15994701
38	0x3d80aece	0.06283341
39	0xbd34e0d8	-0.04415974
40	0x3e28d2d5	0.16486676
41	0x3cc45a2b	0.023968777
42	0xbc01fd46	-0.00793392
43	0xbdf43827	-0.11924773
44	0xbdc943be	-0.09827374
45	0x3e155111	0.14581706
46	0x3e257861	0.16159202
47	0x3ea78c44	0.32724202
48	0xbceabd24	-0.028654642
49	0xbe820af7	-0.2539899
50	0x3e6d643b	0.23182766
51	0x3de64143	0.112429164
52	0xbea61ed6	-0.324454
53	0x3e40886f	0.18802045
54	0xbe8563cb	-0.26052698
55	0x3e115f19	0.14196433
56	0x3f1073a9	0.56426483
57	0x3ef759c7	0.48310682
58	0x3e1b5016	0.15167269
59	0x3d20c11c	0.039246663
60	0xbe7c7d9a	-0.24657288
61	0xbf2d8260	-0.6777706
62	0xbe849ba7	-0.25900003
63	0x3ea56ce7	0.32309648
64	0x3ef6dfcc	0.48217618
65	0x3e9b4e5c	0.3033322
66	0xbe7dda3a	-0.24790278
67	0xbec97498	-0.39346766
68	0xbe7b98fe	-0.2457008
69	0x3b9f12d8	0.0048545413
70	0x3dcdc717	0.10047739
71	0x3e17ea70	0.14835525
72	0x3e67fd34	0.22655183
73	0x3c704147	0.014664001
74	0xbb5fcf2c	-0.0034150584
75	0x3e98328f	0.29726073
76	0x3e72c848	0.23709214
77	0x3e3ef531	0.1864822
78	0xbe2f9d7d	-0.17149921
79	0xbef8be28	-0.48582578
80	0xbeaa30ae	-0.33240265
81	0xbecf05ce	-0.40434116
82	0xbe5b5bae	-0.21421692
83	0x3df90817	0.12159746
84	0x3e118f25	0.14214762
85	0x3e0866a3	0.13320403
86	0x3d55a86e	0.05216258
87	0x3dab072c	0.08350977
88	0x3e7772d3	0.24164896
89	0x3e784c0d	0.24247761
90	0x3eac2bd5	0.3362719
91	0x3e7e4434	0.24830705
92	0x3db6f467	0.08933335
93	0xbd231575	-0.039815385
94	0xbeb543cf	-0.35403296
95	0x3ccd153b	0.025034538
96	0x3d649dbc	0.05581449
97	0xbd968fbb	-0.07351633
98	0x3c0e3651	0.008679942
99	0xbdcbf29b	-0.09958383
100	0x3d45dc76	0.04830595
101	0xbd72611e	-0.05917465
102	0xbd55802b	-0.052124184
103	0x3d871a9d	0.06596873
104	0x3e17cb16	0.14823565
105	0x3c8200b8	0.015869483
106	0x3c284bfa	0.0102720205
107	0x3e4a474c	0.1975376
108	0x3e71d919	0.23617972
109	0x3e993a1e	0.29927152
110	0x3d65a2a8	0.056063324
111	0xbd4ff552	-0.050771065
112	0xbd6f5607	-0.05843165
113	0xbd0786e7	-0.033087637
114	0xbc549056	-0.0129738655
115	0xbb612bd7	-0.0034358406
116	0xbe6c4aa0	-0.23075342
117	0xbe12878b	-0.14309518
118	0xbd10fadf	-0.0353955
119	0x3ceac32b	0.028657516
120	0xbe4f77f2	-0.202606
121	0xbea0eca4	-0.31430542
122	0xbe64b795	-0.22335656
123	0xbe947d33	-0.2900177
124	0xbe0f073a	-0.139676
125	0x3ae54510	0.0017491896
126	0xbbb343ca	-0.0054707276
127	0xbe5d48b0	-0.2160976
128	0xbd1845be	-0.037175886
129	0xbbcb6647	-0.006207261
130	0x3c9c1a8d	0.01905563
131	0x3e32aca0	0.17448664
132	0x3d8fb3db	0.070167266
133	0x3e858907	0.26081106
134	0xbe3197ef	-0.17343114
135	0x3e4bf41a	0.19917336
136	0x3df73cdb	0.12072154
137	0xbdfeee29	-0.12447769
138	0x3ee24803	0.44195566
139	0xbc2ac982	-0.01042402
140	0xbe597879	-0.21237363
141	0xbd1ed8cf	-0.038780984
142	0xbecd893c	-0.40143764
143	0x3d5a481b	0.05329142
144	0xbc83a6a3	-0.01607067
145	0xbdef49ef	-0.116840236
146	0xbd661732	-0.056174465
147	0xbe73b197	-0.23798214
148	0x3e40bd07	0.18822108
149	0xbd957332	-0.072973624
150	0xbda29abd	-0.0793967
151	0x3cc2b337	0.023767097
152	0x3d6f5db5	0.058438975
153	0x3e945c0f	0.28976485
154	0x3e2975b7	0.16548811
155	0x3e35bb41	0.17747213
156	0x3dd3eadb	0.103475295
157	0xbc67444b	-0.014115403
158	0x3ce7cf27	0.02829702
159	0xbea3732b	-0.31923804
160	0xbeaaa2fa	-0.33327466
161	0x3b688c6f	0.0035484096
162	0xbd248e5b	-0.040174823
163	0x3d2a150f	0.04152399
164	0xbdd98aa5	-0.106221475
165	0xbeff091d	-0.4981164
166	0xbe87a783	-0.2649499
167	0xbe8daa7a	-0.27669126
168	0xbd1db695	-0.038504202
169	0x3d3354f3	0.043782186
170	0xbd666ec2	-0.05625797
171	0x3c97f444	0.018549092
172	0xbe0e9861	-0.13925315
173	0xbd7d23b7	-0.06180164
174	0xbe6f8c27	-0.23393308
175	0xbd8ebda9	-0.069697686
176	0x3e4ce3af	0.2000873
177	0xbd8a2db8	-0.067470014
178	0x3e07d736	0.1326569
179	0x3dc51e17	0.0962488
180	0xbea2e9fe	-0.31819147
181	0xbdcdda27	-0.10051375
182	0xbe7e17d3	-0.24813776
183	0xbcfd66bd	-0.030932778
184	0x3dfef71f	0.12449478
185	0xbe80b6bc	-0.25139415
186	0xbe330a50	-0.17484403
187	0xbe4f56c1	-0.20247938
188	0x3d89c9f4	0.067279726
189	0x3e4f792c	0.20261067
190	0x3ef74e5e	0.48301977
191	0x3f51bbc2	0.8192712
192	0x3e8ea591	0.27860692
193	0x3e8ef179	0.27918604
194	0xbcc58835	-0.0241128
195	0x3d2107d3	0.039314102
196	0x3df81e97	0.121152095
197	0xbd4d44e5	-0.05011453
198	0xbcb94247	-0.022614611
199	0xbc5aad58	-0.013346992
200	0xbe65fede	-0.22460505
201	0x3d836af9	0.06416888
202	0xbc968b7d	-0.01837706
203	0x3d1063f8	0.035251588
204	0x3dc1d4db	0.09464427
205	0xbca4b0a6	-0.020103764
206	0x3e923e34	0.28563082
207	0x3d59dfab	0.053191822
208	0x3e23f7b6	0.16012463
209	0x3d8d405a	0.0689704
210	0xbdb11d1c	-0.0864813
211	0x3e77fb8e	0.24217054
212	0x3da04baa	0.07826932
213	0x3967c911	0.0002210478
214	0xbe46940c	-0.19392413
215	0xbeb13763	-0.3461257
216	0xbd2942a0	-0.041323304
217	0xbcd81b05	-0.026380071
218	0x3d22796c	0.03966658
219	0xbe768e2f	-0.24077676
220	0x3d2f9b89	0.04287294
221	0x3d614684	0.05499889
222	0x3dc40f5d	0.09573243
223	0x3de7806e	0.11303793
224	0xbe2ffe8e	-0.17186949
225	0xbea6c994	-0.32575667
226	0xbdb52398	-0.088446796
227	0xbc12a1a6	-0.008949673
228	0xbeac0968	-0.33600926
229	0xbe0301ba	-0.12793627
230	0xbe1cc296	-0.15308604
231	0x3dd89174	0.10574618
232	0x3dc0e637	0.0941891
233	0xbe1b59b7	-0.15170942
234	0xbd9a7543	-0.07541897
235	0xbe64e632	-0.22353438
236	0xbd5840e8	-0.052796274
237	0xbe09a622	-0.13442281
238	0xbd822048	-0.063538134
239	0xbd07956e	-0.03310149
240	0xbe2ea920	-0.17056704
241	0x3d9c400b	0.07629403
242	0xbc95dc82	-0.018293623
243	0xbdb36043	-0.08758595
244	0xbd8b25f8	-0.06794351
245	0x3cdeb9ea	0.02718826
246	0x3d50c5b3	0.05096979
247	0x3dcf6c97	0.10128134
248	0x3e2dcae7	0.16971932
249	0x3d698e8a	0.0570207
250	0xbdc57673	-0.09641733
251	0xbdb9467e	-0.090466484
252	0xbe9aceb6	-0.30235833
253	0xbbde8f2a	-0.006791969
254	0x3eb584a8	0.3545277
255	0xbc9678b1	-0.018368097

conv11.bias f4 [32]
0	0xbcbde47d	-0.02318024
1	0x3d04d2e5	0.032427687
2	0xbbe8dbba	-0.0071062716
3	0xbe3ab442	-0.18232825
4	0xbdf965cc	-0.12177619
5	0xbd3a48bc	-0.04547952
6	0xbe3eb94f	-0.18625377
7	0x3d370408	0.04468158
8	0x3e3890e1	0.18024017
9	0x3cf38e3d	0.02973091
10	0xbcf3c90c	-0.029758953
11	0x3d3d49df	0.046213027
12	0xbc692c7a	-0.014231795
13	0xbc64fb4c	-0.0139759295
14	0x3db1c497	0.08680075
15	0x3d51b3aa	0.05119673
16	0x3c837071	0.016044827
17	0x3c866a71	0.016408177
18	0xbe2aa01f	-0.16662644
19	0xbd135744	-0.035971895
20	0x3cf88e7c	0.03034138
21	0x3e5e43ae	0.21705505
22	0xbd198b42	-0.037486322
23	0x3ca6ca79	0.020360218
24	0x3d963e0c	0.07336053
25	0xbc0f9db7	-0.0087656295
26	0x3da0b9d1	0.07847942
27	0xbde2e332	-0.1107849
28	0xbd331f77	-0.04373118
29	0x3e33bfb9	0.17553605
30	0x3d2ef422	0.042713292
31	0x3d2d2bf2	0.042278238

batch1.weight f4 [32]
0	0x3f7b2cb9	0.98115116
1	0x3f6acdb7	0.91720146
2	0x3f8137f2	1.0095198
3	0x3f7c0285	0.98441344
4	0x3f73dac3	0.9525568
5	0x3f82be37	1.0214299
6	0x3f83765c	1.0270495
7	0x3f80f7f0	1.0075665
8	0x3f736e0f	0.9508981
9	0x3f7f6934	0.997699
10	0x3f6c84ba	0.92390025
11	0x3f8771c9	1.05816
12	0x3f8901b6	1.0703647
13	0x3f97b39d	1.1851689
14	0x3f69bfee	0.91308486
15	0x3f73cd91	0.95235544
16	0x3f883750	1.064188
17	0x3f6e2349	0.9302259
18	0x3f7ca7f1	0.9869376
19	0x3f7152e1	0.9426709
20	0x3f61d940	0.8822212
21	0x3f7345f6	0.95028627
22	0x3f8361de	1.0264242
23	0x3f870f47	1.0551537
24	0x3f7ee617	0.9956984
25	0x3f577cb4	0.84174657
26	0x3f7eca4e	0.9952744
27	0x3f78cc7e	0.9718703
28	0x3f64a31c	0.89311385
29	0x3f550eee	0.83225906
30	0x3f8afb4a	1.0857937
31	0x3f693ae2	0.91105473

batch1.bias f4 [32]
0	0xbece66c2	-0.40312773
1	0xbea975d1	-0.330977
2	0xbef426af	-0.47685763
3	0xbeeb7266	-0.45985717
4	0xbebd14ff	-0.3693008
5	0xbecbf58b	-0.39835772
6	0xbeb2ec0c	-0.34945714
7	0xbefc7f22	-0.49315745
8	0xbebc4c35	-0.3677689
9	0xbede4508	-0.43412042
10	0xbe976595	-0.29569688
11	0xbeb28c85	-0.34872833
12	0xbeb80a5a	-0.35945398
13	0xbe79a5af	-0.2437961
14	0xbe76021e	-0.24024245
15	0xbeaf463c	-0.34233272
16	0xbe7799ff	-0.24179839
17	0xbe8b9723	-0.27263746
18	0xbf226ddf	-0.634489
19	0xbdea28d9	-0.11433572
20	0xbea45279	-0.32094172
21	0xbea041e1	-0.31300262
22	0xbef8c540	-0.4858799
23	0xbeb02d71	-0.3440967
24	0xbeea1402	-0.4571839
25	0xbe991f0c	-0.299065
26	0xbe5d78a2	-0.21628049
27	0xbe9e8bd9	-0.3096607
28	0xbdde4e04	-0.10854724
29	0xbec768a0	-0.3894701
30	0xbe765b61	-0.24058296
31	0xbeab853c	-0.33500087

batch1.running_mean f4 [32]
0	0x3f3312bc	0.6995046
1	0x3ea5097c	0.32233799
2	0x3e0cb70e	0.13741705
3	0xbf8fe259	-1.1240951
4	0x3ded6def	0.11593234
5	0xbfe0b2fe	-1.7554624
6	0x3f24d998	0.6439452
7	0xbf6aaeea	-0.9167315
8	0x3f9b32d8	1.2124891
9	0xbf263676	-0.6492685
10	0xbe1edd51	-0.15514113
11	0xbea9547d	-0.33072272
12	0x3fb72549	1.4308254
13	0xbdb43829	-0.08799774
14	0x3f18c6d2	0.59678376
15	0xbec9b54e	-0.39396137
16	0xbf4225cc	-0.75838923
17	0x3fa85d97	1.3153561
18	0x3e3689c8	0.17825997
19	0x3fbdc3cd	1.4825379
20	0x3e3a7c69	0.18211521
21	0x3db0dad9	0.08635492
22	0xbe879451	-0.26480344
23	0xbe910fd4	-0.28332388
24	0xbf02a7b4	-0.51037145
25	0xbf8baadd	-1.0911518
26	0x3ee4048b	0.44534716
27	0x3efaa53f	0.48954198
28	0x3e5575d3	0.20845728
29	0xbeccf56e	-0.40030998
30	0xbe335ec3	-0.17516617
31	0x3d8cba41	0.068714626

batch1.running_var f4 [32]
0	0x3fd16eb7	1.6361912
1	0x40314c2a	2.7702737
2	0x3f964852	1.174082
3	0x3f76658e	0.9624871
4	0x3faa6d32	1.3314574
5	0x4059a40e	3.400638
6	0x3fd16903	1.6360172
7	0x40019d48	2.0252247
8	0x4068bca4	3.6365137
9	0x40108b21	2.2584918
10	0x3f020666	0.50791013
11	0x3f614e3b	0.88009995
12	0x3f9bb3a2	1.2164195
13	0x3fa7da98	1.3113585
14	0x3ff9bc54	1.9510598
15	0x401a88ce	2.4146
16	0x407f1662	3.9857411
17	0x4078f0d0	3.889698
18	0x3f86b97d	1.0525357
19	0x3fddf84c	1.7341399
20	0x3fa90f87	1.3207864
21	0x3f2779e2	0.65420353
22	0x3fd27f56	1.644511
23	0x3fbe78be	1.4880598
24	0x3fa230d7	1.2671155
25	0x4011e88b	2.2798183
26	0x401e95de	2.4778972
27	0x3f9a0442	1.2032549
28	0x402ae539	2.6702406
29	0x3fb52b53	1.4153847
30	0x3fd1b989	1.6384746
31	0x3ee0f6ae	0.43938202

conv2.weight f4 [64, 32, 5, 5]
0	0x3e787402	0.24263003
1	0x3d1e5975	0.03865953
2	0xbd016865	-0.0315937
3	0xbc8775d9	-0.016535686
4	0xbd6290f4	-0.05531402
5	0x3cd297d9	0.025707172
6	0xbe29508b	-0.16534631
7	0xbea6373e	-0.3246402
8	0xbe145a74	-0.1448763
9	0x3e001995	0.12509759
10	0x3e5e4a4f	0.21708034
11	0x3e9242b1	0.28566507
12	0x3e5ffcac	0.2187373
13	0x3d349463	0.044086825
14	0xbcce7dda	-0.025206495
15	0x3c296f4b	0.010341476
16	0x3e38af59	0.1803564
17	0x3e2cc591	0.1687224
18	0xbd9e63d8	-0.077338874
19	0xbea290ee	-0.31751198
20	0x3d972eb4	0.07381955
21	0x3d50cf05	0.05097868
22	0x3e7d7a04	0.24753577
23	0x3e37f387	0.17963992
24	0xbdf564c7	-0.119821124
25	0x3eb5fb57	0.3554332
26	0x3f03f445	0.515446
27	0xbd007509	-0.031361613
28	0x3d134303	0.03595258
29	0xbe418d9b	-0.18901674
30	0x3edb9984	0.4289056
31	0x3ecc4070	0.39892912
32	0xbdb242b0	-0.08704126
33	0xbbcbdf23	-0.0062216683
34	0xbd183f68	-0.037169844
35	0x3ee607ec	0.4492792
36	0x3e53c10b	0.20679109
37	0xbde20bf8	-0.11037439
38	0xbe65e8cd	-0.22452088
39	0xbe2037a6	-0.15646228
40	0x3efb3b41	0.49068645
41	0x3e9c65f4	0.30546534
42	0x3c982375	0.018571595
43	0x3c948e20	0.018134177
44	0xbcb1f601	-0.02172375
45	0x3e2ff30a	0.17182556
46	0x3dc82969	0.09773523
47	0xbd64b5e0	-0.055837512
48	0x3dee39de	0.11632131
49	0x3d5e902a	0.054336704
50	0x3dc3653c	0.09540793
51	0x3c95d00d	0.018287683
52	0xbdf95a3c	-0.12175414
53	0xbc97d3d2	-0.018533621
54	0xbe05ff47	-0.13085662
55	0xbc231b25	-0.009955202
56	0x3d457840	0.048210382
57	0xbea577f6	-0.32318085
58	0xbee0c741	-0.4390202
59	0xbe11abb4	-0.14225656
60	0x3df204df	0.11817335
61	0x3dffb8e5	0.12486438
62	0xbe9ac97a	-0.3023184
63	0xbe81e40a	-0.25369292
64	0x3db60c5e	0.088890776
65	0x3bbfd1db	0.005853874
66	0xbd114ac1	-0.03547168
67	0xbb27a52f	-0.0025580635
68	0x3d9e6eef	0.07736003
69	0x3e838dc3	0.25694093
70	0xbefa3b01	-0.4887314
71	0xbe07fb92	-0.1327956
72	0xbd418a2d	-0.047250915
73	0xbdd152f1	-0.10220898
74	0x3dc17f14	0.09448066
75	0xbeb9df7f	-0.36303326
76	0xbe428ac3	-0.18998246
77	0xbed86c17	-0.42269966
78	0xbefc520e	-0.49281353
79	0xbe87c8af	-0.26520297
80	0xbed9bcdb	-0.42526898
81	0xbd1882d0	-0.037234128
82	0xbe39c9cf	-0.1814339
83	0xbe982e94	-0.29723036
84	0xbc94962a	-0.01813801
85	0xbe572cb8	-0.21013153
86	0x3e10a161	0.14124061
87	0xbe0e5dbb	-0.13902943
88	0xbe6bc26c	-0.23023385
89	0x3da86123	0.08221652
90	0xbe10cde0	-0.14141035
91	0x3dd9a711	0.106275685
92	0xbdb42d4f	-0.087977044
93	0x3c1a5a4c	0.0094209425
94	0x3ea2c2c7	0.31789228
95	0xbd43e1ef	-0.04782289
96	0x3de8d8b0	0.11369455
97	0xbe1ef408	-0.15522778
98	0xbd993776	-0.074812815
99	0x3d12fb26	0.035884045
100	0x3e3f4a45	0.18680675
101	0x3d0f06c4	0.03491856
102	0x3e09a1a3	0.13440566
103	0x3e269f5f	0.16271733
104	0x3e005859	0.12533702
105	0xbd432857	-0.047645893
106	0xbd02b1a7	-0.031907704
107	0xbd102392	-0.035190172
108	0x3e0228c6	0.12710866
109	0x3d971d3f	0.07378625
110	0xbe12b434	-0.14326555
111	0xbc593093	-0.01325621
112	0xbdc8d1cd	-0.09805641
113	0xbe21c714	-0.15798599
114	0xbe4925f7	-0.19643389
115	0x3d9db7a0	0.07701039
116	0x3e208973	0.15677433
117	0x3ccc9b17	0.024976296
118	0xbdaabeda	-0.08337183
119	0xbdd3e617	-0.103466205
120	0x3da46611	0.0802728
121	0x3d340d02	0.043957718
122	0x3d218a23	0.039438378
123	0x3e015bfa	0.12632743
124	0x3dfb3896	0.12266652
125	0xbe983eed	-0.2973551
126	0xbd413d12	-0.04717738
127	0xbe7643cf	-0.24049304
128	0xbe833146	-0.2562353
129	0xbe1e2557	-0.15443932
130	0xbe48c27e	-0.19605443
131	0x3af3bbff	0.0018595456
132	0xbe48e3e5	-0.19618185
133	0xbd9a580a	-0.07536323
134	0xbd016649	-0.031591687
135	0x3e1c87e4	0.15286213
136	0xbafc2391	-0.0019236674
137	0xbe4ba227	-0.19886075
138	0x3c6eb316	0.014569065
139	0x3db690b8	0.08914322
140	0x3e4bfe36	0.19921193
141	0xbc8d0d97	-0.017218394
142	0xbe0f436d	-0.13990565
143	0xbb38b5a9	-0.002818445
144	0xbd963507	-0.07334333
145	0x3cb67e1c	0.02227693
146	0x3c9312fa	0.017953385
147	0x3b89b2c7	0.00420222
148	0xbd0f5872	-0.034996457
149	0xbd2b8f02	-0.04188443
150	0xbf301f2b	-0.6879756
151	0xbedf16a8	-0.43571973
152	0xbe7f2d18	-0.24919546
153	0xbf002561	-0.50057036
154	0xbe893397	-0.26797172
155	0xbed3d90f	-0.4137654
156	0x3d04868e	0.032354884
157	0x3e2d3ff9	0.16918935
158	0xbe19b66b	-0.15010993
159	0xbe1c13ad	-0.1524188
160	0xbe365eff	-0.17809676
161	0x3ef876a8	0.48528028
162	0x3e8e1dcf	0.27757117
163	0x3d5962e5	0.05307283
164	0xbccaa50a	-0.0247369
165	0xbeab2bb6	-0.33431786
166	0x3e516bf0	0.20451331
167	0x3d7d3782	0.061820515
168	0x3d117e64	0.035520926
169	0x3d3cd43d	0.046100844
170	0xbe792d11	-0.24333598
171	0x3e6176c3	0.2201796
172	0x3e799c11	0.24375941
173	0x3e0dcdf0	0.1384809
174	0x3e45c3b4	0.19312936
175	0x3eb64707	0.35601065
176	0x3e6b58d3	0.22983103
177	0xbdd0ac40	-0.10189104
178	0xbe446a2a	-0.19181123
179	0xbe66f48c	-0.22554225
180	0xbd8af4c3	-0.06784966
181	0x3d6fe607	0.05856898
182	0x3d1b5b34	0.037928775
183	0x3c590fcc	0.013248395
184	0xbe3643d5	-0.17799313
185	0xbe9a0220	-0.30079746
186	0xbe9cbd71	-0.30613282
187	0xbe879b26	-0.26485556
188	0xbb3f6280	-0.0029202998
189	0xbc6bc08d	-0.014389169
190	0x3e93da75	0.28877607
191	0x3d7a75f0	0.06114763
192	0xbe195375	-0.14973243
193	0x3df2cef1	0.11855877
194	0x3e839d0e	0.2570576
195	0x3e430e7c	0.19048494
196	0x3dda7c2a	0.10668214
197	0xbe2f915e	-0.17145297
198	0x3ce2c050	0.027679592
199	0x3e99b321	0.30019477
200	0xbe92596f	-0.28583857
201	0xbe579d4c	-0.21056098
202	0x3c9d4afd	0.019200796
203	0x3d94ce10	0.07265866
204	0x3dcf5dd3	0.101253174
205	0xbeab154f	-0.33414695
206	0xbe056d23	-0.13029914
207	0xbca434da	-0.020044733
208	0x3dcaeac0	0.09908056
209	0x3e48a176	0.19592842
210	0xbe31765e	-0.1733031
211	0x3e31cd36	0.17363438
212	0x3e3cb00a	0.18426529
213	0x3e45129e	0.19245383
214	0x3e5744e4	0.21022373
215	0xbe2853b2	-0.16438177
216	0xbcdf674d	-0.027270937
217	0xbbdde396	-0.006771515
218	0xbe27c680	-0.16384315
219	0xbea9149f	-0.33023545
220	0xbe5eacc3	-0.21745591
221	0xbe86b71f	-0.26311585
222	0xbe0e859a	-0.13918152
223	0xbdad6067	-0.08465653
224	0xbe29185d	-0.165132
225	0x3d4fb69f	0.05071127
226	0x3e4eb7bc	0.20187277
227	0x3d3d54c8	0.04622343
228	0x3dae79ce	0.08519326
229	0xbcffee1c	-0.03124147
230	0x3e6ce738	0.23135078
231	0x3e4e5080	0.20147896
232	0x3e488fea	0.19586149
233	0x3b5be6c4	0.0033554295
234	0xbdfd243e	-0.12360428
235	0xbd0af2dd	-0.03392302
236	0xbd8a4085	-0.067505874
237	0xbe0075f8	-0.12545002
238	0xbe8a5016	-0.27014226
239	0xbe8e5387	-0.277981
240	0xbe286993	-0.16446523
241	0xbe43898d	-0.1909544
242	0xbc68d006	-0.014209753
243	0x3de3da2c	0.11125597
244	0x3e41e1c6	0.18933782
245	0xbe81f94a	-0.25385505
246	0xbe7c3698	-0.24630201
247	0x3e7ff193	0.24994497
248	0x3eda2f44	0.42614186
249	0x3eb179f2	0.3466335
250	0x3e987ba2	0.29781824
251	0x3d8642f0	0.06555736
252	0x3e7fe4aa	0.24989572
253	0x3e399217	0.18122135
254	0x3d40d7cc	0.0470808
255	0xbe13eb29	-0.14445175

conv2.bias f4 [64]
0	0x3e7432a7	0.23847447
1	0xbee141b2	-0.43995434
2	0x3e8d7c49	0.27633885
3	0x3e58f982	0.2118893
4	0x3e89bcd6	0.26901883
5	0xbd697268	-0.056993872
6	0xbf1ca27d	-0.6118544
7	0x3cc6f677	0.024287445
8	0x3dfe630d	0.12421236
9	0xbebe9ca3	-0.3722888
10	0x3bb8d772	0.0056409175
11	0xbe6f11ac	-0.23346585
12	0x3e262b1e	0.16227385
13	0x3e936828	0.28790402
14	0x3f143f15	0.57908756
15	0xbe8b15c4	-0.27165043
16	0xbda9424b	-0.082645975
17	0xbd42f2c6	-0.047594808
18	0xbcebdd91	-0.028792175
19	0x3d877813	0.06614699
20	0xbe158eed	-0.14605303
21	0x3dcc725d	0.099827506
22	0x3e160a9e	0.14652488
23	0xbe1f8353	-0.1557744
24	0x3e78e9d7	0.24307953
25	0x3ea870b2	0.3289848
26	0xbdfefd8e	-0.124507055
27	0xbea073c5	-0.31338325
28	0x3e271827	0.16317807
29	0xbe5e0314	-0.21680862
30	0x3df0d1e0	0.117587805
31	0x3d078cd6	0.033093296
32	0xbe3f9cfe	-0.18712232
33	0x3cf9d98b	0.03049924
34	0xbcc3dbd1	-0.023908528
35	0x3e8eef72	0.27917057
36	0xbeeaf875	-0.45892683
37	0x3da1f45e	0.079079375
38	0xbee8468e	-0.4536633
39	0xbe41ee94	-0.18938667
40	0xbed0d2d7	-0.40785858
41	0x3e677ad0	0.22605443
42	0x3e53372a	0.20626512
43	0x3e5c536c	0.21516198
44	0x3d5a4966	0.053292654
45	0x3e8c7c2c	0.27438486
46	0x3e499680	0.19686317
47	0xbe668a57	-0.2251371
48	0x3e8149ed	0.25251713
49	0x3df2afbc	0.11849925
50	0x3eaca9be	0.33723253
51	0xbad51577	-0.0016257007
52	0x3e0fe4a7	0.14052068
53	0xbd8cf7ab	-0.068831764
54	0x3df5a334	0.11994019
55	0xbf1cbb4a	-0.6122328
56	0x3f29dfdc	0.6635721
57	0x3e42561d	0.18978162
58	0xbe28007a	-0.16406432
59	0x3db95577	0.09049504
60	0x3dc28c1a	0.094993785
61	0x3e39da70	0.18149734
62	0xbf15b7ad	-0.5848339
63	0x3ddc8670	0.107678294

conv22.weight f4 [32, 64, 5, 5]
0	0xbef37dd6	-0.47556943
1	0xbec84dda	-0.39121896
2	0xbe8c72bb	-0.27431282
3	0xbecb0ca7	-0.3965809
4	0x3ed73d3a	0.420389
5	0xbea53ecd	-0.32274476
6	0xbe88d5ae	-0.26725525
7	0xbd974d7a	-0.07387824
8	0x3ce42d91	0.027853759
9	0x3f07cc4d	0.53046113
10	0x3dacd1f9	0.084384866
11	0x3e022258	0.12708414
12	0x3e483009	0.19549574
13	0x3e1ee6ea	0.15517774
14	0x3ee7bc60	0.45260906
15	0x3e1ec60a	0.15505233
16	0x3ef2e276	0.474384
17	0x3e57647f	0.2103443
18	0xbe3f6d83	-0.18694119
19	0xba8813d7	-0.0010381889
20	0x3ea7d7e4	0.327819
21	0x3ee3397a	0.4437979
22	0x3e212227	0.15735684
23	0xbe710305	-0.23536308
24	0x3e16df04	0.14733511
25	0x3d7e4e8b	0.062086623
26	0x3d42d127	0.047562744
27	0xb97bec00	-0.00024025142
28	0x3d8502df	0.06494688
29	0x3e23a0b4	0.15979272
30	0x3ca1e416	0.01976208
31	0x3c96baf2	0.01839969
32	0xbdccc7dc	-0.09999058
33	0xbcb1d9f9	-0.021710383
34	0xbd640e18	-0.055677503
35	0x3de431bb	0.11142298
36	0x3d9775ef	0.07395541
37	0xbc67c7f6	-0.0141467955
38	0x3dd082d7	0.10181206
39	0x3db32ae4	0.08748415
40	0x3e08d6b1	0.13363148
41	0x3e1ab20e	0.15106985
42	0x3dcbed04	0.099573165
43	0x3d81e3b3	0.06342258
44	0xbda3ab49	-0.079916544
45	0xbe2f01f7	-0.17090593
46	0x3abec0e3	0.0014553334
47	0x3dd2d97e	0.102953896
48	0x3d5083a9	0.05090681
49	0xbb219500	-0.0024655461
50	0x3eaa791d	0.33295527
51	0x3e86ba7f	0.2631416
52	0x3e814671	0.25249055
53	0x3e1fd73f	0.15609454
54	0x3de5a832	0.11213721
55	0x3de76ee7	0.1130045
56	0x3e6dd17d	0.23224445
57	0x3e2fe896	0.17178568
58	0x3cc0fe87	0.023558868
59	0x3dcc8309	0.099859305
60	0xbe53f0d3	-0.20697336
61	0xbe643298	-0.22284925
62	0xbe8fd0b8	-0.28088927
63	0xbec28bbe	-0.3799724
64	0xbd9cae53	-0.07650437
65	0xbeab7ac0	-0.33492088
66	0xbe41d643	-0.1892939
67	0xbe257eb9	-0.16161622
68	0xbc9f156a	-0.01941939
69	0x3da22012	0.07916273
70	0xbe1d1870	-0.15341353
71	0x3cc788d7	0.024357243
72	0xbc0c74db	-0.008572782
73	0x3e16d485	0.14729507
74	0x3e4f263a	0.20229426
75	0x3e4cd208	0.20001996
76	0x3e6e662c	0.23281163
77	0x3dfa5712	0.122236386
78	0xbcbd08af	-0.02307543
79	0xbccb1f94	-0.024795331
80	0xbdf6fced	-0.120599605
81	0xbebdcbc5	-0.37069526
82	0xbec3339d	-0.38125315
83	0xbe455711	-0.19271494
84	0xbd3e8221	-0.04651082
85	0xbe817ee2	-0.25292116
86	0xbe7ce9b7	-0.2469853
87	0xbdaabd10	-0.08336842
88	0x3d5fbb12	0.054621764
89	0x3d65186e	0.0559315
90	0x3ac455fe	0.0014979241
91	0xbd01de4b	-0.031706136
92	0x3d9cca6e	0.07655798
93	0x3df8870f	0.121351354
94	0x3de12457	0.109932594
95	0xbe09ad2f	-0.1344497
96	0xbe566c08	-0.20939648
97	0xbd499867	-0.049217608
98	0x3d35adb9	0.044355128
99	0xbd504a69	-0.050852213
100	0xbe03ba8a	-0.12864128
101	0x3dec36e3	0.11533906
102	0xbe35933e	-0.1773195
103	0xbe55d965	-0.2088371
104	0xbd1baac4	-0.03800465
105	0xbdc85fd7	-0.09783905
106	0x3e87d682	0.26530844
107	0x3e455267	0.19269715
108	0x3e829912	0.25507408
109	0x3e9730c1	0.29529384
110	0x3dcb5d4c	0.09929904
111	0x3e997128	0.29969144
112	0x3da9f747	0.082991175
113	0x3c93bdb4	0.018034793
114	0xbea6e56e	-0.32596916
115	0x3ddc73e5	0.10764293
116	0xbd92668c	-0.071484655
117	0xbebde368	-0.3708756
118	0xbeb66a5c	-0.3562802
119	0xbf285c34	-0.6576569
120	0xbdfd80b0	-0.12378061
121	0xbe701a52	-0.2344754
122	0xbf076cce	-0.529004
123	0xbeaca52c	-0.33719766
124	0xbefd7c08	-0.4950869
125	0xbf027022	-0.5095235
126	0xbecc13df	-0.3985891
127	0xbe8fbd4d	-0.28074113
128	0xbe1c36f0	-0.15255332
129	0x3d3491a8	0.04408422
130	0xbe04a080	-0.12951851
131	0xbdee8ca2	-0.11647917
132	0xbe6a960f	-0.22908805
133	0xbdf5e2b7	-0.12006133
134	0x3d2b78b6	0.041863166
135	0x3e07ab16	0.13248858
136	0xbbdbdfee	-0.006710044
137	0x3c7dd296	0.015492102
138	0x3db0c2d5	0.08630911
139	0x3e8ed642	0.2789784
140	0x3eab0990	0.33405733
141	0x3e2f2a04	0.17105871
142	0x3d38befa	0.045104004
143	0xbd5300d5	-0.051514465
144	0x3dde1de1	0.10845543
145	0x3ec79f6f	0.38988826
146	0x3e302cc7	0.17204581
147	0xbddad91f	-0.10685944
148	0xbe86ed2f	-0.26352832
149	0xbdbc86c6	-0.092053935
150	0xbe58a308	-0.21155941
151	0xbd4be979	-0.049783204
152	0xbe2ff716	-0.171841
153	0x3cc5f598	0.02416496
154	0xbe36ad6c	-0.17839593
155	0xbe47240c	-0.19447345
156	0x3d4f81a0	0.05066073
157	0x3d978bc3	0.07399704
158	0x3eb0ff51	0.3456979
159	0x3db7291e	0.08943389
160	0x3e0bdc94	0.13658363
161	0x3e7087a1	0.23489238
162	0x3e1245eb	0.14284484
163	0x3e9bbd78	0.3041799
164	0x3debdefa	0.11517139
165	0x3e75c4ed	0.24000902
166	0x3ab2656a	0.0013610546
167	0xbe42274b	-0.18960302
168	0xbbbef331	-0.0058273305
169	0xbe49a9f7	-0.19693743
170	0x3ea658ac	0.32489526
171	0x3da0c015	0.07849137
172	0xbd7a153a	-0.0610554
173	0x3b196912	0.0023408574
174	0xbeab3aee	-0.33443397
175	0xbe64d04b	-0.22345082
176	0xbc1a3824	-0.009412799
177	0xbca3ecc1	-0.020010354
178	0x3d3f730c	0.046740577
179	0x3deadcec	0.11467919
180	0xbdc182f3	-0.09448805
181	0x3cf3b5e7	0.029749824
182	0xbd987fb5	-0.07446233
183	0xbd9fa031	-0.07794226
184	0xbe62258d	-0.22084637
185	0xbd08697d	-0.033303726
186	0xbd8c3cd5	-0.0684754
187	0xbe5702bd	-0.20997138
188	0xbe32110c	-0.17389315
189	0xbe99bb36	-0.30025643
190	0xbda2c8a8	-0.079484284
191	0xbe50bd9f	-0.20384835
192	0xbe8773fe	-0.26455683
193	0xbe31abfc	-0.17350763
194	0xbe4a7e56	-0.19774756
195	0xbe31e0c0	-0.17370892
196	0xbe700842	-0.2344065
197	0xbe9093f9	-0.28237894
198	0xbe0dba82	-0.13840678
199	0xbdb9b27d	-0.09067247
200	0xbdbbb38e	-0.09165107
201	0xbd4257d0	-0.047447026
202	0x3e854406	0.2602846
203	0x3f054673	0.5206062
204	0x3e6cb0c8	0.23114312
205	0x3ced8085	0.028991947
206	0xbc446a6b	-0.011988263
207	0xbd4a7ff2	-0.049438424
208	0xbe31a30c	-0.17347354
209	0xbe17fd35	-0.14842685
210	0x3d0cb3e2	0.034351237
211	0xbdb16fc9	-0.086638995
212	0xbdc9dc28	-0.098564446
213	0x3d1e6bd3	0.038677048
214	0xbd95e489	-0.0731898
215	0x3de7a2dd	0.113103606
216	0xbe388c32	-0.1802223
217	0xbe8e0a79	-0.27742365
218	0xbd70655b	-0.05869041
219	0xbe64772b	-0.22311084
220	0xbd9019f4	-0.070362
221	0xbd93099e	-0.07179569
222	0x3ca58c9d	0.020208651
223	0x3eb34cd2	0.35019547
224	0x3d1fafd0	0.038986027
225	0xbded039b	-0.11572953
226	0xbc9e7a70	-0.019345492
227	0xbdf176cb	-0.11790236
228	0xbdbfd0bd	-0.093659855
229	0xbe3cc613	-0.18434934
230	0x3e19dda6	0.15025958
231	0x3e2fcc82	0.17167857
232	0x3d82b225	0.063816346
233	0x3e01e7f1	0.12686135
234	0x3c07387c	0.008253213
235	0x3e651d4c	0.22374457
236	0x3e2177aa	0.15768304
237	0x3d9e8cc8	0.07741696
238	0x3e57b05a	0.21063367
239	0x3e39cb60	0.18143988
240	0x3e7755dd	0.24153848
241	0x3d4ae4fe	0.04953479
242	0xbd12d41a	-0.035846807
243	0x3d9a73d3	0.07541623
244	0x3d16442d	0.03668611
245	0x3e318017	0.17334019
246	0x3cb2875f	0.021793066
247	0xbdcee9ee	-0.10103212
248	0x3d994bbf	0.074851505
249	0x3ba298b6	0.004962052
250	0xbe83d53b	-0.2574862
251	0xbd1f702d	-0.03892534
252	0x3e67376c	0.22579736
253	0xbd976d61	-0.07393909
254	0x3e9482d5	0.29006067
255	0xbd40d436	-0.04707738

conv22.bias f4 [32]
0	0x3c323005	0.010875707
1	0x3c87d882	0.016582731
2	0xbc9d513a	-0.01920377
3	0x3bfafb3a	0.007659343
4	0xbc7b7b3c	-0.015349206
5	0x3c659495	0.0140124755
6	0xbc0eead4	-0.00872298
7	0x3c990827	0.018680645
8	0x3cace086	0.021103155
9	0xbc6d2582	-0.014474275
10	0xbb90b198	-0.004415702
11	0x3b918a14	0.004441509
12	0xbbd5d7d8	-0.0065259747
13	0x3c7f8425	0.015595471
14	0x3c051bab	0.008124272
15	0xbb99d111	-0.004694112
16	0xbaaa99e3	-0.0013015833
17	0x3c87f9a3	0.016598528
18	0xba320cb2	-0.0006792053
19	0xbc301063	-0.010746094
20	0xbadf343a	-0.0017029115
21	0x3c278258	0.010223947
22	0xbcd61bff	-0.026136396
23	0x3cb7fa7e	0.022458311
24	0x3c636ee3	0.013881418
25	0xbc6e376b	-0.01453958
26	0xbc71f25a	-0.014767254
27	0x3c97c96f	0.018528668
28	0xbbe1922f	-0.0068838815
29	0xbb566cc2	-0.0032718633
30	0x3c4e53e6	0.012593245
31	0x3c0eabe0	0.00870797

batch2.weight f4 [32]
0	0x3f826dd2	1.0189764
1	0x3f4284df	0.75983995
2	0x3f62aded	0.8854664
3	0x3f6d21fb	0.92629975
4	0x3f3c0d5b	0.7345788
5	0x3f893d40	1.0721817
6	0x3f5e75d4	0.8689854
7	0x3f55e1d7	0.8354773
8	0x3f77a4f1	0.96736056
9	0x3f4fc9e0	0.8116741
10	0x3f82cb32	1.021826
11	0x3f5b2877	0.8560862
12	0x3f600081	0.8750077
13	0x3f506246	0.81399953
14	0x3f6ed6fa	0.9329678
15	0x3f211ef1	0.6293784
16	0x3f842276	1.0323017
17	0x3f66fc24	0.90228486
18	0x3f513754	0.8172505
19	0x3f527515	0.82209903
20	0x3f8d4ba3	1.1038707
21	0x3f209f4e	0.6274308
22	0x3f4fb3b1	0.8113356
23	0x3f86986a	1.0515263
24	0x3f5f03fa	0.8711544
25	0x3f6fd7e5	0.93688804
26	0x3f80a095	1.0049006
27	0x3f74a92f	0.95570654
28	0x3f4fd153	0.8117878
29	0x3f49167e	0.78549945
30	0x3f1c0c56	0.60956323
31	0x3f80fdad	1.0077416

batch2.bias f4 [32]
0	0xbf281f9d	-0.6567324
1	0xbef3359f	-0.47501847
2	0xbf0ff876	-0.56238496
3	0xbefc59b1	-0.4928718
4	0xbf03fc4e	-0.5155686
5	0xbf3e89cc	-0.7442901
6	0xbee7fe3e	-0.4531116
7	0xbef4554d	-0.4772133
8	0xbf1fda39	-0.62442356
9	0xbf166da8	-0.5876107
10	0xbf3c1feb	-0.734862
11	0xbf085189	-0.5324941
12	0xbf2f6398	-0.68511343
13	0xbf13fe06	-0.57809484
14	0xbf0d79a5	-0.5526374
15	0xbecfbc3c	-0.405733
16	0xbf2d11c5	-0.6760524
17	0xbf31b21a	-0.69412386
18	0xbf059ca5	-0.52192146
19	0xbf0d896d	-0.5528782
20	0xbf43862b	-0.763766
21	0xbe985180	-0.2974968
22	0xbf2b1a05	-0.6683658
23	0xbf493a23	-0.78604335
24	0xbf155a62	-0.5834104
25	0xbf17ffe2	-0.5937482
26	0xbf313e7c	-0.6923597
27	0xbf20bea6	-0.62790906
28	0xbf220503	-0.632889
29	0xbf303ef4	-0.6884606
30	0xbe6bc550	-0.23024487
31	0xbf28b1bf	-0.6589622

batch2.running_mean f4 [32]
0	0xc36a688e	-234.40842
1	0xc2d23cdd	-105.11887
2	0xc3203c52	-160.23563
3	0xc326906a	-166.56412
4	0xc296d61c	-75.41818
5	0xc3549c07	-212.60948
6	0xc33b6d51	-187.42702
7	0xc332b98f	-178.72484
8	0xc338bad9	-184.72987
9	0xc35b24dd	-219.144
10	0xc36e6181	-238.38087
11	0xc36b8b5d	-235.54439
12	0xc370b96a	-240.72427
13	0xc305f7bd	-133.96773
14	0xc34d0a31	-205.03981
15	0x427fa353	63.909496
16	0xc37791cc	-247.56952
17	0xc340d1e3	-192.81987
18	0xc37ebc4d	-254.73555
19	0xc31b5b94	-155.35773
20	0xc379c7a7	-249.77989
21	0xc2d1fb02	-104.99025
22	0xc2dee258	-111.44208
23	0xc37e10d8	-254.0658
24	0xc377dfd9	-247.8744
25	0xc3439d56	-195.6146
26	0xc370a96b	-240.66179
27	0xc360b99c	-224.72504
28	0xc2ebe341	-117.943855
29	0xc32ba996	-171.66245
30	0xc25ef9c6	-55.74392
31	0xc364e4f5	-228.89436

batch2.running_var f4 [32]
0	0x47a2da2e	83380.36
1	0x46fb13e8	32137.953
2	0x475c644a	56420.29
3	0x479595f3	76587.9
4	0x4744f52d	50421.176
5	0x478166e4	66253.78
6	0x47968032	77056.39
7	0x47589836	55448.21
8	0x4772bbb8	62139.72
9	0x474b1c03	51996.01
10	0x4781dce2	66489.766
11	0x476b602b	60256.168
12	0x4756778c	54903.547
13	0x47355dd9	46429.848
14	0x47831f27	67134.305
15	0x47126397	37475.59
16	0x47ac05de	88075.734
17	0x472d41aa	44353.664
18	0x4774c403	62660.01
19	0x47300fa6	45071.65
20	0x47a12140	82498.5
21	0x474498b6	50328.71
22	0x470f12f3	36626.95
23	0x47812226	66116.3
24	0x475a810a	55937.04
25	0x4785332c	68198.34
26	0x479f0c25	81432.29
27	0x4781d0a9	66465.32
28	0x47209dab	41117.668
29	0x47145335	37971.207
30	0x474ce0bd	52448.74
31	0x479ae36c	79302.84

conv3.weight f4 [16, 32, 5, 5]
0	0xbe0762a9	-0.1322123
1	0xbd8ddc6e	-0.06926809
2	0x3e83faf5	0.25777403
3	0x3eb19514	0.3468405
4	0x3e0d43d4	0.13795406
5	0xbd8385ce	-0.064220056
6	0x3e93043b	0.28714165
7	0x3ed3c984	0.41364682
8	0x3e8b27d9	0.2717884
9	0x3d4bca8b	0.049753707
10	0xbe183e7c	-0.14867586
11	0x3e042cc0	0.12907696
12	0x3e9444e2	0.28958803
13	0x3eb7abff	0.3587341
14	0x3ea18f3c	0.31554592
15	0xbdb40291	-0.08789552
16	0x3dcd082e	0.10011326
17	0x3e5b7dfa	0.21434775
18	0x3edb6deb	0.42857298
19	0x3e0ea8b7	0.13931547
20	0x3e5d2915	0.21597703
21	0x3ea4c335	0.3218018
22	0x3eca00aa	0.39453632
23	0x3e5567c7	0.20840369
24	0xbdc96097	-0.09832876
25	0x3e9aeb65	0.30257717
26	0x3d8f3ef4	0.06994429
27	0x39f820fd	0.00047326824
28	0x3c3f05cc	0.011659097
29	0xbe572805	-0.2101136
30	0x3e0ddecc	0.13854522
31	0xbbc1e1c8	-0.005916808
32	0x3c38329b	0.011242534
33	0x3e9578f7	0.2919385
34	0xbea2b883	-0.31781396
35	0x3e1e447e	0.15455815
36	0xbe338568	-0.17531359
37	0xbe7690a4	-0.24078614
38	0x3db8822c	0.09009203
39	0xbe577479	-0.21040525
40	0x3ddf7907	0.10911756
41	0x3e078fea	0.13238493
42	0xbc2a5d87	-0.010398275
43	0xbcb9da00	-0.022686958
44	0xbef30617	-0.47465584
45	0xbc929644	-0.017893918
46	0x3d082d03	0.03324605
47	0x3c48d2ab	0.012257258
48	0x3cfbbfeb	0.030731162
49	0xbe99fac0	-0.3007412
50	0x3d2baf7f	0.041915413
51	0x3cc7d890	0.024395257
52	0x3d96413f	0.073366635
53	0x3dd7ee92	0.105435506
54	0xbe9f957d	-0.31168738
55	0x39dc0af7	0.0004196984
56	0xbecacdb3	-0.3961006
57	0xbdc664d5	-0.09687201
58	0x3dff146b	0.12455066
59	0xbe694171	-0.2277887
60	0x3da4bf6b	0.080443226
61	0xbe1a81e1	-0.15088607
62	0x3dae6a74	0.08516398
63	0x3e5d04b0	0.2158382
64	0x3dde52f7	0.10855668
65	0x3c896a47	0.01677431
66	0xbdd42c9d	-0.10360072
67	0xbbcbacef	-0.0062156837
68	0xbd1ca7f8	-0.038246125
69	0x3dbe0371	0.09278
70	0x3e50e908	0.20401394
71	0x3e2363ac	0.1595599
72	0x3e1790d1	0.14801337
73	0x3cce456e	0.025179591
74	0xbaa73719	-0.0012757509
75	0xbe5e65ab	-0.21718471
76	0xbd049ec8	-0.032377988
77	0xbdef748f	-0.11692154
78	0x3d6bd9f0	0.05758089
79	0x3de54f54	0.11196771
80	0x3d610017	0.054931726
81	0x3b4e7c4b	0.003150719
82	0xbd93e8f2	-0.07222165
83	0xbc54f9c2	-0.012999
84	0x3e8bd4d1	0.27310804
85	0x3e428b5c	0.18998474
86	0x3e79854e	0.24367258
87	0x3e26e718	0.16299093
88	0xbe896aae	-0.26839203
89	0xbe0845a9	-0.13307823
90	0x3ec3443f	0.38138005
91	0x3eaddec2	0.33959013
92	0x3ee1c063	0.44092092
93	0x3ebb7c52	0.36618286
94	0x3d968569	0.07349665
95	0xbdcbc95e	-0.09950517
96	0x3ce9ec6e	0.028555121
97	0x3e95f2df	0.29286858
98	0x3eca24d1	0.39481214
99	0x3e82491f	0.25446412
100	0xbd0cdb07	-0.03438857
101	0xbc9a24f4	-0.018816449
102	0xbcb58fa0	-0.022163212
103	0x3bdedd1f	0.006801262
104	0x3df662b9	0.120305486
105	0x3e48727e	0.19574925
106	0xbe2bb943	-0.1676989
107	0xbe2942d5	-0.165294
108	0xbe6250b9	-0.22101106
109	0xbca18889	-0.019718425
110	0x3d4b885c	0.04969059
111	0xbe11c49c	-0.14235157
112	0x3e20d6b8	0.15706909
113	0x3dd1cc6f	0.10244071
114	0x3d1aba02	0.037775047
115	0xbcfe9893	-0.031078612
116	0xbe7dceb4	-0.24785882
117	0xbcc048c6	-0.023472201
118	0xbe31a0cf	-0.173465
119	0xbe6a63a4	-0.22889572
120	0xbe35c625	-0.17751367
121	0xbea6a451	-0.32547238
122	0xbd25cc29	-0.040477905
123	0xbe8b8049	-0.2724631
124	0xbee35900	-0.4440384
125	0xbdb226e1	-0.08698822
126	0x3e4f8dcc	0.20268935
127	0x3e52ff9f	0.20605324
128	0xbd8b1b3a	-0.067923024
129	0xbe88e49d	-0.26736918
130	0x3e097cad	0.13426466
131	0x3eabf678	0.33586478
132	0x3e1b6075	0.15173514
133	0xbe3113e0	-0.17292738
134	0xbd62b0e3	-0.055344474
135	0xbe5026cf	-0.20327304
136	0xbd82e167	-0.06390648
137	0x3d758f2f	0.059951004
138	0x3b369c73	0.0027864247
139	0x3e0ee1ce	0.13953325
140	0xbec3cb35	-0.38240972
141	0xbe7d9acf	-0.24766086
142	0xbd13b3a9	-0.03606001
143	0xbdb662cf	-0.08905565
144	0xbe3d508a	-0.18487754
145	0x3e113311	0.14179637
146	0xbd57483f	-0.052559134
147	0x3d5de2c7	0.05417135
148	0x3d79c2bf	0.06097674
149	0xbdda6fd7	-0.10665863
150	0xbe642cc4	-0.22282702
151	0xbee54467	-0.4477875
152	0xbc99dfbf	-0.018783448
153	0x3ccd82b6	0.025086742
154	0x3e79cbda	0.2439417
155	0xbd78dba7	-0.06075635
156	0x3d8046b0	0.062634826
157	0x3ee1cf81	0.44103625
158	0x3ed9034f	0.42385337
159	0x3ea85696	0.3287856
160	0x3ca33ab9	0.019925462
161	0x3e9a3f5d	0.30126467
162	0x3f0700c2	0.5273553
163	0x3ee080e9	0.4384835
164	0x3e67db7c	0.2264232
165	0xbbe0dca1	-0.0068622385
166	0x3e45f8ee	0.1933324
167	0x3db9a1d1	0.09064067
168	0x3c970a73	0.0184376
169	0xbdd9e3d4	-0.10639158
170	0x3d700db4	0.05860682
171	0x3e2938cb	0.16525571
172	0xbb8d0bc3	-0.0043043806
173	0xbe4f2b7d	-0.20231433
174	0xbea620c2	-0.32446867
175	0xbe3c65f8	-0.18398273
176	0x3e169086	0.14703569
177	0x3db0751f	0.08616089
178	0xbeb09bcb	-0.3449386
179	0xbf0decc9	-0.5543943
180	0x3b3ea0e0	0.0029087588
181	0x3e5c478a	0.21511665
182	0x3e5542e5	0.208263
183	0x391aaba9	0.00014750533
184	0xbec1744c	-0.3778404
185	0xbdb2ef34	-0.087370306
186	0xbd64ea9a	-0.055887796
187	0xbe14c40c	-0.14527911
188	0x3d9bf2ef	0.07614695
189	0xbc1c1b3b	-0.009527977
190	0x3d839fd4	0.06426969
191	0x3d806347	0.06268936
192	0x3d4048f9	0.046944592
193	0x3da851d2	0.08218731
194	0x3e1c5d86	0.15270051
195	0xbc75d5bd	-0.015004572
196	0x3d782dca	0.060590543
197	0x3e8b2477	0.27176258
198	0x3e545672	0.20736101
199	0x3e8597ae	0.26092285
200	0x3d483624	0.048879758
201	0xbe215f7c	-0.1575908
202	0x3d80b210	0.06283963
203	0xbd304f5b	-0.04304443
204	0xbe96b4b3	-0.29434738
205	0x3e43edcf	0.19133686
206	0x3cccc20f	0.024994878
207	0xbce5558b	-0.027994892
208	0xbeb3eb19	-0.35140303
209	0xbebc63bc	-0.3679484
210	0x3daa32f5	0.083105005
211	0x3d65c3bd	0.056094874
212	0xbdd61cb4	-0.104546934
213	0xbe9cdc45	-0.30636802
214	0xbe67b5d0	-0.2262795
215	0xbb1c4276	-0.0023843325
216	0xbe1780e3	-0.1479526
217	0xbe82d75a	-0.25554925
218	0xbe73d077	-0.23809992
219	0xbea666b6	-0.32500237
220	0xbdd65c8a	-0.10466869
221	0xbe87e6f6	-0.26543397
222	0xbebc0834	-0.36725008
223	0xbe7df55c	-0.24800628
224	0xbe4e8983	-0.20169644
225	0xbde48a04	-0.11159137
226	0x3e1a5f75	0.15075476
227	0x3e338084	0.17529494
228	0x3cd51d43	0.02601493
229	0x3da1944e	0.07889615
230	0xbd89ad18	-0.06722468
231	0xbd9bc89e	-0.07606624
232	0xbd9c940b	-0.076454245
233	0xbe1c6afb	-0.15275185
234	0xbe636356	-0.22205862
235	0xbe0643a9	-0.13111748
236	0xbe31bdc1	-0.17357542
237	0xbe413e2b	-0.18871371
238	0x3cfc8615	0.030825654
239	0xbeab0401	-0.33401492
240	0x3c5be534	0.0134213455
241	0xbe1dc783	-0.15408139
242	0xbe5a9ace	-0.21348116
243	0x3e4e4f5f	0.20147465
244	0xbdd750cd	-0.105134584
245	0x3e0e1ef6	0.13878998
246	0xbda96224	-0.08270672
247	0xbe68f9bc	-0.22751516
248	0xbdc904ad	-0.09815345
249	0xbe75051c	-0.2392773
250	0xbe354059	-0.17700328
251	0x3df10024	0.11767605
252	0x3ec030b3	0.37537155
253	0x3ea5ba9b	0.3236893
254	0xbeda4e11	-0.42637685
255	0xbd8035d7	-0.06260269

conv3.bias f4 [16]
0	0xbe91d059	-0.2847927
1	0x3f407bea	0.7518908
2	0xbefc3bba	-0.49264318
3	0xbe804fb1	-0.250608
4	0xbefc5dd5	-0.49290338
5	0xbe7e1561	-0.24812843
6	0x3ddea9fe	0.10872267
7	0x3ed8e016	0.42358464
8	0x3e165eb7	0.14684568
9	0xbde4bee4	-0.11169222
10	0xbd57b22d	-0.052660156
11	0xbe9a2edc	-0.30113876
12	0x3c910c87	0.017706169
13	0x3d454f22	0.04817117
14	0xbe1acaee	-0.15116474
15	0x3ef851a1	0.48499778
