models/net_new_bs64_dr0_2_adam/model_epoch_47.pt (torch, 763336 bytes, 28 tensors)

conv1.weight f4 [8, 3, 5, 5]
00000000: fdd9 1b3e f223 2d3e 3270 09bd ebca 863e
00000010: 02a6 5f3d 2c14 4a3e c62e 59be c67c 3b3e
00000020: cd8e cf3e 52fd 70be 7a7b 8e3d a148 22bd
00000030: 0273 b73e c951 373e a19f 133e 9e7a 8cbe
00000040: 8a9e c9bc a2aa e4bd 09c4 61be 2b58 713e
00000050: a821 44be 83db 99be 747f 86be 6499 70bd
00000060: b848 36bd fe0d ebbd f896 31be 2d05 90be
00000070: c971 58bb af36 35be 76eb 683e f152 c2be
00000080: c162 a63c 165f a03d 0131 c4be ecc2 143e
00000090: c2fc d33c 9f97 a43e 66f9 b03c 9a20 29be
000000a0: 7020 3b3b b2a5 db3d 458a 193e fe9f e03c
000000b0: eb11 083e ff30 f13d 55ef 2d3e 2ddb 813e
000000c0: dc23 733e 2cbe 5f3d 0a20 57be 266d a9bb
000000d0: 9804 e5bd 816d 9b3e d966 773e fcfa 283e
000000e0: 49d6 36be 9d64 95bd 9d2c 713e ea8a 6dbe
000000f0: 1edf 123e 8cc5 d2bd e2d7 c93d 5fa2 d6bd
00000100: fdab c2bc 9207 68bc aad2 4a3e b5c8 5ebe
00000110: c333 cfbe d8a1 f2bd 558a 673e 0399 ac3d
00000120: a15b db3d d03c 33be 35fa 37be 51f5 bdbe
00000130: 4db7 56be 0b21 c83d 209e 843e 935a 5f3e
00000140: a29b 8fbe 763d 4bbe c1e1 243e ee99 783e
00000150: 3c66 e93e 24f7 72be 6971 08be 1329 afbd
00000160: 67da 9bbe c4a1 a43e 4302 eebc 4555 83be
00000170: d1aa 023f f7ad e63d aefa 8cbd e246 92bd
00000180: d6ed 1e3d 7a74 8d3d 046d b0bd 3c20 19be
00000190: 1931 ad3d 6149 063e 88da ae3c ce0b 60bd
000001a0: a824 3bbc f62b 263e 842f 4d3d d34b 6dbb
000001b0: 10b4 10be 2589 1fbd 1dbb ae3e 2e33 123c
000001c0: 45f9 6cbd 7d00 35bf b0c7 1bbe 0cdc 843e
000001d0: 30f2 b5bd 2c91 833e 3c5b 4abe 0863 66be
000001e0: 4c9d da3d 9813 28be 06b9 8abd c059 71be
000001f0: e3df 3cbe 11ac d4bd 202c 20be 83ea 85be
00000200: fd92 0b3c fa62 37be a7d6 3d3e 7879 e13c
00000210: bfcc 0fbe 9a01 cc3d 1361 c03c 6bab c03c
00000220: db8b 09be f201 1bbe 4ba1 c5be 01f3 f4b8
00000230: 03d5 653e 9cd4 cabd 10d2 2e3f 1bf1 af3d
00000240: e6c8 c23c a799 ac3d a2c2 8f3d 0898 aa3e
00000250: 759e 7d3e 24a7 90bd fc8f c63d 74cf 4abe
00000260: 5ca2 bf3d 4ec7 ffbd b87b 433a 209a 99be
00000270: 4562 3d3d 1a25 b33d 99c7 223e 6fa1 a13c
00000280: d480 c33d 1e81 a13e 50b0 e2be fbf0 1bbe
00000290: f4d9 993e 421c 86bd 4d4b debe bbe0 b23e
000002a0: 4d70 0a3f 2e94 21bd 1b4f 2abe fb08 b3be
000002b0: bceb 3fbc b92b 1cbc ed09 95bc d07b b6bd
000002c0: dd29 c6be 4c3e d43a de77 08bd 7a42 38be
000002d0: 4645 98be 4d07 edbc b0ea c63c d3fe 0d3d
000002e0: 9699 aa3d 12be 91bd 218e 973e cfed dabe
000002f0: d682 07be ca62 443e 8197 8ebd 5a37 8cbe
00000300: 9b2c 033f 244f 173f 0750 0c3d 8c63 90bd
00000310: 1778 15be 1d55 3c3d 3ba9 083e 4909 853e
00000320: 3ce5 5a3e 0622 ca3c ba4a bb3e a552 313e
00000330: d733 dd3d 4b9a 95bc b413 8d3d 6913 8abd
00000340: 0ab9 2ebd 3d72 b13a a6c0 c43e d6d8 113f
00000350: 5c13 45bf d4c8 2fbf b20c 66be df6b 133f
00000360: 3827 503d 40ce a73d e3e3 40bc bca4 e2be
00000370: 11a6 933e 5cc9 973d 715a 30be a45c 90be
00000380: a60b 84be d00e 053e e86f 673e 9a98 333e
00000390: cbc4 62bd 5e9a c3bd d325 06be aa83 803e
000003a0: cbc0 c03e 645f 033d f733 883d f736 353e
000003b0: a68f 973d 4728 373e 8f5f a6be e21a aabe
000003c0: fce6 4d3e 99e4 f6bd 2508 85bd fe1f ccbe
000003d0: 84d6 54be 0e19 22be b303 2ebe b750 bd3d
000003e0: df58 f8bd 4f48 113d 666f dabd a8f9 5ebe
000003f0: 64e4 f7bd f267 ccbd 6f77 12bd 4060 82be
0.15219875 0.16908243 -0.033554263 0.2632669 0.054601677 0.19734257 -0.21209249 0.18309316
0.40538636 -0.23534134 0.06957145 -0.039620046 0.35829931 0.17902292 0.14416362 -0.274373
-0.02461173 -0.11165358 -0.22047438 0.2356879 -0.19153464 -0.30050287 -0.26269114 -0.058740035
-0.044502944 -0.11477278 -0.17342746 -0.2812895 -0.0033026806 -0.17696641 0.22746071 -0.37953904
0.020310761 0.07830636 -0.38318637 0.14527482 0.02587736 0.32146928 0.021603297 -0.16516343
0.002855327 0.10724963 0.14994152 0.02742004 0.13288085 0.117769234 0.16985829 0.2536253
0.23744148 0.05462472 -0.21008316 -0.005170482 -0.11182517 0.30356982 0.24160327 0.16501993
-0.17855181 -0.07294581 0.23552175 -0.23197523 0.14342925 -0.10291585 0.098556295 -0.104801886
-0.023763651 -0.014161961 0.19806924 -0.21756251 -0.4046918 -0.118472755 0.22611363 0.08427622
0.10710836 -0.17503667 -0.1796654 -0.37101224 -0.20968361 0.097719274 0.2590189 0.21811895
-0.28048426 -0.19847664 0.16101743 0.2427747 0.4558581 -0.23727089 -0.13324513 -0.08552756
-0.30440065 0.32154667 -0.029053813 -0.25650993 0.51041895 0.1126365 -0.06883751 -0.07142426
0.038801037 0.06906982 -0.08614543 -0.14953703 0.0845663 0.1311393 0.021344438 -0.054698758
-0.011422314 0.16227707 0.050094143 -0.0036208525 -0.14131188 -0.03894915 0.3412713 0.008923335
-0.05785491 -0.7070387 -0.15212893 0.25949132 -0.08884084 0.25696695 -0.19761366 -0.22498715
0.10674533 -0.16413724 -0.06773572 -0.23569393 -0.18444781 -0.103843816 -0.15641832 -0.2615548
0.008518931 -0.1790885 0.18538915 0.027523741 -0.14042948 0.09961243 0.023483789 0.023519238
-0.13432257 -0.15137461 -0.3859962 -0.0001168009 0.22444539 -0.09903833 0.6828928 0.08590909
0.023777436 0.08427744 0.07019545 0.33319116 0.24767478 -0.070631295 0.096954316 -0.198057
0.093571395 -0.12489186 0.0007457095 -0.300004 0.046236295 0.08747311 0.15896453 0.019730298
0.095460564 0.3154382 -0.4427514 -0.15228646 0.30049098 -0.065483585 -0.43416825 0.3493708
0.5407761 -0.039447956 -0.16631739 -0.3496779 -0.011713918 -0.009531909 -0.01819321 -0.08910334
-0.38703814 0.0016192882 -0.03331744 -0.17994109 -0.2974035 -0.028934145 0.02428183 0.034666847
0.083300754 -0.07116331 0.29600623 -0.4275956 -0.13233504 0.1917831 -0.06962491 -0.2738598
0.5123994 0.59105134 0.034256008 -0.07050237 -0.14596592 0.045979608 0.13345806 0.25983647
0.21376508 0.024674427 0.3658045 0.17316683 0.10800903 -0.01826205 0.06888524 -0.067419834
-0.042656936 0.0013538074 0.3842823 0.5697149 -0.76982665 -0.68665814 -0.2246578 0.57586473
0.050818652 0.08193636 -0.011773082 -0.44266307 0.28837636 0.07411453 -0.17222 -0.2819568
-0.25790137 0.12993932 0.22601283 0.17538682 -0.055363458 -0.095509276 -0.13100366 0.25100452
0.3764709 0.032073393 0.066505365 0.17696749 0.07400446 0.17886458 -0.3249478 -0.33223635
0.20107645 -0.1205532 -0.06495694 -0.39868158 -0.20784956 -0.1582987 -0.16993599 0.09243911
-0.12126326 0.03546935 -0.10665779 -0.21774924 -0.12104109 -0.099807635 -0.035758432 -0.25464058

conv1.bias f4 [8]
00000000: bba4 85be 88df 673e f829 62ba 8c63 1cbd
00000010: 80b5 aebe 8506 c5be 479b 91bd ff46 183e
-0.26102242 0.22643864 -0.00086274697 -0.038180873 -0.3412285 -0.38481537 -0.07109695 0.14870833

conv11.weight f4 [32, 8, 5, 5]
00000000: f308 363e 7d7c 033e 996a bf3b 8d1a 99be
00000010: fd5c f93d 78fa 113e 1e39 fb3d e61f cabc
00000020: 8201 c6bc a873 ebbd 1971 a8bc 3b3e 6c3e
00000030: 7288 ad3c cf98 893e 1141 0c3e e8b4 54be
00000040: 3d3f 343d 831c 0ebe 37b1 dc3d a32d 7e3e
00000050: 523d 48bd 19c7 6fbd 5c0b 66be 177e 7ebc
00000060: d1f8 debd 0498 033d c303 24be a802 d8bd
00000070: 25cb a7bb 83b5 b9bd 66b5 a43c 0f52 1d3e
00000080: 6e5a 263e 3394 96bd dc68 3f3b aa00 283d
00000090: 88a0 9ebe 8fa9 1abe d23d 663d 60f7 72bd
000000a0: e6f2 483e db7f 333d 0deb 083a 1c3d febd
000000b0: b481 d4bd 74c4 213e b4a0 143e d76e 953e
000000c0: ab7e 48bd 5592 91be 13e7 633e d3d3 d53d
000000d0: 8c1b b8be 62a8 fe3d c7cf 90be 7e4f 193e
000000e0: 9ac7 083f 042c dd3e 2d40 133e f2c8 323c
000000f0: 2270 60be 576e 26bf f290 74be c424 a03e
00000100: 1057 e03e b9fc 963e ae0f 6dbe 8a36 b1be
00000110: dbe4 61be 3318 7c3d 1a0c bc3d 65de 183e
00000120: 3ab1 4e3e 81fe 463d fe6a 653d 832f 923e
00000130: aa7d 6c3e 0660 403e fb8e 0ebe 0ec9 eabe
00000140: d7e0 adbe 32eb c3be f99f 52be 5328 063e
00000150: c641 003e 373d 013e b2fe 6a3d 7d9d 9c3d
00000160: 0ff7 753e 05c0 733e 82c0 923e ccd8 683e
00000170: 805e a23d 4dba 1abd 1234 adbe 897e 273c
00000180: 14fa 853d 4eb0 84bd f2d8 24bb 2537 e2bd
00000190: 6d67 da3b 1309 96bd 9d4b 5fbd ec7c 5e3d
000001a0: 6fea 163e 3a2e babb 2441 0d3c 5adb 503e
000001b0: 930a 6e3e 29af 973e 4e06 393d 97d6 67bd
000001c0: 2bf9 38bd f7b9 adbc 5570 0e3a 4546 c2bb
000001d0: 3ead 6abe 230b 08be 1a4a cabc 726c 063d
000001e0: 4867 47be ddbc 95be e8df 49be 343f 7ebe
000001f0: 9838 cbbd 910a 0dbc d3cf 08bd c1e6 82be
00000200: 1a2a 50bd 44c8 2fbd 32e5 473c dc61 143e
00000210: a2ec e63c c370 713e fa6a 47be 9660 3a3e
00000220: bbc4 ca3d 45f7 24be 81f5 d33e d9bf edbc
00000230: 3d39 52be 512e 20bd 52dc d2be 6bb1 433d
00000240: a2a3 37bd 9d6b d2bd 683b 68bd c830 83be
00000250: 7862 293e c689 b9bd e6ca 89bd 3f0f 1e3c
00000260: f84b 063d b891 8d3e 5273 193e 9bf1 423e
00000270: 3789 b43d d521 95bc 79b8 143d 92f7 9dbe
00000280: 1cf0 9fbe 90e5 223b 27ab 0bbd 692c 4d3d
00000290: 021a d8bd 2fb7 f1be 391a 83be 237f 90be
000002a0: 6eb4 e2bc 80f9 4f3d 6db7 81bd ca3b 603b
000002b0: d0ca 1bbe b00d 45bd 2b56 5bbe 0a56 f6bc
000002c0: 54b0 503e cbad 91bd 1cdd eb3d 7a81 a73d
000002d0: 631d 93be a62a bbbd 3834 76be 70b9 13bd
000002e0: 0d16 c53d 917f 6fbe e4ca 2ebe 39cf 57be
000002f0: 6815 493d 78de 383e dc63 e63e 7e2a 413f
00000300: cf30 713e 10b2 783e c7be 11bd 1fda cb3c
00000310: b23e cc3d c83d 8bbd 2d72 10bd 8135 a9bc
00000320: 5331 5bbe 9362 9c3d def1 dbbc df2f 533c
00000330: eeb0 b93d 1e76 27bd 2d67 8b3e 5dae 173d
00000340: 253a 033e ca73 a53d b421 f4bd 7ef4 6e3e
00000350: e11e 423d 7ee0 b9bc bd46 3ebe d555 b3be
00000360: 4c8b 29bd 36c1 8bbd b6c8 f43c d484 79be
00000370: 623f 053d 7ba5 503d 12cc 743d f775 a33d
00000380: baef 43be e16f abbe 4fa7 90bd f773 e83b
00000390: c38e a8be 4def cbbd dcc2 06be b019 f13d
000003a0: 5fa0 ea3d 6dd7 30be 0395 4abd a48a 4bbe
000003b0: fc54 1ebd 200a babd cd6a 90bd c937 51bc
000003c0: d4be 19be 7f90 c63d 4baa 773d 564e 60bd
000003d0: 31ab 23bd 6eb0 6c3d 4b7f ab3d dd68 343e
000003e0: d7bb 653e 42f4 b53d 4f07 ffbd 522f a5bd
000003f0: 375e 88be 79ff 973c 8e4b b63e efff 1dbc
0.17776851 0.12840457 0.005841565 -0.2990307 0.12175939 0.14255702 0.122667536 -0.024673413
-0.02417064 -0.11496669 -0.020561742 0.23070614 0.021183226 0.26874396 0.13696696 -0.20772135
0.04400562 -0.13878064 0.107759885 0.24822097 -0.048886605 -0.058539484 -0.22465271 -0.015532992
-0.10887302 0.032127395 -0.1601706 -0.10547382 -0.0051206523 -0.09067824 0.020106029 0.15363334
0.16245434 -0.073524855 0.0029206788 0.04101626 -0.3098185 -0.15103744 0.0562113 -0.059317946
0.19623908 0.043823104 0.00052230136 -0.124139994 -0.103763014 0.15797597 0.14514428 0.29186127
-0.048948925 -0.28431955 0.22256117 0.10440793 -0.35958517 0.1243446 -0.28283522 0.1497173
0.5342957 0.43197644 0.1437995 0.010912167 -0.21917775 -0.65012115 -0.23883417 0.3127805
0.43816423 0.29489687 -0.23150513 -0.34611923 -0.22059958 0.061546516 0.09181996 0.14928587
0.20184794 0.048582558 0.05601024 0.28551874 0.23094812 0.1878663 -0.1392173 -0.45856518
-0.33960602 -0.38265377 -0.20568837 0.1310132 0.1252509 0.12621008 0.057371803 0.07647226
0.24020027 0.23803718 0.28662497 0.22738951 0.07928181 -0.037775327 -0.3382879 0.010223039
0.06541839 -0.0647894 -0.0025153724 -0.11045674 0.0066651613 -0.073259495 -0.05451547 0.054318354
0.14737867 -0.00568178 0.008621488 0.20396176 0.23246221 0.29625824 0.04517203 -0.056601133
-0.0451595 -0.021206839 0.0005433609 -0.005928787 -0.22917649 -0.13285498 -0.024693538 0.032818265
-0.19472992 -0.29245654 -0.1971432 -0.24828798 -0.09922904 -0.008608476 -0.03340132 -0.25566676
-0.0508214 -0.042915598 0.0122006405 0.14490455 0.028189007 0.23578171 -0.19474402 0.18200907
0.099008046 -0.16109951 0.41398242 -0.029022144 -0.20529647 -0.03910667 -0.41183716 0.04777662
-0.044833787 -0.10274432 -0.05669728 -0.25623155 0.16541469 -0.09059481 -0.06728153 0.00964719
0.032787293 0.27650237 0.14985397 0.19037478 0.08815234 -0.018204609 0.03630874 -0.30852944
-0.31237876 0.0024856068 -0.03409877 0.05009118 -0.105518356 -0.4721007 -0.25605944 -0.28221998
-0.027673926 0.05077505 -0.06333814 0.0034215325 -0.15214086 -0.048108757 -0.21419589 -0.030070323
0.20379764 -0.071132265 0.11516783 0.081789926 -0.28733358 -0.09138994 -0.24043357 -0.03606552
0.096233465 -0.23388506 -0.17069584 -0.21075143 0.04909268 0.18053615 0.44998062 0.7545546
0.23553775 0.24286675 -0.03558233 0.024884282 0.09972896 -0.06798893 -0.035265137 -0.020655395
-0.21405534 0.07635989 -0.02684873 0.012889831 0.0906695 -0.04088413 0.27227154 0.03703152
0.12815149 0.08078726 -0.11920491 0.23335454 0.04739273 -0.022690054 -0.18581672 -0.35026422
-0.04139261 -0.068239614 0.029880863 -0.24367076 0.03253115 0.050939064 0.05976493 0.079814844
-0.19134417 -0.33483794 -0.070631616 0.007093902 -0.3292142 -0.099577524 -0.1316027 0.117724776
0.114563696 -0.17269678 -0.049458515 -0.19877106 -0.038655266 -0.090839624 -0.07051621 -0.012769648
-0.15014201 0.09695529 0.06046514 -0.054762207 -0.039958183 0.057785444 0.083738886 0.17618127
0.22434936 0.08884479 -0.12452566 -0.08065666 -0.2663438 0.018554436 0.3560452 -0.009643539

conv11.bias f4 [32]
00000000: 9eb3 1ebd 09ea e53c 83d8 5c3c e3aa 1ebe
00000010: 3a68 e4bd 1adc 40bd e416 3fbe d2b4 f33c
00000020: 2a9b 453e 478b 1b3b 51f0 7fbc 1797 9f3d
00000030: d04a 14bc 0f18 cdbc 1cb8 b13d 35e9 5e3d
00000040: 416b 0c3d 079d 38bc db1b 20be b491 e8bc
00000050: 1c0c 4a3c 5706 573e 6cce 0dbd 0a92 4c3d
00000060: 766a 253d 0bcf dcbc e750 cd3d bfcc c2bd
00000070: 3343 62bd 2d74 483e 79ca 4a3d 87e3 fd3c
-0.038745515 0.028065698 0.013479355 -0.15494876 -0.11152692 -0.047084905 -0.18661076 0.029749308
0.19297472 0.0023734139 -0.015621261 0.0779249 -0.00905104 -0.025035886 0.08677694 0.054421622
0.034281973 -0.011267907 -0.15635626 -0.02838979 0.012331989 0.20998512 -0.034620687 0.04994396
0.040384732 -0.026954195 0.100251965 -0.095117085 -0.055239867 0.19575568 0.0495095 0.030992283

batch1.weight f4 [32]
00000000: c000 803f 8198 693f 53ab 803f ce9b 7b3f
00000010: 83e4 723f fed6 833f f75d 813f a17d 7e3f
00000020: ce7b 723f 3a84 803f 69c2 693f 556b 843f
00000030: c121 873f 2239 9a3f bc43 6a3f 5510 743f
00000040: e44e 893f cb42 6b3f 3574 7e3f b864 6b3f
00000050: 4a15 683f 940b 773f a1a8 843f e60f 843f
00000060: b7a2 7c3f cbc6 5a3f 61bc 803f d53b 7a3f
00000070: 47d3 5e3f 02ac 5a3f fc17 8b3f 647b 693f
1.0000229 0.9124833 1.0052284 0.98284614 0.9487993 1.0299985 1.0106801 0.99410444
0.9472016 1.0040352 0.9131227 1.0345255 1.0557176 1.2048686 0.91509604 0.9533742
1.07272 0.91898793 0.9939607 0.9195056 0.90657485 0.9650204 1.0363961 1.0317352
0.98685783 0.85459584 1.0057489 0.97747546 0.87041134 0.85418713 1.0866694 0.91203904

batch1.bias f4 [32]
00000000: 92e2 c8be 23b7 98be 49fa e1be 1fbc d6be
00000010: 801b c7be e46d c3be 8626 abbe 0106 01bf
00000020: 4e57 a1be 891c d9be e08e 9fbe a320 afbe
00000030: c773 a7be fcd4 5bbe 200e 5abe 329e a9be
00000040: df5c 73be 08bb 90be a4c5 1dbf 207a 09be
00000050: 52d2 99be 5615 9abe 92f5 f5be ac01 c5be
00000060: 5a6c edbe 6730 95be 06df 5bbe d74d 96be
00000070: e3a0 afbd f1c0 b9be 16b2 77be c5ea 9ebe
-0.3923536 -0.29827222 -0.44136265 -0.419404 -0.38888168 -0.38169777 -0.3342783 -0.50399786
-0.3151192 -0.42404583 -0.31163692 -0.34204587 -0.3270552 -0.21467966 -0.21294451 -0.33128506
-0.23765896 -0.28267694 -0.616297 -0.13425493 -0.30043274 -0.30094403 -0.48038918 -0.38477838
-0.46371728 -0.2913849 -0.21471795 -0.29356262 -0.085756086 -0.36280015 -0.24189028 -0.3103849

batch1.running_mean f4 [32]
00000000: b8b9 113f 2635 583f a3dc 0c3e c8e2 5cbf
00000010: c468 5bbe d9d6 7ebf af3a 8d3e 394e 1ebf
00000020: 13f6 c53e 3e07 49bf 90d2 20bd 5560 8abe
00000030: e9ee 933f a0d8 31be 8d71 003e 0a94 04bf
00000040: d5ca 87bf 4234 403f 3d5b 96be d241 b83f
00000050: d6a7 45be ddce 0b3d 0f39 91be 9655 52be
00000060: c7e1 1fbe c865 de3c 6e30 983e 1eea ca3d
00000070: 95a8 e3bd 81fb b9be 0dac 5fbe b4b7 273d
0.5692401 0.844561 0.13756041 -0.8628354 -0.21426684 -0.9954658 0.27583835 -0.6183811
0.38664302 -0.78526676 -0.039263308 -0.2702662 1.1557285 -0.17367792 0.12543316 -0.5178839
-1.0608774 0.7507974 -0.29366484 1.4395087 -0.19302306 0.034132827 -0.28363845 -0.20540461
-0.15613471 0.027148142 0.2972445 0.099079356 -0.11116139 -0.36324695 -0.21842976 0.040946677

batch1.running_var f4 [32]
00000000: 6234 b63f 0dd8 1440 b103 7d3f a147 353f
00000010: d8fa 9d3f ba41 2e40 004c b03f a80c e23f
00000020: 299e 2140 4852 f73f 47a4 e23e 2d36 3a3f
00000030: 6a5a 663f 70b6 993f 7f47 b03f 5d56 0d40
00000040: 5bab 4040 059f 3540 9eae 723f a217 aa3f
00000050: 3b3c 993f 165d 153f 8227 b83f af84 ad3f
00000060: cc72 7b3f 924e 2640 b9b6 0040 ecf6 8c3f
00000070: 76cd 1940 4a45 ac3f 5bf8 aa3f 4d2a cd3e
1.4234736 2.3256867 0.9883376 0.7081242 1.2342176 2.7227616 1.3773193 1.7660112
2.5252783 1.9321985 0.4426596 0.72738916 0.8998171 1.20088 1.3771819 2.2083962
3.0104587 2.8378308 0.94797695 1.3288462 1.1971506 0.5834516 1.4387057 1.3556117
0.9822204 2.5985456 2.0111525 1.1012855 2.4031653 1.3458645 1.3357042 0.40071335

conv2.weight f4 [64, 32, 5, 5]
00000000: 0c53 683e 813b 6c3d 0036 ccbc c6b9 03bd
00000010: ca73 4dbd 5c9c 303d ed83 21be 5071 9ebe
00000020: 81ec dcbd e1f9 203e 13c3 533e 1954 693e
00000030: 2fe3 053e fec9 05bd c43b 73bd 8bb9 8a3d
00000040: b5ba 503e 89ff 1b3e 1dbc aabd c45d 74be
00000050: 188b 063e b4ee ad3d b37b 923e b44c 5b3e
00000060: b636 a9bd 6cb4 c33e f29e 053f 7e7f cdbc
00000070: bc5b 1d3d 83f9 08be e1ed e93e b906 d13e
00000080: 5172 b2bd 3273 a939 6ccc 14bd 49c1 f33e
00000090: f771 473e b4db 25be df95 62be 4759 33be
000000a0: 5a7e ec3e 9f29 863e ff6e 06bd d209 75bc
000000b0: df1a cebc 9ee4 023e 523e 863d b798 09be
000000c0: a977 6e3d 45c9 753d e57d 423d 927b 45bc
000000d0: 06fa f0bd 7530 eabc 79dc 1fbe 20bf 67bb
000000e0: 5a86 d43c 1c7c 98be 62de d1be fc1e a4bd
000000f0: e88d 9a3d 0ee1 873d 0d08 9bbe 349d 42be
00000100: 1e01 9e3d 35c7 05bd 36c9 44bd 08f7 6ebc
00000110: 1df5 793d 12e8 2f3e 8701 f9be b7b6 efbd
00000120: 0fdf 05bd aae3 01be c63e 143d 6b01 b1be
00000130: ebd0 52be 0b97 c3be 62ed c7be d8b7 88be
00000140: 6aa7 bdbe 5659 0abd fe7c 1cbe 2258 84be
00000150: 76b3 57bd 486d 41be 9c06 d73d 34ce febd
00000160: 2f97 47be e2e4 cf3c 8297 1ebe 065e d13d
00000170: 7e18 99bd cfbf 8b3b d2dd 853e b4f0 f2bd
00000180: 2d50 f53d b287 cebd cc2f e9bc 4d56 683d
00000190: e08b 1a3e 16f0 253c aef6 c53d d8b1 3c3e
000001a0: bda6 0a3e f13a 14bd 924b 49bc 58fc a2bd
000001b0: b217 bc3d 2250 753d f28a 1cbe 67e2 c2bb
000001c0: 382f e1bd 92e9 1cbe b084 51be 0478 183d
000001d0: 9b67 0a3e 05a8 df3c 388f 54bd ef50 a8bd
000001e0: e585 813d f370 e83c 62f3 8f3c e9a4 e93d
000001f0: 1151 9f3d 32f5 95be faeb 65bd 1106 4fbe
00000200: d52e 7abe c45b 39be 7c1a 61be 8043 44bc
00000210: e10b ecbd 8c3b 36bd b433 8dbd cbe7 d53d
00000220: 6447 46bc cf58 0bbe 899e 223d 1304 973d
00000230: b2ed 203e 4a14 adbc 6a26 02be f020 99bc
00000240: 9d61 95bd 4596 3e3d 86b3 e0bc d312 56bc
00000250: 3050 7ebd f41b 17bd bf82 31bf 5647 e8be
00000260: b877 5dbe 1fe7 d6be 05f4 65be 9a9a bdbe
00000270: f133 d33c 1da0 343e 996d 86bd b16e a1bd
00000280: 157e f4bd 2e16 f73e 46cb a63e f490 043e
00000290: bbf1 8e3a 1f65 75be 8ef9 7a3e 3007 023e
000002a0: 0662 623d 0e11 063d 1b69 36be 6302 603e
000002b0: cfcc 703e 54b4 d53d a57b 183e ab50 a53e
000002c0: e9d1 2a3e 5fe4 13be c570 5fbe b992 5dbe
000002d0: ceb6 afbd 0bb0 143d 4d94 2a3d 0f1d 84bc
000002e0: 394d 31be 8560 9bbe cbb9 a0be 0d65 75be
000002f0: 4700 12bd f691 e5bc 8294 693e 494e 393d
00000300: 997b 07be d31b 883d c964 5e3e f9f2 153e
00000310: 5c31 b93d 3b51 0ebe d6c0 823c cf2b 833e
00000320: 9b59 9bbe f14b 65be fdb6 9a3b c160 763d
00000330: c8a4 fb3d c981 94be 6097 06be 182b c43a
00000340: 520b ed3d 1fee 5a3e 39f4 23be 8a52 1b3e
00000350: dca7 633e 7608 773e 124f 733e 8cc3 0ebe
00000360: 98fe 25bb 3f24 3a3d 1ecf 02be 1f05 8ebe
00000370: 35a2 32be 9b8f 50be beaa 77bd 3ef6 ecbc
00000380: 6fac c2bd d0ae b43d 05bd 2d3e 4bf7 d83b
00000390: 40d4 4a3d 7888 81bd cf1a 823e 9ecd 6f3e
000003a0: 367b 733e 3652 503d 93cf 10be 9c45 313c
000003b0: de52 e2bc 70f1 d0bd 7252 86be 66de 54be
000003c0: 9e85 0ebe 46fb 48be 101d 9dbc fe58 b63d
000003d0: 9f79 473e 0274 86be dce9 89be f7f4 963e
000003e0: 3ef8 d93e 7ce1 a13e d1fa 733e 15af 893d
000003f0: 6422 863e 15bd 523e 31f7 313d 900b d6bd
0.2268793 0.057673935 -0.024928093 -0.03215959 -0.050159253 0.043117866 -0.15772982 -0.30945826
-0.10787297 0.15720321 0.20679884 0.22785987 0.13074945 -0.032663338 -0.05938317 0.06773671
0.20383723 0.15234198 -0.08336661 -0.23863894 0.13138998 0.08492795 0.2861 0.21415979
-0.082623884 0.38223588 0.52195656 -0.025085207 0.038417563 -0.13376431 0.456893 0.4082544
-0.087132104 0.0003232002 -0.036327764 0.47608402 0.19477068 -0.16197091 -0.22127484 -0.17514525
0.4619015 0.2620363 -0.032820698 -0.014955955 -0.025159298 0.12782523 0.065548554 -0.13437162
0.058219586 0.0600064 0.047483344 -0.012053387 -0.11766438 -0.02858756 -0.15611447 -0.0035361722
0.02594297 -0.29782188 -0.40989977 -0.08013722 0.07546598 0.06634723 -0.3027958 -0.1900528
0.07715057 -0.03266068 -0.048043452 -0.014585264 0.061024774 0.17178372 -0.48633978 -0.11704772
-0.03268343 -0.12684503 0.036192678 -0.34571394 -0.20587508 -0.38201174 -0.39048296 -0.26702762
-0.3704179 -0.033776604 -0.15282056 -0.2584849 -0.05266138 -0.18889344 0.104993075 -0.12441674
-0.19491266 0.025377695 -0.15487483 0.10223012 -0.07475375 0.0042648087 0.26145798 -0.11862317
0.11978183 -0.100844756 -0.028465174 0.056722928 0.1509242 0.010128042 0.09666191 0.18427217
0.13540168 -0.036189023 -0.012286084 -0.07958287 0.09184207 0.059890874 -0.15287378 -0.0059473994
-0.109953344 -0.15323475 -0.20460773 0.03722383 0.13516085 0.027301798 -0.051894397 -0.08218562
0.063243665 0.02837417 0.017572109 0.11408407 0.07779134 -0.29288632 -0.056133248 -0.20217158
-0.24431928 -0.18101412 -0.21982759 -0.011978984 -0.11525703 -0.044490382 -0.06894627 0.104446016
-0.012101982 -0.13608097 0.039701972 0.07373824 0.15715674 -0.021127839 -0.12709966 -0.018692464
-0.07294009 0.046530027 -0.027429353 -0.0130660115 -0.06208819 -0.036891893 -0.6934013 -0.45366925
-0.216277 -0.41973206 -0.22456367 -0.37032014 0.025781604 0.17639203 -0.06563873 -0.07882441
-0.11938111 0.4825911 0.3257696 0.1294592 0.0010905782 -0.23964356 0.2450926 0.12698054
0.055269264 0.03273111 -0.17813532 0.2187591 0.23515628 0.104347855 0.14890917 0.32288107
0.16681637 -0.14442585 -0.21820362 -0.21638002 -0.08579789 0.0363007 0.041645337 -0.016127137
-0.17314614 -0.30347076 -0.3139175 -0.23964329 -0.035644796 -0.028023701 0.22810557 0.045240674
-0.13230743 0.06645932 0.21718134 0.14643468 0.09042618 -0.13898174 0.015961092 0.2561936
-0.303418 -0.2239225 0.004721521 0.060150865 0.12287289 -0.29005268 -0.13143682 0.0014966456
0.11574425 0.21379898 -0.16011132 0.15168205 0.22232002 0.24124321 0.23760632 -0.13941783
-0.0025328752 0.045444723 -0.12774321 -0.27738282 -0.1744469 -0.20367281 -0.060465567 -0.028926011
-0.09505545 0.08822405 0.16966636 0.0066212765 0.049518824 -0.063248575 0.25411078 0.2341828
0.2377747 0.050859652 -0.14141683 0.010819819 -0.027627405 -0.102023005 -0.26234776 -0.20787963
-0.13918158 -0.19627103 -0.019178897 0.08903693 0.19479989 -0.26260382 -0.26936233 0.29483768
0.42572206 0.31617343 0.23826148 0.06722847 0.26198113 0.20579942 0.04344863 -0.10451424

conv2.bias f4 [64]
00000000: 53e7 7e3e c79e dbbe 865b 8e3e bf98 403e
00000010: 2248 853e 91da 43bd e125 0cbf be36 503d
00000020: ec4b 283e d0be 9fbe a578 713b 19dd 6ebe
00000030: a7de 2c3e d07a 913e 842f 0c3f 5fb0 61be
00000040: ddaa a0bd 11e9 06bd bcbc 6abc 0f11 c13d
00000050: ea0e 23be 7706 d33d 99e4 0c3e daee 1fbe
00000060: 263b 443e b35d a23e eec0 e1bd a907 97be
00000070: 0ba0 0e3e eca2 57be ec95 0b3e 4e43 2c3d
00000080: 7c1e 16be 37a9 443d 802f 12bd ba9e 8e3e
00000090: 160d dcbe 533c b63d e5a3 d9be babe 16be
000000a0: 532a bfbe 89da 433e 6876 333e cbd0 5a3e
000000b0: bd2c 5c3d dfd4 693e b2c5 263e 547c 25be
000000c0: ffa8 7a3e 1305 aa3d 6abc 9a3e 0758 a73c
000000d0: 349d 063e dc12 3bbd bd86 cd3d 3e4d 0ebf
000000e0: e243 143f 24cd 493e 49f8 0bbe 58f4 c83d
000000f0: 1b66 743d f237 273e f0f2 0abf 7ffa a63d
0.2489293 -0.42894575 0.27804202 0.18808268 0.26031595 -0.047815863 -0.547453 0.050833456
0.16435212 -0.31200266 0.0036845591 -0.2332653 0.1688181 0.2841401 0.54760003 -0.22039936
-0.078450896 -0.032937113 -0.014327224 0.09427082 -0.15923658 0.103039674 0.13759078 -0.15618458
0.19163188 0.31712112 -0.110231265 -0.29498032 0.13928239 -0.21058244 0.1363141 0.042056374
-0.14660066 0.04801294 -0.03568983 0.27855474 -0.42978734 0.08898225 -0.42507854 -0.14721194
-0.37336978 0.19126333 0.17525637 0.2136871 0.053753603 0.2283511 0.16286352 -0.16160709
0.2447853 0.08301749 0.30221874 0.020427717 0.13145906 -0.045672283 0.10035465 -0.5558661
0.5791608 0.19707161 -0.13668932 0.0981223 0.059667688 0.16329935 -0.54276943 0.08153247

conv22.weight f4 [32, 64, 5, 5]
00000000: dea8 d8be 0e4a a2be e047 60be 129f abbe
00000010: a1ed c43e b0e0 9dbe df2f 7ebe 8615 d2bd
00000020: 399e 1e3c 7e03 ce3e 3222 ea3c 4b83 f83d
00000030: dd5e 493e dae5 043e 595b bb3e cdd2 143e
00000040: a6f9 023f 81c4 863e c4df f1bd 7995 a43c
00000050: bc8b 953e 8469 de3e 7604 333e 09c2 1fbe
00000060: 5b7b c03d b2ab a83d 552e 6a3d cdc6 843c
00000070: e174 9f3d 55cb e93d b213 343b 3104 fe3c
00000080: 079f 4ebd 135e 55bc e28d 82bd 90dd ab3d
00000090: 84db 8e3d c783 a63c 3221 dd3d a96f e93d
000000a0: 002b 463d 75da 833d a231 503d 31dd 203d
000000b0: 4684 16bd 09c2 6dbe 5d16 27bd 37fe 9a3d
000000c0: 2fa1 f03c 2d69 db3c aef4 8a3e da5c 783e
000000d0: 006e 623e 6013 2d3e 4e68 e43d 9991 ba3d
000000e0: bf76 613e a733 123e 3e0b 0a3c 939c 5a3d
000000f0: d169 50be 90f1 4bbe 8a99 8dbe 17bd afbe
00000100: 4e26 c9bd f7ab acbe a06d 3bbe 6df4 19be
00000110: a37d 903c eac8 103e 4e0d 24be 80c9 ea3b
00000120: d730 40bc ccfa fc3d 5e52 583e b07f 493e
00000130: 6073 433e a93f ff3d 38c3 13bc 8bf4 d4bc
00000140: b0ca a5bd 1040 a8be 3a16 a3be 69d3 39be
00000150: acbb 6abd 4f05 6bbe 615e 72be 3c76 6fbd
00000160: aa37 443d be77 b13d e174 563c b4ae 63bd
00000170: 4f82 2e3d 5f7b cb3d 17d4 bb3d 2309 e4bd
00000180: 72b2 47be ab38 7dbd ee62 b23d da3e 8d3c
00000190: a065 1bbe 63a5 a83d cdcf 27be ec29 4fbe
000001a0: ee8b 23bd 7fef 8bbd 20b4 913e f0cf 7a3e
000001b0: ca28 913e 265d 9d3e 396e f33d 5298 9f3e
000001c0: bef0 0a3e 700f 6e3d 7323 89be 0711 923d
000001d0: 12cb c9bd 9e29 cebe ec38 b5be eccf 1dbf
000001e0: 5af3 27be deec 93be 69e6 0bbf 271d b4be
000001f0: 4a93 debe 84ba efbe 476e b7be 627e 88be
00000200: 0f74 3bbe fb94 9dbb 2e49 38be 0891 34be
00000210: 5cde 8cbe 552b 05be 252c a93c 7ce4 4d3d
00000220: 0b0f 42bd 2a47 28bb a159 833d 2e64 633e
00000230: 7108 913e c569 3a3e defa a63d 5b5d 83bc
00000240: 7572 de3d 33d5 ac3e 0fbe 1b3e ef9a debd
00000250: 0653 47be f94c 25bd 5f88 50be e64f 7dbc
00000260: 1921 10be 4aed 863d 051b 19be be46 29be
00000270: a88e 693d 8376 3d3d a8b6 b23e a5a7 d33d
00000280: 8647 3e3e 60af 563e 2592 c73d f5f0 873e
00000290: adfa 703d 700c 893e fb95 16bd 05f6 6dbe
000002a0: d03f 74bd ede6 7bbe 9fcd ab3e 54f8 183d
000002b0: af01 98bd df8c 6bbd d20e 98be 177f 2dbe
000002c0: 8221 fe3c 74e6 d33b 591b 633d af8e e63d
000002d0: a771 87bd 7602 0c3d 19c4 73bd 0157 9abd
000002e0: 575f 47be 75f6 48bd 88b8 c4bd dc34 5cbe
000002f0: 21ae 30be d764 85be 1bc2 c0bd 227d 58be
00000300: a4c3 8abe 43d0 3fbe cba4 30be f344 44be
00000310: fb74 7dbe b1ed a0be 501a 41be a25b d3bd
00000320: c4fc a5bc c05e 743b 90bb 753e c1ef f53e
00000330: f902 573e 0747 913c f877 84bc f966 4bbd
00000340: 5316 e6bd 9909 d5bd 3c8f 383d 51ab 63bd
00000350: 0d49 63bd dd9e b93d 30f8 2abd 5372 f83d
00000360: 253b 41be 8202 98be 3955 d1bd 1991 8cbe
00000370: 05a4 d4bd a7e5 e5bd 693b 4bbd bf3a 943e
00000380: 8937 683c 25d3 dcbd 10cc b5bc 4a1e 00be
00000390: 24dc a2bd ae82 23be 7a86 143e 1985 253e
000003a0: 7711 603d 5a56 0c3e 1a6f 0a3d dcd1 5d3e
000003b0: c1a0 183e 60f3 8c3d 9b65 4e3e 7416 3b3e
000003c0: ff66 773e 1a56 033d 0c6b 68bd bb67 543d
000003d0: 95c3 b13c 4169 353e 2348 853c 04db b9bd
000003e0: e794 973d 0f84 953c 0e85 6abe 1ef9 053c
000003f0: 76e5 7a3e 8abf 2ebd 8251 8c3e dd79 c5bc
-0.42316335 -0.31697124 -0.21902418 -0.335198 0.38462546 -0.30835485 -0.24822949 -0.102580115
0.009681278 0.4023704 0.028580759 0.12134417 0.19665094 0.12978306 0.3659313 0.14533539
0.51162183 0.26321796 -0.11810258 0.020090805 0.2920817 0.43439877 0.1748217 -0.15601362
0.09398528 0.08235873 0.057173092 0.016208077 0.07785965 0.11415736 0.002747756 0.031007858
-0.05044463 -0.013022917 -0.06374718 0.08391869 0.06975463 0.020326508 0.10797347 0.113982506
0.04838085 0.06438152 0.050828584 0.039273445 -0.03674724 -0.2321855 -0.04079281 0.07568019
0.029373733 0.02678355 0.271398 0.2425417 0.22112274 0.16901922 0.11152707 0.09109802
0.22017954 0.14277516 0.008425532 0.053371977 -0.20352866 -0.19916368 -0.27656204 -0.34323952
-0.09821759 -0.3372495 -0.18303537 -0.15034647 0.017638033 0.14139143 -0.160207 0.007165134
-0.011730394 0.12352523 0.2112517 0.19677615 0.19086981 0.12463314 -0.009018712 -0.025995513
-0.080953 -0.32861376 -0.31852895 -0.18147053 -0.057307884 -0.22951244 -0.23668815 -0.058462366
0.047904648 0.08665417 0.01308939 -0.05558653 0.04260474 0.099356405 0.09171312 -0.11134555
-0.19501665 -0.06182162 0.087102756 0.017241884 -0.15175486 0.0823467 -0.16387863 -0.20230836
-0.03992837 -0.0683279 0.28457737 0.24493384 0.28351432 0.3073513 0.11886258 0.311709
0.13568398 0.05812019 -0.26784858 0.07132154 -0.09853186 -0.40266126 -0.3539499 -0.6164539
-0.16401425 -0.28891653 -0.54648453 -0.3517849 -0.43471748 -0.46821988 -0.35826322 -0.26658922
-0.18305992 -0.0048090196 -0.17996666 -0.1763345 -0.27513397 -0.13004811 0.020650933 0.050266728
-0.047377627 -0.0025677183 0.0641358 0.22206184 0.28326753 0.1820441 0.08153318 -0.016035726
0.10861675 0.33756408 0.1520922 -0.10869395 -0.19465265 -0.04035661 -0.20364521 -0.015460944
-0.14075126 0.06588228 -0.14951713 -0.16530892 0.057020813 0.0462556 0.3490498 0.1033471
0.18581972 0.20965338 0.09744672 0.26551023 0.058832813 0.26767302 -0.036764126 -0.2323838
-0.05963117 -0.2459981 0.33555314 0.0373462 -0.07422196 -0.057507392 -0.29698807 -0.16943012
0.031021837 0.006466681 0.055446003 0.112576835 -0.06613474 0.034182034 -0.059513185 -0.07536126
-0.19469963 -0.049063165 -0.09605509 -0.21504539 -0.17253925 -0.26053497 -0.09412023 -0.21141484
-0.27102387 -0.1873179 -0.17250364 -0.19166927 -0.24751656 -0.31431344 -0.18857694 -0.10320212
-0.02026213 0.003728792 0.2399733 0.4803448 0.20997228 0.017734064 -0.016170487 -0.04965875
-0.11234727 -0.10402221 0.045058474 -0.055583302 -0.05548959 0.09063504 -0.041740596 0.121311806
-0.18870218 -0.29689413 -0.10221333 -0.2745445 -0.10382847 -0.11225443 -0.049617205 0.2895107
0.014173397 -0.1078246 -0.022192031 -0.12511554 -0.07952145 -0.15967819 0.14504424 0.16164054
0.054704156 0.13704816 0.03379736 0.21662086 0.14905073 0.068823576 0.20155947 0.18270284
0.24160384 0.032064535 -0.056742713 0.051856738 0.021699706 0.17715932 0.016269749 -0.09074977
0.07401448 0.018251447 -0.22902319 0.00817707 0.24501595 -0.042663135 0.27405936 -0.02410596

conv22.bias f4 [32]
00000000: fcde 313c e1c3 883c 18e0 a0bc aa56 fc3b
00000010: 53db 7bbc e5fc 6a3c cdab 11bc 1cdc 963c
00000020: 88dc ac3c 3ad6 6bbc 616d 8fbb 7f9c 993b
00000030: a013 ddbb 80ef 7d3c 7f92 053c 49c8 96bb
00000040: 081a b6ba 67bb 843c c365 5fba 3857 2ebc
00000050: 14b4 c1ba b31a 293c 868c d4bc 8fd0 b83c
00000060: c24c 653c aa52 75bc 08ca 73bc 6b31 953c
00000070: d3d6 e0bb f0fb 61bb 7d6f 4d3c daf3 0e3c
0.010856386 0.016694965 -0.019638106 0.007700761 -0.015372115 0.014342521 -0.008891058 0.018415503
0.021101251 -0.014394337 -0.0043770527 0.0046878452 -0.0067467242 0.015498996 0.008152603 -0.0046015126
-0.0013893256 0.016202642 -0.00085219386 -0.010640912 -0.0014778399 0.010321307 -0.025945913 0.022560386
0.013995351 -0.014973322 -0.014879711 0.01821204 -0.0068615465 -0.0034482442 0.012538788 0.008725131

batch2.weight f4 [32]
00000000: 2f45 7e3f 9629 473f 77cf 603f d18b 6c3f
00000010: 3caf 3a3f 1020 863f 5f5e 613f fc38 583f
00000020: 500a 783f 7585 4e3f 5efa 833f 9f51 5c3f
00000030: ccf3 5d3f 0b3f 523f e7b1 733f 0213 253f
00000040: a6cd 813f 6d91 623f cfc0 503f 5ec7 553f
00000050: 9e21 8d3f f018 223f a4ba 4d3f f2d7 873f
00000060: c6f8 5e3f 6644 6c3f b56b 813f 22ea 753f
00000070: dacf 4f3f f36e 493f 1023 233f 3bfe 7e3f
0.99324316 0.7779783 0.87816566 0.9240084 0.72923636 1.0478535 0.88034624 0.8446195
0.96890736 0.8067239 1.0310781 0.86062044 0.8670013 0.82127446 0.9519333 0.6448213
1.0140884 0.8850315 0.815442 0.83507335 1.1025884 0.633193 0.80362916 1.0612776
0.8709835 0.9229187 1.0110995 0.96060383 0.8117653 0.7868492 0.63725376 0.99606675

batch2.bias f4 [32]
00000000: 192d 21bf e0fb e5be e502 14bf ef8e fabe
00000010: 0c5f 09bf e06b 42bf c813 e3be ad5e ecbe
00000020: a8eb 1ebf 55a2 14bf 9500 3abf 48a8 07bf
00000030: 0e61 2dbf f680 10bf 557d 0bbf a313 cdbe
00000040: 8ec3 27bf 74fa 31bf fa8a 07bf 1813 0cbf
00000050: 1314 3dbf 52e4 8fbe 7f77 2cbf 744d 41bf
00000060: 10d5 13bf c545 1abf db32 2abf 35e2 21bf
00000070: d132 24bf f6b6 2fbf a98e 59be cc56 26bf
-0.6295944 -0.44918728 -0.57816917 -0.48937175 -0.53660655 -0.75945854 -0.4435103 -0.46165982
-0.6207833 -0.580602 -0.7265714 -0.5299115 -0.6772622 -0.5644678 -0.54488117 -0.40054044
-0.6553277 -0.69522786 -0.52946436 -0.54716635 -0.73858756 -0.28103882 -0.67369837 -0.7550881
-0.5774698 -0.6026271 -0.6648385 -0.6323579 -0.6414004 -0.6863855 -0.21245827 -0.6497619

batch2.running_mean f4 [32]
00000000: 53c9 5cc3 0c8d aec2 a929 f2c2 56a4 2ac3
00000010: b7e1 a9c2 eb9a 40c3 9662 02c3 9162 52c3
00000020: 0430 56c3 511d 4dc3 f9a0 53c3 2422 48c3
00000030: e850 4ac3 658d d9c2 8dca 46c3 2577 4342
00000040: 10d2 55c3 467e 27c3 1a88 75c3 9d4a 23c3
00000050: 8d1b 87c3 3158 cfc2 f65d e4c2 40e9 70c3
00000060: 1309 63c3 4508 66c3 e215 74c3 c54c 4ac3
00000070: 5986 a7c2 b39d 2bc3 5449 51c2 e597 57c3
-220.78642 -87.27548 -121.08137 -170.64194 -84.94085 -192.60515 -130.3851 -210.38503
-214.18756 -205.11452 -211.6288 -200.13336 -202.31604 -108.77616 -198.79121 48.866352
-213.82056 -167.49326 -245.53165 -163.29146 -270.21524 -103.67225 -114.18352 -240.91113
-227.03545 -230.0323 -244.08548 -202.29988 -83.7624 -171.61601 -52.32161 -215.59334

batch2.running_var f4 [32]
00000000: f28d 9347 6cce d646 99d1 3547 f448 8547
00000010: 7f36 2d47 efec 5647 ba0a 7147 981e 4147
00000020: a2cb 6347 6b8a 3647 baf0 6847 433c 4447
00000030: c07b 2647 5dda 1247 a681 6a47 34ae fa46
00000040: f79e 8647 65f3 1547 1376 4947 2f4e 1447
00000050: 3e61 9747 8466 2147 7045 ef46 ba1a 5a47
00000060: 042f 3b47 e11f 8247 39a9 8e47 f3cb 5247
00000070: 2add 0947 d244 fc46 5dfe 3a47 b997 8047
75547.89 27495.21 46545.598 68241.91 44342.496 55020.934 61706.727 49438.594
58315.633 46730.418 59632.727 50236.26 42619.75 37594.363 60033.65 32087.102
68925.93 38387.395 51574.074 37966.184 77506.484 41318.516 30626.719 55834.727
47919.016 66623.76 73042.445 53963.95 35293.164 32290.41 47870.363 65839.445

conv3.weight f4 [16, 32, 5, 5]
00000000: 763a a1bd 4776 36bd fc7f 743e 6fc2 a83e
00000010: 3104 ee3d 27cd 64bd c3c5 793e abbb be3e
00000020: 1639 6a3e 05e5 d53c 1a82 1ebe 6c69 c63d
00000030: 69f0 793e faf2 913e 5cd4 8c3e 5078 81bd
00000040: 16ba 1a3e 4d85 653e 28f1 c33e 658e c43d
00000050: 2af9 5e3e 1e4b a93e 69b6 b83e af5b 253e
00000060: c067 dabd 5eec 903e 855a 9f3c 98e8 87bc
00000070: ff4e cb3d 7ce3 adbd f5e6 323e 88bc 0f3c
00000080: 5258 623c 693b 903e 8253 79be 41ac 573e
00000090: 57c9 e8bd bb00 53be 23ff 973d 3447 55be
000000a0: 2c9a f43d 9652 f33d d687 403c 19df fdbc
000000b0: 4674 f7be e49b 57bc 48aa 283d dbda 253d
000000c0: 104d 483d 198f a4be c4d1 743c 5206 6a3d
000000d0: d570 933d eea9 be3d c542 67be 2f75 88bd
000000e0: 5652 c6be fc9b e9bd 5fd5 c93d 0eb8 3fbe
000000f0: 3312 863d e84d 15be a3ca 9e3d fc58 333e
00000100: 6bb5 aa3d baef e73c 39bb 96bd 7cc6 643a
00000110: 48e1 f2bc 8d9b 8f3d 6af0 4f3e 3671 443e
00000120: 8d83 383e 4856 833c 77f5 94bc 7c9d 32be
00000130: 902e 07bd 47e2 c8bd 400f 423c ef12 db3d
00000140: 028c ca3d 5a8e f8bc 3dff afbd ecfa 27bd
00000150: 46fe 823e 8243 553e 2a65 753e fec6 223e
00000160: cb60 76be 7145 cdbd 802a 9a3e c03b 983e
00000170: 5e2c d63e d3da bc3e e148 e93d 1e97 05be
00000180: 1f1d 513d f0a3 9b3e 9b1b d93e 6298 893e
00000190: 0ec4 c7bd 992a 82bd 6246 b7bc 31da 373b
000001a0: 631c ed3d 5033 4f3e 5057 21be cf08 11be
000001b0: efa3 3ebe 60f3 19bd 4274 8a3d a744 11be
000001c0: 7284 1f3e 3eb9 ee3d e4d2 423d d6e9 91bd
000001d0: 5732 90be 4299 14bc d906 0dbe 199c 38be
000001e0: fff5 45be 6600 9abe b1de 8a3c a0be 3fbe
000001f0: 98f7 cfbe 146b 0cbe 4ce3 e93d 67f4 213e
00000200: 8f63 8abd efa4 49be 148e 1e3e 6c70 903e
00000210: 6aed f03d 2178 32be 3a9d e4bc 03b2 45be
00000220: ab69 82bd 286e 443d a56d cb3a 70ab f83d
00000230: d467 b6be 879f 51be ac22 ebbc 1c08 dbbd
00000240: 68b4 38be 2680 a23d 1b8d 8ebd 3c85 e53c
00000250: 39a5 0c3d 197c 8abd 4b39 42be 7ddb bebe
00000260: c813 a83c df72 0f3d 7769 603e c198 b1bd
00000270: ac83 2e3d f0d9 d53e bef5 cf3e e094 933e
00000280: 956a 683c 03c6 843e 2def ef3e 3873 c93e
00000290: bcf9 7f3e 56b1 26bd df8e 213e e817 d63d
000002a0: cb9e 403d 6793 86bd e17a c23c 244e 093e
000002b0: 380a d83b c0c2 56be f9f5 b8be 052c 1dbe
000002c0: 828f 1f3e 28b5 0d3e 58bb 9ebe 94a8 09bf
000002d0: 063a 04bc 5a6e 623e a2c2 5f3e 8406 be3b
000002e0: b103 d4be d578 c7bd 77b7 88bd da9b 1fbe
000002f0: 5705 4d3d a266 12bd 47a0 1e3c a9a7 fc3c
00000300: ab49 bb3c 6609 a43d 42b4 0e3e 0139 37bc
00000310: 334d a93d 0e09 8b3e 881a 503e 6164 903e
00000320: 7c25 e63d d22a e8bd ab85 8d3d bbd1 d0bd
00000330: f140 adbe 724f 6d3e 3b4f 953d fe57 1c3c
00000340: ac2c acbe 9b80 bbbe 10ba f93d 3af7 d43d
00000350: 6b73 e0bd 315e a7be 3f1f 97be 9650 f2bc
00000360: 2902 20be 9dca 76be bfde 66be 93d5 90be
00000370: facf 24be 525e 8bbe bcb1 b2be 4a9f 7cbe
00000380: b638 40be 816b f2bd 0b78 e23d 2135 013e
00000390: e873 883d b045 523c 5f92 92bd 13f4 f4bd
000003a0: daa0 e0bd e2c4 0abe ad8a 80be b1cb 10be
000003b0: f7ce 66be 310d 41be 4c56 e13c 1e53 b2be
000003c0: 599b 973d b1c4 dfbd 0b03 18be 2f4d 2d3e
000003d0: f1aa 04be 29bc 383e c968 04bb e650 cdbd
000003e0: f0b1 69bd 88c7 5bbe a9a5 eebd 08a2 f93d
000003f0: d2a5 b63e 7c6f 9c3e 203c c4be 5f69 4cbd
-0.07872479 -0.04454639 0.23876947 0.3296084 0.11621893 -0.05585971 0.24391846 0.37252554
0.22873339 0.026110182 -0.15479317 0.096880764 0.24408115 0.2850569 0.27505767 -0.06321776
0.15110049 0.22414131 0.38269925 0.09597472 0.21774736 0.33065122 0.36076668 0.16148256
-0.1066432 0.28305334 0.019452343 -0.016590402 0.09927177 -0.08490655 0.17470916 0.008772977
0.0138150025 0.28170326 -0.24348262 0.21061803 -0.113665275 -0.20605747 0.0742171 -0.20827943
0.119434685 0.118809864 0.011751136 -0.03099017 -0.48330897 -0.013159726 0.041178018 0.04049192
0.048901618 -0.32140425 0.01494259 0.057134934 0.071992554 0.09309755 -0.22584064 -0.06662976
-0.38734692 -0.11406705 0.098551504 -0.18722555 0.0654644 -0.145805 0.07753494 0.17514414
0.08335384 0.028312553 -0.07359929 0.0008727086 -0.029648438 0.07012091 0.20306554 0.19183812
0.18018933 0.016032353 -0.018183453 -0.17442888 -0.03300339 -0.09808784 0.011844456 0.10696971
0.098899856 -0.030341316 -0.08593605 -0.041010782 0.2558462 0.20826533 0.23964372 0.15896222
-0.24060361 -0.100230105 0.3011055 0.29733086 0.41830724 0.368857 0.11390854 -0.13045928
0.051053163 0.30398512 0.42403874 0.2687407 -0.09754191 -0.06355781 -0.022372428 0.0028053636
0.1157768 0.20234418 -0.15755963 -0.14163516 -0.18617223 -0.037585616 0.06760456 -0.14186345
0.15577868 0.11656426 0.047564402 -0.07124679 -0.28163406 -0.009069743 -0.13772143 -0.18028297
-0.19332121 -0.3007843 0.01695189 -0.18725061 -0.40618587 -0.13712722 0.114203066 0.15815888
-0.067572705 -0.19691823 0.15483886 0.2821077 0.11764033 -0.17428638 -0.027907003 -0.19306187
-0.06367811 0.047956616 0.0015520348 0.12142074 -0.3562609 -0.20471011 -0.028703056 -0.10694906
-0.1803757 0.079345986 -0.069605075 0.028017633 0.034337256 -0.06761951 -0.18967168 -0.3727683
0.020517245 0.03502166 0.21915232 -0.086717136 0.04260604 0.41767836 0.40617174 0.2882452
0.014185567 0.2593232 0.46862164 0.39345717 0.2499761 -0.040696464 0.15777157 0.104537785
0.047026437 -0.065710835 0.023740234 0.13408715 0.006593015 -0.20972729 -0.36125162 -0.15348823
0.15582088 0.13838637 -0.31002307 -0.53772855 -0.0080704745 0.22112408 0.2185159 0.0057991166
-0.41409066 -0.09739844 -0.06675618 -0.15586796 0.05005392 -0.03574241 0.009681768 0.030841665
0.022862276 0.08009605 0.1393595 -0.011183024 0.08266678 0.27155346 0.20322621 0.28201583
0.11237618 -0.11336292 0.06910261 -0.10196253 -0.3383861 0.23174837 0.07290503 0.009542463
-0.33627832 -0.36621556 0.12193692 0.10398717 -0.10959514 -0.3268905 -0.29516026 -0.029579442
-0.15625824 -0.24100728 -0.22545908 -0.28287944 -0.16094962 -0.27220398 -0.34901226 -0.24670139
-0.18771634 -0.11836911 0.11058053 0.12617923 0.06662732 0.012833998 -0.07156824 -0.11960616
-0.1096818 -0.13551667 -0.251058 -0.14140202 -0.22539888 -0.18852688 0.02750697 -0.34829038
0.07402677 -0.10926188 -0.14844911 0.16923974 -0.12955834 0.18040527 -0.0020204058 -0.10025196
-0.05705446 -0.21462834 -0.11652691 0.12189108 0.35673386 0.30553806 -0.38327122 -0.049905177

conv3.bias f4 [16]
00000000: d718 89be 9f3a 3f3f f951 f8be 1218 5fbe
00000010: d9d4 efbe 7b6c 88be f98a f63d f256 d23e
00000020: 6678 e63d c1bd f4bd 577c f6bc ff4c 9cbe
00000030: 7459 bd3c 1669 3f3d d2ab 11be 1ac3 ef3e
-0.26776764 0.74698824 -0.4850004 -0.21786526 -0.46842077 -0.26645264 0.12038226 0.4108196
0.11253433 -0.11950255 -0.030088587 -0.30527493 0.023113944 0.046731077 -0.142257 0.46828538

conv33.weight f4 [8, 16, 5, 5]
00000000: e25f 98be 5a28 fbbd a3a6 a73e ab37 913d
00000010: 9c3a 943d d8e2 57bd 5652 28be e569 a13e
00000020: 8f0a d03e bb33 7a3e d4ea ab3d 8871 52bd
00000030: a172 4cbd e8d5 b13d d854 3a3c 5e03 473e
00000040: 481c fc3d 777b e93c 7d36 97bc 1879 08be
00000050: d187 603e 8d43 a83d 437c 50be 7951 8dbe
00000060: dcae 0dbe 9263 4dbe 07ea 5dbe ec6e debc
00000070: b571 a3bd d985 303e c7bc 623e bc3a 9f3d
00000080: 8e7b d43d ac17 103d 609f b13d 291a 2f3e
00000090: 7b22 953d 688c 533e bede 513e ff04 88bd
000000a0: 5686 4d3e f1a2 1a3d bbbb 12be 7386 ab3e
000000b0: e7de 483e ae43 66be 3770 333e 2ab7 8cbd
000000c0: 95ff 733d 1376 8f3a 8109 983d 759e e0bd
000000d0: fbab aa3d 95d2 683e 270e be3c 94f6 d5bb
000000e0: a7b9 58be dfad 95bc 4d59 84bd 8f4a 59bd
000000f0: ba5b bbbd 06da 8cbe 3821 0a3e 4803 bfbd
00000100: 2748 9f3c d5e0 6e3d 2804 4a3b fd82 fe3e
00000110: 78e1 993e 24b8 623d 4b6a 3f3e 160f 883d
00000120: 1d40 273e 6f08 11be c3ea 0cbe f09b 16bf
00000130: e501 863d 1058 883e 94e8 e5bd 10b9 06bd
00000140: b6ce d53d 4083 a73e dd5e 0b3d 178f 30be
00000150: 4153 853d 0f10 8cbb d1f1 e03c 1454 133e
00000160: c707 803e efd4 6c3e 017d fcbe 475f 04bf
00000170: d416 b1bd 2cf7 4c3e 4986 4c3e 80b2 c9be
00000180: 2234 cbbe 805d f4bd e80d 0d3e 0554 843e
00000190: c24b 32be b169 b13e 1b45 0ebd a5ba 97be
000001a0: 0ba3 a63c 70fd e4be aebe 13bd acc5 a8be
000001b0: dbaa 2bbe b112 85bd 7e1b 58be 7e71 78be
000001c0: 74af dcbe 862b 453d 9a49 e8bd 4c10 823e
000001d0: 96b7 4e3d 68e4 cbbe fb76 343d 3d7b 213e
000001e0: f500 823e af51 923d 90dd 39be 7319 9ebd
000001f0: be73 343b 4117 953e 635d 823e 8d79 743c
00000200: c3c1 b4bd 7e8d 48be 53f5 76bd e8e4 f63d
00000210: 6be5 dd3d fd22 563c 7497 133d cef5 11bf
00000220: 62e0 9bbe f5de 96bd 2788 03bd 244d 6fbe
00000230: 4231 09be e5af 69be 3908 ecbd 9412 ab3e
00000240: 5d81 973c 9264 1bbd bc42 37be 728e c6be
00000250: 5705 d33e 2250 843e f579 18be 583d b5bd
00000260: 1b39 423e ac4a b83e 6915 24be 5435 823d
00000270: 7348 e4bd cb01 093e 6a18 163e 6b99 31be
00000280: f665 093f 74b9 233d 00e9 733e 96ad 293e
00000290: 3864 d93d 7452 183e e54c b2bb cf98 613e
000002a0: aca0 5e3e dbeb ab3d 94e8 89be d1d0 67bd
000002b0: bad6 b83d 29bd 5a3e d641 4a3d 25aa 2cbd
000002c0: f5b2 d6bd 78d2 06be 5d6f 60bd d00a 8e3d
000002d0: 45cc 2f3e 9488 123e 83bd 49bc 7983 30be
000002e0: 90a3 b3bd c813 3fbd ce24 133e 67d5 10be
000002f0: f988 55be 5d9e 3dbe c36f 1fbe 613a 46bd
00000300: dd37 bdbd e591 d8bc c32b 633b f4b7 32bd
00000310: 9d27 e53d a815 5d3e 5132 22bd c0e5 3a3d
00000320: d989 a7be b92d 0a3d 3750 16be 32a7 f53b
00000330: 48c7 683d 4c9e 44be 5e31 9e3d 68b3 573e
00000340: 6104 dc3e 323d ba3e 59dd 023d 31da 60be
00000350: 9cd2 6a3e 0636 8f3e ec48 1fbc 9dab 6a3e
00000360: 9e1e 16bd d3e8 a33e 1e54 b63e e7cc f33d
00000370: a545 993d 7749 2d3c 2199 58bd 31ef 0d3e
00000380: 6cbe f8bd 924d 64be 5c53 7e3e 0df4 073d
00000390: bdc1 813d 4f43 b63d 4bfb 22be cc22 373e
000003a0: 80ff 0b3e ef63 c3bd 310b 55be a0fd a3bd
000003b0: c179 963d c36c 513e 5958 13bc ff85 9bbd
000003c0: b737 553b 20d8 7fbd 78f4 013d 2f16 dbbd
000003d0: 734f 7e3e 788d 193f 9f5a 733e 30ae 093e
000003e0: d949 7d3e 0b22 eb3e 4cea 94be 5c88 c6bd
000003f0: 04fa babe df60 90be fecb fdbb 5fc7 033e
-0.29760653 -0.12263556 0.3274432 0.07090696 0.07237741 -0.05270657 -0.16437659 0.31526104
0.40633056 0.24433796 0.08394399 -0.051377803 -0.049914006 0.086833775 0.011372767 0.19434878
0.12310082 0.028501255 -0.0184586 -0.13327444 0.2192681 0.08216009 -0.20359902 -0.2760122
-0.13836235 -0.20057514 -0.21671306 -0.027152501 -0.07980672 0.17238559 0.22142325 0.077748746
0.10375129 0.035178825 0.086729765 0.17099823 0.07281967 0.2065903 0.20495126 -0.06641578
0.20070776 0.03775305 -0.14329426 0.33501014 0.1961628 -0.22486755 0.17523275 -0.06870873
0.059569914 0.0010945223 0.07423688 -0.10967723 0.08333584 0.2273658 0.023200108 -0.0065296385
-0.21164571 -0.018271385 -0.06462345 -0.05304962 -0.09148355 -0.2751009 0.13489234 -0.09326798
0.019443585 0.058319885 0.0030825231 0.4970931 0.30054832 0.05535139 0.18692891 0.066435024
0.16333051 -0.14163373 -0.1376143 -0.5883169 0.0654333 0.26629686 -0.112260014 -0.032891333
0.104398176 0.32717323 0.034026016 -0.17242084 0.0651002 -0.0042743753 0.027459057 0.14387542
0.25005934 0.23128103 -0.4931412 -0.5170788 -0.08646932 0.20016164 0.199731 -0.39393997
-0.39688212 -0.11931896 0.13774836 0.25845352 -0.17411712 0.3465095 -0.034733873 -0.29634586
0.020341417 -0.44724607 -0.03607052 -0.32963312 -0.16764395 -0.06497706 -0.21104237 -0.24262044
-0.4310261 0.04813721 -0.113421634 0.2540306 0.05046805 -0.39822698 0.04405878 0.15769668
0.25391355 0.07144486 -0.18150926 -0.07719698 0.0027534808 0.29119304 0.25461873 0.014921558
-0.088260196 -0.19585225 -0.060292553 0.12055379 0.10834774 0.013069865 0.03603311 -0.57015693
-0.30444628 -0.073667444 -0.032112267 -0.2336927 -0.13397697 -0.22821005 -0.11525006 0.3341261
0.018494302 -0.03793771 -0.17896551 -0.38780552 0.4121501 0.25842386 -0.14890273 -0.08849591
0.18967097 0.3599447 -0.16023792 0.06357828 -0.11146631 0.1337959 0.1465775 -0.1734368
0.53671205 0.039971784 0.23819351 0.16570124 0.10614818 0.14875203 -0.0054412954 0.22030948
0.21740979 0.08394595 -0.26935256 -0.056595627 0.09025331 0.21361221 0.049379192 -0.04215445
-0.10483352 -0.13166225 -0.054793704 0.06935656 0.17167766 0.14309913 -0.0123132495 -0.17237653
-0.087714314 -0.046649724 0.14369509 -0.14143907 -0.20853032 -0.18517442 -0.15569977 -0.04839552
-0.09239171 -0.026436755 0.0034663535 -0.043632463 0.11189196 0.21590292 -0.039598767 0.045629263
-0.32722357 0.03373501 -0.14679037 0.007496738 0.056830674 -0.1920101 0.0772426 0.21064532
0.4297209 0.36374813 0.031949375 -0.21958233 0.22931904 0.27970904 -0.009721976 0.22917028
-0.036650293 0.32013568 0.3561105 0.119043164 0.07483987 0.010576597 -0.05288041 0.13860776
-0.12145695 -0.22295216 0.24836487 0.03319173 0.06335781 0.08899557 -0.15916173 0.17884368
0.13671684 -0.09540545 -0.2080505 -0.080073595 0.073474415 0.20451646 -0.008993232 -0.07593917
0.003253443 -0.062461972 0.031727284 -0.106975906 0.24834995 0.5998149 0.23765038 0.13445354
0.24735202 0.4592441 -0.29085004 -0.09693977 -0.36518872 -0.28198907 -0.007745265 0.12869023

conv33.bias f4 [8]
00000000: 0ec0 3c3c 4b3e b73d 0d21 b43d 73bc b5bc
00000010: 7251 5c3d d3b3 64bd 8f2c 753d 52ff b03c
0.011520399 0.08947428 0.087953664 -0.022184586 0.05378861 -0.055835556 0.059856948 0.021606121

batch3.weight f4 [8]
00000000: 19d3 8e3f 1fbc 943f 87c7 903f 67ef 8b3f
00000010: 2a9d 933f 3394 873f d962 8f3f 23d8 943f
1.1158172 1.161991 1.1310891 1.0932435 1.1532338 1.0592102 1.1202041 1.162846

batch3.bias f4 [8]
00000000: 87f3 89be ca5b 62be ad51 85be 94a8 57be
00000010: efa0 86be 6b2f 6fbe 45c2 5abe 190a 99be
-0.2694361 -0.22105327 -0.26038876 -0.21060401 -0.26294658 -0.23357932 -0.2136317 -0.29890516

batch3.running_mean f4 [8]
00000000: 6c4a 0dc1 ab43 ffc0 fe48 6ec1 4467 d4c0
00000010: c582 86c0 bfd8 66c1 f7cd 18c1 7eef 25c1
-8.830669 -7.9770103 -14.89282 -6.6376057 -4.203463 -14.427917 -9.550284 -10.37097

batch3.running_var f4 [8]
00000000: 7d06 b143 82ce 9443 6a07 a943 b993 ba43
00000010: 390c 8a43 5fb5 a443 823a 8943 8931 a043
354.0507 297.61334 338.05792 373.15408 276.0955 329.41696 274.4571 320.387
