models/net_new_bs64_dr0_2_adam/model_epoch_43.pt (torch, 763336 bytes, 28 tensors)

conv1.weight f4 [8, 3, 5, 5]
000000 a6 fc 0d 3e f7 58 1d 3e 76 93 20 bd 3f 28 82 3e
       0.13865909 0.15365969 -0.03920313 0.2542133
000010 f3 6c 5e 3d 33 93 3b 3e d3 d4 54 be 16 f3 31 3e
       0.05430312 0.18317871 -0.20784311 0.17377886
000020 30 b4 c7 3e cc 66 5f be 67 82 6e 3d fa bb 35 bd
       0.3900466 -0.21816558 0.05822983 -0.04436872
000030 cb c0 ae 3e 58 d0 32 3e e9 de 15 3e af df 84 be
       0.34131464 0.1746229 0.14635815 -0.25951907
000040 4c b7 75 bc 9c 97 d1 bd 72 e3 52 be ac ca 64 3e
       -0.014997315 -0.10233995 -0.20594576 0.22342938
000050 39 df 41 be cd 13 94 be 46 7a 82 be 3e 3a 62 bd
       -0.18932809 -0.28921357 -0.25483912 -0.055231325
000060 bf 25 67 bd 49 9a fa bd 97 fa 30 be a2 9f 87 be
       -0.05643248 -0.12236459 -0.17283092 -0.26488978
000070 51 d8 05 3c cd 00 2c be 75 83 5c 3e 12 60 bd be
       0.00816925 -0.1679718 0.21534522 -0.36987358
000080 a8 5b be 3c 5c cf a2 3d 41 3c b8 be 68 1a 07 3e
       0.023237064 0.07949707 -0.3598347 0.13193667
000090 f4 69 75 3c cf e4 98 3e e4 8b 9a 3c 12 65 22 be
       0.0149788745 0.29862067 0.018865533 -0.15858868
0000a0 83 0c 17 3c 0a 9f d7 3d 05 af 11 3e 7c 36 fe 3c
       0.009219292 0.10528381 0.14226921 0.03103184
0000b0 d2 52 00 3e 55 37 de 3d bf 3a 2a 3e dd 72 78 3e
       0.12531593 0.108503975 0.16623972 0.24262567
0000c0 dd 5a 66 3e b6 45 2b 3d fb 1d 57 be ee 8d b9 bb
       0.22495599 0.04181453 -0.2100753 -0.0056626713
0000d0 f8 55 d4 bd 0c 24 9e 3e f4 be 7d 3e 9e 13 21 3e
       -0.1036796 0.30886877 0.24779874 0.1573014
0000e0 34 bf 29 be e5 af 8b bd cf f0 72 3e 45 68 57 be
       -0.16576844 -0.068206586 0.23724674 -0.2103587
0000f0 d9 07 09 3e 0d 5a db bd 8c 1c af 3d 25 96 c7 bd
       0.133819 -0.10710535 0.08550367 -0.09745435
000100 fc 94 8e bc 9c d8 00 bb f0 37 4e 3e bd fe 54 be
       -0.017405026 -0.001966036 0.20138526 -0.208003
000110 dc 36 c1 be f7 6c f1 bd b7 58 64 3e bc 40 b0 3d
       -0.37737167 -0.117883615 0.22299467 0.08606097
000120 dc f8 e0 3d 7b c6 2d be 46 bb 3c be ee b5 b3 be
       0.10984966 -0.16970246 -0.18430814 -0.3509974
000130 f2 dd 42 be be fe e4 3d c0 6d 81 3e 85 2f 61 3e
       -0.19029978 0.11181401 0.25279045 0.21990784
000140 b1 de 89 be fb 54 3f be 88 63 2e 3e d5 f8 67 3e
       -0.26927713 -0.18684761 0.17030156 0.22653516
000150 0a 3c e0 3e fd be 58 be 77 a1 d9 bd 36 6b 9b bd
       0.43795806 -0.21166606 -0.106265 -0.07588808
000160 a8 f8 95 be e0 9c 9f 3e 0d 2f 88 bc 35 47 72 be
       -0.29291272 0.31174374 -0.016623998 -0.23659976
000170 94 af fa 3e 41 4f eb 3d 40 9a 61 bd 4b 5f 8d bd
       0.4896208 0.11489726 -0.055078745 -0.06902941
000180 32 4a 26 3d d7 48 6b 3d c4 ab af bd 07 4c 0f be
       0.040598102 0.057442512 -0.085776836 -0.13993846
000190 8b d0 a9 3d 91 6a 00 3e 57 d6 b2 3c 94 d5 5e bd
       0.082917295 0.12540652 0.02183072 -0.054402903
0001a0 f3 46 83 ba 72 e1 19 3e 5e 22 22 3d ef 8b be bb
       -0.0010015651 0.15027407 0.039583556 -0.005815021
0001b0 4d e0 15 be 87 7e 17 bd ba 6e b0 3e 4a 4d fe 3c
       -0.14636345 -0.0369859 0.34459478 0.031042714
0001c0 48 7f 29 bd 9b e1 2d bf 04 44 10 be e4 39 81 3e
       -0.04138115 -0.6792237 -0.14088446 0.2523948
0001d0 55 15 92 bd 7d 69 7b 3e 9a f9 40 be 00 95 53 be
       -0.07132975 0.2455196 -0.18845215 -0.20662308
0001e0 98 b5 c8 3d 11 26 27 be fb a5 92 bd 29 cf 6b be
       0.09800261 -0.16323115 -0.071605645 -0.23028244
0001f0 3d 03 34 be 73 9e ca bd d2 f4 1d be d1 29 84 be
       -0.1757936 -0.09893503 -0.15425423 -0.25813153
000200 1e d2 21 3c 46 2d 2c be e8 0e 41 3e 95 bb e6 3c
       0.009876756 -0.16814145 0.18853343 0.028165618
000210 2c a7 12 be 82 2a b9 3d ea 33 99 3c ab 98 29 3d
       -0.14321584 0.09041311 0.018701512 0.04140536
000220 9f 7e de bd 23 da 11 be 9a c1 b8 be 86 d4 15 3c
       -0.10863995 -0.14243369 -0.36085206 0.009144908
000230 f0 5d 64 3e a2 48 bd bd da a6 25 3f 26 08 a6 3d
       0.2230146 -0.09242369 0.6470772 0.08107023
000240 1b 4a 25 3d 76 a2 96 3d ac c3 67 3d d2 d5 9a 3e
       0.040353876 0.07355206 0.05658309 0.30241257
000250 10 6d 72 3e f9 61 71 bd 5d cc eb 3d b3 24 39 be
       0.23674417 -0.058931325 0.115135886 -0.18080406
000260 9d 14 b4 3d a4 ea e8 bd 08 7d 68 3c 27 ac 91 be
       0.08792994 -0.11372879 0.014189966 -0.28451654
000270 01 11 5b 3d 60 bb c2 3d 0c 50 22 3e ca 85 ad 3b
       0.053483013 0.09508395 0.15850848 0.00529549
000280 67 64 d0 3d 6d 9a a2 3e 78 61 d0 be 25 31 0e be
       0.101754 0.31758443 -0.40699363 -0.13885935
000290 26 c0 92 3e 80 18 5b bd 51 0d cc be 8c 43 b3 3e
       0.28662223 -0.053490162 -0.3985391 0.35012472
0002a0 cc d9 09 3f cb be ca bc 47 8b 17 be 6c 8e a6 be
       0.53847957 -0.02474918 -0.14799224 -0.32530534
0002b0 65 28 a7 3b f7 a0 11 3b 03 ea a0 bc d5 34 8c bd
       0.005101251 0.0022221187 -0.019642835 -0.068460144
0002c0 91 b3 b8 be 56 39 7c 3c a9 28 6a ba 8e fc 1e be
       -0.36074498 0.015394529 -0.00089324504 -0.1552603
0002d0 94 0c 8c be 51 c8 9c bc b1 c9 e4 3c 83 49 2a 3d
       -0.27353346 -0.019138487 0.027928205 0.041574012
0002e0 c2 81 a8 3d 0d 46 80 bd 90 08 97 3e 83 24 d1 be
       0.08227874 -0.06263361 0.2949872 -0.4084817
0002f0 f0 92 ff bd 86 57 35 3e 09 4b 88 bd 86 4e 83 be
       -0.12479198 0.17709169 -0.06654937 -0.25645846
000300 c6 e6 fa 3e 41 64 13 3f cb 6c 12 3d 30 bc 7a bd
       0.4900419 0.5757485 0.035748284 -0.061214626
000310 92 7f 10 be 94 f9 49 3d cb e1 0f 3e 92 56 80 3e
       -0.14111164 0.049310282 0.14050977 0.25066048
000320 74 06 51 3e bb 7a 8f 3c dc 15 b2 3e 66 05 31 3e
       0.20412618 0.017514577 0.34782302 0.17287216
000330 91 85 d6 3d 9c ab 40 bc 2d 1e 88 3d b2 d5 88 bd
       0.104746945 -0.011759665 0.066463806 -0.06681384
000340 83 e0 21 bd 84 28 3f bc e3 b2 bc 3e 31 f4 0c 3f
       -0.03952075 -0.0116673745 0.3685523 0.55060107
000350 ad 74 3b bf a1 9f 25 bf fa aa 65 be ae b1 0b 3f
       -0.7322491 -0.646967 -0.22428504 0.5456799
000360 e1 cb 36 3d 2a d0 7f 3d d5 79 30 bc 70 26 dc be
       0.044628028 0.06245438 -0.0107712345 -0.42998075
000370 8a 20 8d 3e db 94 8a 3d ef 2d 39 be af d1 8f be
       0.27563888 0.06766673 -0.18083929 -0.28089663
000380 ac d5 89 be 6b 23 0b 3e 09 74 6b 3e 4c 83 33 3e
       -0.2692083 0.1358773 0.22993483 0.17530555
000390 a5 78 78 bd 09 bd c2 bd 64 08 db bd 64 aa 7f 3e
       -0.06066193 -0.09508712 -0.1069496 0.24967343
0003a0 b1 a0 b8 3e 00 0d 04 3d c4 59 a0 3d d8 de 33 3e
       0.36060098 0.03223896 0.078296214 0.17565477
0003b0 c4 90 8c 3d c8 ff 1f 3e b3 81 a2 be b6 17 9e be
       0.06863549 0.15624917 -0.31739578 -0.30877465
0003c0 57 cc 48 3e fb 42 ef bd 3d d2 7a bd 4b 4b c4 be
       0.196092 -0.116826974 -0.061235655 -0.38338694
0003d0 58 d2 45 be 78 9e 17 be a3 d8 23 be a1 25 b8 3d
       -0.19318521 -0.14806545 -0.16000609 0.08991552
0003e0 1d 1b f5 bd d6 58 34 3d 1b 09 c5 bd a4 ff 47 be
       -0.11968062 0.044030033 -0.09620877 -0.19531113
0003f0 0c 98 cd bd 8e 27 c5 bd c9 a7 12 bd b6 f4 68 be
       -0.10038766 -0.09626685 -0.035804544 -0.227496

conv1.bias f4 [8]
000000 6f f0 7c be af f9 65 3e 38 4a e7 3b 52 75 46 bd
       -0.24701093 0.22458528 0.007058408 -0.04845173
000010 61 cd b0 be ea 84 b0 be d6 c8 cf bd 7a 76 14 3e
       -0.34531692 -0.34476405 -0.10145728 0.1449832

conv11.weight f4 [32, 8, 5, 5]
000000 37 07 f4 3d ac bd ec 3d 52 d2 8f bc 28 78 9d be
       0.119154386 0.115596145 -0.017556343 -0.30755734
000010 ec 52 0e 3e 99 67 f4 3d a0 b3 dd 3d 48 81 13 bd
       0.1389882 0.11933822 0.108252764 -0.036011964
000020 8e ff 0f bd a7 38 82 bd 74 bd 86 bc e8 a2 5c 3e
       -0.035155825 -0.06358462 -0.01644776 0.21546519
000030 63 93 5a bc 5c 30 5e 3e a8 31 19 3e 03 fc 5f be
       -0.013340804 0.21698135 0.14960349 -0.21873479
000040 e5 f4 96 3c e5 2b 2a be 5e 9d a0 3d c5 2a 72 3e
       0.018427322 -0.16618307 0.078425154 0.23649128
000050 d7 ad 9d bd 63 1f bd bd d4 c2 66 be 02 bc 14 bd
       -0.07699173 -0.09234502 -0.22535259 -0.03631211
000060 55 61 02 be 47 cd 26 3c 63 09 28 be f4 6b a0 bd
       -0.12732442 0.010180778 -0.16409831 -0.078330904
000070 1c c5 0d 3c e5 6d 2f bd 52 db a3 ba 51 40 e8 3d
       0.008652952 -0.042829413 -0.0012501276 0.113403924
000080 d9 76 14 3e da f3 a3 bd b7 da b3 3b d3 87 ae 3c
       0.14498462 -0.08005495 0.0054887193 0.021305
000090 46 06 a6 be f3 c2 1f be 8a ac 70 3d ee b8 82 bd
       -0.3242666 -0.15601711 0.058758296 -0.06382929
0000a0 54 d9 39 3e 63 4d 1f 3d f5 d8 56 3b 97 39 ed bd
       0.1814931 0.03889216 0.0032783125 -0.1158325
0000b0 85 4e c9 bd 01 bc 36 3e b7 51 0d 3e 48 45 8a 3e
       -0.098294295 0.17845155 0.13800703 0.27005982
0000c0 9b 5c 1d bd da f3 89 be 11 56 2d 3e 67 e8 c1 3d
       -0.038418394 -0.26943856 0.16927363 0.09468155
0000d0 8d c9 a6 be 7f 77 c9 3d 4e 0c 89 be d4 e4 01 3e
       -0.32575646 0.09837245 -0.267672 0.12684947
0000e0 68 98 ff 3e e4 b1 d0 3e 1c c0 f6 3d 3f bb 0d 3c
       0.49920964 0.4076072 0.12048361 0.0086506
0000f0 54 cf 78 be a8 9c 20 bf dc 5d 57 be 06 5e 88 3e
       -0.2429784 -0.6273904 -0.21031898 0.26634234
000100 2c e8 c6 3e 88 9c 7a 3e 4d ba 77 be ec 99 ad be
       0.38849008 0.24473774 -0.24192162 -0.33906496
000110 e3 7c 9c be bd c2 78 3b e5 7a c6 3d 35 c2 0f 3e
       -0.3056403 0.003795787 0.09691409 0.14038928
000120 ca 7a 2e 3e b0 6f 8b bc f1 b4 9a 3c e3 96 8f 3e
       0.17039028 -0.01702103 0.018885108 0.28044805
000130 cd 47 5f 3e b5 8b 43 3e 98 7f 14 be b9 12 e0 be
       0.21804734 0.19096263 -0.14501798 -0.43764284
000140 e5 84 a3 be 13 d6 b7 be 83 bd 45 be 0f 23 e9 3d
       -0.31937328 -0.35905513 -0.19310574 0.1138364
000150 35 e1 ad 3d 6e f3 10 3e 18 8a b3 3d a2 5c bd 3d
       0.084902205 0.14155361 0.08766574 0.09246184
000160 5f eb 71 3e ac 5a 50 3e 2e e4 90 3e 9d 81 5e 3e
       0.23624943 0.20347089 0.28299087 0.21729131
000170 79 8a 8c 3d 76 24 ee bc 00 d0 ac be 61 9e a6 bc
       0.06862349 -0.02907012 -0.3375244 -0.020339193
000180 77 81 29 3d b3 97 a2 bd a8 24 83 3c 72 88 e8 bd
       0.041383233 -0.079390906 0.01600869 -0.1135415
000190 b8 d9 0f 3d 1c 13 38 bd 33 58 33 bd 8e e5 4a 3d
       0.035119742 -0.0449401 -0.043785285 0.049535327
0001a0 df 5d d7 3d 73 c3 10 3d 5f b2 43 3d 33 c3 5b 3e
       0.10515951 0.035342645 0.04777753 0.21461181
0001b0 9d 66 70 3e 5a 3c 89 3e 04 52 92 3d 48 1f 27 bd
       0.23476644 0.26803857 0.071445495 -0.040801316
0001c0 d9 53 74 bd ec 20 2e bd 75 b1 d5 bc 21 fa 7c 3b
       -0.059650276 -0.042511865 -0.026085595 0.0038601237
0001d0 20 49 54 be d3 71 11 be 7d 84 80 bd 78 cf 8a bc
       -0.2073102 -0.14203577 -0.0627527 -0.016944632
0001e0 7c e7 35 be f0 eb 7a be 25 1c 37 be 09 07 85 be
       -0.17764086 -0.24504066 -0.1788183 -0.2598193
0001f0 77 30 f3 bd b4 64 29 3c a6 91 ea ba 45 05 58 be
       -0.11874478 0.010338951 -0.001789619 -0.2109576
000200 81 d2 4d bd 77 e1 b3 bc f7 f1 16 3d 93 01 1e 3e
       -0.05024958 -0.021958096 0.03685185 0.15430288
000210 ec 2d 77 3d 26 31 71 3e 86 8c 2c be e8 49 40 3e
       0.06034653 0.23553905 -0.1685048 0.18778193
000220 79 e4 c4 3d 97 ea 05 be 15 da cf 3e 8d ef d6 bc
       0.0961389 -0.1307777 0.4059607 -0.026237274
000230 8e 7e 5e be 9d 9a 5a bd da ec c2 be 19 bd 30 3d
       -0.21727964 -0.053370107 -0.38071328 0.043149088
000240 89 aa 88 bd 17 cc e2 bd 59 fe 89 bd 9e b8 6d be
       -0.06673152 -0.11074083 -0.06737966 -0.23214957
000250 e4 85 23 3e be 70 c6 bd e8 bb 1b bd 5a a0 67 3d
       0.15969044 -0.096894726 -0.038021 0.056549408
000260 df 01 4a 3d 9e f3 96 3e 60 a0 1f 3e d0 ed 4a 3e
       0.04931819 0.2948274 0.15588522 0.19817281
000270 e2 4e c5 3d c1 b4 b1 bb ca 22 72 3d 33 fe 89 be
       0.09634186 -0.005423159 0.05911521 -0.2695175
000280 df 78 91 be 92 2f 5f 3b 7f 03 bf bc 97 52 64 3d
       -0.2841253 0.0034055454 -0.023317097 0.055742826
000290 37 f7 c3 bd aa 30 de be 08 c7 76 be 4b 2c 8b be
       -0.09568637 -0.43396503 -0.24099362 -0.2718223
0002a0 6d 49 2b bd b1 d5 03 3d 01 35 83 bd 39 79 86 bc
       -0.04181807 0.032186214 -0.06406594 -0.016415225
0002b0 1b 05 28 be 07 a6 95 bd fd a3 71 be da 17 3c bd
       -0.16408198 -0.07307058 -0.23597713 -0.045921184
0002c0 be 32 27 3e f1 11 b8 bd 93 8e d8 3d 21 e4 8f 3d
       0.1632795 -0.08987797 0.10574069 0.07025934
0002d0 36 d2 8a be f5 1b df bd 87 a6 71 be 6b c7 15 bd
       -0.27113503 -0.10894004 -0.23598681 -0.036567133
0002e0 90 92 b4 3d a8 5d 57 be ba 20 1d be 2e 65 40 be
       0.08817017 -0.21031821 -0.15344515 -0.18788597
0002f0 6c 85 55 3d d8 fe 3e 3e 7e 93 e8 3e 02 e5 38 3f
       0.052129194 0.18651903 0.45425028 0.7222444
000300 e5 99 71 3e c6 e8 72 3e 59 38 7d bc 0d 05 c6 3c
       0.23593862 0.23721609 -0.015455329 0.02417233
000310 ad 96 84 3d 51 cf 81 bd 43 b9 21 bd 18 08 94 bc
       0.064740516 -0.063383706 -0.03948332 -0.018070266
000320 36 a9 48 be 1d c6 ae 3d 7c be ab ba 21 ea 82 3d
       -0.19595799 0.08533881 -0.0013103033 0.06392313
000330 90 ef 03 3e 68 bf 3a bd 6a d4 79 3e a9 17 86 3d
       0.12884355 -0.045592695 0.24397436 0.065474816
000340 77 d8 42 3e 1a 8d ea 3d a9 a1 0c be 15 3e 4e 3e
       0.19027887 0.11452694 -0.13733543 0.2014087
000350 58 44 7b 3d 73 e3 b7 3b 16 eb 31 be eb 52 b0 be
       0.061344475 0.005611831 -0.17374834 -0.3443826
000360 5f 49 61 bd d1 a1 84 bd 9f 2e 03 3d 23 84 80 be
       -0.055001613 -0.064761765 0.032026883 -0.25100812
000370 b9 aa 6a ba 4c e6 b4 3c 85 54 58 3d db 89 aa 3d
       -0.0008951831 0.02208247 0.05281498 0.08327075
000380 5c f6 3f be e3 27 b2 be 77 03 7d bd 62 5c 84 bb
       -0.18746322 -0.34796056 -0.061770882 -0.004039333
000390 e0 36 9c be f0 c1 be bd de e8 13 be 19 0f e4 3d
       -0.30510616 -0.093143344 -0.144443 0.11135692
0003a0 8a 05 d8 3d 8e d9 34 be e7 c6 75 bd e9 12 4d be
       0.105479315 -0.17661116 -0.06000414 -0.20026745
0003b0 04 d3 3a bd c2 2f bc bd f7 64 6a bd 8d 64 19 bb
       -0.045611396 -0.091887966 -0.057225194 -0.002340588
0003c0 7b 6e 43 be b5 15 a2 3d b2 5e 41 3d 2b 34 81 bd
       -0.19085114 0.079142965 0.04720945 -0.063087784
0003d0 94 3c d1 bc 0a 0e 8d 3c d1 d0 a6 3d 94 b7 1c 3e
       -0.025541581 0.017218608 0.08145297 0.15304404
0003e0 dc 6a 31 3e 00 7a 9c 3d f4 b2 0f be 2e cd 26 bd
       0.1732592 0.07640457 -0.14033109 -0.04072302
0003f0 c0 9e 56 be ca f1 40 3d 1b 5a ca 3e 99 36 85 bc
       -0.20958996 0.047105588 0.3952187 -0.016261386

conv11.bias f4 [32]
000000 70 0e 35 bd 42 76 c2 3c 09 c9 8d 3c 82 c7 05 be
       -0.04420322 0.02373803 0.017307775 -0.13064387
000010 52 db c7 bd f7 ee d8 bc c6 b7 45 be 74 57 6a 3c
       -0.09758629 -0.026481135 -0.19308385 0.014303077
000020 bc 90 39 3e 7c dc ae bb f9 f8 09 bc af ad a1 3d
       0.18121618 -0.0053363424 -0.008421176 0.07894456
000030 e8 e4 f4 3c 0d 9a 90 bd 8a 13 84 3d 95 c4 10 3d
       0.029894307 -0.07060633 0.06449039 0.035343725
000040 fd 04 33 3d 0d cd 1f bc 41 f6 2a be f0 02 d8 bc
       0.04370593 -0.009753478 -0.16695501 -0.026368588
000050 ff 5d 2d 3a 95 ec 42 3e dd 89 06 bd ca 02 0d 3d
       0.0006613433 0.19035561 -0.03284632 0.034426488
000060 28 fc 0f 3d 97 47 52 bb 67 86 dc 3d cb bc 0a be
       0.035152584 -0.0032086128 0.10767823 -0.13548581
000070 e5 97 7d bd d5 61 3d 3e cc 55 34 3d 3f 52 0c 3d
       -0.061912436 0.18494351 0.044027135 0.034258123

batch1.weight f4 [32]
000000 e3 8b 7d 3f d4 be 6e 3f 15 37 80 3f e8 d3 78 3f
       0.99041575 0.9325993 1.001681 0.97198343
000010 18 0b 73 3f b2 d3 81 3f 24 23 81 3f 55 b0 7c 3f
       0.949388 1.0142729 1.0088849 0.9870656
000020 11 c3 71 3f 1e 67 7b 3f 32 ae 6c 3f f9 f6 84 3f
       0.9443827 0.9820422 0.924533 1.038787
000030 7f f6 88 3f 4d f9 99 3f 1d ac 6a 3f 2b 22 74 3f
       1.0700225 1.2029206 0.91668874 0.95364636
000040 53 61 89 3f 0c 25 6e 3f d3 ca 7b 3f 02 d5 69 3f
       1.0732826 0.9302528 0.9835636 0.9134065
000050 11 da 66 3f 76 16 73 3f a6 29 84 3f aa 60 81 3f
       0.9017649 0.9495615 1.032521 1.0107625
000060 cd 07 7b 3f 26 03 5b 3f 20 1f 83 3f f2 39 79 3f
       0.9805878 0.8555168 1.0243874 0.9735404
000070 d4 0a 62 3f 5c 46 56 3f 0e b4 8c 3f 77 e2 69 3f
       0.8829777 0.8370111 1.0992448 0.9136118

batch1.bias f4 [32]
000000 c5 84 c9 be bd 83 9b be 09 d2 e5 be 7c 3d e4 be
       -0.39359108 -0.30373946 -0.44886807 -0.4457816
000010 b5 1d c7 be ab d4 bc be 66 14 a5 be ad 7a fb be
       -0.38889852 -0.36881003 -0.32242125 -0.49117032
000020 f4 f8 9c be f7 8a da be bf 40 9e be 6e f2 b2 be
       -0.30658686 -0.42684147 -0.30908772 -0.34950584
000030 54 33 a1 be c8 84 74 be f1 98 68 be 94 36 ac be
       -0.31484473 -0.23878777 -0.22714593 -0.3363539
000040 9b 54 76 be b1 cc 92 be 27 c3 1a bf a7 d8 0d be
       -0.24055712 -0.28671792 -0.6045403 -0.13852178
000050 c0 0b 8f be 2d ca 9f be ec 0d fa be 08 ae b5 be
       -0.27938652 -0.31208935 -0.48838747 -0.35484338
000060 96 82 e2 be 49 f9 8e be 5e c0 38 be bc 1b 94 be
       -0.44240254 -0.27924564 -0.18042132 -0.2892741
000070 78 c7 ac bd f9 87 ab be c8 04 6c be 73 db 9e be
       -0.08436483 -0.33502176 -0.23048699 -0.310268

batch1.running_mean f4 [32]
000000 23 f0 f4 3e f6 6c 95 3e 85 75 16 3e 81 67 65 bf
       0.4783946 0.29184693 0.14693268 -0.8961106
000010 fb 6b 5e 3e 0b a1 9f bf 19 a5 da 3e c6 ff 47 bf
       0.21720879 -1.2471021 0.42704085 -0.78124654
000020 2b 5a 80 3f d2 b7 1c bf 9c 9b c7 bd 0d 9c 81 be
       1.0027517 -0.6121799 -0.09746477 -0.2531437
000030 1e d4 77 3f a3 42 90 be 6b d9 1f 3f 47 96 cb be
       0.9680804 -0.2817584 0.6244113 -0.3976309
000040 08 22 44 bf d0 6e a2 3f dd 44 8a bd b8 1a 9e 3f
       -0.7661443 1.2690067 -0.06751416 1.2351904
000050 21 2b 39 bb 6f 5d 34 bd 82 b2 59 be e0 b7 e4 be
       -0.0028254467 -0.044034418 -0.21259502 -0.44671535
000060 e4 4d 06 bf a7 24 3a bf f4 c6 56 3e 17 aa 8d 3e
       -0.524626 -0.7271218 0.20974332 0.2766883
000070 bb 0a 8f 3d cb c7 96 be 29 db 36 bd fb ce a1 3d
       0.069844685 -0.29449305 -0.0446426 0.079008065

batch1.running_var f4 [32]
000000 9b 33 93 3f 68 52 ef 3f 31 e8 5a 3f 90 54 1f 3f
       1.1500124 1.8697023 0.85510546 0.6223841
000010 5f 89 70 3f b4 b8 28 40 c8 00 98 3f 67 2f ae 3f
       0.9395961 2.6362734 1.1875238 1.3608216
000020 6a a7 1d 40 12 4f d6 3f 42 4d bd 3e ed 61 27 3f
       2.4633431 1.674288 0.36973006 0.653838
000030 2e c1 58 3f 30 70 5e 3f 08 12 ad 3f 08 d6 ec 3f
       0.8466977 0.86889935 1.3521128 1.8502817
000040 ac 65 2d 40 9e 5b 1a 40 fa 92 33 3f 0e 6f 89 3f
       2.7093306 2.4118419 0.70146143 1.0737016
000050 21 11 7c 3f 38 90 fc 3e 76 72 9d 3f 91 27 82 3f
       0.98463637 0.4932878 1.2300556 1.0168325
000060 4b 94 71 3f f8 a2 e9 3f 52 33 d7 3f ae 75 55 3f
       0.943669 1.8252859 1.6812537 0.8338269
000070 b9 05 f9 3f f7 46 9b 3f 47 dd 91 3f c9 b7 b5 3e
       1.9454871 1.2131032 1.1395653 0.3549178

conv2.weight f4 [64, 32, 5, 5]
000000 95 2a 2a 3e 40 45 ef 3c 96 78 35 bd 06 91 06 bd
       0.16617806 0.029207826 -0.044304453 -0.03285315
000010 c6 10 4e bc 4e 77 81 3d d1 b2 d2 bd 2a 73 96 be
       -0.012577241 0.06321584 -0.10288013 -0.29384738
000020 ff a1 fe bd 54 c0 31 3e 1f 13 49 3e 1f 85 67 3e
       -0.12433242 0.17358524 0.196362 0.22609375
000030 e5 05 cd 3d 89 5f 5a bd 53 76 2a bd 8a ed c1 3c
       0.1001089 -0.053313766 -0.04161675 0.023672838
000040 e8 14 56 3e 36 a4 14 3e 41 e7 a3 bd 45 df 4d be
       0.20906413 0.14515767 -0.080030926 -0.20104702
000050 d9 41 be 3d b9 19 a1 3d c5 22 85 3e a8 b1 5f 3e
       0.09289903 0.07866234 0.2600309 0.21845114
000060 f9 e0 8d bd ba 5b ae 3e 1d de ef 3e 82 67 e4 3b
       -0.06927676 0.34054357 0.46849146 0.006970347
000070 92 52 b8 3c 46 d0 d8 bd a4 0c d0 3e c6 8c d2 3e
       0.02250031 -0.105866 0.40634644 0.41123027
000080 b8 cd 22 bd 64 3c 8b 3c 3b 92 15 bd af d3 eb 3e
       -0.03974697 0.01699657 -0.03651641 0.4605994
000090 be de 7c 3e c8 c5 e7 bd 74 5a 3c be 1b 86 3a be
       0.24694344 -0.11317021 -0.1839388 -0.1821522
0000a0 58 5b e0 3e 7b fb 95 3e 19 d6 21 3d d5 55 72 3c
       0.4381969 0.29293427 0.03951082 0.014790972
0000b0 b2 ed e9 bc f6 77 da 3d 96 f5 70 3d c3 a2 df bd
       -0.028555725 0.10667412 0.05882796 -0.10919716
0000c0 48 32 01 3d a1 98 52 3d 30 01 7c 3d 24 9e 0d 3d
       0.031542093 0.05141509 0.06152457 0.034574643
0000d0 c1 4c ff bd 87 03 b1 bb 81 a2 35 be d6 08 ec 3b
       -0.124658115 -0.005402032 -0.17737772 0.0072032018
0000e0 d5 b2 df 3c e0 db 8e be 58 1e c9 be 94 4e 14 be
       0.027306953 -0.27902126 -0.39280963 -0.144831
0000f0 78 8f e8 3d 20 f6 62 3d 60 6e a3 be 50 96 66 be
       0.113554895 0.055410504 -0.31920147 -0.22518277
000100 0f d3 71 3b 09 cd b6 bc 50 79 be bc 17 f7 af 3b
       0.0036899482 -0.022314565 -0.023251206 0.0053700316
000110 63 46 90 3d 5e b2 20 3e 27 55 e3 be a2 1f ee bd
       0.07044675 0.15693042 -0.44400904 -0.11627127
000120 4b 94 29 bc eb f0 ea bd 93 b8 de 3c 79 48 a4 be
       -0.010350297 -0.11471733 0.027187621 -0.32086542
000130 a3 4e 39 be a7 36 cd be 98 96 bc be fa 09 57 be
       -0.18096404 -0.4008076 -0.36833644 -0.209999
000140 f4 aa b8 be ae 45 34 bd a3 40 0d be 05 d1 68 be
       -0.36067927 -0.044011764 -0.13794188 -0.22735985
000150 ca 93 7b bd b7 c8 1a be 17 37 d2 3d dd 7a e7 bd
       -0.06142024 -0.15115629 0.10264414 -0.11302731
000160 cd 03 41 be d0 00 1e bd 7f 3e c0 bd b0 01 db 3d
       -0.18849106 -0.038574994 -0.0938692 0.10693681
000170 7d 20 a8 bd 96 b5 be bc b1 c9 59 3e 26 68 d8 bd
       -0.08209322 -0.023279946 0.21268345 -0.1056674
000180 8b 66 c8 3d 68 ac dc bd af 70 72 bd 01 24 77 3d
       0.097851835 -0.107750714 -0.059189495 0.06033707
000190 ee 99 00 3e bd d1 67 3d c0 3d e6 3d 22 54 2d 3e
       0.1255872 0.056596506 0.11242247 0.16926625
0001a0 13 50 a9 3d df 4a 36 3c b5 34 6a 3d c1 da cd bc
       0.08267226 0.011126249 0.05717917 -0.025128724
0001b0 37 c5 dc 3d f8 bd 54 3d 6f 9a de bd ee 1f fc 3c
       0.10779803 0.05193898 -0.108692996 0.030776944
0001c0 57 e8 40 bd 3a 33 df bd b6 e7 42 be 07 6d 5b 3d
       -0.047096577 -0.108984426 -0.19033703 0.053570773
0001d0 b0 97 23 3e 28 54 48 3d 1c 06 6b bd 66 73 af bd
       0.15975833 0.048908383 -0.057378873 -0.085669324
0001e0 8e 03 4e 3d 42 b4 9a 3d 29 99 64 3d 40 42 ec 3d
       0.05029636 0.07553913 0.055810127 0.11536074
0001f0 27 6b a7 3d 16 aa 5a be 9a 4d 64 bd f3 36 34 be
       0.081747346 -0.21353945 -0.05573807 -0.17599086
000200 63 7f 34 be 51 d0 21 be cd f3 11 be e0 3e 8b 3b
       -0.17626719 -0.15802123 -0.14253159 0.0042494386
000210 c3 4f bf bd 19 0d 25 3c ac 7a fe bc ed 50 46 3e
       -0.09341385 0.0100739235 -0.031064354 0.19366808
000220 c9 33 85 3c ca 53 0c be ac d0 4a 3d 14 78 bf 3d
       0.016260045 -0.13703838 0.04951541 0.09349075
000230 8f d5 74 3e b1 18 a9 3b f4 b0 02 be df 4f 32 bc
       0.23909591 0.005160414 -0.12762815 -0.010883301
000240 6c fa 25 bd 11 d5 d9 3d ec cd 79 bb d7 43 95 bc
       -0.040522024 0.10636342 -0.0038117124 -0.018220825
000250 57 ce 67 bd 93 a2 85 bc 83 51 23 bf c2 41 ba be
       -0.056593265 -0.016312873 -0.6379625 -0.36378294
000260 03 9c 5d be 5b fe d9 be 51 e7 57 be e3 d7 ad be
       -0.21641545 -0.4257687 -0.21084334 -0.3395377
000270 3f 62 1b 3d 38 9b 27 3e d6 24 b1 bd 12 37 c1 bd
       0.03793549 0.16367805 -0.08649604 -0.09434332
000280 af cf ae bd bf 25 f0 3e 5a 7a 9b 3e d1 fc 00 3e
       -0.08535706 0.46903798 0.30366784 0.12596442
000290 ad 3e 1c 3a 24 1c 3a be 7f 07 7a 3e 8d 95 fd 3d
       0.0005960267 -0.18174797 0.24416922 0.1238204
0002a0 39 08 c3 3c 9c 09 a6 bc 9b d1 2f be 3e 73 3d 3e
       0.023807632 -0.020268254 -0.17169802 0.18500993
0002b0 a7 e9 44 3e 1e a7 3e 3c 10 78 92 3d d6 67 9c 3e
       0.19229756 0.0116365235 0.07151806 0.3054797
0002c0 ef da 35 3e fe 0d d4 bd 44 40 5b be 5e 4b 64 be
       0.17759298 -0.10354231 -0.21411234 -0.22294375
0002d0 c2 bf 35 bd a0 27 98 3d 65 b2 c6 3d 12 20 16 3c
       -0.044372328 0.07429433 0.09701995 0.00916292
0002e0 73 81 fa bd 9f ac 99 be 89 b3 94 be ea df 5b be
       -0.12231722 -0.30014512 -0.29043224 -0.21472135
0002f0 83 cd b3 bc b8 4c a6 3c d1 78 6f 3e ae 2f 77 3d
       -0.021948582 0.020300254 0.23385932 0.060348205
000300 29 ce c4 bd c7 05 b7 3d 78 7d 5b 3e 70 03 1a 3e
       -0.096096344 0.08936649 0.21434581 0.15040374
000310 7f eb 03 3e 93 ba a1 bd a0 28 47 3d e0 4c 60 3e
       0.12882803 -0.07896914 0.048622727 0.21904325
000320 6f 05 88 be 61 c2 58 be da 98 18 bd 6f da 17 3d
       -0.26566646 -0.211679 -0.037255146 0.03707355
000330 f4 19 cd 3d 37 0c 85 be 97 bb ab bd 08 e0 91 bb
       0.10014716 -0.25985882 -0.08385389 -0.0044517554
000340 a3 20 a2 3d c6 97 5d 3e 54 9c 27 be 0d 7c 1c 3e
       0.07916381 0.21639928 -0.16368228 0.15281697
000350 ca 41 53 3e 03 e9 4e 3e 91 42 51 3e 8b 23 4e be
       0.20630565 0.20206074 0.2043555 -0.20130746
000360 5a 2d 5b bd 35 31 66 3c a4 23 1a be 9d ad 95 be
       -0.053510047 0.014049818 -0.15052658 -0.2923402
000370 33 a3 84 be 06 54 8a be 28 91 cd bd 23 0e be bd
       -0.2590576 -0.2701723 -0.10037452 -0.0928004
000380 f0 c8 24 be 86 3f 0e 3e e4 57 55 3e d8 b3 15 3d
       -0.16092277 0.1389142 0.20834309 0.036548465
000390 f8 5b 4f 3d 68 ec 10 bd a1 d7 87 3e 04 66 6a 3e
       0.050624818 -0.035381705 0.265317 0.22890478
0003a0 cd d8 36 3e ec d9 d0 3c 8c bc 05 be 86 c3 15 3d
       0.1785614 0.025494538 -0.13060206 0.03656342
0003b0 c1 d0 16 bd b0 38 e5 bd 51 ad 88 be 17 40 3c be
       -0.036820177 -0.11192453 -0.2669473 -0.18383823
0003c0 fb 8e d5 bd bf 24 41 be 14 35 4e bd fa db 87 3d
       -0.10427662 -0.18861674 -0.050343588 0.06633754
0003d0 1a 80 4e 3e 28 4a 6d be f5 54 7e be b3 09 78 3e
       0.20166054 -0.2317282 -0.24837096 0.2422245
0003e0 be b7 cd 3e e5 50 a4 3e 80 17 46 3e 4e e2 09 3d
       0.40179247 0.32092968 0.19344902 0.033663087
0003f0 ec cb 4c 3e 63 8d 26 3e 6e 75 be 3c bc 48 b4 bd
       0.19999665 0.16264872 0.023249354 -0.088029355

conv2.bias f4 [64]
000000 3e 49 7c 3e 6f 6a af be 63 1a 8a 3e df d7 35 3e
       0.24637315 -0.3426089 0.26973256 0.1775813
000010 49 0d 68 3e b3 9b 94 bd 85 e6 05 bf be b6 6c 3c
       0.22661318 -0.0725626 -0.5230487 0.014447866
000020 75 13 1d 3e 9e 03 91 be e4 99 12 3c 84 84 8d be
       0.15339454 -0.28323072 0.008947823 -0.27640164
000030 e4 cd 2d 3e 4e 3a 90 3e 65 ff 02 3f 58 c9 5d be
       0.16973072 0.28169483 0.5117095 -0.21658838
000040 42 cf 9c bd f3 91 31 bd 11 49 2a bc 80 2b 91 3d
       -0.07656719 -0.04335208 -0.010393397 0.07088375
000050 b5 b2 05 be 55 44 90 3d d8 4f 01 3e 32 08 3c be
       -0.13056453 0.07044283 0.12628114 -0.18362501
000060 e9 d6 38 3e 2c a9 a2 3e d8 f6 8b bd 58 9a 93 be
       0.18050732 0.31769693 -0.06834191 -0.28828692
000070 8d 30 05 3e c6 16 39 be 58 41 06 3e 55 f8 42 3d
       0.13006802 -0.18075094 0.13110864 0.04760011
000080 d7 a7 f4 bd b0 6f 28 3d 47 23 3e bd 63 88 88 3e
       -0.119460754 0.04112214 -0.04642036 0.26666555
000090 4e a1 d5 be cf 51 87 3d 85 f1 cd be 45 d8 09 be
       -0.41724628 0.066074006 -0.40223327 -0.13461407
0000a0 36 ec b0 be 41 ce 50 3e 8b 17 17 3e 7c 86 3c 3e
       -0.34555215 0.2039118 0.14755075 0.18410677
0000b0 c3 61 03 3d 1b f4 51 3e 61 43 01 3e 39 8f 31 be
       0.032075655 0.20503275 0.1262336 -0.17339791
0000c0 35 a6 89 3e ba 22 ba 3d f8 f0 9b 3e d5 74 f4 3c
       0.26884618 0.09088655 0.30457282 0.029840866
0000d0 b2 c7 03 3e 52 c1 38 bd 27 9f b2 3d 74 84 03 bf
       0.12869146 -0.04510624 0.08721762 -0.5137398
0000e0 fc 41 09 3f 14 69 35 3e d5 e5 26 be 8a b9 07 3d
       0.5361631 0.17715865 -0.16298611 0.03313593
0000f0 8c db 58 3d 8e bd 2b 3e 9c 98 0b bf 6e 3e a0 3d
       0.05294375 0.16771528 -0.5452974 0.078244075

conv22.weight f4 [32, 64, 5, 5]
000000 97 b3 c7 be d0 1b a2 be 56 a3 4e be 3d b2 8b be
       -0.39004204 -0.31661844 -0.20179495 -0.27284423
000010 84 91 d1 3e f2 89 8a be 92 a2 55 be b1 9c 31 bd
       0.40931332 -0.2705837 -0.20862797 -0.043362323
000020 00 a4 0b 3d 0b 10 c6 3e 95 0e 51 3c c7 0e ee 3d
       0.03409195 0.38684115 0.012759824 0.11623912
000030 e6 af 57 3e 57 c0 0d 3e 9e 89 ac 3e 88 ab dd 3d
       0.21063194 0.13842903 0.33698744 0.108237326
000040 35 77 ee 3e dc e5 7d 3e 02 4a a1 bd 34 6f 8f 3d
       0.46575323 0.24794716 -0.07875444 0.07003632
000050 40 77 6d 3e a6 21 cb 3e 87 d7 2a 3e 03 58 d5 bd
       0.23190022 0.3967411 0.1668378 -0.104171775
000060 bb d6 e3 3d f3 b0 1e 3d 01 b4 d2 3b a0 48 29 bc
       0.11124941 0.03874297 0.0064301495 -0.010332257
000070 b9 63 93 3c bc a5 a2 3d 4a 71 b2 bc 0b 0e cf 3c
       0.017991887 0.079417676 -0.021782536 0.02527525
000080 df 69 1f bd 0e 0d 51 bd f1 c9 bb bd 73 8f b1 3d
       -0.038919326 -0.05103784 -0.09169377 0.08669939
000090 a0 db 9f 3d ec 38 eb 3c e3 ae 98 3d f2 82 bb 3d
       0.07805562 0.028713666 0.07455232 0.09155835
0000a0 aa 2d e4 3c da 8d 8b 3d 6b 20 9d 3d fe 0a 52 3d
       0.027853806 0.068141654 0.07672199 0.051280014
0000b0 d3 74 16 bd 80 34 69 be 34 2b c1 bb 1f 13 10 3e
       -0.036732506 -0.22773933 -0.005895043 0.14069794
0000c0 86 78 8d 3d b9 ed 0a 3c 7a 53 4a 3e a6 76 36 3e
       0.06907754 0.008479529 0.19758406 0.17818698
0000d0 a2 57 46 3e de b4 0c 3e e6 fd c3 3d 83 14 66 3d
       0.19369367 0.1374087 0.09569912 0.056171905
0000e0 8a 17 1f 3e 75 7f f1 3d 97 5d 25 bc 23 92 49 3d
       0.15536323 0.117918886 -0.010093114 0.049211632
0000f0 ef 8f 2e be d3 9b 4b be 57 3b 84 be ec e6 b1 be
       -0.17047094 -0.19883661 -0.25826523 -0.34746492
000100 21 c5 b9 bd 00 88 94 be e4 44 32 be e2 39 1a be
       -0.090708025 -0.2901001 -0.17409092 -0.15061143
000110 30 86 40 3c 9d e1 2b 3e 46 82 d0 bd 44 6f 95 3c
       0.011750743 0.16785283 -0.10181098 0.018241532
000120 fc 1e 11 3c fd 1d 0e 3e 1b f5 75 3e 49 7b 38 3e
       0.008857485 0.13878627 0.24019282 0.1801578
000130 6f 29 3e 3e 5c 4c e7 3d 8f 7d 9e 3a b7 73 f2 bc
       0.18570493 0.11293861 0.0012091863 -0.029596193
000140 ff 18 ac bd 9a 53 8c be ab c3 82 be 22 c7 0a be
       -0.08403205 -0.27407533 -0.25539908 -0.13552526
000150 bb af 86 bd ff f4 50 be ad c3 4c be ed 14 2f bd
       -0.06576487 -0.20405959 -0.1999652 -0.042744566
000160 57 57 a0 3d 94 03 c6 3d ae 3c 60 3d 30 41 02 bd
       0.07829159 0.09668651 0.05474537 -0.03180045
000170 fe a8 06 3b 38 a9 af 3d 0a 2c 62 3d 77 10 f0 bd
       0.0020547505 0.08577198 0.05521778 -0.117218904
000180 6e 91 48 be fa 39 f3 bd 62 34 0b 3d 50 a1 85 bc
       -0.19586727 -0.118762925 0.033985503 -0.016312271
000190 db 9c 1d be e2 72 8d 3d 38 7b 0b be 0d b1 49 be
       -0.15391867 0.06906678 -0.13621223 -0.19696446
0001a0 15 b3 62 bd 02 f8 b2 bd 2a 69 7f 3e 53 cc 87 3e
       -0.055346567 -0.0873871 0.2494246 0.26523075
0001b0 97 b7 95 3e e6 1b 91 3e b4 40 d2 3d ca 4d a6 3e
       0.2924163 0.28341597 0.102662474 0.32481223
0001c0 a1 53 23 3e b2 5a 58 3d 28 e2 92 be 09 ab a6 3d
       0.1594987 0.05282087 -0.2868817 0.08138091
0001d0 f3 2d 5f bd 4d da c9 be 8a f8 c9 be 53 c5 1d bf
       -0.05448718 -0.39424363 -0.39447433 -0.6162922
0001e0 9e 19 1b be 5a 65 8b be 15 71 13 bf 46 b4 d3 be
       -0.15146491 -0.27225763 -0.57594424 -0.41348475
0001f0 59 f1 d9 be 44 ab e0 be 53 38 a9 be 19 dc 81 be
       -0.42566946 -0.43880665 -0.33050784 -0.25363234
000200 d1 dd 24 be b6 1f e4 3c 1f 75 29 be 00 3a 3e be
       -0.16100241 0.027847152 -0.16548584 -0.18576813
000210 0b 55 81 be d9 c4 b2 bd fb 55 b1 3d 38 60 c1 3c
       -0.25260195 -0.08728952 0.086589776 0.023605451
000220 44 8f 8c bd 1f a4 27 3d dd 29 d8 3d e1 71 87 3e
       -0.06863263 0.040928002 0.1055486 0.2645407
000230 c6 db 6e 3e 8d 07 19 3e c4 07 c0 3d df db 78 bc
       0.23326024 0.14944287 0.09376481 -0.01518914
000240 81 47 14 3e d1 11 9e 3e 97 9f 00 3e 53 1c 08 be
       0.14480402 0.30872968 0.12560879 -0.13292055
000250 5b 47 69 be b3 65 a6 bc 60 b3 86 be f4 9a d1 bd
       -0.22781126 -0.020312166 -0.26308727 -0.10234633
000260 a3 2f 0e be 5a 2d 81 3d 23 e0 51 be 2c 09 3f be
       -0.1388536 0.06307478 -0.20495658 -0.18655843
000270 66 fc ab bb ea e2 82 3d ad 89 aa 3e 57 1c 70 3d
       -0.005248594 0.06390937 0.33308163 0.058620777
000280 a3 45 81 3e de 20 5c 3e bb 68 fd 3d c8 37 7c 3e
       0.2524844 0.21496913 0.123734914 0.24630654
000290 1c 3f 12 3d 5e 6e ae 3e 2c 76 99 3a ce df 4e be
       0.035704717 0.34068578 0.0011708192 -0.20202562
0002a0 fd 72 2c bd 03 ff 78 be d7 8b c8 3e 45 42 8b 3d
       -0.04210185 -0.24316029 0.3916919 0.06799749
0002b0 cb 23 25 bd 9f a8 9d bc e3 3d 6e be d6 31 49 be
       -0.040317338 -0.019245444 -0.23265795 -0.19647917
0002c0 51 ab 81 3c f8 78 3c 3b 59 d9 4b 3d e3 c3 dc 3d
       0.01582876 0.0028758626 0.049767826 0.1077955
0002d0 08 55 9e bd 0e e7 de 3c f8 9a 6a bd 72 f4 a0 bd
       -0.07731062 0.027209785 -0.057276696 -0.07859124
0002e0 40 e2 46 be b1 a1 6b bd 91 c3 c3 bd 8c 1a 52 be
       -0.19422245 -0.057527248 -0.09558786 -0.2051794
0002f0 97 c8 17 be 5c 16 65 be f1 08 b2 bd 79 1c 43 be
       -0.14822613 -0.2237181 -0.08693112 -0.1905383
000300 65 c8 7a be 92 7f 19 be bb af 10 be 4e 38 32 be
       -0.24490507 -0.1499007 -0.14129536 -0.17404291
000310 73 3b 5d be 21 af 8f be 5f 7f 22 be 34 8e c7 bd
       -0.2160471 -0.280633 -0.158689 -0.0974392
000320 76 7f 46 3c 6f 62 27 3d a5 c5 5d 3e 8c 5c e3 3e
       0.01211535 0.040865358 0.21657427 0.44406545
000330 d0 bd 6c 3e 83 0f 8b 3d 1b de 18 3d 32 52 d7 bc
       0.23119283 0.06790068 0.03732119 -0.026284311
000340 f8 11 8d bd 1e d9 ae bc e1 43 8b 3d c3 7c a5 3b
       -0.06888193 -0.021343764 0.06800056 0.005050273
000350 a3 e9 8a 3c c8 5d f3 3d 3f 77 4f bc 14 28 c0 3d
       0.01695711 0.11883122 -0.012662708 0.09382644
000360 bb 10 02 be 6a d3 5e be fc 56 bf bd 52 70 95 be
       -0.12701695 -0.21760336 -0.09342763 -0.29187256
000370 1b bf 94 bd 5e 94 5e bd a1 b0 73 bc 69 b5 93 3e
       -0.07263013 -0.054340713 -0.014873655 0.28849342
000380 76 d3 28 3c 47 bb f6 bd 23 f1 09 bd 6c 55 e1 bd
       0.0103043225 -0.12047439 -0.03367723 -0.11002621
000390 7a 6f 5d bd b4 cb 1b be 96 ed 00 3e 34 80 18 3e
       -0.05406139 -0.15214425 0.12590632 0.14892656
0003a0 c5 66 8b 3d 65 57 16 3e e8 ab b4 3c b3 6e 4d 3e
       0.06806711 0.14681776 0.022054628 0.2006176
0003b0 4a cc 0c 3e 4e 5d a7 3d b2 6c 57 3e 8a f4 42 3e
       0.13749805 0.08172093 0.21037558 0.19038597
0003c0 08 ff 5b 3e c2 f5 a3 3c 4c 56 55 bd 33 50 9a 3d
       0.21484005 0.020014647 -0.052084252 0.07534828
0003d0 e6 db 1a 3d 4b 80 34 3e 52 7d b6 3c 5d c6 a0 bd
       0.037807368 0.17627065 0.022276554 -0.07850335
0003e0 c9 7a d0 3d 22 c5 19 3d 0e 7c 58 be cb 8d d5 bb
       0.101796694 0.037541516 -0.21141073 -0.006517147
0003f0 39 37 49 3e a2 71 96 bd 1f 4e 84 3e 33 59 41 3d
       0.19649972 -0.073458925 0.25840852 0.047204208

conv22.bias f4 [32]
000000 49 6a 35 3c af d1 88 3c 0c 49 9f bc 53 9f fc 3b
       0.011072704 0.016701547 -0.019444011 0.0077094226
000010 f6 2f 7c bc 4e c5 6c 3c 96 a0 0d bc b8 b1 97 3c
       -0.015392294 0.014451338 -0.008644244 0.01851736
000020 85 18 ac 3c fa 21 6d bc f9 83 8a bb 94 ed 9e 3b
       0.021007786 -0.014473433 -0.004227158 0.004850099
000030 e2 83 de bb ed 1f 81 3c d6 9c 04 3c 1b 15 98 bb
       -0.006790624 0.015762294 0.008094033 -0.004641188
000040 8f aa b3 ba 31 41 85 3c b3 ff 1d ba f6 24 2f bc
       -0.0013707447 0.016266437 -0.0006027177 -0.0106899645
000050 81 6f b0 ba ab c3 25 3c 7a 8a d5 bc 4c c2 ba 3c
       -0.0013460965 0.010117452 -0.026067007 0.022797726
000060 43 27 65 3c d1 de 75 bc d1 b8 77 bc 98 6d 92 3c
       0.0139864115 -0.015006737 -0.015119747 0.017874524
000070 6a c2 df bb 5b 25 70 bb fa 67 4e 3c 5d 70 12 3c
       -0.006828596 -0.003664336 0.012598032 0.008937922

batch2.weight f4 [32]
000000 3b 1f 83 3f 1b e5 45 3f 5d f6 66 3f af 34 6d 3f
       1.0243906 0.7730271 0.9021967 0.92658514
000010 b9 da 3c 3f 17 3b 85 3f 46 fc 5e 3f fd dd 59 3f
       0.73771244 1.0408658 0.8710369 0.8510435
000020 b3 e4 76 3f c3 1e 4b 3f aa b8 83 3f 49 32 61 3f
       0.9644272 0.79343814 1.029073 0.87967354
000030 f7 0e 5c 3f f0 ef 53 3f 59 ed 73 3f 81 5c 23 3f
       0.85960335 0.8278799 0.9528404 0.63813025
000040 3c 7d 82 3f 08 58 66 3f 7e 91 4e 3f b1 93 56 3f
       1.0194468 0.89978075 0.80690753 0.8381911
000050 1f 96 8d 3f 51 c9 23 3f 51 9c 4d 3f 84 85 86 3f
       1.1061438 0.6397906 0.80316645 1.0509496
000060 b4 81 62 3f 38 8f 6f 3f 35 f0 80 3f cb 16 77 3f
       0.8847916 0.9357791 1.0073305 0.96519154
000070 f7 e1 53 3f da 4b 4b 3f bb 8b 1f 3f 38 3d 7d 3f
       0.8276667 0.79412615 0.62322587 0.9892154

batch2.bias f4 [32]
000000 84 b0 1a bf 1a 29 fa be a0 3f 10 bf b8 35 f4 be
       -0.6042559 -0.48859483 -0.56347084 -0.47697234
000010 de ee 08 bf c0 ac 41 bf 07 d0 da be d7 58 e4 be
       -0.5348948 -0.7565422 -0.42736837 -0.4459903
000020 7a 80 1e bf d7 01 15 bf 37 d8 36 bf 9e 72 04 bf
       -0.6191479 -0.5820593 -0.7142367 -0.5173739
000030 58 93 2b bf 57 75 0f bf f1 be 08 bf d0 5c d7 be
       -0.67021704 -0.5603842 -0.53416353 -0.42062998
000040 15 69 1e bf 2e b8 30 bf 53 76 06 bf bb 92 06 bf
       -0.6187909 -0.69031036 -0.525243 -0.5256764
000050 29 a3 39 bf 83 d8 96 be c0 55 2a bf 9c 3d 3f bf
       -0.7251459 -0.2946206 -0.66537094 -0.74703383
000060 83 ba 0c bf 8e 03 14 bf df 46 2b bf 01 f8 1b bf
       -0.54972094 -0.57817924 -0.66905016 -0.609253
000070 56 bd 1c bf ee 2b 31 bf 66 7c 5a be 82 aa 1c bf
       -0.61226404 -0.69207656 -0.21336517 -0.61197674

batch2.running_mean f4 [32]
000000 4b 88 5a c3 6d 2d b0 c2 f5 4d 00 c3 21 9e 21 c3
       -218.5324 -88.08872 -128.30452 -161.61769
000010 6b db 36 c2 9f 18 32 c3 b2 db 12 c3 4c 90 0d c3
       -45.714275 -178.09618 -146.85818 -141.56366
000020 b0 7f 26 c3 b9 cb 4d c3 17 61 45 c3 3f 35 33 c3
       -166.49878 -205.79579 -197.37926 -179.208
000030 dd c8 57 c3 2c 48 d2 c2 e7 41 41 c3 c4 5d 5e 42
       -215.78462 -105.14096 -193.25743 55.591568
000040 7a 54 46 c3 6e a0 26 c3 09 73 35 c3 aa 64 0a c3
       -198.32999 -166.62668 -181.44936 -138.39322
000050 d5 58 77 c3 4a 05 af c2 14 04 d7 c2 48 7c 38 c3
       -247.347 -87.51033 -107.507965 -184.48547
000060 91 cb 4d c3 a8 b7 53 c3 84 7a 50 c3 bd e0 41 c3
       -205.79518 -211.7174 -208.47858 -193.87788
000070 d8 52 a2 c2 fb 42 e3 c2 02 41 30 c2 5b 37 40 c3
       -81.161804 -113.63082 -44.063484 -192.21623

batch2.running_var f4 [32]
000000 60 ae 85 47 83 dc c5 46 03 5e 1b 47 26 39 7a 47
       68444.75 25326.256 39774.01 64057.15
000010 d7 93 15 47 1e 04 45 47 d7 75 5b 47 1f 60 23 47
       38291.84 50436.117 56181.84 41824.12
000020 8d 63 3b 47 f3 bd 26 47 23 20 55 47 12 fd 27 47
       47971.55 42685.95 54560.137 43005.07
000030 01 f4 1f 47 89 7d 0d 47 2e f5 4c 47 34 07 e5 46
       40948.004 36221.535 52469.18 29315.602
000040 dd 98 69 47 23 35 02 47 ef 63 1f 47 bc fe 00 47
       59800.863 33333.137 40803.934 33022.734
000050 ef 58 87 47 dc 30 12 47 8e f7 cc 46 64 2d 2f 47
       69297.87 37424.86 26235.777 44845.39
000060 99 5d 26 47 0d 8a 61 47 a0 19 7c 47 8e 16 3f 47
       42589.598 57738.05 64537.625 48918.555
000070 df 7f fb 46 d0 fc cd 46 fd e2 26 47 1d 45 5e 47
       32191.936 26366.406 42722.99 56901.113

conv3.weight f4 [16, 32, 5, 5]
000000 77 9a e4 bd c3 40 26 bd 50 cb 6e 3e 41 cf a0 3e
       -0.11162274 -0.040589105 0.23319745 0.31408122
000010 e8 01 07 3e 1e 78 fb bc 9b dc 88 3e 58 ce c2 3e
       0.13184321 -0.030696925 0.2673081 0.38048053
000020 04 1a 6b 3e 1b 8d 2f 3d 16 0d 0e be 46 73 e8 3d
       0.22959143 0.042859178 -0.1387218 0.11350112
000030 d1 87 73 3e 6c b9 99 3e ad 25 9f 3e ee 64 97 bd
       0.23782279 0.30024278 0.31083432 -0.07392298
000040 cb 79 df 3d a6 10 63 3e 06 05 d4 3e 18 f1 16 3e
       0.10911902 0.2217432 0.41410083 0.14740407
000050 66 98 81 3e c4 1e a1 3e fb cc b6 3e 7b 92 1f 3e
       0.25311583 0.31468785 0.35703263 0.15583222
000060 94 fc e5 bd b6 07 92 3e b8 fd 04 bc 18 d9 26 bd
       -0.11229816 0.28521508 -0.008117132 -0.04073438
000070 16 34 80 3d ab aa 08 be 02 fb 26 3e a9 20 80 3c
       0.062599346 -0.13346355 0.1630669 0.015640574
000080 e2 0c fd 3c 35 33 8a 3e 68 c6 7d be 72 ba 0a 3e
       0.030889932 0.26992193 -0.24782717 0.13547686
000090 3e 59 c8 bd f5 61 2f be 76 b7 a8 3d fb 06 57 be
       -0.097826466 -0.17127211 0.082381174 -0.20998757
0000a0 44 a9 ae 3d 13 e4 fc 3d a7 7d d2 3c 18 c3 2b bd
       0.085283786 0.12348189 0.025694681 -0.041934103
0000b0 09 f7 de be 85 1f 12 bd f0 3c a5 3d 9d e6 56 3d
       -0.43547848 -0.03567459 0.080682635 0.052466024
0000c0 5c 10 26 3d 88 17 75 be 3a fd 22 bc 70 8d e2 3c
       0.040542945 -0.23934758 -0.009948069 0.027655333
0000d0 e1 07 97 3d 0a b8 8d 3d 06 02 8a be 00 d9 71 bd
       0.0737455 0.06919868 -0.2695467 -0.059044838
0000e0 e3 22 bf be 6c 86 fa bd 3a 37 29 3d 37 b2 63 be
       -0.37331304 -0.1223267 0.041312434 -0.22235952
0000f0 e4 0d 7d 3d 67 65 0a be 04 6d ca 3d 5c 1e 30 3e
       0.061780825 -0.13515244 0.09884074 0.17199081
000100 4c 64 cb 3d 2f 00 66 3d 6f 95 49 bd c1 30 dd bb
       0.099312395 0.05615252 -0.049214777 -0.0067501967
000110 31 dc 6f bc 10 29 80 3d 1e 6b 24 3e da 14 0a 3e
       -0.0146399 0.06257832 0.16056487 0.13484517
000120 b3 16 b2 3d ef 95 ac 3c 20 dc 52 bc c9 cb 17 be
       0.08695736 0.021067588 -0.012869865 -0.14823832
000130 6e 0d 7a bc 4c 2a 40 bd b2 f1 4c 3d 87 ec 1b 3e
       -0.015261991 -0.046915337 0.050035186 0.15226947
000140 09 05 b1 3d 35 5b a5 bc 22 5e 84 bd ec 39 18 bd
       0.086435385 -0.020185092 -0.06463267 -0.037164614
000150 fa a1 7f 3e ad 70 4e 3e 94 0a 4e 3e 53 45 f8 3d
       0.24964133 0.2016017 0.20121223 0.121225975
000160 6c 93 83 be 98 f1 12 be 9f bc 97 3e 55 5d 7d 3e
       -0.2569841 -0.14349973 0.29636094 0.24742635
000170 e6 d1 c6 3e eb 86 b7 3e 2d 93 d6 3d 88 54 08 be
       0.38832015 0.35845122 0.1047729 -0.13313496
000180 b2 27 05 3c 6f 01 85 3e e0 05 c3 3e 5b bf 7a 3e
       0.00812714 0.25977656 0.3809042 0.24487059
000190 e9 44 b9 bd 78 e9 a9 bd a6 28 43 bd 77 95 9b 3c
       -0.09046347 -0.08296484 -0.047646187 0.018992169
0001a0 41 e2 0f 3e 45 ff 37 3e 19 03 1a be cd b5 09 be
       0.14051153 0.17968471 -0.15040244 -0.13448258
0001b0 b1 4d 3d be 30 9f 94 bd 9b 7a 27 3d bb ea c5 bd
       -0.18486668 -0.07256925 0.04088841 -0.09663912
0001c0 13 57 2d 3e b6 a4 ea 3d 65 ad f1 3c e4 57 97 bd
       0.16927747 0.11457197 0.029501626 -0.07389811
0001d0 9b 58 65 be ee 19 e9 3b 56 84 32 be f6 ea 5b be
       -0.22397082 0.0071136868 -0.17433295 -0.21476349
0001e0 dd bb 4a be 18 db 9a be 32 e7 3d bd 1a 62 8a be
       -0.19798227 -0.3024528 -0.046363063 -0.2702797
0001f0 6f 12 cc be 9e 53 0c be bd 97 0a 3e 50 d2 52 3e
       -0.39857814 -0.13703772 0.13534446 0.2058804
000200 62 7a 8c bc d3 54 16 be 05 4f 0a 3e ec f5 98 3e
       -0.0171482 -0.14680795 0.13506706 0.29875124
000210 a0 06 fd 3d f7 24 17 be 36 fe 71 3a 18 0e 1e be
       0.12354779 -0.14760195 0.0009231301 -0.15435064
000220 47 f9 c3 bc a2 57 2e 3d 64 aa b2 bc aa 65 a3 3d
       -0.023922576 0.042564042 -0.021809764 0.07978375
000230 86 93 b0 be b8 a2 48 be b2 f5 d0 bc cc d8 ee bd
       -0.3448755 -0.19593322 -0.025507782 -0.116624445
000240 65 d4 31 be 8a 33 ae 3d c7 c4 a2 bc ef b1 8a 3d
       -0.17366178 0.08505924 -0.019869221 0.067722194
000250 78 67 9c 3c 67 20 7c bd d2 09 68 be 60 8f cf be
       0.019092306 -0.06155434 -0.22659996 -0.40539074
000260 7c f7 4c bd f1 8a fd bb f6 16 55 3e 8c 1d c8 bd
       -0.050040707 -0.0077375104 0.2080954 -0.097712606
000270 6e c7 2e 3d 46 be b8 3e a4 6d b6 3e b5 cc 87 3e
       0.04267066 0.36082667 0.35630524 0.26523367
000280 a3 18 21 3d 37 36 97 3e f9 33 f5 3e f9 a3 d0 3e
       0.039330136 0.2953355 0.47891214 0.407501
000290 68 f0 85 3e 40 2d 21 bd 49 e6 f5 3d dd dd 87 3d
       0.26159978 -0.039349794 0.12006814 0.06634114
0002a0 5f 13 00 3d 53 87 88 bd 7f 02 af 3c 9d b6 ce 3d
       0.031268474 -0.06666436 0.021363495 0.100934245
0002b0 23 8c d6 bc be df 66 be 95 45 bc be 45 09 ec bd
       -0.02618987 -0.22546288 -0.36771837 -0.115252055
0002c0 df d6 2c 3e 8f 77 0b 3e 9a 84 87 be 7e 6a 06 bf
       0.16878842 0.13619827 -0.26468354 -0.52506244
0002d0 ba fa 16 bc e9 7d 6b 3e 9f 15 3d 3e 65 a3 58 3c
       -0.009215051 0.2299725 0.18465279 0.01322255
0002e0 ce 3a ca be d0 e2 e7 bd c0 3f 02 bd 0f 5d 08 be
       -0.3949799 -0.11322558 -0.031799078 -0.13316749
0002f0 a0 95 2f 3d fe 9a 2a bb 9d 17 ec bc fd 66 2d 3d
       0.042867303 -0.0026032324 -0.028819853 0.042334545
000300 ac a3 1f 3d 45 86 9b 3d 8a 5d 08 3e e3 48 b7 bc
       0.03897445 0.07593969 0.13316932 -0.022373622
000310 77 ec 9a 3d 99 82 8e 3e 7b ac 6b 3e 5b 12 9e 3e
       0.07564633 0.27834013 0.23015015 0.3087338
000320 94 f1 b0 3d 0c dc bc bd 81 e0 84 3d 27 25 cf bd
       0.08639827 -0.09221658 0.06488133 -0.10114508
000330 eb 2c b8 be db 4d 6a 3e c3 d5 94 3d f6 e2 73 ba
       -0.3597177 0.22881262 0.07267334 -0.0009303534
000340 74 43 ae be 4d 41 bf be 71 05 02 3e ae 40 d2 3d
       -0.34035838 -0.37354508 0.12697388 0.10266243
000350 24 fb cf bd 13 61 9f be 70 05 95 be a0 27 4d 3c
       -0.10155323 -0.3112875 -0.2910571 0.012521654
000360 5b 9a 01 be 6b 4a 66 be 67 45 4f be 52 20 74 be
       -0.12656538 -0.22489326 -0.20241319 -0.23840454
000370 ed a6 21 be 68 83 90 be 19 12 a3 be fa 98 79 be
       -0.15786333 -0.28225255 -0.31849745 -0.24374762
000380 27 b0 4e be 11 9a dc bd c4 3c 85 3d 7f 25 9a 3d
       -0.20184384 -0.10771573 0.06505731 0.07526683
000390 28 f7 0b 3d 16 8c 11 3d d2 1f 8b bd e7 02 03 be
       0.034171253 0.035533987 -0.067931786 -0.12794076
0003a0 97 1b f0 bd 35 2d 0d be 7b 88 76 be 18 3e dc bd
       -0.11724012 -0.13786776 -0.240755 -0.10754031
0003b0 f4 23 59 be 67 28 30 be 14 e8 31 3d 66 db a2 be
       -0.21205121 -0.17202912 0.043434218 -0.31808013
0003c0 c1 85 be 3d 2f 0a b8 bd 0c e4 dc bd 76 f3 2b 3e
       0.09302855 -0.08986317 -0.10785684 0.16792092
0003d0 a7 07 bd bd 0c e3 18 3e 37 fe 58 3c d0 0c 55 bd
       -0.09229975 0.14930362 0.013244203 -0.052014172
0003e0 ce 3c 75 bd e8 fe 59 be 34 99 f4 bd 57 c5 8e 3d
       -0.05987244 -0.21288645 -0.11943284 0.06971233
0003f0 c3 0a b5 3e 91 0d 94 3e d8 90 a7 be 0c 96 84 bd
       0.35359773 0.289166 -0.32727695 -0.06473932

conv3.bias f4 [16]
000000 5f 14 91 be e1 e8 35 3f 66 85 f6 be 7b 3d 4c be
       -0.28335854 0.7105847 -0.4814865 -0.19945328
000010 48 bf e5 be 13 c1 91 be 0f 13 fb 3d c0 0c cc 3e
       -0.448725 -0.28467616 0.122594945 0.39853477
000020 bb 3e 03 3e 8b d2 9d bd cc f8 ac bc f5 a4 94 be
       0.12816899 -0.077061735 -0.02111473 -0.29032102
000030 d3 55 33 3d 03 ec 92 3d c1 1c 08 be 20 ac e4 3e
       0.04378302 0.07173922 -0.13292219 0.4466257
