models/net_new_bs64_dr0_2_adam/model_epoch_44.pt (torch, 763336 bytes, 28 tensors)

conv1.weight f4 [8, 3, 5, 5]
00000000: bdce 193e a27a 273e 1ec8 01bd 9879 823e
00000010: db4c 593d e321 433e 610d 55be 5912 333e
00000020: 96d0 c53e 034e 6abe 966c 843d f57e 2fbd
00000030: 7af3 af3e 5221 303e df58 0f3e d683 85be
00000040: c36d 7cbc 864f cebd f309 55be a25c 653e
00000050: 3765 3fbe de7f 92be a869 7ebe 2278 4ebd
00000060: 557f 43bd e276 eabd 72c2 2fbe a145 89be
00000070: 6b44 aeba d566 35be d7d3 5f3e 7ed3 c0be
00000080: 8e2f 8d3c 91ef 8a3d e4c8 c0be bddc 093e
00000090: 909f 573c b021 993e e583 373c 7691 2fbe
000000a0: d142 fe3b bbf9 d73d 1a41 163e 6f88 ec3c
000000b0: 22a7 f63d af0b ee3d 8a39 323e 1981 823e
000000c0: d22e 6f3e 49e4 463d 6d2c 53be 1af3 86bb
000000d0: e128 d4bd 6bdb 9a3e 9ce6 783e f7e5 233e
000000e0: e14d 2dbe d309 90bd cd24 6c3e 83dc 60be
000000f0: a9bb 0e3e d630 d5bd 3ae7 b63d 7749 cdbd
00000100: a261 b4bc 2a3c c43a 3fdf 533e 8f7c 4ebe
00000110: 8108 c2be b585 f0bd add8 6e3e 88a5 c33d
00000120: 2e7d f83d 4a28 27be a76b 34be dd81 b0be
00000130: 51b8 40be 6094 e83d 0c54 853e c240 653e
00000140: d33c 89be a81e 3bbe f756 353e 0733 713e
00000150: ecd2 e13e 07be 63be 93fb e8bd a8b2 96bd
00000160: 18be 96be 8f1d 9e3e a228 9cbc ff0c 77be
00000170: 46a9 ff3e 0115 f73d c6d2 63bd 5da2 8abd
00000180: b49d 2f3d 2584 893d 2d2f a0bd a84b 09be
00000190: 8ea9 bb3d e758 043e dc9e be3c dfb3 55bd
000001a0: 229c 9bbb 0a9e 1e3e 1dca 2f3d 63ea 5fbb
000001b0: afa9 16be f88d 45bd d161 ac3e b148 883c
000001c0: 217e 4fbd de6e 31bf 9c50 22be 6325 813e
000001d0: 7680 aabd 8523 793e afcf 44be 5210 5dbe
000001e0: 6427 ce3d 73f5 29be 9da5 91bd 4ca6 6bbe
000001f0: 3c00 36be 03cd bbbd 65ba 1abe 6974 81be
00000200: 5f9a 853c 23a5 2bbe 23cd 423e dfff fe3c
00000210: 64dd 09be f390 c73d 8d8a 8e3c 08d6 033d
00000220: 6880 f7bd 13a9 12be d57a bbbe 5080 113b
00000230: 0fcf 633e 9c1a cebd 6782 273f 6b36 af3d
00000240: a36e 1a3d 0bf9 a73d 8210 7c3d 2794 a03e
00000250: 2188 7c3e cbeb 5dbd 5309 ea3d 61b5 35be
00000260: f32e bc3d 7010 ffbd e47b a5bb 568e 91be
00000270: f0c7 753d f844 d53d 3f5f 293e 8ac0 ea3b
00000280: 323f c13d 4205 a23e 3e2b d0be d505 0bbe
00000290: 5811 973e ed5f 65bd 3594 d1be e7d5 b33e
000002a0: f692 0a3f 2a59 acbc 1fb6 18be b9ec a9be
000002b0: b201 15bb 0099 3bbb 34f8 8bbc 274c a1bd
000002c0: b2a6 bdbe 5074 e43b 8926 b7bc a817 38be
000002d0: b821 8fbe 5de7 a7bc 3f76 003d d16b 2b3d
000002e0: d663 a03d f6f7 97bd 6e77 933e a19d d2be
000002f0: c042 ffbd 7649 3d3e 480a 8fbd 40a7 89be
00000300: d52f fb3e 8ee9 133f 2030 353d 8f4a 7fbd
00000310: 919a 16be 1787 2c3d b0ad 093e af7c 833e
00000320: 32f9 493e e945 4e3c e764 b13e 823e 273e
00000330: 1297 ba3d 56c6 7ebc aa19 873d d86b 81bd
00000340: 303b 0ebd e84c ebbb 4bb1 bb3e 90b4 0c3f
00000350: f126 3dbf bdd6 26bf 31ef 59be fbfe 0d3f
00000360: 607b 263d 558d 803d abd6 48bc 6cba d7be
00000370: 45b3 923e a704 8d3d b21f 3bbe c159 90be
00000380: bb4b 85be b622 0c3e 68a3 6e3e 30a8 383e
00000390: 1c09 6dbd 1eb1 bdbd bfca e5bd 79f3 803e
000003a0: 1f90 bb3e 1a6c e33c 41f3 953d 4516 343e
000003b0: 8188 923d b779 253e aa14 a7be bf88 a3be
000003c0: 0e89 493e 0b10 eebd ac9f 80bd 8f37 c8be
000003d0: 6752 4cbe ddda 13be 3560 22be 0b9d c13d
000003e0: d101 efbd d2b4 313d 6df8 c7bd bdce 4abe
000003f0: 07b0 cabd 9915 b7bd e479 e1bc 0522 6fbe
0.1502027 0.16355374 -0.031684987 0.25483394 0.05305181 0.19055896 -0.20805885 0.17487468
0.386357 -0.22881322 0.064660236 -0.042845685 0.34365445 0.1720021 0.13998745 -0.26077145
-0.015407029 -0.10073762 -0.20804577 0.22398618 -0.18690954 -0.2861318 -0.24844992 -0.050407536
-0.047728855 -0.11448456 -0.17164019 -0.26810935 -0.0013295537 -0.17715009 0.21858154 -0.37661356
0.01723459 0.06783975 -0.37653267 0.13463111 0.013160601 0.29908514 0.01120088 -0.17145333
0.00775943 0.10545679 0.14673272 0.02887365 0.12043597 0.11623322 0.17404762 0.2548912
0.23357704 0.048557553 -0.20622416 -0.0041183354 -0.103593595 0.30245528 0.2430672 0.16005693
-0.1692424 -0.07033124 0.23060913 -0.21959119 0.13938774 -0.10409705 0.08930822 -0.10023778
-0.022019211 0.0014971544 0.2069063 -0.20164703 -0.37897113 -0.117442526 0.23324843 0.09553057
0.12133251 -0.16323963 -0.17619191 -0.34474078 -0.18820311 0.11356425 0.26040685 0.22387984
-0.26804218 -0.18273413 0.17708956 0.23554622 0.44106233 -0.22240458 -0.11376109 -0.07358295
-0.29441905 0.30881926 -0.019062344 -0.24126051 0.49933833 0.12064553 -0.05562093 -0.067692496
0.042875007 0.06714658 -0.07821498 -0.13407767 0.09163199 0.12924539 0.02326911 -0.05217349
-0.004748837 0.15489975 0.04291736 -0.0034166805 -0.14713167 -0.048231095 0.33668378 0.016636224
-0.050657395 -0.69309795 -0.15851063 0.25223836 -0.08325283 0.24329956 -0.1921985 -0.21588257
0.10066107 -0.16597538 -0.07111666 -0.23012656 -0.17773527 -0.09169962 -0.15110166 -0.25284126
0.016308961 -0.16762213 0.19023566 0.031127868 -0.1346336 0.09744444 0.01740005 0.032186538
-0.120850384 -0.14322309 -0.3661715 0.0022201724 0.22246955 -0.10063669 0.65433353 0.08555301
0.037703168 0.08201798 0.06153918 0.3136303 0.24661304 -0.054179948 0.1142756 -0.17744972
0.09188642 -0.12454307 -0.0050501693 -0.28428906 0.06000513 0.10413545 0.1654024 0.0071640657
0.09435882 0.31644636 -0.4065799 -0.13576443 0.2950542 -0.055999685 -0.40933385 0.35124132
0.54130495 -0.02103861 -0.14913224 -0.33188418 -0.0022736606 -0.002862513 -0.017086126 -0.07875853
-0.3704124 0.0069718733 -0.022357242 -0.17977774 -0.27955413 -0.020496065 0.03136277 0.04185087
0.07831542 -0.07420342 0.28802055 -0.41135886 -0.124639034 0.18485054 -0.06984383 -0.26885414
0.4905993 0.5777825 0.04423535 -0.062326964 -0.147074 0.04212102 0.13445163 0.25681064
0.19723967 0.01258991 0.34647295 0.16332439 0.091108456 -0.015550217 0.06596692 -0.06319398
-0.034724414 -0.007180799 0.366587 0.54963017 -0.73887545 -0.65171415 -0.2128265 0.55467194
0.040645003 0.06276957 -0.012258212 -0.42134416 0.28652397 0.06885653 -0.1827381 -0.28193477
-0.2603434 0.13685116 0.23304522 0.18032908 -0.057870016 -0.09262298 -0.112203114 0.25185755
0.36633393 0.027761508 0.073217876 0.1758662 0.07154942 0.16159712 -0.32632953 -0.31940266
0.19681188 -0.11624154 -0.06280455 -0.39104888 -0.19953309 -0.14438958 -0.15857013 0.09453782
-0.11670268 0.043385334 -0.0976418 -0.19805427 -0.09896856 -0.08939666 -0.027523942 -0.23352821

conv1.bias f4 [8]
00000000: 8952 86be 5616 643e 7b8e 983b d8b4 57bd
00000010: 6ac7 aebe 29ca b1be c678 bdbd 750c 123e
-0.26234844 0.22274145 0.004655657 -0.0526627 -0.34136516 -0.34724548 -0.09251551 0.14262564

conv11.weight f4 [32, 8, 5, 5]
00000000: d693 fd3d 0f2c df3d cc1e dabb a7e5 9ebe
00000010: fdbd d93d 9818 f93d 1be7 b23d d24d c6bc
00000020: f6e6 e5bc 2c70 b7bd 76b8 92bc 3d73 443e
00000030: d770 0c3c 00b1 6f3e 61af 093e 8b52 5dbe
00000040: 1208 3a3c b43b 1cbe 069a a53d 2cd1 643e
00000050: a682 a9bd 119b c3bd 138e 6ebe 7fc3 09bd
00000060: 5767 fbbd 405a 423d 1f01 26be 5948 9abd
00000070: 0066 033d 7795 d9bc 82a5 343d 3ad1 103e
00000080: ff23 1f3e cb87 9bbd 6a55 183b 8f6d 133d
00000090: 7455 9fbe d2c3 23be 236f 6d3d 9c33 82bd
000000a0: 6d50 3e3e 634c 6a3d ec18 7e3c 6731 bdbd
000000b0: 279f 92bd 2925 363e 0358 103e c4b1 883e
000000c0: 1205 e0bc e2c5 7abe a9fe 3a3e f4a9 d33d
000000d0: 1d14 95be bc19 113e dd79 73be e04c 053e
000000e0: 07d7 073f c48c da3e 3e6b ea3d 5f17 9c3b
000000f0: 5011 65be 87d4 1cbf 29ff 5dbe 450c 8c3e
00000100: a33d cb3e 7d2b 8f3e 6703 57be a44a 99be
00000110: 36cb 79be c385 173d 850a dd3d ffe9 023e
00000120: c941 313e 644e b73b 4b34 cc3c 98bf 963e
00000130: a9a2 553e 832e 3a3e 6437 1fbe d686 eabe
00000140: e84d a3be 32e6 c2be dd95 5bbe 23c6 db3d
00000150: 6b80 b23d f41a 1a3e 068b c23d 53f4 c23d
00000160: bf57 813e b413 5f3e 4508 933e d082 693e
00000170: 55b7 753d 91af 0ebd 9ffa abbe 11e0 c8bc
00000180: 48fe 4f3d 7b1f b4bd b597 333c 6f12 cabd
00000190: 9567 2c3c 28dd 3bbd 3aff 76bd 9e2e 013d
000001a0: b7eb e03d ed03 513c 432f 593d e81a 603e
000001b0: ba9a 663e 4d31 8d3e 6267 7d3d 5ecf f8bc
000001c0: 7faf 11bd 42ef 1dbd f3e6 32bc a091 8ebb
000001d0: efb5 5abe 727d 04be f1f3 77bd d82a e5bb
000001e0: 5df3 44be 85c6 89be 5c16 43be 5b4e 8dbe
000001f0: 62ca 06be 68ea 673c 8c29 bfbc dde8 54be
00000200: da3a 24bd ef33 00bd abf7 1d3d 2fb2 093e
00000210: 2363 823d 1415 7d3e 3a00 39be bf2d 3f3e
00000220: cac9 af3d cc35 0dbe a1a7 ce3e fa57 19bd
00000230: c627 5ebe dfa3 49bd b131 c5be 5f8e 403d
00000240: aa45 66bd 7b6a dfbd 5350 52bd facb 66be
00000250: 9297 333e bf53 b1bd 6c09 0ebd 8ada 953d
00000260: 26da a13d c29d a43e 9b86 3a3e 7a71 3e3e
00000270: 2b07 b73d 1873 f939 b80b 5d3d 48b1 8dbe
00000280: 8c5a a0be fef7 d4bc 49a7 c3bc 0b8b 513d
00000290: 8c31 c9bd 0865 e9be bd2c 83be 9bd5 80be
000002a0: 958f c1bc f7d4 303d f2b0 93bd 42f2 46bc
000002b0: 26ac 09be db9a 2dbd a257 58be 7cf0 a0bd
000002c0: a7db 1b3e d5d0 b5bd 0a0f ba3d 9325 763d
000002d0: 20a2 90be fb82 e0bd 7e77 69be 08bf 09bd
000002e0: b36f c43d 5be5 5bbe 61ae 1dbe 6fb9 2bbe
000002f0: 669f b33d fe7a 5d3e faca f13e 9739 3c3f
00000300: d278 823e 9751 883e f24d b6bb d3a9 373d
00000310: 8368 863d 278a 80bd 11d6 1cbd f4c3 9ebc
00000320: d6c2 3bbe 1aea a63d e9cb 54bc 6a44 403d
00000330: 7f01 063e e5db f1bc e08e 833e 4202 7c3d
00000340: d610 333e 3483 f63d 9785 ecbd a962 5b3e
00000350: 8632 803d 2616 6d3b 9a5b 21be 06a8 a7be
00000360: 5efc 45bd 3056 71bd 5d2a ec3c 3ca2 6fbe
00000370: 04c2 aa3c cec8 253d 23d6 7c3d b944 a03d
00000380: 917a 31be b29c a7be 2ecf 42bd 7504 e63c
00000390: 6a12 9bbe 199d dfbd 1046 02be be2c f13d
000003a0: 53a3 103e e1e8 26be 5547 8cbd 2b2d 3cbe
000003b0: 8bad 33bd 20fd 98bd fe35 7bbd 9735 a8bc
000003c0: f7ff 17be 3050 bf3d 120b 793d 52a7 7ebd
000003d0: 3f0c 1bbd fa1f 463d 6cf8 ba3d 5504 2f3e
000003e0: ac1c 373e 305c 8a3d 69b7 04be 6c69 48bd
000003f0: 055a 68be b490 f93c bf6b c13e 9287 d8bc
0.12381713 0.108970754 -0.0066565033 -0.31034586 0.106319405 0.12162894 0.08735486 -0.02420703
-0.028064232 -0.08956942 -0.017910223 0.19184585 0.008571825 0.23407364 0.13445808 -0.21613519
0.011354463 -0.1525715 0.08086018 0.22345418 -0.08276872 -0.09551061 -0.23296385 -0.033633705
-0.1227557 0.04744935 -0.16211365 -0.075333305 0.032079697 -0.026560528 0.044103153 0.14142314
0.15541075 -0.0759426 0.002324427 0.035993155 -0.31119883 -0.15992668 0.057967316 -0.063575
0.18585368 0.057201754 0.0155088715 -0.092379384 -0.07159262 0.17787613 0.14096074 0.26698124
-0.027346168 -0.24489549 0.18261208 0.1033515 -0.29116908 0.14169973 -0.23776956 0.13017607
0.5306248 0.4268552 0.11446236 0.0047635282 -0.22369885 -0.6126179 -0.21679367 0.2735311
0.39695463 0.27962866 -0.20997392 -0.2993976 -0.24393925 0.0369928 0.10793022 0.12784575
0.17310251 0.0055940617 0.024927279 0.2944305 0.20862831 0.18181805 -0.15548474 -0.45805997
-0.31895375 -0.3806625 -0.21443887 0.10731151 0.087159 0.15049344 0.09499173 0.095192574
0.25262257 0.2178486 0.28717247 0.22803807 0.059989292 -0.034835402 -0.33589646 -0.024520906
0.05077961 -0.08795067 0.010961463 -0.09866797 0.010522743 -0.045865208 -0.060301997 0.0315386
0.10982459 0.012757284 0.053023588 0.21885264 0.22519961 0.27576676 0.06186617 -0.030372318
-0.035567757 -0.038558252 -0.01091932 -0.004350856 -0.21358465 -0.12938479 -0.060535375 -0.0069936328
-0.1923346 -0.2690927 -0.19051498 -0.27598843 -0.1316314 0.014155008 -0.02333524 -0.20791955
-0.040095188 -0.031299528 0.038566273 0.13446878 0.06366565 0.24715072 -0.18066493 0.18669794
0.0858341 -0.13790053 0.40362266 -0.037437417 -0.2169486 -0.049228545 -0.38514474 0.047010776
-0.05621878 -0.109089814 -0.051346134 -0.22538748 0.17538288 -0.086585514 -0.034676954 0.07317074
0.07902937 0.3215161 0.1821541 0.18597975 0.08936914 0.00047578732 0.053966254 -0.27674317
-0.31319082 -0.025997158 -0.023883479 0.051157992 -0.098239034 -0.45584893 -0.2562007 -0.25162968
-0.023628036 0.04317185 -0.07211484 -0.01214272 -0.13444576 -0.04238401 -0.2112718 -0.07858369
0.1522051 -0.08877722 0.090849 0.060094427 -0.28248692 -0.109624825 -0.22799489 -0.033629447
0.095916174 -0.21474211 -0.15398552 -0.16769956 0.08770637 0.21628949 0.4722517 0.73525375
0.25482804 0.26624748 -0.005563491 0.04483969 0.06562903 -0.062763505 -0.038290087 -0.019380547
-0.18336043 0.0815012 -0.012988069 0.046940245 0.13086508 -0.0295238 0.25694942 0.06152559
0.17486891 0.12036744 -0.11548918 0.21424355 0.062596366 0.0036176532 -0.157576 -0.3274538
-0.04833638 -0.058920085 0.028828794 -0.23401731 0.020844467 0.040474705 0.061727654 0.07825608
-0.17331912 -0.32736737 -0.047560863 0.028078297 -0.30287486 -0.10918636 -0.12722039 0.11776112
0.14124803 -0.16299774 -0.06849543 -0.18376605 -0.043866675 -0.07470155 -0.061330788 -0.020533366
-0.14843737 0.093414664 0.060801573 -0.062171288 -0.037853476 0.04837034 0.09129414 0.17091496
0.17882031 0.067558646 -0.1296059 -0.048928663 -0.2269059 0.030464508 0.37777516 -0.026431832

conv11.bias f4 [32]
00000000: 5014 11bd dacf 583c 7508 0c3c 674a fabd
00000010: 2774 d2bd 4c39 12bd 13de 3abe d881 ac3c
00000020: 0321 2e3e 30ea 353a a16f 92bc 0a80 7f3d
00000030: 1fb9 b63c 1ff1 8abd 591e b23d dcdc 463d
00000040: 59e8 293d 54c2 e2bb 5e7b 2fbe d5c3 94bc
00000050: 0237 a23b a34a 3b3e c26f 26bd 4fe8 453d
00000060: 0b4d 343d 6374 f2bb a549 ce3d ce66 04be
00000070: 9f9f 7abd 5eb4 3e3e fc3f 723d 2407 473d
-0.035419762 0.013233149 0.008546938 -0.12221222 -0.102760606 -0.035699174 -0.18248777 0.021058008
0.1700478 0.00069394987 -0.017875494 0.062377967 0.02230507 -0.067842714 0.086971946 0.04855047
0.04148135 -0.0069201384 -0.17136905 -0.018159786 0.004950405 0.1829019 -0.040633924 0.04831725
0.044018786 -0.0073991283 0.1007264 -0.12929842 -0.061187383 0.18623492 0.05914305 0.048590794

batch1.weight f4 [32]
00000000: d1c8 7c3f 6e0d 6e3f 6118 7e3f 0f52 7b3f
00000010: 0b0a 743f e431 833f 6c46 803f 6cf0 7a3f
00000020: 12b3 733f 5439 7c3f d9d4 693f 2d76 843f
00000030: 677c 883f 300a 9a3f 8fd7 663f 2d79 773f
00000040: a47f 8a3f c508 703f 58b7 7d3f 3441 6e3f
00000050: 5b40 633f d1a1 733f db93 833f 9427 843f
00000060: 9b44 793f 041d 573f 1eda 823f c599 783f
00000070: 34f0 603f 2ec4 553f 13fa 8b3f 1d8a 6b3f
0.9874392 0.9298924 0.9925595 0.98172086 0.95327824 1.02496 1.0021491 0.98023105
0.95195115 0.98524976 0.91340405 1.0348564 1.0662965 1.2034359 0.90172666 0.96669275
1.0820203 0.9376338 0.99107885 0.9306824 0.88770074 0.9516879 1.0279497 1.0324578
0.9737031 0.8402865 1.0222814 0.97109634 0.8786652 0.8350247 1.0935692 0.9200762

batch1.bias f4 [32]
00000000: 0da9 cabe 6aae 9dbe fe70 ebbe 40b9 dcbe
00000010: 5efc bfbe 4c02 bbbe e14a a8be 07ac fdbe
00000020: 3754 96be 78d2 debe 38ce a4be bad6 b3be
00000030: 8529 a2be 7fce 71be 541c 81be c7df a9be
00000040: d395 7ebe bf01 8fbe e3c9 1dbf 8dce 04be
00000050: fa50 a4be 02a1 97be a918 f4be e785 abbe
00000060: 44b8 e8be efd6 97be 12db 3bbe 3216 96be
00000070: c6f9 bfbd 47dd b3be eff9 7bbe 2711 a1be
-0.395821 -0.3079713 -0.45984644 -0.43110085 -0.37497228 -0.3652519 -0.32869628 -0.4954531
-0.29361126 -0.4351995 -0.32188582 -0.3512476 -0.31672302 -0.23613928 -0.25216925 -0.3317854
-0.24861841 -0.2793102 -0.6163618 -0.12969418 -0.3209303 -0.29615027 -0.47675064 -0.33500597
-0.45453084 -0.2965617 -0.18345287 -0.2931381 -0.093738124 -0.3512976 -0.24607061 -0.314584

batch1.running_mean f4 [32]
00000000: d3ee 1a3f 53d5 983e f7c7 60bd 638d 29bf
00000010: f44c 473e 7f2f 9ebf b59d 0b3f fb95 70bf
00000020: 1a14 6c3f ae39 14bf 3230 05be 7f67 2fbe
00000030: ea43 873f 71e7 8dbe 616a 613e 4f96 a0be
00000040: 2c03 11bf 60b3 493f 6c70 943d 159d 903f
00000050: 61a9 e9bd 3d58 843c 94c6 b2be b700 aabe
00000060: 7a43 c4be 0a0d efbe f257 7a3e 5521 5d3e
00000070: 45be 9abd ab57 06bf fd76 083d 0c67 a3bc
0.60520667 0.29850253 -0.0548782 -0.66231364 0.19462949 -1.2358245 0.54537517 -0.9397885
0.9221817 -0.5790051 -0.13006666 -0.17129324 1.0567601 -0.27715638 0.22013237 -0.31364676
-0.56645465 0.7878933 0.07248005 1.1297938 -0.114092596 0.016155357 -0.34917128 -0.3320367
-0.3833273 -0.46689636 0.24447611 0.21594746 -0.07555822 -0.5247752 0.0333166 -0.019946598

batch1.running_var f4 [32]
00000000: 1272 953f 4a34 fd3f c60f 603f 53c4 1d3f
00000010: 3d5a 753f 3bca 2640 6a4f 9d3f c5b6 c03f
00000020: 522d 2e40 6f96 da3f 82ec bd3e 1efc 283f
00000030: 7cd8 5b3f a818 743f cd02 9d3f 636e f13f
00000040: b144 2940 b3e5 1f40 b1ea 3b3f a69b 993f
00000050: 3c07 783f a66b fc3e 36de a83f 762d 8b3f
00000060: 844a 703f 2d29 fc3f bba0 e13f 8865 633f
00000070: 3f69 0040 5d8e 9d3f ce8a 983f ca25 a93e
1.1675436 1.9781582 0.8752407 0.6162769 0.9584082 2.6060932 1.228986 1.5055777
2.7215161 1.7077159 0.37094504 0.660097 0.85877204 0.9535012 1.226648 1.8861812
2.6448176 2.4983947 0.73404986 1.2000625 0.9688604 0.4930088 1.3192813 1.0873249
0.938637 1.9700066 1.7627176 0.888268 2.0064237 1.2309071 1.191736 0.33036643

conv2.weight f4 [64, 32, 5, 5]
00000000: 49a8 393e 7de3 fc3c 3726 3cbd 8cc6 14bd
00000010: 6b38 febc f72f 8c3d 08a6 f5bd f8c9 a0be
00000020: f54e 08be 0d5e 1b3e f034 3a3e a8b5 623e
00000030: 2a34 b13d 6753 acbd 526f b7bd d3e9 1bbc
00000040: 5569 343e 4a74 0e3e 7fa9 98bd 0d0b 65be
00000050: a28f ab3d f2be 663d 135c 803e c9d1 523e
00000060: a75d c6bd 4476 b43e c5c8 fa3e 2dae 81bb
00000070: 7be3 09bc 434b 04be 3c7c d43e a986 ce3e
00000080: 7439 92bd 7081 19bc c691 1fbd 4ebe e53e
00000090: df71 5e3e afd1 15be 5976 48be c6e3 2cbe
000000a0: 1ee1 e43e 81ed 8a3e 817b 583b e863 a5bb
000000b0: 2223 2ebd 2465 f83d d03f 8c3d 22af f5bd
000000c0: 564e 163d 08d7 2a3d 20f4 9e3d c74e f93c
000000d0: 66cd f5bd c823 12bc 88c0 2dbe c5da f43b
000000e0: f042 583c ac34 9ebe c570 d8be fa18 fabd
000000f0: 529f cf3d f9a7 173d 3bd3 abbe ef6a 80be
00000100: 5523 d63c 0096 65bd 05bc 44bd 0ab6 a3bc
00000110: 4cfb 1f3d 9f43 323e 0333 f2be c987 12be
00000120: 2256 02bd ae1e f6bd ab70 6f3d 22dd a3be
00000130: 77d3 2fbe dfd4 c9be 2b01 c4be 3ddc 63be
00000140: 2794 bfbe c0e1 89bd f65d 2fbe 0a43 72be
00000150: 4630 0bbd 99d5 36be fda4 4f3d 75c0 20be
00000160: 585c 43be 2ab5 6abc f05b 19be 5c47 823d
00000170: 2a53 c0bd 2989 12bc 9b97 623e 5f3d 0abe
00000180: f731 9d3d 1c40 dfbd 7015 0ebd 441c 853d
00000190: 3974 053e 008a 613d f18b de3d 659b 313e
000001a0: 50be d53d 4b42 49bc edfd b93c 3214 82bd
000001b0: 0baa 973d b3bf 063d 8b0d 22be aab4 17bc
000001c0: 8653 9bbd bb9f 09be c68f 59be b1e6 193c
000001d0: a2b6 da3d e603 a83c fb8a 92bd 63f0 d2bd
000001e0: 0955 e23c 5a3f 093d 380e 513c 99ea 9a3d
000001f0: 7bb3 583d 41c2 61be 33b1 7abd 81c6 39be
00000200: 5184 4cbe 8001 14be 9e5c 25be 2272 88bc
00000210: 7bae bebd ed09 df3b 4f3f fbbb a71b 2d3e
00000220: b2c7 54bc 91cb 0bbe ffd6 723d 908c e03d
00000230: c8e2 513e 2786 aabc 9a28 f8bd 42c0 9b3b
00000240: 398d 28bd 59c1 883d a476 06bc 5ace 703c
00000250: 098f cdbc 06e8 b2bc a1a7 23bf df0b bdbe
00000260: 4b08 63be c8d5 eebe 74ac 5dbe fa39 a9be
00000270: dea5 3d3d 2472 1b3e 5445 febd 3b54 acbd
00000280: 131f c5bd 2b67 ed3e 7261 913e afb4 ca3d
00000290: 4550 38bc 6392 57be 0830 6f3e 4634 df3d
000002a0: cab9 fd3b 016b 84bc a922 41be ceaa 313e
000002b0: 8b51 4e3e 5750 113d 52e8 e43d fbdd 943e
000002c0: d68b 253e 7fcb e8bd 2876 4abe 963f 5bbe
000002d0: c975 9dbd 4cac 6e3d 37bd b53d e3f7 7d3c
000002e0: 3223 06be d863 aebe 563f a9be 3b68 6bbe
000002f0: 2d47 16bc 2afe f13c b2d3 5a3e 9e9c 263d
00000300: 849a 02be 8623 923d 65c8 5f3e 635c 0f3e
00000310: 9f66 e13d 8002 d4bd 805e c73c 59d4 4a3e
00000320: 632c 8dbe b389 51be 9ce9 7cbc 3b28 3d3d
00000330: f0e5 b53d 24da 87be 1340 b8bd 57c1 273b
00000340: dbf7 a23d 1dbb 4b3e f7bb 3bbe d41d e63d
00000350: 3345 383e 7cb0 363e 5a73 393e 9fb0 51be
00000360: bad7 9abd f49f a33b 21b4 21be bae6 9cbe
00000370: b93e 80be a7b9 89be 8002 cdbd fae4 b8bd
00000380: 8760 23be 5fab de3d cef8 3f3e 489e 523d
00000390: f472 983d 0ef6 eebc 788c 703e 0274 5c3e
000003a0: 4022 4e3e f901 223d 89d0 e4bd 2a4e 803b
000003b0: 375d 4ebd 6724 efbd f448 8fbe e3e7 37be
000003c0: c8de f6bd c470 4ebe e2d8 6dbd b6a9 083d
000003d0: 931b 403e a59b 79be 1a99 87be 125d 763e
000003e0: cac1 c43e 1bc9 ae3e d006 3d3e 5a9f 8a3c
000003f0: e94d 4a3e 393f 393e e0ad 503d 4457 d5bd
0.18130602 0.030870194 -0.045934882 -0.03632216 -0.031032762 0.06845086 -0.119945586 -0.3140409
-0.1331137 0.15172596 0.18184257 0.22139609 0.08652528 -0.08414345 -0.089567795 -0.009516197
0.17618306 0.13911548 -0.07454204 -0.22367497 0.08377005 0.056334443 0.25070247 0.20587839
-0.096858315 0.3524648 0.489813 -0.003957531 -0.008416052 -0.12919335 0.41501033 0.40337113
-0.071398646 -0.009369239 -0.03895738 0.44871753 0.21723126 -0.14630769 -0.19576396 -0.16883764
0.44703 0.27134326 0.0033032598 -0.00504731 -0.042513974 0.12128666 0.06848109 -0.119962946
0.0366958 0.041708976 0.07761407 0.030433072 -0.12002067 -0.008919664 -0.16967976 0.0074723684
0.013199553 -0.3089956 -0.42273536 -0.12211795 0.1013781 0.037025426 -0.33559594 -0.25081584
0.026139895 -0.056051254 -0.048030872 -0.019984264 0.039058015 0.17408608 -0.47304544 -0.1430961
-0.031820424 -0.120175704 0.058457058 -0.32004648 -0.17170511 -0.3942022 -0.3828214 -0.22251983
-0.3741772 -0.067325115 -0.17125687 -0.23658386 -0.033981584 -0.17854919 0.050694454 -0.15698417
-0.19078195 -0.014325419 -0.14976478 0.06361267 -0.09390862 -0.008943834 0.22128145 -0.13499974
0.07675546 -0.109009 -0.034688413 0.06499532 0.13032617 0.055063248 0.108665355 0.17344435
0.1043669 -0.012283872 0.022704089 -0.06351508 0.0740548 0.032897662 -0.15825479 -0.009259382
-0.0758429 -0.13439839 -0.21246251 0.00939338 0.10679366 0.020509671 -0.07155415 -0.102997564
0.027628439 0.033507682 0.012759738 0.07564277 0.05290554 -0.22046758 -0.061204147 -0.1814213
-0.1997235 -0.14453697 -0.16148612 -0.016655985 -0.09310623 0.006806603 -0.007667459 0.1690508
-0.012987064 -0.13651873 0.059287068 0.1096431 0.20496666 -0.020815922 -0.12117119 0.0047531435
-0.041150305 0.06677503 -0.008206997 0.014697636 -0.025092619 -0.021839153 -0.63927656 -0.3692312
-0.22171132 -0.46647477 -0.21647817 -0.33052045 0.04630076 0.1518026 -0.12415567 -0.08414503
-0.096250676 0.46367773 0.28394657 0.09897744 -0.0112496065 -0.21051936 0.23358166 0.10898642
0.007743095 -0.016164305 -0.18860878 0.17350313 0.20148294 0.03547701 0.11177124 0.29075608
0.16166624 -0.11366939 -0.19771636 -0.21410975 -0.07688481 0.058269784 0.088739805 0.015500995
-0.13099363 -0.3406055 -0.33056134 -0.2298898 -0.009172243 0.02954014 0.21369818 0.040676706
-0.12754256 0.07135682 0.21853788 0.14000086 0.110059015 -0.10352039 0.024337053 0.19807567
-0.27572927 -0.20462684 -0.015436556 0.046180945 0.08881748 -0.26533616 -0.08996596 0.0025597417
0.07957431 0.19895597 -0.18333422 0.11236158 0.17995147 0.17840761 0.1811041 -0.20477532
-0.07560678 0.004993433 -0.1579137 -0.3064478 -0.25047854 -0.26899454 -0.100102425 -0.09028049
-0.15954791 0.1087253 0.18747255 0.05142048 0.074438006 -0.029170062 0.23491085 0.21528628
0.20130253 0.039552663 -0.111725874 0.003915568 -0.050381865 -0.11676865 -0.27985346 -0.17959552
-0.12054211 -0.20160204 -0.058068164 0.033364974 0.18760519 -0.2437578 -0.26483995 0.24058941
0.384291 0.34137806 0.1845963 0.016921688 0.19756283 0.18090524 0.05094707 -0.10417035

conv2.bias f4 [64]
00000000: 2d05 643e 34c6 afbe 230a 863e f922 403e
00000010: 12d6 773e d10d 8ebd e1e3 06bf fc0b 333c
00000020: 1637 2e3e 6618 99be 548d 983b 1dff 87be
00000030: f69d 1c3e fe1d 913e aafd 053f 9763 58be
00000040: f2d6 bcbd 6b96 45bd 2b6b 59bb df89 933d
00000050: 659e 0abe 7347 9e3d d230 083e 7bf9 48be
00000060: e0ea 493e 41b3 a13e eb7c 80bd 259f 94be
00000070: d543 0f3e dab3 28be fe34 fa3d 64c9 0c3d
00000080: fb3f 02be d82e 383d 47a3 29bd adae 883e
00000090: 8350 d0be f7f0 873d c13d cbbe eb2b 0fbe
000000a0: 96b7 aebe b829 573e 8487 1a3e 9197 5f3e
000000b0: 9e5d 303d 1f35 573e c53c 0a3e 7990 38be
000000c0: 7b06 8b3e 0108 b73d 58e7 963e 179d 373d
000000d0: 6f2a 193e 3aa3 18bd 73ad a13d c440 07bf
000000e0: 54ae 0e3f 370f 3c3e e2d5 2ebe 8cdc 273d
000000f0: e473 ee3c f532 313e 5477 0dbf e26a 613d
0.222676 -0.34330904 0.2617961 0.18763341 0.24202755 -0.06936229 -0.52691466 0.01092815
0.17013201 -0.29901427 0.0046555195 -0.26561823 0.15294632 0.28343195 0.52340186 -0.2113174
-0.09220685 -0.048239153 -0.003317545 0.07204031 -0.13536985 0.077284716 0.13299873 -0.19626419
0.19718504 0.31582072 -0.06273826 -0.29027668 0.1399072 -0.16474858 0.12217139 0.03437175
-0.12719719 0.04496655 -0.04141548 0.26695767 -0.40686426 0.06637757 -0.39695552 -0.13981597
-0.3412444 0.21012008 0.15090758 0.21835162 0.04305803 0.21016358 0.13499744 -0.18023862
0.27153382 0.089370735 0.29473376 0.044827547 0.14957593 -0.03726504 0.07894411 -0.528332
0.55734754 0.18365179 -0.17073777 0.040981814 0.029107995 0.17304595 -0.55260205 0.055033572

conv22.weight f4 [32, 64, 5, 5]
00000000: 84d2 c4be 0691 9cbe 0549 5cbe 3eca 91be
00000010: 0b8a d83e 7808 85be 9fe1 61be a817 9fbd
00000020: 04f4 523c d93e c63e 9ea2 443d 4776 073e
00000030: 326f 493e 9181 ea3d b558 a83e afd8 083e
00000040: ab20 f63e fac6 7f3e 3407 a0bd bfbf 733d
00000050: 384b 803e e524 ca3e 5fb8 233e 7c64 d7bd
00000060: 0ff2 a53d 0929 7a3d 4b0f ba3c 5093 9c3c
00000070: 3a84 953d a8cb e93d ab30 bfbc 72b9 2e3c
00000080: 8f76 27bd 9c06 01bd a499 98bd adae 8e3d
00000090: ab38 583d 4846 863c 0eb2 cb3d 04b0 ed3d
000000a0: c0db 4a3c df83 373d 7cad 703d aafa 7f3d
000000b0: 93a3 fbbc dc74 71be 5f1b acbc 72d6 e83d
000000c0: d881 843d d23e b03c 7e16 623e a4c9 573e
000000d0: cdc4 4e3e d717 0c3e d6a5 ce3d 9883 3f3d
000000e0: f009 283e 5dba e03d 7e0d a4bc d4b1 bf3c
000000f0: 43c6 3fbe 6c58 59be 7ca2 90be 71e2 b9be
00000100: 53af d2bd 9433 97be b6e5 2bbe 147a 1bbe
00000110: 35b3 1c3c 7381 2d3e acf6 f0bd 4405 d43c
00000120: 2d0b 753c 20c8 143e 7f07 733e 2a64 493e
00000130: 6fb4 4d3e d5a1 033e d872 c83b 34e0 e2bc
00000140: a353 90bd bff2 8cbe 774c 89be b73e 21be
00000150: 02ee 97bd 6bda 4abe 39b1 44be 587d 0dbd
00000160: af6d 893d a2b3 bc3d 6bf6 4a3d 4a9d cabc
00000170: 4b3b 023d 3d26 c33d eea4 683d 1434 f2bd
00000180: 9841 4bbe 3ca3 dabd 6995 fc3c fbfa 9bbc
00000190: 8410 1fbe 44e1 913d 13f2 17be b649 5cbe
000001a0: 8a93 91bd 9bcb aabd b5e2 893e 06e5 8d3e
000001b0: b457 903e 2570 8b3e a96a d03d cad1 ab3e
000001c0: a418 3a3e 5c0c 6e3d 9872 9bbe d887 c93d
000001d0: b074 13bd b092 bcbe 26d4 c1be 6bb3 22bf
000001e0: 0506 12be 0515 8abe 4d42 0fbf fbe8 ccbe
000001f0: 9e0a e2be 4331 e4be 7e0b b1be a0c4 84be
00000200: 411d 2dbe 68ab a33c 5e2a 22be 780c 42be
00000210: 0c3f 84be 5a0e bdbd 6f79 a63d 3c13 af3c
00000220: d9a7 95bd 117b 173d aa3d c23d 6aad 7a3e
00000230: bb0a 703e bc98 163e 2bd3 c63d 880f 83bc
00000240: 2aec 083e 8336 993e 8b94 ed3d bd39 02be
00000250: 0e14 59be ca53 3abc 7633 7cbe dc35 b8bd
00000260: 7483 22be 6f5e 853d 6d98 42be a5cd 47be
00000270: 13c9 20bc 60cc 153d c446 a73e 35f1 a03d
00000280: e55d 643e 929f 523e 996b ea3d f5d6 813e
00000290: 2863 6f3d 1c3b a93e b740 133c 05ad 49be
000002a0: 0575 1fbd 5355 6fbe de6d bf3e ed15 8b3d
000002b0: 2934 46bd 2b1b b4bc 1294 6fbe 19c5 4bbe
000002c0: 4b22 a73c 0cff af3a c0bb 183d 5371 a73d
000002d0: 1554 b7bd 33cb ba3c 7b3c 7ebd 662d b6bd
000002e0: d891 60be dc0d 88bd b7d6 d1bd 876e 57be
000002f0: c479 24be 6551 81be f226 d4bd 88b3 56be
00000300: f115 86be fa37 34be bb37 36be 8798 34be
00000310: b3ba 63be 39a1 92be 282f 30be 64c9 e5bd
00000320: 8243 5ebb 94fe b13c 532c 643e 0be9 e23e
00000330: 3074 563e f569 363d c9da e43c 1e75 abbc
00000340: 9151 91bd 2aef 0dbd 85b8 943d 7bed c13c
00000350: e9dd f93c 1cfa 113e 749f 4f3c 2467 a23d
00000360: 837c 0ebe 2920 68be 2826 afbd 8e15 92be
00000370: 32f3 abbd aa2e 26bd 9d8c 1c3c 3ebf a13e
00000380: 5f6e 1d3d 500f 05be b975 17bd 805b efbd
00000390: 8328 5cbd 6ed4 17be 3c27 fa3d 7bc7 183e
000003a0: fb71 833d ad8e 1a3e 5508 093d e56e 4c3e
000003b0: eac1 143e 0061 ad3d 1d48 5e3e 0e2a 4a3e
000003c0: cb17 543e 3350 963c 8922 5cbd 5c76 8d3d
000003d0: ff6f f63c 2731 263e cae6 773c a85e b0bd
000003e0: 5081 be3d 6893 e33c 18d1 6dbe d23c 54bc
000003f0: 4844 5f3e b7f2 63bd 2e1f 873e 925a cc3c
-0.3844186 -0.30579394 -0.2151223 -0.2847461 0.42292818 -0.25983024 -0.22058724 -0.07768184
0.012875561 0.38719824 0.048006646 0.13228713 0.19671324 0.11450494 0.32880178 0.13363908
0.480718 0.24978247 -0.07813874 0.059509035 0.25057387 0.39481273 0.159883 -0.10517213
0.0810281 0.06107429 0.02271237 0.019113213 0.07300611 0.114157975 -0.023338636 0.010664331
-0.04088455 -0.031500444 -0.074511796 0.069669105 0.052788418 0.016390935 0.099460706 0.11605838
0.012381494 0.044803496 0.058759198 0.06249491 -0.030717647 -0.23579735 -0.021009145 0.11369027
0.06470078 0.02151433 0.22078893 0.21073014 0.20192261 0.13680969 0.100902244 0.046756357
0.16410041 0.10973046 -0.020025965 0.023400225 -0.18727975 -0.21225137 -0.28248966 -0.36305574
-0.10287347 -0.29531538 -0.16786847 -0.15183288 0.009564211 0.16943912 -0.11765799 0.025881417
0.014956278 0.14529467 0.23733328 0.19667116 0.20088361 0.12854703 0.006117206 -0.027694799
-0.070472024 -0.2752895 -0.2681615 -0.1574658 -0.07418443 -0.19809882 -0.1920823 -0.034543365
0.067103736 0.0921395 0.04955141 -0.024733204 0.031794827 0.09528778 0.056797914 -0.11826339
-0.19849241 -0.10675666 0.030832963 -0.019040575 -0.15533644 0.07123044 -0.14838438 -0.21512493
-0.07108219 -0.08339616 0.26930776 0.27713794 0.28191912 0.27233997 0.10176594 0.33558494
0.18173462 0.058117256 -0.30360866 0.09840363 -0.035999954 -0.36830664 -0.3785717 -0.6355502
-0.14260109 -0.26969162 -0.5596054 -0.400215 -0.44148725 -0.44568834 -0.3457908 -0.25931263
-0.1690569 0.019979194 -0.15836474 -0.18950069 -0.2582935 -0.09231253 0.0812863 0.021371476
-0.07307405 0.0369826 0.09484418 0.24480215 0.23441593 0.14706701 0.09708246 -0.015998617
0.1337134 0.29924402 0.11600598 -0.12717338 -0.21199057 -0.011372516 -0.24629006 -0.08994648
-0.15870458 0.065121524 -0.19003458 -0.19512041 -0.009813565 0.03657186 0.32671177 0.078585066
0.22301443 0.20568684 0.11446304 0.25359312 0.058444172 0.3305291 0.008987597 -0.19694908
-0.038929958 -0.23372392 0.3738851 0.067912914 -0.048389588 -0.021985611 -0.23396328 -0.19899406
0.020402094 0.001342745 0.037288427 0.08175912 -0.08951584 0.022801971 -0.062069397 -0.08895378
-0.21930635 -0.066432685 -0.10246032 -0.21038257 -0.16062075 -0.25257412 -0.10358991 -0.20966923
-0.26188615 -0.17599478 -0.17794697 -0.1763631 -0.22239189 -0.28638628 -0.17205489 -0.11220053
-0.003391475 0.021727838 0.22282533 0.44318423 0.2094276 0.044534642 0.027936356 -0.02092987
-0.07095636 -0.034651913 0.07261757 0.02367281 0.030501323 0.14255565 0.012672294 0.07929829
-0.13914685 -0.22668518 -0.085521996 -0.2853207 -0.08395995 -0.040571846 0.009555009 0.3159122
0.038435336 -0.12994123 -0.036977503 -0.11687374 -0.053749572 -0.14827129 0.122145146 0.14919846
0.064182244 0.15093489 0.03345521 0.19964178 0.14527097 0.08465767 0.21707197 0.19742605
0.20712201 0.018348789 -0.053743873 0.06907341 0.0300827 0.16229688 0.015130708 -0.08611804
0.09302008 0.02778025 -0.23224294 -0.012953954 0.21803391 -0.055651393 0.26390976 0.024945531

conv22.bias f4 [32]
00000000: 62f9 323c cc3b 893c 24da a0bc 3cd6 fa3b
00000010: ba12 7ebc 5d78 6d3c cde3 0dbc a9bd 973c
00000020: 803e ab3c 0473 6cbc 0ecd 8dbb af70 9b3b
00000030: 548a e0bb 564f 803c 7247 063c 3196 99bb
00000040: e117 c0ba bc7a 843c cbdf 4eba 388b 30bc
00000050: 213d b1ba 971f 273c 833c d3bc fe21 bb3c
00000060: db86 643c 425d 77bc bb49 74bc bca4 933c
00000070: 288f e1bb 8fbc 6dbb 7fa3 4e3c be18 123c
0.010923715 0.016752146 -0.019635268 0.0076549333 -0.015507394 0.014494029 -0.008660269 0.018523054
0.020903826 -0.014431719 -0.004327423 0.0047436575 -0.0068524275 0.01566283 0.008195745 -0.0046870937
-0.0014655554 0.016171806 -0.0007891624 -0.01077538 -0.0013522246 0.010200403 -0.02578569 0.022843357
0.013948168 -0.015097918 -0.014910157 0.018022887 -0.0068835206 -0.003627572 0.012612223 0.008917032

batch2.weight f4 [32]
00000000: 3fde 803f f163 4d3f 2f24 653f 8443 6c3f
00000010: 2b62 3e3f 9f20 863f ad3b 613f 3b89 573f
00000020: 9fdd 783f 1c81 4f3f b3c4 843f 9d35 613f
00000030: 3e3b 5d3f ac0c 523f fb92 743f 4545 293f
00000040: 7ab1 813f 9481 663f 14d2 4d3f 93b9 5a3f
00000050: dfe8 8a3f 6efa 243f 6fc5 4d3f 7aa0 873f
00000060: 2195 5f3f 3aa4 6e3f 8c27 813f 55a0 733f
00000070: d787 553f 5aa1 473f b708 1f3f 8598 7e3f
1.0067824 0.80230623 0.89508337 0.9229052 0.7436854 1.0478705 0.87981683 0.8419377
0.97213167 0.8105638 1.0372528 0.8797243 0.8641852 0.82050586 0.95536774 0.6612132
1.0132287 0.9004147 0.8039868 0.85439414 1.0852317 0.64444625 0.80379385 1.0595849
0.8733693 0.9321934 1.0090194 0.9516652 0.834104 0.7798058 0.6212267 0.99451476

batch2.bias f4 [32]
00000000: 7a8f 1ebf 6a75 eabe a20d 10bf fe6c f5be
00000010: 19af 04bf 717a 41bf 9b13 d8be ac9f ebbe
00000020: d776 1cbf d504 10bf a717 35bf b25d 06bf
00000030: 90f7 29bf 5f11 11bf fcb0 06bf 83b3 cbbe
00000040: 4d60 21bf 0118 30bf 28df 05bf 0a80 03bf
00000050: 9df2 3ebf 3982 8ebe b019 28bf d225 3ebf
00000060: 334c 11bf 2c0c 17bf 54a5 2bbf b1a7 1ebf
00000070: 083d 19bf 7617 35bf e36c 58be 9f05 1fbf
-0.6193768 -0.45792705 -0.562708 -0.47934717 -0.5182968 -0.75577456 -0.42202458 -0.46020257
-0.61118835 -0.56257373 -0.70739216 -0.5248672 -0.66393375 -0.5666713 -0.52613807 -0.39785394
-0.6303757 -0.6878663 -0.52293634 -0.5136725 -0.7458895 -0.27833727 -0.65664196 -0.7427646
-0.56756896 -0.5900295 -0.67049146 -0.61974627 -0.5985875 -0.70738924 -0.21135287 -0.6211795

batch2.running_mean f4 [32]
00000000: 5578 36c3 9eca e2c2 b7cd d4c2 485e 1ec3
00000010: 1b92 8ac2 6313 3ec3 f394 0fc3 dd07 24c3
00000020: e657 21c3 a021 3ec3 f489 53c3 21ec 48c3
00000030: 78c0 51c3 ea63 e3c2 f968 39c3 e232 5742
00000040: 77e0 4ec3 6e77 16c3 34cd 50c3 57cb 15c3
00000050: f47b 70c3 7f42 f0c2 ed4c d7c2 ecdd 5ec3
00000060: 56ad 58c3 a1c8 4ec3 c381 3fc3 20d7 4bc3
00000070: 1c0e b7c2 9eed 07c3 0509 6cc2 5a6c 5ec3
-182.47005 -113.39574 -106.40179 -158.36829 -69.28536 -190.07573 -143.58183 -164.03072
-161.34335 -190.13135 -211.53888 -200.92238 -209.75183 -113.695145 -185.41005 53.79969
-206.87682 -150.46652 -208.80157 -149.7943 -240.48419 -120.129875 -107.650246 -222.86688
-216.6771 -206.7837 -191.50688 -203.84033 -91.52756 -135.92819 -59.00881 -222.42325

batch2.running_var f4 [32]
00000000: d2dc 7047 af37 da46 6c17 1a47 de6e 7347
00000010: adac 1747 3ce6 3a47 4dcb 5647 5445 2947
00000020: 2859 3447 730d 2a47 3408 5347 0cd2 2e47
00000030: 08a9 2347 9a5e 0347 37ce 4947 6edb d546
00000040: 786c 8247 ce61 0047 10dc 3847 4ce2 0c47
00000050: acb2 8647 3147 1347 5e5b e246 3a06 4e47
00000060: 8ba6 3447 1297 4f47 3294 6747 ad15 4947
00000070: cdbe fd46 7cbc d446 5f55 2447 b4af 7447
61660.82 27931.842 39447.42 62318.867 38828.676 47846.234 54987.3 43333.33
46169.156 43533.45 54024.203 44754.047 41897.03 33630.6 51662.215 27373.715
66776.94 32865.805 47324.062 36066.297 68965.34 37703.19 28973.684 52742.227
46246.543 53143.07 59284.195 51477.676 32479.4 27230.242 42069.37 62639.703

conv3.weight f4 [16, 32, 5, 5]
00000000: c604 c4bd 75b8 04bd 49f5 703e f209 a43e
00000010: a0a8 093e a592 25bd ebd8 853e 902d c43e
00000020: 3773 753e aac5 4b3d 9b9a 16be eb02 fa3d
00000030: 1d1e 863e e806 973e 7f11 a03e c6cf 6dbd
00000040: 75b9 073e a565 6e3e 4744 c63e 8ef4 103e
00000050: d938 803e d154 9e3e e0bd b53e a39a 0e3e
00000060: 850a febd 69f2 9a3e 90ae 10bc 5336 3cbd
00000070: d627 8d3d b2e7 ddbd 18bc 293e 0fe7 cbbb
00000080: a812 bbbb 9eb6 863e 3b32 68be 64cb 0f3e
00000090: 1b6e debd f8b3 57be 0b99 9f3d baf6 51be
000000a0: 7de7 a23d 60c4 eb3d fade 86ba 570f 38bd
000000b0: 838e e1be a10f 2ebd b601 613d 94c2 9d3c
000000c0: 9050 9f3c 949c 8bbe cc29 d93c 8199 693d
000000d0: 2a04 cb3d 18cc 8b3d 9941 84be 6ac3 25bd
000000e0: 64d5 c1be 27a3 12be 717f 2b3c 398b 71be
000000f0: e225 773d f842 18be ced2 8d3d 3824 183e
00000100: af5b a43d 053d 2d3d c1c4 46bd be17 f13a
00000110: 0feb 8cbc a98f 4b3d a12d 1e3e 5e73 283e
00000120: a0ef 033e 3c1d 403d bb44 933b cc9b 1bbe
00000130: d1b5 afbc 6966 48bd 1851 233d 63f5 1e3e
00000140: f652 873d b04b 85bc 2d9e 2fbd 0db1 22bd
00000150: 40df 853e 6b3f 443e 06b9 533e 0cc6 0a3e
00000160: 0639 8cbe 8c0e 12be 4049 9a3e c429 833e
00000170: 275c cd3e 1a21 ad3e a6fb dc3d 6696 08be
00000180: b605 bf3c 571f 8d3e bc90 c13e defe 803e
00000190: 8e84 7fbd 59da 52bd 3c82 46bc 14f8 cf3c
000001a0: d71d fc3d 9080 5e3e 82e3 18be 741d 07be
000001b0: 99e8 3abe 3784 8ebd 1184 153d 90b6 08be
000001c0: 6fe3 223e 5980 ed3d d9e4 e43c b6df a0bd
000001d0: 4840 82be 4496 88ba 8d10 23be 29e7 3ebe
000001e0: e57f 4cbe d584 9ebe 4876 89bc 9c1a 6bbe
000001f0: 28cd c2be caf7 1abe 535e dd3d 93a7 203e
00000200: e314 4fbd 1930 1abe 2b69 043e 3d39 943e
00000210: 7676 cf3d fa65 30be 3e79 97bc 26fb 24be
00000220: e277 febc c21a 2d3d 0622 c9bc 457b bd3d
00000230: 6e34 b0be 0d21 4cbe 5760 42bd b717 12be
00000240: d3f7 30be cdc6 d03d a595 c2bc d5cd 743d
00000250: 53e1 773c c020 b8bd 2113 34be f39d bfbe
00000260: b93c 2abc 91eb d33c 576d 6b3e 9c37 a7bd
00000270: 618a 2e3d ff1c bc3e b694 b73e 8296 8d3e
00000280: db81 233d 30fb 8e3e 7641 f13e 6d3d cf3e
00000290: c246 8c3e 317d 19bc 2498 083e b9c1 913d
000002a0: 41ab ea3c 1e66 90bd 6ca5 3c3d 3524 013e
000002b0: 05bd 64bc 5ff6 66be d40e babe 2aa5 16be
000002c0: 1d10 f53d 87f2 df3d c137 90be 0c62 09bf
000002d0: e771 3cbc 13aa 4e3e b28b 3b3e f2cd 7d3c
000002e0: 3396 d1be aeec 01be 9bf6 46bd 1a14 19be
000002f0: 5795 483d ca44 75bc d3f6 0bbd 4f0b 0b3d
00000300: d29b e93c 7ef8 973d b819 003e 1bb3 c8bc
00000310: ceea 8d3d 9c37 883e 2fe2 583e 9297 953e
00000320: 0efb cb3d c9ab d0bd 1b47 7c3d 3b30 d3bd
00000330: 196b b8be ba97 6a3e 456d 753d d0b2 52bc
00000340: 9db0 b0be ef4d c5be 9974 043e 6f96 b03d
00000350: 055c e6bd dac0 a5be 90d5 93be cf80 833c
00000360: 1b32 0ebe 4b21 62be 0a03 58be bd02 83be
00000370: 2c2e 1fbe 8756 8bbe c30e 9dbe 82e7 81be
00000380: 4b8c 53be 9b69 01be 636a 6f3d f40c a63d
00000390: a5fe b53c 814b 8c3c 4324 a8bd 1e06 0bbe
000003a0: e024 f9bd 2608 15be 477a 76be a6ca 01be
000003b0: b4eb 5bbe bddb 36be 6fc7 e23c 4bc2 b0be
000003c0: fb97 583d c0f3 d8bd dee0 eabd 9367 2f3e
000003d0: 5705 e5bd 11c9 0b3e ec88 19bc 018c 95bd
000003e0: 7ac7 8fbd f095 68be dd81 0cbe beed a83d
000003f0: b6b8 c03e 500b 903e c9c4 aabe 18c3 b5bd
-0.09571223 -0.032402474 0.23531069 0.32038838 0.13443232 -0.040423054 0.26142058 0.3831601
0.23969732 0.049749054 -0.14707415 0.12207588 0.2619485 0.29497457 0.31263348 -0.058059476
0.1325434 0.23280962 0.38723966 0.1415579 0.2504337 0.30924085 0.35496426 0.13926177
-0.1240435 0.3026307 -0.008830681 -0.045950245 0.06892364 -0.10835208 0.16575658 -0.0062226127
-0.005709011 0.263112 -0.22675411 0.14042431 -0.10860845 -0.21064746 0.077928625 -0.20504275
0.07954309 0.11512065 -0.0010289841 -0.044936504 -0.4405404 -0.042495374 0.054933272 0.019257821
0.019447595 -0.27267897 0.026509188 0.05703116 0.099129036 0.06826037 -0.25831297 -0.040469564
-0.37858117 -0.1432005 0.010467396 -0.23588265 0.060338862 -0.14869297 0.069249734 0.14857566
0.080253 0.04229452 -0.048527483 0.0018393917 -0.017201928 0.049697552 0.15447094 0.16450259
0.12884378 0.04690288 0.0044942773 -0.1519615 -0.021449002 -0.04892579 0.03987226 0.15523295
0.066076204 -0.016271442 -0.042875458 -0.03971963 0.2614689 0.19164817 0.2067605 0.13552111
-0.27387255 -0.14263362 0.3013401 0.25617802 0.4010937 0.33814317 0.10790186 -0.13338622
0.023318153 0.27562973 0.37805736 0.25194448 -0.062382273 -0.051477764 -0.012116011 0.025386848
0.12310379 0.2172873 -0.14930537 -0.13194829 -0.18252791 -0.06958812 0.0365029 -0.13350892
0.15907072 0.11596746 0.027941154 -0.078551695 -0.25439668 -0.0010420759 -0.15924282 -0.18642868
-0.19970663 -0.30960718 -0.016780034 -0.2295937 -0.38047147 -0.15133587 0.108090065 0.15688924
-0.05055703 -0.1505741 0.12930743 0.2894992 0.101300165 -0.17226401 -0.01849043 -0.1611143
-0.031063024 0.042261846 -0.024552356 0.092520274 -0.34415 -0.19934483 -0.047455158 -0.14266859
-0.17282037 0.10194168 -0.023752997 0.05976661 0.015129405 -0.089906216 -0.17585422 -0.37425193
-0.010390454 0.025869163 0.22990929 -0.081649035 0.042612437 0.36740872 0.35855645 0.2765389
0.03991876 0.27926016 0.47120255 0.40476552 0.27397734 -0.009368227 0.13339287 0.07117028
0.028646113 -0.07050727 0.046056196 0.12611468 -0.013961081 -0.2255492 -0.36339438 -0.14711443
0.11965964 0.1093493 -0.28167537 -0.5366523 -0.011501766 0.20182066 0.18315008 0.015490996
-0.40934905 -0.12687942 -0.048575025 -0.14949074 0.048970547 -0.014970014 -0.034170937 0.03394633
0.028516684 0.07420443 0.12509811 -0.024499467 0.06929551 0.26604927 0.21180032 0.292172
0.09959994 -0.101890154 0.06159125 -0.103119336 -0.3601921 0.22909442 0.05991866 -0.012860015
-0.34509745 -0.3853602 0.12935103 0.08622443 -0.1124802 -0.32373697 -0.28873873 0.016052632
-0.13886301 -0.22083013 -0.2109491 -0.25588027 -0.15544957 -0.27214453 -0.30675325 -0.2537194
-0.20658986 -0.12637942 0.058451068 0.08107939 0.02221615 0.017125847 -0.082100414 -0.13576552
-0.121652365 -0.1455389 -0.24070083 -0.1267496 -0.21476632 -0.17857261 0.027682988 -0.34523234
0.052879315 -0.105933666 -0.11468671 0.17129354 -0.11182659 0.1365092 -0.009371024 -0.07302094
-0.07020469 -0.22713447 -0.13721414 0.08248471 0.37640923 0.2813363 -0.3335326 -0.08875102

conv3.bias f4 [16]
00000000: 6d19 8dbe 0dfe 383f 7d7a f6be f30d 50be
00000010: 892e ecbe 083c 8fbe e1dd 073e 7fc9 ce3e
00000020: 8c42 f33d 040a bcbd 3727 e4bc bcfe 9abe
00000030: 34f9 283d 2449 733d 2820 12be 29c2 e83e
-0.2755846 0.7226265 -0.48140326 -0.20317821 -0.46129254 -0.27975488 0.13268234 0.40388104
0.11877927 -0.09181598 -0.02785073 -0.30272472 0.041253284 0.059395924 -0.14270079 0.45460632

conv33.weight f4 [8, 16, 5, 5]
00000000: a37b 95be 2c62 dcbd 3a63 a73e c314 973d
00000010: c73f 913d e208 6ebd c286 33be 4854 973e
00000020: 5682 be3e 3ba3 583e ccc9 b43d a9d1 69bd
00000030: 6b19 6abd af12 8c3d 2f87 5dbb 258c 593e
00000040: d1dc 123e fac7 903c 672b 5bbc 0245 f8bd
00000050: 214d 533e c28f cf3d 12cf 55be 3ec8 86be
00000060: a57c 01be 9514 40be cdf8 4ebe 5e6c 10bd
00000070: 8444 a2bd 5558 3e3e a207 723e 9cf7 f63d
00000080: 125f e63d d257 1a3d ea6e bb3d d3ef 343e
00000090: c4e1 063e 9624 6b3e 394e 443e dfbb 7fbd
000000a0: 0cfb 403e 2d57 7f3d 50bf 0cbe 1dbe a03e
000000b0: 59d7 5f3e 17bb 58be afc0 243e c693 b1bd
000000c0: 7797 653d 6bf9 863c d86e 513d f2f6 04be
000000d0: ca58 af3d 6b8a 823e 2863 c33c 6b48 543a
000000e0: 4bd7 57be 4e9c aebc 1e63 1dbd 2813 81bd
000000f0: fa09 b4bd c613 8bbe 42ec f53d b3bc b3bd
00000100: 6efc 413c 43c6 a03d b8b5 bb3c 7843 f73e
00000110: b4a9 943e 1c3d 503d 058d 343e 3948 ad3d
00000120: 89bd 393e c3b9 01be ff65 eebd 7da5 10bf
00000130: be68 5b3d cc03 683e d362 f6bd 2ee8 0cbd
00000140: 5c4b a43d 6b20 9d3e 692b 0b3d 28ba 0cbe
00000150: 3ee7 da3d 724b 3dbd 1107 883c 26cc 333e
00000160: 44eb 793e 481b 5c3e ab69 fabe d987 f8be
00000170: 948b 79bd c6d2 2c3e a973 263e cd2e c8be
00000180: c1b2 cdbe deb0 0dbe 4993 d03d 84f2 583e
00000190: 2ba2 30be d9c8 af3e 871d 75bd 9a6e 96be
000001a0: d552 2ebc d713 e8be 30ee bfbc b23d 9ebe
000001b0: 349b 29be bb70 e1bd 8183 59be 4652 5bbe
000001c0: 2a93 cdbe 1ca4 f93c ed52 0abe 6507 6c3e
000001d0: 8600 8b3d 2274 bebe 306f b33c 4556 163e
000001e0: cc41 6e3e 092e 853d c71b 2abe f700 7cbd
000001f0: ecd4 15bb 5ef3 9c3e 83f0 7e3e 208f b23b
00000200: 533e bcbd 49cd 44be 7a81 35bd 15ea 003e
00000210: e63f d63d 9288 daba dc4d cc3b 0a42 06bf
00000220: a95d 8abe 297b 5bbd d3af 08bd 6ee3 7bbe
00000230: e0ca 02be 70d3 55be b0e3 89bd 8c62 ac3e
00000240: a39f 593c fbcc 46bc aa77 12be 8e14 a7be
00000250: 6083 c73e d5cd 7c3e 1deb 10be 5937 adbd
00000260: 8dc0 623e 93f3 c13e eb12 f5bd ddef 8d3d
00000270: 83ea e5bd fc58 213e d718 243e 5fe4 15be
00000280: 44fe 043f 51ca 043d be6f 6e3e 98ca 0f3e
00000290: 13ab 9d3d 6175 153e 72a5 303b f2e0 613e
000002a0: 453a 5d3e 3c62 be3d 97c0 82be 60ea 5abd
000002b0: 7281 af3d be69 5f3e ccaf 913d ebd5 72bd
000002c0: 5bbb 07be 7fa5 0ebe 8fac 8fbd de3f 323d
000002d0: 992b 253e 41b5 053e 6bca 7abc 05af 24be
000002e0: 86f6 aebd 2fba 0ebd 9780 183e 5a15 07be
000002f0: 0aa2 3ebe e93c 3bbe d789 06be e6c3 d4bc
00000300: 9f3e a8bd 16e1 b4bc 9a13 913a 43ef 94bc
00000310: ac87 ff3d 4d3b 583e 9cb9 d0bc 73d1 523d
00000320: 3e42 95be 96eb 883d 345b c2bd ad79 dc3c
00000330: c14b 8e3d 0654 48be e458 8b3d 8ddc 5b3e
00000340: 3591 cc3e 0cd0 b23e 10ed f43c 5dd5 5abe
00000350: 5b15 663e c2d7 793e 5ce2 05bd 51f1 713e
00000360: d22a ecbc 5ee3 973e fc90 ab3e 68ef 013e
00000370: 31af d93d 694f 143c 80a2 98bd db99 fe3d
00000380: 091b cbbd 3351 66be f435 6f3e 8b8a 0d3b
00000390: d83e 123d 271e 433d f5d5 2abe 8a5f 3f3e
000003a0: b021 fc3d c4c2 b3bd 8df2 43be 6280 bbbd
000003b0: e588 a43d c296 413e 2121 39bb 146e 3abd
000003c0: 8a74 e1bb c944 6dbd 7fd6 323d 1d54 b9bd
000003d0: 8f2c 873e 2010 143f 8c3c 783e 3fc8 113e
000003e0: e683 743e 7aa4 ec3e 0b46 92be b50e ccbd
000003f0: 19c9 b9be 0f76 90be 01f9 18bd 7960 d13d
-0.2919589 -0.10760912 0.3269289 0.07377007 0.07092243 -0.05811394 -0.17531875 0.2955649
0.37208813 0.21156017 0.08827552 -0.057084713 -0.057153147 0.06839501 -0.00338025 0.21244867
0.14342047 0.017673481 -0.013377047 -0.12122537 0.20634891 0.101348415 -0.20879772 -0.26324648
-0.12645204 -0.18757851 -0.20212097 -0.035259597 -0.079232246 0.18588383 0.23635724 0.120589465
0.11248602 0.03768141 0.091520146 0.1766961 0.1317206 0.22963175 0.19170465 -0.062435027
0.18845767 0.062338997 -0.13744855 0.31395045 0.21859492 -0.21165119 0.16089128 -0.08670764
0.05605265 0.016476354 0.0511311 -0.12984827 0.08561857 0.2549623 0.023850992 0.00080979493
-0.21078221 -0.021314766 -0.038424604 -0.06302482 -0.087909654 -0.27163523 0.12007953 -0.08776226
0.011839969 0.078503154 0.022913799 0.48293662 0.29035723 0.05083953 0.1763192 0.08461041
0.18138708 -0.12668519 -0.11640548 -0.56502515 0.053566687 0.22657698 -0.12030568 -0.03440111
0.08022186 0.30688795 0.033976946 -0.13742888 0.10688637 -0.04621453 0.016604932 0.17558345
0.24406153 0.21494782 -0.48908743 -0.48541144 -0.060924128 0.16877279 0.16255058 -0.39098206
-0.4017544 -0.13837 0.101843424 0.21186262 -0.17249362 0.34332922 -0.059842613 -0.29381257
-0.010639866 -0.45327637 -0.023429006 -0.30906445 -0.16563112 -0.1100783 -0.21241571 -0.21418104
-0.4015134 0.030473761 -0.13508196 0.23049696 0.06787209 -0.37197977 0.021903604 0.14681347
0.23267287 0.06502921 -0.16612159 -0.061524358 -0.0022862507 0.30654424 0.24896435 0.0054491907
-0.09191575 -0.19218935 -0.04431293 0.12589295 0.104614064 -0.0016672781 0.0062348675 -0.5244452
-0.27024582 -0.05358425 -0.033370804 -0.24598476 -0.12772703 -0.20881438 -0.06732881 0.33668935
0.013282689 -0.012133832 -0.1430346 -0.3263287 0.3896742 0.24687894 -0.14152189 -0.08457822
0.22143765 0.37881145 -0.11966499 0.06930516 -0.1122637 0.15756601 0.160251 -0.14637898
0.5195048 0.032419506 0.23284814 0.14042127 0.076986454 0.14595558 0.0026954082 0.22058466
0.2160426 0.092960805 -0.2553756 -0.053446174 0.085696116 0.21817681 0.07113609 -0.05928604
-0.13255064 -0.13930319 -0.07015335 0.04351794 0.16129912 0.13057424 -0.015307049 -0.1608239
-0.08543114 -0.034845527 0.14892803 -0.13191739 -0.186165 -0.18284954 -0.13138519 -0.025972318
-0.08215069 -0.022079986 0.0011068464 -0.018180495 0.12477049 0.21116371 -0.02547913 0.051469278
-0.291521 0.066855595 -0.09490052 0.026913488 0.06948043 -0.19563302 0.06804064 0.21470852
0.39954534 0.34924352 0.029898196 -0.21370454 0.22469084 0.24398711 -0.032686576 0.23627211
-0.028829012 0.29665655 0.33509052 0.12688982 0.10629118 0.009052136 -0.074528694 0.12431689
-0.09917266 -0.22491913 0.23360425 0.002159747 0.035704464 0.047636177 -0.1668318 0.18688789
0.12311113 -0.08777383 -0.19135495 -0.091553465 0.08033923 0.18905166 -0.0028248506 -0.045515135
-0.0068803476 -0.057926927 0.04366159 -0.090492465 0.26401183 0.57837105 0.24241847 0.14236544
0.2387844 0.46219236 -0.28569064 -0.09963743 -0.36286238 -0.28215072 -0.037346844 0.10223479

conv33.bias f4 [8]
00000000: fafe 3a3c 4b12 ba3d d024 a03d 4b56 92bc
00000010: 1a96 523d c52a 63bd 6ab5 6f3d b37b a93c
0.01141333 0.0908552 0.078195214 -0.017863413 0.05141268 -0.05546071 0.05852262 0.020688867

batch3.weight f4 [8]
00000000: 59cc 8e3f 8eac 953f c014 913f c1a7 8b3f
00000010: 7110 943f b7a4 863f 6d90 903f 84ee 933f
1.1156112 1.1693285 1.1334457 1.091057 1.1567518 1.0519017 1.1294075 1.1557164

batch3.bias f4 [8]
00000000: 9cae 81be e047 66be b8a3 7fbe b83f 57be
00000010: 683a 85be d2f1 61be 026c 50be 27cb 8fbe
-0.2532853 -0.22488356 -0.24964797 -0.210204 -0.26021123 -0.22064903 -0.20353702 -0.2808468

batch3.running_mean f4 [8]
00000000: 2f51 f8c0 74d7 bbc0 e69c 58c1 de59 b7c0
00000010: 0c07 a6c0 a45c 34c1 643f 14c1 64c2 1ec1
-7.75991 -5.8700504 -13.538305 -5.72972 -5.18836 -11.272617 -9.265476 -9.922459

batch3.running_var f4 [8]
00000000: 5239 9b43 6144 9243 5055 9c43 9e2b ab43
00000010: 2db6 8943 2433 9e43 adc9 8443 235f 9a43
310.4478 292.5342 312.6665 342.34076 275.42325 316.39954 265.5756 308.74326
