models/net_new_bs64_dr0_2_adam/model_epoch_55.pt (torch, 763336 bytes, 28 tensors)

conv1.weight f4 [8, 3, 5, 5]
0.15357767 0.16840583 -0.02859087 0.2839651 0.07442261 0.21259895 -0.23681107 0.2051501
0.42522526 -0.24366203 0.06823527 -0.06500389 0.37763995 0.17630987 0.14451174 -0.27832827
-0.028608413 -0.12031438 -0.23559473 0.25763088 -0.18261547 -0.3186855 -0.27747762 -0.072011724
-0.042974148 -0.123911195 -0.18956938 -0.30742574 -0.017274316 -0.18357696 0.23045303 -0.41412354
0.014824538 0.05789473 -0.42324063 0.14453551 0.012458932 0.33720022 -0.004618014 -0.19491407
0.015769046 0.13371205 0.1690187 0.020883912 0.13578232 0.14892548 0.18820302 0.281537
0.25250632 0.053508386 -0.23476243 -0.009883683 -0.10650517 0.32965901 0.2693 0.16461547
-0.20365646 -0.065484904 0.2444957 -0.24332598 0.15057483 -0.11934309 0.10044378 -0.12317249
-0.03564873 -0.0005965667 0.21114507 -0.23736012 -0.43781903 -0.12382773 0.2573255 0.09483045
0.106566526 -0.18413852 -0.19743519 -0.37351313 -0.21097592 0.10556027 0.26472127 0.23984854
-0.29070634 -0.19726562 0.17711185 0.25705194 0.47009617 -0.24797314 -0.1250925 -0.05758882
-0.33314964 0.33439812 -0.037829537 -0.27556652 0.55369014 0.108333096 -0.0666079 -0.08310281
0.036761627 0.08251682 -0.07816119 -0.13007797 0.102764994 0.1443033 0.025688553 -0.06733134
-0.001642819 0.1826282 0.0704863 0.004006498 -0.15317926 -0.05012384 0.36383063 0.02362979
-0.05491228 -0.76995754 -0.17181729 0.27650505 -0.10746512 0.27589512 -0.22523114 -0.24476452
0.10744751 -0.17439024 -0.08015629 -0.24846199 -0.18612783 -0.10497258 -0.16943967 -0.28762048
-0.013728051 -0.19215678 0.18970178 0.026972339 -0.15112136 0.09820916 0.014825221 0.025040895
-0.1269731 -0.14821152 -0.42440516 -0.0017051427 0.2394152 -0.08814303 0.7408713 0.1031113
0.035037108 0.09750597 0.09855254 0.37074092 0.26808006 -0.07039664 0.1142727 -0.20716088
0.10629613 -0.13040738 0.020696312 -0.30930653 0.029977987 0.07697624 0.18391512 0.032305654
0.11746534 0.34858596 -0.4964444 -0.14126705 0.32923996 -0.05463437 -0.48283944 0.37014762
0.5898806 -0.031057866 -0.1527827 -0.3659861 -0.025458869 -0.007157033 -0.008288879 -0.085871086
-0.39078444 0.016577559 -0.048560694 -0.16623494 -0.33095127 -0.037246108 0.03371556 0.06334898
0.087245025 -0.0777987 0.3243807 -0.46836936 -0.12555887 0.20945092 -0.07768983 -0.3136291
0.5650157 0.64758563 0.04470024 -0.08194043 -0.15508257 0.0575229 0.1516419 0.2877815
0.23860924 0.052162215 0.40037307 0.16471227 0.11317141 -0.019845529 0.08050634 -0.062964894
-0.03323835 -0.008638553 0.40910667 0.6146091 -0.847791 -0.744488 -0.24756423 0.6163541
0.03657546 0.09613327 -0.020869637 -0.47375342 0.31042948 0.067367844 -0.19423082 -0.33037165
-0.28644395 0.14054756 0.24472101 0.2076148 -0.051123288 -0.09441432 -0.1271986 0.2819076
0.42098492 0.030939883 0.089026585 0.19930544 0.07591308 0.20947437 -0.3549568 -0.36311266
0.22406769 -0.13016282 -0.07322276 -0.44157177 -0.24453157 -0.1674248 -0.18682759 0.09597547
-0.13467582 0.020476906 -0.11924258 -0.24138609 -0.13025917 -0.115926474 -0.048617665 -0.27976096
00000000: 7743 1d3e 9472 2c3e 6637 eabc e063 913e
00000010: e26a 983d 8ab3 593e 9a7e 72be de12 523e
00000020: 20b7 d93e 8a82 79be efbe 8b3d c220 85bd
00000030: 065a c13e 938a 343e e3fa 133e 0b81 8ebe
00000040: 315c eabc 6367 f6bd bf3f 71be 32e8 833e
00000050: 8dff 3abe bf2a a3be 8c11 8ebe e27a 93bd
00000060: a905 30bd 27c5 fdbd 7a1e 42be e866 9dbe
00000070: de82 8dbc 99fb 3bbe e1fb 6b3e 0008 d4be
00000080: 9ee2 723c 0623 6d3d ffb2 d8be 1e01 143e
00000090: 8c20 4c3c 82a5 ac3e b652 97bb 8e97 47be
000000a0: 162e 813c d0eb 083e 3d13 2d3e bd14 ab3c
000000b0: 850a 0b3e ec7f 183e 4bb8 403e 9e25 903e
000000c0: 8248 813e 9c2b 5b3d 9065 70be 2cef 21bc
000000d0: 621f dabd 11c9 a83e b1e1 893e f590 283e
000000e0: 528b 50be f31c 86bd 155d 7a3e 722a 79be
000000f0: 4a30 1a3e 266a f4bd 78b5 cd3d dc41 fcbd
00000100: 6704 12bd ea62 1cba 6a36 583e 880e 73be
00000110: d129 e0be 6599 fdbd 2bc0 833e 7836 c23d
00000120: 8d3f da3d cf8e 3cbe 732c 4abe 1d3d bfbe
00000130: 120a 58be fc2f d83d 8c89 873e db9a 753e
00000140: 76d7 94be 0000 4abe cf5c 353e 509c 833e
00000150: 72b0 f03e acec 7dbe 4018 00be 41e2 6bbd
00000160: 9792 aabe 3b36 ab3e 25f3 1abd 0e17 8dbe
00000170: a3be 0d3f bedd dd3d b969 88bd ce31 aabd
00000180: 5c93 163d 94fe a83d f912 a0bd 2933 05be
00000190: 7476 d23d 3fc4 133e cd70 d23c 03e5 89bd
000001a0: dc53 d7ba e302 3b3e 1f5b 903d f148 833b
000001b0: 06db 1cbe a84e 4dbd 0248 ba3e 4393 c13c
000001c0: b3eb 60bd f01b 45bf dff0 2fbe 1292 8d3e
000001d0: ac16 dcbd 2042 8d3e fea2 66be 8da3 7abe
000001e0: 710d dc3d 5b93 32be fb28 a4bd d26c 7ebe
000001f0: 4b98 3ebe ddfb d6bd 9881 2dbe fe42 93be
00000200: 9feb 60bc bfc4 44be 2f41 423e 18f5 dc3c
00000210: 8fbf 1abe e221 c93d 7ce5 723c 9022 cd3c
00000220: 3c05 02be c3c4 17be a24b d9be 187f dfba
00000230: 4229 753e 5584 b4bd bea9 3d3f 042c d33d
00000240: 1283 0f3d 36b1 c73d ead5 c93d c1d1 bd3e
00000250: ca41 893e 1d2c 90bd ce07 ea3d fb21 54be
00000260: c9b1 d93d 8389 05be 508b a93c 6d5d 9ebe
00000270: 6594 f53c b8a5 9d3d 3f54 3c3e ef52 043d
00000280: ab91 f03d dc79 b23e f62d febe 4fa8 10be
00000290: 2492 a83e 4ac8 5fbd bb36 f7be fd83 bd3e
000002a0: 6a02 173f 116d febc 1173 1cbe 8862 bbbe
000002b0: 1e8f d0bc 8b85 eabb 14ce 07bc 2edd afbd
000002c0: e614 c8be a9cd 873c 94e7 46bd 7e39 2abe
000002d0: 7272 a9be 608f 18bd 5419 0a3d 1cbd 813d
000002e0: 85ad b23d ed54 9fbd 3a15 a63e 1cce efbe
000002f0: 8192 00be 4d7a 563e d81b 9fbd fe93 a0be
00000300: dea4 103f 2cc8 253f 9917 373d 62d0 a7bd
00000310: f7cd 1ebe 229d 6b3d 0448 1b3e 1958 933e
00000320: fb55 743e 0ca8 553d b3fd cc3e 55aa 283e
00000330: 6ac6 e73d 1793 a2bc 82e0 a43d bdf3 80bd
00000340: f024 08bd b888 0dbc 6e76 d13e 0657 1d3f
00000350: d508 59bf c496 3ebf 7a81 7dbe 62c9 1d3f
00000360: 26d0 153d 85e1 c43d cdf6 aabc cf8f f2be
00000370: 9df0 9e3e 27f8 893d 72e4 46be 7926 a9be
00000380: c8a8 92be b3eb 0f3e 2598 7a3e f998 543e
00000390: a766 51bd 4c5c c1bd 5a40 02be 3156 903e
000003a0: 568b d73e a375 fd3c 9253 b63d ba16 4c3e
000003b0: 5178 9b3d 7380 563e e6bc b5be e7e9 b9be
000003c0: 0072 653e 6749 05be d0f5 95bd b215 e2be
000003d0: 7c66 7abe 6871 2bbe bb4f 3fbe ca8e c43d
000003e0: 75e8 09be 2fbf a73c 7435 f4bd ea2d 77be
000003f0: a962 05be dc6a edbd 5123 47bd d43c 8fbe

conv1.bias f4 [8]
-0.31155226 0.25580746 0.006546295 -0.044436175 -0.39131147 -0.39692178 -0.0934316 0.19151212
00000000: c783 9fbe 32f9 823e 4d82 d63b b502 36bd
00000010: fa59 c8be 5539 cbbe 1159 bfbd c11b 443e

conv11.weight f4 [32, 8, 5, 5]
0.12222361 0.12193718 -0.018455528 -0.31166822 0.15319169 0.13524456 0.14857662 -0.05658486
-0.04506568 -0.13780189 0.00070630864 0.24938977 0.010855806 0.29676297 0.13813104 -0.2060233
0.034852214 -0.14256725 0.08749381 0.24072078 -0.073191434 -0.07556002 -0.26784042 -0.097768694
-0.22885498 -0.0066517717 -0.20607272 -0.09487779 0.0071738125 -0.07886551 -0.012791027 0.10497785
0.14368059 -0.1050716 -0.013961959 0.011202734 -0.3726523 -0.17235813 0.049441937 -0.052201033
0.17841795 0.042115577 -0.006397431 -0.12193995 -0.1081169 0.13762021 0.15741022 0.32837558
-0.040306557 -0.2781657 0.21995428 0.09349116 -0.35707915 0.19833581 -0.2651892 0.11564281
0.5531632 0.46952784 0.12889585 -0.004531638 -0.27904382 -0.71125185 -0.2670633 0.30725965
0.47464958 0.33479586 -0.19188575 -0.39421606 -0.26271224 0.02840652 0.09685655 0.12303607
0.20566311 -0.012612289 -0.0017406298 0.2982932 0.23294428 0.17574841 -0.22291504 -0.5144939
-0.324674 -0.42109612 -0.22378974 0.10968286 0.1615609 0.14167373 0.04835254 0.08021079
0.23997213 0.26630947 0.34492704 0.24165289 0.080346115 -0.035914283 -0.3634328 0.052449808
0.081945494 -0.04473485 0.0456679 -0.099579245 0.06395289 -0.052973706 -0.057108853 0.06760614
0.14806871 0.029848564 0.03215001 0.21854965 0.2603174 0.32143885 0.070953794 -0.024733916
-0.035653833 -0.01799273 -0.009075505 -0.0099628735 -0.22705336 -0.14278331 -0.043041673 0.014834731
-0.23442821 -0.35323343 -0.27107507 -0.33423766 -0.18481205 -0.0008620947 -0.014420368 -0.2338173
-0.04995356 0.0068731313 0.02128502 0.16994944 0.062213194 0.25009567 -0.17881349 0.21047328
0.115149945 -0.14084849 0.42988142 -0.030853188 -0.20737731 -0.04936959 -0.4252892 0.030737648
-0.037081644 -0.12848583 -0.07281203 -0.2686631 0.14515331 -0.11802264 -0.079074204 0.025612349
0.047507696 0.2963347 0.17594296 0.16957222 0.1096753 -0.019308079 0.027902087 -0.32624513
-0.33743513 0.016801983 -0.03297242 0.04464056 -0.10652481 -0.50156105 -0.27606785 -0.28812286
-0.05954872 0.027934778 -0.055158626 0.00649296 -0.1474985 -0.077910565 -0.25542685 -0.077084914
0.20823489 -0.06771645 0.13851997 0.07219685 -0.3165842 -0.08826748 -0.24317893 -0.026265567
0.12698016 -0.24053189 -0.16852592 -0.19557534 0.07395937 0.21887124 0.50588787 0.8418184
0.28998467 0.26859957 -0.019900179 0.02997683 0.12668212 -0.045556974 -0.03824571 0.0016524458
-0.19797154 0.046215147 -0.02959786 0.053504836 0.0572419 -0.018991662 0.25736663 0.03529673
0.1493463 0.014160401 -0.11138498 0.2180139 0.041698005 -0.032072324 -0.22784436 -0.37221143
-0.053505674 -0.054821204 0.0056805606 -0.2535464 0.024369745 0.06422625 0.06951151 0.09111946
-0.15237363 -0.34525248 -0.08035348 -0.038210426 -0.38466635 -0.14603601 -0.1421552 0.12491742
0.08326828 -0.17439862 -0.06120652 -0.21508576 -0.03398187 -0.13266331 -0.058611013 -0.003278365
-0.16714679 0.10332036 -0.01600347 -0.06898854 -0.0250317 0.05739865 0.09957912 0.1171015
0.18474033 0.07871095 -0.12934984 -0.061604556 -0.2899373 -0.002604056 0.37972406 -0.021124622
00000000: 5f50 fa3d 33ba f93d 0c30 97bc fa92 9fbe
00000010: 48de 1c3e 8d7d 0a3e 7824 183e 87c5 67bd
00000020: ca96 38bd f01b 0dbe 9227 393a 0860 7f3e
00000030: 8ddc 313c 51f1 973e 3972 0d3e c6f7 52be
00000040: 32c1 0e3d 26fd 11be f42f b33d 827f 763e
00000050: 64e5 95bd 36bf 9abd 6122 89be f43a c8bd
00000060: f658 6abe 1bf7 d9bb ba04 53be 494f c2bd
00000070: 4d12 eb3b 3e84 a1bd 7591 51bc a1fe d63d
00000080: 0121 133e c72f d7bd b3c0 64bc ac8b 373c
00000090: 48cc bebe a67e 30be a183 4a3d c0d0 55bd
000000a0: 32b3 363e 6281 2c3d 8aa1 d1bb a7bb f9bd
000000b0: 656c ddbd 50ec 0c3e 2530 213e d820 a83e
000000c0: 7d18 25bd bc6b 8ebe b23b 613e 4b78 bf3d
000000d0: 14d3 b6be 8b18 4b3e e1c6 87be 23d6 ec3d
000000e0: 1a9c 0d3f f465 f03e 46fd 033e 237e 94bb
000000f0: d5de 8ebe 9a14 36bf 85bc 88be 2351 9d3e
00000100: 4505 f33e 5d6a ab3e b37d 44be b0d6 c9be
00000110: 3882 86be cab4 e83c ba5c c63d 56fa fb3d
00000120: 5a99 523e c6a3 4ebc d825 e4ba e3b9 983e
00000130: f288 6e3e 64f7 333e d743 64be dfb5 03bf
00000140: ac3b a6be e999 d7be 2329 65be 68a1 e03d
00000150: 3870 253e eb12 113e 500d 463d 8e45 a43d
00000160: 41bb 753e b759 883e 479a b03e db73 773e
00000170: 818c a43d db1a 13bd dd13 babe 9cd5 563d
00000180: 0ad3 a73d e43b 37bd 440e 3b3d 34f0 cbbd
00000190: bcf9 823d f5fa 58bd f9ea 69bd 1775 8a3d
000001a0: 539f 173e fa84 f43c bbaf 033d 7bcb 5f3e
000001b0: 5248 853e a293 a43e 3950 913d c89e cabc
000001c0: c109 12bd 7d65 93bc 6db1 14bc 523b 23bc
000001d0: ad80 68be ca35 12be 774c 30bd 5f0d 733c
000001e0: f30d 70be 03db b4be 5aca 8abe 3321 abbe
000001f0: 5f3f 3dbe 32fe 61ba 6843 6cbc cd6d 6fbe
00000200: 1b9c 4cbd 0138 e13b ec5d ae3c 3a07 2e3e
00000210: 43d3 7e3d 8a0c 803e e21a 37be 4f86 573e
00000220: bcd3 eb3d 963a 10be 6b19 dc3e d3bf fcbc
00000230: b85a 54be c437 4abd 82bf d9be 85cd fb3c
00000240: ece2 17bd ca91 03be 791e 95bd 368e 89be
00000250: 12a3 143e dbb5 f1bd a8f1 a1bd fdd0 d13c
00000260: 6e97 423d 2fb9 973e 642a 343e 57a4 2d3e
00000270: 729d e03d fa2b 9ebc eb92 e43c 9a09 a7be
00000280: 4cc4 acbe 50a4 893c 170e 07bd 05d9 363d
00000290: ae29 dabd 4e66 00bf c458 8dbe d784 93be
000002a0: 5ce9 73bd 7ad7 e43c 03ee 61bd e5c2 d43b
000002b0: d909 17be 938f 9fbd 4fc7 82be b2de 9dbd
000002c0: 873b 553e ecae 8abd 2ed8 0d3e f1db 933d
000002d0: 5317 a2be 95c5 b4bd e603 79be e32a d7bc
000002e0: 1607 023e fe4d 76be 0f92 2cbe e744 48be
000002f0: 0378 973d c81f 603e de81 013f 6981 573f
00000300: df78 943e e285 893e b305 a3bc f891 f53c
00000310: f5b8 013e f399 3abd 89a7 1cbd e196 d83a
00000320: 0db9 4abe 184c 3d3d 3677 f2bc e327 5b3d
00000330: 7c76 6a3d 6794 9bbc 8fc5 833e 4e93 103d
00000340: 3dee 183e 0701 683c cf1d e4bd 093f 5f3e
00000350: 87cb 2a3d 455e 03bd 0850 69be 7f92 bebe
00000360: c428 5bbd 338c 60bd ff23 ba3b d5d0 81be
00000370: 0fa3 c73c 0d89 833d 0d5c 8e3d d79c ba3d
00000380: d507 1cbe efc4 b0be 5e90 a4bd 8982 1cbd
00000390: fdf2 c4be 778a 15be 2291 11be b4d4 ff3d
000003a0: 8f88 aa3d 8d95 32be b0b3 7abd 713f 5cbe
000003b0: 9330 0bbd e4d8 07be 1a12 70bd d6d9 56bb
000003c0: 8728 2bbe a099 d33d b619 83bc dd49 8dbd
000003d0: 480f cdbc d91a 6b3d 23f0 cb3d e9d2 ef3d
000003e0: 922c 3d3e 3533 a13d 4974 04be 0f55 7cbd
000003f0: a972 94be cfa8 2abb 316b c23e 8b0d adbc

conv11.bias f4 [32]
-0.034312356 0.03339496 -0.004417825 -0.1794352 -0.12285536 -0.052785557 -0.20210609 0.03470523
0.1878134 0.03643215 -0.022485668 0.02372969 -0.037172426 -0.010839147 0.102465495 0.030521223
0.010813555 -0.003531471 -0.167549 -0.055946782 0.01416695 0.20146097 -0.030344075 0.020893259
0.073980026 -0.0049926075 0.06544492 -0.11218788 -0.033371277 0.19147736 0.069047816 0.04460625
00000000: 1d8b 0cbd 27c9 083d 67c3 90bb dcbd 37be
00000010: 979b fbbd ab35 58bd e6f4 4ebe 1227 0e3d
00000020: 2852 403e e139 153d dd33 b8bc c464 c23c
00000030: 1d42 18bd ad96 31bc 6ed9 d13d a507 fa3c
00000040: 562b 313c 4070 67bb f791 2bbe 7428 65bd
00000050: 7f1c 683c c94b 4e3e 2394 f8bc 5728 ab3c
00000060: d782 973d 0799 a3bb fc07 863d c2c2 e5bd
00000070: 52b0 08bd a412 443e f168 8d3d 0bb5 363d

batch1.weight f4 [32]
0.9741208 0.91886824 0.99625903 0.97404045 0.959626 1.0250992 1.0243872 0.99342614
0.95400697 1.0033691 0.91912115 1.0427525 1.0806924 1.1970464 0.93385184 0.9617173
1.0596834 0.9302794 0.99392587 0.9334234 0.88655233 0.9438999 1.0413979 1.0279258
0.9906298 0.84566784 1.0040485 0.9798039 0.89095086 0.8413552 1.0969777 0.91136694
00000000: fb5f 793f f33a 6b3f d50a 7f3f b75a 793f
00000010: 0daa 753f 7336 833f 1f1f 833f 2d51 7e3f
00000020: cd39 743f 666e 803f 864b 6b3f ea78 853f
00000030: 2154 8a3f d138 993f ea10 6f3f 1b33 763f
00000040: b5a3 873f ca26 6e3f ed71 7e3f d6f4 6e3f
00000050: 18f5 623f 6da3 713f 874c 853f 1393 833f
00000060: ea99 7d3f b07d 583f a984 803f 6ed4 7a3f
00000070: 5b15 643f 0e63 573f c469 8c3f 584f 693f

batch1.bias f4 [32]
-0.42779404 -0.34527197 -0.4897761 -0.46734577 -0.3804801 -0.38961887 -0.35364252 -0.5015085
-0.3612456 -0.44032365 -0.33891958 -0.35917246 -0.35802406 -0.22376995 -0.25626934 -0.32247248
-0.24947968 -0.3020768 -0.63119555 -0.14782102 -0.31331414 -0.29608512 -0.4721832 -0.38534385
-0.46198612 -0.30625853 -0.20900474 -0.3233321 -0.11383574 -0.39616847 -0.24256206 -0.33758295
00000000: d207 dbbe 7dc7 b0be efc3 fabe f247 efbe
00000010: 4ace c2be 207c c7be a210 b5be dc62 00bf
00000020: 2ff5 b8be 1a72 e1be de86 adbe 74e5 b7be
00000030: ee4e b7be f323 65be bc35 83be 1d1b a5be
00000040: 9a77 7fbe cfa9 9abe 0896 21bf 655e 17be
00000050: b66a a0be 7898 97be ffc1 f1be ca4b c5be
00000060: 7289 ecbe ebcd 9cbe 5705 56be c98b a5be
00000070: b622 e9bd 98d6 cabe 3062 78be acd7 acbe

batch1.running_mean f4 [32]
0.7907104 0.30129322 0.26755974 -1.1451523 0.11323806 -1.7389444 0.96727973 -0.96210355
1.5990736 -0.8982366 -0.09494982 -0.2572863 1.20991 -0.2392605 0.66077805 -0.6508153
-0.34030446 1.2169421 0.32988542 1.4991537 0.09317133 0.01736628 -0.28486985 -0.054252286
-0.34045604 -1.3392844 0.36962184 0.87243605 0.24321033 -0.5007321 0.051294547 0.0994501
00000000: ff6b 4a3f 1b43 9a3e 97fd 883e 5a94 92bf
00000010: 5be9 e73d bb95 debf a59f 773f 6b4c 76bf
00000020: 72ae cc3f d5f2 65bf 0d75 c2bd 08bb 83be
00000030: 55de 9a3f b400 75be c028 293f d59b 26bf
00000040: 633c aebe c2c4 9b3f bee6 a83e 45e4 bf3f
00000050: 9cd0 be3d bb43 8e3c 76da 91be a537 5ebd
00000060: 4150 aebe ac6d abbf 133f bd3e f857 5f3f
00000070: 210c 793e fb2f 00bf 3b1a 523d 7eac cb3d

batch1.running_var f4 [32]
1.9098037 3.0573287 1.3427582 0.9373676 1.3938802 3.4519832 1.6990634 2.1465442
4.2234097 2.684723 0.5863803 1.0246305 1.4119012 1.4782662 1.9536463 2.9045992
4.157358 4.003939 1.1508795 1.8993968 1.4708722 0.74090415 1.82447 1.6533712
1.3769736 2.7466028 2.6184187 1.3104093 3.0593605 1.6931162 1.9637038 0.5008794
00000000: 7374 f43f 46ab 4340 80df ab3f 53f7 6f3f
00000010: ab6a b23f 4bed 5c40 e97a d93f fb60 0940
00000020: 2c26 8740 80d2 2b40 051d 163f 1827 833f
00000030: 2eb9 b43f d437 bd3f 1511 fa3f f4e4 3940
00000040: 1409 8540 4520 8040 0550 933f 6f1f f33f
00000050: 8a45 bc3f e5ab 3d3f 3c88 e93f aba1 d33f
00000060: ac40 b03f 57c8 2f40 2c94 2740 7ebb a73f
00000070: 90cc 4340 08b8 d83f a55a fb3f a239 003f

conv2.weight f4 [64, 32, 5, 5]
0.26290748 0.026725145 -0.043613177 -0.033802707 -0.057281464 0.040160056 -0.20728438 -0.33182424
-0.14148799 0.14211203 0.22625668 0.27286875 0.22250281 0.039750606 -0.039525785 0.008673047
0.21386275 0.20617844 -0.04548181 -0.31728646 0.07138753 0.06049621 0.29007265 0.19803427
-0.11841096 0.36271802 0.54218715 -0.05002501 0.07835044 -0.22319454 0.42053306 0.41311872
-0.074363396 0.026215687 -0.07954063 0.43265194 0.21011318 -0.08172599 -0.2145695 -0.21385336
0.48078543 0.31533128 -0.013800406 -0.014059421 -0.066029936 0.1356802 0.09347202 -0.100087196
0.09403044 0.07771965 0.05406649 0.036535107 -0.12517847 -0.035277255 -0.1451043 -0.024190087
0.039573777 -0.40119466 -0.49230027 -0.1504388 0.16514035 0.09752665 -0.36431727 -0.26388967
0.04260258 0.024939826 -0.10078542 -0.040070415 0.046577767 0.25561333 -0.5906902 -0.23328902
-0.093550704 -0.1278583 0.09499237 -0.38130093 -0.134822 -0.3948672 -0.4982695 -0.3182646
-0.42237556 -0.0056061945 -0.19198439 -0.31152374 -0.04146639 -0.23978467 0.12625022 -0.1549429
-0.22669198 0.0579358 -0.14151093 0.10135673 -0.0659951 0.0802786 0.34276628 -0.039366517
0.11081492 -0.16151474 -0.037595153 0.04145543 0.15462945 0.010240934 0.08792955 0.13996492
0.058282267 -0.081867844 -0.018420974 -0.056793608 0.12462095 0.055240605 -0.18389627 -0.016900206
-0.14308196 -0.18405671 -0.20471922 0.05702639 0.14651652 -0.0055662994 -0.11202504 -0.117259696
0.08800094 0.029825347 0.026268965 0.11793942 0.11865155 -0.3218384 -0.0522152 -0.26627648
-0.25891566 -0.21585047 -0.22177804 0.007214531 -0.20257403 -0.06239082 -0.09449534 0.13193142
-0.0023622434 -0.17323425 0.042925574 0.07210653 0.16631816 -0.015078754 -0.1482231 -0.019648973
-0.118169926 0.0139641175 0.027361058 -0.019696109 -0.09014468 -0.1314037 -0.69700253 -0.44857147
-0.23513629 -0.47253004 -0.27123627 -0.40454602 0.03698663 0.2050367 -0.10820757 -0.12946641
-0.11147214 0.54987293 0.28353798 0.08185078 0.027596524 -0.28544098 0.24491335 0.07172975
0.085505605 0.09129266 -0.2163176 0.20646802 0.23835008 0.16200894 0.20873107 0.32778582
0.20736618 -0.095742844 -0.1986047 -0.24541472 -0.10956736 0.032455485 0.030456508 0.039414283
-0.16375566 -0.33870932 -0.32046014 -0.27181664 0.0209979 -0.0038681547 0.2784605 0.042383645
-0.1525103 0.13607953 0.30102006 0.17695427 0.07447143 -0.17260323 0.05076487 0.34178045
-0.28847855 -0.20268448 0.0015868396 0.08107113 0.111705005 -0.32948893 -0.12465648 -0.030739281
0.107954346 0.19257922 -0.12641987 0.24803366 0.20033742 0.21165478 0.25710472 -0.10774207
0.009869774 -0.009774006 -0.16242285 -0.33275405 -0.20244096 -0.23818316 -0.13353723 -0.08630045
-0.15817884 0.031618115 0.17085962 0.053016383 0.12592722 -0.0063280165 0.22502619 0.21734922
0.23902358 0.0042681266 -0.15412329 -0.06403347 -0.06276846 -0.14487667 -0.2860019 -0.2851801
-0.162966 -0.19000444 -0.03917488 0.1273018 0.21437813 -0.23796989 -0.2570574 0.24623773
0.47198105 0.37714508 0.27968186 0.054954447 0.26195937 0.21063201 0.025129387 -0.16417892
00000000: cf9b 863e b1ee da3c bba3 32bd b574 0abd
00000010: f89f 6abd df7e 243d 5b42 54be dee4 a9be
00000020: 3ae2 10be d185 113e d5af 673e 74b5 8b3e
00000030: c7d7 633e 88d1 223d cae5 21bd 6519 0e3c
00000040: d6fe 5a3e 7120 533e 224b 3abd 5f73 a2be
00000050: a033 923d e0ca 773d 6784 943e 7fc9 4a3e
00000060: 7281 f2bd 2db6 b93e c7cc 0a3f 06e7 4cbd
00000070: 3276 a03d 1c8d 64be 1c50 d73e 4c84 d33e
00000080: d64b 98bd 48c2 d63c 33e6 a2bd 8e84 dd3e
00000090: e927 573e f55f a7bd 1bb8 5bbe 60fc 5abe
000000a0: 8229 f63e 1a73 a13e 191b 62bc 7c59 66bc
000000b0: b43a 87bd c0ef 0a3e 426e bf3d 84fa ccbd
000000c0: 0893 c03d 7b2b 9f3d d374 5d3d d6a5 153d
000000d0: c92e 00be e27e 10bd 3996 14be 4a2a c6bc
000000e0: 1d18 223d 6369 cdbe c80e fcbe a10c 1abe
000000f0: 8d1a 293e 0dbc c73d cb87 babe 8c1c 87be
00000100: 0b80 2e3d 9b4e cc3c 9668 cebd e020 24bd
00000110: 54c8 3e3d c0df 823e 7937 17bf 51e3 6ebe
00000120: 8397 bfbd 49ed 02be 5c8b c23d e039 c3be
00000130: c70e 0abe 092c cabe 2e1d ffbe 94f3 a2be
00000140: 9c41 d8be 2bb4 b7bb 8e97 44be 0a80 9fbe
00000150: a9d8 29bd 1d8a 75be bd47 013e 5aa9 1ebe
00000160: f121 68be 174e 6d3d 3ee8 10be 1e94 cf3d
00000170: 7028 87bd 1b69 a43d 107f af3e c93e 21bd
00000180: eff2 e23d 1f64 25be 60fd 19bd 2bcd 293d
00000190: 2f57 1e3e 97c9 273c 6814 b43d f752 0f3e
000001a0: 63b9 6e3d 54aa a7bd 95e7 96bc 6aa0 68bd
000001b0: 4539 ff3d f943 623d 4e4f 3cbe 4d72 8abc
000001c0: 1484 12be 5d79 3cbe eaa1 51be 8194 693d
000001d0: 6d08 163e 8165 b6bb 626d e5bd da25 f0bd
000001e0: d639 b43d 4954 f43c 0332 d73c 398a f13d
000001f0: 95ff f23d 01c8 a4be 9bdf 55bd 6455 88be
00000200: 9890 84be e807 5dbe c819 63be df67 ec3b
00000210: 916f 4fbe 848d 7fbd c686 c1bd 0819 073e
00000220: decf 1abb 5264 31be bad2 2f3d 97ac 933d
00000230: 4f4f 2a3e e10c 77bc ccc7 17be e2f6 a0bc
00000240: 1303 f2bd c1c9 643c 4c24 e03c bc59 a1bc
00000250: c69d b8bd b18e 06be c26e 32bf 29ab e5be
00000260: 91c7 70be 75ef f1be 7bdf 8abe a820 cfbe
00000270: 4b7f 173d 24f5 513e ee9b ddbd d892 04be
00000280: 814b e4bd 79c4 0c3f e42b 913e 62a1 a73d
00000290: 1b12 e23c 5225 92be 91ca 7a3e 0ce7 923d
000002a0: 901d af3d a5f7 ba3d 5c82 5dbe 5a6c 533e
000002b0: 0b12 743e ace5 253e 99bd 553e 8bd3 a73e
000002c0: cd57 543e d314 c4bd 085f 4bbe ff4d 7bbe
000002d0: da64 e0bd 0bf0 043d ed7f f93c df70 213d
000002e0: 90af 27be 4f6b adbe 5a13 a4be 8d2b 8bbe
000002f0: ca03 ac3c de80 7dbb 6092 8e3e 799a 2d3d
00000300: a92b 1cbe 6f58 0b3e 4d1f 9a3e 8033 353e
00000310: 7a84 983d e7be 30be d3ee 4f3d d9fd ae3e
00000320: 76b3 93be 858c 4fbe 80fd cf3a 9f08 a63d
00000330: 98c5 e43d c6b2 a8be e64b ffbd f2d0 fbbc
00000340: 2b17 dd3d 7d33 453e 3674 01be 89fc 7d3e
00000350: 4125 4d3e 08bc 583e 3ba3 833e e0a7 dcbd
00000360: d5b4 213c 2723 20bc 2d52 26be bd5e aabe
00000370: af4c 4fbe 49e6 73be fcbd 08be 4abe b0bd
00000380: a2f9 21be ff81 013d d3f5 2e3e b527 593d
00000390: 11f3 003e 405b cfbb 446d 663e cb90 5e3e
000003a0: 99c2 743e a4db 8b3b 7fd2 1dbe fb23 83bd
000003b0: c08c 80bd 8d5a 14be d76e 92be 2003 92be
000003c0: 8fe0 26be 8690 42be d775 20bd 675b 023e
000003d0: f185 5b3e 61ae 73be 079d 83be be25 7c3e
000003e0: 80a7 f13e 2919 c13e 7632 8f3e ea17 613d
000003f0: 8a1f 863e ebaf 573e 25dc cd3c 851e 28be

conv2.bias f4 [64]
0.19903561 -0.48555574 0.25756183 0.21559733 0.27081254 -0.033194136 -0.6097718 -0.026833937
0.1379991 -0.42993423 0.016305368 -0.24199945 0.12407372 0.27598703 0.588475 -0.28479797
-0.10084874 -0.035956703 -0.03656822 0.05518743 -0.15719886 0.13448854 0.14224544 -0.16962057
0.26052037 0.3333896 -0.12799998 -0.28726786 0.1781958 -0.18297175 0.12485585 -0.003193583
-0.20681179 0.013961099 -0.026276408 0.2584199 -0.49436745 0.10093669 -0.46690136 -0.20473003
-0.41243708 0.21322352 0.2290429 0.21333967 0.03384698 0.27111888 0.23544921 -0.22396569
0.2716213 0.14326504 0.3471992 0.0056991116 0.1867173 -0.0487629 0.14626867 -0.63295645
0.68665034 0.24142905 -0.14157067 0.09505624 0.10886183 0.19049174 -0.63867563 0.093415655
00000000: fecf 4b3e c39a f8be 25df 833e 8cc5 5c3e
00000010: f1a7 8a3e 93f6 07bd 011a 1cbf d8d2 dbbc
00000020: a34f 0d3e 5720 dcbe d692 853c b4ce 77be
00000030: 5d1a fe3d 2c4e 8d3e 4ca6 163f 0ad1 91be
00000040: c989 cebd 5647 13bd 8fc8 15bd 370c 623d
00000050: bdf8 20be 5db7 093e caa8 113e 04b1 2dbe
00000060: ed62 853e 0bb2 aa3e 6d12 03be c614 93be
00000070: f678 363e f25c 3bbe 6db4 ff3d 6f4b 51bb
00000080: 78c6 53be 18bd 643c 9f41 d7bc 9d4f 843e
00000090: bb1d fdbe e5b7 ce3d b20d efbe c0a4 51be
000000a0: f42a d3be 4457 5a3e 398a 6a3e b775 5a3e
000000b0: 22a3 0a3d 18d0 8a3e 9919 713e 4357 65be
000000c0: f211 8b3e 12b4 123e 18c4 b13e 9dbf ba3b
000000d0: d232 3f3e 9bbb 47bd 74c7 153e 6f09 22bf
000000e0: 51c8 2f3f 2d39 773e e7f7 10be d9ac c23d
000000f0: f3f2 de3d 4410 433e 3f80 23bf b550 bf3d

conv22.weight f4 [32, 64, 5, 5]
-0.48991507 -0.3559296 -0.29142565 -0.4166166 0.43763593 -0.30010852 -0.21812856 -0.10562085
-0.0064848303 0.5323832 0.08192131 0.13763253 0.15388799 0.13338362 0.47795913 0.1538732
0.5319006 0.20624037 -0.20920052 0.008889179 0.33383387 0.47833505 0.14265949 -0.24612568
0.16807666 0.13388768 0.064250626 -0.014241724 0.06660223 0.13572824 0.056520328 0.038128156
-0.07328051 0.04510189 -0.051594626 0.10564466 0.07061929 -0.024003256 0.12711336 0.06894006
0.14647333 0.11666997 0.06596646 0.036363307 -0.12374469 -0.19503097 -0.04597275 0.08509826
0.018689359 -0.026944084 0.35090095 0.2951155 0.26963997 0.16840583 0.14499031 0.101115316
0.26126528 0.19957407 0.03917872 0.13932943 -0.22055145 -0.2155002 -0.28495282 -0.3775779
-0.08055695 -0.30727574 -0.17491174 -0.16798547 -0.012641052 0.05370009 -0.15365075 0.023626812
-0.023659453 0.14913209 0.18702647 0.19377002 0.19976236 0.11691151 0.004699176 -0.017098004
-0.15330619 -0.4069877 -0.41565475 -0.198437 -0.0638355 -0.2858517 -0.26941872 -0.1340263
-0.0035069715 0.03426258 -0.02784971 -0.049947955 0.026278099 0.05023035 0.12531655 -0.17159855
-0.24375947 -0.07050621 0.018167803 -0.032611955 -0.10013131 0.12710431 -0.15711404 -0.23848729
-0.042505607 -0.09772018 0.3036998 0.23231326 0.2698866 0.3301785 0.078945234 0.3246696
0.092602775 0.015444858 -0.3237802 0.08669027 -0.0736581 -0.39161628 -0.40234363 -0.71101904
-0.09634447 -0.20971172 -0.5213649 -0.3425652 -0.54032284 -0.5452336 -0.43736663 -0.30604532
-0.19210427 0.005647377 -0.13149235 -0.13120003 -0.2559702 -0.16748756 -0.003812969 0.14335781
-0.011322681 0.017794693 0.075954504 0.2503843 0.33948886 0.19774431 0.0676789 -0.04496555
0.08737606 0.4074415 0.19970958 -0.09137778 -0.2385284 -0.07214236 -0.20809448 -0.024771843
-0.13728435 -0.03121995 -0.18579713 -0.19469464 0.05036817 0.1088137 0.32817966 0.082163855
0.13386439 0.25296596 0.15872517 0.2837219 0.063026845 0.23444287 -0.0013208712 -0.2168881
-0.0153793525 -0.2627331 0.34256247 0.09367976 -0.055638306 -0.0039803833 -0.39218685 -0.22285411
0.011936676 -0.0103301145 0.07423529 0.14296518 -0.11729412 0.03187503 -0.06591133 -0.048535127
-0.18622437 -0.040995017 -0.06825233 -0.21568643 -0.16999634 -0.2963047 -0.07668117 -0.19029081
-0.26137128 -0.1768665 -0.21042003 -0.18914892 -0.23748536 -0.3015147 -0.1459642 -0.10255821
-0.11158983 -0.036852315 0.30952647 0.5680559 0.23728842 -0.025408018 -0.03451712 -0.017222997
-0.16984256 -0.16411623 0.009580805 -0.09043301 -0.11467624 0.037994288 -0.085651144 0.08051683
-0.1914298 -0.31529525 -0.083606295 -0.22877203 -0.0861967 -0.037122738 0.06023829 0.372159
0.036463726 -0.11526758 -0.0040195216 -0.11034697 -0.0989631 -0.20258868 0.15515055 0.18630177
0.07243822 0.12834918 0.0066356338 0.21876562 0.15957767 0.06773797 0.20483993 0.18112792
0.24172524 0.046143346 -0.05305263 0.06566005 0.027572118 0.17457364 0.018757382 -0.11261411
0.067878544 -0.015116221 -0.28923827 -0.015022159 0.2477494 -0.049509082 0.30599076 -0.071111366
00000000: 26d6 fabe 683c b6be be35 95be c54e d5be
00000010: d111 e03e d3a7 99be 185d 5fbe bf4f d8bd
00000020: b37e d4bb 444a 083f 5cc6 a73d 8bef 0c3e
00000030: d094 1d3e b795 083e 0fb7 f43e f090 1d3e
00000040: a32a 083f ad30 533e a938 56be eba3 113c
00000050: 46ec aa3e 55e8 f43e 5415 123e 5f08 7cbe
00000060: 4a1c 2c3e da19 093e d595 833d 1f56 69bc
00000070: c066 883d 58fc 0a3e dc81 673d 452c 1c3d
00000080: 1814 96bd c2bc 383d e354 53bd 3a5c d83d
00000090: d9a0 903d 7aa2 c4bc 012a 023e 7230 8d3d
000000a0: 1bfd 153e aaf0 ee3d 6c19 873d b1f1 143d
000000b0: db6d fdbd 33b6 47be ec4d 3cbd ff47 ae3d
000000c0: 6d1a 993c d7b9 dcbc 4aa9 b33e 6119 973e
000000d0: 400e 8a3e 9472 2c3e 5778 143e 8c15 cf3d
000000e0: 90c4 853e 255d 4c3e de79 203d 60ac 0e3e
000000f0: 3dd8 61be 16ac 5cbe 56e5 91be e451 c1be
00000100: 0bfb a4bd 3f53 9dbe 101c 33be 6204 2cbe
00000110: 6a1c 4fbc a0f4 5b3d 9f56 1dbe 048d c13c
00000120: 78d1 c1bc 15b6 183e de83 3f3e a66b 463e
00000130: 818e 4c3e 4d6f ef3d 8cfb 993b 1d11 8cbc
00000140: 4cfc 1cbe b160 d0be b3d0 d4be 1233 4bbe
00000150: 30bc 82bd 275b 92be 40f1 89be 313e 09be
00000160: 38d5 65bb eb56 0c3d 1325 e4bc 3a96 4cbd
00000170: 2b45 d73c 57be 4d3d fb52 003e 88b7 2fbe
00000180: 159c 79be 8f65 90bd a5d4 943c 1d94 05bd
00000190: a511 cdbd a227 023e 81e2 20be 0336 74be
000001a0: 5c1a 2ebd 8521 c8bd 8a7e 9b3e 87e3 6d3e
000001b0: 942e 8a3e 280d a93e 0aae a13d 183b a63e
000001c0: 86a6 bd3d 6e0c 7d3c 85c6 a5be ab8a b13d
000001d0: 0fda 96bd ee81 c8be fcff cdbe 5805 36bf
000001e0: 4050 c5bd abbe 56be 2c78 05bf b564 afbe
000001f0: 9952 0abf 6e94 0bbf 85ee dfbe f9b1 9cbe
00000200: fbb6 44be a20d b93b eea5 06be 4d59 06be
00000210: 870e 83be dc81 2bbe 01e3 79bb 64cc 123e
00000220: c482 39bc 2dc6 913c 098e 9b3d 5f32 803e
00000230: 7cd1 ad3e 7c7d 4a3e 3c9b 8a3d cc2d 38bd
00000240: 38f2 b23d 2c9c d03e ab80 4c3e 4624 bbbd
00000250: ca40 74be 60bf 93bd b816 55be 52ee cabc
00000260: 4594 0cbe fbc0 ffbc 9a41 3ebe 085e 47be
00000270: db4e 4e3d b8d9 de3d 2a07 a83e 8645 a83d
00000280: bf13 093e c184 813e da88 223e ff43 913e
00000290: 3814 813d cb11 703e 1521 adba ea17 5ebe
000002a0: aef9 7bbc f484 86be 5964 af3e 2ddb bf3d
000002b0: fee4 63bd e06d 82bb b7cc c8be de33 64be
000002c0: 0c92 433c a43f 29bc ac08 983d 7765 123e
000002d0: e637 f0bd 648f 023d 85fc 86bd c5cc 46bd
000002e0: 9ab1 3ebe 64ea 27bd e1c7 8bbd e7dc 5cbe
000002f0: 8513 2ebe 40b5 97be 040b 9dbd 98db 42be
00000300: 75d2 85be 7e1c 35be 5978 57be 41b0 41be
00000310: 5d2f 73be 2260 9abe a477 15be 0a0a d2bd
00000320: 3589 e4bd 74f2 16bd 417a 9e3e 1d6c 113f
00000330: bcfb 723e 7a24 d0bc d361 0dbd 3e17 8dbc
00000340: 35eb 2dbe 160e 28be cff8 1c3c f134 b9bd
00000350: 60db eabd e69f 1b3d de69 afbd 02e6 a43d
00000360: 2c06 44be 616e a1be c739 abbd 3743 6abe
00000370: e587 b0bd 030e 18bd 6dbc 763d a08b be3e
00000380: fd5a 153d 6911 ecbd 31b6 83bb 98fd e1bd
00000390: 2aad cabd 6873 4fbe c9df 1e3e e4c5 3e3e
000003a0: 7d5a 943d f86d 033e bb6f d93b 1804 603e
000003b0: 5468 233e 34ba 8a3d 8fc1 513e 9979 393e
000003c0: d286 773e ce00 3d3d b74d 59bd c778 863d
000003d0: ecde e13c 6fc3 323e 15a9 993c 3aa2 e6bd
000003e0: e803 8b3d 07aa 77bc 0a17 94be 801f 76bc
000003f0: 05b2 7d3e 09ca 4abd d2aa 9c3e d6a2 91bd

conv22.bias f4 [32]
0.010935338 0.016429363 -0.019006597 0.007407177 -0.01541304 0.013697434 -0.00893429 0.018633831
0.020934196 -0.014535379 -0.0044679544 0.0044714916 -0.0067151105 0.015544749 0.008313985 -0.004729924
-0.0012530586 0.016626062 -0.00065754843 -0.010960414 -0.0018481412 0.010366502 -0.026260776 0.022483105
0.0138121545 -0.014446851 -0.014821671 0.018724741 -0.006906072 -0.003420745 0.0124708805 0.008626922
00000000: 222a 333c df96 863c b9b3 9bbc e7b7 f23b
00000010: fa86 7cbc 346b 603c 2161 12bc faa5 983c
00000020: 317e ab3c cc25 6ebc eb67 92bb 9785 923b
00000030: 6e0a dcbb 67af 7e3c 6137 083c 7afd 9abb
00000040: ab3d a4ba 6133 883c 545f 2cba 4f93 33bc
00000050: 543d f2ba 43d8 293c d720 d7bc 7d2e b83c
00000060: 604c 623c 7cb2 6cbc 98d6 72bc a164 993c
00000070: 554c e2bb 942e 60bb aa52 4c3c ef57 0d3c

batch2.weight f4 [32]
1.0220829 0.7684528 0.87316006 0.91444457 0.7415473 1.0570903 0.8510576 0.8287586
0.98106503 0.80409735 1.0435688 0.87089586 0.86792696 0.8023488 0.93656814 0.63540435
1.043889 0.89339834 0.8105184 0.8308968 1.128243 0.62844616 0.8028214 1.0592916
0.87652224 0.9397015 1.0104808 0.9552454 0.80252004 0.778522 0.6150901 1.0008274
00000000: 9dd3 823f 53b9 443f 6b87 5f3f 0a19 6a3f
00000010: 0bd6 3d3f bc4e 873f e9de 593f 8629 543f
00000020: 1427 7b3f 53d9 4d3f aa93 853f 08f3 5e3f
00000030: 7630 5e3f bb66 4d3f eec2 6f3f dca9 223f
00000040: 289e 853f c1b5 643f 227e 4f3f a7b5 543f
00000050: 446a 903f d9e1 203f b485 4d3f de96 873f
00000060: c363 603f 4790 703f 6f57 813f f68a 743f
00000070: f471 4d3f 384d 473f 8b76 1d3f 1d1b 803f

batch2.bias f4 [32]
-0.6637076 -0.4644554 -0.56851304 -0.48620155 -0.51499414 -0.7639363 -0.44562086 -0.49328864
-0.6350808 -0.5958377 -0.72674 -0.5277715 -0.694719 -0.5987431 -0.5455255 -0.39479837
-0.67284757 -0.70953876 -0.5477817 -0.52735496 -0.75014406 -0.27779314 -0.69463927 -0.80309504
-0.57433945 -0.5835527 -0.69140023 -0.6399417 -0.64897764 -0.6988135 -0.22724767 -0.657417
00000000: bee8 29bf 19cd edbe 128a 11bf 69ef f8be
00000010: a8d6 03bf 5491 43bf 6b28 e4be 5490 fcbe
00000020: a894 22bf d288 18bf a20b 3abf 081c 07bf
00000030: 1bd9 31bf 3a47 19bf 8fa7 0bbf 0323 cabe
00000040: bd3f 2cbf 55a4 35bf 6c3b 0cbf bc00 07bf
00000050: 7109 40bf e73a 8ebe e1d3 31bf a397 4dbf
00000060: e907 13bf b663 15bf 9bff 30bf 38d3 23bf
00000070: 6623 26bf 71e5 32bf 9db3 68be 7b4c 28bf

batch2.running_mean f4 [32]
-257.54227 -82.997406 -126.4627 -167.64095 -85.837265 -208.62473 -193.04465 -184.1447
-198.94847 -246.77376 -209.62529 -216.12398 -238.73491 -122.76283 -189.55179 90.91274
-265.1783 -176.89883 -263.43396 -162.55397 -280.61188 -134.68616 -146.21596 -250.67148
-224.22902 -239.26047 -223.51804 -262.3433 -89.265366 -175.2449 -66.260155 -251.52754
00000000: 69c5 80c3 acfe a5c2 e7ec fcc2 15a4 27c3
00000010: aeac abc2 ee9f 50c3 6e0b 41c3 0b25 38c3
00000020: cff2 46c3 15c6 76c3 13a0 51c3 bd1f 58c3
00000030: 23bc 6ec3 9286 f5c2 428d 3dc3 53d3 b542
00000040: d396 84c3 1ae6 30c3 8cb7 83c3 d18d 22c3
00000050: 524e 8cc3 a8af 06c3 4937 12c3 e6ab 7ac3
00000060: a13a 60c3 ae42 6fc3 9e84 5fc3 f12b 83c3
00000070: de87 b2c2 b23e 2fc3 3385 84c2 0d87 7bc3

batch2.running_var f4 [32]
87948.83 35651.79 57751.668 81571.7 57697.258 66247.87 76378.33 56449.027
68078.73 62580.062 69850.69 63584.18 55672.29 46393.484 73557.34 42497.27
95842.44 50222.95 72019.26 47110.176 96658.5 60592.13 38878.14 70817.25
58113.75 82458.914 77893.7 76098.22 44565.496 39655.1 55800.777 93628.97
00000000: 6ac6 ab47 ca43 0b47 ab97 6147 da51 9f47
00000010: 4261 6147 ef63 8147 2a2d 9547 0781 5c47
00000020: 5df7 8447 1074 7447 586d 8847 2e60 7847
00000030: 4a78 5947 7c39 3547 acaa 8f47 4501 2647
00000040: 3831 bb47 f32e 4447 a1a9 8c47 2d06 3847
00000050: 40c9 bc47 21b0 6c47 24de 1747 a050 8a47
00000060: c001 6347 750d a147 da22 9847 1ca1 9447
00000070: 7f15 2e47 1ae7 1a47 c7f8 5947 7cde b647

conv3.weight f4 [16, 32, 5, 5]
-0.13538183 -0.07508216 0.28182343 0.35766527 0.122670196 -0.11000477 0.2757574 0.41971403
0.2658445 0.03473394 -0.22777028 0.092772014 0.29746783 0.37056106 0.3065206 -0.124346934
0.11575338 0.23750527 0.43980092 0.13989386 0.2179328 0.33376682 0.3802217 0.2355171
-0.104937725 0.27674565 0.039986685 0.004046308 0.040846627 -0.1943011 0.10005468 -0.019125914
0.021834722 0.29913005 -0.29579163 0.14301461 -0.18669699 -0.23098642 0.07933881 -0.18511765
0.10967155 0.11185924 -0.012272815 -0.032183077 -0.5117385 -0.030544357 0.060371567 0.032913126
0.038067933 -0.2764858 0.0863229 0.056449506 0.07865395 0.11055767 -0.29640278 -0.017769683
-0.4355868 -0.08764846 0.12948002 -0.25586957 0.08156462 -0.18228348 0.13684106 0.231116
0.05793095 0.023107072 -0.13442218 -0.023115462 -0.03049246 0.07897542 0.260836 0.1770797
0.13507691 0.036397766 -0.016051536 -0.20155726 0.0042156614 -0.12310774 0.024112146 0.07825135
0.092535175 0.025385732 -0.07636795 -0.009884272 0.29840726 0.18792637 0.25390732 0.1568962
-0.27316657 -0.12665862 0.32955575 0.30912656 0.4636822 0.40348393 0.06998074 -0.06114319
0.05499132 0.31277937 0.4008198 0.2751729 -0.012938435 -0.00270285 -0.016706884 -0.007077167
0.10122495 0.24694437 -0.1565388 -0.14817879 -0.19113888 -0.0023162786 0.073136255 -0.15453076
0.14204076 0.12137918 0.041301068 -0.04878993 -0.23440234 0.0034811536 -0.14041229 -0.23349908
-0.23368438 -0.29670778 0.018573716 -0.22012423 -0.47058758 -0.14464146 0.14542939 0.19657005
-0.033206627 -0.2588923 0.08359497 0.31861043 0.14032605 -0.21573453 -0.11319602 -0.26347595
-0.07977719 0.0530377 0.024261212 0.17281 -0.35130757 -0.23124756 -0.006605344 -0.024624145
-0.14453053 0.18357363 -0.04893624 0.052516896 0.11264319 -0.07632463 -0.19901264 -0.4488521
-0.011021947 0.002094379 0.24354145 -0.03814188 0.0750696 0.4629597 0.4329785 0.345154
0.02044728 0.31125116 0.52807355 0.4272033 0.2194271 0.018022904 0.20247757 0.09407195
0.02658149 -0.13094383 0.087841555 0.15614428 0.011932835 -0.1922514 -0.34731403 -0.2125881
0.16685483 0.079791866 -0.36133993 -0.56401235 -0.00026521093 0.2159351 0.20280844 0.0067025973
-0.38873357 -0.09274396 -0.04200193 -0.15637349 0.08533402 0.017089194 0.05284922 0.061196156
0.019704854 0.041374996 0.14683358 -0.06516436 0.010418005 0.2972996 0.2731534 0.28003216
0.056091856 -0.16723129 0.058685638 -0.051334307 -0.29931924 0.18561725 -0.0026281544 -0.047006756
-0.36813498 -0.40582156 0.052080378 0.025757955 -0.12535031 -0.3283029 -0.27745533 -0.03529107
-0.16316196 -0.29102188 -0.2637917 -0.35556042 -0.12868309 -0.28818777 -0.43008345 -0.30455747
-0.21234538 -0.13125728 0.12240774 0.20766667 0.061928414 0.09352236 -0.047354937 -0.08476215
-0.09465062 -0.16976678 -0.25525296 -0.14095978 -0.1814608 -0.1713105 0.07028679 -0.35436046
0.026168214 -0.14666645 -0.18626724 0.2715651 -0.113952905 0.15875864 -0.074374825 -0.20617789
-0.039012495 -0.2513226 -0.16779043 0.15199816 0.39718962 0.3536599 -0.4223733 -0.063983284
00000000: 89a1 0abe adc4 99bd 294b 903e e71f b73e
00000010: 833a fb3d 2e4a e1bd 1330 8d3e c2e4 d63e
00000020: c51c 883e 2d45 0e3d 9d3c 69be 41ff bd3d
00000030: b44d 983e 2eba bd3e 45f0 9c3e 9ba9 febd
00000040: 1c10 ed3d 9534 733e 962d e13e 5640 0f3e
00000050: c729 5f3e 7ce3 aa3e 6bac c23e 652b 713e
00000060: 97e9 d6bd 9bb1 8d3e 14c9 233d e496 843b
00000070: cb4e 273d def6 46be 78e9 cc3d f3ad 9cbc
00000080: bbde b23c 9327 993e 0072 97be 6c72 123e
00000090: 7f2d 3fbe b487 6cbe 637c a23d 7b8f 3dbe
000000a0: 7a9b e03d 7516 e53d eb13 49bc 67d2 03bd
000000b0: 4b01 03bf 2938 fabc 2d48 773d eacf 063d
000000c0: 1fed 1b3d 8c8f 8dbe 10ca b03d 9937 673d
000000d0: 5215 a13d 0f6c e23d 1bc2 97be ba91 91bc
000000e0: 3c05 dfbe 0981 b3bd 6996 043e 5601 83be
000000f0: 5a0b a73d 85a8 3abe 1020 0c3e aca9 6c3e
00000100: 0149 6d3d 0b4b bd3c f8a5 09be a35c bdbc
00000110: 53cb f9bc ddbd a13d 4c8c 853e 6254 353e
00000120: 9a51 0a3e d315 153d 837e 83bc 0765 4ebe
00000130: 8823 8a3b e91f fcbd d686 c53c 3e42 a03d
00000140: 1583 bd3d bdf5 cf3c cd66 9cbd a4f1 21bc
00000150: d6c8 983e c56f 403e 2400 823e 66a9 203e
00000160: 7ddc 8bbe ccb2 01be 88bb a83e d645 9e3e
00000170: c167 ed3e 7295 ce3e 1052 8f3d 4871 7abd
00000180: 943e 613d 9e24 a03e 4138 cd3e 76e3 8c3e
00000190: bbfb 53bc 4c22 31bb e0dc 88bc 94e7 e7bb
000001a0: 074f cf3d fcde 7c3e b54b 20be 2ebc 17be
000001b0: e9b9 43be b5cc 17bb 76c8 953d 503d 1ebe
000001c0: 2273 113e a695 f83d 4f2b 293d f3d7 47bd
000001d0: 2b07 70be 1124 643b 3dc8 0fbe 621a 6fbe
000001e0: f54a 6fbe 15ea 97be e827 983c 3f68 61be
000001f0: dbf0 f0be e41c 14be 71eb 143e a949 493e
00000200: ac03 08bd 888d 84be d733 ab3d e820 a33e
00000210: a2b1 0f3e 83e9 5cbe 51d3 e7bd 52e6 86be
00000220: 3962 a3bd 0f3e 593d 73bf c63c 1bf5 303e
00000230: 96de b3be 29cc 6cbe a471 d8bb 93b8 c9bc
00000240: d0ff 13be bafa 3b3e 5e71 48bd f51b 573d
00000250: 79b1 e63d 1650 9cbd f8c9 4bbe f1cf e5be
00000260: 6595 34bc d941 093b ee62 793e a93a 1cbd
00000270: 17be 993d 0e09 ed3e 5caf dd3e 06b8 b03e
00000280: 0e81 a73c 505c 9f3e d42f 073f 64ba da3e
00000290: 7fb1 603e c5a4 933c 4856 4f3e cba8 c03d
000002a0: 6dc1 d93c 2416 06be 46e6 b33d 49e4 1f3e
000002b0: f081 433c 8ddd 44be 25d3 b1be b2b0 59be
000002c0: fedb 2a3e eb69 a33d 8c01 b9be 1d63 10bf
000002d0: 020c 8bb9 171e 5d3e 04ad 4f3e 76a1 db3b
000002e0: 1608 c7be 8cf0 bdbd 370a 2cbd 5f20 20be
000002f0: 9ac3 ae3d a3fe 8b3c 6c78 583d d2a8 7a3d
00000300: 136c a13c d478 293d 8b5b 163e e474 85bd
00000310: 48b0 2a3c a737 983e c3da 8b3e 6060 8f3e
00000320: 93c0 653d ae3e 2bbe 5a60 703d ec43 52bd
00000330: 5f40 99be 7312 3e3e 1d3d 2cbb 288a 40bd
00000340: 307c bcbe d8c7 cfbe 3c52 553d 5902 d33c
00000350: d55b 00be 5117 a8be a00e 8ebe 5e8d 10bd
00000360: ee13 27be d200 95be b50f 87be 040c b6be
00000370: 80c5 03be 598d 93be e633 dcbe f5ee 9bbe
00000380: 1171 59be 4f68 06be e9b0 fa3d 92a6 543e
00000390: a6a8 7d3d a788 bf3d 40f7 41bd c797 adbd
000003a0: 2fd8 c1bd 58d7 2dbe 84b0 82be c357 10be
000003b0: dcd0 39be 056c 2fbe 85f2 8f3d bc6e b5be
000003c0: b95e d63c bb2f 16be d7bc 3ebe 950a 8b3e
000003d0: 2460 e9bd a091 223e d451 98bd 4c20 53be
000003e0: 91cb 1fbd 5bad 80be 41d1 2bbe 68a5 1b3e
000003f0: 705c cb3e e912 b53e 5041 d8be ab09 83bd

conv3.bias f4 [16]
-0.25892332 0.77054113 -0.48746613 -0.2721601 -0.49902073 -0.23316021 0.122982025 0.41988328
0.14481492 -0.117967896 -0.053531237 -0.29996657 0.0071050175 0.034200814 -0.19405425 0.5062611
00000000: 9991 84be 2f42 453f 2995 f9be 9258 8bbe
00000010: a57f ffbe 8dc1 6ebe 00de fb3d f1fa d63e
00000020: 5d4a 143e 2799 f1bd 9243 5bbd 3895 99be
00000030: 35d1 e83b 2716 0c3d 28b6 46be 549a 013f

conv33.weight f4 [8, 16, 5, 5]
-0.33834562 -0.13827218 0.3690196 0.06606073 0.07041779 -0.06385983 -0.1840214 0.31964752
0.44433516 0.24613461 0.1207518 -0.036956884 -0.08103473 0.10846007 -0.013107545 0.22078413
0.13342774 0.02197055 0.0014848609 -0.13640283 0.27693814 0.08411692 -0.23734021 -0.28852597
-0.138016 -0.21273006 -0.22501259 -0.004499944 -0.110013194 0.17355408 0.24194258 0.08998821
0.1352794 0.014455385 0.102536954 0.21078038 0.10239512 0.2511821 0.20621566 -0.07182014
0.21776827 0.05107084 -0.10465722 0.37599787 0.23635784 -0.2596079 0.18603756 -0.055153128
0.075205155 0.031249227 0.07818461 -0.12610693 0.09474709 0.2140964 0.050429545 0.0045634806
-0.2325895 -0.041713946 -0.10890466 -0.03758879 -0.11274957 -0.2820952 0.12765706 -0.07531715
0.042748567 -0.0053398446 -0.011942131 0.5490435 0.3449345 0.054842524 0.23705691 0.088428184
0.1664256 -0.13499118 -0.11909779 -0.63463414 0.11108322 0.2897358 -0.11561351 -0.0088935075
0.109055415 0.3467391 0.06810348 -0.18614341 0.0849465 -0.040853437 0.0013228751 0.17945023
0.24034096 0.24935545 -0.5552082 -0.55783755 -0.07717927 0.18318564 0.15508972 -0.39444542
-0.423401 -0.11700963 0.12364594 0.20803322 -0.16192093 0.36455554 -0.045681868 -0.33145696
0.022188634 -0.49966067 -0.035067175 -0.36856478 -0.15574187 -0.0847806 -0.24168763 -0.24559638
-0.41948584 0.08936816 -0.17514002 0.30650133 0.029258141 -0.40492824 0.0058257235 0.17483522
0.28252518 0.06837434 -0.16842447 -0.17440288 0.03060756 0.40241104 0.31476521 0.020427177
-0.100644 -0.21843956 -0.06406159 0.13094208 0.11217699 -0.019357428 0.04939698 -0.60886663
-0.32757843 -0.08379863 -0.040511187 -0.18437718 -0.06562297 -0.25449932 -0.12392676 0.35511577
0.051986948 -0.052524466 -0.16692956 -0.3939585 0.42125744 0.31776115 -0.13897851 -0.08530439
0.19158947 0.42530274 -0.1019432 0.07471091 -0.15117854 0.102123745 0.15133554 -0.16280681
0.5598136 0.023063803 0.24555987 0.17493749 0.10025684 0.18493092 0.039952144 0.22543979
0.22324142 0.075627945 -0.28055096 -0.006717522 0.08695658 0.2414055 0.049665477 -0.034769088
-0.13324158 -0.16907898 -0.062189113 0.0489197 0.21934897 0.17448077 -0.02564554 -0.18422106
-0.11748995 -0.03741076 0.16327126 -0.18540025 -0.20146248 -0.2105307 -0.15773126 -0.03807581
-0.12991352 -0.01642282 -0.050004113 -0.029941829 0.13691567 0.2089163 -0.04315009 0.02536853
-0.3716253 0.1062173 -0.10798816 0.012594188 0.04006424 -0.25394776 0.10936732 0.26047966
0.4497151 0.37078097 0.040758595 -0.21949646 0.29537445 0.31439036 -0.0047684866 0.25175327
-0.049624 0.33956042 0.35994843 0.12343689 0.07000721 0.024754988 -0.06471005 0.15747708
-0.121106245 -0.26422563 0.23117416 0.018812845 0.07237547 0.11437317 -0.18269412 0.1977833
0.13597648 -0.10849629 -0.22712062 -0.08513175 0.13181469 0.2364594 -0.01509684 -0.061835214
0.02183465 -0.04364462 0.040476754 -0.10891224 0.29973406 0.6338389 0.22858757 0.12013931
0.2545991 0.4975912 -0.33810064 -0.098815314 -0.37045696 -0.30965817 -0.037985507 0.1455929
00000000: a33b adbe 3997 0dbe 23f0 bc3e d94a 873d
00000010: 3437 903d f1c8 82bd 1b70 3cbe d7a8 a33e
00000020: e67f e33e b60a 7c3e b84c f73d 1a60 17bd
00000030: 89f5 a5bd 5020 de3d 07c1 56bc 3c15 623e
00000040: 48a1 083e 95fb b33c aa9f c23a 2fad 0bbe
00000050: d6ca 8d3e 7e45 ac3d 5009 73be adb9 93be
00000060: 1154 0dbe e9d5 59be b369 66be 4474 93bb
00000070: 994e e1bd 29b8 313e ccbf 773e bd4b b83d
00000080: af86 0a3e 47d6 6c3c e5fe d13d d0d6 573e
00000090: 88b4 d13d f19a 803e 332a 533e 7016 93bd
000000a0: a5fe 5e3e a82f 513d 8656 d6bd cb82 c03e
000000b0: ca07 723e 54eb 84be a180 3e3e 3fe8 61bd
000000c0: 2905 9a3d 61fe ff3c 411f a03d 2d22 01be
000000d0: c30a c23d 163c 5b3e 368f 4e3d 4089 953b
000000e0: f12b 6ebe 3edc 2abd 6809 dfbd b4f6 19bd
000000f0: 3fe9 e6bd c86e 90be 88b8 023e e13f 9abd
00000100: 1f19 2f3d ddf9 aebb eea8 43bc 1d8e 0c3f
00000110: 419b b03e 8ea2 603d 0cbf 723e d619 b53d
00000120: 796b 2a3e 213b 0abe 8be9 f3bd 6277 22bf
00000130: 997f e33d 4058 943e c7c6 ecbd 13b6 11bc
00000140: 7258 df3d ca87 b13e d679 8b3d 619c 3ebe
00000150: 6ef8 ad3d ef55 27bd 5364 ad3a cdc1 373e
00000160: f11b 763e 0957 7f3e 2022 0ebf 71ce 0ebf
00000170: 2a10 9ebd 0495 3b3e d7cf 1e3e c0f4 c9be
00000180: 04c8 d8be bfa2 efbd 153a fd3d a906 553e
00000190: 9ace 25be 06a7 ba3e e91c 3bbd bab4 a9be
000001a0: f0c4 b53c 86d3 ffbe 99a2 0fbd 86b4 bcbe
000001b0: cc7a 1fbe 74a1 adbd f67c 77be 9e7d 7bbe
000001c0: d9c6 d6be a706 b73d e857 33be beed 9c3e
000001d0: c5ae ef3c c152 cfbe b6e5 be3b 0108 333e
000001e0: 24a7 903e d907 8c3d 7777 2cbe ab96 32be
000001f0: b5bc fa3c d208 ce3e e828 a13e e556 a73c
00000200: 711e cebd 9fae 5fbe b932 83bd ae15 063e
00000210: 0dbd e53d 7893 9ebc 7d54 4a3d afde 1bbf
00000220: 5cb8 a7be 9e9e abbd 0fef 25bd 5fcd 3cbe
00000230: 5665 86bd bc4d 82be 50cd fdbd bcd1 b53e
00000240: 44f0 543d e523 57bd 95ef 2abe eeb4 c9be
00000250: 0eaf d73e 97b1 a23e 6250 0ebe 11b4 aebd
00000260: 0830 443e 48c1 d93e 99c7 d0bd 0902 993d
00000270: 8cce 1abe 4126 d13d b4f7 1a3e d4b6 26be
00000280: f24f 0f3f 4df0 bc3c 0c74 7b3e d022 333e
00000290: 7553 cd3d 885e 3d3e dca4 233d b0d9 663e
000002a0: 6699 643e d3e2 9a3d 60a4 8fbe a91e dcbb
000002b0: 4b16 b23d 0133 773e 076e 4b3d 086a 0ebd
000002c0: 7b70 08be 0a23 2dbe 03ba 7ebd 0660 483d
000002d0: 049d 603e 16ab 323e 9816 d2bc 72a4 3cbe
000002e0: 929e f0bd 063c 19bd 9530 273e 90d9 3dbe
000002f0: 2e4c 4ebe 5c95 57be 4e84 21be 61f5 1bbd
00000300: 0d08 05be 2689 86bc 1dd1 4cbd 9148 f5bc
00000310: 9f33 0c3e 28ee 553e 26be 30bd aad1 cf3c
00000320: ac45 bebe 7588 d93d e528 ddbd da57 4e3c
00000330: 671a 243d 7105 82be f9fb df3d 975d 853e
00000340: 0f41 e63e 01d7 bd3e 7cf2 263d aec3 60be
00000350: 523b 973e c6f7 a03e f740 9cbb cee5 803e
00000360: 8942 4bbd ddda ad3e 294b b83e 7bcc fc3d
00000370: f15f 8f3d f9ca ca3c b486 84bd ac41 213e
00000380: 8d06 f8bd 9548 87be ebb8 6c3e 651d 9a3c
00000390: 9739 943d 7b3c ea3d 2b14 3bbe b587 4a3e
000003a0: 6b3d 0b3e 4e33 debd 4f92 68be 8e59 aebd
000003b0: 6efa 063e 6a22 723e bd58 77bc ec46 7dbd
000003c0: 94de b23c b3c4 32bd f4ca 253d 610d dfbd
000003d0: be76 993e 4443 223f dc12 6a3e 990b f63d
000003e0: d05a 823e 46c4 fe3e 871b adbe af5f cabd
000003f0: 89ac bdbe 848b 9ebe b196 1bbd 4e16 153e

conv33.bias f4 [8]
0.01606581 0.09108788 0.09929687 -0.011472842 0.052661914 -0.061958797 0.062001098 0.023013609
00000000: 729c 833c 488c ba3d 285c cb3d 96f8 3bbc
00000010: 05b4 573d 82c8 7dbd ddf4 7d3d 0987 bc3c

batch3.weight f4 [8]
1.1141381 1.1576216 1.1168783 1.058414 1.1581427 1.0521809 1.1127456 1.1771983
00000000: 149c 8e3f f22c 943f def5 8e3f 1c7a 873f
00000010: 053e 943f ddad 863f 736e 8e3f 6fae 963f

batch3.bias f4 [8]
-0.28700525 -0.22811836 -0.26897836 -0.23948844 -0.27265394 -0.23746157 -0.21742107 -0.30177945
00000000: 5af2 92be dc97 69be 88b7 89be 753c 75be
00000010: 4c99 8bbe 2029 73be a1a3 5ebe d682 9abe

batch3.running_mean f4 [8]
-11.05901 -8.253712 -16.1306 -8.040907 -5.4816003 -14.613758 -12.500782 -12.374908
00000000: b4f1 30c1 340f 04c1 780b 81c1 8ea7 00c1
00000010: 4569 afc0 f4d1 69c1 3403 48c1 a0ff 45c1

batch3.running_var f4 [8]
463.97098 406.53687 441.95358 471.0063 383.9936 442.413 398.16776 422.8492
00000000: 49fc e743 b844 cb43 0ffa dc43 ce80 eb43
00000010: 2eff bf43 dd34 dd43 7915 c743 b36c d343
