models/net_new_bs64_dr0_2_adam/model_epoch_57.pt (torch, 763336 bytes, 28 tensors)

conv1.weight f4 [8, 3, 5, 5]
0	0x3e1be571	0.15224244
1	0x3e2cbf8b	0.16869943
2	0xbd114c08	-0.0354729
3	0x3e9076cc	0.28215635
4	0x3d999ca9	0.07500584
5	0x3e584908	0.21121609
6	0xbe74f9e4	-0.2392345
7	0x3e544884	0.20730788
8	0x3edea009	0.43481472
9	0xbe7c13b4	-0.24616891
10	0x3d8763f1	0.06610859
11	0xbd6f395a	-0.058404304
12	0x3ec99f49	0.39379337
13	0x3e436949	0.19083132
14	0x3e1c27eb	0.15249602
15	0xbe96eb29	-0.29476288
16	0xbcdde9a5	-0.02708895
17	0xbdf1c6b9	-0.118054815
18	0xbe6cc051	-0.23120238
19	0x3e89ae88	0.2689097
20	0xbe427fcc	-0.18994063
21	0xbea46488	-0.3210795
22	0xbe8ee83f	-0.27911565
23	0xbd79cf55	-0.060988743
24	0xbd079031	-0.033096496
25	0xbdfa6652	-0.12226547
26	0xbe4343d0	-0.19068837
27	0xbea2bcf4	-0.31784785
28	0xbcc37026	-0.023857187
29	0xbe3eab0d	-0.18619938
30	0x3e6f3f05	0.23363884
31	0xbed5b63c	-0.41740596
32	0x3c6fc01c	0.014633205
33	0x3d7dde76	0.061979733
34	0xbedd12c8	-0.4317839
35	0x3e1a0409	0.15040602
36	0x3ca52529	0.02015932
37	0x3eb2c084	0.34912503
38	0x3929d5f8	0.00016196806
39	0xbe4c0242	-0.19922736
40	0x3c003478	0.0078250095
41	0x3e0bdba7	0.1365801
42	0x3e2b998e	0.16757795
43	0x3c99feb8	0.018798217
44	0x3e0bac2d	0.13639899
45	0x3e15d594	0.14632255
46	0x3e3bc06f	0.18335126
47	0x3e8dc335	0.27687994
48	0x3e851915	0.259957
49	0x3d64e2df	0.055880424
50	0xbe6c5ecb	-0.23083036
51	0xba6f8982	-0.0009137617
52	0xbde1337b	-0.10996147
53	0x3ea92e57	0.33043167
54	0x3e8c5d15	0.27414766
55	0x3e34004c	0.17578238
56	0xbe49ac02	-0.19694522
57	0xbd7d8c24	-0.061901227
58	0x3e822f66	0.25426787
59	0xbe785951	-0.24252822
60	0x3e2d14da	0.16902485
61	0xbdd796e0	-0.10526824
62	0x3de97279	0.11398787
63	0xbde9b23e	-0.1141095
64	0xbd00bb43	-0.031428587
65	0x3b8baf5c	0.004262848
66	0x3e64c296	0.22339854
67	0xbe714917	-0.23563038
68	0xbee14571	-0.43998292
69	0xbdf5a27c	-0.11993882
70	0x3e89c5f5	0.26908842
71	0x3dd44a8a	0.1036578
72	0x3ddbf57a	0.1074018
73	0xbe330dd3	-0.17485742
74	0xbe44aea1	-0.1920724
75	0xbec7f870	-0.3905673
76	0xbe687c69	-0.22703709
77	0x3dc42e33	0.09579124
78	0x3e8ace22	0.27110392
79	0x3e806626	0.25077933
80	0xbe9a0f34	-0.30089724
81	0xbe53a830	-0.20669627
82	0x3e32a7c0	0.17446804
83	0x3e87d2d9	0.26528051
84	0x3ef6915e	0.4815778
85	0xbe871d5d	-0.2638959
86	0xbe11179e	-0.14169165
87	0xbd87cd69	-0.06630976
88	0xbeafd581	-0.34342578
89	0x3eb0e54f	0.3454995
90	0xbd0e7cff	-0.034787174
91	0xbe8fb7ad	-0.2806982
92	0x3f0ebbee	0.5575551
93	0x3dd77128	0.1051963
94	0xbd82dd23	-0.06389835
95	0xbdab51bb	-0.08365198
96	0x3d2fe520	0.04294312
97	0x3da58f08	0.08083922
98	0xbdaa1575	-0.08304874
99	0xbe0b1ba9	-0.1358477
100	0x3dbbfaa8	0.09178668
101	0x3e0e4ea8	0.13897192
102	0x3cc54314	0.024079837
103	0xbd8ac139	-0.067751355
104	0x3b33a764	0.0027413005
105	0x3e3c856b	0.1841027
106	0x3d994172	0.07483186
107	0x3c45e59b	0.012078668
108	0xbe1627ad	-0.14663573
109	0xbd352fa9	-0.044234905
110	0x3ebaa623	0.36454877
111	0x3c9d3dda	0.019194532
112	0xbd62eeb6	-0.055403434
113	0xbf473d9d	-0.7782839
114	0xbe246132	-0.16052702
115	0x3e93ff38	0.28905654
116	0xbddd969c	-0.10819742
117	0x3e914a87	0.28377172
118	0xbe681646	-0.22664747
119	0xbe76cb59	-0.24101008
120	0x3dd9550c	0.106119245
121	0xbe30c02d	-0.17260809
122	0xbdac6915	-0.0841848
123	0xbe81ebe1	-0.25375274
124	0xbe438c20	-0.19096422
125	0xbdd96e96	-0.10616796
126	0xbe2b4ed0	-0.16729283
127	0xbe9114a0	-0.28336048
128	0xbb01441e	-0.001972444
129	0xbe349796	-0.1763595
130	0x3e4d04f5	0.20021422
131	0x3d102b28	0.035197407
132	0xbe0feea1	-0.14055873
133	0x3de6d9bf	0.112720005
134	0x3cf9247b	0.030412903
135	0x3cdb1f7a	0.026748408
136	0xbe04c5ea	-0.12966123
137	0xbe164d75	-0.14677985
138	0xbedcb98e	-0.43110317
139	0x3c2a5f5a	0.01039871
140	0x3e7d3f77	0.24731241
141	0xbdb4bab5	-0.08824674
142	0x3f4170a6	0.7556251
143	0x3ddd0ed7	0.10793846
144	0x3d20b184	0.039231792
145	0x3dc183f1	0.09448994
146	0x3dcd367d	0.100201584
147	0x3ebf1c46	0.37326258
148	0x3e876470	0.26443815
149	0xbdab9468	-0.083779156
150	0x3dffd2eb	0.12491401
151	0xbe558c04	-0.20854193
152	0x3dcd01f7	0.100101404
153	0xbe11afd7	-0.14227234
154	0x3c0c4ddd	0.008563486
155	0xbe9a44f8	-0.30130744
156	0x3d2badeb	0.041913908
157	0x3da0e97b	0.07857033
158	0x3e37a715	0.1793483
159	0x3c8d8eba	0.017279971
160	0x3deeec0e	0.116661176
161	0x3ebd80ad	0.37012234
162	0xbeff1e39	-0.49827746
163	0xbe134bea	-0.14384428
164	0x3ea5b66f	0.32365748
165	0xbd3cbe78	-0.046080083
166	0xbef80932	-0.48444515
167	0x3ec1ee66	0.37877196
168	0x3f194e85	0.59885436
169	0xbd2c9aef	-0.042139944
170	0xbe1c0122	-0.15234807
171	0xbec01b58	-0.37520862
172	0xbcfa7c47	-0.030576838
173	0xbc7edf1f	-0.015556126
174	0xbcaeab77	-0.021321995
175	0xbdbc7c79	-0.09203429
176	0xbecd6488	-0.40115762
177	0x3c343fa6	0.011001503
178	0xbd6deecd	-0.058089066
179	0xbe33edd9	-0.175712
180	0xbeade58d	-0.33964196
181	0xbd0b76e6	-0.034048937
182	0x3d092b3a	0.03348849
183	0x3d697210	0.056993544
184	0x3d9405f9	0.07227702
185	0xbdb822c7	-0.08991008
186	0x3eab2665	0.3342773
187	0xbef631ae	-0.48084778
188	0xbe0a7428	-0.13520873
189	0x3e510f41	0.20415975
190	0xbd9ee1a5	-0.07757882
191	0xbea55766	-0.32293242
192	0x3f139382	0.57646954
193	0x3f291278	0.66043806
194	0x3d265c3c	0.040615305
195	0xbdab6328	-0.08368522
196	0xbe20d222	-0.1570516
197	0x3d89858c	0.06714925
198	0x3e24cb26	0.1609312
199	0x3e9687db	0.29400524
200	0x3e7781dd	0.24170633
201	0x3d64fd92	0.055905886
202	0x3ed162cf	0.40895697
203	0x3e3061ec	0.17224854
204	0x3dff13c3	0.12454941
205	0xbc733853	-0.014844972
206	0x3dbe65c5	0.09296755
207	0xbd61fb05	-0.05517103
208	0xbce4e38b	-0.027940532
209	0xbc07910b	-0.008274327
210	0x3ed22877	0.41046497
211	0x3f249434	0.6428864
212	0xbf5b2a9b	-0.85611886
213	0xbf42afde	-0.760496
214	0xbe817d2d	-0.25290814
215	0x3f2362e8	0.63822794
216	0x3d474ea6	0.04865899
217	0x3de15816	0.11003129
218	0xbc51c700	-0.012803793
219	0xbef4a636	-0.4778306
220	0x3ea969d1	0.33088544
221	0x3d93f17b	0.07223793
222	0xbe41ffb3	-0.18945198
223	0xbea8a5be	-0.3293895
224	0xbe92cdaf	-0.2867255
225	0x3e11aca3	0.14226012
226	0x3e8292ae	0.25502533
227	0x3e5adae4	0.21372563
228	0xbd536984	-0.0516143
229	0xbdc9014b	-0.098147
230	0xbdfb3ea9	-0.12267811
231	0x3e9598a0	0.29218006
232	0x3edbb832	0.42913967
233	0x3cf5e7ad	0.030017698
234	0x3dc1f483	0.09470465
235	0x3e55eaa3	0.20890288
236	0x3d9fd693	0.07804599
237	0x3e58cada	0.21171132
238	0xbebc41e7	-0.3676903
239	0xbebfbb1c	-0.3744744
240	0x3e6e7164	0.23285443
241	0xbe016ed0	-0.12639928
242	0xbd99a08f	-0.07501327
243	0xbee754ad	-0.4518179
244	0xbe80690b	-0.2508014
245	0xbe25eb71	-0.16203095
246	0xbe379f90	-0.17931962
247	0x3dc51c63	0.09624555
248	0xbe0e1bb4	-0.13877755
249	0x3caa178d	0.020763183
250	0xbe014b58	-0.12626398
251	0xbe7f3528	-0.24922621
252	0xbe0ccc27	-0.13749753
253	0xbdfe2d01	-0.124109276
254	0xbd6c3bfe	-0.0576744
255	0xbe90a1e5	-0.28248516

conv1.bias f4 [8]
0	0xbea690c6	-0.32532328
1	0x3e87ab6a	0.26497966
2	0x3cc4a08b	0.024002334
3	0xbd7e2a46	-0.062052034
4	0xbec66748	-0.38750672
5	0xbecb6a99	-0.39729765
6	0xbdb6ccb3	-0.08925762
7	0x3e3e2a12	0.18570736

conv11.weight f4 [32, 8, 5, 5]
0	0x3e2725b3	0.16322975
1	0x3de8111a	0.11331387
2	0xbc75398f	-0.014967336
3	0xbe9fb898	-0.3119552
4	0x3e193ade	0.14963862
5	0x3e371253	0.17878084
6	0x3e159ca7	0.1461054
7	0xbd138648	-0.036016732
8	0xbd15e73c	-0.036597475
9	0xbe103b66	-0.14085159
10	0x3ce24bff	0.027624128
11	0x3e78c721	0.24294712
12	0x3ca60252	0.020264778
13	0x3ea02db9	0.31284884
14	0x3e27a260	0.16370535
15	0xbe3dd64c	-0.18538779
16	0x3d2f9265	0.042864222
17	0xbe094e02	-0.13408664
18	0x3dc45761	0.09586979
19	0x3e8e8a97	0.2784011
20	0xbda13f63	-0.07873418
21	0xbda812d5	-0.08206717
22	0xbe8e7fa2	-0.2783175
23	0xbdcfd3b2	-0.101477996
24	0xbe5a0700	-0.21291733
25	0x3ca63a28	0.020291403
26	0xbe548470	-0.20753646
27	0xbde12ad2	-0.109944955
28	0x3c076eb2	0.008266138
29	0xbd883f32	-0.066526785
30	0x3cc2f442	0.023798112
31	0x3defd99c	0.117114276
32	0x3e2165aa	0.15761438
33	0xbdcba8fc	-0.099443406
34	0x3cb93820	0.02260977
35	0x3d07abc7	0.033122804
36	0xbecb6118	-0.39722514
37	0xbe3a7b8d	-0.18211193
38	0x3d27f97b	0.041009407
39	0xbd4fd1ce	-0.050737195
40	0x3e25b448	0.16182053
41	0xbb503a00	-0.0031772852
42	0xbd5d52fc	-0.05403422
43	0xbe1a3271	-0.15058304
44	0xbe079f86	-0.13244447
45	0x3e1f501b	0.15557902
46	0x3e28d2cc	0.16486663
47	0x3e9b6c08	0.3035586
48	0xbd562aec	-0.052287027
49	0xbe976cc5	-0.29575172
50	0x3e7bb8fc	0.24582285
51	0x3df939ea	0.12169249
52	0xbeb42cfc	-0.3519057
53	0x3e500d2b	0.20317523
54	0xbe87b2ff	-0.2650375
55	0x3e15f5c2	0.1464453
56	0x3f1d1fc3	0.6137659
57	0x3f0414e5	0.5159438
58	0x3e14ab44	0.14518458
59	0x3bf18730	0.007370852
60	0xbe7ca7f1	-0.2467344
61	0xbf314d61	-0.69258696
62	0xbe8073dd	-0.25088397
63	0x3eaa8fcc	0.33312833
64	0x3eeec22d	0.4663252
65	0x3ea61ea3	0.3244525
66	0xbe57a0a3	-0.21057372
67	0xbed66c51	-0.41879514
68	0xbe84f2c4	-0.25966465
69	0x3cf45d88	0.029829755
70	0x3e12dfd3	0.14343195
71	0x3e10e050	0.14148068
72	0x3e60fce6	0.21971473
73	0xbbe22015	-0.006900797
74	0x3a092b68	0.0005232603
75	0x3e96bc22	0.2944041
76	0x3e6d02ae	0.23145553
77	0x3e2aa278	0.1666354
78	0xbe80bbd2	-0.25143296
79	0xbf0d8434	-0.5527985
80	0xbea75ead	-0.3268942
81	0xbee3f77c	-0.44524753
82	0xbe7d7679	-0.24752225
83	0x3da51696	0.080609486
84	0x3e17a944	0.14810663
85	0x3e0ed1dc	0.13947242
86	0x3ce65f14	0.028121509
87	0x3d93c7cc	0.072158426
88	0x3e666096	0.22497782
89	0x3e8adbc9	0.27120808
90	0x3eaf23ba	0.34206945
91	0x3e67d856	0.2264112
92	0x3d89596c	0.06706509
93	0xbd4ee76b	-0.050513666
94	0xbec7cdd7	-0.3902423
95	0x3d408ab0	0.047007263
96	0x3db23516	0.087015316
97	0xbd54b9c6	-0.05193498
98	0x3d29e437	0.04147741
99	0xbdf48e59	-0.11941213
100	0x3d7e2a04	0.062051788
101	0xbd661de4	-0.05618085
102	0xbd8e6f96	-0.06954877
103	0x3d55c569	0.052190218
104	0x3e070ec1	0.13189222
105	0x3c999739	0.018748866
106	0x3ccfca2e	0.025364961
107	0x3e6052a8	0.21906531
108	0x3e848186	0.2588007
109	0x3e9d8fd6	0.307738
110	0x3d5e709d	0.054306615
111	0xbd19024f	-0.037355717
112	0xbd3a9a48	-0.04555729
113	0xbc81a3fa	-0.01582526
114	0xbcf20db2	-0.029547546
115	0x3b87c825	0.004143732
116	0xbe63a335	-0.22230227
117	0xbe17012d	-0.14746542
118	0xbd15370a	-0.036429442
119	0x3c8204fc	0.015871517
120	0xbe4965f5	-0.196678
121	0xbea6bbcc	-0.32565153
122	0xbe83345b	-0.25625882
123	0xbea94170	-0.33057737
124	0xbe33389b	-0.17502062
125	0x3b190181	0.0023346844
126	0xbd2ba393	-0.041904043
127	0xbe8b1b7e	-0.27169412
128	0xbdc7ed62	-0.09762074
129	0xbd241d88	-0.040067226
130	0x3cd5671f	0.026050149
131	0x3e1e344e	0.1544964
132	0x3d666426	0.056247853
133	0x3e565e04	0.20934302
134	0xbe5d9667	-0.21639405
135	0x3e5d5cea	0.21617475
136	0x3de35b42	0.111013904
137	0xbe09e094	-0.13464576
138	0x3ecfcb0d	0.40584603
139	0xbd3e9cb6	-0.04653617
140	0xbe5deebd	-0.21673103
141	0xbd69f493	-0.05711801
142	0xbedc4bc1	-0.43026546
143	0x3c3ea12b	0.011635105
144	0xbd2cf985	-0.042230148
145	0xbe1133e9	-0.14179958
146	0xbda225b4	-0.079173476
147	0xbe8b4ff2	-0.2720943
148	0x3e147ea9	0.14501442
149	0xbdf381a0	-0.118899584
150	0xbd4f028c	-0.05053954
151	0x3d0d4178	0.034486264
152	0x3d813836	0.063095495
153	0x3ea4c132	0.32178646
154	0x3e4aaead	0.19793196
155	0x3e3756b3	0.17904167
156	0x3df42369	0.119208165
157	0xba2b8805	-0.0006543401
158	0x3d62b527	0.05534854
159	0xbea277ec	-0.31732118
160	0xbeb9e22f	-0.36305377
161	0xbadefe80	-0.0017013103
162	0xbd29e652	-0.041479416
163	0x3d2a8797	0.041633215
164	0xbde1a776	-0.11018269
165	0xbf0214d7	-0.5081305
166	0xbe922dab	-0.28550467
167	0xbe923b03	-0.28560647
168	0xbd8147ce	-0.06312524
169	0x3d392b65	0.0452074
170	0xbd955c45	-0.0729299
171	0xbc6971c8	-0.014248319
172	0xbe20f8f3	-0.15719967
173	0xbdd5ca65	-0.10438994
174	0xbe844bb7	-0.25839016
175	0xbdd5d236	-0.10440485
176	0x3e52a9af	0.20572542
177	0xbd8b3269	-0.06796724
178	0x3e0c8f38	0.13726509
179	0x3d8c93c2	0.0686412
180	0xbeaa3a73	-0.33247718
181	0xbdaf7ec5	-0.08569101
182	0xbe7dfad7	-0.24802719
183	0xbd036272	-0.032076307
184	0x3de9916d	0.11404691
185	0xbe7494c8	-0.2388488
186	0xbe2455eb	-0.160484
187	0xbe432b2a	-0.19059435
188	0x3dac83e4	0.08423594
189	0x3e69beb1	0.22826649
190	0x3ef93853	0.48675784
191	0x3f59103a	0.84790385
192	0x3e9824fd	0.2971572
193	0x3e86b9c2	0.26313597
194	0xbca33bef	-0.01992604
195	0x3d00433c	0.03131412
196	0x3e168442	0.1469889
197	0xbc98666b	-0.018603524
198	0xbd0118b6	-0.031517707
199	0x3c15ddbc	0.009147104
200	0xbe495963	-0.19663005
201	0x3d4a6328	0.04941097
202	0xbd3ed0f3	-0.04658599
203	0x3d3ed43c	0.04658912
204	0x3d84b1f3	0.064792536
205	0xbc53253b	-0.012887294
206	0x3e8f6c20	0.2801218
207	0x3d296b23	0.04136194
208	0x3e2d69c3	0.16934876
209	0x3cd18acd	0.02557888
210	0xbe173b9d	-0.14768834
211	0x3e646ecd	0.22307892
212	0x3cdd2b17	0.026998086
213	0xbd4cc251	-0.049990002
214	0xbe85a3e3	-0.26101598
215	0xbec99f1a	-0.39379197
216	0xbcdb1912	-0.026745353
217	0xbd6e8c11	-0.058239046
218	0x3c2bc392	0.010483639
219	0xbe85a4d4	-0.26102316
220	0x3d2c061f	0.041998025
221	0x3dc699a6	0.09697275
222	0x3d9dc496	0.077035114
223	0x3e0849fc	0.13309473
224	0xbe06d818	-0.1316837
225	0xbea94fa7	-0.33068582
226	0xbd9ed437	-0.077553205
227	0xbcfa331e	-0.030541953
228	0xbedad113	-0.42737636
229	0xbe1901d1	-0.14942099
230	0xbe022f4b	-0.12713353
231	0x3e0a7252	0.13520172
232	0x3dad3450	0.084572434
233	0xbe5ad238	-0.21369255
234	0xbda39ae5	-0.07988528
235	0xbe235dc6	-0.1595374
236	0x3d03285a	0.032020904
237	0xbdbf7d33	-0.09350052
238	0xbd14a1b0	-0.03628701
239	0x3c7f1e7b	0.015571232
240	0xbe0b6382	-0.13612178
241	0x3e1c0e8f	0.15239929
242	0x3c1a77f9	0.009428018
243	0xbd5f5f28	-0.054534107
244	0xbcdb3076	-0.026756506
245	0x3d88adc3	0.066737674
246	0x3dee93e4	0.11649302
247	0x3e0340ca	0.12817684
248	0x3e4ec152	0.20190933
249	0x3dc87f62	0.09789921
250	0xbdc51c4a	-0.09624536
251	0xbc8a751c	-0.016901545
252	0xbe8d2af5	-0.27571836
253	0xbb28abab	-0.0025737088
254	0x3ec1f5a1	0.37882712
255	0xbd0b0388	-0.033938915

conv11.bias f4 [32]
0	0xbd13cd9c	-0.036084756
1	0x3d15af2e	0.036544017
2	0xbc5eeb8f	-0.013605966
3	0xbe47e749	-0.19521822
4	0xbdfb342c	-0.1226581
5	0xbd2a180b	-0.041526835
6	0xbe51a67c	-0.20473665
7	0x3d3a8cfc	0.04554461
8	0x3e395e23	0.18102317
9	0x3d22b3a3	0.039722096
10	0xbd308f0d	-0.043105174
11	0x3d306130	0.043061435
12	0xbd69882f	-0.05701464
13	0x3c2ee1c7	0.010673947
14	0x3dc7bf80	0.097533226
15	0x3d2b6b86	0.04185059
16	0xb7dfe3e0	-2.6689784e-05
17	0xbc024767	-0.007951594
18	0xbe303452	-0.17207459
19	0xbd6185a8	-0.055059105
20	0x3b70756b	0.003669108
21	0x3e49df2e	0.19714043
22	0xbd10a7c0	-0.03531623
23	0x3cd14d5d	0.025549585
24	0x3da7ae3a	0.08187528
25	0xbc27091c	-0.010195043
26	0x3d8ed0bc	0.06973407
27	0xbdd731cc	-0.10507545
28	0xbc911c0e	-0.017713573
29	0x3e414388	0.18873417
30	0x3d862ae8	0.065511525
31	0x3cfd5c88	0.030927911

batch1.weight f4 [32]
0	0x3f7db179	0.99098927
1	0x3f6a4e76	0.9152597
2	0x3f804e48	1.002389
3	0x3f7b5e80	0.9819107
4	0x3f766748	0.96251345
5	0x3f86d2be	1.0533063
6	0x3f7f2fca	0.99682295
7	0x3f8114de	1.0084493
8	0x3f7154ef	0.94270223
9	0x3f81f282	1.0152133
10	0x3f68cc75	0.90936977
11	0x3f863b0a	1.0486767
12	0x3f8ae503	1.0851139
13	0x3f9b4ac0	1.2132187
14	0x3f6bade3	0.92062205
15	0x3f79e9e6	0.97622526
16	0x3f88d199	1.0688964
17	0x3f7015b6	0.9378313
18	0x3f81c545	1.0138327
19	0x3f706f90	0.9392023
20	0x3f607d32	0.8769103
21	0x3f6f043b	0.9336583
22	0x3f844469	1.0333377
23	0x3f851b9c	1.0399051
24	0x3f7f5671	0.99741274
25	0x3f5a3fe8	0.85253763
26	0x3f7dd405	0.9915164
27	0x3f798d88	0.97481585
28	0x3f61f8ae	0.8827008
29	0x3f5964d2	0.84919465
30	0x3f8b0008	1.0859385
31	0x3f67d065	0.9055236

batch1.bias f4 [32]
0	0xbed8dea9	-0.42357376
1	0xbeac1ebb	-0.33617195
2	0xbeff0f05	-0.49816146
3	0xbee33986	-0.44379824
4	0xbec976d6	-0.39348477
5	0xbebfced3	-0.37462482
6	0xbecbf8c7	-0.3983824
7	0xbef3d566	-0.47623748
8	0xbebff80d	-0.37493935
9	0xbedca791	-0.43096593
10	0xbeae499d	-0.34040537
11	0xbeaf647f	-0.3425636
12	0xbeae0035	-0.33984533
13	0xbe5df52f	-0.21675561
14	0xbe7a4050	-0.24438596
15	0xbea2a824	-0.31768906
16	0xbe88cc3c	-0.26718318
17	0xbe8a9389	-0.27065685
18	0xbf22cd32	-0.63594353
19	0xbe15b086	-0.1461812
20	0xbe9fab5d	-0.31185427
21	0xbe90b022	-0.2825938
22	0xbef0708b	-0.46960863
23	0xbebb0cf0	-0.36533308
24	0xbeee3f2c	-0.4653257
25	0xbe9cb394	-0.30605757
26	0xbe743892	-0.23849705
27	0xbea6d06e	-0.32580894
28	0xbde23109	-0.11044509
29	0xbec69c99	-0.3879135
30	0xbe71e2d4	-0.23621684
31	0xbeb466fe	-0.35234827

batch1.running_mean f4 [32]
0	0x3f7b23e0	0.98101616
1	0x3ecc1d02	0.3986588
2	0x3ed62cd1	0.41831067
3	0xbf70aa98	-0.94010305
4	0x3d995f78	0.07488912
5	0xbf63c397	-0.8897032
6	0x3f6d0a09	0.9259344
7	0xbf85f07c	-1.0464015
8	0x3f6a7e05	0.9159854
9	0xbf811f6f	-1.0087718
10	0xbdcb5d3b	-0.09929892
11	0xbef8fa05	-0.4862825
12	0x3fbb793e	1.4646375
13	0xbe778315	-0.24171098
14	0x3e8a1111	0.26966146
15	0xbf39675b	-0.7242333
16	0xbfb92969	-1.4465762
17	0x3fcfdea2	1.6239817
18	0x3e22da76	0.15903649
19	0x3fd846f5	1.6896654
20	0x3d9148e5	0.07093982
21	0xbd911d33	-0.070856474
22	0xbe551eff	-0.20812605
23	0xbe110548	-0.14162171
24	0xbe89e518	-0.26932597
25	0xbf2d5598	-0.6770873
26	0x3e2a1acf	0.16611789
27	0x3f48f788	0.785027
28	0x3e199b98	0.1500076
29	0xbec81c4c	-0.3908409
30	0xbd7b0749	-0.061286245
31	0xbda19daa	-0.078914

batch1.running_var f4 [32]
0	0x4000cf3a	2.012648
1	0x4053736c	3.3039198
2	0x3fab6bad	1.3392235
3	0x3f6f867f	0.935646
4	0x3fc48cac	1.535543
5	0x4062f6c9	3.5463126
6	0x3fe9bd6d	1.8260933
7	0x400f9616	2.2435355
8	0x40698778	3.6488934
9	0x402ddf36	2.7167487
10	0x3f1abc05	0.60443145
11	0x3f849c8d	1.0360276
12	0x3fc11c7d	1.5086819
13	0x3fc838dc	1.5642352
14	0x4007b2e5	2.1202939
15	0x4045c277	3.0899942
16	0x4091cf16	4.556529
17	0x408bd508	4.369755
18	0x3f965e22	1.1747477
19	0x3ffe6670	1.9875011
20	0x3fc869cb	1.5657285
21	0x3f4473ee	0.76739395
22	0x4006ef75	2.1083653
23	0x3fe9376e	1.8220041
24	0x3fae6a5a	1.3626206
25	0x404ea920	3.2290726
26	0x40310535	2.7659428
27	0x3faf0346	1.3672874
28	0x40549c5d	3.3220437
29	0x3fda7cad	1.7069298
30	0x3ffeca4e	1.9905488
31	0x3f05e8fd	0.52308637

conv2.weight f4 [64, 32, 5, 5]
0	0x3e932dcc	0.28745878
1	0x3d82054f	0.06348669
2	0xbc7d8199	-0.015472793
3	0xbbdd3c54	-0.0067515764
4	0xbd45077e	-0.04810285
5	0x3d9a9fa7	0.075499825
6	0xbe523980	-0.20529747
7	0xbeb95edf	-0.36205193
8	0xbe3901d1	-0.18067099
9	0x3e0237cc	0.12716597
10	0x3e6b07c0	0.22952175
11	0x3e73d415	0.23811372
12	0x3e4d7f43	0.20068078
13	0x3d1ad370	0.0377993
14	0xbd278d90	-0.04090649
15	0x3b8aa3eb	0.0042309663
16	0x3e5a0d0c	0.2129404
17	0x3e6979e4	0.22800404
18	0xbd1d3131	-0.03837699
19	0xbeb34ae9	-0.3501809
20	0x3ce96dc1	0.028494718
21	0x3cbcfa67	0.02306862
22	0x3e8a77f3	0.2704464
23	0x3e3bcb11	0.18339182
24	0xbe201bcc	-0.15635604
25	0x3ec3b627	0.3822491
26	0x3f0c0bdf	0.54705614
27	0xbd8753c2	-0.066077724
28	0x3dbcae1a	0.09212895
29	0xbe8148af	-0.25250766
30	0x3ec42399	0.3830841
31	0x3ecc8f41	0.39953044
32	0xbdb17284	-0.0866442
33	0x3d0974c8	0.033558637
34	0xbdb8186a	-0.089890316
35	0x3ec6fae1	0.3886328
36	0x3e3b55a4	0.18294388
37	0xbdd1a1c9	-0.10235936
38	0xbe4e22e2	-0.20130494
39	0xbe410f3b	-0.18853466
40	0x3ee11d23	0.43967542
41	0x3e89b7b2	0.2689796
42	0xbd4775a5	-0.04869618
43	0xbc7eac74	-0.015544046
44	0xbd8ffe25	-0.07030896
45	0x3e00a7d6	0.12564024
46	0x3d5c1416	0.053730093
47	0xbdf6ad41	-0.12044764
48	0x3dcb1669	0.09916384
49	0x3d6c2926	0.05765643
50	0x3ddfecc0	0.10933828
51	0x3de6d680	0.112713814
52	0xbda97c03	-0.082756065
53	0xbc1d7ae3	-0.009611818
54	0xbe22f722	-0.15914586
55	0x3c86a2c1	0.016435029
56	0x3d8f0472	0.0698327
57	0xbed3869c	-0.41313636
58	0xbefcf56b	-0.4940599
59	0xbe1cdc23	-0.1531835
60	0x3e41c89d	0.18924184
61	0x3daee4de	0.08539747
62	0xbecad69e	-0.39616865
63	0xbe877e22	-0.2646342
64	0x3d4871ec	0.04893677
65	0x3d8006ce	0.06251298
66	0xbdf79fd2	-0.1209103
67	0xbd8cea44	-0.0688062
68	0x3d428daf	0.0474984
69	0x3e8b6e55	0.27232614
70	0xbf0b667e	-0.54453266
71	0xbe60ba49	-0.21946062
72	0xbdd8cf24	-0.10586384
73	0xbe0de3b2	-0.1385639
74	0x3dbf1330	0.093298316
75	0xbedad1ab	-0.4273809
76	0xbe112d42	-0.1417742
77	0xbecd0164	-0.40040123
78	0xbefd9470	-0.4952731
79	0xbea445cf	-0.3208451
80	0xbef44546	-0.477091
81	0xbb480f27	-0.003052661
82	0xbe439513	-0.19099836
83	0xbea4491f	-0.32087037
84	0xbd8555f3	-0.06510534
85	0xbe8051c3	-0.2506238
86	0x3e28afd8	0.16473329
87	0xbe1e37e6	-0.15451011
88	0xbe83aeeb	-0.2571939
89	0x3cf905bc	0.030398242
90	0xbe221bd4	-0.15830928
91	0x3ddb0aad	0.106953956
92	0xbdc62db8	-0.09676689
93	0x3d92a5a6	0.07160501
94	0x3ebf5acd	0.37373963
95	0xbd3bf77a	-0.04589031
96	0x3dc4c133	0.09607162
97	0xbe561773	-0.20907383
98	0xbd510a53	-0.051035237
99	0x3d525019	0.05134592
100	0x3e0e6c9a	0.13908616
101	0x3a165f3a	0.0005736236
102	0x3dc6aa84	0.09700492
103	0x3e12092d	0.14261313
104	0x3d8b71cb	0.06808814
105	0xbd8b271f	-0.06794571
106	0xbcaa2b1f	-0.020772515
107	0xbd659401	-0.05604935
108	0x3e01b8c9	0.12668146
109	0x3d1afac1	0.037836794
110	0xbe2ca3b3	-0.16859321
111	0xbcb2cb40	-0.021825433
112	0xbe0a685b	-0.13516371
113	0xbe1fdf2e	-0.1561248
114	0xbe312a82	-0.17301372
115	0x3ce45785	0.027873764
116	0x3e171e27	0.14757596
117	0x3c902c1a	0.017599154
118	0xbe0a6688	-0.13515675
119	0xbe079f0d	-0.13244267
120	0x3d388ee0	0.04505813
121	0x39fd4d6d	0.00048313607
122	0xbbc1b45e	-0.005911394
123	0x3d79216d	0.060822893
124	0x3dd03c2e	0.10167728
125	0xbea1cdb9	-0.31602266
126	0xbcb36ea6	-0.021903347
127	0xbe84a343	-0.2590581
128	0xbe5cdb59	-0.2156805
129	0xbe535326	-0.20637187
130	0xbe2edf79	-0.17077436
131	0x3d6c4379	0.057681534
132	0xbe4df42c	-0.20112675
133	0xbc89eb2d	-0.016835773
134	0xbdc32390	-0.095282674
135	0x3e2240b4	0.15844995
136	0x3c9d55af	0.019205896
137	0xbe5064bf	-0.20350932
138	0x3d5b0da4	0.053479806
139	0x3d8b272d	0.067945816
140	0x3e39975b	0.18124144
141	0xbb6958c8	-0.0035605896
142	0xbe1d7e91	-0.15380313
143	0x3afdb402	0.0019356015
144	0xbdbe7939	-0.09300465
145	0x3d26887b	0.0406575
146	0x3c9e7cc0	0.019346595
147	0xbd61e2e5	-0.055148024
148	0xbd8e6a0a	-0.06953819
149	0xbe01fb3f	-0.12693499
150	0xbf3c5913	-0.73573416
151	0xbef73d56	-0.48288983
152	0xbe8100b6	-0.25195855
153	0xbeff7a41	-0.4989796
154	0xbe890a61	-0.2676573
155	0xbedf7932	-0.43647152
156	0x3c803f20	0.0156551
157	0x3e6e2eae	0.23259994
158	0xbe002383	-0.12513547
159	0xbe0b453e	-0.13600633
160	0xbdee7f3c	-0.11645362
161	0x3f0ae1bd	0.542507
162	0x3e9bae70	0.30406523
163	0x3d936865	0.07197646
164	0x3d5ab631	0.053396408
165	0xbe849234	-0.25892794
166	0x3e864cd9	0.26230505
167	0x3da899d1	0.08232463
168	0x3dabf3ef	0.08396136
169	0x3e03219e	0.12805793
170	0xbe2ca208	-0.16858685
171	0x3e739afb	0.23789589
172	0x3e82cc4e	0.25546497
173	0x3e4424a3	0.19154601
174	0x3e83a06e	0.25708336
175	0x3eb93630	0.36174154
176	0x3e61a436	0.22035298
177	0xbdeee599	-0.11664886
178	0xbe51e84f	-0.20498775
179	0xbe601c57	-0.21885811
180	0xbddf4714	-0.10902229
181	0x3d0585c9	0.03259829
182	0x3cf51814	0.029918708
183	0x3d379b47	0.04482582
184	0xbe12caec	-0.14335221
185	0xbeb00805	-0.34381118
186	0xbea3eefa	-0.32018262
187	0xbe8481c7	-0.25880262
188	0x3d595514	0.053059652
189	0x3caede15	0.021346131
190	0x3e7f8a33	0.24955063
191	0x3cf6dce3	0.030134624
192	0xbe1b9f05	-0.1519738
193	0x3e20f27e	0.15717503
194	0x3eaead83	0.34116754
195	0x3e2641e1	0.16236068
196	0x3d847ae6	0.064687535
197	0xbe4891fe	-0.19586942
198	0x3d8b866c	0.06812748
199	0x3eb8eeb3	0.36119613
200	0xbe98c598	-0.29838252
201	0xbe41491e	-0.18875548
202	0x3d025820	0.031822324
203	0x3db23d61	0.08703113
204	0x3dfc3cd8	0.123162925
205	0xbea4cfd8	-0.32189822
206	0xbe0d5bd8	-0.13804567
207	0xbcbe2743	-0.02321208
208	0x3db4fca1	0.08837248
209	0x3e42f45f	0.19038533
210	0xbe17fcd1	-0.14842536
211	0x3e6412e7	0.22272836
212	0x3e4044d8	0.18776262
213	0x3e5459dc	0.20737404
214	0x3e7915f7	0.24324785
215	0xbe1a3a3e	-0.1506128
216	0xbc1395db	-0.009007896
217	0xbc29df54	-0.010368187
218	0xbe3543c8	-0.17701638
219	0xbeb7c4ad	-0.3589224
220	0xbe76a0df	-0.24084805
221	0xbe7eb89a	-0.24875107
222	0xbe052654	-0.13002902
223	0xbde4f1a3	-0.11178901
224	0xbe32baaa	-0.17454019
225	0x3c84a2c5	0.016190896
226	0x3e4dd2c9	0.2009994
227	0x3d8eba28	0.069691
228	0x3dfc4e43	0.12319615
229	0xbc9f87ab	-0.019473871
230	0x3e5e0b32	0.21683958
231	0x3e86fbbf	0.26363942
232	0x3e88e80b	0.26739535
233	0x3c8bf721	0.017085614
234	0xbe2dc4bc	-0.1696958
235	0xbda33d85	-0.07970718
236	0xbd0edd64	-0.034879103
237	0xbe0fecc7	-0.14055167
238	0xbe8ecb10	-0.278893
239	0xbe9b68f1	-0.303535
240	0xbe2b0e81	-0.16704752
241	0xbe4afeea	-0.19823804
242	0xbd21d69a	-0.0395113
243	0x3e29963d	0.16561218
244	0x3e493dfa	0.19652548
245	0xbe81d3f3	-0.25357017
246	0xbe8ade94	-0.2712294
247	0x3e886b1e	0.26644224
248	0x3f04892c	0.5177181
249	0x3ecf7dea	0.40525752
250	0x3ea8589b	0.328801
251	0x3dd39673	0.1033143
252	0x3e92e9f0	0.28694105
253	0x3e4c7aa4	0.19968659
254	0x3c645f6c	0.013938766
255	0xbe293c14	-0.16526824

conv2.bias f4 [64]
0	0x3e40bd23	0.1882215
1	0xbef32ae2	-0.47493654
2	0x3e8bc008	0.27294946
3	0x3e5ade65	0.213739
4	0x3e90a0bc	0.2824763
5	0xbcd62cc4	-0.026144393
6	0xbf15544c	-0.5833175
7	0xbd2f760c	-0.042837188
8	0x3e0409f5	0.12894423
9	0xbedbc546	-0.42923945
10	0x3bcd3aaf	0.006263099
11	0xbe6be209	-0.23035444
12	0x3de0f12e	0.109835014
13	0x3e887700	0.2665329
14	0x3f1f56fe	0.62242115
15	0xbe8ffa4d	-0.28120652
16	0xbda4280b	-0.0801545
17	0xbd3c59b9	-0.045984004
18	0xbc17d881	-0.009267927
19	0x3d7e99f3	0.062158536
20	0xbe164454	-0.14674503
21	0x3dfd0e0d	0.123561956
22	0x3e128558	0.14308679
23	0xbe2aefe5	-0.16693075
24	0x3e87e04a	0.26538306
25	0x3eaa108c	0.3321575
26	0xbe0c3be4	-0.13694721
27	0xbe9d3204	-0.3070222
28	0x3e4abe35	0.1979912
29	0xbe345ec5	-0.17614277
30	0x3df18c55	0.11794344
31	0xbba1f333	-0.0049423217
32	0xbe5118e2	-0.20419648
33	0x3b166a5f	0.0022951586
34	0xbcd3811a	-0.025818396
35	0x3e92e8ad	0.28693143
36	0xbefd9547	-0.49527952
37	0x3de3a893	0.11116137
38	0xbef643c5	-0.4809858
39	0xbe4d14a6	-0.20027408
40	0xbed2a114	-0.41138518
41	0x3e50f77e	0.20406911
42	0x3e75827a	0.23975554
43	0x3e7cc9f8	0.2468642
44	0x3d46e9b2	0.048562713
45	0x3e8a93de	0.2706594
46	0x3e662210	0.22473931
47	0xbe6b0dbe	-0.22954461
48	0x3e8f5a51	0.27998593
49	0x3e010310	0.12598825
50	0x3ebd9f68	0.3703568
51	0x3b380d3a	0.0028084056
52	0x3e42b8ff	0.19015883
53	0xbd10f68d	-0.03539138
54	0x3e230689	0.15920462
55	0xbf23048e	-0.63678825
56	0x3f2f061f	0.68368715
57	0x3e7028fb	0.23453133
58	0xbe0cd7a8	-0.13754141
59	0x3deb99e0	0.11503959
60	0x3d982a40	0.074299335
61	0x3e385438	0.18000877
62	0xbf25db0a	-0.6478735
63	0x3dcd2736	0.100172445

conv22.weight f4 [32, 64, 5, 5]
0	0xbefd905f	-0.4952421
1	0xbebba4d7	-0.366492
2	0xbea7c7fe	-0.3276977
3	0xbed662ad	-0.4187216
4	0x3ee630df	0.4495916
5	0xbe992385	-0.29909912
6	0xbe79e0a9	-0.24402107
7	0xbe0fcf28	-0.14043868
8	0x3cfedcd3	0.031111157
9	0x3f1072ef	0.56425375
10	0x3d2a640d	0.041599322
11	0x3da795ff	0.08182906
12	0x3dfd0660	0.123547316
13	0x3e399005	0.18121345
14	0x3f0720b3	0.5278427
15	0x3dadc235	0.08484308
16	0x3f067f80	0.525383
17	0x3e54a27e	0.20765111
18	0xbe264896	-0.16238627
19	0x3d2d86f0	0.042365015
20	0x3ea5b82e	0.3236708
21	0x3f007d3d	0.501911
22	0x3df6c17e	0.120486245
23	0xbe8b4b05	-0.27205673
24	0x3e414d7f	0.18877219
25	0x3e28e9d5	0.1649545
26	0x3da17b14	0.078848034
27	0x3c45a364	0.012062881
28	0x3d6fe79e	0.058570497
29	0x3e21d99c	0.15805668
30	0x3db8f734	0.09031525
31	0x3d797170	0.060899198
32	0xbd5417eb	-0.051780622
33	0x3ce8ad22	0.028402869
34	0xbd2437a0	-0.04009211
35	0x3e0a5147	0.13507567
36	0x3d92f4fe	0.07175635
37	0xbc989559	-0.018625902
38	0x3dc4583a	0.095871404
39	0x3d1de8de	0.038552158
40	0x3e6d6845	0.23184307
41	0x3e14db9b	0.14536898
42	0x3d8ca34f	0.06867086
43	0x3cc72c9e	0.024313267
44	0xbe040665	-0.12893064
45	0xbe1930eb	-0.14960067
46	0xbd4a4b2e	-0.049388103
47	0x3d96dfc6	0.073669
48	0x3b7c0ac3	0.0038458563
49	0xbd693066	-0.056930922
50	0x3ec33387	0.3812525
51	0x3e9c8115	0.30567232
52	0x3e84e689	0.25957134
53	0x3e2ad3b8	0.16682327
54	0x3e1c4750	0.15261579
55	0x3db63b6a	0.08898051
56	0x3e7b13d9	0.2451929
57	0x3e360970	0.17777038
58	0xbb0ead63	-0.0021770827
59	0x3deaa8a0	0.11457944
60	0xbe7294e9	-0.23689617
61	0xbe78aa0b	-0.24283616
62	0xbe942b63	-0.2893935
63	0xbed1a519	-0.40946272
64	0xbd961655	-0.07328478
65	0xbe9a47ed	-0.30133
66	0xbe3a39a0	-0.18186045
67	0xbe1abd39	-0.15111245
68	0xbca00d28	-0.019537523
69	0x3d796bc0	0.060893774
70	0xbe167858	-0.14694345
71	0x3c8ab8d8	0.016933843
72	0xbc048567	-0.008088446
73	0x3e285d83	0.16441922
74	0x3e4ce1fd	0.20008083
75	0x3e40e2b7	0.18836485
76	0x3e557a40	0.20847416
77	0x3ddb7e52	0.10717453
78	0xbcdd871d	-0.027041966
79	0xbc852ce1	-0.016256751
80	0xbe16a6a5	-0.14712007
81	0xbed1a792	-0.40948159
82	0xbedd67f2	-0.43243366
83	0xbe5aac76	-0.21354851
84	0xbd1b042c	-0.037845775
85	0xbe902f53	-0.28161106
86	0xbe8678a8	-0.26263928
87	0xbe10b303	-0.14130788
88	0xbbdc70e5	-0.0067273253
89	0x3cba9a1c	0.022778563
90	0xbd04356a	-0.032277502
91	0xbdabbdfd	-0.08385847
92	0x3b982227	0.004642743
93	0x3d4cc3a9	0.049991284
94	0x3dcabb41	0.09898997
95	0xbe2e4b9e	-0.17021033
96	0xbe84c80e	-0.2593388
97	0xbdc34438	-0.09534496
98	0x3cc2c357	0.023774786
99	0xbd79cc7a	-0.06098602
100	0xbdd18b78	-0.1023168
101	0x3e017463	0.12642054
102	0xbe3f3c93	-0.18675451
103	0xbe9a083b	-0.30084404
104	0xbd34d6d3	-0.044150185
105	0xbda886af	-0.08228814
106	0x3ea05a70	0.31318998
107	0x3e6a6368	0.22889483
108	0x3e7c6ba0	0.2465043
109	0x3eaca8d9	0.3372257
110	0x3e0c04bb	0.1367368
111	0x3eb5a019	0.35473707
112	0x3db09933	0.086229704
113	0xbbdb0bb5	-0.006684745
114	0xbebaa03c	-0.36450374
115	0x3dfc7d5f	0.123286
116	0xbd5efc50	-0.054439843
117	0xbed14083	-0.4086953
118	0xbec165ba	-0.37772924
119	0xbf3476f8	-0.7049403
120	0xbd8a25e2	-0.06745507
121	0xbe33f89a	-0.17575303
122	0xbf0705c7	-0.5274319
123	0xbea5cecf	-0.32384345
124	0xbeff9eec	-0.49925935
125	0xbf18095c	-0.5938928
126	0xbee882ca	-0.45412284
127	0xbea1e174	-0.3161732
128	0xbe2e61ff	-0.1702957
129	0x3cb16fc9	0.021659749
130	0xbe01e8c4	-0.1268645
131	0xbdd053e6	-0.10172252
132	0xbe766775	-0.24062903
133	0xbe11a1cb	-0.14221875
134	0x3aac6a7a	0.0013154291
135	0x3e0178e3	0.12643771
136	0x3bae6ba3	0.00532289
137	0x3d1b180f	0.03786474
138	0x3dcf581e	0.10124229
139	0x3e8922fa	0.26784497
140	0x3ea05a5e	0.31318945
141	0x3e3d776b	0.18502586
142	0x3d5ca2dc	0.053866252
143	0xbd77dd40	-0.060513735
144	0x3d6ad8b6	0.057335578
145	0x3ed8e81e	0.4236459
146	0x3e75bbfa	0.23997489
147	0xbd98dfbb	-0.07464548
148	0xbe664335	-0.22486575
149	0xbd917ea1	-0.07104231
150	0xbe8762ad	-0.2644247
151	0xbd7d5c3e	-0.061855547
152	0xbe17b952	-0.14816788
153	0xbd6346c4	-0.05548741
154	0xbe6437b4	-0.22286874
155	0xbe8350bb	-0.2564753
156	0xbbb5706d	-0.005537084
157	0x3e007ea4	0.1254831
158	0x3e9c3777	0.30511066
159	0x3d912d43	0.07088711
160	0x3e0ffbc7	0.14060889
161	0x3e79c613	0.24391966
162	0x3e456e72	0.19280413
163	0x3e8c1aa2	0.2736407
164	0x3d2550b9	0.040360186
165	0x3e75d40e	0.24006674
166	0xbc4c0bae	-0.0124539565
167	0xbe52e12f	-0.20593713
168	0xbd0a448c	-0.033756778
169	0xbe99ce4e	-0.3004021
170	0x3ec6f702	0.38860327
171	0x3dd3faab	0.103505455
172	0xbcb9b29f	-0.022668181
173	0xbc9359aa	-0.017987091
174	0xbee29079	-0.4425085
175	0xbe543648	-0.20723832
176	0x3c70c94e	0.014696432
177	0xbcd2091b	-0.025639107
178	0x3d3759a8	0.044763237
179	0x3df126fb	0.11775013
180	0xbdeb4c6b	-0.11489185
181	0x3cd7d15b	0.026344946
182	0xbd992821	-0.07478357
183	0xbd887ac6	-0.06664042
184	0xbe514835	-0.20437701
185	0xbd616dc2	-0.055036314
186	0xbdac6c1a	-0.08419056
187	0xbe6ae23a	-0.22937861
188	0xbe387b23	-0.18015723
189	0xbe999c71	-0.30002168
190	0xbdc57e0c	-0.09643182
191	0xbe57db1f	-0.21079682
192	0xbe8a400f	-0.27001998
193	0xbe30300f	-0.17205833
194	0xbe4a9004	-0.197815
195	0xbe4cfdde	-0.20018718
196	0xbe7daa8a	-0.24772087
197	0xbe99dd8d	-0.30051842
198	0xbe08664d	-0.13320275
199	0xbda152d5	-0.07877127
200	0xbdbe13a1	-0.09281088
201	0xbc810e49	-0.015753882
202	0x3eafe383	0.34353265
203	0x3f06b662	0.52622044
204	0x3e5b9433	0.21443252
205	0xbba65704	-0.005076291
206	0xbd103faf	-0.035216983
207	0x3bb63174	0.0055600945
208	0xbe682fab	-0.22674434
209	0xbe2477f9	-0.16061391
210	0x3db8ba05	0.090198554
211	0xbd90dfe3	-0.07073953
212	0xbd96a7b3	-0.07356205
213	0x3cc75f4f	0.024337439
214	0xbda9c2a4	-0.08289078
215	0x3e0a72dc	0.13520378
216	0xbe3d3a89	-0.1847936
217	0xbe8f159c	-0.27946174
218	0xbd8d1c67	-0.06890183
219	0xbe521796	-0.2051681
220	0xbd27f36f	-0.04100364
221	0xbc065fa7	-0.008201516
222	0x3dc3ae91	0.0955478
223	0x3ec11dc0	0.3771801
224	0x3d13e3e4	0.036106005
225	0xbde1445b	-0.10999366
226	0x3c48380d	0.012220395
227	0xbdd31c38	-0.10308117
228	0xbdd88375	-0.105719484
229	0xbe6129d2	-0.2198861
230	0x3e2de257	0.16980873
231	0x3e5586cd	0.20852204
232	0x3dcb2821	0.09919763
233	0x3e101dcc	0.14073867
234	0x3c2bbfbd	0.010482726
235	0x3e5e4b90	0.21708512
236	0x3e34192c	0.17587727
237	0x3db97263	0.09055021
238	0x3e60273f	0.21889971
239	0x3e384387	0.1799451
240	0x3e781324	0.24226052
241	0x3d6e05cd	0.058111
242	0xbd38aadf	-0.04508483
243	0x3d819fd6	0.063293144
244	0x3c83583e	0.016033288
245	0x3e2fdd03	0.17174153
246	0x3c9b26a3	0.018939322
247	0xbdfa22e3	-0.12213685
248	0x3d5c8817	0.053840723
249	0xbd0fee01	-0.035139088
250	0xbe7f795a	-0.24948636
251	0x3cbcdcaa	0.02305444
252	0x3e85d281	0.26137164
253	0xbd060edb	-0.03272901
254	0x3e9b752c	0.30362833
255	0xbd0ab17e	-0.033860676

conv22.bias f4 [32]
0	0x3c35699f	0.011072545
1	0x3c8653d1	0.016397389
2	0xbc9bfd27	-0.01904161
3	0x3bf1fcd9	0.007384878
4	0xbc7a1b37	-0.015265278
5	0x3c5ee8f5	0.013605346
6	0xbc11e10e	-0.008903755
7	0x3c96aac5	0.018391976
8	0x3caaf199	0.020867156
9	0xbc706c39	-0.01467424
10	0xbb93558e	-0.004496283
11	0x3b8c2587	0.0042769345
12	0xbbe04a55	-0.0068447986
13	0x3c7e6eb1	0.015529321
14	0x3c08421a	0.008316541
15	0xbb9fc2cb	-0.004875516
16	0xba9a7f0d	-0.0011787132
17	0x3c87cc72	0.01657698
18	0xba0bee31	-0.00053379225
19	0xbc333eec	-0.010940295
20	0xbb07a9af	-0.0020700505
21	0x3c27487a	0.010210151
22	0xbcd72c7a	-0.026266325
23	0x3cb9bd4b	0.02267327
24	0x3c5df533	0.01354723
25	0xbc6a2757	-0.014291606
26	0xbc7218b7	-0.0147764
27	0x3c996370	0.018724173
28	0xbbe1fb77	-0.006896432
29	0xbb6aada9	-0.0035809076
30	0x3c4d69f7	0.012537471
31	0x3c0b1959	0.00848993

batch2.weight f4 [32]
0	0x3f81c7e8	1.0139132
1	0x3f44bd11	0.7685099
2	0x3f6076d1	0.876813
3	0x3f6b5f69	0.9194246
4	0x3f3dbe38	0.74118376
5	0x3f8826e4	1.0636868
6	0x3f5c7436	0.86114824
7	0x3f546653	0.82968634
8	0x3f7b2969	0.9811006
9	0x3f53f1bc	0.8279073
10	0x3f85b99c	1.0447268
11	0x3f5a0ca5	0.85175544
12	0x3f5e0ad0	0.8673525
13	0x3f51d719	0.8196884
14	0x3f761731	0.9612914
15	0x3f200cd9	0.62519604
16	0x3f85227d	1.040115
17	0x3f6ce825	0.92541724
18	0x3f4e77db	0.80651635
19	0x3f553916	0.8329023
20	0x3f8eaf30	1.1147213
21	0x3f2094e3	0.62727183
22	0x3f4c9806	0.7991947
23	0x3f87b85e	1.0603139
24	0x3f6105c5	0.8789943
25	0x3f6faf7d	0.9362715
26	0x3f8189f6	1.0120227
27	0x3f735592	0.95052445
28	0x3f47e2d1	0.7808047
29	0x3f47d973	0.78066176
30	0x3f1a4fba	0.60277903
31	0x3f818213	1.011782

batch2.bias f4 [32]
0	0xbf2eb046	-0.6823772
1	0xbee4840d	-0.44631997
2	0xbf0f6228	-0.5600915
3	0xbefb06ee	-0.49028724
4	0xbf03d7e8	-0.5150132
5	0xbf447f0f	-0.76756376
6	0xbee1936d	-0.4405779
7	0xbef3e334	-0.4763428
8	0xbf2359e5	-0.63809043
9	0xbf1252bd	-0.571575
10	0xbf3b0312	-0.7305156
11	0xbf0bcf39	-0.5461307
12	0xbf33b6f7	-0.7020106
13	0xbf15f7f0	-0.5858145
14	0xbf07b32a	-0.5300776
15	0xbecbaf2c	-0.39782083
16	0xbf2f7e45	-0.68552047
17	0xbf2cd896	-0.67517984
18	0xbf097aa8	-0.53702784
19	0xbf09d69e	-0.53843105
20	0xbf45615a	-0.7710167
21	0xbe895efd	-0.26830283
22	0xbf328820	-0.6973896
23	0xbf4eebf3	-0.8082878
24	0xbf1327eb	-0.57482785
25	0xbf1828ce	-0.59437263
26	0xbf30bf8a	-0.69042265
27	0xbf207c72	-0.6268989
28	0xbf270ad1	-0.6525088
29	0xbf353352	-0.70781434
30	0xbe79fc38	-0.2441262
31	0xbf29065e	-0.6602534

batch2.running_mean f4 [32]
0	0xc385d9f1	-267.70267
1	0xc2be7e8e	-95.24718
2	0xc3155cca	-149.36246
3	0xc3242e1f	-164.18016
4	0xc2da3345	-109.100136
5	0xc36cca0f	-236.78929
6	0xc355dc2e	-213.86008
7	0xc3493d3c	-201.2392
8	0xc334f530	-180.95776
9	0xc3608759	-224.5287
10	0xc379cd6b	-249.80241
11	0xc35dde2a	-221.86783
12	0xc3893277	-274.39426
13	0xc2f135ad	-120.604836
14	0xc374213a	-244.12979
15	0x42626eb9	56.608128
16	0xc38716f6	-270.17938
17	0xc33c45ba	-188.27237
18	0xc382cefa	-261.617
19	0xc32b8024	-171.50055
20	0xc394e357	-297.7761
21	0xc2e0b902	-112.36134
22	0xc3218886	-161.5333
23	0xc3839b5c	-263.21375
24	0xc3766d07	-246.42589
25	0xc36d14d6	-237.08139
26	0xc374f430	-244.95386
27	0xc383b1a4	-263.38782
28	0xc2fc2a73	-126.08291
29	0xc32f098f	-175.03734
30	0xc2489555	-50.145832
31	0xc367d1d6	-231.81967

batch2.running_var f4 [32]
0	0x47d371bf	108259.49
1	0x4715d840	38360.25
2	0x477b9bb9	64411.723
3	0x47a6ed97	85467.18
4	0x47775807	63320.027
5	0x4796c175	77186.914
6	0x47b2fdb2	91643.39
7	0x476e3d58	60989.344
8	0x477683f5	63107.957
9	0x476c887b	60552.48
10	0x479c2ed0	79965.625
11	0x47798b1b	63883.105
12	0x4777288b	63272.543
13	0x4748aa1f	51370.12
14	0x47a23af2	83061.89
15	0x4720f5a3	41205.637
16	0x47c861b4	102595.41
17	0x4747d605	51158.02
18	0x478b402b	71296.336
19	0x4752c7e0	53959.875
20	0x47c491c8	100643.56
21	0x4776e525	63205.145
22	0x47249193	42129.574
23	0x479eb4f9	81257.945
24	0x4780fd4a	66042.58
25	0x47ab62f1	87749.88
26	0x47bb3d09	95866.07
27	0x479eb04a	81248.58
28	0x4733aeca	45998.79
29	0x47283eb0	43070.688
30	0x47679665	59286.395
31	0x47b92449	94792.57

conv3.weight f4 [16, 32, 5, 5]
0	0xbe2f5f79	-0.17126264
1	0xbdc659c0	-0.09685087
2	0x3e933afb	0.28755936
3	0x3ebc2ad3	0.36751422
4	0x3dec530f	0.1153928
5	0xbdfb316b	-0.12265285
6	0x3e929271	0.2862735
7	0x3ecd7e2d	0.40135327
8	0x3e8bae5b	0.2728146
9	0x3cf01654	0.029307522
10	0xbe476a1d	-0.19474073
11	0x3e0b1f22	0.13586095
12	0x3e9778d8	0.29584384
13	0x3ec37738	0.38176894
14	0x3e98e3e8	0.2986138
15	0xbe02d067	-0.12774812
16	0x3e057c94	0.13035804
17	0x3e7402ea	0.23829237
18	0x3ed9411b	0.42432484
19	0x3defd2f4	0.11710158
20	0x3e4272b5	0.1898907
21	0x3eaf1bbc	0.34200847
22	0x3ec6c79d	0.38824168
23	0x3e66fbbf	0.22556971
24	0xbe024ef4	-0.1272543
25	0x3e9ac22d	0.3022627
26	0x3dc9ba63	0.098500036
27	0x3d16c5e8	0.03680983
28	0x3d478b20	0.048716664
29	0xbe4c2050	-0.19934201
30	0x3dcea5e7	0.10090237
31	0xbb88d3b6	-0.0041756285
32	0x3caea791	0.021320136
33	0x3e97d733	0.2965637
34	0xbe97cc21	-0.29647925
35	0x3e175ecc	0.14782256
36	0xbe2e9bc7	-0.17051612
37	0xbe875836	-0.26434487
38	0x3d2ef858	0.042717308
39	0xbe44166c	-0.19149178
40	0x3e0cbd7b	0.13744156
41	0x3e14b8ac	0.14523572
42	0xbd1145b6	-0.035466872
43	0xbd80d8d6	-0.06291358
44	0xbf107535	-0.56428844
45	0x3c77f9f2	0.015135275
46	0x3dc40350	0.09570944
47	0x3d47dd08	0.048794776
48	0x3c96935a	0.01838081
49	0xbea03727	-0.31292078
50	0x3da08103	0.07837107
51	0x3d974659	0.073864646
52	0x3da85869	0.08219988
53	0x3dd9cabd	0.106343724
54	0xbe9806dd	-0.29692736
55	0x3d0bbef6	0.03411766
56	0xbed7ed66	-0.42173308
57	0xbd997f37	-0.074949674
58	0x3df79e03	0.12090685
59	0xbe948d09	-0.2901385
60	0x3e14ff61	0.14550544
61	0xbe3bf816	-0.18356356
62	0x3e0faba9	0.14030327
63	0x3e59da30	0.21274638
64	0x3d1f2cb7	0.038861003
65	0x3d684325	0.05670466
66	0xbdf842f7	-0.121221475
67	0xbcfd3104	-0.030907162
68	0xbd22f0fc	-0.0397806
69	0x3de97d12	0.114008084
70	0x3e90ffed	0.28320256
71	0x3e371d21	0.17882206
72	0x3e2039a1	0.15646984
73	0x3cffc7ff	0.031223295
74	0x39d9faa5	0.0004157621
75	0xbe653801	-0.22384645
76	0x3b927a12	0.0044701183
77	0xbe009c28	-0.12559569
78	0x3cf1c8c7	0.029514683
79	0x3d78c2dd	0.06073271
80	0x3ddde663	0.108349584
81	0x3c64a416	0.013955137
82	0xbdd40ff5	-0.10354606
83	0x3b50e6d6	0.003187587
84	0x3ea66806	0.3250124
85	0x3e505fcd	0.20349045
86	0x3e7ba45f	0.24574421
87	0x3ddb59cf	0.10710489
88	0xbea90cda	-0.33017617
89	0xbe3158c1	-0.17319013
90	0x3e9d243c	0.30691707
91	0x3e9654d6	0.293616
92	0x3ee4165e	0.44548315
93	0x3ec2e347	0.38064024
94	0x3d21d27d	0.039507378
95	0xbd9d679b	-0.07685777
96	0x3cddc344	0.027070649
97	0x3e8c4902	0.2739945
98	0x3ed4fe45	0.41600242
99	0x3ea4d827	0.3219616
100	0x3ce7c96d	0.02829429
101	0x3ced48fb	0.028965464
102	0xbc9c2eaf	-0.01906523
103	0xbaca3879	-0.0015428207
104	0x3de16acb	0.11006697
105	0x3e7afb41	0.24509908
106	0xbe2e0cbb	-0.16997044
107	0xbe3f8dcc	-0.18706435
108	0xbe67ae52	-0.22625092
109	0xbcc53319	-0.024072217
110	0x3d4ae1af	0.049531635
111	0xbe215c7b	-0.15757935
112	0x3e202978	0.15640819
113	0x3dec9a40	0.11552858
114	0x3d4418c7	0.047875192
115	0xbd7eab45	-0.062175054
116	0xbe8aebc5	-0.27133003
117	0xbd2657be	-0.04061102
118	0xbe30324d	-0.17206688
119	0xbe6a6c61	-0.22892906
120	0xbe7654c8	-0.24055779
121	0xbea9f7ac	-0.3319677
122	0x3a88fb12	0.0010450801
123	0xbe7fce7e	-0.24981114
124	0xbef5f116	-0.48035496
125	0xbe0871eb	-0.13324706
126	0x3e50906e	0.20367596
127	0x3e78ae85	0.24285324
128	0xbcd1396a	-0.025540072
129	0xbe9b5bc2	-0.30343443
130	0x3dd109e0	0.10206962
131	0x3ebb1c64	0.36545098
132	0x3e1197f5	0.14218123
133	0xbe593769	-0.21212544
134	0xbe176cc0	-0.14787579
135	0xbe951138	-0.291147
136	0xbd652353	-0.05594189
137	0x3d96465c	0.07337639
138	0x3d42c3f6	0.047550164
139	0x3e2af694	0.16695625
140	0xbeba8a8d	-0.3643383
141	0xbe871080	-0.26379776
142	0xbd22c116	-0.039734922
143	0xbd5e09f8	-0.054208726
144	0xbe377027	-0.17913876
145	0x3e2e96da	0.17049733
146	0xbd90f87c	-0.07078645
147	0x3cec31c5	0.028832326
148	0x3dbfd2bc	0.09366366
149	0xbde811a4	-0.1133149
150	0xbe499cbd	-0.19688697
151	0xbedd06ec	-0.43169343
152	0x39937da3	0.00028131632
153	0xbc855656	-0.01627652
154	0x3e6691a6	0.22516498
155	0xbd1eb736	-0.038748942
156	0x3ddb7cbc	0.107171506
157	0x3ef33138	0.47498488
158	0x3ed63cac	0.41843164
159	0x3eb43f9f	0.3520479
160	0x3c75ee83	0.015010479
161	0x3ea7edb8	0.32798553
162	0x3f0e5287	0.55594677
163	0x3ee7ad88	0.4524958
164	0x3e72f38c	0.23725718
165	0x3cf0e36d	0.02940532
166	0x3e5f9350	0.21833539
167	0x3e1731c2	0.14765075
168	0x3d4d65b9	0.05014584
169	0xbddbcc4e	-0.107323274
170	0x3d962965	0.07332114
171	0x3e2f1c4b	0.17100637
172	0x3d0f1309	0.034930263
173	0xbe3b66e5	-0.1830097
174	0xbeaa3da9	-0.33250168
175	0xbe25a57e	-0.16176412
176	0x3e79cb09	0.24393858
177	0x3e0c896c	0.13724297
178	0xbeb39d12	-0.35080773
179	0xbf180570	-0.59383297
180	0xbc08d011	-0.008350388
181	0x3e5ef716	0.21773943
182	0x3e59e18d	0.21277447
183	0x3ccb9bb1	0.024854513
184	0xbec204f9	-0.3789442
185	0xbdbe69d7	-0.09297531
186	0xbdc403a7	-0.09571009
187	0xbe4a7cdc	-0.19774193
188	0x3d972213	0.07379546
189	0x3c0a7a11	0.008451954
190	0x3d4e7367	0.050403025
191	0x3d1c8386	0.038211368
192	0x3bcbcc27	0.006219405
193	0x3cd102b2	0.02551398
194	0x3e122011	0.14270045
195	0xbdb6404c	-0.088989824
196	0x3b3064bb	0.0026915509
197	0x3ea529f1	0.3225856
198	0x3e96f549	0.29484013
199	0x3e97f5ca	0.2967971
200	0x3deb33a3	0.11484458
201	0xbe1facf2	-0.15593317
202	0x3d5b62d4	0.053561047
203	0xbdc2698d	-0.094927885
204	0xbe97bebe	-0.29637712
205	0x3e650165	0.22363813
206	0x3cc858f8	0.024456486
207	0xbc367c02	-0.011137964
208	0xbebac8fe	-0.3648147
209	0xbec7c0a0	-0.3901415
210	0x3d7dd547	0.061970975
211	0x3ca9537e	0.020669695
212	0xbe0d218f	-0.13782333
213	0xbeaf6a23	-0.34260663
214	0xbe92fd25	-0.2870876
215	0xbd32171c	-0.04347907
216	0xbe10f2f4	-0.1415518
217	0xbe792df0	-0.2433393
218	0xbe636a5f	-0.22208546
219	0xbeaa3048	-0.3323996
220	0xbe11905d	-0.14215226
221	0xbe94c4d6	-0.29056424
222	0xbed98df2	-0.42491108
223	0xbe9a4b68	-0.30135655
224	0xbe65d535	-0.22444613
225	0xbe2c51ba	-0.16828051
226	0x3db5cb08	0.08876616
227	0x3e4f312d	0.20233603
228	0x3ccaf4e1	0.02477497
229	0x3db075a5	0.08616189
230	0xbd554c11	-0.052074496
231	0xbdd63140	-0.104586124
232	0xbdbe03ec	-0.09278092
233	0xbe4e1b60	-0.2012763
234	0xbe86146e	-0.26187462
235	0xbe373053	-0.17889528
236	0xbe391dda	-0.18077794
237	0xbe2c0830	-0.16799998
238	0x3d6719cf	0.056421097
239	0xbec004b1	-0.3750358
240	0x3c20690e	0.009790672
241	0xbe0bb227	-0.13642178
242	0xbe3401f6	-0.17578873
243	0x3e93fc6e	0.28903526
244	0xbe043b6e	-0.12913296
245	0x3e4cd3ec	0.20002717
246	0xbcdebab0	-0.027188629
247	0xbe4f4aa5	-0.20243318
248	0xbb38e77a	-0.0028214143
249	0xbe67730a	-0.22602478
250	0xbe0cf18a	-0.13764015
251	0x3e444631	0.19167401
252	0x3edb311d	0.42810908
253	0x3eb7142a	0.3575757
254	0xbefda31d	-0.49538508
255	0xbd4e163a	-0.050314166

conv3.bias f4 [16]
0	0xbe894750	-0.2681222
1	0x3f4579fb	0.7713925
2	0xbef86a07	-0.48518392
3	0xbe9147fc	-0.28375232
4	0xbf04e054	-0.519048
5	0xbe7757e1	-0.24154617
6	0x3e01a8fc	0.12662119
7	0x3ed47e6b	0.415027
8	0x3e0e1557	0.13875328
9	0xbde06284	-0.1095629
10	0xbd8ca5b8	-0.06867546
11	0xbea056c3	-0.31316194
12	0xbb3ea9d2	-0.002909292
13	0x3d20698c	0.039163157
14	0xbe44136f	-0.19148038
15	0x3f023afd	0.5087126
